{"backend": "tensorflow", "config": {"name": "densenet201", "layers": [{"name": "input_1", "config": {"name": "input_1", "batch_input_shape": [null, 224, 224, 3], "sparse": false, "dtype": "float32"}, "inbound_nodes": [], "class_name": "InputLayer"}, {"name": "zero_padding2d_1", "config": {"name": "zero_padding2d_1", "data_format": "channels_last", "padding": [[3, 3], [3, 3]], "trainable": true}, "inbound_nodes": [[["input_1", 0, 0, {}]]], "class_name": "ZeroPadding2D"}, {"name": "conv1/conv", "config": {"name": "conv1/conv", "bias_constraint": null, "strides": [2, 2], "data_format": "channels_last", "activation": "linear", "bias_initializer": {"config": {}, "class_name": "Zeros"}, "padding": "valid", "bias_regularizer": null, "kernel_constraint": null, "dilation_rate": [1, 1], "filters": 64, "use_bias": false, "trainable": true, "kernel_size": [7, 7], "kernel_regularizer": null, "kernel_initializer": {"config": {"distribution": "uniform", "scale": 1.0, "seed": null, "mode": "fan_avg"}, "class_name": "VarianceScaling"}, "activity_regularizer": null}, "inbound_nodes": [[["zero_padding2d_1", 0, 0, {}]]], "class_name": "Conv2D"}, {"name": "conv1/bn", "config": {"name": "conv1/bn", "gamma_initializer": {"config": {}, "class_name": "Ones"}, "scale": true, "momentum": 0.99, "gamma_regularizer": null, "beta_initializer": {"config": {}, "class_name": "Zeros"}, "moving_mean_initializer": {"config": {}, "class_name": "Zeros"}, "beta_constraint": null, "center": true, "gamma_constraint": null, "moving_variance_initializer": {"config": {}, "class_name": "Ones"}, "axis": 3, "beta_regularizer": null, "epsilon": 1.001e-05, "trainable": true}, "inbound_nodes": [[["conv1/conv", 0, 0, {}]]], "class_name": "BatchNormalization"}, {"name": "conv1/relu", "config": {"name": "conv1/relu", "activation": "relu", "trainable": true}, "inbound_nodes": [[["conv1/bn", 0, 0, {}]]], "class_name": "Activation"}, {"name": "zero_padding2d_2", "config": {"name": "zero_padding2d_2", "data_format": "channels_last", "padding": [[1, 1], [1, 1]], "trainable": true}, "inbound_nodes": [[["conv1/relu", 0, 0, {}]]], "class_name": "ZeroPadding2D"}, {"name": "pool1", "config": {"name": "pool1", "data_format": "channels_last", "pool_size": [3, 3], "strides": [2, 2], "padding": "valid", "trainable": true}, "inbound_nodes": [[["zero_padding2d_2", 0, 0, {}]]], "class_name": "MaxPooling2D"}, {"name": "conv2_block1_0_bn", "config": {"name": "conv2_block1_0_bn", "gamma_initializer": {"config": {}, "class_name": "Ones"}, "scale": true, "momentum": 0.99, "gamma_regularizer": null, "beta_initializer": {"config": {}, "class_name": "Zeros"}, "moving_mean_initializer": {"config": {}, "class_name": "Zeros"}, "beta_constraint": null, "center": true, "gamma_constraint": null, "moving_variance_initializer": {"config": {}, "class_name": "Ones"}, "axis": 3, "beta_regularizer": null, "epsilon": 1.001e-05, "trainable": true}, "inbound_nodes": [[["pool1", 0, 0, {}]]], "class_name": "BatchNormalization"}, {"name": "conv2_block1_0_relu", "config": {"name": "conv2_block1_0_relu", "activation": "relu", "trainable": true}, "inbound_nodes": [[["conv2_block1_0_bn", 0, 0, {}]]], "class_name": "Activation"}, {"name": "conv2_block1_1_conv", "config": {"name": "conv2_block1_1_conv", "bias_constraint": null, "strides": [1, 1], "data_format": "channels_last", "activation": "linear", "bias_initializer": {"config": {}, "class_name": "Zeros"}, "padding": "valid", "bias_regularizer": null, "kernel_constraint": null, "dilation_rate": [1, 1], "filters": 128, "use_bias": false, "trainable": true, "kernel_size": [1, 1], "kernel_regularizer": null, "kernel_initializer": {"config": {"distribution": "uniform", "scale": 1.0, "seed": null, "mode": "fan_avg"}, "class_name": "VarianceScaling"}, "activity_regularizer": null}, "inbound_nodes": [[["conv2_block1_0_relu", 0, 0, {}]]], "class_name": "Conv2D"}, {"name": "conv2_block1_1_bn", "config": {"name": "conv2_block1_1_bn", "gamma_initializer": {"config": {}, "class_name": "Ones"}, "scale": true, "momentum": 0.99, "gamma_regularizer": null, "beta_initializer": {"config": {}, "class_name": "Zeros"}, "moving_mean_initializer": {"config": {}, "class_name": "Zeros"}, "beta_constraint": null, "center": true, "gamma_constraint": null, "moving_variance_initializer": {"config": {}, "class_name": "Ones"}, "axis": 3, "beta_regularizer": null, "epsilon": 1.001e-05, "trainable": true}, "inbound_nodes": [[["conv2_block1_1_conv", 0, 0, {}]]], "class_name": "BatchNormalization"}, {"name": "conv2_block1_1_relu", "config": {"name": "conv2_block1_1_relu", "activation": "relu", "trainable": true}, "inbound_nodes": [[["conv2_block1_1_bn", 0, 0, {}]]], "class_name": "Activation"}, {"name": "conv2_block1_2_conv", "config": {"name": "conv2_block1_2_conv", "bias_constraint": null, "strides": [1, 1], "data_format": "channels_last", "activation": "linear", "bias_initializer": {"config": {}, "class_name": "Zeros"}, "padding": "same", "bias_regularizer": null, "kernel_constraint": null, "dilation_rate": [1, 1], "filters": 32, "use_bias": false, "trainable": true, "kernel_size": [3, 3], "kernel_regularizer": null, "kernel_initializer": {"config": {"distribution": "uniform", "scale": 1.0, "seed": null, "mode": "fan_avg"}, "class_name": "VarianceScaling"}, "activity_regularizer": null}, "inbound_nodes": [[["conv2_block1_1_relu", 0, 0, {}]]], "class_name": "Conv2D"}, {"name": "conv2_block1_concat", "config": {"name": "conv2_block1_concat", "axis": 3, "trainable": true}, "inbound_nodes": [[["pool1", 0, 0, {}], ["conv2_block1_2_conv", 0, 0, {}]]], "class_name": "Concatenate"}, {"name": "conv2_block2_0_bn", "config": {"name": "conv2_block2_0_bn", "gamma_initializer": {"config": {}, "class_name": "Ones"}, "scale": true, "momentum": 0.99, "gamma_regularizer": null, "beta_initializer": {"config": {}, "class_name": "Zeros"}, "moving_mean_initializer": {"config": {}, "class_name": "Zeros"}, "beta_constraint": null, "center": true, "gamma_constraint": null, "moving_variance_initializer": {"config": {}, "class_name": "Ones"}, "axis": 3, "beta_regularizer": null, "epsilon": 1.001e-05, "trainable": true}, "inbound_nodes": [[["conv2_block1_concat", 0, 0, {}]]], "class_name": "BatchNormalization"}, {"name": "conv2_block2_0_relu", "config": {"name": "conv2_block2_0_relu", "activation": "relu", "trainable": true}, "inbound_nodes": [[["conv2_block2_0_bn", 0, 0, {}]]], "class_name": "Activation"}, {"name": "conv2_block2_1_conv", "config": {"name": "conv2_block2_1_conv", "bias_constraint": null, "strides": [1, 1], "data_format": "channels_last", "activation": "linear", "bias_initializer": {"config": {}, "class_name": "Zeros"}, "padding": "valid", "bias_regularizer": null, "kernel_constraint": null, "dilation_rate": [1, 1], "filters": 128, "use_bias": false, "trainable": true, "kernel_size": [1, 1], "kernel_regularizer": null, "kernel_initializer": {"config": {"distribution": "uniform", "scale": 1.0, "seed": null, "mode": "fan_avg"}, "class_name": "VarianceScaling"}, "activity_regularizer": null}, "inbound_nodes": [[["conv2_block2_0_relu", 0, 0, {}]]], "class_name": "Conv2D"}, {"name": "conv2_block2_1_bn", "config": {"name": "conv2_block2_1_bn", "gamma_initializer": {"config": {}, "class_name": "Ones"}, "scale": true, "momentum": 0.99, "gamma_regularizer": null, "beta_initializer": {"config": {}, "class_name": "Zeros"}, "moving_mean_initializer": {"config": {}, "class_name": "Zeros"}, "beta_constraint": null, "center": true, "gamma_constraint": null, "moving_variance_initializer": {"config": {}, "class_name": "Ones"}, "axis": 3, "beta_regularizer": null, "epsilon": 1.001e-05, "trainable": true}, "inbound_nodes": [[["conv2_block2_1_conv", 0, 0, {}]]], "class_name": "BatchNormalization"}, {"name": "conv2_block2_1_relu", "config": {"name": "conv2_block2_1_relu", "activation": "relu", "trainable": true}, "inbound_nodes": [[["conv2_block2_1_bn", 0, 0, {}]]], "class_name": "Activation"}, {"name": "conv2_block2_2_conv", "config": {"name": "conv2_block2_2_conv", "bias_constraint": null, "strides": [1, 1], "data_format": "channels_last", "activation": "linear", "bias_initializer": {"config": {}, "class_name": "Zeros"}, "padding": "same", "bias_regularizer": null, "kernel_constraint": null, "dilation_rate": [1, 1], "filters": 32, "use_bias": false, "trainable": true, "kernel_size": [3, 3], "kernel_regularizer": null, "kernel_initializer": {"config": {"distribution": "uniform", "scale": 1.0, "seed": null, "mode": "fan_avg"}, "class_name": "VarianceScaling"}, "activity_regularizer": null}, "inbound_nodes": [[["conv2_block2_1_relu", 0, 0, {}]]], "class_name": "Conv2D"}, {"name": "conv2_block2_concat", "config": {"name": "conv2_block2_concat", "axis": 3, "trainable": true}, "inbound_nodes": [[["conv2_block1_concat", 0, 0, {}], ["conv2_block2_2_conv", 0, 0, {}]]], "class_name": "Concatenate"}, {"name": "conv2_block3_0_bn", "config": {"name": "conv2_block3_0_bn", "gamma_initializer": {"config": {}, "class_name": "Ones"}, "scale": true, "momentum": 0.99, "gamma_regularizer": null, "beta_initializer": {"config": {}, "class_name": "Zeros"}, "moving_mean_initializer": {"config": {}, "class_name": "Zeros"}, "beta_constraint": null, "center": true, "gamma_constraint": null, "moving_variance_initializer": {"config": {}, "class_name": "Ones"}, "axis": 3, "beta_regularizer": null, "epsilon": 1.001e-05, "trainable": true}, "inbound_nodes": [[["conv2_block2_concat", 0, 0, {}]]], "class_name": "BatchNormalization"}, {"name": "conv2_block3_0_relu", "config": {"name": "conv2_block3_0_relu", "activation": "relu", "trainable": true}, "inbound_nodes": [[["conv2_block3_0_bn", 0, 0, {}]]], "class_name": "Activation"}, {"name": "conv2_block3_1_conv", "config": {"name": "conv2_block3_1_conv", "bias_constraint": null, "strides": [1, 1], "data_format": "channels_last", "activation": "linear", "bias_initializer": {"config": {}, "class_name": "Zeros"}, "padding": "valid", "bias_regularizer": null, "kernel_constraint": null, "dilation_rate": [1, 1], "filters": 128, "use_bias": false, "trainable": true, "kernel_size": [1, 1], "kernel_regularizer": null, "kernel_initializer": {"config": {"distribution": "uniform", "scale": 1.0, "seed": null, "mode": "fan_avg"}, "class_name": "VarianceScaling"}, "activity_regularizer": null}, "inbound_nodes": [[["conv2_block3_0_relu", 0, 0, {}]]], "class_name": "Conv2D"}, {"name": "conv2_block3_1_bn", "config": {"name": "conv2_block3_1_bn", "gamma_initializer": {"config": {}, "class_name": "Ones"}, "scale": true, "momentum": 0.99, "gamma_regularizer": null, "beta_initializer": {"config": {}, "class_name": "Zeros"}, "moving_mean_initializer": {"config": {}, "class_name": "Zeros"}, "beta_constraint": null, "center": true, "gamma_constraint": null, "moving_variance_initializer": {"config": {}, "class_name": "Ones"}, "axis": 3, "beta_regularizer": null, "epsilon": 1.001e-05, "trainable": true}, "inbound_nodes": [[["conv2_block3_1_conv", 0, 0, {}]]], "class_name": "BatchNormalization"}, {"name": "conv2_block3_1_relu", "config": {"name": "conv2_block3_1_relu", "activation": "relu", "trainable": true}, "inbound_nodes": [[["conv2_block3_1_bn", 0, 0, {}]]], "class_name": "Activation"}, {"name": "conv2_block3_2_conv", "config": {"name": "conv2_block3_2_conv", "bias_constraint": null, "strides": [1, 1], "data_format": "channels_last", "activation": "linear", "bias_initializer": {"config": {}, "class_name": "Zeros"}, "padding": "same", "bias_regularizer": null, "kernel_constraint": null, "dilation_rate": [1, 1], "filters": 32, "use_bias": false, "trainable": true, "kernel_size": [3, 3], "kernel_regularizer": null, "kernel_initializer": {"config": {"distribution": "uniform", "scale": 1.0, "seed": null, "mode": "fan_avg"}, "class_name": "VarianceScaling"}, "activity_regularizer": null}, "inbound_nodes": [[["conv2_block3_1_relu", 0, 0, {}]]], "class_name": "Conv2D"}, {"name": "conv2_block3_concat", "config": {"name": "conv2_block3_concat", "axis": 3, "trainable": true}, "inbound_nodes": [[["conv2_block2_concat", 0, 0, {}], ["conv2_block3_2_conv", 0, 0, {}]]], "class_name": "Concatenate"}, {"name": "conv2_block4_0_bn", "config": {"name": "conv2_block4_0_bn", "gamma_initializer": {"config": {}, "class_name": "Ones"}, "scale": true, "momentum": 0.99, "gamma_regularizer": null, "beta_initializer": {"config": {}, "class_name": "Zeros"}, "moving_mean_initializer": {"config": {}, "class_name": "Zeros"}, "beta_constraint": null, "center": true, "gamma_constraint": null, "moving_variance_initializer": {"config": {}, "class_name": "Ones"}, "axis": 3, "beta_regularizer": null, "epsilon": 1.001e-05, "trainable": true}, "inbound_nodes": [[["conv2_block3_concat", 0, 0, {}]]], "class_name": "BatchNormalization"}, {"name": "conv2_block4_0_relu", "config": {"name": "conv2_block4_0_relu", "activation": "relu", "trainable": true}, "inbound_nodes": [[["conv2_block4_0_bn", 0, 0, {}]]], "class_name": "Activation"}, {"name": "conv2_block4_1_conv", "config": {"name": "conv2_block4_1_conv", "bias_constraint": null, "strides": [1, 1], "data_format": "channels_last", "activation": "linear", "bias_initializer": {"config": {}, "class_name": "Zeros"}, "padding": "valid", "bias_regularizer": null, "kernel_constraint": null, "dilation_rate": [1, 1], "filters": 128, "use_bias": false, "trainable": true, "kernel_size": [1, 1], "kernel_regularizer": null, "kernel_initializer": {"config": {"distribution": "uniform", "scale": 1.0, "seed": null, "mode": "fan_avg"}, "class_name": "VarianceScaling"}, "activity_regularizer": null}, "inbound_nodes": [[["conv2_block4_0_relu", 0, 0, {}]]], "class_name": "Conv2D"}, {"name": "conv2_block4_1_bn", "config": {"name": "conv2_block4_1_bn", "gamma_initializer": {"config": {}, "class_name": "Ones"}, "scale": true, "momentum": 0.99, "gamma_regularizer": null, "beta_initializer": {"config": {}, "class_name": "Zeros"}, "moving_mean_initializer": {"config": {}, "class_name": "Zeros"}, "beta_constraint": null, "center": true, "gamma_constraint": null, "moving_variance_initializer": {"config": {}, "class_name": "Ones"}, "axis": 3, "beta_regularizer": null, "epsilon": 1.001e-05, "trainable": true}, "inbound_nodes": [[["conv2_block4_1_conv", 0, 0, {}]]], "class_name": "BatchNormalization"}, {"name": "conv2_block4_1_relu", "config": {"name": "conv2_block4_1_relu", "activation": "relu", "trainable": true}, "inbound_nodes": [[["conv2_block4_1_bn", 0, 0, {}]]], "class_name": "Activation"}, {"name": "conv2_block4_2_conv", "config": {"name": "conv2_block4_2_conv", "bias_constraint": null, "strides": [1, 1], "data_format": "channels_last", "activation": "linear", "bias_initializer": {"config": {}, "class_name": "Zeros"}, "padding": "same", "bias_regularizer": null, "kernel_constraint": null, "dilation_rate": [1, 1], "filters": 32, "use_bias": false, "trainable": true, "kernel_size": [3, 3], "kernel_regularizer": null, "kernel_initializer": {"config": {"distribution": "uniform", "scale": 1.0, "seed": null, "mode": "fan_avg"}, "class_name": "VarianceScaling"}, "activity_regularizer": null}, "inbound_nodes": [[["conv2_block4_1_relu", 0, 0, {}]]], "class_name": "Conv2D"}, {"name": "conv2_block4_concat", "config": {"name": "conv2_block4_concat", "axis": 3, "trainable": true}, "inbound_nodes": [[["conv2_block3_concat", 0, 0, {}], ["conv2_block4_2_conv", 0, 0, {}]]], "class_name": "Concatenate"}, {"name": "conv2_block5_0_bn", "config": {"name": "conv2_block5_0_bn", "gamma_initializer": {"config": {}, "class_name": "Ones"}, "scale": true, "momentum": 0.99, "gamma_regularizer": null, "beta_initializer": {"config": {}, "class_name": "Zeros"}, "moving_mean_initializer": {"config": {}, "class_name": "Zeros"}, "beta_constraint": null, "center": true, "gamma_constraint": null, "moving_variance_initializer": {"config": {}, "class_name": "Ones"}, "axis": 3, "beta_regularizer": null, "epsilon": 1.001e-05, "trainable": true}, "inbound_nodes": [[["conv2_block4_concat", 0, 0, {}]]], "class_name": "BatchNormalization"}, {"name": "conv2_block5_0_relu", "config": {"name": "conv2_block5_0_relu", "activation": "relu", "trainable": true}, "inbound_nodes": [[["conv2_block5_0_bn", 0, 0, {}]]], "class_name": "Activation"}, {"name": "conv2_block5_1_conv", "config": {"name": "conv2_block5_1_conv", "bias_constraint": null, "strides": [1, 1], "data_format": "channels_last", "activation": "linear", "bias_initializer": {"config": {}, "class_name": "Zeros"}, "padding": "valid", "bias_regularizer": null, "kernel_constraint": null, "dilation_rate": [1, 1], "filters": 128, "use_bias": false, "trainable": true, "kernel_size": [1, 1], "kernel_regularizer": null, "kernel_initializer": {"config": {"distribution": "uniform", "scale": 1.0, "seed": null, "mode": "fan_avg"}, "class_name": "VarianceScaling"}, "activity_regularizer": null}, "inbound_nodes": [[["conv2_block5_0_relu", 0, 0, {}]]], "class_name": "Conv2D"}, {"name": "conv2_block5_1_bn", "config": {"name": "conv2_block5_1_bn", "gamma_initializer": {"config": {}, "class_name": "Ones"}, "scale": true, "momentum": 0.99, "gamma_regularizer": null, "beta_initializer": {"config": {}, "class_name": "Zeros"}, "moving_mean_initializer": {"config": {}, "class_name": "Zeros"}, "beta_constraint": null, "center": true, "gamma_constraint": null, "moving_variance_initializer": {"config": {}, "class_name": "Ones"}, "axis": 3, "beta_regularizer": null, "epsilon": 1.001e-05, "trainable": true}, "inbound_nodes": [[["conv2_block5_1_conv", 0, 0, {}]]], "class_name": "BatchNormalization"}, {"name": "conv2_block5_1_relu", "config": {"name": "conv2_block5_1_relu", "activation": "relu", "trainable": true}, "inbound_nodes": [[["conv2_block5_1_bn", 0, 0, {}]]], "class_name": "Activation"}, {"name": "conv2_block5_2_conv", "config": {"name": "conv2_block5_2_conv", "bias_constraint": null, "strides": [1, 1], "data_format": "channels_last", "activation": "linear", "bias_initializer": {"config": {}, "class_name": "Zeros"}, "padding": "same", "bias_regularizer": null, "kernel_constraint": null, "dilation_rate": [1, 1], "filters": 32, "use_bias": false, "trainable": true, "kernel_size": [3, 3], "kernel_regularizer": null, "kernel_initializer": {"config": {"distribution": "uniform", "scale": 1.0, "seed": null, "mode": "fan_avg"}, "class_name": "VarianceScaling"}, "activity_regularizer": null}, "inbound_nodes": [[["conv2_block5_1_relu", 0, 0, {}]]], "class_name": "Conv2D"}, {"name": "conv2_block5_concat", "config": {"name": "conv2_block5_concat", "axis": 3, "trainable": true}, "inbound_nodes": [[["conv2_block4_concat", 0, 0, {}], ["conv2_block5_2_conv", 0, 0, {}]]], "class_name": "Concatenate"}, {"name": "conv2_block6_0_bn", "config": {"name": "conv2_block6_0_bn", "gamma_initializer": {"config": {}, "class_name": "Ones"}, "scale": true, "momentum": 0.99, "gamma_regularizer": null, "beta_initializer": {"config": {}, "class_name": "Zeros"}, "moving_mean_initializer": {"config": {}, "class_name": "Zeros"}, "beta_constraint": null, "center": true, "gamma_constraint": null, "moving_variance_initializer": {"config": {}, "class_name": "Ones"}, "axis": 3, "beta_regularizer": null, "epsilon": 1.001e-05, "trainable": true}, "inbound_nodes": [[["conv2_block5_concat", 0, 0, {}]]], "class_name": "BatchNormalization"}, {"name": "conv2_block6_0_relu", "config": {"name": "conv2_block6_0_relu", "activation": "relu", "trainable": true}, "inbound_nodes": [[["conv2_block6_0_bn", 0, 0, {}]]], "class_name": "Activation"}, {"name": "conv2_block6_1_conv", "config": {"name": "conv2_block6_1_conv", "bias_constraint": null, "strides": [1, 1], "data_format": "channels_last", "activation": "linear", "bias_initializer": {"config": {}, "class_name": "Zeros"}, "padding": "valid", "bias_regularizer": null, "kernel_constraint": null, "dilation_rate": [1, 1], "filters": 128, "use_bias": false, "trainable": true, "kernel_size": [1, 1], "kernel_regularizer": null, "kernel_initializer": {"config": {"distribution": "uniform", "scale": 1.0, "seed": null, "mode": "fan_avg"}, "class_name": "VarianceScaling"}, "activity_regularizer": null}, "inbound_nodes": [[["conv2_block6_0_relu", 0, 0, {}]]], "class_name": "Conv2D"}, {"name": "conv2_block6_1_bn", "config": {"name": "conv2_block6_1_bn", "gamma_initializer": {"config": {}, "class_name": "Ones"}, "scale": true, "momentum": 0.99, "gamma_regularizer": null, "beta_initializer": {"config": {}, "class_name": "Zeros"}, "moving_mean_initializer": {"config": {}, "class_name": "Zeros"}, "beta_constraint": null, "center": true, "gamma_constraint": null, "moving_variance_initializer": {"config": {}, "class_name": "Ones"}, "axis": 3, "beta_regularizer": null, "epsilon": 1.001e-05, "trainable": true}, "inbound_nodes": [[["conv2_block6_1_conv", 0, 0, {}]]], "class_name": "BatchNormalization"}, {"name": "conv2_block6_1_relu", "config": {"name": "conv2_block6_1_relu", "activation": "relu", "trainable": true}, "inbound_nodes": [[["conv2_block6_1_bn", 0, 0, {}]]], "class_name": "Activation"}, {"name": "conv2_block6_2_conv", "config": {"name": "conv2_block6_2_conv", "bias_constraint": null, "strides": [1, 1], "data_format": "channels_last", "activation": "linear", "bias_initializer": {"config": {}, "class_name": "Zeros"}, "padding": "same", "bias_regularizer": null, "kernel_constraint": null, "dilation_rate": [1, 1], "filters": 32, "use_bias": false, "trainable": true, "kernel_size": [3, 3], "kernel_regularizer": null, "kernel_initializer": {"config": {"distribution": "uniform", "scale": 1.0, "seed": null, "mode": "fan_avg"}, "class_name": "VarianceScaling"}, "activity_regularizer": null}, "inbound_nodes": [[["conv2_block6_1_relu", 0, 0, {}]]], "class_name": "Conv2D"}, {"name": "conv2_block6_concat", "config": {"name": "conv2_block6_concat", "axis": 3, "trainable": true}, "inbound_nodes": [[["conv2_block5_concat", 0, 0, {}], ["conv2_block6_2_conv", 0, 0, {}]]], "class_name": "Concatenate"}, {"name": "pool2_bn", "config": {"name": "pool2_bn", "gamma_initializer": {"config": {}, "class_name": "Ones"}, "scale": true, "momentum": 0.99, "gamma_regularizer": null, "beta_initializer": {"config": {}, "class_name": "Zeros"}, "moving_mean_initializer": {"config": {}, "class_name": "Zeros"}, "beta_constraint": null, "center": true, "gamma_constraint": null, "moving_variance_initializer": {"config": {}, "class_name": "Ones"}, "axis": 3, "beta_regularizer": null, "epsilon": 1.001e-05, "trainable": true}, "inbound_nodes": [[["conv2_block6_concat", 0, 0, {}]]], "class_name": "BatchNormalization"}, {"name": "pool2_relu", "config": {"name": "pool2_relu", "activation": "relu", "trainable": true}, "inbound_nodes": [[["pool2_bn", 0, 0, {}]]], "class_name": "Activation"}, {"name": "pool2_conv", "config": {"name": "pool2_conv", "bias_constraint": null, "strides": [1, 1], "data_format": "channels_last", "activation": "linear", "bias_initializer": {"config": {}, "class_name": "Zeros"}, "padding": "valid", "bias_regularizer": null, "kernel_constraint": null, "dilation_rate": [1, 1], "filters": 128, "use_bias": false, "trainable": true, "kernel_size": [1, 1], "kernel_regularizer": null, "kernel_initializer": {"config": {"distribution": "uniform", "scale": 1.0, "seed": null, "mode": "fan_avg"}, "class_name": "VarianceScaling"}, "activity_regularizer": null}, "inbound_nodes": [[["pool2_relu", 0, 0, {}]]], "class_name": "Conv2D"}, {"name": "pool2_pool", "config": {"name": "pool2_pool", "data_format": "channels_last", "pool_size": [2, 2], "strides": [2, 2], "padding": "valid", "trainable": true}, "inbound_nodes": [[["pool2_conv", 0, 0, {}]]], "class_name": "AveragePooling2D"}, {"name": "conv3_block1_0_bn", "config": {"name": "conv3_block1_0_bn", "gamma_initializer": {"config": {}, "class_name": "Ones"}, "scale": true, "momentum": 0.99, "gamma_regularizer": null, "beta_initializer": {"config": {}, "class_name": "Zeros"}, "moving_mean_initializer": {"config": {}, "class_name": "Zeros"}, "beta_constraint": null, "center": true, "gamma_constraint": null, "moving_variance_initializer": {"config": {}, "class_name": "Ones"}, "axis": 3, "beta_regularizer": null, "epsilon": 1.001e-05, "trainable": true}, "inbound_nodes": [[["pool2_pool", 0, 0, {}]]], "class_name": "BatchNormalization"}, {"name": "conv3_block1_0_relu", "config": {"name": "conv3_block1_0_relu", "activation": "relu", "trainable": true}, "inbound_nodes": [[["conv3_block1_0_bn", 0, 0, {}]]], "class_name": "Activation"}, {"name": "conv3_block1_1_conv", "config": {"name": "conv3_block1_1_conv", "bias_constraint": null, "strides": [1, 1], "data_format": "channels_last", "activation": "linear", "bias_initializer": {"config": {}, "class_name": "Zeros"}, "padding": "valid", "bias_regularizer": null, "kernel_constraint": null, "dilation_rate": [1, 1], "filters": 128, "use_bias": false, "trainable": true, "kernel_size": [1, 1], "kernel_regularizer": null, "kernel_initializer": {"config": {"distribution": "uniform", "scale": 1.0, "seed": null, "mode": "fan_avg"}, "class_name": "VarianceScaling"}, "activity_regularizer": null}, "inbound_nodes": [[["conv3_block1_0_relu", 0, 0, {}]]], "class_name": "Conv2D"}, {"name": "conv3_block1_1_bn", "config": {"name": "conv3_block1_1_bn", "gamma_initializer": {"config": {}, "class_name": "Ones"}, "scale": true, "momentum": 0.99, "gamma_regularizer": null, "beta_initializer": {"config": {}, "class_name": "Zeros"}, "moving_mean_initializer": {"config": {}, "class_name": "Zeros"}, "beta_constraint": null, "center": true, "gamma_constraint": null, "moving_variance_initializer": {"config": {}, "class_name": "Ones"}, "axis": 3, "beta_regularizer": null, "epsilon": 1.001e-05, "trainable": true}, "inbound_nodes": [[["conv3_block1_1_conv", 0, 0, {}]]], "class_name": "BatchNormalization"}, {"name": "conv3_block1_1_relu", "config": {"name": "conv3_block1_1_relu", "activation": "relu", "trainable": true}, "inbound_nodes": [[["conv3_block1_1_bn", 0, 0, {}]]], "class_name": "Activation"}, {"name": "conv3_block1_2_conv", "config": {"name": "conv3_block1_2_conv", "bias_constraint": null, "strides": [1, 1], "data_format": "channels_last", "activation": "linear", "bias_initializer": {"config": {}, "class_name": "Zeros"}, "padding": "same", "bias_regularizer": null, "kernel_constraint": null, "dilation_rate": [1, 1], "filters": 32, "use_bias": false, "trainable": true, "kernel_size": [3, 3], "kernel_regularizer": null, "kernel_initializer": {"config": {"distribution": "uniform", "scale": 1.0, "seed": null, "mode": "fan_avg"}, "class_name": "VarianceScaling"}, "activity_regularizer": null}, "inbound_nodes": [[["conv3_block1_1_relu", 0, 0, {}]]], "class_name": "Conv2D"}, {"name": "conv3_block1_concat", "config": {"name": "conv3_block1_concat", "axis": 3, "trainable": true}, "inbound_nodes": [[["pool2_pool", 0, 0, {}], ["conv3_block1_2_conv", 0, 0, {}]]], "class_name": "Concatenate"}, {"name": "conv3_block2_0_bn", "config": {"name": "conv3_block2_0_bn", "gamma_initializer": {"config": {}, "class_name": "Ones"}, "scale": true, "momentum": 0.99, "gamma_regularizer": null, "beta_initializer": {"config": {}, "class_name": "Zeros"}, "moving_mean_initializer": {"config": {}, "class_name": "Zeros"}, "beta_constraint": null, "center": true, "gamma_constraint": null, "moving_variance_initializer": {"config": {}, "class_name": "Ones"}, "axis": 3, "beta_regularizer": null, "epsilon": 1.001e-05, "trainable": true}, "inbound_nodes": [[["conv3_block1_concat", 0, 0, {}]]], "class_name": "BatchNormalization"}, {"name": "conv3_block2_0_relu", "config": {"name": "conv3_block2_0_relu", "activation": "relu", "trainable": true}, "inbound_nodes": [[["conv3_block2_0_bn", 0, 0, {}]]], "class_name": "Activation"}, {"name": "conv3_block2_1_conv", "config": {"name": "conv3_block2_1_conv", "bias_constraint": null, "strides": [1, 1], "data_format": "channels_last", "activation": "linear", "bias_initializer": {"config": {}, "class_name": "Zeros"}, "padding": "valid", "bias_regularizer": null, "kernel_constraint": null, "dilation_rate": [1, 1], "filters": 128, "use_bias": false, "trainable": true, "kernel_size": [1, 1], "kernel_regularizer": null, "kernel_initializer": {"config": {"distribution": "uniform", "scale": 1.0, "seed": null, "mode": "fan_avg"}, "class_name": "VarianceScaling"}, "activity_regularizer": null}, "inbound_nodes": [[["conv3_block2_0_relu", 0, 0, {}]]], "class_name": "Conv2D"}, {"name": "conv3_block2_1_bn", "config": {"name": "conv3_block2_1_bn", "gamma_initializer": {"config": {}, "class_name": "Ones"}, "scale": true, "momentum": 0.99, "gamma_regularizer": null, "beta_initializer": {"config": {}, "class_name": "Zeros"}, "moving_mean_initializer": {"config": {}, "class_name": "Zeros"}, "beta_constraint": null, "center": true, "gamma_constraint": null, "moving_variance_initializer": {"config": {}, "class_name": "Ones"}, "axis": 3, "beta_regularizer": null, "epsilon": 1.001e-05, "trainable": true}, "inbound_nodes": [[["conv3_block2_1_conv", 0, 0, {}]]], "class_name": "BatchNormalization"}, {"name": "conv3_block2_1_relu", "config": {"name": "conv3_block2_1_relu", "activation": "relu", "trainable": true}, "inbound_nodes": [[["conv3_block2_1_bn", 0, 0, {}]]], "class_name": "Activation"}, {"name": "conv3_block2_2_conv", "config": {"name": "conv3_block2_2_conv", "bias_constraint": null, "strides": [1, 1], "data_format": "channels_last", "activation": "linear", "bias_initializer": {"config": {}, "class_name": "Zeros"}, "padding": "same", "bias_regularizer": null, "kernel_constraint": null, "dilation_rate": [1, 1], "filters": 32, "use_bias": false, "trainable": true, "kernel_size": [3, 3], "kernel_regularizer": null, "kernel_initializer": {"config": {"distribution": "uniform", "scale": 1.0, "seed": null, "mode": "fan_avg"}, "class_name": "VarianceScaling"}, "activity_regularizer": null}, "inbound_nodes": [[["conv3_block2_1_relu", 0, 0, {}]]], "class_name": "Conv2D"}, {"name": "conv3_block2_concat", "config": {"name": "conv3_block2_concat", "axis": 3, "trainable": true}, "inbound_nodes": [[["conv3_block1_concat", 0, 0, {}], ["conv3_block2_2_conv", 0, 0, {}]]], "class_name": "Concatenate"}, {"name": "conv3_block3_0_bn", "config": {"name": "conv3_block3_0_bn", "gamma_initializer": {"config": {}, "class_name": "Ones"}, "scale": true, "momentum": 0.99, "gamma_regularizer": null, "beta_initializer": {"config": {}, "class_name": "Zeros"}, "moving_mean_initializer": {"config": {}, "class_name": "Zeros"}, "beta_constraint": null, "center": true, "gamma_constraint": null, "moving_variance_initializer": {"config": {}, "class_name": "Ones"}, "axis": 3, "beta_regularizer": null, "epsilon": 1.001e-05, "trainable": true}, "inbound_nodes": [[["conv3_block2_concat", 0, 0, {}]]], "class_name": "BatchNormalization"}, {"name": "conv3_block3_0_relu", "config": {"name": "conv3_block3_0_relu", "activation": "relu", "trainable": true}, "inbound_nodes": [[["conv3_block3_0_bn", 0, 0, {}]]], "class_name": "Activation"}, {"name": "conv3_block3_1_conv", "config": {"name": "conv3_block3_1_conv", "bias_constraint": null, "strides": [1, 1], "data_format": "channels_last", "activation": "linear", "bias_initializer": {"config": {}, "class_name": "Zeros"}, "padding": "valid", "bias_regularizer": null, "kernel_constraint": null, "dilation_rate": [1, 1], "filters": 128, "use_bias": false, "trainable": true, "kernel_size": [1, 1], "kernel_regularizer": null, "kernel_initializer": {"config": {"distribution": "uniform", "scale": 1.0, "seed": null, "mode": "fan_avg"}, "class_name": "VarianceScaling"}, "activity_regularizer": null}, "inbound_nodes": [[["conv3_block3_0_relu", 0, 0, {}]]], "class_name": "Conv2D"}, {"name": "conv3_block3_1_bn", "config": {"name": "conv3_block3_1_bn", "gamma_initializer": {"config": {}, "class_name": "Ones"}, "scale": true, "momentum": 0.99, "gamma_regularizer": null, "beta_initializer": {"config": {}, "class_name": "Zeros"}, "moving_mean_initializer": {"config": {}, "class_name": "Zeros"}, "beta_constraint": null, "center": true, "gamma_constraint": null, "moving_variance_initializer": {"config": {}, "class_name": "Ones"}, "axis": 3, "beta_regularizer": null, "epsilon": 1.001e-05, "trainable": true}, "inbound_nodes": [[["conv3_block3_1_conv", 0, 0, {}]]], "class_name": "BatchNormalization"}, {"name": "conv3_block3_1_relu", "config": {"name": "conv3_block3_1_relu", "activation": "relu", "trainable": true}, "inbound_nodes": [[["conv3_block3_1_bn", 0, 0, {}]]], "class_name": "Activation"}, {"name": "conv3_block3_2_conv", "config": {"name": "conv3_block3_2_conv", "bias_constraint": null, "strides": [1, 1], "data_format": "channels_last", "activation": "linear", "bias_initializer": {"config": {}, "class_name": "Zeros"}, "padding": "same", "bias_regularizer": null, "kernel_constraint": null, "dilation_rate": [1, 1], "filters": 32, "use_bias": false, "trainable": true, "kernel_size": [3, 3], "kernel_regularizer": null, "kernel_initializer": {"config": {"distribution": "uniform", "scale": 1.0, "seed": null, "mode": "fan_avg"}, "class_name": "VarianceScaling"}, "activity_regularizer": null}, "inbound_nodes": [[["conv3_block3_1_relu", 0, 0, {}]]], "class_name": "Conv2D"}, {"name": "conv3_block3_concat", "config": {"name": "conv3_block3_concat", "axis": 3, "trainable": true}, "inbound_nodes": [[["conv3_block2_concat", 0, 0, {}], ["conv3_block3_2_conv", 0, 0, {}]]], "class_name": "Concatenate"}, {"name": "conv3_block4_0_bn", "config": {"name": "conv3_block4_0_bn", "gamma_initializer": {"config": {}, "class_name": "Ones"}, "scale": true, "momentum": 0.99, "gamma_regularizer": null, "beta_initializer": {"config": {}, "class_name": "Zeros"}, "moving_mean_initializer": {"config": {}, "class_name": "Zeros"}, "beta_constraint": null, "center": true, "gamma_constraint": null, "moving_variance_initializer": {"config": {}, "class_name": "Ones"}, "axis": 3, "beta_regularizer": null, "epsilon": 1.001e-05, "trainable": true}, "inbound_nodes": [[["conv3_block3_concat", 0, 0, {}]]], "class_name": "BatchNormalization"}, {"name": "conv3_block4_0_relu", "config": {"name": "conv3_block4_0_relu", "activation": "relu", "trainable": true}, "inbound_nodes": [[["conv3_block4_0_bn", 0, 0, {}]]], "class_name": "Activation"}, {"name": "conv3_block4_1_conv", "config": {"name": "conv3_block4_1_conv", "bias_constraint": null, "strides": [1, 1], "data_format": "channels_last", "activation": "linear", "bias_initializer": {"config": {}, "class_name": "Zeros"}, "padding": "valid", "bias_regularizer": null, "kernel_constraint": null, "dilation_rate": [1, 1], "filters": 128, "use_bias": false, "trainable": true, "kernel_size": [1, 1], "kernel_regularizer": null, "kernel_initializer": {"config": {"distribution": "uniform", "scale": 1.0, "seed": null, "mode": "fan_avg"}, "class_name": "VarianceScaling"}, "activity_regularizer": null}, "inbound_nodes": [[["conv3_block4_0_relu", 0, 0, {}]]], "class_name": "Conv2D"}, {"name": "conv3_block4_1_bn", "config": {"name": "conv3_block4_1_bn", "gamma_initializer": {"config": {}, "class_name": "Ones"}, "scale": true, "momentum": 0.99, "gamma_regularizer": null, "beta_initializer": {"config": {}, "class_name": "Zeros"}, "moving_mean_initializer": {"config": {}, "class_name": "Zeros"}, "beta_constraint": null, "center": true, "gamma_constraint": null, "moving_variance_initializer": {"config": {}, "class_name": "Ones"}, "axis": 3, "beta_regularizer": null, "epsilon": 1.001e-05, "trainable": true}, "inbound_nodes": [[["conv3_block4_1_conv", 0, 0, {}]]], "class_name": "BatchNormalization"}, {"name": "conv3_block4_1_relu", "config": {"name": "conv3_block4_1_relu", "activation": "relu", "trainable": true}, "inbound_nodes": [[["conv3_block4_1_bn", 0, 0, {}]]], "class_name": "Activation"}, {"name": "conv3_block4_2_conv", "config": {"name": "conv3_block4_2_conv", "bias_constraint": null, "strides": [1, 1], "data_format": "channels_last", "activation": "linear", "bias_initializer": {"config": {}, "class_name": "Zeros"}, "padding": "same", "bias_regularizer": null, "kernel_constraint": null, "dilation_rate": [1, 1], "filters": 32, "use_bias": false, "trainable": true, "kernel_size": [3, 3], "kernel_regularizer": null, "kernel_initializer": {"config": {"distribution": "uniform", "scale": 1.0, "seed": null, "mode": "fan_avg"}, "class_name": "VarianceScaling"}, "activity_regularizer": null}, "inbound_nodes": [[["conv3_block4_1_relu", 0, 0, {}]]], "class_name": "Conv2D"}, {"name": "conv3_block4_concat", "config": {"name": "conv3_block4_concat", "axis": 3, "trainable": true}, "inbound_nodes": [[["conv3_block3_concat", 0, 0, {}], ["conv3_block4_2_conv", 0, 0, {}]]], "class_name": "Concatenate"}, {"name": "conv3_block5_0_bn", "config": {"name": "conv3_block5_0_bn", "gamma_initializer": {"config": {}, "class_name": "Ones"}, "scale": true, "momentum": 0.99, "gamma_regularizer": null, "beta_initializer": {"config": {}, "class_name": "Zeros"}, "moving_mean_initializer": {"config": {}, "class_name": "Zeros"}, "beta_constraint": null, "center": true, "gamma_constraint": null, "moving_variance_initializer": {"config": {}, "class_name": "Ones"}, "axis": 3, "beta_regularizer": null, "epsilon": 1.001e-05, "trainable": true}, "inbound_nodes": [[["conv3_block4_concat", 0, 0, {}]]], "class_name": "BatchNormalization"}, {"name": "conv3_block5_0_relu", "config": {"name": "conv3_block5_0_relu", "activation": "relu", "trainable": true}, "inbound_nodes": [[["conv3_block5_0_bn", 0, 0, {}]]], "class_name": "Activation"}, {"name": "conv3_block5_1_conv", "config": {"name": "conv3_block5_1_conv", "bias_constraint": null, "strides": [1, 1], "data_format": "channels_last", "activation": "linear", "bias_initializer": {"config": {}, "class_name": "Zeros"}, "padding": "valid", "bias_regularizer": null, "kernel_constraint": null, "dilation_rate": [1, 1], "filters": 128, "use_bias": false, "trainable": true, "kernel_size": [1, 1], "kernel_regularizer": null, "kernel_initializer": {"config": {"distribution": "uniform", "scale": 1.0, "seed": null, "mode": "fan_avg"}, "class_name": "VarianceScaling"}, "activity_regularizer": null}, "inbound_nodes": [[["conv3_block5_0_relu", 0, 0, {}]]], "class_name": "Conv2D"}, {"name": "conv3_block5_1_bn", "config": {"name": "conv3_block5_1_bn", "gamma_initializer": {"config": {}, "class_name": "Ones"}, "scale": true, "momentum": 0.99, "gamma_regularizer": null, "beta_initializer": {"config": {}, "class_name": "Zeros"}, "moving_mean_initializer": {"config": {}, "class_name": "Zeros"}, "beta_constraint": null, "center": true, "gamma_constraint": null, "moving_variance_initializer": {"config": {}, "class_name": "Ones"}, "axis": 3, "beta_regularizer": null, "epsilon": 1.001e-05, "trainable": true}, "inbound_nodes": [[["conv3_block5_1_conv", 0, 0, {}]]], "class_name": "BatchNormalization"}, {"name": "conv3_block5_1_relu", "config": {"name": "conv3_block5_1_relu", "activation": "relu", "trainable": true}, "inbound_nodes": [[["conv3_block5_1_bn", 0, 0, {}]]], "class_name": "Activation"}, {"name": "conv3_block5_2_conv", "config": {"name": "conv3_block5_2_conv", "bias_constraint": null, "strides": [1, 1], "data_format": "channels_last", "activation": "linear", "bias_initializer": {"config": {}, "class_name": "Zeros"}, "padding": "same", "bias_regularizer": null, "kernel_constraint": null, "dilation_rate": [1, 1], "filters": 32, "use_bias": false, "trainable": true, "kernel_size": [3, 3], "kernel_regularizer": null, "kernel_initializer": {"config": {"distribution": "uniform", "scale": 1.0, "seed": null, "mode": "fan_avg"}, "class_name": "VarianceScaling"}, "activity_regularizer": null}, "inbound_nodes": [[["conv3_block5_1_relu", 0, 0, {}]]], "class_name": "Conv2D"}, {"name": "conv3_block5_concat", "config": {"name": "conv3_block5_concat", "axis": 3, "trainable": true}, "inbound_nodes": [[["conv3_block4_concat", 0, 0, {}], ["conv3_block5_2_conv", 0, 0, {}]]], "class_name": "Concatenate"}, {"name": "conv3_block6_0_bn", "config": {"name": "conv3_block6_0_bn", "gamma_initializer": {"config": {}, "class_name": "Ones"}, "scale": true, "momentum": 0.99, "gamma_regularizer": null, "beta_initializer": {"config": {}, "class_name": "Zeros"}, "moving_mean_initializer": {"config": {}, "class_name": "Zeros"}, "beta_constraint": null, "center": true, "gamma_constraint": null, "moving_variance_initializer": {"config": {}, "class_name": "Ones"}, "axis": 3, "beta_regularizer": null, "epsilon": 1.001e-05, "trainable": true}, "inbound_nodes": [[["conv3_block5_concat", 0, 0, {}]]], "class_name": "BatchNormalization"}, {"name": "conv3_block6_0_relu", "config": {"name": "conv3_block6_0_relu", "activation": "relu", "trainable": true}, "inbound_nodes": [[["conv3_block6_0_bn", 0, 0, {}]]], "class_name": "Activation"}, {"name": "conv3_block6_1_conv", "config": {"name": "conv3_block6_1_conv", "bias_constraint": null, "strides": [1, 1], "data_format": "channels_last", "activation": "linear", "bias_initializer": {"config": {}, "class_name": "Zeros"}, "padding": "valid", "bias_regularizer": null, "kernel_constraint": null, "dilation_rate": [1, 1], "filters": 128, "use_bias": false, "trainable": true, "kernel_size": [1, 1], "kernel_regularizer": null, "kernel_initializer": {"config": {"distribution": "uniform", "scale": 1.0, "seed": null, "mode": "fan_avg"}, "class_name": "VarianceScaling"}, "activity_regularizer": null}, "inbound_nodes": [[["conv3_block6_0_relu", 0, 0, {}]]], "class_name": "Conv2D"}, {"name": "conv3_block6_1_bn", "config": {"name": "conv3_block6_1_bn", "gamma_initializer": {"config": {}, "class_name": "Ones"}, "scale": true, "momentum": 0.99, "gamma_regularizer": null, "beta_initializer": {"config": {}, "class_name": "Zeros"}, "moving_mean_initializer": {"config": {}, "class_name": "Zeros"}, "beta_constraint": null, "center": true, "gamma_constraint": null, "moving_variance_initializer": {"config": {}, "class_name": "Ones"}, "axis": 3, "beta_regularizer": null, "epsilon": 1.001e-05, "trainable": true}, "inbound_nodes": [[["conv3_block6_1_conv", 0, 0, {}]]], "class_name": "BatchNormalization"}, {"name": "conv3_block6_1_relu", "config": {"name": "conv3_block6_1_relu", "activation": "relu", "trainable": true}, "inbound_nodes": [[["conv3_block6_1_bn", 0, 0, {}]]], "class_name": "Activation"}, {"name": "conv3_block6_2_conv", "config": {"name": "conv3_block6_2_conv", "bias_constraint": null, "strides": [1, 1], "data_format": "channels_last", "activation": "linear", "bias_initializer": {"config": {}, "class_name": "Zeros"}, "padding": "same", "bias_regularizer": null, "kernel_constraint": null, "dilation_rate": [1, 1], "filters": 32, "use_bias": false, "trainable": true, "kernel_size": [3, 3], "kernel_regularizer": null, "kernel_initializer": {"config": {"distribution": "uniform", "scale": 1.0, "seed": null, "mode": "fan_avg"}, "class_name": "VarianceScaling"}, "activity_regularizer": null}, "inbound_nodes": [[["conv3_block6_1_relu", 0, 0, {}]]], "class_name": "Conv2D"}, {"name": "conv3_block6_concat", "config": {"name": "conv3_block6_concat", "axis": 3, "trainable": true}, "inbound_nodes": [[["conv3_block5_concat", 0, 0, {}], ["conv3_block6_2_conv", 0, 0, {}]]], "class_name": "Concatenate"}, {"name": "conv3_block7_0_bn", "config": {"name": "conv3_block7_0_bn", "gamma_initializer": {"config": {}, "class_name": "Ones"}, "scale": true, "momentum": 0.99, "gamma_regularizer": null, "beta_initializer": {"config": {}, "class_name": "Zeros"}, "moving_mean_initializer": {"config": {}, "class_name": "Zeros"}, "beta_constraint": null, "center": true, "gamma_constraint": null, "moving_variance_initializer": {"config": {}, "class_name": "Ones"}, "axis": 3, "beta_regularizer": null, "epsilon": 1.001e-05, "trainable": true}, "inbound_nodes": [[["conv3_block6_concat", 0, 0, {}]]], "class_name": "BatchNormalization"}, {"name": "conv3_block7_0_relu", "config": {"name": "conv3_block7_0_relu", "activation": "relu", "trainable": true}, "inbound_nodes": [[["conv3_block7_0_bn", 0, 0, {}]]], "class_name": "Activation"}, {"name": "conv3_block7_1_conv", "config": {"name": "conv3_block7_1_conv", "bias_constraint": null, "strides": [1, 1], "data_format": "channels_last", "activation": "linear", "bias_initializer": {"config": {}, "class_name": "Zeros"}, "padding": "valid", "bias_regularizer": null, "kernel_constraint": null, "dilation_rate": [1, 1], "filters": 128, "use_bias": false, "trainable": true, "kernel_size": [1, 1], "kernel_regularizer": null, "kernel_initializer": {"config": {"distribution": "uniform", "scale": 1.0, "seed": null, "mode": "fan_avg"}, "class_name": "VarianceScaling"}, "activity_regularizer": null}, "inbound_nodes": [[["conv3_block7_0_relu", 0, 0, {}]]], "class_name": "Conv2D"}, {"name": "conv3_block7_1_bn", "config": {"name": "conv3_block7_1_bn", "gamma_initializer": {"config": {}, "class_name": "Ones"}, "scale": true, "momentum": 0.99, "gamma_regularizer": null, "beta_initializer": {"config": {}, "class_name": "Zeros"}, "moving_mean_initializer": {"config": {}, "class_name": "Zeros"}, "beta_constraint": null, "center": true, "gamma_constraint": null, "moving_variance_initializer": {"config": {}, "class_name": "Ones"}, "axis": 3, "beta_regularizer": null, "epsilon": 1.001e-05, "trainable": true}, "inbound_nodes": [[["conv3_block7_1_conv", 0, 0, {}]]], "class_name": "BatchNormalization"}, {"name": "conv3_block7_1_relu", "config": {"name": "conv3_block7_1_relu", "activation": "relu", "trainable": true}, "inbound_nodes": [[["conv3_block7_1_bn", 0, 0, {}]]], "class_name": "Activation"}, {"name": "conv3_block7_2_conv", "config": {"name": "conv3_block7_2_conv", "bias_constraint": null, "strides": [1, 1], "data_format": "channels_last", "activation": "linear", "bias_initializer": {"config": {}, "class_name": "Zeros"}, "padding": "same", "bias_regularizer": null, "kernel_constraint": null, "dilation_rate": [1, 1], "filters": 32, "use_bias": false, "trainable": true, "kernel_size": [3, 3], "kernel_regularizer": null, "kernel_initializer": {"config": {"distribution": "uniform", "scale": 1.0, "seed": null, "mode": "fan_avg"}, "class_name": "VarianceScaling"}, "activity_regularizer": null}, "inbound_nodes": [[["conv3_block7_1_relu", 0, 0, {}]]], "class_name": "Conv2D"}, {"name": "conv3_block7_concat", "config": {"name": "conv3_block7_concat", "axis": 3, "trainable": true}, "inbound_nodes": [[["conv3_block6_concat", 0, 0, {}], ["conv3_block7_2_conv", 0, 0, {}]]], "class_name": "Concatenate"}, {"name": "conv3_block8_0_bn", "config": {"name": "conv3_block8_0_bn", "gamma_initializer": {"config": {}, "class_name": "Ones"}, "scale": true, "momentum": 0.99, "gamma_regularizer": null, "beta_initializer": {"config": {}, "class_name": "Zeros"}, "moving_mean_initializer": {"config": {}, "class_name": "Zeros"}, "beta_constraint": null, "center": true, "gamma_constraint": null, "moving_variance_initializer": {"config": {}, "class_name": "Ones"}, "axis": 3, "beta_regularizer": null, "epsilon": 1.001e-05, "trainable": true}, "inbound_nodes": [[["conv3_block7_concat", 0, 0, {}]]], "class_name": "BatchNormalization"}, {"name": "conv3_block8_0_relu", "config": {"name": "conv3_block8_0_relu", "activation": "relu", "trainable": true}, "inbound_nodes": [[["conv3_block8_0_bn", 0, 0, {}]]], "class_name": "Activation"}, {"name": "conv3_block8_1_conv", "config": {"name": "conv3_block8_1_conv", "bias_constraint": null, "strides": [1, 1], "data_format": "channels_last", "activation": "linear", "bias_initializer": {"config": {}, "class_name": "Zeros"}, "padding": "valid", "bias_regularizer": null, "kernel_constraint": null, "dilation_rate": [1, 1], "filters": 128, "use_bias": false, "trainable": true, "kernel_size": [1, 1], "kernel_regularizer": null, "kernel_initializer": {"config": {"distribution": "uniform", "scale": 1.0, "seed": null, "mode": "fan_avg"}, "class_name": "VarianceScaling"}, "activity_regularizer": null}, "inbound_nodes": [[["conv3_block8_0_relu", 0, 0, {}]]], "class_name": "Conv2D"}, {"name": "conv3_block8_1_bn", "config": {"name": "conv3_block8_1_bn", "gamma_initializer": {"config": {}, "class_name": "Ones"}, "scale": true, "momentum": 0.99, "gamma_regularizer": null, "beta_initializer": {"config": {}, "class_name": "Zeros"}, "moving_mean_initializer": {"config": {}, "class_name": "Zeros"}, "beta_constraint": null, "center": true, "gamma_constraint": null, "moving_variance_initializer": {"config": {}, "class_name": "Ones"}, "axis": 3, "beta_regularizer": null, "epsilon": 1.001e-05, "trainable": true}, "inbound_nodes": [[["conv3_block8_1_conv", 0, 0, {}]]], "class_name": "BatchNormalization"}, {"name": "conv3_block8_1_relu", "config": {"name": "conv3_block8_1_relu", "activation": "relu", "trainable": true}, "inbound_nodes": [[["conv3_block8_1_bn", 0, 0, {}]]], "class_name": "Activation"}, {"name": "conv3_block8_2_conv", "config": {"name": "conv3_block8_2_conv", "bias_constraint": null, "strides": [1, 1], "data_format": "channels_last", "activation": "linear", "bias_initializer": {"config": {}, "class_name": "Zeros"}, "padding": "same", "bias_regularizer": null, "kernel_constraint": null, "dilation_rate": [1, 1], "filters": 32, "use_bias": false, "trainable": true, "kernel_size": [3, 3], "kernel_regularizer": null, "kernel_initializer": {"config": {"distribution": "uniform", "scale": 1.0, "seed": null, "mode": "fan_avg"}, "class_name": "VarianceScaling"}, "activity_regularizer": null}, "inbound_nodes": [[["conv3_block8_1_relu", 0, 0, {}]]], "class_name": "Conv2D"}, {"name": "conv3_block8_concat", "config": {"name": "conv3_block8_concat", "axis": 3, "trainable": true}, "inbound_nodes": [[["conv3_block7_concat", 0, 0, {}], ["conv3_block8_2_conv", 0, 0, {}]]], "class_name": "Concatenate"}, {"name": "conv3_block9_0_bn", "config": {"name": "conv3_block9_0_bn", "gamma_initializer": {"config": {}, "class_name": "Ones"}, "scale": true, "momentum": 0.99, "gamma_regularizer": null, "beta_initializer": {"config": {}, "class_name": "Zeros"}, "moving_mean_initializer": {"config": {}, "class_name": "Zeros"}, "beta_constraint": null, "center": true, "gamma_constraint": null, "moving_variance_initializer": {"config": {}, "class_name": "Ones"}, "axis": 3, "beta_regularizer": null, "epsilon": 1.001e-05, "trainable": true}, "inbound_nodes": [[["conv3_block8_concat", 0, 0, {}]]], "class_name": "BatchNormalization"}, {"name": "conv3_block9_0_relu", "config": {"name": "conv3_block9_0_relu", "activation": "relu", "trainable": true}, "inbound_nodes": [[["conv3_block9_0_bn", 0, 0, {}]]], "class_name": "Activation"}, {"name": "conv3_block9_1_conv", "config": {"name": "conv3_block9_1_conv", "bias_constraint": null, "strides": [1, 1], "data_format": "channels_last", "activation": "linear", "bias_initializer": {"config": {}, "class_name": "Zeros"}, "padding": "valid", "bias_regularizer": null, "kernel_constraint": null, "dilation_rate": [1, 1], "filters": 128, "use_bias": false, "trainable": true, "kernel_size": [1, 1], "kernel_regularizer": null, "kernel_initializer": {"config": {"distribution": "uniform", "scale": 1.0, "seed": null, "mode": "fan_avg"}, "class_name": "VarianceScaling"}, "activity_regularizer": null}, "inbound_nodes": [[["conv3_block9_0_relu", 0, 0, {}]]], "class_name": "Conv2D"}, {"name": "conv3_block9_1_bn", "config": {"name": "conv3_block9_1_bn", "gamma_initializer": {"config": {}, "class_name": "Ones"}, "scale": true, "momentum": 0.99, "gamma_regularizer": null, "beta_initializer": {"config": {}, "class_name": "Zeros"}, "moving_mean_initializer": {"config": {}, "class_name": "Zeros"}, "beta_constraint": null, "center": true, "gamma_constraint": null, "moving_variance_initializer": {"config": {}, "class_name": "Ones"}, "axis": 3, "beta_regularizer": null, "epsilon": 1.001e-05, "trainable": true}, "inbound_nodes": [[["conv3_block9_1_conv", 0, 0, {}]]], "class_name": "BatchNormalization"}, {"name": "conv3_block9_1_relu", "config": {"name": "conv3_block9_1_relu", "activation": "relu", "trainable": true}, "inbound_nodes": [[["conv3_block9_1_bn", 0, 0, {}]]], "class_name": "Activation"}, {"name": "conv3_block9_2_conv", "config": {"name": "conv3_block9_2_conv", "bias_constraint": null, "strides": [1, 1], "data_format": "channels_last", "activation": "linear", "bias_initializer": {"config": {}, "class_name": "Zeros"}, "padding": "same", "bias_regularizer": null, "kernel_constraint": null, "dilation_rate": [1, 1], "filters": 32, "use_bias": false, "trainable": true, "kernel_size": [3, 3], "kernel_regularizer": null, "kernel_initializer": {"config": {"distribution": "uniform", "scale": 1.0, "seed": null, "mode": "fan_avg"}, "class_name": "VarianceScaling"}, "activity_regularizer": null}, "inbound_nodes": [[["conv3_block9_1_relu", 0, 0, {}]]], "class_name": "Conv2D"}, {"name": "conv3_block9_concat", "config": {"name": "conv3_block9_concat", "axis": 3, "trainable": true}, "inbound_nodes": [[["conv3_block8_concat", 0, 0, {}], ["conv3_block9_2_conv", 0, 0, {}]]], "class_name": "Concatenate"}, {"name": "conv3_block10_0_bn", "config": {"name": "conv3_block10_0_bn", "gamma_initializer": {"config": {}, "class_name": "Ones"}, "scale": true, "momentum": 0.99, "gamma_regularizer": null, "beta_initializer": {"config": {}, "class_name": "Zeros"}, "moving_mean_initializer": {"config": {}, "class_name": "Zeros"}, "beta_constraint": null, "center": true, "gamma_constraint": null, "moving_variance_initializer": {"config": {}, "class_name": "Ones"}, "axis": 3, "beta_regularizer": null, "epsilon": 1.001e-05, "trainable": true}, "inbound_nodes": [[["conv3_block9_concat", 0, 0, {}]]], "class_name": "BatchNormalization"}, {"name": "conv3_block10_0_relu", "config": {"name": "conv3_block10_0_relu", "activation": "relu", "trainable": true}, "inbound_nodes": [[["conv3_block10_0_bn", 0, 0, {}]]], "class_name": "Activation"}, {"name": "conv3_block10_1_conv", "config": {"name": "conv3_block10_1_conv", "bias_constraint": null, "strides": [1, 1], "data_format": "channels_last", "activation": "linear", "bias_initializer": {"config": {}, "class_name": "Zeros"}, "padding": "valid", "bias_regularizer": null, "kernel_constraint": null, "dilation_rate": [1, 1], "filters": 128, "use_bias": false, "trainable": true, "kernel_size": [1, 1], "kernel_regularizer": null, "kernel_initializer": {"config": {"distribution": "uniform", "scale": 1.0, "seed": null, "mode": "fan_avg"}, "class_name": "VarianceScaling"}, "activity_regularizer": null}, "inbound_nodes": [[["conv3_block10_0_relu", 0, 0, {}]]], "class_name": "Conv2D"}, {"name": "conv3_block10_1_bn", "config": {"name": "conv3_block10_1_bn", "gamma_initializer": {"config": {}, "class_name": "Ones"}, "scale": true, "momentum": 0.99, "gamma_regularizer": null, "beta_initializer": {"config": {}, "class_name": "Zeros"}, "moving_mean_initializer": {"config": {}, "class_name": "Zeros"}, "beta_constraint": null, "center": true, "gamma_constraint": null, "moving_variance_initializer": {"config": {}, "class_name": "Ones"}, "axis": 3, "beta_regularizer": null, "epsilon": 1.001e-05, "trainable": true}, "inbound_nodes": [[["conv3_block10_1_conv", 0, 0, {}]]], "class_name": "BatchNormalization"}, {"name": "conv3_block10_1_relu", "config": {"name": "conv3_block10_1_relu", "activation": "relu", "trainable": true}, "inbound_nodes": [[["conv3_block10_1_bn", 0, 0, {}]]], "class_name": "Activation"}, {"name": "conv3_block10_2_conv", "config": {"name": "conv3_block10_2_conv", "bias_constraint": null, "strides": [1, 1], "data_format": "channels_last", "activation": "linear", "bias_initializer": {"config": {}, "class_name": "Zeros"}, "padding": "same", "bias_regularizer": null, "kernel_constraint": null, "dilation_rate": [1, 1], "filters": 32, "use_bias": false, "trainable": true, "kernel_size": [3, 3], "kernel_regularizer": null, "kernel_initializer": {"config": {"distribution": "uniform", "scale": 1.0, "seed": null, "mode": "fan_avg"}, "class_name": "VarianceScaling"}, "activity_regularizer": null}, "inbound_nodes": [[["conv3_block10_1_relu", 0, 0, {}]]], "class_name": "Conv2D"}, {"name": "conv3_block10_concat", "config": {"name": "conv3_block10_concat", "axis": 3, "trainable": true}, "inbound_nodes": [[["conv3_block9_concat", 0, 0, {}], ["conv3_block10_2_conv", 0, 0, {}]]], "class_name": "Concatenate"}, {"name": "conv3_block11_0_bn", "config": {"name": "conv3_block11_0_bn", "gamma_initializer": {"config": {}, "class_name": "Ones"}, "scale": true, "momentum": 0.99, "gamma_regularizer": null, "beta_initializer": {"config": {}, "class_name": "Zeros"}, "moving_mean_initializer": {"config": {}, "class_name": "Zeros"}, "beta_constraint": null, "center": true, "gamma_constraint": null, "moving_variance_initializer": {"config": {}, "class_name": "Ones"}, "axis": 3, "beta_regularizer": null, "epsilon": 1.001e-05, "trainable": true}, "inbound_nodes": [[["conv3_block10_concat", 0, 0, {}]]], "class_name": "BatchNormalization"}, {"name": "conv3_block11_0_relu", "config": {"name": "conv3_block11_0_relu", "activation": "relu", "trainable": true}, "inbound_nodes": [[["conv3_block11_0_bn", 0, 0, {}]]], "class_name": "Activation"}, {"name": "conv3_block11_1_conv", "config": {"name": "conv3_block11_1_conv", "bias_constraint": null, "strides": [1, 1], "data_format": "channels_last", "activation": "linear", "bias_initializer": {"config": {}, "class_name": "Zeros"}, "padding": "valid", "bias_regularizer": null, "kernel_constraint": null, "dilation_rate": [1, 1], "filters": 128, "use_bias": false, "trainable": true, "kernel_size": [1, 1], "kernel_regularizer": null, "kernel_initializer": {"config": {"distribution": "uniform", "scale": 1.0, "seed": null, "mode": "fan_avg"}, "class_name": "VarianceScaling"}, "activity_regularizer": null}, "inbound_nodes": [[["conv3_block11_0_relu", 0, 0, {}]]], "class_name": "Conv2D"}, {"name": "conv3_block11_1_bn", "config": {"name": "conv3_block11_1_bn", "gamma_initializer": {"config": {}, "class_name": "Ones"}, "scale": true, "momentum": 0.99, "gamma_regularizer": null, "beta_initializer": {"config": {}, "class_name": "Zeros"}, "moving_mean_initializer": {"config": {}, "class_name": "Zeros"}, "beta_constraint": null, "center": true, "gamma_constraint": null, "moving_variance_initializer": {"config": {}, "class_name": "Ones"}, "axis": 3, "beta_regularizer": null, "epsilon": 1.001e-05, "trainable": true}, "inbound_nodes": [[["conv3_block11_1_conv", 0, 0, {}]]], "class_name": "BatchNormalization"}, {"name": "conv3_block11_1_relu", "config": {"name": "conv3_block11_1_relu", "activation": "relu", "trainable": true}, "inbound_nodes": [[["conv3_block11_1_bn", 0, 0, {}]]], "class_name": "Activation"}, {"name": "conv3_block11_2_conv", "config": {"name": "conv3_block11_2_conv", "bias_constraint": null, "strides": [1, 1], "data_format": "channels_last", "activation": "linear", "bias_initializer": {"config": {}, "class_name": "Zeros"}, "padding": "same", "bias_regularizer": null, "kernel_constraint": null, "dilation_rate": [1, 1], "filters": 32, "use_bias": false, "trainable": true, "kernel_size": [3, 3], "kernel_regularizer": null, "kernel_initializer": {"config": {"distribution": "uniform", "scale": 1.0, "seed": null, "mode": "fan_avg"}, "class_name": "VarianceScaling"}, "activity_regularizer": null}, "inbound_nodes": [[["conv3_block11_1_relu", 0, 0, {}]]], "class_name": "Conv2D"}, {"name": "conv3_block11_concat", "config": {"name": "conv3_block11_concat", "axis": 3, "trainable": true}, "inbound_nodes": [[["conv3_block10_concat", 0, 0, {}], ["conv3_block11_2_conv", 0, 0, {}]]], "class_name": "Concatenate"}, {"name": "conv3_block12_0_bn", "config": {"name": "conv3_block12_0_bn", "gamma_initializer": {"config": {}, "class_name": "Ones"}, "scale": true, "momentum": 0.99, "gamma_regularizer": null, "beta_initializer": {"config": {}, "class_name": "Zeros"}, "moving_mean_initializer": {"config": {}, "class_name": "Zeros"}, "beta_constraint": null, "center": true, "gamma_constraint": null, "moving_variance_initializer": {"config": {}, "class_name": "Ones"}, "axis": 3, "beta_regularizer": null, "epsilon": 1.001e-05, "trainable": true}, "inbound_nodes": [[["conv3_block11_concat", 0, 0, {}]]], "class_name": "BatchNormalization"}, {"name": "conv3_block12_0_relu", "config": {"name": "conv3_block12_0_relu", "activation": "relu", "trainable": true}, "inbound_nodes": [[["conv3_block12_0_bn", 0, 0, {}]]], "class_name": "Activation"}, {"name": "conv3_block12_1_conv", "config": {"name": "conv3_block12_1_conv", "bias_constraint": null, "strides": [1, 1], "data_format": "channels_last", "activation": "linear", "bias_initializer": {"config": {}, "class_name": "Zeros"}, "padding": "valid", "bias_regularizer": null, "kernel_constraint": null, "dilation_rate": [1, 1], "filters": 128, "use_bias": false, "trainable": true, "kernel_size": [1, 1], "kernel_regularizer": null, "kernel_initializer": {"config": {"distribution": "uniform", "scale": 1.0, "seed": null, "mode": "fan_avg"}, "class_name": "VarianceScaling"}, "activity_regularizer": null}, "inbound_nodes": [[["conv3_block12_0_relu", 0, 0, {}]]], "class_name": "Conv2D"}, {"name": "conv3_block12_1_bn", "config": {"name": "conv3_block12_1_bn", "gamma_initializer": {"config": {}, "class_name": "Ones"}, "scale": true, "momentum": 0.99, "gamma_regularizer": null, "beta_initializer": {"config": {}, "class_name": "Zeros"}, "moving_mean_initializer": {"config": {}, "class_name": "Zeros"}, "beta_constraint": null, "center": true, "gamma_constraint": null, "moving_variance_initializer": {"config": {}, "class_name": "Ones"}, "axis": 3, "beta_regularizer": null, "epsilon": 1.001e-05, "trainable": true}, "inbound_nodes": [[["conv3_block12_1_conv", 0, 0, {}]]], "class_name": "BatchNormalization"}, {"name": "conv3_block12_1_relu", "config": {"name": "conv3_block12_1_relu", "activation": "relu", "trainable": true}, "inbound_nodes": [[["conv3_block12_1_bn", 0, 0, {}]]], "class_name": "Activation"}, {"name": "conv3_block12_2_conv", "config": {"name": "conv3_block12_2_conv", "bias_constraint": null, "strides": [1, 1], "data_format": "channels_last", "activation": "linear", "bias_initializer": {"config": {}, "class_name": "Zeros"}, "padding": "same", "bias_regularizer": null, "kernel_constraint": null, "dilation_rate": [1, 1], "filters": 32, "use_bias": false, "trainable": true, "kernel_size": [3, 3], "kernel_regularizer": null, "kernel_initializer": {"config": {"distribution": "uniform", "scale": 1.0, "seed": null, "mode": "fan_avg"}, "class_name": "VarianceScaling"}, "activity_regularizer": null}, "inbound_nodes": [[["conv3_block12_1_relu", 0, 0, {}]]], "class_name": "Conv2D"}, {"name": "conv3_block12_concat", "config": {"name": "conv3_block12_concat", "axis": 3, "trainable": true}, "inbound_nodes": [[["conv3_block11_concat", 0, 0, {}], ["conv3_block12_2_conv", 0, 0, {}]]], "class_name": "Concatenate"}, {"name": "pool3_bn", "config": {"name": "pool3_bn", "gamma_initializer": {"config": {}, "class_name": "Ones"}, "scale": true, "momentum": 0.99, "gamma_regularizer": null, "beta_initializer": {"config": {}, "class_name": "Zeros"}, "moving_mean_initializer": {"config": {}, "class_name": "Zeros"}, "beta_constraint": null, "center": true, "gamma_constraint": null, "moving_variance_initializer": {"config": {}, "class_name": "Ones"}, "axis": 3, "beta_regularizer": null, "epsilon": 1.001e-05, "trainable": true}, "inbound_nodes": [[["conv3_block12_concat", 0, 0, {}]]], "class_name": "BatchNormalization"}, {"name": "pool3_relu", "config": {"name": "pool3_relu", "activation": "relu", "trainable": true}, "inbound_nodes": [[["pool3_bn", 0, 0, {}]]], "class_name": "Activation"}, {"name": "pool3_conv", "config": {"name": "pool3_conv", "bias_constraint": null, "strides": [1, 1], "data_format": "channels_last", "activation": "linear", "bias_initializer": {"config": {}, "class_name": "Zeros"}, "padding": "valid", "bias_regularizer": null, "kernel_constraint": null, "dilation_rate": [1, 1], "filters": 256, "use_bias": false, "trainable": true, "kernel_size": [1, 1], "kernel_regularizer": null, "kernel_initializer": {"config": {"distribution": "uniform", "scale": 1.0, "seed": null, "mode": "fan_avg"}, "class_name": "VarianceScaling"}, "activity_regularizer": null}, "inbound_nodes": [[["pool3_relu", 0, 0, {}]]], "class_name": "Conv2D"}, {"name": "pool3_pool", "config": {"name": "pool3_pool", "data_format": "channels_last", "pool_size": [2, 2], "strides": [2, 2], "padding": "valid", "trainable": true}, "inbound_nodes": [[["pool3_conv", 0, 0, {}]]], "class_name": "AveragePooling2D"}, {"name": "conv4_block1_0_bn", "config": {"name": "conv4_block1_0_bn", "gamma_initializer": {"config": {}, "class_name": "Ones"}, "scale": true, "momentum": 0.99, "gamma_regularizer": null, "beta_initializer": {"config": {}, "class_name": "Zeros"}, "moving_mean_initializer": {"config": {}, "class_name": "Zeros"}, "beta_constraint": null, "center": true, "gamma_constraint": null, "moving_variance_initializer": {"config": {}, "class_name": "Ones"}, "axis": 3, "beta_regularizer": null, "epsilon": 1.001e-05, "trainable": true}, "inbound_nodes": [[["pool3_pool", 0, 0, {}]]], "class_name": "BatchNormalization"}, {"name": "conv4_block1_0_relu", "config": {"name": "conv4_block1_0_relu", "activation": "relu", "trainable": true}, "inbound_nodes": [[["conv4_block1_0_bn", 0, 0, {}]]], "class_name": "Activation"}, {"name": "conv4_block1_1_conv", "config": {"name": "conv4_block1_1_conv", "bias_constraint": null, "strides": [1, 1], "data_format": "channels_last", "activation": "linear", "bias_initializer": {"config": {}, "class_name": "Zeros"}, "padding": "valid", "bias_regularizer": null, "kernel_constraint": null, "dilation_rate": [1, 1], "filters": 128, "use_bias": false, "trainable": true, "kernel_size": [1, 1], "kernel_regularizer": null, "kernel_initializer": {"config": {"distribution": "uniform", "scale": 1.0, "seed": null, "mode": "fan_avg"}, "class_name": "VarianceScaling"}, "activity_regularizer": null}, "inbound_nodes": [[["conv4_block1_0_relu", 0, 0, {}]]], "class_name": "Conv2D"}, {"name": "conv4_block1_1_bn", "config": {"name": "conv4_block1_1_bn", "gamma_initializer": {"config": {}, "class_name": "Ones"}, "scale": true, "momentum": 0.99, "gamma_regularizer": null, "beta_initializer": {"config": {}, "class_name": "Zeros"}, "moving_mean_initializer": {"config": {}, "class_name": "Zeros"}, "beta_constraint": null, "center": true, "gamma_constraint": null, "moving_variance_initializer": {"config": {}, "class_name": "Ones"}, "axis": 3, "beta_regularizer": null, "epsilon": 1.001e-05, "trainable": true}, "inbound_nodes": [[["conv4_block1_1_conv", 0, 0, {}]]], "class_name": "BatchNormalization"}, {"name": "conv4_block1_1_relu", "config": {"name": "conv4_block1_1_relu", "activation": "relu", "trainable": true}, "inbound_nodes": [[["conv4_block1_1_bn", 0, 0, {}]]], "class_name": "Activation"}, {"name": "conv4_block1_2_conv", "config": {"name": "conv4_block1_2_conv", "bias_constraint": null, "strides": [1, 1], "data_format": "channels_last", "activation": "linear", "bias_initializer": {"config": {}, "class_name": "Zeros"}, "padding": "same", "bias_regularizer": null, "kernel_constraint": null, "dilation_rate": [1, 1], "filters": 32, "use_bias": false, "trainable": true, "kernel_size": [3, 3], "kernel_regularizer": null, "kernel_initializer": {"config": {"distribution": "uniform", "scale": 1.0, "seed": null, "mode": "fan_avg"}, "class_name": "VarianceScaling"}, "activity_regularizer": null}, "inbound_nodes": [[["conv4_block1_1_relu", 0, 0, {}]]], "class_name": "Conv2D"}, {"name": "conv4_block1_concat", "config": {"name": "conv4_block1_concat", "axis": 3, "trainable": true}, "inbound_nodes": [[["pool3_pool", 0, 0, {}], ["conv4_block1_2_conv", 0, 0, {}]]], "class_name": "Concatenate"}, {"name": "conv4_block2_0_bn", "config": {"name": "conv4_block2_0_bn", "gamma_initializer": {"config": {}, "class_name": "Ones"}, "scale": true, "momentum": 0.99, "gamma_regularizer": null, "beta_initializer": {"config": {}, "class_name": "Zeros"}, "moving_mean_initializer": {"config": {}, "class_name": "Zeros"}, "beta_constraint": null, "center": true, "gamma_constraint": null, "moving_variance_initializer": {"config": {}, "class_name": "Ones"}, "axis": 3, "beta_regularizer": null, "epsilon": 1.001e-05, "trainable": true}, "inbound_nodes": [[["conv4_block1_concat", 0, 0, {}]]], "class_name": "BatchNormalization"}, {"name": "conv4_block2_0_relu", "config": {"name": "conv4_block2_0_relu", "activation": "relu", "trainable": true}, "inbound_nodes": [[["conv4_block2_0_bn", 0, 0, {}]]], "class_name": "Activation"}, {"name": "conv4_block2_1_conv", "config": {"name": "conv4_block2_1_conv", "bias_constraint": null, "strides": [1, 1], "data_format": "channels_last", "activation": "linear", "bias_initializer": {"config": {}, "class_name": "Zeros"}, "padding": "valid", "bias_regularizer": null, "kernel_constraint": null, "dilation_rate": [1, 1], "filters": 128, "use_bias": false, "trainable": true, "kernel_size": [1, 1], "kernel_regularizer": null, "kernel_initializer": {"config": {"distribution": "uniform", "scale": 1.0, "seed": null, "mode": "fan_avg"}, "class_name": "VarianceScaling"}, "activity_regularizer": null}, "inbound_nodes": [[["conv4_block2_0_relu", 0, 0, {}]]], "class_name": "Conv2D"}, {"name": "conv4_block2_1_bn", "config": {"name": "conv4_block2_1_bn", "gamma_initializer": {"config": {}, "class_name": "Ones"}, "scale": true, "momentum": 0.99, "gamma_regularizer": null, "beta_initializer": {"config": {}, "class_name": "Zeros"}, "moving_mean_initializer": {"config": {}, "class_name": "Zeros"}, "beta_constraint": null, "center": true, "gamma_constraint": null, "moving_variance_initializer": {"config": {}, "class_name": "Ones"}, "axis": 3, "beta_regularizer": null, "epsilon": 1.001e-05, "trainable": true}, "inbound_nodes": [[["conv4_block2_1_conv", 0, 0, {}]]], "class_name": "BatchNormalization"}, {"name": "conv4_block2_1_relu", "config": {"name": "conv4_block2_1_relu", "activation": "relu", "trainable": true}, "inbound_nodes": [[["conv4_block2_1_bn", 0, 0, {}]]], "class_name": "Activation"}, {"name": "conv4_block2_2_conv", "config": {"name": "conv4_block2_2_conv", "bias_constraint": null, "strides": [1, 1], "data_format": "channels_last", "activation": "linear", "bias_initializer": {"config": {}, "class_name": "Zeros"}, "padding": "same", "bias_regularizer": null, "kernel_constraint": null, "dilation_rate": [1, 1], "filters": 32, "use_bias": false, "trainable": true, "kernel_size": [3, 3], "kernel_regularizer": null, "kernel_initializer": {"config": {"distribution": "uniform", "scale": 1.0, "seed": null, "mode": "fan_avg"}, "class_name": "VarianceScaling"}, "activity_regularizer": null}, "inbound_nodes": [[["conv4_block2_1_relu", 0, 0, {}]]], "class_name": "Conv2D"}, {"name": "conv4_block2_concat", "config": {"name": "conv4_block2_concat", "axis": 3, "trainable": true}, "inbound_nodes": [[["conv4_block1_concat", 0, 0, {}], ["conv4_block2_2_conv", 0, 0, {}]]], "class_name": "Concatenate"}, {"name": "conv4_block3_0_bn", "config": {"name": "conv4_block3_0_bn", "gamma_initializer": {"config": {}, "class_name": "Ones"}, "scale": true, "momentum": 0.99, "gamma_regularizer": null, "beta_initializer": {"config": {}, "class_name": "Zeros"}, "moving_mean_initializer": {"config": {}, "class_name": "Zeros"}, "beta_constraint": null, "center": true, "gamma_constraint": null, "moving_variance_initializer": {"config": {}, "class_name": "Ones"}, "axis": 3, "beta_regularizer": null, "epsilon": 1.001e-05, "trainable": true}, "inbound_nodes": [[["conv4_block2_concat", 0, 0, {}]]], "class_name": "BatchNormalization"}, {"name": "conv4_block3_0_relu", "config": {"name": "conv4_block3_0_relu", "activation": "relu", "trainable": true}, "inbound_nodes": [[["conv4_block3_0_bn", 0, 0, {}]]], "class_name": "Activation"}, {"name": "conv4_block3_1_conv", "config": {"name": "conv4_block3_1_conv", "bias_constraint": null, "strides": [1, 1], "data_format": "channels_last", "activation": "linear", "bias_initializer": {"config": {}, "class_name": "Zeros"}, "padding": "valid", "bias_regularizer": null, "kernel_constraint": null, "dilation_rate": [1, 1], "filters": 128, "use_bias": false, "trainable": true, "kernel_size": [1, 1], "kernel_regularizer": null, "kernel_initializer": {"config": {"distribution": "uniform", "scale": 1.0, "seed": null, "mode": "fan_avg"}, "class_name": "VarianceScaling"}, "activity_regularizer": null}, "inbound_nodes": [[["conv4_block3_0_relu", 0, 0, {}]]], "class_name": "Conv2D"}, {"name": "conv4_block3_1_bn", "config": {"name": "conv4_block3_1_bn", "gamma_initializer": {"config": {}, "class_name": "Ones"}, "scale": true, "momentum": 0.99, "gamma_regularizer": null, "beta_initializer": {"config": {}, "class_name": "Zeros"}, "moving_mean_initializer": {"config": {}, "class_name": "Zeros"}, "beta_constraint": null, "center": true, "gamma_constraint": null, "moving_variance_initializer": {"config": {}, "class_name": "Ones"}, "axis": 3, "beta_regularizer": null, "epsilon": 1.001e-05, "trainable": true}, "inbound_nodes": [[["conv4_block3_1_conv", 0, 0, {}]]], "class_name": "BatchNormalization"}, {"name": "conv4_block3_1_relu", "config": {"name": "conv4_block3_1_relu", "activation": "relu", "trainable": true}, "inbound_nodes": [[["conv4_block3_1_bn", 0, 0, {}]]], "class_name": "Activation"}, {"name": "conv4_block3_2_conv", "config": {"name": "conv4_block3_2_conv", "bias_constraint": null, "strides": [1, 1], "data_format": "channels_last", "activation": "linear", "bias_initializer": {"config": {}, "class_name": "Zeros"}, "padding": "same", "bias_regularizer": null, "kernel_constraint": null, "dilation_rate": [1, 1], "filters": 32, "use_bias": false, "trainable": true, "kernel_size": [3, 3], "kernel_regularizer": null, "kernel_initializer": {"config": {"distribution": "uniform", "scale": 1.0, "seed": null, "mode": "fan_avg"}, "class_name": "VarianceScaling"}, "activity_regularizer": null}, "inbound_nodes": [[["conv4_block3_1_relu", 0, 0, {}]]], "class_name": "Conv2D"}, {"name": "conv4_block3_concat", "config": {"name": "conv4_block3_concat", "axis": 3, "trainable": true}, "inbound_nodes": [[["conv4_block2_concat", 0, 0, {}], ["conv4_block3_2_conv", 0, 0, {}]]], "class_name": "Concatenate"}, {"name": "conv4_block4_0_bn", "config": {"name": "conv4_block4_0_bn", "gamma_initializer": {"config": {}, "class_name": "Ones"}, "scale": true, "momentum": 0.99, "gamma_regularizer": null, "beta_initializer": {"config": {}, "class_name": "Zeros"}, "moving_mean_initializer": {"config": {}, "class_name": "Zeros"}, "beta_constraint": null, "center": true, "gamma_constraint": null, "moving_variance_initializer": {"config": {}, "class_name": "Ones"}, "axis": 3, "beta_regularizer": null, "epsilon": 1.001e-05, "trainable": true}, "inbound_nodes": [[["conv4_block3_concat", 0, 0, {}]]], "class_name": "BatchNormalization"}, {"name": "conv4_block4_0_relu", "config": {"name": "conv4_block4_0_relu", "activation": "relu", "trainable": true}, "inbound_nodes": [[["conv4_block4_0_bn", 0, 0, {}]]], "class_name": "Activation"}, {"name": "conv4_block4_1_conv", "config": {"name": "conv4_block4_1_conv", "bias_constraint": null, "strides": [1, 1], "data_format": "channels_last", "activation": "linear", "bias_initializer": {"config": {}, "class_name": "Zeros"}, "padding": "valid", "bias_regularizer": null, "kernel_constraint": null, "dilation_rate": [1, 1], "filters": 128, "use_bias": false, "trainable": true, "kernel_size": [1, 1], "kernel_regularizer": null, "kernel_initializer": {"config": {"distribution": "uniform", "scale": 1.0, "seed": null, "mode": "fan_avg"}, "class_name": "VarianceScaling"}, "activity_regularizer": null}, "inbound_nodes": [[["conv4_block4_0_relu", 0, 0, {}]]], "class_name": "Conv2D"}, {"name": "conv4_block4_1_bn", "config": {"name": "conv4_block4_1_bn", "gamma_initializer": {"config": {}, "class_name": "Ones"}, "scale": true, "momentum": 0.99, "gamma_regularizer": null, "beta_initializer": {"config": {}, "class_name": "Zeros"}, "moving_mean_initializer": {"config": {}, "class_name": "Zeros"}, "beta_constraint": null, "center": true, "gamma_constraint": null, "moving_variance_initializer": {"config": {}, "class_name": "Ones"}, "axis": 3, "beta_regularizer": null, "epsilon": 1.001e-05, "trainable": true}, "inbound_nodes": [[["conv4_block4_1_conv", 0, 0, {}]]], "class_name": "BatchNormalization"}, {"name": "conv4_block4_1_relu", "config": {"name": "conv4_block4_1_relu", "activation": "relu", "trainable": true}, "inbound_nodes": [[["conv4_block4_1_bn", 0, 0, {}]]], "class_name": "Activation"}, {"name": "conv4_block4_2_conv", "config": {"name": "conv4_block4_2_conv", "bias_constraint": null, "strides": [1, 1], "data_format": "channels_last", "activation": "linear", "bias_initializer": {"config": {}, "class_name": "Zeros"}, "padding": "same", "bias_regularizer": null, "kernel_constraint": null, "dilation_rate": [1, 1], "filters": 32, "use_bias": false, "trainable": true, "kernel_size": [3, 3], "kernel_regularizer": null, "kernel_initializer": {"config": {"distribution": "uniform", "scale": 1.0, "seed": null, "mode": "fan_avg"}, "class_name": "VarianceScaling"}, "activity_regularizer": null}, "inbound_nodes": [[["conv4_block4_1_relu", 0, 0, {}]]], "class_name": "Conv2D"}, {"name": "conv4_block4_concat", "config": {"name": "conv4_block4_concat", "axis": 3, "trainable": true}, "inbound_nodes": [[["conv4_block3_concat", 0, 0, {}], ["conv4_block4_2_conv", 0, 0, {}]]], "class_name": "Concatenate"}, {"name": "conv4_block5_0_bn", "config": {"name": "conv4_block5_0_bn", "gamma_initializer": {"config": {}, "class_name": "Ones"}, "scale": true, "momentum": 0.99, "gamma_regularizer": null, "beta_initializer": {"config": {}, "class_name": "Zeros"}, "moving_mean_initializer": {"config": {}, "class_name": "Zeros"}, "beta_constraint": null, "center": true, "gamma_constraint": null, "moving_variance_initializer": {"config": {}, "class_name": "Ones"}, "axis": 3, "beta_regularizer": null, "epsilon": 1.001e-05, "trainable": true}, "inbound_nodes": [[["conv4_block4_concat", 0, 0, {}]]], "class_name": "BatchNormalization"}, {"name": "conv4_block5_0_relu", "config": {"name": "conv4_block5_0_relu", "activation": "relu", "trainable": true}, "inbound_nodes": [[["conv4_block5_0_bn", 0, 0, {}]]], "class_name": "Activation"}, {"name": "conv4_block5_1_conv", "config": {"name": "conv4_block5_1_conv", "bias_constraint": null, "strides": [1, 1], "data_format": "channels_last", "activation": "linear", "bias_initializer": {"config": {}, "class_name": "Zeros"}, "padding": "valid", "bias_regularizer": null, "kernel_constraint": null, "dilation_rate": [1, 1], "filters": 128, "use_bias": false, "trainable": true, "kernel_size": [1, 1], "kernel_regularizer": null, "kernel_initializer": {"config": {"distribution": "uniform", "scale": 1.0, "seed": null, "mode": "fan_avg"}, "class_name": "VarianceScaling"}, "activity_regularizer": null}, "inbound_nodes": [[["conv4_block5_0_relu", 0, 0, {}]]], "class_name": "Conv2D"}, {"name": "conv4_block5_1_bn", "config": {"name": "conv4_block5_1_bn", "gamma_initializer": {"config": {}, "class_name": "Ones"}, "scale": true, "momentum": 0.99, "gamma_regularizer": null, "beta_initializer": {"config": {}, "class_name": "Zeros"}, "moving_mean_initializer": {"config": {}, "class_name": "Zeros"}, "beta_constraint": null, "center": true, "gamma_constraint": null, "moving_variance_initializer": {"config": {}, "class_name": "Ones"}, "axis": 3, "beta_regularizer": null, "epsilon": 1.001e-05, "trainable": true}, "inbound_nodes": [[["conv4_block5_1_conv", 0, 0, {}]]], "class_name": "BatchNormalization"}, {"name": "conv4_block5_1_relu", "config": {"name": "conv4_block5_1_relu", "activation": "relu", "trainable": true}, "inbound_nodes": [[["conv4_block5_1_bn", 0, 0, {}]]], "class_name": "Activation"}, {"name": "conv4_block5_2_conv", "config": {"name": "conv4_block5_2_conv", "bias_constraint": null, "strides": [1, 1], "data_format": "channels_last", "activation": "linear", "bias_initializer": {"config": {}, "class_name": "Zeros"}, "padding": "same", "bias_regularizer": null, "kernel_constraint": null, "dilation_rate": [1, 1], "filters": 32, "use_bias": false, "trainable": true, "kernel_size": [3, 3], "kernel_regularizer": null, "kernel_initializer": {"config": {"distribution": "uniform", "scale": 1.0, "seed": null, "mode": "fan_avg"}, "class_name": "VarianceScaling"}, "activity_regularizer": null}, "inbound_nodes": [[["conv4_block5_1_relu", 0, 0, {}]]], "class_name": "Conv2D"}, {"name": "conv4_block5_concat", "config": {"name": "conv4_block5_concat", "axis": 3, "trainable": true}, "inbound_nodes": [[["conv4_block4_concat", 0, 0, {}], ["conv4_block5_2_conv", 0, 0, {}]]], "class_name": "Concatenate"}, {"name": "conv4_block6_0_bn", "config": {"name": "conv4_block6_0_bn", "gamma_initializer": {"config": {}, "class_name": "Ones"}, "scale": true, "momentum": 0.99, "gamma_regularizer": null, "beta_initializer": {"config": {}, "class_name": "Zeros"}, "moving_mean_initializer": {"config": {}, "class_name": "Zeros"}, "beta_constraint": null, "center": true, "gamma_constraint": null, "moving_variance_initializer": {"config": {}, "class_name": "Ones"}, "axis": 3, "beta_regularizer": null, "epsilon": 1.001e-05, "trainable": true}, "inbound_nodes": [[["conv4_block5_concat", 0, 0, {}]]], "class_name": "BatchNormalization"}, {"name": "conv4_block6_0_relu", "config": {"name": "conv4_block6_0_relu", "activation": "relu", "trainable": true}, "inbound_nodes": [[["conv4_block6_0_bn", 0, 0, {}]]], "class_name": "Activation"}, {"name": "conv4_block6_1_conv", "config": {"name": "conv4_block6_1_conv", "bias_constraint": null, "strides": [1, 1], "data_format": "channels_last", "activation": "linear", "bias_initializer": {"config": {}, "class_name": "Zeros"}, "padding": "valid", "bias_regularizer": null, "kernel_constraint": null, "dilation_rate": [1, 1], "filters": 128, "use_bias": false, "trainable": true, "kernel_size": [1, 1], "kernel_regularizer": null, "kernel_initializer": {"config": {"distribution": "uniform", "scale": 1.0, "seed": null, "mode": "fan_avg"}, "class_name": "VarianceScaling"}, "activity_regularizer": null}, "inbound_nodes": [[["conv4_block6_0_relu", 0, 0, {}]]], "class_name": "Conv2D"}, {"name": "conv4_block6_1_bn", "config": {"name": "conv4_block6_1_bn", "gamma_initializer": {"config": {}, "class_name": "Ones"}, "scale": true, "momentum": 0.99, "gamma_regularizer": null, "beta_initializer": {"config": {}, "class_name": "Zeros"}, "moving_mean_initializer": {"config": {}, "class_name": "Zeros"}, "beta_constraint": null, "center": true, "gamma_constraint": null, "moving_variance_initializer": {"config": {}, "class_name": "Ones"}, "axis": 3, "beta_regularizer": null, "epsilon": 1.001e-05, "trainable": true}, "inbound_nodes": [[["conv4_block6_1_conv", 0, 0, {}]]], "class_name": "BatchNormalization"}, {"name": "conv4_block6_1_relu", "config": {"name": "conv4_block6_1_relu", "activation": "relu", "trainable": true}, "inbound_nodes": [[["conv4_block6_1_bn", 0, 0, {}]]], "class_name": "Activation"}, {"name": "conv4_block6_2_conv", "config": {"name": "conv4_block6_2_conv", "bias_constraint": null, "strides": [1, 1], "data_format": "channels_last", "activation": "linear", "bias_initializer": {"config": {}, "class_name": "Zeros"}, "padding": "same", "bias_regularizer": null, "kernel_constraint": null, "dilation_rate": [1, 1], "filters": 32, "use_bias": false, "trainable": true, "kernel_size": [3, 3], "kernel_regularizer": null, "kernel_initializer": {"config": {"distribution": "uniform", "scale": 1.0, "seed": null, "mode": "fan_avg"}, "class_name": "VarianceScaling"}, "activity_regularizer": null}, "inbound_nodes": [[["conv4_block6_1_relu", 0, 0, {}]]], "class_name": "Conv2D"}, {"name": "conv4_block6_concat", "config": {"name": "conv4_block6_concat", "axis": 3, "trainable": true}, "inbound_nodes": [[["conv4_block5_concat", 0, 0, {}], ["conv4_block6_2_conv", 0, 0, {}]]], "class_name": "Concatenate"}, {"name": "conv4_block7_0_bn", "config": {"name": "conv4_block7_0_bn", "gamma_initializer": {"config": {}, "class_name": "Ones"}, "scale": true, "momentum": 0.99, "gamma_regularizer": null, "beta_initializer": {"config": {}, "class_name": "Zeros"}, "moving_mean_initializer": {"config": {}, "class_name": "Zeros"}, "beta_constraint": null, "center": true, "gamma_constraint": null, "moving_variance_initializer": {"config": {}, "class_name": "Ones"}, "axis": 3, "beta_regularizer": null, "epsilon": 1.001e-05, "trainable": true}, "inbound_nodes": [[["conv4_block6_concat", 0, 0, {}]]], "class_name": "BatchNormalization"}, {"name": "conv4_block7_0_relu", "config": {"name": "conv4_block7_0_relu", "activation": "relu", "trainable": true}, "inbound_nodes": [[["conv4_block7_0_bn", 0, 0, {}]]], "class_name": "Activation"}, {"name": "conv4_block7_1_conv", "config": {"name": "conv4_block7_1_conv", "bias_constraint": null, "strides": [1, 1], "data_format": "channels_last", "activation": "linear", "bias_initializer": {"config": {}, "class_name": "Zeros"}, "padding": "valid", "bias_regularizer": null, "kernel_constraint": null, "dilation_rate": [1, 1], "filters": 128, "use_bias": false, "trainable": true, "kernel_size": [1, 1], "kernel_regularizer": null, "kernel_initializer": {"config": {"distribution": "uniform", "scale": 1.0, "seed": null, "mode": "fan_avg"}, "class_name": "VarianceScaling"}, "activity_regularizer": null}, "inbound_nodes": [[["conv4_block7_0_relu", 0, 0, {}]]], "class_name": "Conv2D"}, {"name": "conv4_block7_1_bn", "config": {"name": "conv4_block7_1_bn", "gamma_initializer": {"config": {}, "class_name": "Ones"}, "scale": true, "momentum": 0.99, "gamma_regularizer": null, "beta_initializer": {"config": {}, "class_name": "Zeros"}, "moving_mean_initializer": {"config": {}, "class_name": "Zeros"}, "beta_constraint": null, "center": true, "gamma_constraint": null, "moving_variance_initializer": {"config": {}, "class_name": "Ones"}, "axis": 3, "beta_regularizer": null, "epsilon": 1.001e-05, "trainable": true}, "inbound_nodes": [[["conv4_block7_1_conv", 0, 0, {}]]], "class_name": "BatchNormalization"}, {"name": "conv4_block7_1_relu", "config": {"name": "conv4_block7_1_relu", "activation": "relu", "trainable": true}, "inbound_nodes": [[["conv4_block7_1_bn", 0, 0, {}]]], "class_name": "Activation"}, {"name": "conv4_block7_2_conv", "config": {"name": "conv4_block7_2_conv", "bias_constraint": null, "strides": [1, 1], "data_format": "channels_last", "activation": "linear", "bias_initializer": {"config": {}, "class_name": "Zeros"}, "padding": "same", "bias_regularizer": null, "kernel_constraint": null, "dilation_rate": [1, 1], "filters": 32, "use_bias": false, "trainable": true, "kernel_size": [3, 3], "kernel_regularizer": null, "kernel_initializer": {"config": {"distribution": "uniform", "scale": 1.0, "seed": null, "mode": "fan_avg"}, "class_name": "VarianceScaling"}, "activity_regularizer": null}, "inbound_nodes": [[["conv4_block7_1_relu", 0, 0, {}]]], "class_name": "Conv2D"}, {"name": "conv4_block7_concat", "config": {"name": "conv4_block7_concat", "axis": 3, "trainable": true}, "inbound_nodes": [[["conv4_block6_concat", 0, 0, {}], ["conv4_block7_2_conv", 0, 0, {}]]], "class_name": "Concatenate"}, {"name": "conv4_block8_0_bn", "config": {"name": "conv4_block8_0_bn", "gamma_initializer": {"config": {}, "class_name": "Ones"}, "scale": true, "momentum": 0.99, "gamma_regularizer": null, "beta_initializer": {"config": {}, "class_name": "Zeros"}, "moving_mean_initializer": {"config": {}, "class_name": "Zeros"}, "beta_constraint": null, "center": true, "gamma_constraint": null, "moving_variance_initializer": {"config": {}, "class_name": "Ones"}, "axis": 3, "beta_regularizer": null, "epsilon": 1.001e-05, "trainable": true}, "inbound_nodes": [[["conv4_block7_concat", 0, 0, {}]]], "class_name": "BatchNormalization"}, {"name": "conv4_block8_0_relu", "config": {"name": "conv4_block8_0_relu", "activation": "relu", "trainable": true}, "inbound_nodes": [[["conv4_block8_0_bn", 0, 0, {}]]], "class_name": "Activation"}, {"name": "conv4_block8_1_conv", "config": {"name": "conv4_block8_1_conv", "bias_constraint": null, "strides": [1, 1], "data_format": "channels_last", "activation": "linear", "bias_initializer": {"config": {}, "class_name": "Zeros"}, "padding": "valid", "bias_regularizer": null, "kernel_constraint": null, "dilation_rate": [1, 1], "filters": 128, "use_bias": false, "trainable": true, "kernel_size": [1, 1], "kernel_regularizer": null, "kernel_initializer": {"config": {"distribution": "uniform", "scale": 1.0, "seed": null, "mode": "fan_avg"}, "class_name": "VarianceScaling"}, "activity_regularizer": null}, "inbound_nodes": [[["conv4_block8_0_relu", 0, 0, {}]]], "class_name": "Conv2D"}, {"name": "conv4_block8_1_bn", "config": {"name": "conv4_block8_1_bn", "gamma_initializer": {"config": {}, "class_name": "Ones"}, "scale": true, "momentum": 0.99, "gamma_regularizer": null, "beta_initializer": {"config": {}, "class_name": "Zeros"}, "moving_mean_initializer": {"config": {}, "class_name": "Zeros"}, "beta_constraint": null, "center": true, "gamma_constraint": null, "moving_variance_initializer": {"config": {}, "class_name": "Ones"}, "axis": 3, "beta_regularizer": null, "epsilon": 1.001e-05, "trainable": true}, "inbound_nodes": [[["conv4_block8_1_conv", 0, 0, {}]]], "class_name": "BatchNormalization"}, {"name": "conv4_block8_1_relu", "config": {"name": "conv4_block8_1_relu", "activation": "relu", "trainable": true}, "inbound_nodes": [[["conv4_block8_1_bn", 0, 0, {}]]], "class_name": "Activation"}, {"name": "conv4_block8_2_conv", "config": {"name": "conv4_block8_2_conv", "bias_constraint": null, "strides": [1, 1], "data_format": "channels_last", "activation": "linear", "bias_initializer": {"config": {}, "class_name": "Zeros"}, "padding": "same", "bias_regularizer": null, "kernel_constraint": null, "dilation_rate": [1, 1], "filters": 32, "use_bias": false, "trainable": true, "kernel_size": [3, 3], "kernel_regularizer": null, "kernel_initializer": {"config": {"distribution": "uniform", "scale": 1.0, "seed": null, "mode": "fan_avg"}, "class_name": "VarianceScaling"}, "activity_regularizer": null}, "inbound_nodes": [[["conv4_block8_1_relu", 0, 0, {}]]], "class_name": "Conv2D"}, {"name": "conv4_block8_concat", "config": {"name": "conv4_block8_concat", "axis": 3, "trainable": true}, "inbound_nodes": [[["conv4_block7_concat", 0, 0, {}], ["conv4_block8_2_conv", 0, 0, {}]]], "class_name": "Concatenate"}, {"name": "conv4_block9_0_bn", "config": {"name": "conv4_block9_0_bn", "gamma_initializer": {"config": {}, "class_name": "Ones"}, "scale": true, "momentum": 0.99, "gamma_regularizer": null, "beta_initializer": {"config": {}, "class_name": "Zeros"}, "moving_mean_initializer": {"config": {}, "class_name": "Zeros"}, "beta_constraint": null, "center": true, "gamma_constraint": null, "moving_variance_initializer": {"config": {}, "class_name": "Ones"}, "axis": 3, "beta_regularizer": null, "epsilon": 1.001e-05, "trainable": true}, "inbound_nodes": [[["conv4_block8_concat", 0, 0, {}]]], "class_name": "BatchNormalization"}, {"name": "conv4_block9_0_relu", "config": {"name": "conv4_block9_0_relu", "activation": "relu", "trainable": true}, "inbound_nodes": [[["conv4_block9_0_bn", 0, 0, {}]]], "class_name": "Activation"}, {"name": "conv4_block9_1_conv", "config": {"name": "conv4_block9_1_conv", "bias_constraint": null, "strides": [1, 1], "data_format": "channels_last", "activation": "linear", "bias_initializer": {"config": {}, "class_name": "Zeros"}, "padding": "valid", "bias_regularizer": null, "kernel_constraint": null, "dilation_rate": [1, 1], "filters": 128, "use_bias": false, "trainable": true, "kernel_size": [1, 1], "kernel_regularizer": null, "kernel_initializer": {"config": {"distribution": "uniform", "scale": 1.0, "seed": null, "mode": "fan_avg"}, "class_name": "VarianceScaling"}, "activity_regularizer": null}, "inbound_nodes": [[["conv4_block9_0_relu", 0, 0, {}]]], "class_name": "Conv2D"}, {"name": "conv4_block9_1_bn", "config": {"name": "conv4_block9_1_bn", "gamma_initializer": {"config": {}, "class_name": "Ones"}, "scale": true, "momentum": 0.99, "gamma_regularizer": null, "beta_initializer": {"config": {}, "class_name": "Zeros"}, "moving_mean_initializer": {"config": {}, "class_name": "Zeros"}, "beta_constraint": null, "center": true, "gamma_constraint": null, "moving_variance_initializer": {"config": {}, "class_name": "Ones"}, "axis": 3, "beta_regularizer": null, "epsilon": 1.001e-05, "trainable": true}, "inbound_nodes": [[["conv4_block9_1_conv", 0, 0, {}]]], "class_name": "BatchNormalization"}, {"name": "conv4_block9_1_relu", "config": {"name": "conv4_block9_1_relu", "activation": "relu", "trainable": true}, "inbound_nodes": [[["conv4_block9_1_bn", 0, 0, {}]]], "class_name": "Activation"}, {"name": "conv4_block9_2_conv", "config": {"name": "conv4_block9_2_conv", "bias_constraint": null, "strides": [1, 1], "data_format": "channels_last", "activation": "linear", "bias_initializer": {"config": {}, "class_name": "Zeros"}, "padding": "same", "bias_regularizer": null, "kernel_constraint": null, "dilation_rate": [1, 1], "filters": 32, "use_bias": false, "trainable": true, "kernel_size": [3, 3], "kernel_regularizer": null, "kernel_initializer": {"config": {"distribution": "uniform", "scale": 1.0, "seed": null, "mode": "fan_avg"}, "class_name": "VarianceScaling"}, "activity_regularizer": null}, "inbound_nodes": [[["conv4_block9_1_relu", 0, 0, {}]]], "class_name": "Conv2D"}, {"name": "conv4_block9_concat", "config": {"name": "conv4_block9_concat", "axis": 3, "trainable": true}, "inbound_nodes": [[["conv4_block8_concat", 0, 0, {}], ["conv4_block9_2_conv", 0, 0, {}]]], "class_name": "Concatenate"}, {"name": "conv4_block10_0_bn", "config": {"name": "conv4_block10_0_bn", "gamma_initializer": {"config": {}, "class_name": "Ones"}, "scale": true, "momentum": 0.99, "gamma_regularizer": null, "beta_initializer": {"config": {}, "class_name": "Zeros"}, "moving_mean_initializer": {"config": {}, "class_name": "Zeros"}, "beta_constraint": null, "center": true, "gamma_constraint": null, "moving_variance_initializer": {"config": {}, "class_name": "Ones"}, "axis": 3, "beta_regularizer": null, "epsilon": 1.001e-05, "trainable": true}, "inbound_nodes": [[["conv4_block9_concat", 0, 0, {}]]], "class_name": "BatchNormalization"}, {"name": "conv4_block10_0_relu", "config": {"name": "conv4_block10_0_relu", "activation": "relu", "trainable": true}, "inbound_nodes": [[["conv4_block10_0_bn", 0, 0, {}]]], "class_name": "Activation"}, {"name": "conv4_block10_1_conv", "config": {"name": "conv4_block10_1_conv", "bias_constraint": null, "strides": [1, 1], "data_format": "channels_last", "activation": "linear", "bias_initializer": {"config": {}, "class_name": "Zeros"}, "padding": "valid", "bias_regularizer": null, "kernel_constraint": null, "dilation_rate": [1, 1], "filters": 128, "use_bias": false, "trainable": true, "kernel_size": [1, 1], "kernel_regularizer": null, "kernel_initializer": {"config": {"distribution": "uniform", "scale": 1.0, "seed": null, "mode": "fan_avg"}, "class_name": "VarianceScaling"}, "activity_regularizer": null}, "inbound_nodes": [[["conv4_block10_0_relu", 0, 0, {}]]], "class_name": "Conv2D"}, {"name": "conv4_block10_1_bn", "config": {"name": "conv4_block10_1_bn", "gamma_initializer": {"config": {}, "class_name": "Ones"}, "scale": true, "momentum": 0.99, "gamma_regularizer": null, "beta_initializer": {"config": {}, "class_name": "Zeros"}, "moving_mean_initializer": {"config": {}, "class_name": "Zeros"}, "beta_constraint": null, "center": true, "gamma_constraint": null, "moving_variance_initializer": {"config": {}, "class_name": "Ones"}, "axis": 3, "beta_regularizer": null, "epsilon": 1.001e-05, "trainable": true}, "inbound_nodes": [[["conv4_block10_1_conv", 0, 0, {}]]], "class_name": "BatchNormalization"}, {"name": "conv4_block10_1_relu", "config": {"name": "conv4_block10_1_relu", "activation": "relu", "trainable": true}, "inbound_nodes": [[["conv4_block10_1_bn", 0, 0, {}]]], "class_name": "Activation"}, {"name": "conv4_block10_2_conv", "config": {"name": "conv4_block10_2_conv", "bias_constraint": null, "strides": [1, 1], "data_format": "channels_last", "activation": "linear", "bias_initializer": {"config": {}, "class_name": "Zeros"}, "padding": "same", "bias_regularizer": null, "kernel_constraint": null, "dilation_rate": [1, 1], "filters": 32, "use_bias": false, "trainable": true, "kernel_size": [3, 3], "kernel_regularizer": null, "kernel_initializer": {"config": {"distribution": "uniform", "scale": 1.0, "seed": null, "mode": "fan_avg"}, "class_name": "VarianceScaling"}, "activity_regularizer": null}, "inbound_nodes": [[["conv4_block10_1_relu", 0, 0, {}]]], "class_name": "Conv2D"}, {"name": "conv4_block10_concat", "config": {"name": "conv4_block10_concat", "axis": 3, "trainable": true}, "inbound_nodes": [[["conv4_block9_concat", 0, 0, {}], ["conv4_block10_2_conv", 0, 0, {}]]], "class_name": "Concatenate"}, {"name": "conv4_block11_0_bn", "config": {"name": "conv4_block11_0_bn", "gamma_initializer": {"config": {}, "class_name": "Ones"}, "scale": true, "momentum": 0.99, "gamma_regularizer": null, "beta_initializer": {"config": {}, "class_name": "Zeros"}, "moving_mean_initializer": {"config": {}, "class_name": "Zeros"}, "beta_constraint": null, "center": true, "gamma_constraint": null, "moving_variance_initializer": {"config": {}, "class_name": "Ones"}, "axis": 3, "beta_regularizer": null, "epsilon": 1.001e-05, "trainable": true}, "inbound_nodes": [[["conv4_block10_concat", 0, 0, {}]]], "class_name": "BatchNormalization"}, {"name": "conv4_block11_0_relu", "config": {"name": "conv4_block11_0_relu", "activation": "relu", "trainable": true}, "inbound_nodes": [[["conv4_block11_0_bn", 0, 0, {}]]], "class_name": "Activation"}, {"name": "conv4_block11_1_conv", "config": {"name": "conv4_block11_1_conv", "bias_constraint": null, "strides": [1, 1], "data_format": "channels_last", "activation": "linear", "bias_initializer": {"config": {}, "class_name": "Zeros"}, "padding": "valid", "bias_regularizer": null, "kernel_constraint": null, "dilation_rate": [1, 1], "filters": 128, "use_bias": false, "trainable": true, "kernel_size": [1, 1], "kernel_regularizer": null, "kernel_initializer": {"config": {"distribution": "uniform", "scale": 1.0, "seed": null, "mode": "fan_avg"}, "class_name": "VarianceScaling"}, "activity_regularizer": null}, "inbound_nodes": [[["conv4_block11_0_relu", 0, 0, {}]]], "class_name": "Conv2D"}, {"name": "conv4_block11_1_bn", "config": {"name": "conv4_block11_1_bn", "gamma_initializer": {"config": {}, "class_name": "Ones"}, "scale": true, "momentum": 0.99, "gamma_regularizer": null, "beta_initializer": {"config": {}, "class_name": "Zeros"}, "moving_mean_initializer": {"config": {}, "class_name": "Zeros"}, "beta_constraint": null, "center": true, "gamma_constraint": null, "moving_variance_initializer": {"config": {}, "class_name": "Ones"}, "axis": 3, "beta_regularizer": null, "epsilon": 1.001e-05, "trainable": true}, "inbound_nodes": [[["conv4_block11_1_conv", 0, 0, {}]]], "class_name": "BatchNormalization"}, {"name": "conv4_block11_1_relu", "config": {"name": "conv4_block11_1_relu", "activation": "relu", "trainable": true}, "inbound_nodes": [[["conv4_block11_1_bn", 0, 0, {}]]], "class_name": "Activation"}, {"name": "conv4_block11_2_conv", "config": {"name": "conv4_block11_2_conv", "bias_constraint": null, "strides": [1, 1], "data_format": "channels_last", "activation": "linear", "bias_initializer": {"config": {}, "class_name": "Zeros"}, "padding": "same", "bias_regularizer": null, "kernel_constraint": null, "dilation_rate": [1, 1], "filters": 32, "use_bias": false, "trainable": true, "kernel_size": [3, 3], "kernel_regularizer": null, "kernel_initializer": {"config": {"distribution": "uniform", "scale": 1.0, "seed": null, "mode": "fan_avg"}, "class_name": "VarianceScaling"}, "activity_regularizer": null}, "inbound_nodes": [[["conv4_block11_1_relu", 0, 0, {}]]], "class_name": "Conv2D"}, {"name": "conv4_block11_concat", "config": {"name": "conv4_block11_concat", "axis": 3, "trainable": true}, "inbound_nodes": [[["conv4_block10_concat", 0, 0, {}], ["conv4_block11_2_conv", 0, 0, {}]]], "class_name": "Concatenate"}, {"name": "conv4_block12_0_bn", "config": {"name": "conv4_block12_0_bn", "gamma_initializer": {"config": {}, "class_name": "Ones"}, "scale": true, "momentum": 0.99, "gamma_regularizer": null, "beta_initializer": {"config": {}, "class_name": "Zeros"}, "moving_mean_initializer": {"config": {}, "class_name": "Zeros"}, "beta_constraint": null, "center": true, "gamma_constraint": null, "moving_variance_initializer": {"config": {}, "class_name": "Ones"}, "axis": 3, "beta_regularizer": null, "epsilon": 1.001e-05, "trainable": true}, "inbound_nodes": [[["conv4_block11_concat", 0, 0, {}]]], "class_name": "BatchNormalization"}, {"name": "conv4_block12_0_relu", "config": {"name": "conv4_block12_0_relu", "activation": "relu", "trainable": true}, "inbound_nodes": [[["conv4_block12_0_bn", 0, 0, {}]]], "class_name": "Activation"}, {"name": "conv4_block12_1_conv", "config": {"name": "conv4_block12_1_conv", "bias_constraint": null, "strides": [1, 1], "data_format": "channels_last", "activation": "linear", "bias_initializer": {"config": {}, "class_name": "Zeros"}, "padding": "valid", "bias_regularizer": null, "kernel_constraint": null, "dilation_rate": [1, 1], "filters": 128, "use_bias": false, "trainable": true, "kernel_size": [1, 1], "kernel_regularizer": null, "kernel_initializer": {"config": {"distribution": "uniform", "scale": 1.0, "seed": null, "mode": "fan_avg"}, "class_name": "VarianceScaling"}, "activity_regularizer": null}, "inbound_nodes": [[["conv4_block12_0_relu", 0, 0, {}]]], "class_name": "Conv2D"}, {"name": "conv4_block12_1_bn", "config": {"name": "conv4_block12_1_bn", "gamma_initializer": {"config": {}, "class_name": "Ones"}, "scale": true, "momentum": 0.99, "gamma_regularizer": null, "beta_initializer": {"config": {}, "class_name": "Zeros"}, "moving_mean_initializer": {"config": {}, "class_name": "Zeros"}, "beta_constraint": null, "center": true, "gamma_constraint": null, "moving_variance_initializer": {"config": {}, "class_name": "Ones"}, "axis": 3, "beta_regularizer": null, "epsilon": 1.001e-05, "trainable": true}, "inbound_nodes": [[["conv4_block12_1_conv", 0, 0, {}]]], "class_name": "BatchNormalization"}, {"name": "conv4_block12_1_relu", "config": {"name": "conv4_block12_1_relu", "activation": "relu", "trainable": true}, "inbound_nodes": [[["conv4_block12_1_bn", 0, 0, {}]]], "class_name": "Activation"}, {"name": "conv4_block12_2_conv", "config": {"name": "conv4_block12_2_conv", "bias_constraint": null, "strides": [1, 1], "data_format": "channels_last", "activation": "linear", "bias_initializer": {"config": {}, "class_name": "Zeros"}, "padding": "same", "bias_regularizer": null, "kernel_constraint": null, "dilation_rate": [1, 1], "filters": 32, "use_bias": false, "trainable": true, "kernel_size": [3, 3], "kernel_regularizer": null, "kernel_initializer": {"config": {"distribution": "uniform", "scale": 1.0, "seed": null, "mode": "fan_avg"}, "class_name": "VarianceScaling"}, "activity_regularizer": null}, "inbound_nodes": [[["conv4_block12_1_relu", 0, 0, {}]]], "class_name": "Conv2D"}, {"name": "conv4_block12_concat", "config": {"name": "conv4_block12_concat", "axis": 3, "trainable": true}, "inbound_nodes": [[["conv4_block11_concat", 0, 0, {}], ["conv4_block12_2_conv", 0, 0, {}]]], "class_name": "Concatenate"}, {"name": "conv4_block13_0_bn", "config": {"name": "conv4_block13_0_bn", "gamma_initializer": {"config": {}, "class_name": "Ones"}, "scale": true, "momentum": 0.99, "gamma_regularizer": null, "beta_initializer": {"config": {}, "class_name": "Zeros"}, "moving_mean_initializer": {"config": {}, "class_name": "Zeros"}, "beta_constraint": null, "center": true, "gamma_constraint": null, "moving_variance_initializer": {"config": {}, "class_name": "Ones"}, "axis": 3, "beta_regularizer": null, "epsilon": 1.001e-05, "trainable": true}, "inbound_nodes": [[["conv4_block12_concat", 0, 0, {}]]], "class_name": "BatchNormalization"}, {"name": "conv4_block13_0_relu", "config": {"name": "conv4_block13_0_relu", "activation": "relu", "trainable": true}, "inbound_nodes": [[["conv4_block13_0_bn", 0, 0, {}]]], "class_name": "Activation"}, {"name": "conv4_block13_1_conv", "config": {"name": "conv4_block13_1_conv", "bias_constraint": null, "strides": [1, 1], "data_format": "channels_last", "activation": "linear", "bias_initializer": {"config": {}, "class_name": "Zeros"}, "padding": "valid", "bias_regularizer": null, "kernel_constraint": null, "dilation_rate": [1, 1], "filters": 128, "use_bias": false, "trainable": true, "kernel_size": [1, 1], "kernel_regularizer": null, "kernel_initializer": {"config": {"distribution": "uniform", "scale": 1.0, "seed": null, "mode": "fan_avg"}, "class_name": "VarianceScaling"}, "activity_regularizer": null}, "inbound_nodes": [[["conv4_block13_0_relu", 0, 0, {}]]], "class_name": "Conv2D"}, {"name": "conv4_block13_1_bn", "config": {"name": "conv4_block13_1_bn", "gamma_initializer": {"config": {}, "class_name": "Ones"}, "scale": true, "momentum": 0.99, "gamma_regularizer": null, "beta_initializer": {"config": {}, "class_name": "Zeros"}, "moving_mean_initializer": {"config": {}, "class_name": "Zeros"}, "beta_constraint": null, "center": true, "gamma_constraint": null, "moving_variance_initializer": {"config": {}, "class_name": "Ones"}, "axis": 3, "beta_regularizer": null, "epsilon": 1.001e-05, "trainable": true}, "inbound_nodes": [[["conv4_block13_1_conv", 0, 0, {}]]], "class_name": "BatchNormalization"}, {"name": "conv4_block13_1_relu", "config": {"name": "conv4_block13_1_relu", "activation": "relu", "trainable": true}, "inbound_nodes": [[["conv4_block13_1_bn", 0, 0, {}]]], "class_name": "Activation"}, {"name": "conv4_block13_2_conv", "config": {"name": "conv4_block13_2_conv", "bias_constraint": null, "strides": [1, 1], "data_format": "channels_last", "activation": "linear", "bias_initializer": {"config": {}, "class_name": "Zeros"}, "padding": "same", "bias_regularizer": null, "kernel_constraint": null, "dilation_rate": [1, 1], "filters": 32, "use_bias": false, "trainable": true, "kernel_size": [3, 3], "kernel_regularizer": null, "kernel_initializer": {"config": {"distribution": "uniform", "scale": 1.0, "seed": null, "mode": "fan_avg"}, "class_name": "VarianceScaling"}, "activity_regularizer": null}, "inbound_nodes": [[["conv4_block13_1_relu", 0, 0, {}]]], "class_name": "Conv2D"}, {"name": "conv4_block13_concat", "config": {"name": "conv4_block13_concat", "axis": 3, "trainable": true}, "inbound_nodes": [[["conv4_block12_concat", 0, 0, {}], ["conv4_block13_2_conv", 0, 0, {}]]], "class_name": "Concatenate"}, {"name": "conv4_block14_0_bn", "config": {"name": "conv4_block14_0_bn", "gamma_initializer": {"config": {}, "class_name": "Ones"}, "scale": true, "momentum": 0.99, "gamma_regularizer": null, "beta_initializer": {"config": {}, "class_name": "Zeros"}, "moving_mean_initializer": {"config": {}, "class_name": "Zeros"}, "beta_constraint": null, "center": true, "gamma_constraint": null, "moving_variance_initializer": {"config": {}, "class_name": "Ones"}, "axis": 3, "beta_regularizer": null, "epsilon": 1.001e-05, "trainable": true}, "inbound_nodes": [[["conv4_block13_concat", 0, 0, {}]]], "class_name": "BatchNormalization"}, {"name": "conv4_block14_0_relu", "config": {"name": "conv4_block14_0_relu", "activation": "relu", "trainable": true}, "inbound_nodes": [[["conv4_block14_0_bn", 0, 0, {}]]], "class_name": "Activation"}, {"name": "conv4_block14_1_conv", "config": {"name": "conv4_block14_1_conv", "bias_constraint": null, "strides": [1, 1], "data_format": "channels_last", "activation": "linear", "bias_initializer": {"config": {}, "class_name": "Zeros"}, "padding": "valid", "bias_regularizer": null, "kernel_constraint": null, "dilation_rate": [1, 1], "filters": 128, "use_bias": false, "trainable": true, "kernel_size": [1, 1], "kernel_regularizer": null, "kernel_initializer": {"config": {"distribution": "uniform", "scale": 1.0, "seed": null, "mode": "fan_avg"}, "class_name": "VarianceScaling"}, "activity_regularizer": null}, "inbound_nodes": [[["conv4_block14_0_relu", 0, 0, {}]]], "class_name": "Conv2D"}, {"name": "conv4_block14_1_bn", "config": {"name": "conv4_block14_1_bn", "gamma_initializer": {"config": {}, "class_name": "Ones"}, "scale": true, "momentum": 0.99, "gamma_regularizer": null, "beta_initializer": {"config": {}, "class_name": "Zeros"}, "moving_mean_initializer": {"config": {}, "class_name": "Zeros"}, "beta_constraint": null, "center": true, "gamma_constraint": null, "moving_variance_initializer": {"config": {}, "class_name": "Ones"}, "axis": 3, "beta_regularizer": null, "epsilon": 1.001e-05, "trainable": true}, "inbound_nodes": [[["conv4_block14_1_conv", 0, 0, {}]]], "class_name": "BatchNormalization"}, {"name": "conv4_block14_1_relu", "config": {"name": "conv4_block14_1_relu", "activation": "relu", "trainable": true}, "inbound_nodes": [[["conv4_block14_1_bn", 0, 0, {}]]], "class_name": "Activation"}, {"name": "conv4_block14_2_conv", "config": {"name": "conv4_block14_2_conv", "bias_constraint": null, "strides": [1, 1], "data_format": "channels_last", "activation": "linear", "bias_initializer": {"config": {}, "class_name": "Zeros"}, "padding": "same", "bias_regularizer": null, "kernel_constraint": null, "dilation_rate": [1, 1], "filters": 32, "use_bias": false, "trainable": true, "kernel_size": [3, 3], "kernel_regularizer": null, "kernel_initializer": {"config": {"distribution": "uniform", "scale": 1.0, "seed": null, "mode": "fan_avg"}, "class_name": "VarianceScaling"}, "activity_regularizer": null}, "inbound_nodes": [[["conv4_block14_1_relu", 0, 0, {}]]], "class_name": "Conv2D"}, {"name": "conv4_block14_concat", "config": {"name": "conv4_block14_concat", "axis": 3, "trainable": true}, "inbound_nodes": [[["conv4_block13_concat", 0, 0, {}], ["conv4_block14_2_conv", 0, 0, {}]]], "class_name": "Concatenate"}, {"name": "conv4_block15_0_bn", "config": {"name": "conv4_block15_0_bn", "gamma_initializer": {"config": {}, "class_name": "Ones"}, "scale": true, "momentum": 0.99, "gamma_regularizer": null, "beta_initializer": {"config": {}, "class_name": "Zeros"}, "moving_mean_initializer": {"config": {}, "class_name": "Zeros"}, "beta_constraint": null, "center": true, "gamma_constraint": null, "moving_variance_initializer": {"config": {}, "class_name": "Ones"}, "axis": 3, "beta_regularizer": null, "epsilon": 1.001e-05, "trainable": true}, "inbound_nodes": [[["conv4_block14_concat", 0, 0, {}]]], "class_name": "BatchNormalization"}, {"name": "conv4_block15_0_relu", "config": {"name": "conv4_block15_0_relu", "activation": "relu", "trainable": true}, "inbound_nodes": [[["conv4_block15_0_bn", 0, 0, {}]]], "class_name": "Activation"}, {"name": "conv4_block15_1_conv", "config": {"name": "conv4_block15_1_conv", "bias_constraint": null, "strides": [1, 1], "data_format": "channels_last", "activation": "linear", "bias_initializer": {"config": {}, "class_name": "Zeros"}, "padding": "valid", "bias_regularizer": null, "kernel_constraint": null, "dilation_rate": [1, 1], "filters": 128, "use_bias": false, "trainable": true, "kernel_size": [1, 1], "kernel_regularizer": null, "kernel_initializer": {"config": {"distribution": "uniform", "scale": 1.0, "seed": null, "mode": "fan_avg"}, "class_name": "VarianceScaling"}, "activity_regularizer": null}, "inbound_nodes": [[["conv4_block15_0_relu", 0, 0, {}]]], "class_name": "Conv2D"}, {"name": "conv4_block15_1_bn", "config": {"name": "conv4_block15_1_bn", "gamma_initializer": {"config": {}, "class_name": "Ones"}, "scale": true, "momentum": 0.99, "gamma_regularizer": null, "beta_initializer": {"config": {}, "class_name": "Zeros"}, "moving_mean_initializer": {"config": {}, "class_name": "Zeros"}, "beta_constraint": null, "center": true, "gamma_constraint": null, "moving_variance_initializer": {"config": {}, "class_name": "Ones"}, "axis": 3, "beta_regularizer": null, "epsilon": 1.001e-05, "trainable": true}, "inbound_nodes": [[["conv4_block15_1_conv", 0, 0, {}]]], "class_name": "BatchNormalization"}, {"name": "conv4_block15_1_relu", "config": {"name": "conv4_block15_1_relu", "activation": "relu", "trainable": true}, "inbound_nodes": [[["conv4_block15_1_bn", 0, 0, {}]]], "class_name": "Activation"}, {"name": "conv4_block15_2_conv", "config": {"name": "conv4_block15_2_conv", "bias_constraint": null, "strides": [1, 1], "data_format": "channels_last", "activation": "linear", "bias_initializer": {"config": {}, "class_name": "Zeros"}, "padding": "same", "bias_regularizer": null, "kernel_constraint": null, "dilation_rate": [1, 1], "filters": 32, "use_bias": false, "trainable": true, "kernel_size": [3, 3], "kernel_regularizer": null, "kernel_initializer": {"config": {"distribution": "uniform", "scale": 1.0, "seed": null, "mode": "fan_avg"}, "class_name": "VarianceScaling"}, "activity_regularizer": null}, "inbound_nodes": [[["conv4_block15_1_relu", 0, 0, {}]]], "class_name": "Conv2D"}, {"name": "conv4_block15_concat", "config": {"name": "conv4_block15_concat", "axis": 3, "trainable": true}, "inbound_nodes": [[["conv4_block14_concat", 0, 0, {}], ["conv4_block15_2_conv", 0, 0, {}]]], "class_name": "Concatenate"}, {"name": "conv4_block16_0_bn", "config": {"name": "conv4_block16_0_bn", "gamma_initializer": {"config": {}, "class_name": "Ones"}, "scale": true, "momentum": 0.99, "gamma_regularizer": null, "beta_initializer": {"config": {}, "class_name": "Zeros"}, "moving_mean_initializer": {"config": {}, "class_name": "Zeros"}, "beta_constraint": null, "center": true, "gamma_constraint": null, "moving_variance_initializer": {"config": {}, "class_name": "Ones"}, "axis": 3, "beta_regularizer": null, "epsilon": 1.001e-05, "trainable": true}, "inbound_nodes": [[["conv4_block15_concat", 0, 0, {}]]], "class_name": "BatchNormalization"}, {"name": "conv4_block16_0_relu", "config": {"name": "conv4_block16_0_relu", "activation": "relu", "trainable": true}, "inbound_nodes": [[["conv4_block16_0_bn", 0, 0, {}]]], "class_name": "Activation"}, {"name": "conv4_block16_1_conv", "config": {"name": "conv4_block16_1_conv", "bias_constraint": null, "strides": [1, 1], "data_format": "channels_last", "activation": "linear", "bias_initializer": {"config": {}, "class_name": "Zeros"}, "padding": "valid", "bias_regularizer": null, "kernel_constraint": null, "dilation_rate": [1, 1], "filters": 128, "use_bias": false, "trainable": true, "kernel_size": [1, 1], "kernel_regularizer": null, "kernel_initializer": {"config": {"distribution": "uniform", "scale": 1.0, "seed": null, "mode": "fan_avg"}, "class_name": "VarianceScaling"}, "activity_regularizer": null}, "inbound_nodes": [[["conv4_block16_0_relu", 0, 0, {}]]], "class_name": "Conv2D"}, {"name": "conv4_block16_1_bn", "config": {"name": "conv4_block16_1_bn", "gamma_initializer": {"config": {}, "class_name": "Ones"}, "scale": true, "momentum": 0.99, "gamma_regularizer": null, "beta_initializer": {"config": {}, "class_name": "Zeros"}, "moving_mean_initializer": {"config": {}, "class_name": "Zeros"}, "beta_constraint": null, "center": true, "gamma_constraint": null, "moving_variance_initializer": {"config": {}, "class_name": "Ones"}, "axis": 3, "beta_regularizer": null, "epsilon": 1.001e-05, "trainable": true}, "inbound_nodes": [[["conv4_block16_1_conv", 0, 0, {}]]], "class_name": "BatchNormalization"}, {"name": "conv4_block16_1_relu", "config": {"name": "conv4_block16_1_relu", "activation": "relu", "trainable": true}, "inbound_nodes": [[["conv4_block16_1_bn", 0, 0, {}]]], "class_name": "Activation"}, {"name": "conv4_block16_2_conv", "config": {"name": "conv4_block16_2_conv", "bias_constraint": null, "strides": [1, 1], "data_format": "channels_last", "activation": "linear", "bias_initializer": {"config": {}, "class_name": "Zeros"}, "padding": "same", "bias_regularizer": null, "kernel_constraint": null, "dilation_rate": [1, 1], "filters": 32, "use_bias": false, "trainable": true, "kernel_size": [3, 3], "kernel_regularizer": null, "kernel_initializer": {"config": {"distribution": "uniform", "scale": 1.0, "seed": null, "mode": "fan_avg"}, "class_name": "VarianceScaling"}, "activity_regularizer": null}, "inbound_nodes": [[["conv4_block16_1_relu", 0, 0, {}]]], "class_name": "Conv2D"}, {"name": "conv4_block16_concat", "config": {"name": "conv4_block16_concat", "axis": 3, "trainable": true}, "inbound_nodes": [[["conv4_block15_concat", 0, 0, {}], ["conv4_block16_2_conv", 0, 0, {}]]], "class_name": "Concatenate"}, {"name": "conv4_block17_0_bn", "config": {"name": "conv4_block17_0_bn", "gamma_initializer": {"config": {}, "class_name": "Ones"}, "scale": true, "momentum": 0.99, "gamma_regularizer": null, "beta_initializer": {"config": {}, "class_name": "Zeros"}, "moving_mean_initializer": {"config": {}, "class_name": "Zeros"}, "beta_constraint": null, "center": true, "gamma_constraint": null, "moving_variance_initializer": {"config": {}, "class_name": "Ones"}, "axis": 3, "beta_regularizer": null, "epsilon": 1.001e-05, "trainable": true}, "inbound_nodes": [[["conv4_block16_concat", 0, 0, {}]]], "class_name": "BatchNormalization"}, {"name": "conv4_block17_0_relu", "config": {"name": "conv4_block17_0_relu", "activation": "relu", "trainable": true}, "inbound_nodes": [[["conv4_block17_0_bn", 0, 0, {}]]], "class_name": "Activation"}, {"name": "conv4_block17_1_conv", "config": {"name": "conv4_block17_1_conv", "bias_constraint": null, "strides": [1, 1], "data_format": "channels_last", "activation": "linear", "bias_initializer": {"config": {}, "class_name": "Zeros"}, "padding": "valid", "bias_regularizer": null, "kernel_constraint": null, "dilation_rate": [1, 1], "filters": 128, "use_bias": false, "trainable": true, "kernel_size": [1, 1], "kernel_regularizer": null, "kernel_initializer": {"config": {"distribution": "uniform", "scale": 1.0, "seed": null, "mode": "fan_avg"}, "class_name": "VarianceScaling"}, "activity_regularizer": null}, "inbound_nodes": [[["conv4_block17_0_relu", 0, 0, {}]]], "class_name": "Conv2D"}, {"name": "conv4_block17_1_bn", "config": {"name": "conv4_block17_1_bn", "gamma_initializer": {"config": {}, "class_name": "Ones"}, "scale": true, "momentum": 0.99, "gamma_regularizer": null, "beta_initializer": {"config": {}, "class_name": "Zeros"}, "moving_mean_initializer": {"config": {}, "class_name": "Zeros"}, "beta_constraint": null, "center": true, "gamma_constraint": null, "moving_variance_initializer": {"config": {}, "class_name": "Ones"}, "axis": 3, "beta_regularizer": null, "epsilon": 1.001e-05, "trainable": true}, "inbound_nodes": [[["conv4_block17_1_conv", 0, 0, {}]]], "class_name": "BatchNormalization"}, {"name": "conv4_block17_1_relu", "config": {"name": "conv4_block17_1_relu", "activation": "relu", "trainable": true}, "inbound_nodes": [[["conv4_block17_1_bn", 0, 0, {}]]], "class_name": "Activation"}, {"name": "conv4_block17_2_conv", "config": {"name": "conv4_block17_2_conv", "bias_constraint": null, "strides": [1, 1], "data_format": "channels_last", "activation": "linear", "bias_initializer": {"config": {}, "class_name": "Zeros"}, "padding": "same", "bias_regularizer": null, "kernel_constraint": null, "dilation_rate": [1, 1], "filters": 32, "use_bias": false, "trainable": true, "kernel_size": [3, 3], "kernel_regularizer": null, "kernel_initializer": {"config": {"distribution": "uniform", "scale": 1.0, "seed": null, "mode": "fan_avg"}, "class_name": "VarianceScaling"}, "activity_regularizer": null}, "inbound_nodes": [[["conv4_block17_1_relu", 0, 0, {}]]], "class_name": "Conv2D"}, {"name": "conv4_block17_concat", "config": {"name": "conv4_block17_concat", "axis": 3, "trainable": true}, "inbound_nodes": [[["conv4_block16_concat", 0, 0, {}], ["conv4_block17_2_conv", 0, 0, {}]]], "class_name": "Concatenate"}, {"name": "conv4_block18_0_bn", "config": {"name": "conv4_block18_0_bn", "gamma_initializer": {"config": {}, "class_name": "Ones"}, "scale": true, "momentum": 0.99, "gamma_regularizer": null, "beta_initializer": {"config": {}, "class_name": "Zeros"}, "moving_mean_initializer": {"config": {}, "class_name": "Zeros"}, "beta_constraint": null, "center": true, "gamma_constraint": null, "moving_variance_initializer": {"config": {}, "class_name": "Ones"}, "axis": 3, "beta_regularizer": null, "epsilon": 1.001e-05, "trainable": true}, "inbound_nodes": [[["conv4_block17_concat", 0, 0, {}]]], "class_name": "BatchNormalization"}, {"name": "conv4_block18_0_relu", "config": {"name": "conv4_block18_0_relu", "activation": "relu", "trainable": true}, "inbound_nodes": [[["conv4_block18_0_bn", 0, 0, {}]]], "class_name": "Activation"}, {"name": "conv4_block18_1_conv", "config": {"name": "conv4_block18_1_conv", "bias_constraint": null, "strides": [1, 1], "data_format": "channels_last", "activation": "linear", "bias_initializer": {"config": {}, "class_name": "Zeros"}, "padding": "valid", "bias_regularizer": null, "kernel_constraint": null, "dilation_rate": [1, 1], "filters": 128, "use_bias": false, "trainable": true, "kernel_size": [1, 1], "kernel_regularizer": null, "kernel_initializer": {"config": {"distribution": "uniform", "scale": 1.0, "seed": null, "mode": "fan_avg"}, "class_name": "VarianceScaling"}, "activity_regularizer": null}, "inbound_nodes": [[["conv4_block18_0_relu", 0, 0, {}]]], "class_name": "Conv2D"}, {"name": "conv4_block18_1_bn", "config": {"name": "conv4_block18_1_bn", "gamma_initializer": {"config": {}, "class_name": "Ones"}, "scale": true, "momentum": 0.99, "gamma_regularizer": null, "beta_initializer": {"config": {}, "class_name": "Zeros"}, "moving_mean_initializer": {"config": {}, "class_name": "Zeros"}, "beta_constraint": null, "center": true, "gamma_constraint": null, "moving_variance_initializer": {"config": {}, "class_name": "Ones"}, "axis": 3, "beta_regularizer": null, "epsilon": 1.001e-05, "trainable": true}, "inbound_nodes": [[["conv4_block18_1_conv", 0, 0, {}]]], "class_name": "BatchNormalization"}, {"name": "conv4_block18_1_relu", "config": {"name": "conv4_block18_1_relu", "activation": "relu", "trainable": true}, "inbound_nodes": [[["conv4_block18_1_bn", 0, 0, {}]]], "class_name": "Activation"}, {"name": "conv4_block18_2_conv", "config": {"name": "conv4_block18_2_conv", "bias_constraint": null, "strides": [1, 1], "data_format": "channels_last", "activation": "linear", "bias_initializer": {"config": {}, "class_name": "Zeros"}, "padding": "same", "bias_regularizer": null, "kernel_constraint": null, "dilation_rate": [1, 1], "filters": 32, "use_bias": false, "trainable": true, "kernel_size": [3, 3], "kernel_regularizer": null, "kernel_initializer": {"config": {"distribution": "uniform", "scale": 1.0, "seed": null, "mode": "fan_avg"}, "class_name": "VarianceScaling"}, "activity_regularizer": null}, "inbound_nodes": [[["conv4_block18_1_relu", 0, 0, {}]]], "class_name": "Conv2D"}, {"name": "conv4_block18_concat", "config": {"name": "conv4_block18_concat", "axis": 3, "trainable": true}, "inbound_nodes": [[["conv4_block17_concat", 0, 0, {}], ["conv4_block18_2_conv", 0, 0, {}]]], "class_name": "Concatenate"}, {"name": "conv4_block19_0_bn", "config": {"name": "conv4_block19_0_bn", "gamma_initializer": {"config": {}, "class_name": "Ones"}, "scale": true, "momentum": 0.99, "gamma_regularizer": null, "beta_initializer": {"config": {}, "class_name": "Zeros"}, "moving_mean_initializer": {"config": {}, "class_name": "Zeros"}, "beta_constraint": null, "center": true, "gamma_constraint": null, "moving_variance_initializer": {"config": {}, "class_name": "Ones"}, "axis": 3, "beta_regularizer": null, "epsilon": 1.001e-05, "trainable": true}, "inbound_nodes": [[["conv4_block18_concat", 0, 0, {}]]], "class_name": "BatchNormalization"}, {"name": "conv4_block19_0_relu", "config": {"name": "conv4_block19_0_relu", "activation": "relu", "trainable": true}, "inbound_nodes": [[["conv4_block19_0_bn", 0, 0, {}]]], "class_name": "Activation"}, {"name": "conv4_block19_1_conv", "config": {"name": "conv4_block19_1_conv", "bias_constraint": null, "strides": [1, 1], "data_format": "channels_last", "activation": "linear", "bias_initializer": {"config": {}, "class_name": "Zeros"}, "padding": "valid", "bias_regularizer": null, "kernel_constraint": null, "dilation_rate": [1, 1], "filters": 128, "use_bias": false, "trainable": true, "kernel_size": [1, 1], "kernel_regularizer": null, "kernel_initializer": {"config": {"distribution": "uniform", "scale": 1.0, "seed": null, "mode": "fan_avg"}, "class_name": "VarianceScaling"}, "activity_regularizer": null}, "inbound_nodes": [[["conv4_block19_0_relu", 0, 0, {}]]], "class_name": "Conv2D"}, {"name": "conv4_block19_1_bn", "config": {"name": "conv4_block19_1_bn", "gamma_initializer": {"config": {}, "class_name": "Ones"}, "scale": true, "momentum": 0.99, "gamma_regularizer": null, "beta_initializer": {"config": {}, "class_name": "Zeros"}, "moving_mean_initializer": {"config": {}, "class_name": "Zeros"}, "beta_constraint": null, "center": true, "gamma_constraint": null, "moving_variance_initializer": {"config": {}, "class_name": "Ones"}, "axis": 3, "beta_regularizer": null, "epsilon": 1.001e-05, "trainable": true}, "inbound_nodes": [[["conv4_block19_1_conv", 0, 0, {}]]], "class_name": "BatchNormalization"}, {"name": "conv4_block19_1_relu", "config": {"name": "conv4_block19_1_relu", "activation": "relu", "trainable": true}, "inbound_nodes": [[["conv4_block19_1_bn", 0, 0, {}]]], "class_name": "Activation"}, {"name": "conv4_block19_2_conv", "config": {"name": "conv4_block19_2_conv", "bias_constraint": null, "strides": [1, 1], "data_format": "channels_last", "activation": "linear", "bias_initializer": {"config": {}, "class_name": "Zeros"}, "padding": "same", "bias_regularizer": null, "kernel_constraint": null, "dilation_rate": [1, 1], "filters": 32, "use_bias": false, "trainable": true, "kernel_size": [3, 3], "kernel_regularizer": null, "kernel_initializer": {"config": {"distribution": "uniform", "scale": 1.0, "seed": null, "mode": "fan_avg"}, "class_name": "VarianceScaling"}, "activity_regularizer": null}, "inbound_nodes": [[["conv4_block19_1_relu", 0, 0, {}]]], "class_name": "Conv2D"}, {"name": "conv4_block19_concat", "config": {"name": "conv4_block19_concat", "axis": 3, "trainable": true}, "inbound_nodes": [[["conv4_block18_concat", 0, 0, {}], ["conv4_block19_2_conv", 0, 0, {}]]], "class_name": "Concatenate"}, {"name": "conv4_block20_0_bn", "config": {"name": "conv4_block20_0_bn", "gamma_initializer": {"config": {}, "class_name": "Ones"}, "scale": true, "momentum": 0.99, "gamma_regularizer": null, "beta_initializer": {"config": {}, "class_name": "Zeros"}, "moving_mean_initializer": {"config": {}, "class_name": "Zeros"}, "beta_constraint": null, "center": true, "gamma_constraint": null, "moving_variance_initializer": {"config": {}, "class_name": "Ones"}, "axis": 3, "beta_regularizer": null, "epsilon": 1.001e-05, "trainable": true}, "inbound_nodes": [[["conv4_block19_concat", 0, 0, {}]]], "class_name": "BatchNormalization"}, {"name": "conv4_block20_0_relu", "config": {"name": "conv4_block20_0_relu", "activation": "relu", "trainable": true}, "inbound_nodes": [[["conv4_block20_0_bn", 0, 0, {}]]], "class_name": "Activation"}, {"name": "conv4_block20_1_conv", "config": {"name": "conv4_block20_1_conv", "bias_constraint": null, "strides": [1, 1], "data_format": "channels_last", "activation": "linear", "bias_initializer": {"config": {}, "class_name": "Zeros"}, "padding": "valid", "bias_regularizer": null, "kernel_constraint": null, "dilation_rate": [1, 1], "filters": 128, "use_bias": false, "trainable": true, "kernel_size": [1, 1], "kernel_regularizer": null, "kernel_initializer": {"config": {"distribution": "uniform", "scale": 1.0, "seed": null, "mode": "fan_avg"}, "class_name": "VarianceScaling"}, "activity_regularizer": null}, "inbound_nodes": [[["conv4_block20_0_relu", 0, 0, {}]]], "class_name": "Conv2D"}, {"name": "conv4_block20_1_bn", "config": {"name": "conv4_block20_1_bn", "gamma_initializer": {"config": {}, "class_name": "Ones"}, "scale": true, "momentum": 0.99, "gamma_regularizer": null, "beta_initializer": {"config": {}, "class_name": "Zeros"}, "moving_mean_initializer": {"config": {}, "class_name": "Zeros"}, "beta_constraint": null, "center": true, "gamma_constraint": null, "moving_variance_initializer": {"config": {}, "class_name": "Ones"}, "axis": 3, "beta_regularizer": null, "epsilon": 1.001e-05, "trainable": true}, "inbound_nodes": [[["conv4_block20_1_conv", 0, 0, {}]]], "class_name": "BatchNormalization"}, {"name": "conv4_block20_1_relu", "config": {"name": "conv4_block20_1_relu", "activation": "relu", "trainable": true}, "inbound_nodes": [[["conv4_block20_1_bn", 0, 0, {}]]], "class_name": "Activation"}, {"name": "conv4_block20_2_conv", "config": {"name": "conv4_block20_2_conv", "bias_constraint": null, "strides": [1, 1], "data_format": "channels_last", "activation": "linear", "bias_initializer": {"config": {}, "class_name": "Zeros"}, "padding": "same", "bias_regularizer": null, "kernel_constraint": null, "dilation_rate": [1, 1], "filters": 32, "use_bias": false, "trainable": true, "kernel_size": [3, 3], "kernel_regularizer": null, "kernel_initializer": {"config": {"distribution": "uniform", "scale": 1.0, "seed": null, "mode": "fan_avg"}, "class_name": "VarianceScaling"}, "activity_regularizer": null}, "inbound_nodes": [[["conv4_block20_1_relu", 0, 0, {}]]], "class_name": "Conv2D"}, {"name": "conv4_block20_concat", "config": {"name": "conv4_block20_concat", "axis": 3, "trainable": true}, "inbound_nodes": [[["conv4_block19_concat", 0, 0, {}], ["conv4_block20_2_conv", 0, 0, {}]]], "class_name": "Concatenate"}, {"name": "conv4_block21_0_bn", "config": {"name": "conv4_block21_0_bn", "gamma_initializer": {"config": {}, "class_name": "Ones"}, "scale": true, "momentum": 0.99, "gamma_regularizer": null, "beta_initializer": {"config": {}, "class_name": "Zeros"}, "moving_mean_initializer": {"config": {}, "class_name": "Zeros"}, "beta_constraint": null, "center": true, "gamma_constraint": null, "moving_variance_initializer": {"config": {}, "class_name": "Ones"}, "axis": 3, "beta_regularizer": null, "epsilon": 1.001e-05, "trainable": true}, "inbound_nodes": [[["conv4_block20_concat", 0, 0, {}]]], "class_name": "BatchNormalization"}, {"name": "conv4_block21_0_relu", "config": {"name": "conv4_block21_0_relu", "activation": "relu", "trainable": true}, "inbound_nodes": [[["conv4_block21_0_bn", 0, 0, {}]]], "class_name": "Activation"}, {"name": "conv4_block21_1_conv", "config": {"name": "conv4_block21_1_conv", "bias_constraint": null, "strides": [1, 1], "data_format": "channels_last", "activation": "linear", "bias_initializer": {"config": {}, "class_name": "Zeros"}, "padding": "valid", "bias_regularizer": null, "kernel_constraint": null, "dilation_rate": [1, 1], "filters": 128, "use_bias": false, "trainable": true, "kernel_size": [1, 1], "kernel_regularizer": null, "kernel_initializer": {"config": {"distribution": "uniform", "scale": 1.0, "seed": null, "mode": "fan_avg"}, "class_name": "VarianceScaling"}, "activity_regularizer": null}, "inbound_nodes": [[["conv4_block21_0_relu", 0, 0, {}]]], "class_name": "Conv2D"}, {"name": "conv4_block21_1_bn", "config": {"name": "conv4_block21_1_bn", "gamma_initializer": {"config": {}, "class_name": "Ones"}, "scale": true, "momentum": 0.99, "gamma_regularizer": null, "beta_initializer": {"config": {}, "class_name": "Zeros"}, "moving_mean_initializer": {"config": {}, "class_name": "Zeros"}, "beta_constraint": null, "center": true, "gamma_constraint": null, "moving_variance_initializer": {"config": {}, "class_name": "Ones"}, "axis": 3, "beta_regularizer": null, "epsilon": 1.001e-05, "trainable": true}, "inbound_nodes": [[["conv4_block21_1_conv", 0, 0, {}]]], "class_name": "BatchNormalization"}, {"name": "conv4_block21_1_relu", "config": {"name": "conv4_block21_1_relu", "activation": "relu", "trainable": true}, "inbound_nodes": [[["conv4_block21_1_bn", 0, 0, {}]]], "class_name": "Activation"}, {"name": "conv4_block21_2_conv", "config": {"name": "conv4_block21_2_conv", "bias_constraint": null, "strides": [1, 1], "data_format": "channels_last", "activation": "linear", "bias_initializer": {"config": {}, "class_name": "Zeros"}, "padding": "same", "bias_regularizer": null, "kernel_constraint": null, "dilation_rate": [1, 1], "filters": 32, "use_bias": false, "trainable": true, "kernel_size": [3, 3], "kernel_regularizer": null, "kernel_initializer": {"config": {"distribution": "uniform", "scale": 1.0, "seed": null, "mode": "fan_avg"}, "class_name": "VarianceScaling"}, "activity_regularizer": null}, "inbound_nodes": [[["conv4_block21_1_relu", 0, 0, {}]]], "class_name": "Conv2D"}, {"name": "conv4_block21_concat", "config": {"name": "conv4_block21_concat", "axis": 3, "trainable": true}, "inbound_nodes": [[["conv4_block20_concat", 0, 0, {}], ["conv4_block21_2_conv", 0, 0, {}]]], "class_name": "Concatenate"}, {"name": "conv4_block22_0_bn", "config": {"name": "conv4_block22_0_bn", "gamma_initializer": {"config": {}, "class_name": "Ones"}, "scale": true, "momentum": 0.99, "gamma_regularizer": null, "beta_initializer": {"config": {}, "class_name": "Zeros"}, "moving_mean_initializer": {"config": {}, "class_name": "Zeros"}, "beta_constraint": null, "center": true, "gamma_constraint": null, "moving_variance_initializer": {"config": {}, "class_name": "Ones"}, "axis": 3, "beta_regularizer": null, "epsilon": 1.001e-05, "trainable": true}, "inbound_nodes": [[["conv4_block21_concat", 0, 0, {}]]], "class_name": "BatchNormalization"}, {"name": "conv4_block22_0_relu", "config": {"name": "conv4_block22_0_relu", "activation": "relu", "trainable": true}, "inbound_nodes": [[["conv4_block22_0_bn", 0, 0, {}]]], "class_name": "Activation"}, {"name": "conv4_block22_1_conv", "config": {"name": "conv4_block22_1_conv", "bias_constraint": null, "strides": [1, 1], "data_format": "channels_last", "activation": "linear", "bias_initializer": {"config": {}, "class_name": "Zeros"}, "padding": "valid", "bias_regularizer": null, "kernel_constraint": null, "dilation_rate": [1, 1], "filters": 128, "use_bias": false, "trainable": true, "kernel_size": [1, 1], "kernel_regularizer": null, "kernel_initializer": {"config": {"distribution": "uniform", "scale": 1.0, "seed": null, "mode": "fan_avg"}, "class_name": "VarianceScaling"}, "activity_regularizer": null}, "inbound_nodes": [[["conv4_block22_0_relu", 0, 0, {}]]], "class_name": "Conv2D"}, {"name": "conv4_block22_1_bn", "config": {"name": "conv4_block22_1_bn", "gamma_initializer": {"config": {}, "class_name": "Ones"}, "scale": true, "momentum": 0.99, "gamma_regularizer": null, "beta_initializer": {"config": {}, "class_name": "Zeros"}, "moving_mean_initializer": {"config": {}, "class_name": "Zeros"}, "beta_constraint": null, "center": true, "gamma_constraint": null, "moving_variance_initializer": {"config": {}, "class_name": "Ones"}, "axis": 3, "beta_regularizer": null, "epsilon": 1.001e-05, "trainable": true}, "inbound_nodes": [[["conv4_block22_1_conv", 0, 0, {}]]], "class_name": "BatchNormalization"}, {"name": "conv4_block22_1_relu", "config": {"name": "conv4_block22_1_relu", "activation": "relu", "trainable": true}, "inbound_nodes": [[["conv4_block22_1_bn", 0, 0, {}]]], "class_name": "Activation"}, {"name": "conv4_block22_2_conv", "config": {"name": "conv4_block22_2_conv", "bias_constraint": null, "strides": [1, 1], "data_format": "channels_last", "activation": "linear", "bias_initializer": {"config": {}, "class_name": "Zeros"}, "padding": "same", "bias_regularizer": null, "kernel_constraint": null, "dilation_rate": [1, 1], "filters": 32, "use_bias": false, "trainable": true, "kernel_size": [3, 3], "kernel_regularizer": null, "kernel_initializer": {"config": {"distribution": "uniform", "scale": 1.0, "seed": null, "mode": "fan_avg"}, "class_name": "VarianceScaling"}, "activity_regularizer": null}, "inbound_nodes": [[["conv4_block22_1_relu", 0, 0, {}]]], "class_name": "Conv2D"}, {"name": "conv4_block22_concat", "config": {"name": "conv4_block22_concat", "axis": 3, "trainable": true}, "inbound_nodes": [[["conv4_block21_concat", 0, 0, {}], ["conv4_block22_2_conv", 0, 0, {}]]], "class_name": "Concatenate"}, {"name": "conv4_block23_0_bn", "config": {"name": "conv4_block23_0_bn", "gamma_initializer": {"config": {}, "class_name": "Ones"}, "scale": true, "momentum": 0.99, "gamma_regularizer": null, "beta_initializer": {"config": {}, "class_name": "Zeros"}, "moving_mean_initializer": {"config": {}, "class_name": "Zeros"}, "beta_constraint": null, "center": true, "gamma_constraint": null, "moving_variance_initializer": {"config": {}, "class_name": "Ones"}, "axis": 3, "beta_regularizer": null, "epsilon": 1.001e-05, "trainable": true}, "inbound_nodes": [[["conv4_block22_concat", 0, 0, {}]]], "class_name": "BatchNormalization"}, {"name": "conv4_block23_0_relu", "config": {"name": "conv4_block23_0_relu", "activation": "relu", "trainable": true}, "inbound_nodes": [[["conv4_block23_0_bn", 0, 0, {}]]], "class_name": "Activation"}, {"name": "conv4_block23_1_conv", "config": {"name": "conv4_block23_1_conv", "bias_constraint": null, "strides": [1, 1], "data_format": "channels_last", "activation": "linear", "bias_initializer": {"config": {}, "class_name": "Zeros"}, "padding": "valid", "bias_regularizer": null, "kernel_constraint": null, "dilation_rate": [1, 1], "filters": 128, "use_bias": false, "trainable": true, "kernel_size": [1, 1], "kernel_regularizer": null, "kernel_initializer": {"config": {"distribution": "uniform", "scale": 1.0, "seed": null, "mode": "fan_avg"}, "class_name": "VarianceScaling"}, "activity_regularizer": null}, "inbound_nodes": [[["conv4_block23_0_relu", 0, 0, {}]]], "class_name": "Conv2D"}, {"name": "conv4_block23_1_bn", "config": {"name": "conv4_block23_1_bn", "gamma_initializer": {"config": {}, "class_name": "Ones"}, "scale": true, "momentum": 0.99, "gamma_regularizer": null, "beta_initializer": {"config": {}, "class_name": "Zeros"}, "moving_mean_initializer": {"config": {}, "class_name": "Zeros"}, "beta_constraint": null, "center": true, "gamma_constraint": null, "moving_variance_initializer": {"config": {}, "class_name": "Ones"}, "axis": 3, "beta_regularizer": null, "epsilon": 1.001e-05, "trainable": true}, "inbound_nodes": [[["conv4_block23_1_conv", 0, 0, {}]]], "class_name": "BatchNormalization"}, {"name": "conv4_block23_1_relu", "config": {"name": "conv4_block23_1_relu", "activation": "relu", "trainable": true}, "inbound_nodes": [[["conv4_block23_1_bn", 0, 0, {}]]], "class_name": "Activation"}, {"name": "conv4_block23_2_conv", "config": {"name": "conv4_block23_2_conv", "bias_constraint": null, "strides": [1, 1], "data_format": "channels_last", "activation": "linear", "bias_initializer": {"config": {}, "class_name": "Zeros"}, "padding": "same", "bias_regularizer": null, "kernel_constraint": null, "dilation_rate": [1, 1], "filters": 32, "use_bias": false, "trainable": true, "kernel_size": [3, 3], "kernel_regularizer": null, "kernel_initializer": {"config": {"distribution": "uniform", "scale": 1.0, "seed": null, "mode": "fan_avg"}, "class_name": "VarianceScaling"}, "activity_regularizer": null}, "inbound_nodes": [[["conv4_block23_1_relu", 0, 0, {}]]], "class_name": "Conv2D"}, {"name": "conv4_block23_concat", "config": {"name": "conv4_block23_concat", "axis": 3, "trainable": true}, "inbound_nodes": [[["conv4_block22_concat", 0, 0, {}], ["conv4_block23_2_conv", 0, 0, {}]]], "class_name": "Concatenate"}, {"name": "conv4_block24_0_bn", "config": {"name": "conv4_block24_0_bn", "gamma_initializer": {"config": {}, "class_name": "Ones"}, "scale": true, "momentum": 0.99, "gamma_regularizer": null, "beta_initializer": {"config": {}, "class_name": "Zeros"}, "moving_mean_initializer": {"config": {}, "class_name": "Zeros"}, "beta_constraint": null, "center": true, "gamma_constraint": null, "moving_variance_initializer": {"config": {}, "class_name": "Ones"}, "axis": 3, "beta_regularizer": null, "epsilon": 1.001e-05, "trainable": true}, "inbound_nodes": [[["conv4_block23_concat", 0, 0, {}]]], "class_name": "BatchNormalization"}, {"name": "conv4_block24_0_relu", "config": {"name": "conv4_block24_0_relu", "activation": "relu", "trainable": true}, "inbound_nodes": [[["conv4_block24_0_bn", 0, 0, {}]]], "class_name": "Activation"}, {"name": "conv4_block24_1_conv", "config": {"name": "conv4_block24_1_conv", "bias_constraint": null, "strides": [1, 1], "data_format": "channels_last", "activation": "linear", "bias_initializer": {"config": {}, "class_name": "Zeros"}, "padding": "valid", "bias_regularizer": null, "kernel_constraint": null, "dilation_rate": [1, 1], "filters": 128, "use_bias": false, "trainable": true, "kernel_size": [1, 1], "kernel_regularizer": null, "kernel_initializer": {"config": {"distribution": "uniform", "scale": 1.0, "seed": null, "mode": "fan_avg"}, "class_name": "VarianceScaling"}, "activity_regularizer": null}, "inbound_nodes": [[["conv4_block24_0_relu", 0, 0, {}]]], "class_name": "Conv2D"}, {"name": "conv4_block24_1_bn", "config": {"name": "conv4_block24_1_bn", "gamma_initializer": {"config": {}, "class_name": "Ones"}, "scale": true, "momentum": 0.99, "gamma_regularizer": null, "beta_initializer": {"config": {}, "class_name": "Zeros"}, "moving_mean_initializer": {"config": {}, "class_name": "Zeros"}, "beta_constraint": null, "center": true, "gamma_constraint": null, "moving_variance_initializer": {"config": {}, "class_name": "Ones"}, "axis": 3, "beta_regularizer": null, "epsilon": 1.001e-05, "trainable": true}, "inbound_nodes": [[["conv4_block24_1_conv", 0, 0, {}]]], "class_name": "BatchNormalization"}, {"name": "conv4_block24_1_relu", "config": {"name": "conv4_block24_1_relu", "activation": "relu", "trainable": true}, "inbound_nodes": [[["conv4_block24_1_bn", 0, 0, {}]]], "class_name": "Activation"}, {"name": "conv4_block24_2_conv", "config": {"name": "conv4_block24_2_conv", "bias_constraint": null, "strides": [1, 1], "data_format": "channels_last", "activation": "linear", "bias_initializer": {"config": {}, "class_name": "Zeros"}, "padding": "same", "bias_regularizer": null, "kernel_constraint": null, "dilation_rate": [1, 1], "filters": 32, "use_bias": false, "trainable": true, "kernel_size": [3, 3], "kernel_regularizer": null, "kernel_initializer": {"config": {"distribution": "uniform", "scale": 1.0, "seed": null, "mode": "fan_avg"}, "class_name": "VarianceScaling"}, "activity_regularizer": null}, "inbound_nodes": [[["conv4_block24_1_relu", 0, 0, {}]]], "class_name": "Conv2D"}, {"name": "conv4_block24_concat", "config": {"name": "conv4_block24_concat", "axis": 3, "trainable": true}, "inbound_nodes": [[["conv4_block23_concat", 0, 0, {}], ["conv4_block24_2_conv", 0, 0, {}]]], "class_name": "Concatenate"}, {"name": "conv4_block25_0_bn", "config": {"name": "conv4_block25_0_bn", "gamma_initializer": {"config": {}, "class_name": "Ones"}, "scale": true, "momentum": 0.99, "gamma_regularizer": null, "beta_initializer": {"config": {}, "class_name": "Zeros"}, "moving_mean_initializer": {"config": {}, "class_name": "Zeros"}, "beta_constraint": null, "center": true, "gamma_constraint": null, "moving_variance_initializer": {"config": {}, "class_name": "Ones"}, "axis": 3, "beta_regularizer": null, "epsilon": 1.001e-05, "trainable": true}, "inbound_nodes": [[["conv4_block24_concat", 0, 0, {}]]], "class_name": "BatchNormalization"}, {"name": "conv4_block25_0_relu", "config": {"name": "conv4_block25_0_relu", "activation": "relu", "trainable": true}, "inbound_nodes": [[["conv4_block25_0_bn", 0, 0, {}]]], "class_name": "Activation"}, {"name": "conv4_block25_1_conv", "config": {"name": "conv4_block25_1_conv", "bias_constraint": null, "strides": [1, 1], "data_format": "channels_last", "activation": "linear", "bias_initializer": {"config": {}, "class_name": "Zeros"}, "padding": "valid", "bias_regularizer": null, "kernel_constraint": null, "dilation_rate": [1, 1], "filters": 128, "use_bias": false, "trainable": true, "kernel_size": [1, 1], "kernel_regularizer": null, "kernel_initializer": {"config": {"distribution": "uniform", "scale": 1.0, "seed": null, "mode": "fan_avg"}, "class_name": "VarianceScaling"}, "activity_regularizer": null}, "inbound_nodes": [[["conv4_block25_0_relu", 0, 0, {}]]], "class_name": "Conv2D"}, {"name": "conv4_block25_1_bn", "config": {"name": "conv4_block25_1_bn", "gamma_initializer": {"config": {}, "class_name": "Ones"}, "scale": true, "momentum": 0.99, "gamma_regularizer": null, "beta_initializer": {"config": {}, "class_name": "Zeros"}, "moving_mean_initializer": {"config": {}, "class_name": "Zeros"}, "beta_constraint": null, "center": true, "gamma_constraint": null, "moving_variance_initializer": {"config": {}, "class_name": "Ones"}, "axis": 3, "beta_regularizer": null, "epsilon": 1.001e-05, "trainable": true}, "inbound_nodes": [[["conv4_block25_1_conv", 0, 0, {}]]], "class_name": "BatchNormalization"}, {"name": "conv4_block25_1_relu", "config": {"name": "conv4_block25_1_relu", "activation": "relu", "trainable": true}, "inbound_nodes": [[["conv4_block25_1_bn", 0, 0, {}]]], "class_name": "Activation"}, {"name": "conv4_block25_2_conv", "config": {"name": "conv4_block25_2_conv", "bias_constraint": null, "strides": [1, 1], "data_format": "channels_last", "activation": "linear", "bias_initializer": {"config": {}, "class_name": "Zeros"}, "padding": "same", "bias_regularizer": null, "kernel_constraint": null, "dilation_rate": [1, 1], "filters": 32, "use_bias": false, "trainable": true, "kernel_size": [3, 3], "kernel_regularizer": null, "kernel_initializer": {"config": {"distribution": "uniform", "scale": 1.0, "seed": null, "mode": "fan_avg"}, "class_name": "VarianceScaling"}, "activity_regularizer": null}, "inbound_nodes": [[["conv4_block25_1_relu", 0, 0, {}]]], "class_name": "Conv2D"}, {"name": "conv4_block25_concat", "config": {"name": "conv4_block25_concat", "axis": 3, "trainable": true}, "inbound_nodes": [[["conv4_block24_concat", 0, 0, {}], ["conv4_block25_2_conv", 0, 0, {}]]], "class_name": "Concatenate"}, {"name": "conv4_block26_0_bn", "config": {"name": "conv4_block26_0_bn", "gamma_initializer": {"config": {}, "class_name": "Ones"}, "scale": true, "momentum": 0.99, "gamma_regularizer": null, "beta_initializer": {"config": {}, "class_name": "Zeros"}, "moving_mean_initializer": {"config": {}, "class_name": "Zeros"}, "beta_constraint": null, "center": true, "gamma_constraint": null, "moving_variance_initializer": {"config": {}, "class_name": "Ones"}, "axis": 3, "beta_regularizer": null, "epsilon": 1.001e-05, "trainable": true}, "inbound_nodes": [[["conv4_block25_concat", 0, 0, {}]]], "class_name": "BatchNormalization"}, {"name": "conv4_block26_0_relu", "config": {"name": "conv4_block26_0_relu", "activation": "relu", "trainable": true}, "inbound_nodes": [[["conv4_block26_0_bn", 0, 0, {}]]], "class_name": "Activation"}, {"name": "conv4_block26_1_conv", "config": {"name": "conv4_block26_1_conv", "bias_constraint": null, "strides": [1, 1], "data_format": "channels_last", "activation": "linear", "bias_initializer": {"config": {}, "class_name": "Zeros"}, "padding": "valid", "bias_regularizer": null, "kernel_constraint": null, "dilation_rate": [1, 1], "filters": 128, "use_bias": false, "trainable": true, "kernel_size": [1, 1], "kernel_regularizer": null, "kernel_initializer": {"config": {"distribution": "uniform", "scale": 1.0, "seed": null, "mode": "fan_avg"}, "class_name": "VarianceScaling"}, "activity_regularizer": null}, "inbound_nodes": [[["conv4_block26_0_relu", 0, 0, {}]]], "class_name": "Conv2D"}, {"name": "conv4_block26_1_bn", "config": {"name": "conv4_block26_1_bn", "gamma_initializer": {"config": {}, "class_name": "Ones"}, "scale": true, "momentum": 0.99, "gamma_regularizer": null, "beta_initializer": {"config": {}, "class_name": "Zeros"}, "moving_mean_initializer": {"config": {}, "class_name": "Zeros"}, "beta_constraint": null, "center": true, "gamma_constraint": null, "moving_variance_initializer": {"config": {}, "class_name": "Ones"}, "axis": 3, "beta_regularizer": null, "epsilon": 1.001e-05, "trainable": true}, "inbound_nodes": [[["conv4_block26_1_conv", 0, 0, {}]]], "class_name": "BatchNormalization"}, {"name": "conv4_block26_1_relu", "config": {"name": "conv4_block26_1_relu", "activation": "relu", "trainable": true}, "inbound_nodes": [[["conv4_block26_1_bn", 0, 0, {}]]], "class_name": "Activation"}, {"name": "conv4_block26_2_conv", "config": {"name": "conv4_block26_2_conv", "bias_constraint": null, "strides": [1, 1], "data_format": "channels_last", "activation": "linear", "bias_initializer": {"config": {}, "class_name": "Zeros"}, "padding": "same", "bias_regularizer": null, "kernel_constraint": null, "dilation_rate": [1, 1], "filters": 32, "use_bias": false, "trainable": true, "kernel_size": [3, 3], "kernel_regularizer": null, "kernel_initializer": {"config": {"distribution": "uniform", "scale": 1.0, "seed": null, "mode": "fan_avg"}, "class_name": "VarianceScaling"}, "activity_regularizer": null}, "inbound_nodes": [[["conv4_block26_1_relu", 0, 0, {}]]], "class_name": "Conv2D"}, {"name": "conv4_block26_concat", "config": {"name": "conv4_block26_concat", "axis": 3, "trainable": true}, "inbound_nodes": [[["conv4_block25_concat", 0, 0, {}], ["conv4_block26_2_conv", 0, 0, {}]]], "class_name": "Concatenate"}, {"name": "conv4_block27_0_bn", "config": {"name": "conv4_block27_0_bn", "gamma_initializer": {"config": {}, "class_name": "Ones"}, "scale": true, "momentum": 0.99, "gamma_regularizer": null, "beta_initializer": {"config": {}, "class_name": "Zeros"}, "moving_mean_initializer": {"config": {}, "class_name": "Zeros"}, "beta_constraint": null, "center": true, "gamma_constraint": null, "moving_variance_initializer": {"config": {}, "class_name": "Ones"}, "axis": 3, "beta_regularizer": null, "epsilon": 1.001e-05, "trainable": true}, "inbound_nodes": [[["conv4_block26_concat", 0, 0, {}]]], "class_name": "BatchNormalization"}, {"name": "conv4_block27_0_relu", "config": {"name": "conv4_block27_0_relu", "activation": "relu", "trainable": true}, "inbound_nodes": [[["conv4_block27_0_bn", 0, 0, {}]]], "class_name": "Activation"}, {"name": "conv4_block27_1_conv", "config": {"name": "conv4_block27_1_conv", "bias_constraint": null, "strides": [1, 1], "data_…
on": 1.001e-05, "trainable": true}, "inbound_nodes": [[["conv5_block23_concat", 0, 0, {}]]], "class_name": "BatchNormalization"}, {"name": "conv5_block24_0_relu", "config": {"name": "conv5_block24_0_relu", "activation": "relu", "trainable": true}, "inbound_nodes": [[["conv5_block24_0_bn", 0, 0, {}]]], "class_name": "Activation"}, {"name": "conv5_block24_1_conv", "config": {"name": "conv5_block24_1_conv", "bias_constraint": null, "strides": [1, 1], "data_format": "channels_last", "activation": "linear", "bias_initializer": {"config": {}, "class_name": "Zeros"}, "padding": "valid", "bias_regularizer": null, "kernel_constraint": null, "dilation_rate": [1, 1], "filters": 128, "use_bias": false, "trainable": true, "kernel_size": [1, 1], "kernel_regularizer": null, "kernel_initializer": {"config": {"distribution": "uniform", "scale": 1.0, "seed": null, "mode": "fan_avg"}, "class_name": "VarianceScaling"}, "activity_regularizer": null}, "inbound_nodes": [[["conv5_block24_0_relu", 0, 0, {}]]], "class_name": "Conv2D"}, {"name": "conv5_block24_1_bn", "config": {"name": "conv5_block24_1_bn", "gamma_initializer": {"config": {}, "class_name": "Ones"}, "scale": true, "momentum": 0.99, "gamma_regularizer": null, "beta_initializer": {"config": {}, "class_name": "Zeros"}, "moving_mean_initializer": {"config": {}, "class_name": "Zeros"}, "beta_constraint": null, "center": true, "gamma_constraint": null, "moving_variance_initializer": {"config": {}, "class_name": "Ones"}, "axis": 3, "beta_regularizer": null, "epsilon": 1.001e-05, "trainable": true}, "inbound_nodes": [[["conv5_block24_1_conv", 0, 0, {}]]], "class_name": "BatchNormalization"}, {"name": "conv5_block24_1_relu", "config": {"name": "conv5_block24_1_relu", "activation": "relu", "trainable": true}, "inbound_nodes": [[["conv5_block24_1_bn", 0, 0, {}]]], "class_name": "Activation"}, {"name": "conv5_block24_2_conv", "config": {"name": "conv5_block24_2_conv", "bias_constraint": null, "strides": [1, 1], "data_format": "channels_last", "activation": "linear", "bias_initializer": {"config": {}, "class_name": "Zeros"}, "padding": "same", "bias_regularizer": null, "kernel_constraint": null, "dilation_rate": [1, 1], "filters": 32, "use_bias": false, "trainable": true, "kernel_size": [3, 3], "kernel_regularizer": null, "kernel_initializer": {"config": {"distribution": "uniform", "scale": 1.0, "seed": null, "mode": "fan_avg"}, "class_name": "VarianceScaling"}, "activity_regularizer": null}, "inbound_nodes": [[["conv5_block24_1_relu", 0, 0, {}]]], "class_name": "Conv2D"}, {"name": "conv5_block24_concat", "config": {"name": "conv5_block24_concat", "axis": 3, "trainable": true}, "inbound_nodes": [[["conv5_block23_concat", 0, 0, {}], ["conv5_block24_2_conv", 0, 0, {}]]], "class_name": "Concatenate"}, {"name": "conv5_block25_0_bn", "config": {"name": "conv5_block25_0_bn", "gamma_initializer": {"config": {}, "class_name": "Ones"}, "scale": true, "momentum": 0.99, "gamma_regularizer": null, "beta_initializer": {"config": {}, "class_name": "Zeros"}, "moving_mean_initializer": {"config": {}, "class_name": "Zeros"}, "beta_constraint": null, "center": true, "gamma_constraint": null, "moving_variance_initializer": {"config": {}, "class_name": "Ones"}, "axis": 3, "beta_regularizer": null, "epsilon": 1.001e-05, "trainable": true}, "inbound_nodes": [[["conv5_block24_concat", 0, 0, {}]]], "class_name": "BatchNormalization"}, {"name": "conv5_block25_0_relu", "config": {"name": "conv5_block25_0_relu", "activation": "relu", "trainable": true}, "inbound_nodes": [[["conv5_block25_0_bn", 0, 0, {}]]], "class_name": "Activation"}, {"name": "conv5_block25_1_conv", "config": {"name": "conv5_block25_1_conv", "bias_constraint": null, "strides": [1, 1], "data_format": "channels_last", "activation": "linear", "bias_initializer": {"config": {}, "class_name": "Zeros"}, "padding": "valid", "bias_regularizer": null, "kernel_constraint": null, "dilation_rate": [1, 1], "filters": 128, "use_bias": false, "trainable": true, "kernel_size": [1, 1], "kernel_regularizer": null, "kernel_initializer": {"config": {"distribution": "uniform", "scale": 1.0, "seed": null, "mode": "fan_avg"}, "class_name": "VarianceScaling"}, "activity_regularizer": null}, "inbound_nodes": [[["conv5_block25_0_relu", 0, 0, {}]]], "class_name": "Conv2D"}, {"name": "conv5_block25_1_bn", "config": {"name": "conv5_block25_1_bn", "gamma_initializer": {"config": {}, "class_name": "Ones"}, "scale": true, "momentum": 0.99, "gamma_regularizer": null, "beta_initializer": {"config": {}, "class_name": "Zeros"}, "moving_mean_initializer": {"config": {}, "class_name": "Zeros"}, "beta_constraint": null, "center": true, "gamma_constraint": null, "moving_variance_initializer": {"config": {}, "class_name": "Ones"}, "axis": 3, "beta_regularizer": null, "epsilon": 1.001e-05, "trainable": true}, "inbound_nodes": [[["conv5_block25_1_conv", 0, 0, {}]]], "class_name": "BatchNormalization"}, {"name": "conv5_block25_1_relu", "config": {"name": "conv5_block25_1_relu", "activation": "relu", "trainable": true}, "inbound_nodes": [[["conv5_block25_1_bn", 0, 0, {}]]], "class_name": "Activation"}, {"name": "conv5_block25_2_conv", "config": {"name": "conv5_block25_2_conv", "bias_constraint": null, "strides": [1, 1], "data_format": "channels_last", "activation": "linear", "bias_initializer": {"config": {}, "class_name": "Zeros"}, "padding": "same", "bias_regularizer": null, "kernel_constraint": null, "dilation_rate": [1, 1], "filters": 32, "use_bias": false, "trainable": true, "kernel_size": [3, 3], "kernel_regularizer": null, "kernel_initializer": {"config": {"distribution": "uniform", "scale": 1.0, "seed": null, "mode": "fan_avg"}, "class_name": "VarianceScaling"}, "activity_regularizer": null}, "inbound_nodes": [[["conv5_block25_1_relu", 0, 0, {}]]], "class_name": "Conv2D"}, {"name": "conv5_block25_concat", "config": {"name": "conv5_block25_concat", "axis": 3, "trainable": true}, "inbound_nodes": [[["conv5_block24_concat", 0, 0, {}], ["conv5_block25_2_conv", 0, 0, {}]]], "class_name": "Concatenate"}, {"name": "conv5_block26_0_bn", "config": {"name": "conv5_block26_0_bn", "gamma_initializer": {"config": {}, "class_name": "Ones"}, "scale": true, "momentum": 0.99, "gamma_regularizer": null, "beta_initializer": {"config": {}, "class_name": "Zeros"}, "moving_mean_initializer": {"config": {}, "class_name": "Zeros"}, "beta_constraint": null, "center": true, "gamma_constraint": null, "moving_variance_initializer": {"config": {}, "class_name": "Ones"}, "axis": 3, "beta_regularizer": null, "epsilon": 1.001e-05, "trainable": true}, "inbound_nodes": [[["conv5_block25_concat", 0, 0, {}]]], "class_name": "BatchNormalization"}, {"name": "conv5_block26_0_relu", "config": {"name": "conv5_block26_0_relu", "activation": "relu", "trainable": true}, "inbound_nodes": [[["conv5_block26_0_bn", 0, 0, {}]]], "class_name": "Activation"}, {"name": "conv5_block26_1_conv", "config": {"name": "conv5_block26_1_conv", "bias_constraint": null, "strides": [1, 1], "data_format": "channels_last", "activation": "linear", "bias_initializer": {"config": {}, "class_name": "Zeros"}, "padding": "valid", "bias_regularizer": null, "kernel_constraint": null, "dilation_rate": [1, 1], "filters": 128, "use_bias": false, "trainable": true, "kernel_size": [1, 1], "kernel_regularizer": null, "kernel_initializer": {"config": {"distribution": "uniform", "scale": 1.0, "seed": null, "mode": "fan_avg"}, "class_name": "VarianceScaling"}, "activity_regularizer": null}, "inbound_nodes": [[["conv5_block26_0_relu", 0, 0, {}]]], "class_name": "Conv2D"}, {"name": "conv5_block26_1_bn", "config": {"name": "conv5_block26_1_bn", "gamma_initializer": {"config": {}, "class_name": "Ones"}, "scale": true, "momentum": 0.99, "gamma_regularizer": null, "beta_initializer": {"config": {}, "class_name": "Zeros"}, "moving_mean_initializer": {"config": {}, "class_name": "Zeros"}, "beta_constraint": null, "center": true, "gamma_constraint": null, "moving_variance_initializer": {"config": {}, "class_name": "Ones"}, "axis": 3, "beta_regularizer": null, "epsilon": 1.001e-05, "trainable": true}, "inbound_nodes": [[["conv5_block26_1_conv", 0, 0, {}]]], "class_name": "BatchNormalization"}, {"name": "conv5_block26_1_relu", "config": {"name": "conv5_block26_1_relu", "activation": "relu", "trainable": true}, "inbound_nodes": [[["conv5_block26_1_bn", 0, 0, {}]]], "class_name": "Activation"}, {"name": "conv5_block26_2_conv", "config": {"name": "conv5_block26_2_conv", "bias_constraint": null, "strides": [1, 1], "data_format": "channels_last", "activation": "linear", "bias_initializer": {"config": {}, "class_name": "Zeros"}, "padding": "same", "bias_regularizer": null, "kernel_constraint": null, "dilation_rate": [1, 1], "filters": 32, "use_bias": false, "trainable": true, "kernel_size": [3, 3], "kernel_regularizer": null, "kernel_initializer": {"config": {"distribution": "uniform", "scale": 1.0, "seed": null, "mode": "fan_avg"}, "class_name": "VarianceScaling"}, "activity_regularizer": null}, "inbound_nodes": [[["conv5_block26_1_relu", 0, 0, {}]]], "class_name": "Conv2D"}, {"name": "conv5_block26_concat", "config": {"name": "conv5_block26_concat", "axis": 3, "trainable": true}, "inbound_nodes": [[["conv5_block25_concat", 0, 0, {}], ["conv5_block26_2_conv", 0, 0, {}]]], "class_name": "Concatenate"}, {"name": "conv5_block27_0_bn", "config": {"name": "conv5_block27_0_bn", "gamma_initializer": {"config": {}, "class_name": "Ones"}, "scale": true, "momentum": 0.99, "gamma_regularizer": null, "beta_initializer": {"config": {}, "class_name": "Zeros"}, "moving_mean_initializer": {"config": {}, "class_name": "Zeros"}, "beta_constraint": null, "center": true, "gamma_constraint": null, "moving_variance_initializer": {"config": {}, "class_name": "Ones"}, "axis": 3, "beta_regularizer": null, "epsilon": 1.001e-05, "trainable": true}, "inbound_nodes": [[["conv5_block26_concat", 0, 0, {}]]], "class_name": "BatchNormalization"}, {"name": "conv5_block27_0_relu", "config": {"name": "conv5_block27_0_relu", "activation": "relu", "trainable": true}, "inbound_nodes": [[["conv5_block27_0_bn", 0, 0, {}]]], "class_name": "Activation"}, {"name": "conv5_block27_1_conv", "config": {"name": "conv5_block27_1_conv", "bias_constraint": null, "strides": [1, 1], "data_format": "channels_last", "activation": "linear", "bias_initializer": {"config": {}, "class_name": "Zeros"}, "padding": "valid", "bias_regularizer": null, "kernel_constraint": null, "dilation_rate": [1, 1], "filters": 128, "use_bias": false, "trainable": true, "kernel_size": [1, 1], "kernel_regularizer": null, "kernel_initializer": {"config": {"distribution": "uniform", "scale": 1.0, "seed": null, "mode": "fan_avg"}, "class_name": "VarianceScaling"}, "activity_regularizer": null}, "inbound_nodes": [[["conv5_block27_0_relu", 0, 0, {}]]], "class_name": "Conv2D"}, {"name": "conv5_block27_1_bn", "config": {"name": "conv5_block27_1_bn", "gamma_initializer": {"config": {}, "class_name": "Ones"}, "scale": true, "momentum": 0.99, "gamma_regularizer": null, "beta_initializer": {"config": {}, "class_name": "Zeros"}, "moving_mean_initializer": {"config": {}, "class_name": "Zeros"}, "beta_constraint": null, "center": true, "gamma_constraint": null, "moving_variance_initializer": {"config": {}, "class_name": "Ones"}, "axis": 3, "beta_regularizer": null, "epsilon": 1.001e-05, "trainable": true}, "inbound_nodes": [[["conv5_block27_1_conv", 0, 0, {}]]], "class_name": "BatchNormalization"}, {"name": "conv5_block27_1_relu", "config": {"name": "conv5_block27_1_relu", "activation": "relu", "trainable": true}, "inbound_nodes": [[["conv5_block27_1_bn", 0, 0, {}]]], "class_name": "Activation"}, {"name": "conv5_block27_2_conv", "config": {"name": "conv5_block27_2_conv", "bias_constraint": null, "strides": [1, 1], "data_format": "channels_last", "activation": "linear", "bias_initializer": {"config": {}, "class_name": "Zeros"}, "padding": "same", "bias_regularizer": null, "kernel_constraint": null, "dilation_rate": [1, 1], "filters": 32, "use_bias": false, "trainable": true, "kernel_size": [3, 3], "kernel_regularizer": null, "kernel_initializer": {"config": {"distribution": "uniform", "scale": 1.0, "seed": null, "mode": "fan_avg"}, "class_name": "VarianceScaling"}, "activity_regularizer": null}, "inbound_nodes": [[["conv5_block27_1_relu", 0, 0, {}]]], "class_name": "Conv2D"}, {"name": "conv5_block27_concat", "config": {"name": "conv5_block27_concat", "axis": 3, "trainable": true}, "inbound_nodes": [[["conv5_block26_concat", 0, 0, {}], ["conv5_block27_2_conv", 0, 0, {}]]], "class_name": "Concatenate"}, {"name": "conv5_block28_0_bn", "config": {"name": "conv5_block28_0_bn", "gamma_initializer": {"config": {}, "class_name": "Ones"}, "scale": true, "momentum": 0.99, "gamma_regularizer": null, "beta_initializer": {"config": {}, "class_name": "Zeros"}, "moving_mean_initializer": {"config": {}, "class_name": "Zeros"}, "beta_constraint": null, "center": true, "gamma_constraint": null, "moving_variance_initializer": {"config": {}, "class_name": "Ones"}, "axis": 3, "beta_regularizer": null, "epsilon": 1.001e-05, "trainable": true}, "inbound_nodes": [[["conv5_block27_concat", 0, 0, {}]]], "class_name": "BatchNormalization"}, {"name": "conv5_block28_0_relu", "config": {"name": "conv5_block28_0_relu", "activation": "relu", "trainable": true}, "inbound_nodes": [[["conv5_block28_0_bn", 0, 0, {}]]], "class_name": "Activation"}, {"name": "conv5_block28_1_conv", "config": {"name": "conv5_block28_1_conv", "bias_constraint": null, "strides": [1, 1], "data_format": "channels_last", "activation": "linear", "bias_initializer": {"config": {}, "class_name": "Zeros"}, "padding": "valid", "bias_regularizer": null, "kernel_constraint": null, "dilation_rate": [1, 1], "filters": 128, "use_bias": false, "trainable": true, "kernel_size": [1, 1], "kernel_regularizer": null, "kernel_initializer": {"config": {"distribution": "uniform", "scale": 1.0, "seed": null, "mode": "fan_avg"}, "class_name": "VarianceScaling"}, "activity_regularizer": null}, "inbound_nodes": [[["conv5_block28_0_relu", 0, 0, {}]]], "class_name": "Conv2D"}, {"name": "conv5_block28_1_bn", "config": {"name": "conv5_block28_1_bn", "gamma_initializer": {"config": {}, "class_name": "Ones"}, "scale": true, "momentum": 0.99, "gamma_regularizer": null, "beta_initializer": {"config": {}, "class_name": "Zeros"}, "moving_mean_initializer": {"config": {}, "class_name": "Zeros"}, "beta_constraint": null, "center": true, "gamma_constraint": null, "moving_variance_initializer": {"config": {}, "class_name": "Ones"}, "axis": 3, "beta_regularizer": null, "epsilon": 1.001e-05, "trainable": true}, "inbound_nodes": [[["conv5_block28_1_conv", 0, 0, {}]]], "class_name": "BatchNormalization"}, {"name": "conv5_block28_1_relu", "config": {"name": "conv5_block28_1_relu", "activation": "relu", "trainable": true}, "inbound_nodes": [[["conv5_block28_1_bn", 0, 0, {}]]], "class_name": "Activation"}, {"name": "conv5_block28_2_conv", "config": {"name": "conv5_block28_2_conv", "bias_constraint": null, "strides": [1, 1], "data_format": "channels_last", "activation": "linear", "bias_initializer": {"config": {}, "class_name": "Zeros"}, "padding": "same", "bias_regularizer": null, "kernel_constraint": null, "dilation_rate": [1, 1], "filters": 32, "use_bias": false, "trainable": true, "kernel_size": [3, 3], "kernel_regularizer": null, "kernel_initializer": {"config": {"distribution": "uniform", "scale": 1.0, "seed": null, "mode": "fan_avg"}, "class_name": "VarianceScaling"}, "activity_regularizer": null}, "inbound_nodes": [[["conv5_block28_1_relu", 0, 0, {}]]], "class_name": "Conv2D"}, {"name": "conv5_block28_concat", "config": {"name": "conv5_block28_concat", "axis": 3, "trainable": true}, "inbound_nodes": [[["conv5_block27_concat", 0, 0, {}], ["conv5_block28_2_conv", 0, 0, {}]]], "class_name": "Concatenate"}, {"name": "conv5_block29_0_bn", "config": {"name": "conv5_block29_0_bn", "gamma_initializer": {"config": {}, "class_name": "Ones"}, "scale": true, "momentum": 0.99, "gamma_regularizer": null, "beta_initializer": {"config": {}, "class_name": "Zeros"}, "moving_mean_initializer": {"config": {}, "class_name": "Zeros"}, "beta_constraint": null, "center": true, "gamma_constraint": null, "moving_variance_initializer": {"config": {}, "class_name": "Ones"}, "axis": 3, "beta_regularizer": null, "epsilon": 1.001e-05, "trainable": true}, "inbound_nodes": [[["conv5_block28_concat", 0, 0, {}]]], "class_name": "BatchNormalization"}, {"name": "conv5_block29_0_relu", "config": {"name": "conv5_block29_0_relu", "activation": "relu", "trainable": true}, "inbound_nodes": [[["conv5_block29_0_bn", 0, 0, {}]]], "class_name": "Activation"}, {"name": "conv5_block29_1_conv", "config": {"name": "conv5_block29_1_conv", "bias_constraint": null, "strides": [1, 1], "data_format": "channels_last", "activation": "linear", "bias_initializer": {"config": {}, "class_name": "Zeros"}, "padding": "valid", "bias_regularizer": null, "kernel_constraint": null, "dilation_rate": [1, 1], "filters": 128, "use_bias": false, "trainable": true, "kernel_size": [1, 1], "kernel_regularizer": null, "kernel_initializer": {"config": {"distribution": "uniform", "scale": 1.0, "seed": null, "mode": "fan_avg"}, "class_name": "VarianceScaling"}, "activity_regularizer": null}, "inbound_nodes": [[["conv5_block29_0_relu", 0, 0, {}]]], "class_name": "Conv2D"}, {"name": "conv5_block29_1_bn", "config": {"name": "conv5_block29_1_bn", "gamma_initializer": {"config": {}, "class_name": "Ones"}, "scale": true, "momentum": 0.99, "gamma_regularizer": null, "beta_initializer": {"config": {}, "class_name": "Zeros"}, "moving_mean_initializer": {"config": {}, "class_name": "Zeros"}, "beta_constraint": null, "center": true, "gamma_constraint": null, "moving_variance_initializer": {"config": {}, "class_name": "Ones"}, "axis": 3, "beta_regularizer": null, "epsilon": 1.001e-05, "trainable": true}, "inbound_nodes": [[["conv5_block29_1_conv", 0, 0, {}]]], "class_name": "BatchNormalization"}, {"name": "conv5_block29_1_relu", "config": {"name": "conv5_block29_1_relu", "activation": "relu", "trainable": true}, "inbound_nodes": [[["conv5_block29_1_bn", 0, 0, {}]]], "class_name": "Activation"}, {"name": "conv5_block29_2_conv", "config": {"name": "conv5_block29_2_conv", "bias_constraint": null, "strides": [1, 1], "data_format": "channels_last", "activation": "linear", "bias_initializer": {"config": {}, "class_name": "Zeros"}, "padding": "same", "bias_regularizer": null, "kernel_constraint": null, "dilation_rate": [1, 1], "filters": 32, "use_bias": false, "trainable": true, "kernel_size": [3, 3], "kernel_regularizer": null, "kernel_initializer": {"config": {"distribution": "uniform", "scale": 1.0, "seed": null, "mode": "fan_avg"}, "class_name": "VarianceScaling"}, "activity_regularizer": null}, "inbound_nodes": [[["conv5_block29_1_relu", 0, 0, {}]]], "class_name": "Conv2D"}, {"name": "conv5_block29_concat", "config": {"name": "conv5_block29_concat", "axis": 3, "trainable": true}, "inbound_nodes": [[["conv5_block28_concat", 0, 0, {}], ["conv5_block29_2_conv", 0, 0, {}]]], "class_name": "Concatenate"}, {"name": "conv5_block30_0_bn", "config": {"name": "conv5_block30_0_bn", "gamma_initializer": {"config": {}, "class_name": "Ones"}, "scale": true, "momentum": 0.99, "gamma_regularizer": null, "beta_initializer": {"config": {}, "class_name": "Zeros"}, "moving_mean_initializer": {"config": {}, "class_name": "Zeros"}, "beta_constraint": null, "center": true, "gamma_constraint": null, "moving_variance_initializer": {"config": {}, "class_name": "Ones"}, "axis": 3, "beta_regularizer": null, "epsilon": 1.001e-05, "trainable": true}, "inbound_nodes": [[["conv5_block29_concat", 0, 0, {}]]], "class_name": "BatchNormalization"}, {"name": "conv5_block30_0_relu", "config": {"name": "conv5_block30_0_relu", "activation": "relu", "trainable": true}, "inbound_nodes": [[["conv5_block30_0_bn", 0, 0, {}]]], "class_name": "Activation"}, {"name": "conv5_block30_1_conv", "config": {"name": "conv5_block30_1_conv", "bias_constraint": null, "strides": [1, 1], "data_format": "channels_last", "activation": "linear", "bias_initializer": {"config": {}, "class_name": "Zeros"}, "padding": "valid", "bias_regularizer": null, "kernel_constraint": null, "dilation_rate": [1, 1], "filters": 128, "use_bias": false, "trainable": true, "kernel_size": [1, 1], "kernel_regularizer": null, "kernel_initializer": {"config": {"distribution": "uniform", "scale": 1.0, "seed": null, "mode": "fan_avg"}, "class_name": "VarianceScaling"}, "activity_regularizer": null}, "inbound_nodes": [[["conv5_block30_0_relu", 0, 0, {}]]], "class_name": "Conv2D"}, {"name": "conv5_block30_1_bn", "config": {"name": "conv5_block30_1_bn", "gamma_initializer": {"config": {}, "class_name": "Ones"}, "scale": true, "momentum": 0.99, "gamma_regularizer": null, "beta_initializer": {"config": {}, "class_name": "Zeros"}, "moving_mean_initializer": {"config": {}, "class_name": "Zeros"}, "beta_constraint": null, "center": true, "gamma_constraint": null, "moving_variance_initializer": {"config": {}, "class_name": "Ones"}, "axis": 3, "beta_regularizer": null, "epsilon": 1.001e-05, "trainable": true}, "inbound_nodes": [[["conv5_block30_1_conv", 0, 0, {}]]], "class_name": "BatchNormalization"}, {"name": "conv5_block30_1_relu", "config": {"name": "conv5_block30_1_relu", "activation": "relu", "trainable": true}, "inbound_nodes": [[["conv5_block30_1_bn", 0, 0, {}]]], "class_name": "Activation"}, {"name": "conv5_block30_2_conv", "config": {"name": "conv5_block30_2_conv", "bias_constraint": null, "strides": [1, 1], "data_format": "channels_last", "activation": "linear", "bias_initializer": {"config": {}, "class_name": "Zeros"}, "padding": "same", "bias_regularizer": null, "kernel_constraint": null, "dilation_rate": [1, 1], "filters": 32, "use_bias": false, "trainable": true, "kernel_size": [3, 3], "kernel_regularizer": null, "kernel_initializer": {"config": {"distribution": "uniform", "scale": 1.0, "seed": null, "mode": "fan_avg"}, "class_name": "VarianceScaling"}, "activity_regularizer": null}, "inbound_nodes": [[["conv5_block30_1_relu", 0, 0, {}]]], "class_name": "Conv2D"}, {"name": "conv5_block30_concat", "config": {"name": "conv5_block30_concat", "axis": 3, "trainable": true}, "inbound_nodes": [[["conv5_block29_concat", 0, 0, {}], ["conv5_block30_2_conv", 0, 0, {}]]], "class_name": "Concatenate"}, {"name": "conv5_block31_0_bn", "config": {"name": "conv5_block31_0_bn", "gamma_initializer": {"config": {}, "class_name": "Ones"}, "scale": true, "momentum": 0.99, "gamma_regularizer": null, "beta_initializer": {"config": {}, "class_name": "Zeros"}, "moving_mean_initializer": {"config": {}, "class_name": "Zeros"}, "beta_constraint": null, "center": true, "gamma_constraint": null, "moving_variance_initializer": {"config": {}, "class_name": "Ones"}, "axis": 3, "beta_regularizer": null, "epsilon": 1.001e-05, "trainable": true}, "inbound_nodes": [[["conv5_block30_concat", 0, 0, {}]]], "class_name": "BatchNormalization"}, {"name": "conv5_block31_0_relu", "config": {"name": "conv5_block31_0_relu", "activation": "relu", "trainable": true}, "inbound_nodes": [[["conv5_block31_0_bn", 0, 0, {}]]], "class_name": "Activation"}, {"name": "conv5_block31_1_conv", "config": {"name": "conv5_block31_1_conv", "bias_constraint": null, "strides": [1, 1], "data_format": "channels_last", "activation": "linear", "bias_initializer": {"config": {}, "class_name": "Zeros"}, "padding": "valid", "bias_regularizer": null, "kernel_constraint": null, "dilation_rate": [1, 1], "filters": 128, "use_bias": false, "trainable": true, "kernel_size": [1, 1], "kernel_regularizer": null, "kernel_initializer": {"config": {"distribution": "uniform", "scale": 1.0, "seed": null, "mode": "fan_avg"}, "class_name": "VarianceScaling"}, "activity_regularizer": null}, "inbound_nodes": [[["conv5_block31_0_relu", 0, 0, {}]]], "class_name": "Conv2D"}, {"name": "conv5_block31_1_bn", "config": {"name": "conv5_block31_1_bn", "gamma_initializer": {"config": {}, "class_name": "Ones"}, "scale": true, "momentum": 0.99, "gamma_regularizer": null, "beta_initializer": {"config": {}, "class_name": "Zeros"}, "moving_mean_initializer": {"config": {}, "class_name": "Zeros"}, "beta_constraint": null, "center": true, "gamma_constraint": null, "moving_variance_initializer": {"config": {}, "class_name": "Ones"}, "axis": 3, "beta_regularizer": null, "epsilon": 1.001e-05, "trainable": true}, "inbound_nodes": [[["conv5_block31_1_conv", 0, 0, {}]]], "class_name": "BatchNormalization"}, {"name": "conv5_block31_1_relu", "config": {"name": "conv5_block31_1_relu", "activation": "relu", "trainable": true}, "inbound_nodes": [[["conv5_block31_1_bn", 0, 0, {}]]], "class_name": "Activation"}, {"name": "conv5_block31_2_conv", "config": {"name": "conv5_block31_2_conv", "bias_constraint": null, "strides": [1, 1], "data_format": "channels_last", "activation": "linear", "bias_initializer": {"config": {}, "class_name": "Zeros"}, "padding": "same", "bias_regularizer": null, "kernel_constraint": null, "dilation_rate": [1, 1], "filters": 32, "use_bias": false, "trainable": true, "kernel_size": [3, 3], "kernel_regularizer": null, "kernel_initializer": {"config": {"distribution": "uniform", "scale": 1.0, "seed": null, "mode": "fan_avg"}, "class_name": "VarianceScaling"}, "activity_regularizer": null}, "inbound_nodes": [[["conv5_block31_1_relu", 0, 0, {}]]], "class_name": "Conv2D"}, {"name": "conv5_block31_concat", "config": {"name": "conv5_block31_concat", "axis": 3, "trainable": true}, "inbound_nodes": [[["conv5_block30_concat", 0, 0, {}], ["conv5_block31_2_conv", 0, 0, {}]]], "class_name": "Concatenate"}, {"name": "conv5_block32_0_bn", "config": {"name": "conv5_block32_0_bn", "gamma_initializer": {"config": {}, "class_name": "Ones"}, "scale": true, "momentum": 0.99, "gamma_regularizer": null, "beta_initializer": {"config": {}, "class_name": "Zeros"}, "moving_mean_initializer": {"config": {}, "class_name": "Zeros"}, "beta_constraint": null, "center": true, "gamma_constraint": null, "moving_variance_initializer": {"config": {}, "class_name": "Ones"}, "axis": 3, "beta_regularizer": null, "epsilon": 1.001e-05, "trainable": true}, "inbound_nodes": [[["conv5_block31_concat", 0, 0, {}]]], "class_name": "BatchNormalization"}, {"name": "conv5_block32_0_relu", "config": {"name": "conv5_block32_0_relu", "activation": "relu", "trainable": true}, "inbound_nodes": [[["conv5_block32_0_bn", 0, 0, {}]]], "class_name": "Activation"}, {"name": "conv5_block32_1_conv", "config": {"name": "conv5_block32_1_conv", "bias_constraint": null, "strides": [1, 1], "data_format": "channels_last", "activation": "linear", "bias_initializer": {"config": {}, "class_name": "Zeros"}, "padding": "valid", "bias_regularizer": null, "kernel_constraint": null, "dilation_rate": [1, 1], "filters": 128, "use_bias": false, "trainable": true, "kernel_size": [1, 1], "kernel_regularizer": null, "kernel_initializer": {"config": {"distribution": "uniform", "scale": 1.0, "seed": null, "mode": "fan_avg"}, "class_name": "VarianceScaling"}, "activity_regularizer": null}, "inbound_nodes": [[["conv5_block32_0_relu", 0, 0, {}]]], "class_name": "Conv2D"}, {"name": "conv5_block32_1_bn", "config": {"name": "conv5_block32_1_bn", "gamma_initializer": {"config": {}, "class_name": "Ones"}, "scale": true, "momentum": 0.99, "gamma_regularizer": null, "beta_initializer": {"config": {}, "class_name": "Zeros"}, "moving_mean_initializer": {"config": {}, "class_name": "Zeros"}, "beta_constraint": null, "center": true, "gamma_constraint": null, "moving_variance_initializer": {"config": {}, "class_name": "Ones"}, "axis": 3, "beta_regularizer": null, "epsilon": 1.001e-05, "trainable": true}, "inbound_nodes": [[["conv5_block32_1_conv", 0, 0, {}]]], "class_name": "BatchNormalization"}, {"name": "conv5_block32_1_relu", "config": {"name": "conv5_block32_1_relu", "activation": "relu", "trainable": true}, "inbound_nodes": [[["conv5_block32_1_bn", 0, 0, {}]]], "class_name": "Activation"}, {"name": "conv5_block32_2_conv", "config": {"name": "conv5_block32_2_conv", "bias_constraint": null, "strides": [1, 1], "data_format": "channels_last", "activation": "linear", "bias_initializer": {"config": {}, "class_name": "Zeros"}, "padding": "same", "bias_regularizer": null, "kernel_constraint": null, "dilation_rate": [1, 1], "filters": 32, "use_bias": false, "trainable": true, "kernel_size": [3, 3], "kernel_regularizer": null, "kernel_initializer": {"config": {"distribution": "uniform", "scale": 1.0, "seed": null, "mode": "fan_avg"}, "class_name": "VarianceScaling"}, "activity_regularizer": null}, "inbound_nodes": [[["conv5_block32_1_relu", 0, 0, {}]]], "class_name": "Conv2D"}, {"name": "conv5_block32_concat", "config": {"name": "conv5_block32_concat", "axis": 3, "trainable": true}, "inbound_nodes": [[["conv5_block31_concat", 0, 0, {}], ["conv5_block32_2_conv", 0, 0, {}]]], "class_name": "Concatenate"}, {"name": "bn", "config": {"name": "bn", "gamma_initializer": {"config": {}, "class_name": "Ones"}, "scale": true, "momentum": 0.99, "gamma_regularizer": null, "beta_initializer": {"config": {}, "class_name": "Zeros"}, "moving_mean_initializer": {"config": {}, "class_name": "Zeros"}, "beta_constraint": null, "center": true, "gamma_constraint": null, "moving_variance_initializer": {"config": {}, "class_name": "Ones"}, "axis": 3, "beta_regularizer": null, "epsilon": 1.001e-05, "trainable": true}, "inbound_nodes": [[["conv5_block32_concat", 0, 0, {}]]], "class_name": "BatchNormalization"}, {"name": "avg_pool", "config": {"name": "avg_pool", "data_format": "channels_last", "trainable": true}, "inbound_nodes": [[["bn", 0, 0, {}]]], "class_name": "GlobalAveragePooling2D"}, {"name": "fc1000", "config": {"name": "fc1000", "trainable": true, "activation": "softmax", "activity_regularizer": null, "bias_regularizer": null, "kernel_constraint": null, "use_bias": true, "units": 1000, "bias_constraint": null, "kernel_regularizer": null, "kernel_initializer": {"config": {"distribution": "uniform", "scale": 1.0, "seed": null, "mode": "fan_avg"}, "class_name": "VarianceScaling"}, "bias_initializer": {"config": {}, "class_name": "Zeros"}}, "inbound_nodes": [[["avg_pool", 0, 0, {}]]], "class_name": "Dense"}], "output_layers": [["fc1000", 0, 0]], "input_layers": [["input_1", 0, 0]]}, "params": {"conv5_block19_concat": 0, "conv5_block2_2_conv": 36864, "conv5_block15_1_relu": 0, "conv4_block42_1_bn": 512, "conv4_block42_2_conv": 36864, "conv4_block18_1_conv": 102400, "conv5_block8_0_bn": 4480, "conv5_block14_2_conv": 36864, "conv4_block41_0_bn": 6144, "conv5_block11_1_relu": 0, "conv4_block18_0_relu": 0, "conv3_block8_1_bn": 512, "conv4_block8_0_relu": 0, "conv5_block6_1_conv": 135168, "conv4_block25_2_conv": 36864, "conv5_block16_0_relu": 0, "conv5_block8_1_bn": 512, "conv5_block4_2_conv": 36864, "conv5_block16_0_bn": 5504, "conv5_block25_2_conv": 36864, "conv2_block2_2_conv": 36864, "conv5_block17_0_relu": 0, "conv4_block20_0_relu": 0, "conv4_block14_1_conv": 86016, "conv4_block36_concat": 0, "conv4_block48_1_bn": 512, "conv5_block16_concat": 0, "conv4_block28_1_relu": 0, "conv4_block5_1_bn": 512, "conv4_block5_0_bn": 1536, "conv4_block6_0_relu": 0, "conv4_block19_1_conv": 106496, "conv2_block1_1_bn": 512, "conv4_block34_1_bn": 512, "conv4_block16_concat": 0, "conv4_block8_1_bn": 512, "pool2_relu": 0, "conv5_block3_1_relu": 0, "conv4_block35_2_conv": 36864, "conv5_block12_1_bn": 512, "conv4_block34_1_conv": 167936, "conv5_block11_0_bn": 4864, "conv5_block14_concat": 0, "conv4_block29_1_conv": 147456, "conv3_block8_1_conv": 45056, "conv5_block3_1_bn": 512, "conv4_block21_1_conv": 114688, "conv4_block32_0_relu": 0, "conv2_block5_1_relu": 0, "conv4_block36_0_relu": 0, "conv5_block32_2_conv": 36864, "conv3_block10_1_conv": 53248, "conv4_block6_2_conv": 36864, "conv4_block46_concat": 0, "conv4_block42_concat": 0, "conv4_block26_1_conv": 135168, "conv4_block21_1_bn": 512, "conv4_block17_concat": 0, "conv5_block13_1_relu": 0, "conv3_block6_1_relu": 0, "conv4_block15_0_relu": 0, "conv4_block4_1_relu": 0, "conv4_block11_1_relu": 0, "conv4_block13_0_bn": 2560, "conv4_block11_1_bn": 512, "conv4_block48_2_conv": 36864, "conv4_block40_0_relu": 0, "conv5_block26_1_conv": 217088, "conv4_block15_concat": 0, "conv3_block12_2_conv": 36864, "conv2_block5_0_relu": 0, "conv4_block36_1_bn": 512, "conv4_block18_0_bn": 3200, "conv5_block31_0_relu": 0, "conv5_block31_2_conv": 36864, "conv5_block24_1_relu": 0, "conv4_block33_0_relu": 0, "conv5_block12_1_relu": 0, "conv5_block24_0_relu": 0, "conv5_block1_1_conv": 114688, "conv4_block5_concat": 0, "conv5_block27_1_conv": 221184, "conv4_block8_0_bn": 1920, "conv5_block18_concat": 0, "conv5_block11_1_bn": 512, "conv4_block36_1_conv": 176128, "conv3_block6_0_bn": 1152, "conv3_block12_concat": 0, "conv4_block13_1_conv": 81920, "conv4_block43_2_conv": 36864, "conv5_block27_0_relu": 0, "conv5_block10_1_conv": 151552, "conv5_block9_0_bn": 4608, "conv5_block30_1_conv": 233472, "conv2_block4_1_relu": 0, "conv3_block4_1_conv": 28672, "conv5_block15_concat": 0, "conv5_block5_1_relu": 0, "conv4_block34_concat": 0, "conv4_block3_1_relu": 0, "conv5_block24_0_bn": 6528, "conv5_block10_0_bn": 4736, "conv4_block1_1_conv": 32768, "conv4_block32_2_conv": 36864, "conv4_block47_1_bn": 512, "conv4_block10_1_conv": 69632, "conv4_block44_0_bn": 6528, "conv4_block41_2_conv": 36864, "conv4_block27_concat": 0, "conv4_block1_concat": 0, "conv4_block9_1_conv": 65536, "conv4_block42_1_relu": 0, "conv5_block12_concat": 0, "conv4_block22_concat": 0, "conv2_block4_0_relu": 0, "conv2_block3_0_bn": 512, "conv3_block3_1_bn": 512, "conv4_block10_0_relu": 0, "conv5_block7_1_bn": 512, "conv4_block21_2_conv": 36864, "conv2_block4_concat": 0, "conv2_block3_1_relu": 0, "conv4_block44_concat": 0, "conv5_block21_1_relu": 0, "conv4_block48_0_bn": 7040, "conv2_block6_2_conv": 36864, "conv3_block4_0_bn": 896, "conv5_block13_1_conv": 163840, "conv5_block12_0_bn": 4992, "conv2_block3_1_conv": 16384, "conv2_block1_0_relu": 0, "conv4_block44_2_conv": 36864, "conv3_block2_0_bn": 640, "conv4_block24_1_relu": 0, "conv5_block22_0_bn": 6272, "conv3_block8_2_conv": 36864, "conv2_block3_2_conv": 36864, "conv4_block38_2_conv": 36864, "conv5_block11_1_conv": 155648, "conv4_block23_0_relu": 0, "conv5_block21_concat": 0, "conv3_block11_1_relu": 0, "conv5_block26_0_relu": 0, "avg_pool": 0, "conv5_block31_1_conv": 237568, "conv4_block2_1_relu": 0, "conv4_block40_1_bn": 512, "conv5_block6_2_conv": 36864, "conv4_block6_concat": 0, "conv5_block5_concat": 0, "conv4_block24_2_conv": 36864, "conv3_block3_0_bn": 768, "conv4_block22_1_bn": 512, "conv4_block32_1_bn": 512, "conv5_block9_1_bn": 512, "conv4_block35_1_conv": 172032, "conv4_block30_2_conv": 36864, "conv4_block32_concat": 0, "conv4_block20_0_bn": 3456, "conv4_block1_0_relu": 0, "conv5_block10_1_relu": 0, "conv2_block3_concat": 0, "conv5_block17_concat": 0, "conv4_block22_2_conv": 36864, "conv4_block38_0_relu": 0, "conv5_block19_1_bn": 512, "conv5_block14_1_bn": 512, "conv5_block30_1_bn": 512, "conv5_block4_0_relu": 0, "conv4_block39_0_relu": 0, "conv4_block41_concat": 0, "conv4_block10_1_bn": 512, "conv4_block12_1_relu": 0, "conv3_block11_concat": 0, "conv4_block35_0_relu": 0, "pool2_pool": 0, "conv4_block37_concat": 0, "conv4_block39_0_bn": 5888, "conv4_block18_1_bn": 512, "bn": 7680, "conv4_block29_concat": 0, "pool3_pool": 0, "conv3_block1_0_relu": 0, "conv4_block27_1_conv": 139264, "conv4_block28_concat": 0, "conv4_block46_1_relu": 0, "conv5_block20_1_bn": 512, "conv3_block5_concat": 0, "conv5_block12_0_relu": 0, "conv5_block31_1_relu": 0, "conv4_block31_0_bn": 4864, "conv5_block10_0_relu": 0, "conv4_block45_1_bn": 512, "conv5_block13_0_relu": 0, "conv5_block11_concat": 0, "conv5_block17_1_relu": 0, "conv5_block5_0_relu": 0, "conv4_block23_1_relu": 0, "conv3_block5_2_conv": 36864, "conv4_block30_1_bn": 512, "conv4_block13_concat": 0, "conv4_block17_1_relu": 0, "conv5_block7_1_conv": 139264, "conv4_block2_0_bn": 1152, "conv4_block31_1_relu": 0, "conv5_block21_0_relu": 0, "conv2_block1_1_conv": 8192, "conv5_block30_1_relu": 0, "conv5_block17_1_conv": 180224, "conv3_block7_0_bn": 1280, "conv2_block5_1_bn": 512, "conv3_block9_0_bn": 1536, "conv4_block43_1_bn": 512, "conv3_block10_0_bn": 1664, "conv4_block44_1_conv": 208896, "conv5_block4_1_relu": 0, "conv2_block1_1_relu": 0, "conv4_block47_0_relu": 0, "conv5_block23_1_relu": 0, "conv1/relu": 0, "conv3_block5_1_conv": 32768, "conv4_block1_1_relu": 0, "conv2_block4_2_conv": 36864, "conv4_block19_0_relu": 0, "conv5_block30_0_bn": 7296, "conv4_block42_0_bn": 6272, "conv5_block30_2_conv": 36864, "conv5_block6_1_relu": 0, "conv4_block10_2_conv": 36864, "conv4_block16_1_relu": 0, "conv3_block10_1_bn": 512, "conv5_block5_2_conv": 36864, "conv5_block30_concat": 0, "conv5_block6_1_bn": 512, "pool3_relu": 0, "conv5_block2_0_bn": 3712, "conv5_block26_1_relu": 0, "conv4_block2_0_relu": 0, "conv4_block14_concat": 0, "conv4_block46_2_conv": 36864, "conv3_block10_1_relu": 0, "conv5_block28_1_relu": 0, "conv4_block24_concat": 0, "conv4_block23_0_bn": 3840, "conv2_block3_0_relu": 0, "conv4_block17_0_bn": 3072, "conv3_block1_0_bn": 512, "conv5_block27_0_bn": 6912, "conv4_block26_0_bn": 4224, "conv4_block29_0_relu": 0, "conv5_block32_1_bn": 512, "conv4_block10_0_bn": 2176, "conv4_block29_1_relu": 0, "conv5_block32_1_conv": 241664, "conv4_block33_0_bn": 5120, "conv5_block10_1_bn": 512, "conv5_block20_0_bn": 6016, "conv4_block45_0_relu": 0, "conv5_block1_0_bn": 3584, "conv5_block29_0_bn": 7168, "conv3_block5_0_bn": 1024, "conv4_block16_1_conv": 94208, "conv5_block7_0_relu": 0, "conv4_block42_1_conv": 200704, "conv2_block5_1_conv": 24576, "conv5_block20_0_relu": 0, "conv4_block33_2_conv": 36864, "conv5_block6_0_relu": 0, "conv4_block36_1_relu": 0, "conv5_block15_1_conv": 172032, "conv2_block3_1_bn": 512, "conv5_block27_1_bn": 512, "conv5_block15_0_bn": 5376, "conv4_block14_2_conv": 36864, "conv5_block12_2_conv": 36864, "conv3_block9_0_relu": 0, "conv2_block2_1_relu": 0, "conv3_block9_1_relu": 0, "conv5_block30_0_relu": 0, "conv4_block25_1_conv": 131072, "conv4_block11_concat": 0, "conv2_block6_0_bn": 896, "conv4_block27_2_conv": 36864, "conv4_block18_1_relu": 0, "conv4_block5_1_relu": 0, "conv5_block3_0_relu": 0, "conv5_block1_2_conv": 36864, "conv4_block38_0_bn": 5760, "conv4_block3_1_conv": 40960, "conv5_block11_0_relu": 0, "conv5_block23_1_conv": 204800, "conv5_block23_0_bn": 6400, "conv4_block33_1_relu": 0, "conv4_block40_0_bn": 6016, "conv4_block25_0_relu": 0, "conv5_block29_1_bn": 512, "conv5_block4_1_bn": 512, "conv4_block25_1_bn": 512, "conv4_block40_concat": 0, "conv5_block24_2_conv": 36864, "pool3_conv": 131072, "conv4_block27_1_relu": 0, "conv5_block22_0_relu": 0, "conv3_block3_1_conv": 24576, "conv3_block12_0_bn": 1920, "conv5_block16_1_conv": 176128, "conv5_block28_concat": 0, "conv4_block30_1_conv": 151552, "conv4_block14_0_relu": 0, "conv4_block37_1_relu": 0, "conv4_block11_0_bn": 2304, "conv4_block31_0_relu": 0, "conv4_block47_0_bn": 6912, "conv3_block1_1_bn": 512, "conv5_block19_1_relu": 0, "conv4_block15_0_bn": 2816, "conv4_block32_0_bn": 4992, "conv4_block9_concat": 0, "conv4_block19_1_bn": 512, "conv5_block25_1_bn": 512, "conv5_block13_concat": 0, "conv3_block2_2_conv": 36864, "conv5_block24_1_bn": 512, "conv3_block11_1_conv": 57344, "conv4_block24_0_bn": 3968, "conv4_block34_2_conv": 36864, "conv4_block43_concat": 0, "conv3_block2_0_relu": 0, "conv4_block10_concat": 0, "conv5_block20_concat": 0, "conv5_block4_1_conv": 126976, "conv3_block11_0_bn": 1792, "conv4_block41_1_relu": 0, "conv4_block41_1_bn": 512, "conv4_block35_0_bn": 5376, "conv5_block3_concat": 0, "conv5_block14_0_bn": 5248, "conv4_block35_1_relu": 0, "conv5_block28_0_bn": 7040, "conv4_block5_0_relu": 0, "conv4_block7_1_bn": 512, "conv4_block39_2_conv": 36864, "conv5_block21_1_conv": 196608, "conv5_block11_2_conv": 36864, "conv4_block37_0_relu": 0, "conv5_block7_1_relu": 0, "conv4_block4_1_conv": 45056, "conv3_block9_2_conv": 36864, "conv3_block2_concat": 0, "conv4_block4_concat": 0, "conv3_block6_0_relu": 0, "conv4_block46_0_bn": 6784, "conv4_block11_2_conv": 36864, "conv5_block3_1_conv": 122880, "conv4_block7_1_conv": 57344, "conv4_block39_1_conv": 188416, "conv4_block37_1_conv": 180224, "conv4_block34_0_relu": 0, "conv4_block22_0_bn": 3712, "conv5_block10_2_conv": 36864, "conv4_block48_1_conv": 225280, "pool1": 0, "conv3_block10_concat": 0, "conv4_block45_2_conv": 36864, "conv5_block17_0_bn": 5632, "conv4_block12_0_relu": 0, "conv5_block26_0_bn": 6784, "conv4_block13_1_relu": 0, "conv3_block1_2_conv": 36864, "conv4_block9_1_bn": 512, "conv1/conv": 9408, "conv4_block40_1_relu": 0, "conv3_block8_1_relu": 0, "conv4_block23_concat": 0, "conv5_block22_2_conv": 36864, "conv5_block20_1_relu": 0, "conv3_block2_1_bn": 512, "fc1000": 1921000, "conv4_block12_0_bn": 2432, "conv4_block45_concat": 0, "conv4_block9_0_relu": 0, "conv5_block27_concat": 0, "conv4_block22_0_relu": 0, "conv5_block13_0_bn": 5120, "conv3_block11_1_bn": 512, "conv4_block5_1_conv": 49152, "conv4_block12_1_conv": 77824, "conv5_block6_0_bn": 4224, "zero_padding2d_2": 0, "conv5_block23_2_conv": 36864, "conv4_block4_0_bn": 1408, "conv5_block29_2_conv": 36864, "conv4_block25_0_bn": 4096, "conv4_block26_concat": 0, "conv4_block29_1_bn": 512, "conv4_block47_2_conv": 36864, "conv4_block44_1_bn": 512, "conv4_block2_1_bn": 512, "conv3_block4_concat": 0, "conv4_block17_1_bn": 512, "conv4_block13_2_conv": 36864, "conv4_block29_2_conv": 36864, "conv4_block19_2_conv": 36864, "conv5_block25_1_relu": 0, "conv5_block16_1_relu": 0, "conv4_block22_1_relu": 0, "conv4_block1_0_bn": 1024, "conv4_block30_concat": 0, "conv5_block18_1_bn": 512, "conv5_block7_0_bn": 4352, "conv4_block12_2_conv": 36864, "conv4_block48_0_relu": 0, "conv4_block8_1_relu": 0, "conv4_block24_0_relu": 0, "conv4_block26_1_relu": 0, "conv4_block4_2_conv": 36864, "conv4_block31_2_conv": 36864, "conv4_block36_2_conv": 36864, "conv4_block6_0_bn": 1664, "conv4_block16_2_conv": 36864, "conv4_block30_0_bn": 4736, "conv5_block32_concat": 0, "conv4_block30_0_relu": 0, "conv2_block2_0_bn": 384, "conv4_block44_0_relu": 0, "conv4_block32_1_conv": 159744, "conv3_block8_0_relu": 0, "conv4_block27_0_bn": 4352, "conv4_block3_0_relu": 0, "conv3_block3_1_relu": 0, "conv2_block6_1_conv": 28672, "conv5_block19_1_conv": 188416, "conv5_block16_2_conv": 36864, "conv4_block20_concat": 0, "conv2_block1_concat": 0, "conv5_block21_0_bn": 6144, "conv4_block47_concat": 0, "conv2_block4_1_bn": 512, "conv5_block2_0_relu": 0, "conv4_block8_concat": 0, "conv4_block28_1_bn": 512, "conv5_block7_concat": 0, "conv5_block5_1_bn": 512, "conv4_block29_0_bn": 4608, "conv2_block4_0_bn": 640, "conv5_block4_0_bn": 3968, "conv4_block9_1_relu": 0, "conv4_block7_0_bn": 1792, "conv4_block43_1_relu": 0, "conv5_block18_1_relu": 0, "conv4_block6_1_relu": 0, "conv2_block5_0_bn": 768, "conv4_block20_1_conv": 110592, "conv5_block28_2_conv": 36864, "conv4_block6_1_bn": 512, "conv4_block42_0_relu": 0, "pool4_relu": 0, "conv3_block5_1_bn": 512, "conv4_block1_2_conv": 36864, "conv2_block1_0_bn": 256, "conv4_block13_0_relu": 0, "pool3_bn": 2048, "conv4_block21_concat": 0, "conv4_block25_concat": 0, "conv4_block18_2_conv": 36864, "conv4_block45_1_relu": 0, "conv5_block28_1_conv": 225280, "conv3_block3_0_relu": 0, "conv5_block23_1_bn": 512, "conv3_block4_1_relu": 0, "conv3_block8_concat": 0, "conv4_block9_0_bn": 2048, "conv4_block21_1_relu": 0, "conv3_block2_1_relu": 0, "conv4_block24_1_conv": 126976, "conv4_block31_1_bn": 512, "conv5_block14_1_relu": 0, "conv4_block21_0_relu": 0, "conv5_block1_1_relu": 0, "conv5_block15_1_bn": 512, "pool2_conv": 32768, "conv5_block21_1_bn": 512, "conv5_block14_0_relu": 0, "conv5_block23_concat": 0, "conv5_block32_1_relu": 0, "conv5_block9_concat": 0, "conv3_block12_0_relu": 0, "conv2_block2_0_relu": 0, "conv3_block6_concat": 0, "conv4_block44_1_relu": 0, "conv4_block34_1_relu": 0, "conv2_block2_concat": 0, "conv4_block3_2_conv": 36864, "conv3_block1_concat": 0, "conv4_block28_1_conv": 143360, "conv2_block5_concat": 0, "conv4_block40_2_conv": 36864, "conv4_block12_concat": 0, "conv4_block45_1_conv": 212992, "conv4_block2_concat": 0, "conv3_block6_1_bn": 512, "conv5_block25_1_conv": 212992, "pool2_bn": 1024, "conv5_block12_1_conv": 159744, "conv3_block7_0_relu": 0, "conv5_block7_2_conv": 36864, "conv3_block3_2_conv": 36864, "conv5_block2_1_conv": 118784, "conv4_block38_concat": 0, "conv4_block27_1_bn": 512, "conv3_block6_1_conv": 36864, "conv4_block13_1_bn": 512, "conv5_block8_concat": 0, "conv3_block5_1_relu": 0, "conv4_block38_1_bn": 512, "conv4_block45_0_bn": 6656, "conv4_block31_concat": 0, "conv3_block7_1_relu": 0, "conv4_block48_concat": 0, "conv5_block31_concat": 0, "conv5_block27_2_conv": 36864, "conv5_block2_1_relu": 0, "conv4_block47_1_relu": 0, "conv3_block1_1_relu": 0, "conv3_block7_1_conv": 40960, "conv4_block33_concat": 0, "conv3_block12_1_bn": 512, "conv4_block38_1_relu": 0, "conv2_block2_1_conv": 12288, "conv5_block2_1_bn": 512, "conv4_block4_0_relu": 0, "conv5_block18_2_conv": 36864, "conv4_block2_2_conv": 36864, "conv4_block37_0_bn": 5632, "conv4_block7_concat": 0, "conv5_block9_1_conv": 147456, "conv3_block12_1_conv": 61440, "pool4_pool": 0, "pool4_bn": 7168, "conv2_block6_1_bn": 512, "conv3_block8_0_bn": 1408, "conv2_block6_1_relu": 0, "conv4_block20_2_conv": 36864, "conv5_block14_1_conv": 167936, "conv4_block16_0_relu": 0, "conv4_block39_concat": 0, "conv5_block22_1_bn": 512, "conv4_block37_1_bn": 512, "conv5_block20_2_conv": 36864, "conv2_block2_1_bn": 512, "conv4_block19_concat": 0, "conv4_block21_0_bn": 3584, "conv4_block23_1_bn": 512, "conv3_block7_concat": 0, "conv2_block5_2_conv": 36864, "conv5_block26_2_conv": 36864, "conv4_block15_1_relu": 0, "conv4_block7_1_relu": 0, "pool4_conv": 1605632, "conv5_block19_0_relu": 0, "conv4_block8_1_conv": 61440, "conv1/bn": 256, "conv4_block14_1_bn": 512, "conv4_block20_1_relu": 0, "conv5_block17_2_conv": 36864, "conv4_block25_1_relu": 0, "conv3_block2_1_conv": 20480, "conv5_block19_0_bn": 5888, "conv5_block1_concat": 0, "conv5_block28_0_relu": 0, "conv4_block14_0_bn": 2688, "conv4_block17_2_conv": 36864, "conv5_block19_2_conv": 36864, "conv4_block40_1_conv": 192512, "conv3_block4_0_relu": 0, "conv5_block9_1_relu": 0, "conv4_block3_1_bn": 512, "conv3_block11_0_relu": 0, "conv4_block38_1_conv": 184320, "conv4_block10_1_relu": 0, "conv5_block13_2_conv": 36864, "conv3_block1_1_conv": 16384, "conv5_block21_2_conv": 36864, "conv5_block29_0_relu": 0, "conv5_block32_0_bn": 7552, "conv5_block29_1_conv": 229376, "conv4_block36_0_bn": 5504, "conv4_block32_1_relu": 0, "conv4_block11_1_conv": 73728, "conv5_block26_concat": 0, "conv5_block8_2_conv": 36864, "conv4_block17_1_conv": 98304, "conv4_block46_0_relu": 0, "conv4_block27_0_relu": 0, "conv4_block39_1_relu": 0, "conv5_block4_concat": 0, "conv5_block6_concat": 0, "conv5_block25_0_relu": 0, "conv5_block23_0_relu": 0, "conv5_block8_0_relu": 0, "conv4_block14_1_relu": 0, "conv4_block33_1_bn": 512, "conv3_block3_concat": 0, "conv5_block25_concat": 0, "conv4_block26_0_relu": 0, "conv4_block8_2_conv": 36864, "conv4_block19_0_bn": 3328, "conv5_block2_concat": 0, "conv5_block29_1_relu": 0, "conv5_block18_0_bn": 5760, "conv5_block18_0_relu": 0, "conv4_block3_0_bn": 1280, "conv5_block24_concat": 0, "conv4_block26_2_conv": 36864, "conv3_block4_1_bn": 512, "conv5_block31_0_bn": 7424, "conv5_block22_concat": 0, "conv5_block3_0_bn": 3840, "conv5_block8_1_relu": 0, "conv4_block28_2_conv": 36864, "conv5_block15_0_relu": 0, "conv5_block17_1_bn": 512, "conv4_block48_1_relu": 0, "conv4_block46_1_conv": 217088, "conv4_block43_1_conv": 204800, "conv2_block6_concat": 0, "conv5_block20_1_conv": 192512, "conv3_block5_0_relu": 0, "conv4_block24_1_bn": 512, "conv4_block39_1_bn": 512, "conv3_block10_0_relu": 0, "conv4_block30_1_relu": 0, "conv4_block18_concat": 0, "conv5_block32_0_relu": 0, "conv4_block20_1_bn": 512, "conv4_block28_0_relu": 0, "conv4_block41_1_conv": 196608, "conv3_block10_2_conv": 36864, "conv5_block9_2_conv": 36864, "conv4_block47_1_conv": 221184, "conv5_block8_1_conv": 143360, "conv4_block26_1_bn": 512, "conv3_block9_1_bn": 512, "conv4_block37_2_conv": 36864, "conv5_block26_1_bn": 512, "conv5_block24_1_conv": 208896, "input_1": 0, "conv4_block23_1_conv": 122880, "conv5_block27_1_relu": 0, "conv3_block6_2_conv": 36864, "conv2_block6_0_relu": 0, "conv4_block15_1_conv": 90112, "conv4_block34_0_bn": 5248, "conv4_block7_2_conv": 36864, "conv3_block7_1_bn": 512, "conv4_block46_1_bn": 512, "conv3_block9_concat": 0, "conv3_block4_2_conv": 36864, "conv4_block17_0_relu": 0, "conv4_block23_2_conv": 36864, "conv5_block13_1_bn": 512, "conv5_block5_1_conv": 131072, "conv5_block1_0_relu": 0, "conv4_block9_2_conv": 36864, "conv5_block31_1_bn": 512, "conv4_block2_1_conv": 36864, "conv4_block16_0_bn": 2944, "conv5_block3_2_conv": 36864, "conv5_block29_concat": 0, "conv5_block5_0_bn": 4096, "conv4_block43_0_bn": 6400, "conv4_block7_0_relu": 0, "conv5_block28_1_bn": 512, "conv4_block15_2_conv": 36864, "conv4_block19_1_relu": 0, "conv4_block6_1_conv": 53248, "conv5_block22_1_conv": 200704, "conv5_block15_2_conv": 36864, "conv4_block5_2_conv": 36864, "conv2_block1_2_conv": 36864, "conv4_block11_0_relu": 0, "conv3_block12_1_relu": 0, "conv4_block12_1_bn": 512, "conv4_block15_1_bn": 512, "conv4_block35_concat": 0, "conv5_block1_1_bn": 512, "conv5_block22_1_relu": 0, "conv5_block9_0_relu": 0, "conv4_block4_1_bn": 512, "conv4_block3_concat": 0, "conv4_block28_0_bn": 4480, "conv4_block35_1_bn": 512, "zero_padding2d_1": 0, "conv5_block25_0_bn": 6656, "conv5_block18_1_conv": 184320, "conv4_block43_0_relu": 0, "conv4_block41_0_relu": 0, "conv3_block9_1_conv": 49152, "conv2_block4_1_conv": 20480, "conv3_block7_2_conv": 36864, "conv4_block16_1_bn": 512, "conv4_block33_1_conv": 163840, "conv4_block31_1_conv": 155648, "conv4_block22_1_conv": 118784, "conv4_block1_1_bn": 512, "conv3_block11_2_conv": 36864, "conv5_block16_1_bn": 512, "conv5_block10_concat": 0}, "keras_version": "2.2.2", "class_name": "Model"}