{"backend": "tensorflow", "params": {"conv5_block17_concat": 0, "conv5_block7_1_relu": 0, "conv4_block29_1_bn": 512, "conv5_block28_0_bn": 6016, "conv4_block7_1_bn": 512, "conv5_block26_0_relu": 0, "conv5_block30_1_bn": 512, "conv5_block16_1_relu": 0, "conv4_block26_0_bn": 4224, "conv3_block3_0_bn": 768, "conv5_block24_0_bn": 5504, "conv3_block12_0_bn": 1920, "conv4_block30_1_bn": 512, "conv5_block28_0_relu": 0, "conv4_block23_0_bn": 3840, "conv4_block27_2_conv": 36864, "conv2_block6_concat": 0, "conv5_block1_1_conv": 81920, "conv2_block6_1_conv": 28672, "conv4_block4_0_bn": 1408, "conv3_block5_2_conv": 36864, "conv1/bn": 256, "conv5_block12_1_conv": 126976, "conv3_block4_0_bn": 896, "conv5_block10_1_relu": 0, "conv5_block20_1_relu": 0, "conv5_block7_0_bn": 3328, "conv3_block2_0_bn": 640, "conv5_block20_2_conv": 36864, "conv4_block10_1_bn": 512, "conv3_block4_2_conv": 36864, "conv2_block5_1_relu": 0, "pool3_conv": 131072, "conv5_block5_0_bn": 3072, "conv5_block13_1_bn": 512, "conv5_block6_1_conv": 102400, "conv5_block1_0_relu": 0, "conv3_block2_1_bn": 512, "conv5_block32_0_relu": 0, "conv5_block22_2_conv": 36864, "conv2_block2_2_conv": 36864, "input_1": 0, "conv3_block11_1_relu": 0, "conv4_block18_1_bn": 512, "conv3_block3_1_bn": 512, "conv3_block5_0_relu": 0, "pool2_conv": 32768, "conv4_block11_1_relu": 0, "conv3_block4_1_conv": 28672, "conv5_block16_0_bn": 4480, "conv4_block5_1_conv": 49152, "conv4_block29_2_conv": 36864, "pool2_pool": 0, "conv5_block20_0_bn": 4992, "conv5_block7_concat": 0, "conv5_block4_1_bn": 512, "conv5_block17_0_relu": 0, "conv5_block13_1_conv": 131072, "conv4_block4_0_relu": 0, "conv5_block10_2_conv": 36864, "conv4_block28_1_conv": 143360, "conv3_block11_0_bn": 1792, "conv3_block10_1_relu": 0, "conv4_block31_0_bn": 4864, "conv3_block7_0_relu": 0, "conv3_block5_0_bn": 1024, "conv5_block27_0_relu": 0, "conv5_block1_2_conv": 36864, "conv2_block5_0_relu": 0, "conv4_block19_2_conv": 36864, "conv5_block2_1_conv": 86016, "conv4_block23_2_conv": 36864, "conv4_block27_1_bn": 512, "conv4_block2_2_conv": 36864, "conv5_block20_concat": 0, "conv2_block6_1_bn": 512, "conv4_block32_concat": 0, "conv5_block8_1_relu": 0, "conv4_block32_0_relu": 0, "conv3_block6_2_conv": 36864, "conv4_block13_2_conv": 36864, "conv5_block10_1_conv": 118784, "conv4_block1_concat": 0, "conv4_block14_0_relu": 0, "conv4_block12_2_conv": 36864, "fc1000": 1665000, "conv5_block23_concat": 0, "conv5_block18_0_relu": 0, "conv4_block30_0_relu": 0, "conv4_block16_1_relu": 0, "conv5_block12_0_relu": 0, "conv4_block21_1_conv": 114688, "conv5_block7_1_conv": 106496, "conv5_block22_0_relu": 0, "conv4_block18_2_conv": 36864, "conv4_block20_1_relu": 0, "conv5_block16_1_bn": 512, "conv5_block14_1_relu": 0, "conv4_block6_concat": 0, "conv4_block25_1_bn": 512, "conv4_block28_concat": 0, "conv4_block19_1_conv": 106496, "conv5_block27_1_relu": 0, "conv3_block8_0_bn": 1408, "conv5_block16_1_conv": 143360, "conv4_block22_concat": 0, "conv4_block29_1_relu": 0, "conv4_block22_0_bn": 3712, "conv5_block30_0_relu": 0, "conv5_block11_1_bn": 512, "conv4_block19_1_bn": 512, "conv5_block6_1_bn": 512, "conv5_block21_1_conv": 163840, "conv5_block17_2_conv": 36864, "conv3_block9_0_relu": 0, "conv5_block17_1_bn": 512, "conv5_block6_2_conv": 36864, "conv4_block13_0_bn": 2560, "conv4_block18_concat": 0, "conv4_block27_0_relu": 0, "conv4_block15_1_relu": 0, "conv5_block4_concat": 0, "conv4_block20_0_bn": 3456, "conv5_block26_1_relu": 0, "conv5_block31_1_relu": 0, "conv4_block2_concat": 0, "conv4_block2_1_relu": 0, "conv4_block9_0_relu": 0, "conv5_block3_1_bn": 512, "conv4_block2_1_bn": 512, "conv4_block25_2_conv": 36864, "avg_pool": 0, "conv5_block21_0_bn": 5120, "conv4_block27_1_relu": 0, "conv5_block29_0_bn": 6144, "conv4_block26_2_conv": 36864, "conv3_block6_0_bn": 1152, "conv5_block17_0_bn": 4608, "conv4_block27_0_bn": 4352, "conv5_block32_2_conv": 36864, "conv2_block5_1_conv": 24576, "conv5_block18_1_bn": 512, "conv5_block23_0_bn": 5376, "conv4_block16_concat": 0, "conv5_block4_0_bn": 2944, "conv5_block6_0_bn": 3200, "conv3_block2_1_conv": 20480, "conv4_block25_1_relu": 0, "pool3_bn": 2048, "conv2_block3_1_bn": 512, "conv5_block10_1_bn": 512, "conv4_block2_0_bn": 1152, "conv5_block5_concat": 0, "conv3_block4_0_relu": 0, "conv4_block5_0_relu": 0, "conv3_block3_2_conv": 36864, "conv3_block7_2_conv": 36864, "conv3_block11_concat": 0, "conv4_block20_1_conv": 110592, "conv1/relu": 0, "conv2_block3_0_relu": 0, "conv4_block6_1_conv": 53248, "conv5_block8_1_conv": 110592, "conv2_block4_1_bn": 512, "conv4_block12_0_bn": 2432, "conv5_block22_concat": 0, "conv2_block2_1_bn": 512, "conv4_block24_1_relu": 0, "conv4_block3_2_conv": 36864, "conv4_block13_1_conv": 81920, "conv5_block13_concat": 0, "bn": 6656, "conv5_block18_0_bn": 4736, "conv4_block25_concat": 0, "conv5_block25_0_bn": 5632, "conv4_block7_0_bn": 1792, "conv3_block1_0_bn": 512, "conv5_block18_concat": 0, "conv5_block31_concat": 0, "conv5_block27_0_bn": 5888, "conv2_block2_concat": 0, "conv4_block16_0_bn": 2944, "conv5_block18_1_conv": 151552, "conv4_block14_concat": 0, "conv5_block14_0_relu": 0, "conv5_block11_2_conv": 36864, "pool4_pool": 0, "conv4_block18_0_bn": 3200, "conv5_block3_0_relu": 0, "conv4_block2_1_conv": 36864, "conv4_block19_0_bn": 3328, "conv4_block11_0_relu": 0, "conv3_block3_concat": 0, "conv4_block8_1_relu": 0, "conv3_block8_2_conv": 36864, "conv4_block23_0_relu": 0, "conv4_block29_concat": 0, "conv4_block5_0_bn": 1536, "conv4_block26_1_conv": 135168, "conv3_block8_1_bn": 512, "conv5_block12_1_bn": 512, "conv3_block3_1_relu": 0, "conv4_block15_1_conv": 90112, "conv5_block11_0_relu": 0, "pool4_conv": 819200, "conv5_block15_1_conv": 139264, "conv5_block12_0_bn": 3968, "conv5_block6_concat": 0, "conv5_block9_0_bn": 3584, "conv5_block15_1_relu": 0, "conv5_block13_1_relu": 0, "conv3_block1_1_relu": 0, "conv3_block1_0_relu": 0, "conv4_block23_1_bn": 512, "conv4_block5_2_conv": 36864, "conv5_block16_2_conv": 36864, "conv3_block9_1_bn": 512, "conv4_block21_1_relu": 0, "conv4_block32_1_bn": 512, "conv5_block4_0_relu": 0, "zero_padding2d_1": 0, "conv5_block11_1_conv": 122880, "conv5_block30_concat": 0, "conv3_block1_1_bn": 512, "conv5_block29_1_conv": 196608, "conv4_block7_0_relu": 0, "pool4_bn": 5120, "conv5_block2_1_relu": 0, "conv3_block9_1_conv": 49152, "conv5_block21_concat": 0, "conv4_block7_1_relu": 0, "conv5_block11_0_bn": 3840, "conv4_block12_1_relu": 0, "conv4_block3_concat": 0, "conv2_block4_2_conv": 36864, "conv4_block28_0_bn": 4480, "conv4_block11_concat": 0, "conv4_block32_2_conv": 36864, "conv4_block23_concat": 0, "conv4_block20_0_relu": 0, "conv3_block11_1_conv": 57344, "conv2_block3_0_bn": 512, "conv5_block9_concat": 0, "conv5_block14_0_bn": 4224, "conv5_block8_0_relu": 0, "conv3_block2_concat": 0, "conv4_block31_2_conv": 36864, "conv4_block4_1_relu": 0, "conv5_block28_1_bn": 512, "conv3_block9_2_conv": 36864, "conv4_block7_2_conv": 36864, "conv5_block26_2_conv": 36864, "conv5_block26_0_bn": 5760, "conv4_block24_0_relu": 0, "conv4_block14_2_conv": 36864, "conv5_block6_1_relu": 0, "conv5_block25_1_relu": 0, "conv4_block9_2_conv": 36864, "conv4_block32_1_relu": 0, "conv5_block27_2_conv": 36864, "conv4_block18_1_relu": 0, "conv5_block22_0_bn": 5248, "conv5_block22_1_bn": 512, "conv5_block6_0_relu": 0, "conv5_block27_1_bn": 512, "conv4_block17_concat": 0, "conv4_block6_2_conv": 36864, "conv4_block3_0_bn": 1280, "conv5_block7_0_relu": 0, "conv3_block8_0_relu": 0, "conv5_block22_1_conv": 167936, "conv4_block25_1_conv": 131072, "conv4_block17_1_conv": 98304, "conv3_block7_concat": 0, "conv3_block6_1_conv": 36864, "conv4_block8_0_bn": 1920, "conv4_block20_1_bn": 512, "conv5_block14_1_bn": 512, "conv5_block5_1_bn": 512, "conv4_block21_1_bn": 512, "conv4_block13_0_relu": 0, "conv4_block5_concat": 0, "conv2_block2_1_relu": 0, "conv4_block10_1_conv": 69632, "conv5_block2_1_bn": 512, "conv5_block32_concat": 0, "conv5_block30_1_conv": 200704, "conv5_block3_concat": 0, "conv4_block24_1_conv": 126976, "conv3_block11_0_relu": 0, "conv4_block29_0_bn": 4608, "conv4_block9_1_bn": 512, "conv3_block5_1_relu": 0, "conv5_block21_1_bn": 512, "conv3_block10_2_conv": 36864, "conv4_block21_concat": 0, "conv4_block31_concat": 0, "conv4_block9_1_relu": 0, "conv4_block5_1_relu": 0, "conv2_block5_1_bn": 512, "conv5_block21_0_relu": 0, "conv5_block3_1_conv": 90112, "conv3_block12_2_conv": 36864, "conv4_block9_1_conv": 65536, "conv2_block4_0_bn": 640, "conv4_block22_2_conv": 36864, "conv2_block4_1_relu": 0, "conv5_block13_0_bn": 4096, "conv5_block24_2_conv": 36864, "conv5_block27_concat": 0, "conv3_block9_concat": 0, "conv2_block4_1_conv": 20480, "conv5_block19_concat": 0, "conv4_block26_1_relu": 0, "conv5_block18_1_relu": 0, "conv4_block4_1_bn": 512, "conv5_block17_1_conv": 147456, "conv5_block14_concat": 0, "conv4_block30_concat": 0, "conv5_block19_1_relu": 0, "conv5_block8_concat": 0, "conv4_block9_0_bn": 2048, "conv5_block23_1_bn": 512, "conv5_block12_concat": 0, "conv4_block31_1_relu": 0, "conv4_block29_0_relu": 0, "conv5_block19_2_conv": 36864, "conv4_block15_concat": 0, "conv4_block29_1_conv": 147456, "conv5_block10_concat": 0, "conv3_block12_1_relu": 0, "conv5_block3_1_relu": 0, "conv5_block25_1_conv": 180224, "conv5_block32_1_relu": 0, "conv5_block15_2_conv": 36864, "conv4_block13_1_bn": 512, "conv4_block10_1_relu": 0, "conv3_block6_concat": 0, "conv3_block7_1_bn": 512, "conv4_block7_1_conv": 57344, "conv5_block28_concat": 0, "conv4_block22_1_conv": 118784, "conv5_block1_concat": 0, "conv4_block30_1_conv": 151552, "conv2_block3_1_relu": 0, "conv5_block15_0_bn": 4352, "conv5_block2_0_relu": 0, "conv4_block17_0_bn": 3072, "conv5_block13_2_conv": 36864, "conv4_block16_0_relu": 0, "conv5_block31_0_relu": 0, "conv5_block30_2_conv": 36864, "conv5_block26_1_bn": 512, "conv3_block4_concat": 0, "conv5_block21_1_relu": 0, "conv5_block1_1_relu": 0, "conv4_block28_1_bn": 512, "conv4_block4_concat": 0, "conv4_block16_1_conv": 94208, "conv2_block3_1_conv": 16384, "conv5_block27_1_conv": 188416, "conv4_block1_1_bn": 512, "conv5_block25_1_bn": 512, "conv5_block5_1_conv": 98304, "conv5_block9_0_relu": 0, "conv4_block11_1_conv": 73728, "conv5_block28_1_conv": 192512, "conv5_block31_2_conv": 36864, "conv5_block28_2_conv": 36864, "conv4_block12_1_conv": 77824, "pool1": 0, "conv4_block26_concat": 0, "conv5_block4_1_relu": 0, "conv4_block16_2_conv": 36864, "conv4_block11_0_bn": 2304, "conv4_block17_1_relu": 0, "conv3_block6_1_relu": 0, "conv5_block25_0_relu": 0, "conv4_block5_1_bn": 512, "conv2_block1_0_bn": 256, "conv4_block18_0_relu": 0, "conv4_block32_0_bn": 4992, "conv3_block9_1_relu": 0, "conv3_block11_2_conv": 36864, "conv4_block23_1_conv": 122880, "conv4_block28_0_relu": 0, "pool2_bn": 1024, "conv4_block12_0_relu": 0, "conv5_block5_1_relu": 0, "conv3_block8_1_conv": 45056, "conv4_block31_0_relu": 0, "conv4_block3_1_bn": 512, "conv4_block14_0_bn": 2688, "conv2_block5_2_conv": 36864, "conv4_block27_1_conv": 139264, "conv2_block6_1_relu": 0, "conv4_block22_1_relu": 0, "conv4_block25_0_bn": 4096, "conv3_block1_concat": 0, "conv4_block8_0_relu": 0, "conv4_block9_concat": 0, "conv5_block10_0_bn": 3712, "conv5_block9_1_conv": 114688, "conv3_block8_1_relu": 0, "conv3_block7_0_bn": 1280, "conv2_block4_concat": 0, "conv5_block17_1_relu": 0, "conv5_block29_1_relu": 0, "conv5_block29_0_relu": 0, "conv5_block24_1_conv": 176128, "conv4_block24_2_conv": 36864, "conv5_block31_1_conv": 204800, "conv4_block22_1_bn": 512, "conv3_block4_1_relu": 0, "conv5_block20_1_bn": 512, "conv5_block2_concat": 0, "conv2_block3_2_conv": 36864, "conv5_block28_1_relu": 0, "conv4_block15_0_bn": 2816, "conv3_block11_1_bn": 512, "conv4_block16_1_bn": 512, "conv2_block1_0_relu": 0, "conv4_block14_1_bn": 512, "conv4_block1_1_relu": 0, "conv1/conv": 9408, "conv5_block12_2_conv": 36864, "conv4_block3_1_conv": 40960, "conv4_block4_1_conv": 45056, "conv5_block1_0_bn": 2560, "conv5_block3_2_conv": 36864, "conv4_block18_1_conv": 102400, "conv5_block23_1_relu": 0, "conv4_block21_0_bn": 3584, "conv5_block4_2_conv": 36864, "conv3_block6_0_relu": 0, "conv2_block2_0_bn": 384, "conv5_block19_1_bn": 512, "conv4_block17_0_relu": 0, "conv5_block15_concat": 0, "conv3_block9_0_bn": 1536, "conv5_block14_1_conv": 135168, "conv5_block10_0_relu": 0, "conv5_block3_0_bn": 2816, "conv5_block23_1_conv": 172032, "conv4_block26_0_relu": 0, "conv5_block31_0_bn": 6400, "conv5_block9_1_relu": 0, "pool3_pool": 0, "conv4_block20_2_conv": 36864, "conv5_block23_0_relu": 0, "conv4_block1_2_conv": 36864, "conv3_block7_1_relu": 0, "conv5_block12_1_relu": 0, "conv5_block29_concat": 0, "conv4_block21_0_relu": 0, "conv5_block19_1_conv": 155648, "conv5_block18_2_conv": 36864, "conv3_block12_1_bn": 512, "conv3_block2_2_conv": 36864, "conv4_block8_concat": 0, "conv3_block10_concat": 0, "pool4_relu": 0, "conv2_block1_1_conv": 8192, "conv5_block21_2_conv": 36864, "conv4_block26_1_bn": 512, "conv4_block27_concat": 0, "conv5_block7_1_bn": 512, "conv4_block17_1_bn": 512, "conv5_block4_1_conv": 94208, "conv5_block19_0_relu": 0, "conv2_block4_0_relu": 0, "conv4_block30_2_conv": 36864, "conv5_block24_1_relu": 0, "conv5_block7_2_conv": 36864, "conv5_block20_1_conv": 159744, "conv3_block1_2_conv": 36864, "conv4_block19_concat": 0, "conv4_block24_concat": 0, "pool2_relu": 0, "conv5_block5_2_conv": 36864, "conv3_block3_0_relu": 0, "conv4_block23_1_relu": 0, "conv4_block8_2_conv": 36864, "conv3_block2_1_relu": 0, "conv3_block12_0_relu": 0, "conv4_block15_1_bn": 512, "conv2_block1_1_bn": 512, "conv3_block10_0_relu": 0, "conv4_block13_concat": 0, "conv2_block6_0_relu": 0, "conv5_block25_2_conv": 36864, "conv4_block6_0_relu": 0, "conv5_block15_0_relu": 0, "conv2_block5_0_bn": 768, "conv5_block2_0_bn": 2688, "conv4_block31_1_bn": 512, "conv5_block30_0_bn": 6272, "conv4_block12_1_bn": 512, "conv4_block7_concat": 0, "conv4_block10_concat": 0, "conv5_block11_concat": 0, "conv4_block20_concat": 0, "conv4_block24_1_bn": 512, "conv5_block32_0_bn": 6528, "conv5_block22_1_relu": 0, "conv4_block14_1_relu": 0, "conv5_block15_1_bn": 512, "conv5_block24_1_bn": 512, "conv4_block1_1_conv": 32768, "conv5_block20_0_relu": 0, "conv2_block3_concat": 0, "conv4_block1_0_bn": 1024, "conv5_block32_1_bn": 512, "conv4_block31_1_conv": 155648, "conv5_block26_1_conv": 184320, "conv5_block8_2_conv": 36864, "conv4_block2_0_relu": 0, "conv2_block1_concat": 0, "conv3_block10_1_conv": 53248, "conv5_block2_2_conv": 36864, "conv5_block16_concat": 0, "conv5_block8_1_bn": 512, "conv5_block13_0_relu": 0, "conv4_block10_2_conv": 36864, "conv2_block1_1_relu": 0, "conv4_block14_1_conv": 86016, "conv4_block28_1_relu": 0, "conv4_block15_0_relu": 0, "conv4_block4_2_conv": 36864, "conv4_block19_1_relu": 0, "conv5_block8_0_bn": 3456, "conv5_block1_1_bn": 512, "conv5_block16_0_relu": 0, "conv3_block2_0_relu": 0, "conv2_block1_2_conv": 36864, "conv3_block12_1_conv": 61440, "conv2_block6_2_conv": 36864, "conv4_block11_1_bn": 512, "conv5_block29_1_bn": 512, "conv4_block1_0_relu": 0, "conv3_block10_1_bn": 512, "conv3_block10_0_bn": 1664, "conv4_block8_1_conv": 61440, "conv4_block12_concat": 0, "conv4_block11_2_conv": 36864, "conv4_block21_2_conv": 36864, "conv4_block22_0_relu": 0, "conv2_block2_0_relu": 0, "conv4_block6_1_bn": 512, "conv5_block29_2_conv": 36864, "conv3_block12_concat": 0, "conv4_block24_0_bn": 3968, "conv3_block8_concat": 0, "conv3_block5_1_bn": 512, "conv5_block32_1_conv": 208896, "conv4_block13_1_relu": 0, "conv3_block1_1_conv": 16384, "conv3_block4_1_bn": 512, "conv4_block32_1_conv": 159744, "conv2_block5_concat": 0, "conv4_block15_2_conv": 36864, "conv3_block7_1_conv": 40960, "conv3_block3_1_conv": 24576, "conv4_block19_0_relu": 0, "conv3_block5_concat": 0, "conv5_block11_1_relu": 0, "conv4_block25_0_relu": 0, "conv4_block30_0_bn": 4736, "conv4_block30_1_relu": 0, "conv5_block19_0_bn": 4864, "zero_padding2d_2": 0, "conv4_block3_0_relu": 0, "conv4_block10_0_relu": 0, "conv5_block24_concat": 0, "conv4_block17_2_conv": 36864, "conv5_block24_0_relu": 0, "pool3_relu": 0, "conv4_block28_2_conv": 36864, "conv4_block8_1_bn": 512, "conv5_block23_2_conv": 36864, "conv5_block9_2_conv": 36864, "conv5_block5_0_relu": 0, "conv5_block26_concat": 0, "conv2_block6_0_bn": 896, "conv5_block14_2_conv": 36864, "conv5_block30_1_relu": 0, "conv4_block3_1_relu": 0, "conv3_block5_1_conv": 32768, "conv5_block9_1_bn": 512, "conv2_block2_1_conv": 12288, "conv5_block25_concat": 0, "conv3_block6_1_bn": 512, "conv4_block6_0_bn": 1664, "conv4_block10_0_bn": 2176, "conv4_block6_1_relu": 0, "conv5_block31_1_bn": 512}, "class_name": "Model", "config": {"layers": [{"inbound_nodes": [], "class_name": "InputLayer", "config": {"dtype": "float32", "batch_input_shape": [null, 224, 224, 3], "sparse": false, "name": "input_1"}, "name": "input_1"}, {"inbound_nodes": [[["input_1", 0, 0, {}]]], "class_name": "ZeroPadding2D", "config": {"data_format": "channels_last", "padding": [[3, 3], [3, 3]], "trainable": true, "name": "zero_padding2d_1"}, "name": "zero_padding2d_1"}, {"inbound_nodes": [[["zero_padding2d_1", 0, 0, {}]]], "class_name": "Conv2D", "config": {"kernel_size": [7, 7], "kernel_regularizer": null, "kernel_constraint": null, "activation": "linear", "bias_constraint": null, "strides": [2, 2], "data_format": "channels_last", "filters": 64, "activity_regularizer": null, "trainable": true, "name": "conv1/conv", "use_bias": false, "padding": "valid", "dilation_rate": [1, 1], "bias_regularizer": null, "kernel_initializer": {"class_name": "VarianceScaling", "config": {"seed": null, "distribution": "uniform", "scale": 1.0, "mode": "fan_avg"}}, "bias_initializer": {"class_name": "Zeros", "config": {}}}, "name": "conv1/conv"}, {"inbound_nodes": [[["conv1/conv", 0, 0, {}]]], "class_name": "BatchNormalization", "config": {"momentum": 0.99, "axis": 3, "moving_variance_initializer": {"class_name": "Ones", "config": {}}, "epsilon": 1.001e-05, "scale": true, "beta_regularizer": null, "trainable": true, "name": "conv1/bn", "moving_mean_initializer": {"class_name": "Zeros", "config": {}}, "gamma_constraint": null, "gamma_regularizer": null, "gamma_initializer": {"class_name": "Ones", "config": {}}, "beta_initializer": {"class_name": "Zeros", "config": {}}, "center": true, "beta_constraint": null}, "name": "conv1/bn"}, {"inbound_nodes": [[["conv1/bn", 0, 0, {}]]], "class_name": "Activation", "config": {"activation": "relu", "trainable": true, "name": "conv1/relu"}, "name": "conv1/relu"}, {"inbound_nodes": [[["conv1/relu", 0, 0, {}]]], "class_name": "ZeroPadding2D", "config": {"data_format": "channels_last", "padding": [[1, 1], [1, 1]], "trainable": true, "name": "zero_padding2d_2"}, "name": "zero_padding2d_2"}, {"inbound_nodes": [[["zero_padding2d_2", 0, 0, {}]]], "class_name": "MaxPooling2D", "config": {"trainable": true, "pool_size": [3, 3], "data_format": "channels_last", "strides": [2, 2], "padding": "valid", "name": "pool1"}, "name": "pool1"}, {"inbound_nodes": [[["pool1", 0, 0, {}]]], "class_name": "BatchNormalization", "config": {"momentum": 0.99, "axis": 3, "moving_variance_initializer": {"class_name": "Ones", "config": {}}, "epsilon": 1.001e-05, "scale": true, "beta_regularizer": null, "trainable": true, "name": "conv2_block1_0_bn", "moving_mean_initializer": {"class_name": "Zeros", "config": {}}, "gamma_constraint": null, "gamma_regularizer": null, "gamma_initializer": {"class_name": "Ones", "config": {}}, "beta_initializer": {"class_name": "Zeros", "config": {}}, "center": true, "beta_constraint": null}, "name": "conv2_block1_0_bn"}, {"inbound_nodes": [[["conv2_block1_0_bn", 0, 0, {}]]], "class_name": "Activation", "config": {"activation": "relu", "trainable": true, "name": "conv2_block1_0_relu"}, "name": "conv2_block1_0_relu"}, {"inbound_nodes": [[["conv2_block1_0_relu", 0, 0, {}]]], "class_name": "Conv2D", "config": {"kernel_size": [1, 1], "kernel_regularizer": null, "kernel_constraint": null, "activation": "linear", "bias_constraint": null, "strides": [1, 1], "data_format": "channels_last", "filters": 128, "activity_regularizer": null, "trainable": true, "name": "conv2_block1_1_conv", "use_bias": false, "padding": "valid", "dilation_rate": [1, 1], "bias_regularizer": null, "kernel_initializer": {"class_name": "VarianceScaling", "config": {"seed": null, "distribution": "uniform", "scale": 1.0, "mode": "fan_avg"}}, "bias_initializer": {"class_name": "Zeros", "config": {}}}, "name": "conv2_block1_1_conv"}, {"inbound_nodes": [[["conv2_block1_1_conv", 0, 0, {}]]], "class_name": "BatchNormalization", "config": {"momentum": 0.99, "axis": 3, "moving_variance_initializer": {"class_name": "Ones", "config": {}}, "epsilon": 1.001e-05, "scale": true, "beta_regularizer": null, "trainable": true, "name": "conv2_block1_1_bn", "moving_mean_initializer": {"class_name": "Zeros", "config": {}}, "gamma_constraint": null, "gamma_regularizer": null, "gamma_initializer": {"class_name": "Ones", "config": {}}, "beta_initializer": {"class_name": "Zeros", "config": {}}, "center": true, "beta_constraint": null}, "name": "conv2_block1_1_bn"}, {"inbound_nodes": [[["conv2_block1_1_bn", 0, 0, {}]]], "class_name": "Activation", "config": {"activation": "relu", "trainable": true, "name": "conv2_block1_1_relu"}, "name": "conv2_block1_1_relu"}, {"inbound_nodes": [[["conv2_block1_1_relu", 0, 0, {}]]], "class_name": "Conv2D", "config": {"kernel_size": [3, 3], "kernel_regularizer": null, "kernel_constraint": null, "activation": "linear", "bias_constraint": null, "strides": [1, 1], "data_format": "channels_last", "filters": 32, "activity_regularizer": null, "trainable": true, "name": "conv2_block1_2_conv", "use_bias": false, "padding": "same", "dilation_rate": [1, 1], "bias_regularizer": null, "kernel_initializer": {"class_name": "VarianceScaling", "config": {"seed": null, "distribution": "uniform", "scale": 1.0, "mode": "fan_avg"}}, "bias_initializer": {"class_name": "Zeros", "config": {}}}, "name": "conv2_block1_2_conv"}, {"inbound_nodes": [[["pool1", 0, 0, {}], ["conv2_block1_2_conv", 0, 0, {}]]], "class_name": "Concatenate", "config": {"axis": 3, "trainable": true, "name": "conv2_block1_concat"}, "name": "conv2_block1_concat"}, {"inbound_nodes": [[["conv2_block1_concat", 0, 0, {}]]], "class_name": "BatchNormalization", "config": {"momentum": 0.99, "axis": 3, "moving_variance_initializer": {"class_name": "Ones", "config": {}}, "epsilon": 1.001e-05, "scale": true, "beta_regularizer": null, "trainable": true, "name": "conv2_block2_0_bn", "moving_mean_initializer": {"class_name": "Zeros", "config": {}}, "gamma_constraint": null, "gamma_regularizer": null, "gamma_initializer": {"class_name": "Ones", "config": {}}, "beta_initializer": {"class_name": "Zeros", "config": {}}, "center": true, "beta_constraint": null}, "name": "conv2_block2_0_bn"}, {"inbound_nodes": [[["conv2_block2_0_bn", 0, 0, {}]]], "class_name": "Activation", "config": {"activation": "relu", "trainable": true, "name": "conv2_block2_0_relu"}, "name": "conv2_block2_0_relu"}, {"inbound_nodes": [[["conv2_block2_0_relu", 0, 0, {}]]], "class_name": "Conv2D", "config": {"kernel_size": [1, 1], "kernel_regularizer": null, "kernel_constraint": null, "activation": "linear", "bias_constraint": null, "strides": [1, 1], "data_format": "channels_last", "filters": 128, "activity_regularizer": null, "trainable": true, "name": "conv2_block2_1_conv", "use_bias": false, "padding": "valid", "dilation_rate": [1, 1], "bias_regularizer": null, "kernel_initializer": {"class_name": "VarianceScaling", "config": {"seed": null, "distribution": "uniform", "scale": 1.0, "mode": "fan_avg"}}, "bias_initializer": {"class_name": "Zeros", "config": {}}}, "name": "conv2_block2_1_conv"}, {"inbound_nodes": [[["conv2_block2_1_conv", 0, 0, {}]]], "class_name": "BatchNormalization", "config": {"momentum": 0.99, "axis": 3, "moving_variance_initializer": {"class_name": "Ones", "config": {}}, "epsilon": 1.001e-05, "scale": true, "beta_regularizer": null, "trainable": true, "name": "conv2_block2_1_bn", "moving_mean_initializer": {"class_name": "Zeros", "config": {}}, "gamma_constraint": null, "gamma_regularizer": null, "gamma_initializer": {"class_name": "Ones", "config": {}}, "beta_initializer": {"class_name": "Zeros", "config": {}}, "center": true, "beta_constraint": null}, "name": "conv2_block2_1_bn"}, {"inbound_nodes": [[["conv2_block2_1_bn", 0, 0, {}]]], "class_name": "Activation", "config": {"activation": "relu", "trainable": true, "name": "conv2_block2_1_relu"}, "name": "conv2_block2_1_relu"}, {"inbound_nodes": [[["conv2_block2_1_relu", 0, 0, {}]]], "class_name": "Conv2D", "config": {"kernel_size": [3, 3], "kernel_regularizer": null, "kernel_constraint": null, "activation": "linear", "bias_constraint": null, "strides": [1, 1], "data_format": "channels_last", "filters": 32, "activity_regularizer": null, "trainable": true, "name": "conv2_block2_2_conv", "use_bias": false, "padding": "same", "dilation_rate": [1, 1], "bias_regularizer": null, "kernel_initializer": {"class_name": "VarianceScaling", "config": {"seed": null, "distribution": "uniform", "scale": 1.0, "mode": "fan_avg"}}, "bias_initializer": {"class_name": "Zeros", "config": {}}}, "name": "conv2_block2_2_conv"}, {"inbound_nodes": [[["conv2_block1_concat", 0, 0, {}], ["conv2_block2_2_conv", 0, 0, {}]]], "class_name": "Concatenate", "config": {"axis": 3, "trainable": true, "name": "conv2_block2_concat"}, "name": "conv2_block2_concat"}, {"inbound_nodes": [[["conv2_block2_concat", 0, 0, {}]]], "class_name": "BatchNormalization", "config": {"momentum": 0.99, "axis": 3, "moving_variance_initializer": {"class_name": "Ones", "config": {}}, "epsilon": 1.001e-05, "scale": true, "beta_regularizer": null, "trainable": true, "name": "conv2_block3_0_bn", "moving_mean_initializer": {"class_name": "Zeros", "config": {}}, "gamma_constraint": null, "gamma_regularizer": null, "gamma_initializer": {"class_name": "Ones", "config": {}}, "beta_initializer": {"class_name": "Zeros", "config": {}}, "center": true, "beta_constraint": null}, "name": "conv2_block3_0_bn"}, {"inbound_nodes": [[["conv2_block3_0_bn", 0, 0, {}]]], "class_name": "Activation", "config": {"activation": "relu", "trainable": true, "name": "conv2_block3_0_relu"}, "name": "conv2_block3_0_relu"}, {"inbound_nodes": [[["conv2_block3_0_relu", 0, 0, {}]]], "class_name": "Conv2D", "config": {"kernel_size": [1, 1], "kernel_regularizer": null, "kernel_constraint": null, "activation": "linear", "bias_constraint": null, "strides": [1, 1], "data_format": "channels_last", "filters": 128, "activity_regularizer": null, "trainable": true, "name": "conv2_block3_1_conv", "use_bias": false, "padding": "valid", "dilation_rate": [1, 1], "bias_regularizer": null, "kernel_initializer": {"class_name": "VarianceScaling", "config": {"seed": null, "distribution": "uniform", "scale": 1.0, "mode": "fan_avg"}}, "bias_initializer": {"class_name": "Zeros", "config": {}}}, "name": "conv2_block3_1_conv"}, {"inbound_nodes": [[["conv2_block3_1_conv", 0, 0, {}]]], "class_name": "BatchNormalization", "config": {"momentum": 0.99, "axis": 3, "moving_variance_initializer": {"class_name": "Ones", "config": {}}, "epsilon": 1.001e-05, "scale": true, "beta_regularizer": null, "trainable": true, "name": "conv2_block3_1_bn", "moving_mean_initializer": {"class_name": "Zeros", "config": {}}, "gamma_constraint": null, "gamma_regularizer": null, "gamma_initializer": {"class_name": "Ones", "config": {}}, "beta_initializer": {"class_name": "Zeros", "config": {}}, "center": true, "beta_constraint": null}, "name": "conv2_block3_1_bn"}, {"inbound_nodes": [[["conv2_block3_1_bn", 0, 0, {}]]], "class_name": "Activation", "config": {"activation": "relu", "trainable": true, "name": "conv2_block3_1_relu"}, "name": "conv2_block3_1_relu"}, {"inbound_nodes": [[["conv2_block3_1_relu", 0, 0, {}]]], "class_name": "Conv2D", "config": {"kernel_size": [3, 3], "kernel_regularizer": null, "kernel_constraint": null, "activation": "linear", "bias_constraint": null, "strides": [1, 1], "data_format": "channels_last", "filters": 32, "activity_regularizer": null, "trainable": true, "name": "conv2_block3_2_conv", "use_bias": false, "padding": "same", "dilation_rate": [1, 1], "bias_regularizer": null, "kernel_initializer": {"class_name": "VarianceScaling", "config": {"seed": null, "distribution": "uniform", "scale": 1.0, "mode": "fan_avg"}}, "bias_initializer": {"class_name": "Zeros", "config": {}}}, "name": "conv2_block3_2_conv"}, {"inbound_nodes": [[["conv2_block2_concat", 0, 0, {}], ["conv2_block3_2_conv", 0, 0, {}]]], "class_name": "Concatenate", "config": {"axis": 3, "trainable": true, "name": "conv2_block3_concat"}, "name": "conv2_block3_concat"}, {"inbound_nodes": [[["conv2_block3_concat", 0, 0, {}]]], "class_name": "BatchNormalization", "config": {"momentum": 0.99, "axis": 3, "moving_variance_initializer": {"class_name": "Ones", "config": {}}, "epsilon": 1.001e-05, "scale": true, "beta_regularizer": null, "trainable": true, "name": "conv2_block4_0_bn", "moving_mean_initializer": {"class_name": "Zeros", "config": {}}, "gamma_constraint": null, "gamma_regularizer": null, "gamma_initializer": {"class_name": "Ones", "config": {}}, "beta_initializer": {"class_name": "Zeros", "config": {}}, "center": true, "beta_constraint": null}, "name": "conv2_block4_0_bn"}, {"inbound_nodes": [[["conv2_block4_0_bn", 0, 0, {}]]], "class_name": "Activation", "config": {"activation": "relu", "trainable": true, "name": "conv2_block4_0_relu"}, "name": "conv2_block4_0_relu"}, {"inbound_nodes": [[["conv2_block4_0_relu", 0, 0, {}]]], "class_name": "Conv2D", "config": {"kernel_size": [1, 1], "kernel_regularizer": null, "kernel_constraint": null, "activation": "linear", "bias_constraint": null, "strides": [1, 1], "data_format": "channels_last", "filters": 128, "activity_regularizer": null, "trainable": true, "name": "conv2_block4_1_conv", "use_bias": false, "padding": "valid", "dilation_rate": [1, 1], "bias_regularizer": null, "kernel_initializer": {"class_name": "VarianceScaling", "config": {"seed": null, "distribution": "uniform", "scale": 1.0, "mode": "fan_avg"}}, "bias_initializer": {"class_name": "Zeros", "config": {}}}, "name": "conv2_block4_1_conv"}, {"inbound_nodes": [[["conv2_block4_1_conv", 0, 0, {}]]], "class_name": "BatchNormalization", "config": {"momentum": 0.99, "axis": 3, "moving_variance_initializer": {"class_name": "Ones", "config": {}}, "epsilon": 1.001e-05, "scale": true, "beta_regularizer": null, "trainable": true, "name": "conv2_block4_1_bn", "moving_mean_initializer": {"class_name": "Zeros", "config": {}}, "gamma_constraint": null, "gamma_regularizer": null, "gamma_initializer": {"class_name": "Ones", "config": {}}, "beta_initializer": {"class_name": "Zeros", "config": {}}, "center": true, "beta_constraint": null}, "name": "conv2_block4_1_bn"}, {"inbound_nodes": [[["conv2_block4_1_bn", 0, 0, {}]]], "class_name": "Activation", "config": {"activation": "relu", "trainable": true, "name": "conv2_block4_1_relu"}, "name": "conv2_block4_1_relu"}, {"inbound_nodes": [[["conv2_block4_1_relu", 0, 0, {}]]], "class_name": "Conv2D", "config": {"kernel_size": [3, 3], "kernel_regularizer": null, "kernel_constraint": null, "activation": "linear", "bias_constraint": null, "strides": [1, 1], "data_format": "channels_last", "filters": 32, "activity_regularizer": null, "trainable": true, "name": "conv2_block4_2_conv", "use_bias": false, "padding": "same", "dilation_rate": [1, 1], "bias_regularizer": null, "kernel_initializer": {"class_name": "VarianceScaling", "config": {"seed": null, "distribution": "uniform", "scale": 1.0, "mode": "fan_avg"}}, "bias_initializer": {"class_name": "Zeros", "config": {}}}, "name": "conv2_block4_2_conv"}, {"inbound_nodes": [[["conv2_block3_concat", 0, 0, {}], ["conv2_block4_2_conv", 0, 0, {}]]], "class_name": "Concatenate", "config": {"axis": 3, "trainable": true, "name": "conv2_block4_concat"}, "name": "conv2_block4_concat"}, {"inbound_nodes": [[["conv2_block4_concat", 0, 0, {}]]], "class_name": "BatchNormalization", "config": {"momentum": 0.99, "axis": 3, "moving_variance_initializer": {"class_name": "Ones", "config": {}}, "epsilon": 1.001e-05, "scale": true, "beta_regularizer": null, "trainable": true, "name": "conv2_block5_0_bn", "moving_mean_initializer": {"class_name": "Zeros", "config": {}}, "gamma_constraint": null, "gamma_regularizer": null, "gamma_initializer": {"class_name": "Ones", "config": {}}, "beta_initializer": {"class_name": "Zeros", "config": {}}, "center": true, "beta_constraint": null}, "name": "conv2_block5_0_bn"}, {"inbound_nodes": [[["conv2_block5_0_bn", 0, 0, {}]]], "class_name": "Activation", "config": {"activation": "relu", "trainable": true, "name": "conv2_block5_0_relu"}, "name": "conv2_block5_0_relu"}, {"inbound_nodes": [[["conv2_block5_0_relu", 0, 0, {}]]], "class_name": "Conv2D", "config": {"kernel_size": [1, 1], "kernel_regularizer": null, "kernel_constraint": null, "activation": "linear", "bias_constraint": null, "strides": [1, 1], "data_format": "channels_last", "filters": 128, "activity_regularizer": null, "trainable": true, "name": "conv2_block5_1_conv", "use_bias": false, "padding": "valid", "dilation_rate": [1, 1], "bias_regularizer": null, "kernel_initializer": {"class_name": "VarianceScaling", "config": {"seed": null, "distribution": "uniform", "scale": 1.0, "mode": "fan_avg"}}, "bias_initializer": {"class_name": "Zeros", "config": {}}}, "name": "conv2_block5_1_conv"}, {"inbound_nodes": [[["conv2_block5_1_conv", 0, 0, {}]]], "class_name": "BatchNormalization", "config": {"momentum": 0.99, "axis": 3, "moving_variance_initializer": {"class_name": "Ones", "config": {}}, "epsilon": 1.001e-05, "scale": true, "beta_regularizer": null, "trainable": true, "name": "conv2_block5_1_bn", "moving_mean_initializer": {"class_name": "Zeros", "config": {}}, "gamma_constraint": null, "gamma_regularizer": null, "gamma_initializer": {"class_name": "Ones", "config": {}}, "beta_initializer": {"class_name": "Zeros", "config": {}}, "center": true, "beta_constraint": null}, "name": "conv2_block5_1_bn"}, {"inbound_nodes": [[["conv2_block5_1_bn", 0, 0, {}]]], "class_name": "Activation", "config": {"activation": "relu", "trainable": true, "name": "conv2_block5_1_relu"}, "name": "conv2_block5_1_relu"}, {"inbound_nodes": [[["conv2_block5_1_relu", 0, 0, {}]]], "class_name": "Conv2D", "config": {"kernel_size": [3, 3], "kernel_regularizer": null, "kernel_constraint": null, "activation": "linear", "bias_constraint": null, "strides": [1, 1], "data_format": "channels_last", "filters": 32, "activity_regularizer": null, "trainable": true, "name": "conv2_block5_2_conv", "use_bias": false, "padding": "same", "dilation_rate": [1, 1], "bias_regularizer": null, "kernel_initializer": {"class_name": "VarianceScaling", "config": {"seed": null, "distribution": "uniform", "scale": 1.0, "mode": "fan_avg"}}, "bias_initializer": {"class_name": "Zeros", "config": {}}}, "name": "conv2_block5_2_conv"}, {"inbound_nodes": [[["conv2_block4_concat", 0, 0, {}], ["conv2_block5_2_conv", 0, 0, {}]]], "class_name": "Concatenate", "config": {"axis": 3, "trainable": true, "name": "conv2_block5_concat"}, "name": "conv2_block5_concat"}, {"inbound_nodes": [[["conv2_block5_concat", 0, 0, {}]]], "class_name": "BatchNormalization", "config": {"momentum": 0.99, "axis": 3, "moving_variance_initializer": {"class_name": "Ones", "config": {}}, "epsilon": 1.001e-05, "scale": true, "beta_regularizer": null, "trainable": true, "name": "conv2_block6_0_bn", "moving_mean_initializer": {"class_name": "Zeros", "config": {}}, "gamma_constraint": null, "gamma_regularizer": null, "gamma_initializer": {"class_name": "Ones", "config": {}}, "beta_initializer": {"class_name": "Zeros", "config": {}}, "center": true, "beta_constraint": null}, "name": "conv2_block6_0_bn"}, {"inbound_nodes": [[["conv2_block6_0_bn", 0, 0, {}]]], "class_name": "Activation", "config": {"activation": "relu", "trainable": true, "name": "conv2_block6_0_relu"}, "name": "conv2_block6_0_relu"}, {"inbound_nodes": [[["conv2_block6_0_relu", 0, 0, {}]]], "class_name": "Conv2D", "config": {"kernel_size": [1, 1], "kernel_regularizer": null, "kernel_constraint": null, "activation": "linear", "bias_constraint": null, "strides": [1, 1], "data_format": "channels_last", "filters": 128, "activity_regularizer": null, "trainable": true, "name": "conv2_block6_1_conv", "use_bias": false, "padding": "valid", "dilation_rate": [1, 1], "bias_regularizer": null, "kernel_initializer": {"class_name": "VarianceScaling", "config": {"seed": null, "distribution": "uniform", "scale": 1.0, "mode": "fan_avg"}}, "bias_initializer": {"class_name": "Zeros", "config": {}}}, "name": "conv2_block6_1_conv"}, {"inbound_nodes": [[["conv2_block6_1_conv", 0, 0, {}]]], "class_name": "BatchNormalization", "config": {"momentum": 0.99, "axis": 3, "moving_variance_initializer": {"class_name": "Ones", "config": {}}, "epsilon": 1.001e-05, "scale": true, "beta_regularizer": null, "trainable": true, "name": "conv2_block6_1_bn", "moving_mean_initializer": {"class_name": "Zeros", "config": {}}, "gamma_constraint": null, "gamma_regularizer": null, "gamma_initializer": {"class_name": "Ones", "config": {}}, "beta_initializer": {"class_name": "Zeros", "config": {}}, "center": true, "beta_constraint": null}, "name": "conv2_block6_1_bn"}, {"inbound_nodes": [[["conv2_block6_1_bn", 0, 0, {}]]], "class_name": "Activation", "config": {"activation": "relu", "trainable": true, "name": "conv2_block6_1_relu"}, "name": "conv2_block6_1_relu"}, {"inbound_nodes": [[["conv2_block6_1_relu", 0, 0, {}]]], "class_name": "Conv2D", "config": {"kernel_size": [3, 3], "kernel_regularizer": null, "kernel_constraint": null, "activation": "linear", "bias_constraint": null, "strides": [1, 1], "data_format": "channels_last", "filters": 32, "activity_regularizer": null, "trainable": true, "name": "conv2_block6_2_conv", "use_bias": false, "padding": "same", "dilation_rate": [1, 1], "bias_regularizer": null, "kernel_initializer": {"class_name": "VarianceScaling", "config": {"seed": null, "distribution": "uniform", "scale": 1.0, "mode": "fan_avg"}}, "bias_initializer": {"class_name": "Zeros", "config": {}}}, "name": "conv2_block6_2_conv"}, {"inbound_nodes": [[["conv2_block5_concat", 0, 0, {}], ["conv2_block6_2_conv", 0, 0, {}]]], "class_name": "Concatenate", "config": {"axis": 3, "trainable": true, "name": "conv2_block6_concat"}, "name": "conv2_block6_concat"}, {"inbound_nodes": [[["conv2_block6_concat", 0, 0, {}]]], "class_name": "BatchNormalization", "config": {"momentum": 0.99, "axis": 3, "moving_variance_initializer": {"class_name": "Ones", "config": {}}, "epsilon": 1.001e-05, "scale": true, "beta_regularizer": null, "trainable": true, "name": "pool2_bn", "moving_mean_initializer": {"class_name": "Zeros", "config": {}}, "gamma_constraint": null, "gamma_regularizer": null, "gamma_initializer": {"class_name": "Ones", "config": {}}, "beta_initializer": {"class_name": "Zeros", "config": {}}, "center": true, "beta_constraint": null}, "name": "pool2_bn"}, {"inbound_nodes": [[["pool2_bn", 0, 0, {}]]], "class_name": "Activation", "config": {"activation": "relu", "trainable": true, "name": "pool2_relu"}, "name": "pool2_relu"}, {"inbound_nodes": [[["pool2_relu", 0, 0, {}]]], "class_name": "Conv2D", "config": {"kernel_size": [1, 1], "kernel_regularizer": null, "kernel_constraint": null, "activation": "linear", "bias_constraint": null, "strides": [1, 1], "data_format": "channels_last", "filters": 128, "activity_regularizer": null, "trainable": true, "name": "pool2_conv", "use_bias": false, "padding": "valid", "dilation_rate": [1, 1], "bias_regularizer": null, "kernel_initializer": {"class_name": "VarianceScaling", "config": {"seed": null, "distribution": "uniform", "scale": 1.0, "mode": "fan_avg"}}, "bias_initializer": {"class_name": "Zeros", "config": {}}}, "name": "pool2_conv"}, {"inbound_nodes": [[["pool2_conv", 0, 0, {}]]], "class_name": "AveragePooling2D", "config": {"trainable": true, "pool_size": [2, 2], "data_format": "channels_last", "strides": [2, 2], "padding": "valid", "name": "pool2_pool"}, "name": "pool2_pool"}, {"inbound_nodes": [[["pool2_pool", 0, 0, {}]]], "class_name": "BatchNormalization", "config": {"momentum": 0.99, "axis": 3, "moving_variance_initializer": {"class_name": "Ones", "config": {}}, "epsilon": 1.001e-05, "scale": true, "beta_regularizer": null, "trainable": true, "name": "conv3_block1_0_bn", "moving_mean_initializer": {"class_name": "Zeros", "config": {}}, "gamma_constraint": null, "gamma_regularizer": null, "gamma_initializer": {"class_name": "Ones", "config": {}}, "beta_initializer": {"class_name": "Zeros", "config": {}}, "center": true, "beta_constraint": null}, "name": "conv3_block1_0_bn"}, {"inbound_nodes": [[["conv3_block1_0_bn", 0, 0, {}]]], "class_name": "Activation", "config": {"activation": "relu", "trainable": true, "name": "conv3_block1_0_relu"}, "name": "conv3_block1_0_relu"}, {"inbound_nodes": [[["conv3_block1_0_relu", 0, 0, {}]]], "class_name": "Conv2D", "config": {"kernel_size": [1, 1], "kernel_regularizer": null, "kernel_constraint": null, "activation": "linear", "bias_constraint": null, "strides": [1, 1], "data_format": "channels_last", "filters": 128, "activity_regularizer": null, "trainable": true, "name": "conv3_block1_1_conv", "use_bias": false, "padding": "valid", "dilation_rate": [1, 1], "bias_regularizer": null, "kernel_initializer": {"class_name": "VarianceScaling", "config": {"seed": null, "distribution": "uniform", "scale": 1.0, "mode": "fan_avg"}}, "bias_initializer": {"class_name": "Zeros", "config": {}}}, "name": "conv3_block1_1_conv"}, {"inbound_nodes": [[["conv3_block1_1_conv", 0, 0, {}]]], "class_name": "BatchNormalization", "config": {"momentum": 0.99, "axis": 3, "moving_variance_initializer": {"class_name": "Ones", "config": {}}, "epsilon": 1.001e-05, "scale": true, "beta_regularizer": null, "trainable": true, "name": "conv3_block1_1_bn", "moving_mean_initializer": {"class_name": "Zeros", "config": {}}, "gamma_constraint": null, "gamma_regularizer": null, "gamma_initializer": {"class_name": "Ones", "config": {}}, "beta_initializer": {"class_name": "Zeros", "config": {}}, "center": true, "beta_constraint": null}, "name": "conv3_block1_1_bn"}, {"inbound_nodes": [[["conv3_block1_1_bn", 0, 0, {}]]], "class_name": "Activation", "config": {"activation": "relu", "trainable": true, "name": "conv3_block1_1_relu"}, "name": "conv3_block1_1_relu"}, {"inbound_nodes": [[["conv3_block1_1_relu", 0, 0, {}]]], "class_name": "Conv2D", "config": {"kernel_size": [3, 3], "kernel_regularizer": null, "kernel_constraint": null, "activation": "linear", "bias_constraint": null, "strides": [1, 1], "data_format": "channels_last", "filters": 32, "activity_regularizer": null, "trainable": true, "name": "conv3_block1_2_conv", "use_bias": false, "padding": "same", "dilation_rate": [1, 1], "bias_regularizer": null, "kernel_initializer": {"class_name": "VarianceScaling", "config": {"seed": null, "distribution": "uniform", "scale": 1.0, "mode": "fan_avg"}}, "bias_initializer": {"class_name": "Zeros", "config": {}}}, "name": "conv3_block1_2_conv"}, {"inbound_nodes": [[["pool2_pool", 0, 0, {}], ["conv3_block1_2_conv", 0, 0, {}]]], "class_name": "Concatenate", "config": {"axis": 3, "trainable": true, "name": "conv3_block1_concat"}, "name": "conv3_block1_concat"}, {"inbound_nodes": [[["conv3_block1_concat", 0, 0, {}]]], "class_name": "BatchNormalization", "config": {"momentum": 0.99, "axis": 3, "moving_variance_initializer": {"class_name": "Ones", "config": {}}, "epsilon": 1.001e-05, "scale": true, "beta_regularizer": null, "trainable": true, "name": "conv3_block2_0_bn", "moving_mean_initializer": {"class_name": "Zeros", "config": {}}, "gamma_constraint": null, "gamma_regularizer": null, "gamma_initializer": {"class_name": "Ones", "config": {}}, "beta_initializer": {"class_name": "Zeros", "config": {}}, "center": true, "beta_constraint": null}, "name": "conv3_block2_0_bn"}, {"inbound_nodes": [[["conv3_block2_0_bn", 0, 0, {}]]], "class_name": "Activation", "config": {"activation": "relu", "trainable": true, "name": "conv3_block2_0_relu"}, "name": "conv3_block2_0_relu"}, {"inbound_nodes": [[["conv3_block2_0_relu", 0, 0, {}]]], "class_name": "Conv2D", "config": {"kernel_size": [1, 1], "kernel_regularizer": null, "kernel_constraint": null, "activation": "linear", "bias_constraint": null, "strides": [1, 1], "data_format": "channels_last", "filters": 128, "activity_regularizer": null, "trainable": true, "name": "conv3_block2_1_conv", "use_bias": false, "padding": "valid", "dilation_rate": [1, 1], "bias_regularizer": null, "kernel_initializer": {"class_name": "VarianceScaling", "config": {"seed": null, "distribution": "uniform", "scale": 1.0, "mode": "fan_avg"}}, "bias_initializer": {"class_name": "Zeros", "config": {}}}, "name": "conv3_block2_1_conv"}, {"inbound_nodes": [[["conv3_block2_1_conv", 0, 0, {}]]], "class_name": "BatchNormalization", "config": {"momentum": 0.99, "axis": 3, "moving_variance_initializer": {"class_name": "Ones", "config": {}}, "epsilon": 1.001e-05, "scale": true, "beta_regularizer": null, "trainable": true, "name": "conv3_block2_1_bn", "moving_mean_initializer": {"class_name": "Zeros", "config": {}}, "gamma_constraint": null, "gamma_regularizer": null, "gamma_initializer": {"class_name": "Ones", "config": {}}, "beta_initializer": {"class_name": "Zeros", "config": {}}, "center": true, "beta_constraint": null}, "name": "conv3_block2_1_bn"}, {"inbound_nodes": [[["conv3_block2_1_bn", 0, 0, {}]]], "class_name": "Activation", "config": {"activation": "relu", "trainable": true, "name": "conv3_block2_1_relu"}, "name": "conv3_block2_1_relu"}, {"inbound_nodes": [[["conv3_block2_1_relu", 0, 0, {}]]], "class_name": "Conv2D", "config": {"kernel_size": [3, 3], "kernel_regularizer": null, "kernel_constraint": null, "activation": "linear", "bias_constraint": null, "strides": [1, 1], "data_format": "channels_last", "filters": 32, "activity_regularizer": null, "trainable": true, "name": "conv3_block2_2_conv", "use_bias": false, "padding": "same", "dilation_rate": [1, 1], "bias_regularizer": null, "kernel_initializer": {"class_name": "VarianceScaling", "config": {"seed": null, "distribution": "uniform", "scale": 1.0, "mode": "fan_avg"}}, "bias_initializer": {"class_name": "Zeros", "config": {}}}, "name": "conv3_block2_2_conv"}, {"inbound_nodes": [[["conv3_block1_concat", 0, 0, {}], ["conv3_block2_2_conv", 0, 0, {}]]], "class_name": "Concatenate", "config": {"axis": 3, "trainable": true, "name": "conv3_block2_concat"}, "name": "conv3_block2_concat"}, {"inbound_nodes": [[["conv3_block2_concat", 0, 0, {}]]], "class_name": "BatchNormalization", "config": {"momentum": 0.99, "axis": 3, "moving_variance_initializer": {"class_name": "Ones", "config": {}}, "epsilon": 1.001e-05, "scale": true, "beta_regularizer": null, "trainable": true, "name": "conv3_block3_0_bn", "moving_mean_initializer": {"class_name": "Zeros", "config": {}}, "gamma_constraint": null, "gamma_regularizer": null, "gamma_initializer": {"class_name": "Ones", "config": {}}, "beta_initializer": {"class_name": "Zeros", "config": {}}, "center": true, "beta_constraint": null}, "name": "conv3_block3_0_bn"}, {"inbound_nodes": [[["conv3_block3_0_bn", 0, 0, {}]]], "class_name": "Activation", "config": {"activation": "relu", "trainable": true, "name": "conv3_block3_0_relu"}, "name": "conv3_block3_0_relu"}, {"inbound_nodes": [[["conv3_block3_0_relu", 0, 0, {}]]], "class_name": "Conv2D", "config": {"kernel_size": [1, 1], "kernel_regularizer": null, "kernel_constraint": null, "activation": "linear", "bias_constraint": null, "strides": [1, 1], "data_format": "channels_last", "filters": 128, "activity_regularizer": null, "trainable": true, "name": "conv3_block3_1_conv", "use_bias": false, "padding": "valid", "dilation_rate": [1, 1], "bias_regularizer": null, "kernel_initializer": {"class_name": "VarianceScaling", "config": {"seed": null, "distribution": "uniform", "scale": 1.0, "mode": "fan_avg"}}, "bias_initializer": {"class_name": "Zeros", "config": {}}}, "name": "conv3_block3_1_conv"}, {"inbound_nodes": [[["conv3_block3_1_conv", 0, 0, {}]]], "class_name": "BatchNormalization", "config": {"momentum": 0.99, "axis": 3, "moving_variance_initializer": {"class_name": "Ones", "config": {}}, "epsilon": 1.001e-05, "scale": true, "beta_regularizer": null, "trainable": true, "name": "conv3_block3_1_bn", "moving_mean_initializer": {"class_name": "Zeros", "config": {}}, "gamma_constraint": null, "gamma_regularizer": null, "gamma_initializer": {"class_name": "Ones", "config": {}}, "beta_initializer": {"class_name": "Zeros", "config": {}}, "center": true, "beta_constraint": null}, "name": "conv3_block3_1_bn"}, {"inbound_nodes": [[["conv3_block3_1_bn", 0, 0, {}]]], "class_name": "Activation", "config": {"activation": "relu", "trainable": true, "name": "conv3_block3_1_relu"}, "name": "conv3_block3_1_relu"}, {"inbound_nodes": [[["conv3_block3_1_relu", 0, 0, {}]]], "class_name": "Conv2D", "config": {"kernel_size": [3, 3], "kernel_regularizer": null, "kernel_constraint": null, "activation": "linear", "bias_constraint": null, "strides": [1, 1], "data_format": "channels_last", "filters": 32, "activity_regularizer": null, "trainable": true, "name": "conv3_block3_2_conv", "use_bias": false, "padding": "same", "dilation_rate": [1, 1], "bias_regularizer": null, "kernel_initializer": {"class_name": "VarianceScaling", "config": {"seed": null, "distribution": "uniform", "scale": 1.0, "mode": "fan_avg"}}, "bias_initializer": {"class_name": "Zeros", "config": {}}}, "name": "conv3_block3_2_conv"}, {"inbound_nodes": [[["conv3_block2_concat", 0, 0, {}], ["conv3_block3_2_conv", 0, 0, {}]]], "class_name": "Concatenate", "config": {"axis": 3, "trainable": true, "name": "conv3_block3_concat"}, "name": "conv3_block3_concat"}, {"inbound_nodes": [[["conv3_block3_concat", 0, 0, {}]]], "class_name": "BatchNormalization", "config": {"momentum": 0.99, "axis": 3, "moving_variance_initializer": {"class_name": "Ones", "config": {}}, "epsilon": 1.001e-05, "scale": true, "beta_regularizer": null, "trainable": true, "name": "conv3_block4_0_bn", "moving_mean_initializer": {"class_name": "Zeros", "config": {}}, "gamma_constraint": null, "gamma_regularizer": null, "gamma_initializer": {"class_name": "Ones", "config": {}}, "beta_initializer": {"class_name": "Zeros", "config": {}}, "center": true, "beta_constraint": null}, "name": "conv3_block4_0_bn"}, {"inbound_nodes": [[["conv3_block4_0_bn", 0, 0, {}]]], "class_name": "Activation", "config": {"activation": "relu", "trainable": true, "name": "conv3_block4_0_relu"}, "name": "conv3_block4_0_relu"}, {"inbound_nodes": [[["conv3_block4_0_relu", 0, 0, {}]]], "class_name": "Conv2D", "config": {"kernel_size": [1, 1], "kernel_regularizer": null, "kernel_constraint": null, "activation": "linear", "bias_constraint": null, "strides": [1, 1], "data_format": "channels_last", "filters": 128, "activity_regularizer": null, "trainable": true, "name": "conv3_block4_1_conv", "use_bias": false, "padding": "valid", "dilation_rate": [1, 1], "bias_regularizer": null, "kernel_initializer": {"class_name": "VarianceScaling", "config": {"seed": null, "distribution": "uniform", "scale": 1.0, "mode": "fan_avg"}}, "bias_initializer": {"class_name": "Zeros", "config": {}}}, "name": "conv3_block4_1_conv"}, {"inbound_nodes": [[["conv3_block4_1_conv", 0, 0, {}]]], "class_name": "BatchNormalization", "config": {"momentum": 0.99, "axis": 3, "moving_variance_initializer": {"class_name": "Ones", "config": {}}, "epsilon": 1.001e-05, "scale": true, "beta_regularizer": null, "trainable": true, "name": "conv3_block4_1_bn", "moving_mean_initializer": {"class_name": "Zeros", "config": {}}, "gamma_constraint": null, "gamma_regularizer": null, "gamma_initializer": {"class_name": "Ones", "config": {}}, "beta_initializer": {"class_name": "Zeros", "config": {}}, "center": true, "beta_constraint": null}, "name": "conv3_block4_1_bn"}, {"inbound_nodes": [[["conv3_block4_1_bn", 0, 0, {}]]], "class_name": "Activation", "config": {"activation": "relu", "trainable": true, "name": "conv3_block4_1_relu"}, "name": "conv3_block4_1_relu"}, {"inbound_nodes": [[["conv3_block4_1_relu", 0, 0, {}]]], "class_name": "Conv2D", "config": {"kernel_size": [3, 3], "kernel_regularizer": null, "kernel_constraint": null, "activation": "linear", "bias_constraint": null, "strides": [1, 1], "data_format": "channels_last", "filters": 32, "activity_regularizer": null, "trainable": true, "name": "conv3_block4_2_conv", "use_bias": false, "padding": "same", "dilation_rate": [1, 1], "bias_regularizer": null, "kernel_initializer": {"class_name": "VarianceScaling", "config": {"seed": null, "distribution": "uniform", "scale": 1.0, "mode": "fan_avg"}}, "bias_initializer": {"class_name": "Zeros", "config": {}}}, "name": "conv3_block4_2_conv"}, {"inbound_nodes": [[["conv3_block3_concat", 0, 0, {}], ["conv3_block4_2_conv", 0, 0, {}]]], "class_name": "Concatenate", "config": {"axis": 3, "trainable": true, "name": "conv3_block4_concat"}, "name": "conv3_block4_concat"}, {"inbound_nodes": [[["conv3_block4_concat", 0, 0, {}]]], "class_name": "BatchNormalization", "config": {"momentum": 0.99, "axis": 3, "moving_variance_initializer": {"class_name": "Ones", "config": {}}, "epsilon": 1.001e-05, "scale": true, "beta_regularizer": null, "trainable": true, "name": "conv3_block5_0_bn", "moving_mean_initializer": {"class_name": "Zeros", "config": {}}, "gamma_constraint": null, "gamma_regularizer": null, "gamma_initializer": {"class_name": "Ones", "config": {}}, "beta_initializer": {"class_name": "Zeros", "config": {}}, "center": true, "beta_constraint": null}, "name": "conv3_block5_0_bn"}, {"inbound_nodes": [[["conv3_block5_0_bn", 0, 0, {}]]], "class_name": "Activation", "config": {"activation": "relu", "trainable": true, "name": "conv3_block5_0_relu"}, "name": "conv3_block5_0_relu"}, {"inbound_nodes": [[["conv3_block5_0_relu", 0, 0, {}]]], "class_name": "Conv2D", "config": {"kernel_size": [1, 1], "kernel_regularizer": null, "kernel_constraint": null, "activation": "linear", "bias_constraint": null, "strides": [1, 1], "data_format": "channels_last", "filters": 128, "activity_regularizer": null, "trainable": true, "name": "conv3_block5_1_conv", "use_bias": false, "padding": "valid", "dilation_rate": [1, 1], "bias_regularizer": null, "kernel_initializer": {"class_name": "VarianceScaling", "config": {"seed": null, "distribution": "uniform", "scale": 1.0, "mode": "fan_avg"}}, "bias_initializer": {"class_name": "Zeros", "config": {}}}, "name": "conv3_block5_1_conv"}, {"inbound_nodes": [[["conv3_block5_1_conv", 0, 0, {}]]], "class_name": "BatchNormalization", "config": {"momentum": 0.99, "axis": 3, "moving_variance_initializer": {"class_name": "Ones", "config": {}}, "epsilon": 1.001e-05, "scale": true, "beta_regularizer": null, "trainable": true, "name": "conv3_block5_1_bn", "moving_mean_initializer": {"class_name": "Zeros", "config": {}}, "gamma_constraint": null, "gamma_regularizer": null, "gamma_initializer": {"class_name": "Ones", "config": {}}, "beta_initializer": {"class_name": "Zeros", "config": {}}, "center": true, "beta_constraint": null}, "name": "conv3_block5_1_bn"}, {"inbound_nodes": [[["conv3_block5_1_bn", 0, 0, {}]]], "class_name": "Activation", "config": {"activation": "relu", "trainable": true, "name": "conv3_block5_1_relu"}, "name": "conv3_block5_1_relu"}, {"inbound_nodes": [[["conv3_block5_1_relu", 0, 0, {}]]], "class_name": "Conv2D", "config": {"kernel_size": [3, 3], "kernel_regularizer": null, "kernel_constraint": null, "activation": "linear", "bias_constraint": null, "strides": [1, 1], "data_format": "channels_last", "filters": 32, "activity_regularizer": null, "trainable": true, "name": "conv3_block5_2_conv", "use_bias": false, "padding": "same", "dilation_rate": [1, 1], "bias_regularizer": null, "kernel_initializer": {"class_name": "VarianceScaling", "config": {"seed": null, "distribution": "uniform", "scale": 1.0, "mode": "fan_avg"}}, "bias_initializer": {"class_name": "Zeros", "config": {}}}, "name": "conv3_block5_2_conv"}, {"inbound_nodes": [[["conv3_block4_concat", 0, 0, {}], ["conv3_block5_2_conv", 0, 0, {}]]], "class_name": "Concatenate", "config": {"axis": 3, "trainable": true, "name": "conv3_block5_concat"}, "name": "conv3_block5_concat"}, {"inbound_nodes": [[["conv3_block5_concat", 0, 0, {}]]], "class_name": "BatchNormalization", "config": {"momentum": 0.99, "axis": 3, "moving_variance_initializer": {"class_name": "Ones", "config": {}}, "epsilon": 1.001e-05, "scale": true, "beta_regularizer": null, "trainable": true, "name": "conv3_block6_0_bn", "moving_mean_initializer": {"class_name": "Zeros", "config": {}}, "gamma_constraint": null, "gamma_regularizer": null, "gamma_initializer": {"class_name": "Ones", "config": {}}, "beta_initializer": {"class_name": "Zeros", "config": {}}, "center": true, "beta_constraint": null}, "name": "conv3_block6_0_bn"}, {"inbound_nodes": [[["conv3_block6_0_bn", 0, 0, {}]]], "class_name": "Activation", "config": {"activation": "relu", "trainable": true, "name": "conv3_block6_0_relu"}, "name": "conv3_block6_0_relu"}, {"inbound_nodes": [[["conv3_block6_0_relu", 0, 0, {}]]], "class_name": "Conv2D", "config": {"kernel_size": [1, 1], "kernel_regularizer": null, "kernel_constraint": null, "activation": "linear", "bias_constraint": null, "strides": [1, 1], "data_format": "channels_last", "filters": 128, "activity_regularizer": null, "trainable": true, "name": "conv3_block6_1_conv", "use_bias": false, "padding": "valid", "dilation_rate": [1, 1], "bias_regularizer": null, "kernel_initializer": {"class_name": "VarianceScaling", "config": {"seed": null, "distribution": "uniform", "scale": 1.0, "mode": "fan_avg"}}, "bias_initializer": {"class_name": "Zeros", "config": {}}}, "name": "conv3_block6_1_conv"}, {"inbound_nodes": [[["conv3_block6_1_conv", 0, 0, {}]]], "class_name": "BatchNormalization", "config": {"momentum": 0.99, "axis": 3, "moving_variance_initializer": {"class_name": "Ones", "config": {}}, "epsilon": 1.001e-05, "scale": true, "beta_regularizer": null, "trainable": true, "name": "conv3_block6_1_bn", "moving_mean_initializer": {"class_name": "Zeros", "config": {}}, "gamma_constraint": null, "gamma_regularizer": null, "gamma_initializer": {"class_name": "Ones", "config": {}}, "beta_initializer": {"class_name": "Zeros", "config": {}}, "center": true, "beta_constraint": null}, "name": "conv3_block6_1_bn"}, {"inbound_nodes": [[["conv3_block6_1_bn", 0, 0, {}]]], "class_name": "Activation", "config": {"activation": "relu", "trainable": true, "name": "conv3_block6_1_relu"}, "name": "conv3_block6_1_relu"}, {"inbound_nodes": [[["conv3_block6_1_relu", 0, 0, {}]]], "class_name": "Conv2D", "config": {"kernel_size": [3, 3], "kernel_regularizer": null, "kernel_constraint": null, "activation": "linear", "bias_constraint": null, "strides": [1, 1], "data_format": "channels_last", "filters": 32, "activity_regularizer": null, "trainable": true, "name": "conv3_block6_2_conv", "use_bias": false, "padding": "same", "dilation_rate": [1, 1], "bias_regularizer": null, "kernel_initializer": {"class_name": "VarianceScaling", "config": {"seed": null, "distribution": "uniform", "scale": 1.0, "mode": "fan_avg"}}, "bias_initializer": {"class_name": "Zeros", "config": {}}}, "name": "conv3_block6_2_conv"}, {"inbound_nodes": [[["conv3_block5_concat", 0, 0, {}], ["conv3_block6_2_conv", 0, 0, {}]]], "class_name": "Concatenate", "config": {"axis": 3, "trainable": true, "name": "conv3_block6_concat"}, "name": "conv3_block6_concat"}, {"inbound_nodes": [[["conv3_block6_concat", 0, 0, {}]]], "class_name": "BatchNormalization", "config": {"momentum": 0.99, "axis": 3, "moving_variance_initializer": {"class_name": "Ones", "config": {}}, "epsilon": 1.001e-05, "scale": true, "beta_regularizer": null, "trainable": true, "name": "conv3_block7_0_bn", "moving_mean_initializer": {"class_name": "Zeros", "config": {}}, "gamma_constraint": null, "gamma_regularizer": null, "gamma_initializer": {"class_name": "Ones", "config": {}}, "beta_initializer": {"class_name": "Zeros", "config": {}}, "center": true, "beta_constraint": null}, "name": "conv3_block7_0_bn"}, {"inbound_nodes": [[["conv3_block7_0_bn", 0, 0, {}]]], "class_name": "Activation", "config": {"activation": "relu", "trainable": true, "name": "conv3_block7_0_relu"}, "name": "conv3_block7_0_relu"}, {"inbound_nodes": [[["conv3_block7_0_relu", 0, 0, {}]]], "class_name": "Conv2D", "config": {"kernel_size": [1, 1], "kernel_regularizer": null, "kernel_constraint": null, "activation": "linear", "bias_constraint": null, "strides": [1, 1], "data_format": "channels_last", "filters": 128, "activity_regularizer": null, "trainable": true, "name": "conv3_block7_1_conv", "use_bias": false, "padding": "valid", "dilation_rate": [1, 1], "bias_regularizer": null, "kernel_initializer": {"class_name": "VarianceScaling", "config": {"seed": null, "distribution": "uniform", "scale": 1.0, "mode": "fan_avg"}}, "bias_initializer": {"class_name": "Zeros", "config": {}}}, "name": "conv3_block7_1_conv"}, {"inbound_nodes": [[["conv3_block7_1_conv", 0, 0, {}]]], "class_name": "BatchNormalization", "config": {"momentum": 0.99, "axis": 3, "moving_variance_initializer": {"class_name": "Ones", "config": {}}, "epsilon": 1.001e-05, "scale": true, "beta_regularizer": null, "trainable": true, "name": "conv3_block7_1_bn", "moving_mean_initializer": {"class_name": "Zeros", "config": {}}, "gamma_constraint": null, "gamma_regularizer": null, "gamma_initializer": {"class_name": "Ones", "config": {}}, "beta_initializer": {"class_name": "Zeros", "config": {}}, "center": true, "beta_constraint": null}, "name": "conv3_block7_1_bn"}, {"inbound_nodes": [[["conv3_block7_1_bn", 0, 0, {}]]], "class_name": "Activation", "config": {"activation": "relu", "trainable": true, "name": "conv3_block7_1_relu"}, "name": "conv3_block7_1_relu"}, {"inbound_nodes": [[["conv3_block7_1_relu", 0, 0, {}]]], "class_name": "Conv2D", "config": {"kernel_size": [3, 3], "kernel_regularizer": null, "kernel_constraint": null, "activation": "linear", "bias_constraint": null, "strides": [1, 1], "data_format": "channels_last", "filters": 32, "activity_regularizer": null, "trainable": true, "name": "conv3_block7_2_conv", "use_bias": false, "padding": "same", "dilation_rate": [1, 1], "bias_regularizer": null, "kernel_initializer": {"class_name": "VarianceScaling", "config": {"seed": null, "distribution": "uniform", "scale": 1.0, "mode": "fan_avg"}}, "bias_initializer": {"class_name": "Zeros", "config": {}}}, "name": "conv3_block7_2_conv"}, {"inbound_nodes": [[["conv3_block6_concat", 0, 0, {}], ["conv3_block7_2_conv", 0, 0, {}]]], "class_name": "Concatenate", "config": {"axis": 3, "trainable": true, "name": "conv3_block7_concat"}, "name": "conv3_block7_concat"}, {"inbound_nodes": [[["conv3_block7_concat", 0, 0, {}]]], "class_name": "BatchNormalization", "config": {"momentum": 0.99, "axis": 3, "moving_variance_initializer": {"class_name": "Ones", "config": {}}, "epsilon": 1.001e-05, "scale": true, "beta_regularizer": null, "trainable": true, "name": "conv3_block8_0_bn", "moving_mean_initializer": {"class_name": "Zeros", "config": {}}, "gamma_constraint": null, "gamma_regularizer": null, "gamma_initializer": {"class_name": "Ones", "config": {}}, "beta_initializer": {"class_name": "Zeros", "config": {}}, "center": true, "beta_constraint": null}, "name": "conv3_block8_0_bn"}, {"inbound_nodes": [[["conv3_block8_0_bn", 0, 0, {}]]], "class_name": "Activation", "config": {"activation": "relu", "trainable": true, "name": "conv3_block8_0_relu"}, "name": "conv3_block8_0_relu"}, {"inbound_nodes": [[["conv3_block8_0_relu", 0, 0, {}]]], "class_name": "Conv2D", "config": {"kernel_size": [1, 1], "kernel_regularizer": null, "kernel_constraint": null, "activation": "linear", "bias_constraint": null, "strides": [1, 1], "data_format": "channels_last", "filters": 128, "activity_regularizer": null, "trainable": true, "name": "conv3_block8_1_conv", "use_bias": false, "padding": "valid", "dilation_rate": [1, 1], "bias_regularizer": null, "kernel_initializer": {"class_name": "VarianceScaling", "config": {"seed": null, "distribution": "uniform", "scale": 1.0, "mode": "fan_avg"}}, "bias_initializer": {"class_name": "Zeros", "config": {}}}, "name": "conv3_block8_1_conv"}, {"inbound_nodes": [[["conv3_block8_1_conv", 0, 0, {}]]], "class_name": "BatchNormalization", "config": {"momentum": 0.99, "axis": 3, "moving_variance_initializer": {"class_name": "Ones", "config": {}}, "epsilon": 1.001e-05, "scale": true, "beta_regularizer": null, "trainable": true, "name": "conv3_block8_1_bn", "moving_mean_initializer": {"class_name": "Zeros", "config": {}}, "gamma_constraint": null, "gamma_regularizer": null, "gamma_initializer": {"class_name": "Ones", "config": {}}, "beta_initializer": {"class_name": "Zeros", "config": {}}, "center": true, "beta_constraint": null}, "name": "conv3_block8_1_bn"}, {"inbound_nodes": [[["conv3_block8_1_bn", 0, 0, {}]]], "class_name": "Activation", "config": {"activation": "relu", "trainable": true, "name": "conv3_block8_1_relu"}, "name": "conv3_block8_1_relu"}, {"inbound_nodes": [[["conv3_block8_1_relu", 0, 0, {}]]], "class_name": "Conv2D", "config": {"kernel_size": [3, 3], "kernel_regularizer": null, "kernel_constraint": null, "activation": "linear", "bias_constraint": null, "strides": [1, 1], "data_format": "channels_last", "filters": 32, "activity_regularizer": null, "trainable": true, "name": "conv3_block8_2_conv", "use_bias": false, "padding": "same", "dilation_rate": [1, 1], "bias_regularizer": null, "kernel_initializer": {"class_name": "VarianceScaling", "config": {"seed": null, "distribution": "uniform", "scale": 1.0, "mode": "fan_avg"}}, "bias_initializer": {"class_name": "Zeros", "config": {}}}, "name": "conv3_block8_2_conv"}, {"inbound_nodes": [[["conv3_block7_concat", 0, 0, {}], ["conv3_block8_2_conv", 0, 0, {}]]], "class_name": "Concatenate", "config": {"axis": 3, "trainable": true, "name": "conv3_block8_concat"}, "name": "conv3_block8_concat"}, {"inbound_nodes": [[["conv3_block8_concat", 0, 0, {}]]], "class_name": "BatchNormalization", "config": {"momentum": 0.99, "axis": 3, "moving_variance_initializer": {"class_name": "Ones", "config": {}}, "epsilon": 1.001e-05, "scale": true, "beta_regularizer": null, "trainable": true, "name": "conv3_block9_0_bn", "moving_mean_initializer": {"class_name": "Zeros", "config": {}}, "gamma_constraint": null, "gamma_regularizer": null, "gamma_initializer": {"class_name": "Ones", "config": {}}, "beta_initializer": {"class_name": "Zeros", "config": {}}, "center": true, "beta_constraint": null}, "name": "conv3_block9_0_bn"}, {"inbound_nodes": [[["conv3_block9_0_bn", 0, 0, {}]]], "class_name": "Activation", "config": {"activation": "relu", "trainable": true, "name": "conv3_block9_0_relu"}, "name": "conv3_block9_0_relu"}, {"inbound_nodes": [[["conv3_block9_0_relu", 0, 0, {}]]], "class_name": "Conv2D", "config": {"kernel_size": [1, 1], "kernel_regularizer": null, "kernel_constraint": null, "activation": "linear", "bias_constraint": null, "strides": [1, 1], "data_format": "channels_last", "filters": 128, "activity_regularizer": null, "trainable": true, "name": "conv3_block9_1_conv", "use_bias": false, "padding": "valid", "dilation_rate": [1, 1], "bias_regularizer": null, "kernel_initializer": {"class_name": "VarianceScaling", "config": {"seed": null, "distribution": "uniform", "scale": 1.0, "mode": "fan_avg"}}, "bias_initializer": {"class_name": "Zeros", "config": {}}}, "name": "conv3_block9_1_conv"}, {"inbound_nodes": [[["conv3_block9_1_conv", 0, 0, {}]]], "class_name": "BatchNormalization", "config": {"momentum": 0.99, "axis": 3, "moving_variance_initializer": {"class_name": "Ones", "config": {}}, "epsilon": 1.001e-05, "scale": true, "beta_regularizer": null, "trainable": true, "name": "conv3_block9_1_bn", "moving_mean_initializer": {"class_name": "Zeros", "config": {}}, "gamma_constraint": null, "gamma_regularizer": null, "gamma_initializer": {"class_name": "Ones", "config": {}}, "beta_initializer": {"class_name": "Zeros", "config": {}}, "center": true, "beta_constraint": null}, "name": "conv3_block9_1_bn"}, {"inbound_nodes": [[["conv3_block9_1_bn", 0, 0, {}]]], "class_name": "Activation", "config": {"activation": "relu", "trainable": true, "name": "conv3_block9_1_relu"}, "name": "conv3_block9_1_relu"}, {"inbound_nodes": [[["conv3_block9_1_relu", 0, 0, {}]]], "class_name": "Conv2D", "config": {"kernel_size": [3, 3], "kernel_regularizer": null, "kernel_constraint": null, "activation": "linear", "bias_constraint": null, "strides": [1, 1], "data_format": "channels_last", "filters": 32, "activity_regularizer": null, "trainable": true, "name": "conv3_block9_2_conv", "use_bias": false, "padding": "same", "dilation_rate": [1, 1], "bias_regularizer": null, "kernel_initializer": {"class_name": "VarianceScaling", "config": {"seed": null, "distribution": "uniform", "scale": 1.0, "mode": "fan_avg"}}, "bias_initializer": {"class_name": "Zeros", "config": {}}}, "name": "conv3_block9_2_conv"}, {"inbound_nodes": [[["conv3_block8_concat", 0, 0, {}], ["conv3_block9_2_conv", 0, 0, {}]]], "class_name": "Concatenate", "config": {"axis": 3, "trainable": true, "name": "conv3_block9_concat"}, "name": "conv3_block9_concat"}, {"inbound_nodes": [[["conv3_block9_concat", 0, 0, {}]]], "class_name": "BatchNormalization", "config": {"momentum": 0.99, "axis": 3, "moving_variance_initializer": {"class_name": "Ones", "config": {}}, "epsilon": 1.001e-05, "scale": true, "beta_regularizer": null, "trainable": true, "name": "conv3_block10_0_bn", "moving_mean_initializer": {"class_name": "Zeros", "config": {}}, "gamma_constraint": null, "gamma_regularizer": null, "gamma_initializer": {"class_name": "Ones", "config": {}}, "beta_initializer": {"class_name": "Zeros", "config": {}}, "center": true, "beta_constraint": null}, "name": "conv3_block10_0_bn"}, {"inbound_nodes": [[["conv3_block10_0_bn", 0, 0, {}]]], "class_name": "Activation", "config": {"activation": "relu", "trainable": true, "name": "conv3_block10_0_relu"}, "name": "conv3_block10_0_relu"}, {"inbound_nodes": [[["conv3_block10_0_relu", 0, 0, {}]]], "class_name": "Conv2D", "config": {"kernel_size": [1, 1], "kernel_regularizer": null, "kernel_constraint": null, "activation": "linear", "bias_constraint": null, "strides": [1, 1], "data_format": "channels_last", "filters": 128, "activity_regularizer": null, "trainable": true, "name": "conv3_block10_1_conv", "use_bias": false, "padding": "valid", "dilation_rate": [1, 1], "bias_regularizer": null, "kernel_initializer": {"class_name": "VarianceScaling", "config": {"seed": null, "distribution": "uniform", "scale": 1.0, "mode": "fan_avg"}}, "bias_initializer": {"class_name": "Zeros", "config": {}}}, "name": "conv3_block10_1_conv"}, {"inbound_nodes": [[["conv3_block10_1_conv", 0, 0, {}]]], "class_name": "BatchNormalization", "config": {"momentum": 0.99, "axis": 3, "moving_variance_initializer": {"class_name": "Ones", "config": {}}, "epsilon": 1.001e-05, "scale": true, "beta_regularizer": null, "trainable": true, "name": "conv3_block10_1_bn", "moving_mean_initializer": {"class_name": "Zeros", "config": {}}, "gamma_constraint": null, "gamma_regularizer": null, "gamma_initializer": {"class_name": "Ones", "config": {}}, "beta_initializer": {"class_name": "Zeros", "config": {}}, "center": true, "beta_constraint": null}, "name": "conv3_block10_1_bn"}, {"inbound_nodes": [[["conv3_block10_1_bn", 0, 0, {}]]], "class_name": "Activation", "config": {"activation": "relu", "trainable": true, "name": "conv3_block10_1_relu"}, "name": "conv3_block10_1_relu"}, {"inbound_nodes": [[["conv3_block10_1_relu", 0, 0, {}]]], "class_name": "Conv2D", "config": {"kernel_size": [3, 3], "kernel_regularizer": null, "kernel_constraint": null, "activation": "linear", "bias_constraint": null, "strides": [1, 1], "data_format": "channels_last", "filters": 32, "activity_regularizer": null, "trainable": true, "name": "conv3_block10_2_conv", "use_bias": false, "padding": "same", "dilation_rate": [1, 1], "bias_regularizer": null, "kernel_initializer": {"class_name": "VarianceScaling", "config": {"seed": null, "distribution": "uniform", "scale": 1.0, "mode": "fan_avg"}}, "bias_initializer": {"class_name": "Zeros", "config": {}}}, "name": "conv3_block10_2_conv"}, {"inbound_nodes": [[["conv3_block9_concat", 0, 0, {}], ["conv3_block10_2_conv", 0, 0, {}]]], "class_name": "Concatenate", "config": {"axis": 3, "trainable": true, "name": "conv3_block10_concat"}, "name": "conv3_block10_concat"}, {"inbound_nodes": [[["conv3_block10_concat", 0, 0, {}]]], "class_name": "BatchNormalization", "config": {"momentum": 0.99, "axis": 3, "moving_variance_initializer": {"class_name": "Ones", "config": {}}, "epsilon": 1.001e-05, "scale": true, "beta_regularizer": null, "trainable": true, "name": "conv3_block11_0_bn", "moving_mean_initializer": {"class_name": "Zeros", "config": {}}, "gamma_constraint": null, "gamma_regularizer": null, "gamma_initializer": {"class_name": "Ones", "config": {}}, "beta_initializer": {"class_name": "Zeros", "config": {}}, "center": true, "beta_constraint": null}, "name": "conv3_block11_0_bn"}, {"inbound_nodes": [[["conv3_block11_0_bn", 0, 0, {}]]], "class_name": "Activation", "config": {"activation": "relu", "trainable": true, "name": "conv3_block11_0_relu"}, "name": "conv3_block11_0_relu"}, {"inbound_nodes": [[["conv3_block11_0_relu", 0, 0, {}]]], "class_name": "Conv2D", "config": {"kernel_size": [1, 1], "kernel_regularizer": null, "kernel_constraint": null, "activation": "linear", "bias_constraint": null, "strides": [1, 1], "data_format": "channels_last", "filters": 128, "activity_regularizer": null, "trainable": true, "name": "conv3_block11_1_conv", "use_bias": false, "padding": "valid", "dilation_rate": [1, 1], "bias_regularizer": null, "kernel_initializer": {"class_name": "VarianceScaling", "config": {"seed": null, "distribution": "uniform", "scale": 1.0, "mode": "fan_avg"}}, "bias_initializer": {"class_name": "Zeros", "config": {}}}, "name": "conv3_block11_1_conv"}, {"inbound_nodes": [[["conv3_block11_1_conv", 0, 0, {}]]], "class_name": "BatchNormalization", "config": {"momentum": 0.99, "axis": 3, "moving_variance_initializer": {"class_name": "Ones", "config": {}}, "epsilon": 1.001e-05, "scale": true, "beta_regularizer": null, "trainable": true, "name": "conv3_block11_1_bn", "moving_mean_initializer": {"class_name": "Zeros", "config": {}}, "gamma_constraint": null, "gamma_regularizer": null, "gamma_initializer": {"class_name": "Ones", "config": {}}, "beta_initializer": {"class_name": "Zeros", "config": {}}, "center": true, "beta_constraint": null}, "name": "conv3_block11_1_bn"}, {"inbound_nodes": [[["conv3_block11_1_bn", 0, 0, {}]]], "class_name": "Activation", "config": {"activation": "relu", "trainable": true, "name": "conv3_block11_1_relu"}, "name": "conv3_block11_1_relu"}, {"inbound_nodes": [[["conv3_block11_1_relu", 0, 0, {}]]], "class_name": "Conv2D", "config": {"kernel_size": [3, 3], "kernel_regularizer": null, "kernel_constraint": null, "activation": "linear", "bias_constraint": null, "strides": [1, 1], "data_format": "channels_last", "filters": 32, "activity_regularizer": null, "trainable": true, "name": "conv3_block11_2_conv", "use_bias": false, "padding": "same", "dilation_rate": [1, 1], "bias_regularizer": null, "kernel_initializer": {"class_name": "VarianceScaling", "config": {"seed": null, "distribution": "uniform", "scale": 1.0, "mode": "fan_avg"}}, "bias_initializer": {"class_name": "Zeros", "config": {}}}, "name": "conv3_block11_2_conv"}, {"inbound_nodes": [[["conv3_block10_concat", 0, 0, {}], ["conv3_block11_2_conv", 0, 0, {}]]], "class_name": "Concatenate", "config": {"axis": 3, "trainable": true, "name": "conv3_block11_concat"}, "name": "conv3_block11_concat"}, {"inbound_nodes": [[["conv3_block11_concat", 0, 0, {}]]], "class_name": "BatchNormalization", "config": {"momentum": 0.99, "axis": 3, "moving_variance_initializer": {"class_name": "Ones", "config": {}}, "epsilon": 1.001e-05, "scale": true, "beta_regularizer": null, "trainable": true, "name": "conv3_block12_0_bn", "moving_mean_initializer": {"class_name": "Zeros", "config": {}}, "gamma_constraint": null, "gamma_regularizer": null, "gamma_initializer": {"class_name": "Ones", "config": {}}, "beta_initializer": {"class_name": "Zeros", "config": {}}, "center": true, "beta_constraint": null}, "name": "conv3_block12_0_bn"}, {"inbound_nodes": [[["conv3_block12_0_bn", 0, 0, {}]]], "class_name": "Activation", "config": {"activation": "relu", "trainable": true, "name": "conv3_block12_0_relu"}, "name": "conv3_block12_0_relu"}, {"inbound_nodes": [[["conv3_block12_0_relu", 0, 0, {}]]], "class_name": "Conv2D", "config": {"kernel_size": [1, 1], "kernel_regularizer": null, "kernel_constraint": null, "activation": "linear", "bias_constraint": null, "strides": [1, 1], "data_format": "channels_last", "filters": 128, "activity_regularizer": null, "trainable": true, "name": "conv3_block12_1_conv", "use_bias": false, "padding": "valid", "dilation_rate": [1, 1], "bias_regularizer": null, "kernel_initializer": {"class_name": "VarianceScaling", "config": {"seed": null, "distribution": "uniform", "scale": 1.0, "mode": "fan_avg"}}, "bias_initializer": {"class_name": "Zeros", "config": {}}}, "name": "conv3_block12_1_conv"}, {"inbound_nodes": [[["conv3_block12_1_conv", 0, 0, {}]]], "class_name": "BatchNormalization", "config": {"momentum": 0.99, "axis": 3, "moving_variance_initializer": {"class_name": "Ones", "config": {}}, "epsilon": 1.001e-05, "scale": true, "beta_regularizer": null, "trainable": true, "name": "conv3_block12_1_bn", "moving_mean_initializer": {"class_name": "Zeros", "config": {}}, "gamma_constraint": null, "gamma_regularizer": null, "gamma_initializer": {"class_name": "Ones", "config": {}}, "beta_initializer": {"class_name": "Zeros", "config": {}}, "center": true, "beta_constraint": null}, "name": "conv3_block12_1_bn"}, {"inbound_nodes": [[["conv3_block12_1_bn", 0, 0, {}]]], "class_name": "Activation", "config": {"activation": "relu", "trainable": true, "name": "conv3_block12_1_relu"}, "name": "conv3_block12_1_relu"}, {"inbound_nodes": [[["conv3_block12_1_relu", 0, 0, {}]]], "class_name": "Conv2D", "config": {"kernel_size": [3, 3], "kernel_regularizer": null, "kernel_constraint": null, "activation": "linear", "bias_constraint": null, "strides": [1, 1], "data_format": "channels_last", "filters": 32, "activity_regularizer": null, "trainable": true, "name": "conv3_block12_2_conv", "use_bias": false, "padding": "same", "dilation_rate": [1, 1], "bias_regularizer": null, "kernel_initializer": {"class_name": "VarianceScaling", "config": {"seed": null, "distribution": "uniform", "scale": 1.0, "mode": "fan_avg"}}, "bias_initializer": {"class_name": "Zeros", "config": {}}}, "name": "conv3_block12_2_conv"}, {"inbound_nodes": [[["conv3_block11_concat", 0, 0, {}], ["conv3_block12_2_conv", 0, 0, {}]]], "class_name": "Concatenate", "config": {"axis": 3, "trainable": true, "name": "conv3_block12_concat"}, "name": "conv3_block12_concat"}, {"inbound_nodes": [[["conv3_block12_concat", 0, 0, {}]]], "class_name": "BatchNormalization", "config": {"momentum": 0.99, "axis": 3, "moving_variance_initializer": {"class_name": "Ones", "config": {}}, "epsilon": 1.001e-05, "scale": true, "beta_regularizer": null, "trainable": true, "name": "pool3_bn", "moving_mean_initializer": {"class_name": "Zeros", "config": {}}, "gamma_constraint": null, "gamma_regularizer": null, "gamma_initializer": {"class_name": "Ones", "config": {}}, "beta_initializer": {"class_name": "Zeros", "config": {}}, "center": true, "beta_constraint": null}, "name": "pool3_bn"}, {"inbound_nodes": [[["pool3_bn", 0, 0, {}]]], "class_name": "Activation", "config": {"activation": "relu", "trainable": true, "name": "pool3_relu"}, "name": "pool3_relu"}, {"inbound_nodes": [[["pool3_relu", 0, 0, {}]]], "class_name": "Conv2D", "config": {"kernel_size": [1, 1], "kernel_regularizer": null, "kernel_constraint": null, "activation": "linear", "bias_constraint": null, "strides": [1, 1], "data_format": "channels_last", "filters": 256, "activity_regularizer": null, "trainable": true, "name": "pool3_conv", "use_bias": false, "padding": "valid", "dilation_rate": [1, 1], "bias_regularizer": null, "kernel_initializer": {"class_name": "VarianceScaling", "config": {"seed": null, "distribution": "uniform", "scale": 1.0, "mode": "fan_avg"}}, "bias_initializer": {"class_name": "Zeros", "config": {}}}, "name": "pool3_conv"}, {"inbound_nodes": [[["pool3_conv", 0, 0, {}]]], "class_name": "AveragePooling2D", "config": {"trainable": true, "pool_size": [2, 2], "data_format": "channels_last", "strides": [2, 2], "padding": "valid", "name": "pool3_pool"}, "name": "pool3_pool"}, {"inbound_nodes": [[["pool3_pool", 0, 0, {}]]], "class_name": "BatchNormalization", "config": {"momentum": 0.99, "axis": 3, "moving_variance_initializer": {"class_name": "Ones", "config": {}}, "epsilon": 1.001e-05, "scale": true, "beta_regularizer": null, "trainable": true, "name": "conv4_block1_0_bn", "moving_mean_initializer": {"class_name": "Zeros", "config": {}}, "gamma_constraint": null, "gamma_regularizer": null, "gamma_initializer": {"class_name": "Ones", "config": {}}, "beta_initializer": {"class_name": "Zeros", "config": {}}, "center": true, "beta_constraint": null}, "name": "conv4_block1_0_bn"}, {"inbound_nodes": [[["conv4_block1_0_bn", 0, 0, {}]]], "class_name": "Activation", "config": {"activation": "relu", "trainable": true, "name": "conv4_block1_0_relu"}, "name": "conv4_block1_0_relu"}, {"inbound_nodes": [[["conv4_block1_0_relu", 0, 0, {}]]], "class_name": "Conv2D", "config": {"kernel_size": [1, 1], "kernel_regularizer": null, "kernel_constraint": null, "activation": "linear", "bias_constraint": null, "strides": [1, 1], "data_format": "channels_last", "filters": 128, "activity_regularizer": null, "trainable": true, "name": "conv4_block1_1_conv", "use_bias": false, "padding": "valid", "dilation_rate": [1, 1], "bias_regularizer": null, "kernel_initializer": {"class_name": "VarianceScaling", "config": {"seed": null, "distribution": "uniform", "scale": 1.0, "mode": "fan_avg"}}, "bias_initializer": {"class_name": "Zeros", "config": {}}}, "name": "conv4_block1_1_conv"}, {"inbound_nodes": [[["conv4_block1_1_conv", 0, 0, {}]]], "class_name": "BatchNormalization", "config": {"momentum": 0.99, "axis": 3, "moving_variance_initializer": {"class_name": "Ones", "config": {}}, "epsilon": 1.001e-05, "scale": true, "beta_regularizer": null, "trainable": true, "name": "conv4_block1_1_bn", "moving_mean_initializer": {"class_name": "Zeros", "config": {}}, "gamma_constraint": null, "gamma_regularizer": null, "gamma_initializer": {"class_name": "Ones", "config": {}}, "beta_initializer": {"class_name": "Zeros", "config": {}}, "center": true, "beta_constraint": null}, "name": "conv4_block1_1_bn"}, {"inbound_nodes": [[["conv4_block1_1_bn", 0, 0, {}]]], "class_name": "Activation", "config": {"activation": "relu", "trainable": true, "name": "conv4_block1_1_relu"}, "name": "conv4_block1_1_relu"}, {"inbound_nodes": [[["conv4_block1_1_relu", 0, 0, {}]]], "class_name": "Conv2D", "config": {"kernel_size": [3, 3], "kernel_regularizer": null, "kernel_constraint": null, "activation": "linear", "bias_constraint": null, "strides": [1, 1], "data_format": "channels_last", "filters": 32, "activity_regularizer": null, "trainable": true, "name": "conv4_block1_2_conv", "use_bias": false, "padding": "same", "dilation_rate": [1, 1], "bias_regularizer": null, "kernel_initializer": {"class_name": "VarianceScaling", "config": {"seed": null, "distribution": "uniform", "scale": 1.0, "mode": "fan_avg"}}, "bias_initializer": {"class_name": "Zeros", "config": {}}}, "name": "conv4_block1_2_conv"}, {"inbound_nodes": [[["pool3_pool", 0, 0, {}], ["conv4_block1_2_conv", 0, 0, {}]]], "class_name": "Concatenate", "config": {"axis": 3, "trainable": true, "name": "conv4_block1_concat"}, "name": "conv4_block1_concat"}, {"inbound_nodes": [[["conv4_block1_concat", 0, 0, {}]]], "class_name": "BatchNormalization", "config": {"momentum": 0.99, "axis": 3, "moving_variance_initializer": {"class_name": "Ones", "config": {}}, "epsilon": 1.001e-05, "scale": true, "beta_regularizer": null, "trainable": true, "name": "conv4_block2_0_bn", "moving_mean_initializer": {"class_name": "Zeros", "config": {}}, "gamma_constraint": null, "gamma_regularizer": null, "gamma_initializer": {"class_name": "Ones", "config": {}}, "beta_initializer": {"class_name": "Zeros", "config": {}}, "center": true, "beta_constraint": null}, "name": "conv4_block2_0_bn"}, {"inbound_nodes": [[["conv4_block2_0_bn", 0, 0, {}]]], "class_name": "Activation", "config": {"activation": "relu", "trainable": true, "name": "conv4_block2_0_relu"}, "name": "conv4_block2_0_relu"}, {"inbound_nodes": [[["conv4_block2_0_relu", 0, 0, {}]]], "class_name": "Conv2D", "config": {"kernel_size": [1, 1], "kernel_regularizer": null, "kernel_constraint": null, "activation": "linear", "bias_constraint": null, "strides": [1, 1], "data_format": "channels_last", "filters": 128, "activity_regularizer": null, "trainable": true, "name": "conv4_block2_1_conv", "use_bias": false, "padding": "valid", "dilation_rate": [1, 1], "bias_regularizer": null, "kernel_initializer": {"class_name": "VarianceScaling", "config": {"seed": null, "distribution": "uniform", "scale": 1.0, "mode": "fan_avg"}}, "bias_initializer": {"class_name": "Zeros", "config": {}}}, "name": "conv4_block2_1_conv"}, {"inbound_nodes": [[["conv4_block2_1_conv", 0, 0, {}]]], "class_name": "BatchNormalization", "config": {"momentum": 0.99, "axis": 3, "moving_variance_initializer": {"class_name": "Ones", "config": {}}, "epsilon": 1.001e-05, "scale": true, "beta_regularizer": null, "trainable": true, "name": "conv4_block2_1_bn", "moving_mean_initializer": {"class_name": "Zeros", "config": {}}, "gamma_constraint": null, "gamma_regularizer": null, "gamma_initializer": {"class_name": "Ones", "config": {}}, "beta_initializer": {"class_name": "Zeros", "config": {}}, "center": true, "beta_constraint": null}, "name": "conv4_block2_1_bn"}, {"inbound_nodes": [[["conv4_block2_1_bn", 0, 0, {}]]], "class_name": "Activation", "config": {"activation": "relu", "trainable": true, "name": "conv4_block2_1_relu"}, "name": "conv4_block2_1_relu"}, {"inbound_nodes": [[["conv4_block2_1_relu", 0, 0, {}]]], "class_name": "Conv2D", "config": {"kernel_size": [3, 3], "kernel_regularizer": null, "kernel_constraint": null, "activation": "linear", "bias_constraint": null, "strides": [1, 1], "data_format": "channels_last", "filters": 32, "activity_regularizer": null, "trainable": true, "name": "conv4_block2_2_conv", "use_bias": false, "padding": "same", "dilation_rate": [1, 1], "bias_regularizer": null, "kernel_initializer": {"class_name": "VarianceScaling", "config": {"seed": null, "distribution": "uniform", "scale": 1.0, "mode": "fan_avg"}}, "bias_initializer": {"class_name": "Zeros", "config": {}}}, "name": "conv4_block2_2_conv"}, {"inbound_nodes": [[["conv4_block1_concat", 0, 0, {}], ["conv4_block2_2_conv", 0, 0, {}]]], "class_name": "Concatenate", "config": {"axis": 3, "trainable": true, "name": "conv4_block2_concat"}, "name": "conv4_block2_concat"}, {"inbound_nodes": [[["conv4_block2_concat", 0, 0, {}]]], "class_name": "BatchNormalization", "config": {"momentum": 0.99, "axis": 3, "moving_variance_initializer": {"class_name": "Ones", "config": {}}, "epsilon": 1.001e-05, "scale": true, "beta_regularizer": null, "trainable": true, "name": "conv4_block3_0_bn", "moving_mean_initializer": {"class_name": "Zeros", "config": {}}, "gamma_constraint": null, "gamma_regularizer": null, "gamma_initializer": {"class_name": "Ones", "config": {}}, "beta_initializer": {"class_name": "Zeros", "config": {}}, "center": true, "beta_constraint": null}, "name": "conv4_block3_0_bn"}, {"inbound_nodes": [[["conv4_block3_0_bn", 0, 0, {}]]], "class_name": "Activation", "config": {"activation": "relu", "trainable": true, "name": "conv4_block3_0_relu"}, "name": "conv4_block3_0_relu"}, {"inbound_nodes": [[["conv4_block3_0_relu", 0, 0, {}]]], "class_name": "Conv2D", "config": {"kernel_size": [1, 1], "kernel_regularizer": null, "kernel_constraint": null, "activation": "linear", "bias_constraint": null, "strides": [1, 1], "data_format": "channels_last", "filters": 128, "activity_regularizer": null, "trainable": true, "name": "conv4_block3_1_conv", "use_bias": false, "padding": "valid", "dilation_rate": [1, 1], "bias_regularizer": null, "kernel_initializer": {"class_name": "VarianceScaling", "config": {"seed": null, "distribution": "uniform", "scale": 1.0, "mode": "fan_avg"}}, "bias_initializer": {"class_name": "Zeros", "config": {}}}, "name": "conv4_block3_1_conv"}, {"inbound_nodes": [[["conv4_block3_1_conv", 0, 0, {}]]], "class_name": "BatchNormalization", "config": {"momentum": 0.99, "axis": 3, "moving_variance_initializer": {"class_name": "Ones", "config": {}}, "epsilon": 1.001e-05, "scale": true, "beta_regularizer": null, "trainable": true, "name": "conv4_block3_1_bn", "moving_mean_initializer": {"class_name": "Zeros", "config": {}}, "gamma_constraint": null, "gamma_regularizer": null, "gamma_initializer": {"class_name": "Ones", "config": {}}, "beta_initializer": {"class_name": "Zeros", "config": {}}, "center": true, "beta_constraint": null}, "name": "conv4_block3_1_bn"}, {"inbound_nodes": [[["conv4_block3_1_bn", 0, 0, {}]]], "class_name": "Activation", "config": {"activation": "relu", "trainable": true, "name": "conv4_block3_1_relu"}, "name": "conv4_block3_1_relu"}, {"inbound_nodes": [[["conv4_block3_1_relu", 0, 0, {}]]], "class_name": "Conv2D", "config": {"kernel_size": [3, 3], "kernel_regularizer": null, "kernel_constraint": null, "activation": "linear", "bias_constraint": null, "strides": [1, 1], "data_format": "channels_last", "filters": 32, "activity_regularizer": null, "trainable": true, "name": "conv4_block3_2_conv", "use_bias": false, "padding": "same", "dilation_rate": [1, 1], "bias_regularizer": null, "kernel_initializer": {"class_name": "VarianceScaling", "config": {"seed": null, "distribution": "uniform", "scale": 1.0, "mode": "fan_avg"}}, "bias_initializer": {"class_name": "Zeros", "config": {}}}, "name": "conv4_block3_2_conv"}, {"inbound_nodes": [[["conv4_block2_concat", 0, 0, {}], ["conv4_block3_2_conv", 0, 0, {}]]], "class_name": "Concatenate", "config": {"axis": 3, "trainable": true, "name": "conv4_block3_concat"}, "name": "conv4_block3_concat"}, {"inbound_nodes": [[["conv4_block3_concat", 0, 0, {}]]], "class_name": "BatchNormalization", "config": {"momentum": 0.99, "axis": 3, "moving_variance_initializer": {"class_name": "Ones", "config": {}}, "epsilon": 1.001e-05, "scale": true, "beta_regularizer": null, "trainable": true, "name": "conv4_block4_0_bn", "moving_mean_initializer": {"class_name": "Zeros", "config": {}}, "gamma_constraint": null, "gamma_regularizer": null, "gamma_initializer": {"class_name": "Ones", "config": {}}, "beta_initializer": {"class_name": "Zeros", "config": {}}, "center": true, "beta_constraint": null}, "name": "conv4_block4_0_bn"}, {"inbound_nodes": [[["conv4_block4_0_bn", 0, 0, {}]]], "class_name": "Activation", "config": {"activation": "relu", "trainable": true, "name": "conv4_block4_0_relu"}, "name": "conv4_block4_0_relu"}, {"inbound_nodes": [[["conv4_block4_0_relu", 0, 0, {}]]], "class_name": "Conv2D", "config": {"kernel_size": [1, 1], "kernel_regularizer": null, "kernel_constraint": null, "activation": "linear", "bias_constraint": null, "strides": [1, 1], "data_format": "channels_last", "filters": 128, "activity_regularizer": null, "trainable": true, "name": "conv4_block4_1_conv", "use_bias": false, "padding": "valid", "dilation_rate": [1, 1], "bias_regularizer": null, "kernel_initializer": {"class_name": "VarianceScaling", "config": {"seed": null, "distribution": "uniform", "scale": 1.0, "mode": "fan_avg"}}, "bias_initializer": {"class_name": "Zeros", "config": {}}}, "name": "conv4_block4_1_conv"}, {"inbound_nodes": [[["conv4_block4_1_conv", 0, 0, {}]]], "class_name": "BatchNormalization", "config": {"momentum": 0.99, "axis": 3, "moving_variance_initializer": {"class_name": "Ones", "config": {}}, "epsilon": 1.001e-05, "scale": true, "beta_regularizer": null, "trainable": true, "name": "conv4_block4_1_bn", "moving_mean_initializer": {"class_name": "Zeros", "config": {}}, "gamma_constraint": null, "gamma_regularizer": null, "gamma_initializer": {"class_name": "Ones", "config": {}}, "beta_initializer": {"class_name": "Zeros", "config": {}}, "center": true, "beta_constraint": null}, "name": "conv4_block4_1_bn"}, {"inbound_nodes": [[["conv4_block4_1_bn", 0, 0, {}]]], "class_name": "Activation", "config": {"activation": "relu", "trainable": true, "name": "conv4_block4_1_relu"}, "name": "conv4_block4_1_relu"}, {"inbound_nodes": [[["conv4_block4_1_relu", 0, 0, {}]]], "class_name": "Conv2D", "config": {"kernel_size": [3, 3], "kernel_regularizer": null, "kernel_constraint": null, "activation": "linear", "bias_constraint": null, "strides": [1, 1], "data_format": "channels_last", "filters": 32, "activity_regularizer": null, "trainable": true, "name": "conv4_block4_2_conv", "use_bias": false, "padding": "same", "dilation_rate": [1, 1], "bias_regularizer": null, "kernel_initializer": {"class_name": "VarianceScaling", "config": {"seed": null, "distribution": "uniform", "scale": 1.0, "mode": "fan_avg"}}, "bias_initializer": {"class_name": "Zeros", "config": {}}}, "name": "conv4_block4_2_conv"}, {"inbound_nodes": [[["conv4_block3_concat", 0, 0, {}], ["conv4_block4_2_conv", 0, 0, {}]]], "class_name": "Concatenate", "config": {"axis": 3, "trainable": true, "name": "conv4_block4_concat"}, "name": "conv4_block4_concat"}, {"inbound_nodes": [[["conv4_block4_concat", 0, 0, {}]]], "class_name": "BatchNormalization", "config": {"momentum": 0.99, "axis": 3, "moving_variance_initializer": {"class_name": "Ones", "config": {}}, "epsilon": 1.001e-05, "scale": true, "beta_regularizer": null, "trainable": true, "name": "conv4_block5_0_bn", "moving_mean_initializer": {"class_name": "Zeros", "config": {}}, "gamma_constraint": null, "gamma_regularizer": null, "gamma_initializer": {"class_name": "Ones", "config": {}}, "beta_initializer": {"class_name": "Zeros", "config": {}}, "center": true, "beta_constraint": null}, "name": "conv4_block5_0_bn"}, {"inbound_nodes": [[["conv4_block5_0_bn", 0, 0, {}]]], "class_name": "Activation", "config": {"activation": "relu", "trainable": true, "name": "conv4_block5_0_relu"}, "name": "conv4_block5_0_relu"}, {"inbound_nodes": [[["conv4_block5_0_relu", 0, 0, {}]]], "class_name": "Conv2D", "config": {"kernel_size": [1, 1], "kernel_regularizer": null, "kernel_constraint": null, "activation": "linear", "bias_constraint": null, "strides": [1, 1], "data_format": "channels_last", "filters": 128, "activity_regularizer": null, "trainable": true, "name": "conv4_block5_1_conv", "use_bias": false, "padding": "valid", "dilation_rate": [1, 1], "bias_regularizer": null, "kernel_initializer": {"class_name": "VarianceScaling", "config": {"seed": null, "distribution": "uniform", "scale": 1.0, "mode": "fan_avg"}}, "bias_initializer": {"class_name": "Zeros", "config": {}}}, "name": "conv4_block5_1_conv"}, {"inbound_nodes": [[["conv4_block5_1_conv", 0, 0, {}]]], "class_name": "BatchNormalization", "config": {"momentum": 0.99, "axis": 3, "moving_variance_initializer": {"class_name": "Ones", "config": {}}, "epsilon": 1.001e-05, "scale": true, "beta_regularizer": null, "trainable": true, "name": "conv4_block5_1_bn", "moving_mean_initializer": {"class_name": "Zeros", "config": {}}, "gamma_constraint": null, "gamma_regularizer": null, "gamma_initializer": {"class_name": "Ones", "config": {}}, "beta_initializer": {"class_name": "Zeros", "config": {}}, "center": true, "beta_constraint": null}, "name": "conv4_block5_1_bn"}, {"inbound_nodes": [[["conv4_block5_1_bn", 0, 0, {}]]], "class_name": "Activation", "config": {"activation": "relu", "trainable": true, "name": "conv4_block5_1_relu"}, "name": "conv4_block5_1_relu"}, {"inbound_nodes": [[["conv4_block5_1_relu", 0, 0, {}]]], "class_name": "Conv2D", "config": {"kernel_size": [3, 3], "kernel_regularizer": null, "kernel_constraint": null, "activation": "linear", "bias_constraint": null, "strides": [1, 1], "data_format": "channels_last", "filters": 32, "activity_regularizer": null, "trainable": true, "name": "conv4_block5_2_conv", "use_bias": false, "padding": "same", "dilation_rate": [1, 1], "bias_regularizer": null, "kernel_initializer": {"class_name": "VarianceScaling", "config": {"seed": null, "distribution": "uniform", "scale": 1.0, "mode": "fan_avg"}}, "bias_initializer": {"class_name": "Zeros", "config": {}}}, "name": "conv4_block5_2_conv"}, {"inbound_nodes": [[["conv4_block4_concat", 0, 0, {}], ["conv4_block5_2_conv", 0, 0, {}]]], "class_name": "Concatenate", "config": {"axis": 3, "trainable": true, "name": "conv4_block5_concat"}, "name": "conv4_block5_concat"}, {"inbound_nodes": [[["conv4_block5_concat", 0, 0, {}]]], "class_name": "BatchNormalization", "config": {"momentum": 0.99, "axis": 3, "moving_variance_initializer": {"class_name": "Ones", "config": {}}, "epsilon": 1.001e-05, "scale": true, "beta_regularizer": null, "trainable": true, "name": "conv4_block6_0_bn", "moving_mean_initializer": {"class_name": "Zeros", "config": {}}, "gamma_constraint": null, "gamma_regularizer": null, "gamma_initializer": {"class_name": "Ones", "config": {}}, "beta_initializer": {"class_name": "Zeros", "config": {}}, "center": true, "beta_constraint": null}, "name": "conv4_block6_0_bn"}, {"inbound_nodes": [[["conv4_block6_0_bn", 0, 0, {}]]], "class_name": "Activation", "config": {"activation": "relu", "trainable": true, "name": "conv4_block6_0_relu"}, "name": "conv4_block6_0_relu"}, {"inbound_nodes": [[["conv4_block6_0_relu", 0, 0, {}]]], "class_name": "Conv2D", "config": {"kernel_size": [1, 1], "kernel_regularizer": null, "kernel_constraint": null, "activation": "linear", "bias_constraint": null, "strides": [1, 1], "data_format": "channels_last", "filters": 128, "activity_regularizer": null, "trainable": true, "name": "conv4_block6_1_conv", "use_bias": false, "padding": "valid", "dilation_rate": [1, 1], "bias_regularizer": null, "kernel_initializer": {"class_name": "VarianceScaling", "config": {"seed": null, "distribution": "uniform", "scale": 1.0, "mode": "fan_avg"}}, "bias_initializer": {"class_name": "Zeros", "config": {}}}, "name": "conv4_block6_1_conv"}, {"inbound_nodes": [[["conv4_block6_1_conv", 0, 0, {}]]], "class_name": "BatchNormalization", "config": {"momentum": 0.99, "axis": 3, "moving_variance_initializer": {"class_name": "Ones", "config": {}}, "epsilon": 1.001e-05, "scale": true, "beta_regularizer": null, "trainable": true, "name": "conv4_block6_1_bn", "moving_mean_initializer": {"class_name": "Zeros", "config": {}}, "gamma_constraint": null, "gamma_regularizer": null, "gamma_initializer": {"class_name": "Ones", "config": {}}, "beta_initializer": {"class_name": "Zeros", "config": {}}, "center": true, "beta_constraint": null}, "name": "conv4_block6_1_bn"}, {"inbound_nodes": [[["conv4_block6_1_bn", 0, 0, {}]]], "class_name": "Activation", "config": {"activation": "relu", "trainable": true, "name": "conv4_block6_1_relu"}, "name": "conv4_block6_1_relu"}, {"inbound_nodes": [[["conv4_block6_1_relu", 0, 0, {}]]], "class_name": "Conv2D", "config": {"kernel_size": [3, 3], "kernel_regularizer": null, "kernel_constraint": null, "activation": "linear", "bias_constraint": null, "strides": [1, 1], "data_format": "channels_last", "filters": 32, "activity_regularizer": null, "trainable": true, "name": "conv4_block6_2_conv", "use_bias": false, "padding": "same", "dilation_rate": [1, 1], "bias_regularizer": null, "kernel_initializer": {"class_name": "VarianceScaling", "config": {"seed": null, "distribution": "uniform", "scale": 1.0, "mode": "fan_avg"}}, "bias_initializer": {"class_name": "Zeros", "config": {}}}, "name": "conv4_block6_2_conv"}, {"inbound_nodes": [[["conv4_block5_concat", 0, 0, {}], ["conv4_block6_2_conv", 0, 0, {}]]], "class_name": "Concatenate", "config": {"axis": 3, "trainable": true, "name": "conv4_block6_concat"}, "name": "conv4_block6_concat"}, {"inbound_nodes": [[["conv4_block6_concat", 0, 0, {}]]], "class_name": "BatchNormalization", "config": {"momentum": 0.99, "axis": 3, "moving_variance_initializer": {"class_name": "Ones", "config": {}}, "epsilon": 1.001e-05, "scale": true, "beta_regularizer": null, "trainable": true, "name": "conv4_block7_0_bn", "moving_mean_initializer": {"class_name": "Zeros", "config": {}}, "gamma_constraint": null, "gamma_regularizer": null, "gamma_initializer": {"class_name": "Ones", "config": {}}, "beta_initializer": {"class_name": "Zeros", "config": {}}, "center": true, "beta_constraint": null}, "name": "conv4_block7_0_bn"}, {"inbound_nodes": [[["conv4_block7_0_bn", 0, 0, {}]]], "class_name": "Activation", "config": {"activation": "relu", "trainable": true, "name": "conv4_block7_0_relu"}, "name": "conv4_block7_0_relu"}, {"inbound_nodes": [[["conv4_block7_0_relu", 0, 0, {}]]], "class_name": "Conv2D", "config": {"kernel_size": [1, 1], "kernel_regularizer": null, "kernel_constraint": null, "activation": "linear", "bias_constraint": null, "strides": [1, 1], "data_format": "channels_last", "filters": 128, "activity_regularizer": null, "trainable": true, "name": "conv4_block7_1_conv", "use_bias": false, "padding": "valid", "dilation_rate": [1, 1], "bias_regularizer": null, "kernel_initializer": {"class_name": "VarianceScaling", "config": {"seed": null, "distribution": "uniform", "scale": 1.0, "mode": "fan_avg"}}, "bias_initializer": {"class_name": "Zeros", "config": {}}}, "name": "conv4_block7_1_conv"}, {"inbound_nodes": [[["conv4_block7_1_conv", 0, 0, {}]]], "class_name": "BatchNormalization", "config": {"momentum": 0.99, "axis": 3, "moving_variance_initializer": {"class_name": "Ones", "config": {}}, "epsilon": 1.001e-05, "scale": true, "beta_regularizer": null, "trainable": true, "name": "conv4_block7_1_bn", "moving_mean_initializer": {"class_name": "Zeros", "config": {}}, "gamma_constraint": null, "gamma_regularizer": null, "gamma_initializer": {"class_name": "Ones", "config": {}}, "beta_initializer": {"class_name": "Zeros", "config": {}}, "center": true, "beta_constraint": null}, "name": "conv4_block7_1_bn"}, {"inbound_nodes": [[["conv4_block7_1_bn", 0, 0, {}]]], "class_name": "Activation", "config": {"activation": "relu", "trainable": true, "name": "conv4_block7_1_relu"}, "name": "conv4_block7_1_relu"}, {"inbound_nodes": [[["conv4_block7_1_relu", 0, 0, {}]]], "class_name": "Conv2D", "config": {"kernel_size": [3, 3], "kernel_regularizer": null, "kernel_constraint": null, "activation": "linear", "bias_constraint": null, "strides": [1, 1], "data_format": "channels_last", "filters": 32, "activity_regularizer": null, "trainable": true, "name": "conv4_block7_2_conv", "use_bias": false, "padding": "same", "dilation_rate": [1, 1], "bias_regularizer": null, "kernel_initializer": {"class_name": "VarianceScaling", "config": {"seed": null, "distribution": "uniform", "scale": 1.0, "mode": "fan_avg"}}, "bias_initializer": {"class_name": "Zeros", "config": {}}}, "name": "conv4_block7_2_conv"}, {"inbound_nodes": [[["conv4_block6_concat", 0, 0, {}], ["conv4_block7_2_conv", 0, 0, {}]]], "class_name": "Concatenate", "config": {"axis": 3, "trainable": true, "name": "conv4_block7_concat"}, "name": "conv4_block7_concat"}, {"inbound_nodes": [[["conv4_block7_concat", 0, 0, {}]]], "class_name": "BatchNormalization", "config": {"momentum": 0.99, "axis": 3, "moving_variance_initializer": {"class_name": "Ones", "config": {}}, "epsilon": 1.001e-05, "scale": true, "beta_regularizer": null, "trainable": true, "name": "conv4_block8_0_bn", "moving_mean_initializer": {"class_name": "Zeros", "config": {}}, "gamma_constraint": null, "gamma_regularizer": null, "gamma_initializer": {"class_name": "Ones", "config": {}}, "beta_initializer": {"class_name": "Zeros", "config": {}}, "center": true, "beta_constraint": null}, "name": "conv4_block8_0_bn"}, {"inbound_nodes": [[["conv4_block8_0_bn", 0, 0, {}]]], "class_name": "Activation", "config": {"activation": "relu", "trainable": true, "name": "conv4_block8_0_relu"}, "name": "conv4_block8_0_relu"}, {"inbound_nodes": [[["conv4_block8_0_relu", 0, 0, {}]]], "class_name": "Conv2D", "config": {"kernel_size": [1, 1], "kernel_regularizer": null, "kernel_constraint": null, "activation": "linear", "bias_constraint": null, "strides": [1, 1], "data_format": "channels_last", "filters": 128, "activity_regularizer": null, "trainable": true, "name": "conv4_block8_1_conv", "use_bias": false, "padding": "valid", "dilation_rate": [1, 1], "bias_regularizer": null, "kernel_initializer": {"class_name": "VarianceScaling", "config": {"seed": null, "distribution": "uniform", "scale": 1.0, "mode": "fan_avg"}}, "bias_initializer": {"class_name": "Zeros", "config": {}}}, "name": "conv4_block8_1_conv"}, {"inbound_nodes": [[["conv4_block8_1_conv", 0, 0, {}]]], "class_name": "BatchNormalization", "config": {"momentum": 0.99, "axis": 3, "moving_variance_initializer": {"class_name": "Ones", "config": {}}, "epsilon": 1.001e-05, "scale": true, "beta_regularizer": null, "trainable": true, "name": "conv4_block8_1_bn", "moving_mean_initializer": {"class_name": "Zeros", "config": {}}, "gamma_constraint": null, "gamma_regularizer": null, "gamma_initializer": {"class_name": "Ones", "config": {}}, "beta_initializer": {"class_name": "Zeros", "config": {}}, "center": true, "beta_constraint": null}, "name": "conv4_block8_1_bn"}, {"inbound_nodes": [[["conv4_block8_1_bn", 0, 0, {}]]], "class_name": "Activation", "config": {"activation": "relu", "trainable": true, "name": "conv4_block8_1_relu"}, "name": "conv4_block8_1_relu"}, {"inbound_nodes": [[["conv4_block8_1_relu", 0, 0, {}]]], "class_name": "Conv2D", "config": {"kernel_size": [3, 3], "kernel_regularizer": null, "kernel_constraint": null, "activation": "linear", "bias_constraint": null, "strides": [1, 1], "data_format": "channels_last", "filters": 32, "activity_regularizer": null, "trainable": true, "name": "conv4_block8_2_conv", "use_bias": false, "padding": "same", "dilation_rate": [1, 1], "bias_regularizer": null, "kernel_initializer": {"class_name": "VarianceScaling", "config": {"seed": null, "distribution": "uniform", "scale": 1.0, "mode": "fan_avg"}}, "bias_initializer": {"class_name": "Zeros", "config": {}}}, "name": "conv4_block8_2_conv"}, {"inbound_nodes": [[["conv4_block7_concat", 0, 0, {}], ["conv4_block8_2_conv", 0, 0, {}]]], "class_name": "Concatenate", "config": {"axis": 3, "trainable": true, "name": "conv4_block8_concat"}, "name": "conv4_block8_concat"}, {"inbound_nodes": [[["conv4_block8_concat", 0, 0, {}]]], "class_name": "BatchNormalization", "config": {"momentum": 0.99, "axis": 3, "moving_variance_initializer": {"class_name": "Ones", "config": {}}, "epsilon": 1.001e-05, "scale": true, "beta_regularizer": null, "trainable": true, "name": "conv4_block9_0_bn", "moving_mean_initializer": {"class_name": "Zeros", "config": {}}, "gamma_constraint": null, "gamma_regularizer": null, "gamma_initializer": {"class_name": "Ones", "config": {}}, "beta_initializer": {"class_name": "Zeros", "config": {}}, "center": true, "beta_constraint": null}, "name": "conv4_block9_0_bn"}, {"inbound_nodes": [[["conv4_block9_0_bn", 0, 0, {}]]], "class_name": "Activation", "config": {"activation": "relu", "trainable": true, "name": "conv4_block9_0_relu"}, "name": "conv4_block9_0_relu"}, {"inbound_nodes": [[["conv4_block9_0_relu", 0, 0, {}]]], "class_name": "Conv2D", "config": {"kernel_size": [1, 1], "kernel_regularizer": null, "kernel_constraint": null, "activation": "linear", "bias_constraint": null, "strides": [1, 1], "data_format": "channels_last", "filters": 128, "activity_regularizer": null, "trainable": true, "name": "conv4_block9_1_conv", "use_bias": false, "padding": "valid", "dilation_rate": [1, 1], "bias_regularizer": null, "kernel_initializer": {"class_name": "VarianceScaling", "config": {"seed": null, "distribution": "uniform", "scale": 1.0, "mode": "fan_avg"}}, "bias_initializer": {"class_name": "Zeros", "config": {}}}, "name": "conv4_block9_1_conv"}, {"inbound_nodes": [[["conv4_block9_1_conv", 0, 0, {}]]], "class_name": "BatchNormalization", "config": {"momentum": 0.99, "axis": 3, "moving_variance_initializer": {"class_name": "Ones", "config": {}}, "epsilon": 1.001e-05, "scale": true, "beta_regularizer": null, "trainable": true, "name": "conv4_block9_1_bn", "moving_mean_initializer": {"class_name": "Zeros", "config": {}}, "gamma_constraint": null, "gamma_regularizer": null, "gamma_initializer": {"class_name": "Ones", "config": {}}, "beta_initializer": {"class_name": "Zeros", "config": {}}, "center": true, "beta_constraint": null}, "name": "conv4_block9_1_bn"}, {"inbound_nodes": [[["conv4_block9_1_bn", 0, 0, {}]]], "class_name": "Activation", "config": {"activation": "relu", "trainable": true, "name": "conv4_block9_1_relu"}, "name": "conv4_block9_1_relu"}, {"inbound_nodes": [[["conv4_block9_1_relu", 0, 0, {}]]], "class_name": "Conv2D", "config": {"kernel_size": [3, 3], "kernel_regularizer": null, "kernel_constraint": null, "activation": "linear", "bias_constraint": null, "strides": [1, 1], "data_format": "channels_last", "filters": 32, "activity_regularizer": null, "trainable": true, "name": "conv4_block9_2_conv", "use_bias": false, "padding": "same", "dilation_rate": [1, 1], "bias_regularizer": null, "kernel_initializer": {"class_name": "VarianceScaling", "config": {"seed": null, "distribution": "uniform", "scale": 1.0, "mode": "fan_avg"}}, "bias_initializer": {"class_name": "Zeros", "config": {}}}, "name": "conv4_block9_2_conv"}, {"inbound_nodes": [[["conv4_block8_concat", 0, 0, {}], ["conv4_block9_2_conv", 0, 0, {}]]], "class_name": "Concatenate", "config": {"axis": 3, "trainable": true, "name": "conv4_block9_concat"}, "name": "conv4_block9_concat"}, {"inbound_nodes": [[["conv4_block9_concat", 0, 0, {}]]], "class_name": "BatchNormalization", "config": {"momentum": 0.99, "axis": 3, "moving_variance_initializer": {"class_name": "Ones", "config": {}}, "epsilon": 1.001e-05, "scale": true, "beta_regularizer": null, "trainable": true, "name": "conv4_block10_0_bn", "moving_mean_initializer": {"class_name": "Zeros", "config": {}}, "gamma_constraint": null, "gamma_regularizer": null, "gamma_initializer": {"class_name": "Ones", "config": {}}, "beta_initializer": {"class_name": "Zeros", "config": {}}, "center": true, "beta_constraint": null}, "name": "conv4_block10_0_bn"}, {"inbound_nodes": [[["conv4_block10_0_bn", 0, 0, {}]]], "class_name": "Activation", "config": {"activation": "relu", "trainable": true, "name": "conv4_block10_0_relu"}, "name": "conv4_block10_0_relu"}, {"inbound_nodes": [[["conv4_block10_0_relu", 0, 0, {}]]], "class_name": "Conv2D", "config": {"kernel_size": [1, 1], "kernel_regularizer": null, "kernel_constraint": null, "activation": "linear", "bias_constraint": null, "strides": [1, 1], "data_format": "channels_last", "filters": 128, "activity_regularizer": null, "trainable": true, "name": "conv4_block10_1_conv", "use_bias": false, "padding": "valid", "dilation_rate": [1, 1], "bias_regularizer": null, "kernel_initializer": {"class_name": "VarianceScaling", "config": {"seed": null, "distribution": "uniform", "scale": 1.0, "mode": "fan_avg"}}, "bias_initializer": {"class_name": "Zeros", "config": {}}}, "name": "conv4_block10_1_conv"}, {"inbound_nodes": [[["conv4_block10_1_conv", 0, 0, {}]]], "class_name": "BatchNormalization", "config": {"momentum": 0.99, "axis": 3, "moving_variance_initializer": {"class_name": "Ones", "config": {}}, "epsilon": 1.001e-05, "scale": true, "beta_regularizer": null, "trainable": true, "name": "conv4_block10_1_bn", "moving_mean_initializer": {"class_name": "Zeros", "config": {}}, "gamma_constraint": null, "gamma_regularizer": null, "gamma_initializer": {"class_name": "Ones", "config": {}}, "beta_initializer": {"class_name": "Zeros", "config": {}}, "center": true, "beta_constraint": null}, "name": "conv4_block10_1_bn"}, {"inbound_nodes": [[["conv4_block10_1_bn", 0, 0, {}]]], "class_name": "Activation", "config": {"activation": "relu", "trainable": true, "name": "conv4_block10_1_relu"}, "name": "conv4_block10_1_relu"}, {"inbound_nodes": [[["conv4_block10_1_relu", 0, 0, {}]]], "class_name": "Conv2D", "config": {"kernel_size": [3, 3], "kernel_regularizer": null, "kernel_constraint": null, "activation": "linear", "bias_constraint": null, "strides": [1, 1], "data_format": "channels_last", "filters": 32, "activity_regularizer": null, "trainable": true, "name": "conv4_block10_2_conv", "use_bias": false, "padding": "same", "dilation_rate": [1, 1], "bias_regularizer": null, "kernel_initializer": {"class_name": "VarianceScaling", "config": {"seed": null, "distribution": "uniform", "scale": 1.0, "mode": "fan_avg"}}, "bias_initializer": {"class_name": "Zeros", "config": {}}}, "name": "conv4_block10_2_conv"}, {"inbound_nodes": [[["conv4_block9_concat", 0, 0, {}], ["conv4_block10_2_conv", 0, 0, {}]]], "class_name": "Concatenate", "config": {"axis": 3, "trainable": true, "name": "conv4_block10_concat"}, "name": "conv4_block10_concat"}, {"inbound_nodes": [[["conv4_block10_concat", 0, 0, {}]]], "class_name": "BatchNormalization", "config": {"momentum": 0.99, "axis": 3, "moving_variance_initializer": {"class_name": "Ones", "config": {}}, "epsilon": 1.001e-05, "scale": true, "beta_regularizer": null, "trainable": true, "name": "conv4_block11_0_bn", "moving_mean_initializer": {"class_name": "Zeros", "config": {}}, "gamma_constraint": null, "gamma_regularizer": null, "gamma_initializer": {"class_name": "Ones", "config": {}}, "beta_initializer": {"class_name": "Zeros", "config": {}}, "center": true, "beta_constraint": null}, "name": "conv4_block11_0_bn"}, {"inbound_nodes": [[["conv4_block11_0_bn", 0, 0, {}]]], "class_name": "Activation", "config": {"activation": "relu", "trainable": true, "name": "conv4_block11_0_relu"}, "name": "conv4_block11_0_relu"}, {"inbound_nodes": [[["conv4_block11_0_relu", 0, 0, {}]]], "class_name": "Conv2D", "config": {"kernel_size": [1, 1], "kernel_regularizer": null, "kernel_constraint": null, "activation": "linear", "bias_constraint": null, "strides": [1, 1], "data_format": "channels_last", "filters": 128, "activity_regularizer": null, "trainable": true, "name": "conv4_block11_1_conv", "use_bias": false, "padding": "valid", "dilation_rate": [1, 1], "bias_regularizer": null, "kernel_initializer": {"class_name": "VarianceScaling", "config": {"seed": null, "distribution": "uniform", "scale": 1.0, "mode": "fan_avg"}}, "bias_initializer": {"class_name": "Zeros", "config": {}}}, "name": "conv4_block11_1_conv"}, {"inbound_nodes": [[["conv4_block11_1_conv", 0, 0, {}]]], "class_name": "BatchNormalization", "config": {"momentum": 0.99, "axis": 3, "moving_variance_initializer": {"class_name": "Ones", "config": {}}, "epsilon": 1.001e-05, "scale": true, "beta_regularizer": null, "trainable": true, "name": "conv4_block11_1_bn", "moving_mean_initializer": {"class_name": "Zeros", "config": {}}, "gamma_constraint": null, "gamma_regularizer": null, "gamma_initializer": {"class_name": "Ones", "config": {}}, "beta_initializer": {"class_name": "Zeros", "config": {}}, "center": true, "beta_constraint": null}, "name": "conv4_block11_1_bn"}, {"inbound_nodes": [[["conv4_block11_1_bn", 0, 0, {}]]], "class_name": "Activation", "config": {"activation": "relu", "trainable": true, "name": "conv4_block11_1_relu"}, "name": "conv4_block11_1_relu"}, {"inbound_nodes": [[["conv4_block11_1_relu", 0, 0, {}]]], "class_name": "Conv2D", "config": {"kernel_size": [3, 3], "kernel_regularizer": null, "kernel_constraint": null, "activation": "linear", "bias_constraint": null, "strides": [1, 1], "data_format": "channels_last", "filters": 32, "activity_regularizer": null, "trainable": true, "name": "conv4_block11_2_conv", "use_bias": false, "padding": "same", "dilation_rate": [1, 1], "bias_regularizer": null, "kernel_initializer": {"class_name": "VarianceScaling", "config": {"seed": null, "distribution": "uniform", "scale": 1.0, "mode": "fan_avg"}}, "bias_initializer": {"class_name": "Zeros", "config": {}}}, "name": "conv4_block11_2_conv"}, {"inbound_nodes": [[["conv4_block10_concat", 0, 0, {}], ["conv4_block11_2_conv", 0, 0, {}]]], "class_name": "Concatenate", "config": {"axis": 3, "trainable": true, "name": "conv4_block11_concat"}, "name": "conv4_block11_concat"}, {"inbound_nodes": [[["conv4_block11_concat", 0, 0, {}]]], "class_name": "BatchNormalization", "config": {"momentum": 0.99, "axis": 3, "moving_variance_initializer": {"class_name": "Ones", "config": {}}, "epsilon": 1.001e-05, "scale": true, "beta_regularizer": null, "trainable": true, "name": "conv4_block12_0_bn", "moving_mean_initializer": {"class_name": "Zeros", "config": {}}, "gamma_constraint": null, "gamma_regularizer": null, "gamma_initializer": {"class_name": "Ones", "config": {}}, "beta_initializer": {"class_name": "Zeros", "config": {}}, "center": true, "beta_constraint": null}, "name": "conv4_block12_0_bn"}, {"inbound_nodes": [[["conv4_block12_0_bn", 0, 0, {}]]], "class_name": "Activation", "config": {"activation": "relu", "trainable": true, "name": "conv4_block12_0_relu"}, "name": "conv4_block12_0_relu"}, {"inbound_nodes": [[["conv4_block12_0_relu", 0, 0, {}]]], "class_name": "Conv2D", "config": {"kernel_size": [1, 1], "kernel_regularizer": null, "kernel_constraint": null, "activation": "linear", "bias_constraint": null, "strides": [1, 1], "data_format": "channels_last", "filters": 128, "activity_regularizer": null, "trainable": true, "name": "conv4_block12_1_conv", "use_bias": false, "padding": "valid", "dilation_rate": [1, 1], "bias_regularizer": null, "kernel_initializer": {"class_name": "VarianceScaling", "config": {"seed": null, "distribution": "uniform", "scale": 1.0, "mode": "fan_avg"}}, "bias_initializer": {"class_name": "Zeros", "config": {}}}, "name": "conv4_block12_1_conv"}, {"inbound_nodes": [[["conv4_block12_1_conv", 0, 0, {}]]], "class_name": "BatchNormalization", "config": {"momentum": 0.99, "axis": 3, "moving_variance_initializer": {"class_name": "Ones", "config": {}}, "epsilon": 1.001e-05, "scale": true, "beta_regularizer": null, "trainable": true, "name": "conv4_block12_1_bn", "moving_mean_initializer": {"class_name": "Zeros", "config": {}}, "gamma_constraint": null, "gamma_regularizer": null, "gamma_initializer": {"class_name": "Ones", "config": {}}, "beta_initializer": {"class_name": "Zeros", "config": {}}, "center": true, "beta_constraint": null}, "name": "conv4_block12_1_bn"}, {"inbound_nodes": [[["conv4_block12_1_bn", 0, 0, {}]]], "class_name": "Activation", "config": {"activation": "relu", "trainable": true, "name": "conv4_block12_1_relu"}, "name": "conv4_block12_1_relu"}, {"inbound_nodes": [[["conv4_block12_1_relu", 0, 0, {}]]], "class_name": "Conv2D", "config": {"kernel_size": [3, 3], "kernel_regularizer": null, "kernel_constraint": null, "activation": "linear", "bias_constraint": null, "strides": [1, 1], "data_format": "channels_last", "filters": 32, "activity_regularizer": null, "trainable": true, "name": "conv4_block12_2_conv", "use_bias": false, "padding": "same", "dilation_rate": [1, 1], "bias_regularizer": null, "kernel_initializer": {"class_name": "VarianceScaling", "config": {"seed": null, "distribution": "uniform", "scale": 1.0, "mode": "fan_avg"}}, "bias_initializer": {"class_name": "Zeros", "config": {}}}, "name": "conv4_block12_2_conv"}, {"inbound_nodes": [[["conv4_block11_concat", 0, 0, {}], ["conv4_block12_2_conv", 0, 0, {}]]], "class_name": "Concatenate", "config": {"axis": 3, "trainable": true, "name": "conv4_block12_concat"}, "name": "conv4_block12_concat"}, {"inbound_nodes": [[["conv4_block12_concat", 0, 0, {}]]], "class_name": "BatchNormalization", "config": {"momentum": 0.99, "axis": 3, "moving_variance_initializer": {"class_name": "Ones", "config": {}}, "epsilon": 1.001e-05, "scale": true, "beta_regularizer": null, "trainable": true, "name": "conv4_block13_0_bn", "moving_mean_initializer": {"class_name": "Zeros", "config": {}}, "gamma_constraint": null, "gamma_regularizer": null, "gamma_initializer": {"class_name": "Ones", "config": {}}, "beta_initializer": {"class_name": "Zeros", "config": {}}, "center": true, "beta_constraint": null}, "name": "conv4_block13_0_bn"}, {"inbound_nodes": [[["conv4_block13_0_bn", 0, 0, {}]]], "class_name": "Activation", "config": {"activation": "relu", "trainable": true, "name": "conv4_block13_0_relu"}, "name": "conv4_block13_0_relu"}, {"inbound_nodes": [[["conv4_block13_0_relu", 0, 0, {}]]], "class_name": "Conv2D", "config": {"kernel_size": [1, 1], "kernel_regularizer": null, "kernel_constraint": null, "activation": "linear", "bias_constraint": null, "strides": [1, 1], "data_format": "channels_last", "filters": 128, "activity_regularizer": null, "trainable": true, "name": "conv4_block13_1_conv", "use_bias": false, "padding": "valid", "dilation_rate": [1, 1], "bias_regularizer": null, "kernel_initializer": {"class_name": "VarianceScaling", "config": {"seed": null, "distribution": "uniform", "scale": 1.0, "mode": "fan_avg"}}, "bias_initializer": {"class_name": "Zeros", "config": {}}}, "name": "conv4_block13_1_conv"}, {"inbound_nodes": [[["conv4_block13_1_conv", 0, 0, {}]]], "class_name": "BatchNormalization", "config": {"momentum": 0.99, "axis": 3, "moving_variance_initializer": {"class_name": "Ones", "config": {}}, "epsilon": 1.001e-05, "scale": true, "beta_regularizer": null, "trainable": true, "name": "conv4_block13_1_bn", "moving_mean_initializer": {"class_name": "Zeros", "config": {}}, "gamma_constraint": null, "gamma_regularizer": null, "gamma_initializer": {"class_name": "Ones", "config": {}}, "beta_initializer": {"class_name": "Zeros", "config": {}}, "center": true, "beta_constraint": null}, "name": "conv4_block13_1_bn"}, {"inbound_nodes": [[["conv4_block13_1_bn", 0, 0, {}]]], "class_name": "Activation", "config": {"activation": "relu", "trainable": true, "name": "conv4_block13_1_relu"}, "name": "conv4_block13_1_relu"}, {"inbound_nodes": [[["conv4_block13_1_relu", 0, 0, {}]]], "class_name": "Conv2D", "config": {"kernel_size": [3, 3], "kernel_regularizer": null, "kernel_constraint": null, "activation": "linear", "bias_constraint": null, "strides": [1, 1], "data_format": "channels_last", "filters": 32, "activity_regularizer": null, "trainable": true, "name": "conv4_block13_2_conv", "use_bias": false, "padding": "same", "dilation_rate": [1, 1], "bias_regularizer": null, "kernel_initializer": {"class_name": "VarianceScaling", "config": {"seed": null, "distribution": "uniform", "scale": 1.0, "mode": "fan_avg"}}, "bias_initializer": {"class_name": "Zeros", "config": {}}}, "name": "conv4_block13_2_conv"}, {"inbound_nodes": [[["conv4_block12_concat", 0, 0, {}], ["conv4_block13_2_conv", 0, 0, {}]]], "class_name": "Concatenate", "config": {"axis": 3, "trainable": true, "name": "conv4_block13_concat"}, "name": "conv4_block13_concat"}, {"inbound_nodes": [[["conv4_block13_concat", 0, 0, {}]]], "class_name": "BatchNormalization", "config": {"momentum": 0.99, "axis": 3, "moving_variance_initializer": {"class_name": "Ones", "config": {}}, "epsilon": 1.001e-05, "scale": true, "beta_regularizer": null, "trainable": true, "name": "conv4_block14_0_bn", "moving_mean_initializer": {"class_name": "Zeros", "config": {}}, "gamma_constraint": null, "gamma_regularizer": null, "gamma_initializer": {"class_name": "Ones", "config": {}}, "beta_initializer": {"class_name": "Zeros", "config": {}}, "center": true, "beta_constraint": null}, "name": "conv4_block14_0_bn"}, {"inbound_nodes": [[["conv4_block14_0_bn", 0, 0, {}]]], "class_name": "Activation", "config": {"activation": "relu", "trainable": true, "name": "conv4_block14_0_relu"}, "name": "conv4_block14_0_relu"}, {"inbound_nodes": [[["conv4_block14_0_relu", 0, 0, {}]]], "class_name": "Conv2D", "config": {"kernel_size": [1, 1], "kernel_regularizer": null, "kernel_constraint": null, "activation": "linear", "bias_constraint": null, "strides": [1, 1], "data_format": "channels_last", "filters": 128, "activity_regularizer": null, "trainable": true, "name": "conv4_block14_1_conv", "use_bias": false, "padding": "valid", "dilation_rate": [1, 1], "bias_regularizer": null, "kernel_initializer": {"class_name": "VarianceScaling", "config": {"seed": null, "distribution": "uniform", "scale": 1.0, "mode": "fan_avg"}}, "bias_initializer": {"class_name": "Zeros", "config": {}}}, "name": "conv4_block14_1_conv"}, {"inbound_nodes": [[["conv4_block14_1_conv", 0, 0, {}]]], "class_name": "BatchNormalization", "config": {"momentum": 0.99, "axis": 3, "moving_variance_initializer": {"class_name": "Ones", "config": {}}, "epsilon": 1.001e-05, "scale": true, "beta_regularizer": null, "trainable": true, "name": "conv4_block14_1_bn", "moving_mean_initializer": {"class_name": "Zeros", "config": {}}, "gamma_constraint": null, "gamma_regularizer": null, "gamma_initializer": {"class_name": "Ones", "config": {}}, "beta_initializer": {"class_name": "Zeros", "config": {}}, "center": true, "beta_constraint": null}, "name": "conv4_block14_1_bn"}, {"inbound_nodes": [[["conv4_block14_1_bn", 0, 0, {}]]], "class_name": "Activation", "config": {"activation": "relu", "trainable": true, "name": "conv4_block14_1_relu"}, "name": "conv4_block14_1_relu"}, {"inbound_nodes": [[["conv4_block14_1_relu", 0, 0, {}]]], "class_name": "Conv2D", "config": {"kernel_size": [3, 3], "kernel_regularizer": null, "kernel_constraint": null, "activation": "linear", "bias_constraint": null, "strides": [1, 1], "data_format": "channels_last", "filters": 32, "activity_regularizer": null, "trainable": true, "name": "conv4_block14_2_conv", "use_bias": false, "padding": "same", "dilation_rate": [1, 1], "bias_regularizer": null, "kernel_initializer": {"class_name": "VarianceScaling", "config": {"seed": null, "distribution": "uniform", "scale": 1.0, "mode": "fan_avg"}}, "bias_initializer": {"class_name": "Zeros", "config": {}}}, "name": "conv4_block14_2_conv"}, {"inbound_nodes": [[["conv4_block13_concat", 0, 0, {}], ["conv4_block14_2_conv", 0, 0, {}]]], "class_name": "Concatenate", "config": {"axis": 3, "trainable": true, "name": "conv4_block14_concat"}, "name": "conv4_block14_concat"}, {"inbound_nodes": [[["conv4_block14_concat", 0, 0, {}]]], "class_name": "BatchNormalization", "config": {"momentum": 0.99, "axis": 3, "moving_variance_initializer": {"class_name": "Ones", "config": {}}, "epsilon": 1.001e-05, "scale": true, "beta_regularizer": null, "trainable": true, "name": "conv4_block15_0_bn", "moving_mean_initializer": {"class_name": "Zeros", "config": {}}, "gamma_constraint": null, "gamma_regularizer": null, "gamma_initializer": {"class_name": "Ones", "config": {}}, "beta_initializer": {"class_name": "Zeros", "config": {}}, "center": true, "beta_constraint": null}, "name": "conv4_block15_0_bn"}, {"inbound_nodes": [[["conv4_block15_0_bn", 0, 0, {}]]], "class_name": "Activation", "config": {"activation": "relu", "trainable": true, "name": "conv4_block15_0_relu"}, "name": "conv4_block15_0_relu"}, {"inbound_nodes": [[["conv4_block15_0_relu", 0, 0, {}]]], "class_name": "Conv2D", "config": {"kernel_size": [1, 1], "kernel_regularizer": null, "kernel_constraint": null, "activation": "linear", "bias_constraint": null, "strides": [1, 1], "data_format": "channels_last", "filters": 128, "activity_regularizer": null, "trainable": true, "name": "conv4_block15_1_conv", "use_bias": false, "padding": "valid", "dilation_rate": [1, 1], "bias_regularizer": null, "kernel_initializer": {"class_name": "VarianceScaling", "config": {"seed": null, "distribution": "uniform", "scale": 1.0, "mode": "fan_avg"}}, "bias_initializer": {"class_name": "Zeros", "config": {}}}, "name": "conv4_block15_1_conv"}, {"inbound_nodes": [[["conv4_block15_1_conv", 0, 0, {}]]], "class_name": "BatchNormalization", "config": {"momentum": 0.99, "axis": 3, "moving_variance_initializer": {"class_name": "Ones", "config": {}}, "epsilon": 1.001e-05, "scale": true, "beta_regularizer": null, "trainable": true, "name": "conv4_block15_1_bn", "moving_mean_initializer": {"class_name": "Zeros", "config": {}}, "gamma_constraint": null, "gamma_regularizer": null, "gamma_initializer": {"class_name": "Ones", "config": {}}, "beta_initializer": {"class_name": "Zeros", "config": {}}, "center": true, "beta_constraint": null}, "name": "conv4_block15_1_bn"}, {"inbound_nodes": [[["conv4_block15_1_bn", 0, 0, {}]]], "class_name": "Activation", "config": {"activation": "relu", "trainable": true, "name": "conv4_block15_1_relu"}, "name": "conv4_block15_1_relu"}, {"inbound_nodes": [[["conv4_block15_1_relu", 0, 0, {}]]], "class_name": "Conv2D", "config": {"kernel_size": [3, 3], "kernel_regularizer": null, "kernel_constraint": null, "activation": "linear", "bias_constraint": null, "strides": [1, 1], "data_format": "channels_last", "filters": 32, "activity_regularizer": null, "trainable": true, "name": "conv4_block15_2_conv", "use_bias": false, "padding": "same", "dilation_rate": [1, 1], "bias_regularizer": null, "kernel_initializer": {"class_name": "VarianceScaling", "config": {"seed": null, "distribution": "uniform", "scale": 1.0, "mode": "fan_avg"}}, "bias_initializer": {"class_name": "Zeros", "config": {}}}, "name": "conv4_block15_2_conv"}, {"inbound_nodes": [[["conv4_block14_concat", 0, 0, {}], ["conv4_block15_2_conv", 0, 0, {}]]], "class_name": "Concatenate", "config": {"axis": 3, "trainable": true, "name": "conv4_block15_concat"}, "name": "conv4_block15_concat"}, {"inbound_nodes": [[["conv4_block15_concat", 0, 0, {}]]], "class_name": "BatchNormalization", "config": {"momentum": 0.99, "axis": 3, "moving_variance_initializer": {"class_name": "Ones", "config": {}}, "epsilon": 1.001e-05, "scale": true, "beta_regularizer": null, "trainable": true, "name": "conv4_block16_0_bn", "moving_mean_initializer": {"class_name": "Zeros", "config": {}}, "gamma_constraint": null, "gamma_regularizer": null, "gamma_initializer": {"class_name": "Ones", "config": {}}, "beta_initializer": {"class_name": "Zeros", "config": {}}, "center": true, "beta_constraint": null}, "name": "conv4_block16_0_bn"}, {"inbound_nodes": [[["conv4_block16_0_bn", 0, 0, {}]]], "class_name": "Activation", "config": {"activation": "relu", "trainable": true, "name": "conv4_block16_0_relu"}, "name": "conv4_block16_0_relu"}, {"inbound_nodes": [[["conv4_block16_0_relu", 0, 0, {}]]], "class_name": "Conv2D", "config": {"kernel_size": [1, 1], "kernel_regularizer": null, "kernel_constraint": null, "activation": "linear", "bias_constraint": null, "strides": [1, 1], "data_format": "channels_last", "filters": 128, "activity_regularizer": null, "trainable": true, "name": "conv4_block16_1_conv", "use_bias": false, "padding": "valid", "dilation_rate": [1, 1], "bias_regularizer": null, "kernel_initializer": {"class_name": "VarianceScaling", "config": {"seed": null, "distribution": "uniform", "scale": 1.0, "mode": "fan_avg"}}, "bias_initializer": {"class_name": "Zeros", "config": {}}}, "name": "conv4_block16_1_conv"}, {"inbound_nodes": [[["conv4_block16_1_conv", 0, 0, {}]]], "class_name": "BatchNormalization", "config": {"momentum": 0.99, "axis": 3, "moving_variance_initializer": {"class_name": "Ones", "config": {}}, "epsilon": 1.001e-05, "scale": true, "beta_regularizer": null, "trainable": true, "name": "conv4_block16_1_bn", "moving_mean_initializer": {"class_name": "Zeros", "config": {}}, "gamma_constraint": null, "gamma_regularizer": null, "gamma_initializer": {"class_name": "Ones", "config": {}}, "beta_initializer": {"class_name": "Zeros", "config": {}}, "center": true, "beta_constraint": null}, "name": "conv4_block16_1_bn"}, {"inbound_nodes": [[["conv4_block16_1_bn", 0, 0, {}]]], "class_name": "Activation", "config": {"activation": "relu", "trainable": true, "name": "conv4_block16_1_relu"}, "name": "conv4_block16_1_relu"}, {"inbound_nodes": [[["conv4_block16_1_relu", 0, 0, {}]]], "class_name": "Conv2D", "config": {"kernel_size": [3, 3], "kernel_regularizer": null, "kernel_constraint": null, "activation": "linear", "bias_constraint": null, "strides": [1, 1], "data_format": "channels_last", "filters": 32, "activity_regularizer": null, "trainable": true, "name": "conv4_block16_2_conv", "use_bias": false, "padding": "same", "dilation_rate": [1, 1], "bias_regularizer": null, "kernel_initializer": {"class_name": "VarianceScaling", "config": {"seed": null, "distribution": "uniform", "scale": 1.0, "mode": "fan_avg"}}, "bias_initializer": {"class_name": "Zeros", "config": {}}}, "name": "conv4_block16_2_conv"}, {"inbound_nodes": [[["conv4_block15_concat", 0, 0, {}], ["conv4_block16_2_conv", 0, 0, {}]]], "class_name": "Concatenate", "config": {"axis": 3, "trainable": true, "name": "conv4_block16_concat"}, "name": "conv4_block16_concat"}, {"inbound_nodes": [[["conv4_block16_concat", 0, 0, {}]]], "class_name": "BatchNormalization", "config": {"momentum": 0.99, "axis": 3, "moving_variance_initializer": {"class_name": "Ones", "config": {}}, "epsilon": 1.001e-05, "scale": true, "beta_regularizer": null, "trainable": true, "name": "conv4_block17_0_bn", "moving_mean_initializer": {"class_name": "Zeros", "config": {}}, "gamma_constraint": null, "gamma_regularizer": null, "gamma_initializer": {"class_name": "Ones", "config": {}}, "beta_initializer": {"class_name": "Zeros", "config": {}}, "center": true, "beta_constraint": null}, "name": "conv4_block17_0_bn"}, {"inbound_nodes": [[["conv4_block17_0_bn", 0, 0, {}]]], "class_name": "Activation", "config": {"activation": "relu", "trainable": true, "name": "conv4_block17_0_relu"}, "name": "conv4_block17_0_relu"}, {"inbound_nodes": [[["conv4_block17_0_relu", 0, 0, {}]]], "class_name": "Conv2D", "config": {"kernel_size": [1, 1], "kernel_regularizer": null, "kernel_constraint": null, "activation": "linear", "bias_constraint": null, "strides": [1, 1], "data_format": "channels_last", "filters": 128, "activity_regularizer": null, "trainable": true, "name": "conv4_block17_1_conv", "use_bias": false, "padding": "valid", "dilation_rate": [1, 1], "bias_regularizer": null, "kernel_initializer": {"class_name": "VarianceScaling", "config": {"seed": null, "distribution": "uniform", "scale": 1.0, "mode": "fan_avg"}}, "bias_initializer": {"class_name": "Zeros", "config": {}}}, "name": "conv4_block17_1_conv"}, {"inbound_nodes": [[["conv4_block17_1_conv", 0, 0, {}]]], "class_name": "BatchNormalization", "config": {"momentum": 0.99, "axis": 3, "moving_variance_initializer": {"class_name": "Ones", "config": {}}, "epsilon": 1.001e-05, "scale": true, "beta_regularizer": null, "trainable": true, "name": "conv4_block17_1_bn", "moving_mean_initializer": {"class_name": "Zeros", "config": {}}, "gamma_constraint": null, "gamma_regularizer": null, "gamma_initializer": {"class_name": "Ones", "config": {}}, "beta_initializer": {"class_name": "Zeros", "config": {}}, "center": true, "beta_constraint": null}, "name": "conv4_block17_1_bn"}, {"inbound_nodes": [[["conv4_block17_1_bn", 0, 0, {}]]], "class_name": "Activation", "config": {"activation": "relu", "trainable": true, "name": "conv4_block17_1_relu"}, "name": "conv4_block17_1_relu"}, {"inbound_nodes": [[["conv4_block17_1_relu", 0, 0, {}]]], "class_name": "Conv2D", "config": {"kernel_size": [3, 3], "kernel_regularizer": null, "kernel_constraint": null, "activation": "linear", "bias_constraint": null, "strides": [1, 1], "data_format": "channels_last", "filters": 32, "activity_regularizer": null, "trainable": true, "name": "conv4_block17_2_conv", "use_bias": false, "padding": "same", "dilation_rate": [1, 1], "bias_regularizer": null, "kernel_initializer": {"class_name": "VarianceScaling", "config": {"seed": null, "distribution": "uniform", "scale": 1.0, "mode": "fan_avg"}}, "bias_initializer": {"class_name": "Zeros", "config": {}}}, "name": "conv4_block17_2_conv"}, {"inbound_nodes": [[["conv4_block16_concat", 0, 0, {}], ["conv4_block17_2_conv", 0, 0, {}]]], "class_name": "Concatenate", "config": {"axis": 3, "trainable": true, "name": "conv4_block17_concat"}, "name": "conv4_block17_concat"}, {"inbound_nodes": [[["conv4_block17_concat", 0, 0, {}]]], "class_name": "BatchNormalization", "config": {"momentum": 0.99, "axis": 3, "moving_variance_initializer": {"class_name": "Ones", "config": {}}, "epsilon": 1.001e-05, "scale": true, "beta_regularizer": null, "trainable": true, "name": "conv4_block18_0_bn", "moving_mean_initializer": {"class_name": "Zeros", "config": {}}, "gamma_constraint": null, "gamma_regularizer": null, "gamma_initializer": {"class_name": "Ones", "config": {}}, "beta_initializer": {"class_name": "Zeros", "config": {}}, "center": true, "beta_constraint": null}, "name": "conv4_block18_0_bn"}, {"inbound_nodes": [[["conv4_block18_0_bn", 0, 0, {}]]], "class_name": "Activation", "config": {"activation": "relu", "trainable": true, "name": "conv4_block18_0_relu"}, "name": "conv4_block18_0_relu"}, {"inbound_nodes": [[["conv4_block18_0_relu", 0, 0, {}]]], "class_name": "Conv2D", "config": {"kernel_size": [1, 1], "kernel_regularizer": null, "kernel_constraint": null, "activation": "linear", "bias_constraint": null, "strides": [1, 1], "data_format": "channels_last", "filters": 128, "activity_regularizer": null, "trainable": true, "name": "conv4_block18_1_conv", "use_bias": false, "padding": "valid", "dilation_rate": [1, 1], "bias_regularizer": null, "kernel_initializer": {"class_name": "VarianceScaling", "config": {"seed": null, "distribution": "uniform", "scale": 1.0, "mode": "fan_avg"}}, "bias_initializer": {"class_name": "Zeros", "config": {}}}, "name": "conv4_block18_1_conv"}, {"inbound_nodes": [[["conv4_block18_1_conv", 0, 0, {}]]], "class_name": "BatchNormalization", "config": {"momentum": 0.99, "axis": 3, "moving_variance_initializer": {"class_name": "Ones", "config": {}}, "epsilon": 1.001e-05, "scale": true, "beta_regularizer": null, "trainable": true, "name": "conv4_block18_1_bn", "moving_mean_initializer": {"class_name": "Zeros", "config": {}}, "gamma_constraint": null, "gamma_regularizer": null, "gamma_initializer": {"class_name": "Ones", "config": {}}, "beta_initializer": {"class_name": "Zeros", "config": {}}, "center": true, "beta_constraint": null}, "name": "conv4_block18_1_bn"}, {"inbound_nodes": [[["conv4_block18_1_bn", 0, 0, {}]]], "class_name": "Activation", "config": {"activation": "relu", "trainable": true, "name": "conv4_block18_1_relu"}, "name": "conv4_block18_1_relu"}, {"inbound_nodes": [[["conv4_block18_1_relu", 0, 0, {}]]], "class_name": "Conv2D", "config": {"kernel_size": [3, 3], "kernel_regularizer": null, "kernel_constraint": null, "activation": "linear", "bias_constraint": null, "strides": [1, 1], "data_format": "channels_last", "filters": 32, "activity_regularizer": null, "trainable": true, "name": "conv4_block18_2_conv", "use_bias": false, "padding": "same", "dilation_rate": [1, 1], "bias_regularizer": null, "kernel_initializer": {"class_name": "VarianceScaling", "config": {"seed": null, "distribution": "uniform", "scale": 1.0, "mode": "fan_avg"}}, "bias_initializer": {"class_name": "Zeros", "config": {}}}, "name": "conv4_block18_2_conv"}, {"inbound_nodes": [[["conv4_block17_concat", 0, 0, {}], ["conv4_block18_2_conv", 0, 0, {}]]], "class_name": "Concatenate", "config": {"axis": 3, "trainable": true, "name": "conv4_block18_concat"}, "name": "conv4_block18_concat"}, {"inbound_nodes": [[["conv4_block18_concat", 0, 0, {}]]], "class_name": "BatchNormalization", "config": {"momentum": 0.99, "axis": 3, "moving_variance_initializer": {"class_name": "Ones", "config": {}}, "epsilon": 1.001e-05, "scale": true, "beta_regularizer": null, "trainable": true, "name": "conv4_block19_0_bn", "moving_mean_initializer": {"class_name": "Zeros", "config": {}}, "gamma_constraint": null, "gamma_regularizer": null, "gamma_initializer": {"class_name": "Ones", "config": {}}, "beta_initializer": {"class_name": "Zeros", "config": {}}, "center": true, "beta_constraint": null}, "name": "conv4_block19_0_bn"}, {"inbound_nodes": [[["conv4_block19_0_bn", 0, 0, {}]]], "class_name": "Activation", "config": {"activation": "relu", "trainable": true, "name": "conv4_block19_0_relu"}, "name": "conv4_block19_0_relu"}, {"inbound_nodes": [[["conv4_block19_0_relu", 0, 0, {}]]], "class_name": "Conv2D", "config": {"kernel_size": [1, 1], "kernel_regularizer": null, "kernel_constraint": null, "activation": "linear", "bias_constraint": null, "strides": [1, 1], "data_format": "channels_last", "filters": 128, "activity_regularizer": null, "trainable": true, "name": "conv4_block19_1_conv", "use_bias": false, "padding": "valid", "dilation_rate": [1, 1], "bias_regularizer": null, "kernel_initializer": {"class_name": "VarianceScaling", "config": {"seed": null, "distribution": "uniform", "scale": 1.0, "mode": "fan_avg"}}, "bias_initializer": {"class_name": "Zeros", "config": {}}}, "name": "conv4_block19_1_conv"}, {"inbound_nodes": [[["conv4_block19_1_conv", 0, 0, {}]]], "class_name": "BatchNormalization", "config": {"momentum": 0.99, "axis": 3, "moving_variance_initializer": {"class_name": "Ones", "config": {}}, "epsilon": 1.001e-05, "scale": true, "beta_regularizer": null, "trainable": true, "name": "conv4_block19_1_bn", "moving_mean_initializer": {"class_name": "Zeros", "config": {}}, "gamma_constraint": null, "gamma_regularizer": null, "gamma_initializer": {"class_name": "Ones", "config": {}}, "beta_initializer": {"class_name": "Zeros", "config": {}}, "center": true, "beta_constraint": null}, "name": "conv4_block19_1_bn"}, {"inbound_nodes": [[["conv4_block19_1_bn", 0, 0, {}]]], "class_name": "Activation", "config": {"activation": "relu", "trainable": true, "name": "conv4_block19_1_relu"}, "name": "conv4_block19_1_relu"}, {"inbound_nodes": [[["conv4_block19_1_relu", 0, 0, {}]]], "class_name": "Conv2D", "config": {"kernel_size": [3, 3], "kernel_regularizer": null, "kernel_constraint": null, "activation": "linear", "bias_constraint": null, "strides": [1, 1], "data_format": "channels_last", "filters": 32, "activity_regularizer": null, "trainable": true, "name": "conv4_block19_2_conv", "use_bias": false, "padding": "same", "dilation_rate": [1, 1], "bias_regularizer": null, "kernel_initializer": {"class_name": "VarianceScaling", "config": {"seed": null, "distribution": "uniform", "scale": 1.0, "mode": "fan_avg"}}, "bias_initializer": {"class_name": "Zeros", "config": {}}}, "name": "conv4_block19_2_conv"}, {"inbound_nodes": [[["conv4_block18_concat", 0, 0, {}], ["conv4_block19_2_conv", 0, 0, {}]]], "class_name": "Concatenate", "config": {"axis": 3, "trainable": true, "name": "conv4_block19_concat"}, "name": "conv4_block19_concat"}, {"inbound_nodes": [[["conv4_block19_concat", 0, 0, {}]]], "class_name": "BatchNormalization", "config": {"momentum": 0.99, "axis": 3, "moving_variance_initializer": {"class_name": "Ones", "config": {}}, "epsilon": 1.001e-05, "scale": true, "beta_regularizer": null, "trainable": true, "name": "conv4_block20_0_bn", "moving_mean_initializer": {"class_name": "Zeros", "config": {}}, "gamma_constraint": null, "gamma_regularizer": null, "gamma_initializer": {"class_name": "Ones", "config": {}}, "beta_initializer": {"class_name": "Zeros", "config": {}}, "center": true, "beta_constraint": null}, "name": "conv4_block20_0_bn"}, {"inbound_nodes": [[["conv4_block20_0_bn", 0, 0, {}]]], "class_name": "Activation", "config": {"activation": "relu", "trainable": true, "name": "conv4_block20_0_relu"}, "name": "conv4_block20_0_relu"}, {"inbound_nodes": [[["conv4_block20_0_relu", 0, 0, {}]]], "class_name": "Conv2D", "config": {"kernel_size": [1, 1], "kernel_regularizer": null, "kernel_constraint": null, "activation": "linear", "bias_constraint": null, "strides": [1, 1], "data_format": "channels_last", "filters": 128, "activity_regularizer": null, "trainable": true, "name": "conv4_block20_1_conv", "use_bias": false, "padding": "valid", "dilation_rate": [1, 1], "bias_regularizer": null, "kernel_initializer": {"class_name": "VarianceScaling", "config": {"seed": null, "distribution": "uniform", "scale": 1.0, "mode": "fan_avg"}}, "bias_initializer": {"class_name": "Zeros", "config": {}}}, "name": "conv4_block20_1_conv"}, {"inbound_nodes": [[["conv4_block20_1_conv", 0, 0, {}]]], "class_name": "BatchNormalization", "config": {"momentum": 0.99, "axis": 3, "moving_variance_initializer": {"class_name": "Ones", "config": {}}, "epsilon": 1.001e-05, "scale": true, "beta_regularizer": null, "trainable": true, "name": "conv4_block20_1_bn", "moving_mean_initializer": {"class_name": "Zeros", "config": {}}, "gamma_constraint": null, "gamma_regularizer": null, "gamma_initializer": {"class_name": "Ones", "config": {}}, "beta_initializer": {"class_name": "Zeros", "config": {}}, "center": true, "beta_constraint": null}, "name": "conv4_block20_1_bn"}, {"inbound_nodes": [[["conv4_block20_1_bn", 0, 0, {}]]], "class_name": "Activation", "config": {"activation": "relu", "trainable": true, "name": "conv4_block20_1_relu"}, "name": "conv4_block20_1_relu"}, {"inbound_nodes": [[["conv4_block20_1_relu", 0, 0, {}]]], "class_name": "Conv2D", "config": {"kernel_size": [3, 3], "kernel_regularizer": null, "kernel_constraint": null, "activation": "linear", "bias_constraint": null, "strides": [1, 1], "data_format": "channels_last", "filters": 32, "activity_regularizer": null, "trainable": true, "name": "conv4_block20_2_conv", "use_bias": false, "padding": "same", "dilation_rate": [1, 1], "bias_regularizer": null, "kernel_initializer": {"class_name": "VarianceScaling", "config": {"seed": null, "distribution": "uniform", "scale": 1.0, "mode": "fan_avg"}}, "bias_initializer": {"class_name": "Zeros", "config": {}}}, "name": "conv4_block20_2_conv"}, {"inbound_nodes": [[["conv4_block19_concat", 0, 0, {}], ["conv4_block20_2_conv", 0, 0, {}]]], "class_name": "Concatenate", "config": {"axis": 3, "trainable": true, "name": "conv4_block20_concat"}, "name": "conv4_block20_concat"}, {"inbound_nodes": [[["conv4_block20_concat", 0, 0, {}]]], "class_name": "BatchNormalization", "config": {"momentum": 0.99, "axis": 3, "moving_variance_initializer": {"class_name": "Ones", "config": {}}, "epsilon": 1.001e-05, "scale": true, "beta_regularizer": null, "trainable": true, "name": "conv4_block21_0_bn", "moving_mean_initializer": {"class_name": "Zeros", "config": {}}, "gamma_constraint": null, "gamma_regularizer": null, "gamma_initializer": {"class_name": "Ones", "config": {}}, "beta_initializer": {"class_name": "Zeros", "config": {}}, "center": true, "beta_constraint": null}, "name": "conv4_block21_0_bn"}, {"inbound_nodes": [[["conv4_block21_0_bn", 0, 0, {}]]], "class_name": "Activation", "config": {"activation": "relu", "trainable": true, "name": "conv4_block21_0_relu"}, "name": "conv4_block21_0_relu"}, {"inbound_nodes": [[["conv4_block21_0_relu", 0, 0, {}]]], "class_name": "Conv2D", "config": {"kernel_size": [1, 1], "kernel_regularizer": null, "kernel_constraint": null, "activation": "linear", "bias_constraint": null, "strides": [1, 1], "data_format": "channels_last", "filters": 128, "activity_regularizer": null, "trainable": true, "name": "conv4_block21_1_conv", "use_bias": false, "padding": "valid", "dilation_rate": [1, 1], "bias_regularizer": null, "kernel_initializer": {"class_name": "VarianceScaling", "config": {"seed": null, "distribution": "uniform", "scale": 1.0, "mode": "fan_avg"}}, "bias_initializer": {"class_name": "Zeros", "config": {}}}, "name": "conv4_block21_1_conv"}, {"inbound_nodes": [[["conv4_block21_1_conv", 0, 0, {}]]], "class_name": "BatchNormalization", "config": {"momentum": 0.99, "axis": 3, "moving_variance_initializer": {"class_name": "Ones", "config": {}}, "epsilon": 1.001e-05, "scale": true, "beta_regularizer": null, "trainable": true, "name": "conv4_block21_1_bn", "moving_mean_initializer": {"class_name": "Zeros", "config": {}}, "gamma_constraint": null, "gamma_regularizer": null, "gamma_initializer": {"class_name": "Ones", "config": {}}, "beta_initializer": {"class_name": "Zeros", "config": {}}, "center": true, "beta_constraint": null}, "name": "conv4_block21_1_bn"}, {"inbound_nodes": [[["conv4_block21_1_bn", 0, 0, {}]]], "class_name": "Activation", "config": {"activation": "relu", "trainable": true, "name": "conv4_block21_1_relu"}, "name": "conv4_block21_1_relu"}, {"inbound_nodes": [[["conv4_block21_1_relu", 0, 0, {}]]], "class_name": "Conv2D", "config": {"kernel_size": [3, 3], "kernel_regularizer": null, "kernel_constraint": null, "activation": "linear", "bias_constraint": null, "strides": [1, 1], "data_format": "channels_last", "filters": 32, "activity_regularizer": null, "trainable": true, "name": "conv4_block21_2_conv", "use_bias": false, "padding": "same", "dilation_rate": [1, 1], "bias_regularizer": null, "kernel_initializer": {"class_name": "VarianceScaling", "config": {"seed": null, "distribution": "uniform", "scale": 1.0, "mode": "fan_avg"}}, "bias_initializer": {"class_name": "Zeros", "config": {}}}, "name": "conv4_block21_2_conv"}, {"inbound_nodes": [[["conv4_block20_concat", 0, 0, {}], ["conv4_block21_2_conv", 0, 0, {}]]], "class_name": "Concatenate", "config": {"axis": 3, "trainable": true, "name": "conv4_block21_concat"}, "name": "conv4_block21_concat"}, {"inbound_nodes": [[["conv4_block21_concat", 0, 0, {}]]], "class_name": "BatchNormalization", "config": {"momentum": 0.99, "axis": 3, "moving_variance_initializer": {"class_name": "Ones", "config": {}}, "epsilon": 1.001e-05, "scale": true, "beta_regularizer": null, "trainable": true, "name": "conv4_block22_0_bn", "moving_mean_initializer": {"class_name": "Zeros", "config": {}}, "gamma_constraint": null, "gamma_regularizer": null, "gamma_initializer": {"class_name": "Ones", "config": {}}, "beta_initializer": {"class_name": "Zeros", "config": {}}, "center": true, "beta_constraint": null}, "name": "conv4_block22_0_bn"}, {"inbound_nodes": [[["conv4_block22_0_bn", 0, 0, {}]]], "class_name": "Activation", "config": {"activation": "relu", "trainable": true, "name": "conv4_block22_0_relu"}, "name": "conv4_block22_0_relu"}, {"inbound_nodes": [[["conv4_block22…
g": {}}, "beta_initializer": {"class_name": "Zeros", "config": {}}, "center": true, "beta_constraint": null}, "name": "conv5_block18_0_bn"}, {"inbound_nodes": [[["conv5_block18_0_bn", 0, 0, {}]]], "class_name": "Activation", "config": {"activation": "relu", "trainable": true, "name": "conv5_block18_0_relu"}, "name": "conv5_block18_0_relu"}, {"inbound_nodes": [[["conv5_block18_0_relu", 0, 0, {}]]], "class_name": "Conv2D", "config": {"kernel_size": [1, 1], "kernel_regularizer": null, "kernel_constraint": null, "activation": "linear", "bias_constraint": null, "strides": [1, 1], "data_format": "channels_last", "filters": 128, "activity_regularizer": null, "trainable": true, "name": "conv5_block18_1_conv", "use_bias": false, "padding": "valid", "dilation_rate": [1, 1], "bias_regularizer": null, "kernel_initializer": {"class_name": "VarianceScaling", "config": {"seed": null, "distribution": "uniform", "scale": 1.0, "mode": "fan_avg"}}, "bias_initializer": {"class_name": "Zeros", "config": {}}}, "name": "conv5_block18_1_conv"}, {"inbound_nodes": [[["conv5_block18_1_conv", 0, 0, {}]]], "class_name": "BatchNormalization", "config": {"momentum": 0.99, "axis": 3, "moving_variance_initializer": {"class_name": "Ones", "config": {}}, "epsilon": 1.001e-05, "scale": true, "beta_regularizer": null, "trainable": true, "name": "conv5_block18_1_bn", "moving_mean_initializer": {"class_name": "Zeros", "config": {}}, "gamma_constraint": null, "gamma_regularizer": null, "gamma_initializer": {"class_name": "Ones", "config": {}}, "beta_initializer": {"class_name": "Zeros", "config": {}}, "center": true, "beta_constraint": null}, "name": "conv5_block18_1_bn"}, {"inbound_nodes": [[["conv5_block18_1_bn", 0, 0, {}]]], "class_name": "Activation", "config": {"activation": "relu", "trainable": true, "name": "conv5_block18_1_relu"}, "name": "conv5_block18_1_relu"}, {"inbound_nodes": [[["conv5_block18_1_relu", 0, 0, {}]]], "class_name": "Conv2D", "config": {"kernel_size": [3, 3], "kernel_regularizer": null, "kernel_constraint": null, "activation": "linear", "bias_constraint": null, "strides": [1, 1], "data_format": "channels_last", "filters": 32, "activity_regularizer": null, "trainable": true, "name": "conv5_block18_2_conv", "use_bias": false, "padding": "same", "dilation_rate": [1, 1], "bias_regularizer": null, "kernel_initializer": {"class_name": "VarianceScaling", "config": {"seed": null, "distribution": "uniform", "scale": 1.0, "mode": "fan_avg"}}, "bias_initializer": {"class_name": "Zeros", "config": {}}}, "name": "conv5_block18_2_conv"}, {"inbound_nodes": [[["conv5_block17_concat", 0, 0, {}], ["conv5_block18_2_conv", 0, 0, {}]]], "class_name": "Concatenate", "config": {"axis": 3, "trainable": true, "name": "conv5_block18_concat"}, "name": "conv5_block18_concat"}, {"inbound_nodes": [[["conv5_block18_concat", 0, 0, {}]]], "class_name": "BatchNormalization", "config": {"momentum": 0.99, "axis": 3, "moving_variance_initializer": {"class_name": "Ones", "config": {}}, "epsilon": 1.001e-05, "scale": true, "beta_regularizer": null, "trainable": true, "name": "conv5_block19_0_bn", "moving_mean_initializer": {"class_name": "Zeros", "config": {}}, "gamma_constraint": null, "gamma_regularizer": null, "gamma_initializer": {"class_name": "Ones", "config": {}}, "beta_initializer": {"class_name": "Zeros", "config": {}}, "center": true, "beta_constraint": null}, "name": "conv5_block19_0_bn"}, {"inbound_nodes": [[["conv5_block19_0_bn", 0, 0, {}]]], "class_name": "Activation", "config": {"activation": "relu", "trainable": true, "name": "conv5_block19_0_relu"}, "name": "conv5_block19_0_relu"}, {"inbound_nodes": [[["conv5_block19_0_relu", 0, 0, {}]]], "class_name": "Conv2D", "config": {"kernel_size": [1, 1], "kernel_regularizer": null, "kernel_constraint": null, "activation": "linear", "bias_constraint": null, "strides": [1, 1], "data_format": "channels_last", "filters": 128, "activity_regularizer": null, "trainable": true, "name": "conv5_block19_1_conv", "use_bias": false, "padding": "valid", "dilation_rate": [1, 1], "bias_regularizer": null, "kernel_initializer": {"class_name": "VarianceScaling", "config": {"seed": null, "distribution": "uniform", "scale": 1.0, "mode": "fan_avg"}}, "bias_initializer": {"class_name": "Zeros", "config": {}}}, "name": "conv5_block19_1_conv"}, {"inbound_nodes": [[["conv5_block19_1_conv", 0, 0, {}]]], "class_name": "BatchNormalization", "config": {"momentum": 0.99, "axis": 3, "moving_variance_initializer": {"class_name": "Ones", "config": {}}, "epsilon": 1.001e-05, "scale": true, "beta_regularizer": null, "trainable": true, "name": "conv5_block19_1_bn", "moving_mean_initializer": {"class_name": "Zeros", "config": {}}, "gamma_constraint": null, "gamma_regularizer": null, "gamma_initializer": {"class_name": "Ones", "config": {}}, "beta_initializer": {"class_name": "Zeros", "config": {}}, "center": true, "beta_constraint": null}, "name": "conv5_block19_1_bn"}, {"inbound_nodes": [[["conv5_block19_1_bn", 0, 0, {}]]], "class_name": "Activation", "config": {"activation": "relu", "trainable": true, "name": "conv5_block19_1_relu"}, "name": "conv5_block19_1_relu"}, {"inbound_nodes": [[["conv5_block19_1_relu", 0, 0, {}]]], "class_name": "Conv2D", "config": {"kernel_size": [3, 3], "kernel_regularizer": null, "kernel_constraint": null, "activation": "linear", "bias_constraint": null, "strides": [1, 1], "data_format": "channels_last", "filters": 32, "activity_regularizer": null, "trainable": true, "name": "conv5_block19_2_conv", "use_bias": false, "padding": "same", "dilation_rate": [1, 1], "bias_regularizer": null, "kernel_initializer": {"class_name": "VarianceScaling", "config": {"seed": null, "distribution": "uniform", "scale": 1.0, "mode": "fan_avg"}}, "bias_initializer": {"class_name": "Zeros", "config": {}}}, "name": "conv5_block19_2_conv"}, {"inbound_nodes": [[["conv5_block18_concat", 0, 0, {}], ["conv5_block19_2_conv", 0, 0, {}]]], "class_name": "Concatenate", "config": {"axis": 3, "trainable": true, "name": "conv5_block19_concat"}, "name": "conv5_block19_concat"}, {"inbound_nodes": [[["conv5_block19_concat", 0, 0, {}]]], "class_name": "BatchNormalization", "config": {"momentum": 0.99, "axis": 3, "moving_variance_initializer": {"class_name": "Ones", "config": {}}, "epsilon": 1.001e-05, "scale": true, "beta_regularizer": null, "trainable": true, "name": "conv5_block20_0_bn", "moving_mean_initializer": {"class_name": "Zeros", "config": {}}, "gamma_constraint": null, "gamma_regularizer": null, "gamma_initializer": {"class_name": "Ones", "config": {}}, "beta_initializer": {"class_name": "Zeros", "config": {}}, "center": true, "beta_constraint": null}, "name": "conv5_block20_0_bn"}, {"inbound_nodes": [[["conv5_block20_0_bn", 0, 0, {}]]], "class_name": "Activation", "config": {"activation": "relu", "trainable": true, "name": "conv5_block20_0_relu"}, "name": "conv5_block20_0_relu"}, {"inbound_nodes": [[["conv5_block20_0_relu", 0, 0, {}]]], "class_name": "Conv2D", "config": {"kernel_size": [1, 1], "kernel_regularizer": null, "kernel_constraint": null, "activation": "linear", "bias_constraint": null, "strides": [1, 1], "data_format": "channels_last", "filters": 128, "activity_regularizer": null, "trainable": true, "name": "conv5_block20_1_conv", "use_bias": false, "padding": "valid", "dilation_rate": [1, 1], "bias_regularizer": null, "kernel_initializer": {"class_name": "VarianceScaling", "config": {"seed": null, "distribution": "uniform", "scale": 1.0, "mode": "fan_avg"}}, "bias_initializer": {"class_name": "Zeros", "config": {}}}, "name": "conv5_block20_1_conv"}, {"inbound_nodes": [[["conv5_block20_1_conv", 0, 0, {}]]], "class_name": "BatchNormalization", "config": {"momentum": 0.99, "axis": 3, "moving_variance_initializer": {"class_name": "Ones", "config": {}}, "epsilon": 1.001e-05, "scale": true, "beta_regularizer": null, "trainable": true, "name": "conv5_block20_1_bn", "moving_mean_initializer": {"class_name": "Zeros", "config": {}}, "gamma_constraint": null, "gamma_regularizer": null, "gamma_initializer": {"class_name": "Ones", "config": {}}, "beta_initializer": {"class_name": "Zeros", "config": {}}, "center": true, "beta_constraint": null}, "name": "conv5_block20_1_bn"}, {"inbound_nodes": [[["conv5_block20_1_bn", 0, 0, {}]]], "class_name": "Activation", "config": {"activation": "relu", "trainable": true, "name": "conv5_block20_1_relu"}, "name": "conv5_block20_1_relu"}, {"inbound_nodes": [[["conv5_block20_1_relu", 0, 0, {}]]], "class_name": "Conv2D", "config": {"kernel_size": [3, 3], "kernel_regularizer": null, "kernel_constraint": null, "activation": "linear", "bias_constraint": null, "strides": [1, 1], "data_format": "channels_last", "filters": 32, "activity_regularizer": null, "trainable": true, "name": "conv5_block20_2_conv", "use_bias": false, "padding": "same", "dilation_rate": [1, 1], "bias_regularizer": null, "kernel_initializer": {"class_name": "VarianceScaling", "config": {"seed": null, "distribution": "uniform", "scale": 1.0, "mode": "fan_avg"}}, "bias_initializer": {"class_name": "Zeros", "config": {}}}, "name": "conv5_block20_2_conv"}, {"inbound_nodes": [[["conv5_block19_concat", 0, 0, {}], ["conv5_block20_2_conv", 0, 0, {}]]], "class_name": "Concatenate", "config": {"axis": 3, "trainable": true, "name": "conv5_block20_concat"}, "name": "conv5_block20_concat"}, {"inbound_nodes": [[["conv5_block20_concat", 0, 0, {}]]], "class_name": "BatchNormalization", "config": {"momentum": 0.99, "axis": 3, "moving_variance_initializer": {"class_name": "Ones", "config": {}}, "epsilon": 1.001e-05, "scale": true, "beta_regularizer": null, "trainable": true, "name": "conv5_block21_0_bn", "moving_mean_initializer": {"class_name": "Zeros", "config": {}}, "gamma_constraint": null, "gamma_regularizer": null, "gamma_initializer": {"class_name": "Ones", "config": {}}, "beta_initializer": {"class_name": "Zeros", "config": {}}, "center": true, "beta_constraint": null}, "name": "conv5_block21_0_bn"}, {"inbound_nodes": [[["conv5_block21_0_bn", 0, 0, {}]]], "class_name": "Activation", "config": {"activation": "relu", "trainable": true, "name": "conv5_block21_0_relu"}, "name": "conv5_block21_0_relu"}, {"inbound_nodes": [[["conv5_block21_0_relu", 0, 0, {}]]], "class_name": "Conv2D", "config": {"kernel_size": [1, 1], "kernel_regularizer": null, "kernel_constraint": null, "activation": "linear", "bias_constraint": null, "strides": [1, 1], "data_format": "channels_last", "filters": 128, "activity_regularizer": null, "trainable": true, "name": "conv5_block21_1_conv", "use_bias": false, "padding": "valid", "dilation_rate": [1, 1], "bias_regularizer": null, "kernel_initializer": {"class_name": "VarianceScaling", "config": {"seed": null, "distribution": "uniform", "scale": 1.0, "mode": "fan_avg"}}, "bias_initializer": {"class_name": "Zeros", "config": {}}}, "name": "conv5_block21_1_conv"}, {"inbound_nodes": [[["conv5_block21_1_conv", 0, 0, {}]]], "class_name": "BatchNormalization", "config": {"momentum": 0.99, "axis": 3, "moving_variance_initializer": {"class_name": "Ones", "config": {}}, "epsilon": 1.001e-05, "scale": true, "beta_regularizer": null, "trainable": true, "name": "conv5_block21_1_bn", "moving_mean_initializer": {"class_name": "Zeros", "config": {}}, "gamma_constraint": null, "gamma_regularizer": null, "gamma_initializer": {"class_name": "Ones", "config": {}}, "beta_initializer": {"class_name": "Zeros", "config": {}}, "center": true, "beta_constraint": null}, "name": "conv5_block21_1_bn"}, {"inbound_nodes": [[["conv5_block21_1_bn", 0, 0, {}]]], "class_name": "Activation", "config": {"activation": "relu", "trainable": true, "name": "conv5_block21_1_relu"}, "name": "conv5_block21_1_relu"}, {"inbound_nodes": [[["conv5_block21_1_relu", 0, 0, {}]]], "class_name": "Conv2D", "config": {"kernel_size": [3, 3], "kernel_regularizer": null, "kernel_constraint": null, "activation": "linear", "bias_constraint": null, "strides": [1, 1], "data_format": "channels_last", "filters": 32, "activity_regularizer": null, "trainable": true, "name": "conv5_block21_2_conv", "use_bias": false, "padding": "same", "dilation_rate": [1, 1], "bias_regularizer": null, "kernel_initializer": {"class_name": "VarianceScaling", "config": {"seed": null, "distribution": "uniform", "scale": 1.0, "mode": "fan_avg"}}, "bias_initializer": {"class_name": "Zeros", "config": {}}}, "name": "conv5_block21_2_conv"}, {"inbound_nodes": [[["conv5_block20_concat", 0, 0, {}], ["conv5_block21_2_conv", 0, 0, {}]]], "class_name": "Concatenate", "config": {"axis": 3, "trainable": true, "name": "conv5_block21_concat"}, "name": "conv5_block21_concat"}, {"inbound_nodes": [[["conv5_block21_concat", 0, 0, {}]]], "class_name": "BatchNormalization", "config": {"momentum": 0.99, "axis": 3, "moving_variance_initializer": {"class_name": "Ones", "config": {}}, "epsilon": 1.001e-05, "scale": true, "beta_regularizer": null, "trainable": true, "name": "conv5_block22_0_bn", "moving_mean_initializer": {"class_name": "Zeros", "config": {}}, "gamma_constraint": null, "gamma_regularizer": null, "gamma_initializer": {"class_name": "Ones", "config": {}}, "beta_initializer": {"class_name": "Zeros", "config": {}}, "center": true, "beta_constraint": null}, "name": "conv5_block22_0_bn"}, {"inbound_nodes": [[["conv5_block22_0_bn", 0, 0, {}]]], "class_name": "Activation", "config": {"activation": "relu", "trainable": true, "name": "conv5_block22_0_relu"}, "name": "conv5_block22_0_relu"}, {"inbound_nodes": [[["conv5_block22_0_relu", 0, 0, {}]]], "class_name": "Conv2D", "config": {"kernel_size": [1, 1], "kernel_regularizer": null, "kernel_constraint": null, "activation": "linear", "bias_constraint": null, "strides": [1, 1], "data_format": "channels_last", "filters": 128, "activity_regularizer": null, "trainable": true, "name": "conv5_block22_1_conv", "use_bias": false, "padding": "valid", "dilation_rate": [1, 1], "bias_regularizer": null, "kernel_initializer": {"class_name": "VarianceScaling", "config": {"seed": null, "distribution": "uniform", "scale": 1.0, "mode": "fan_avg"}}, "bias_initializer": {"class_name": "Zeros", "config": {}}}, "name": "conv5_block22_1_conv"}, {"inbound_nodes": [[["conv5_block22_1_conv", 0, 0, {}]]], "class_name": "BatchNormalization", "config": {"momentum": 0.99, "axis": 3, "moving_variance_initializer": {"class_name": "Ones", "config": {}}, "epsilon": 1.001e-05, "scale": true, "beta_regularizer": null, "trainable": true, "name": "conv5_block22_1_bn", "moving_mean_initializer": {"class_name": "Zeros", "config": {}}, "gamma_constraint": null, "gamma_regularizer": null, "gamma_initializer": {"class_name": "Ones", "config": {}}, "beta_initializer": {"class_name": "Zeros", "config": {}}, "center": true, "beta_constraint": null}, "name": "conv5_block22_1_bn"}, {"inbound_nodes": [[["conv5_block22_1_bn", 0, 0, {}]]], "class_name": "Activation", "config": {"activation": "relu", "trainable": true, "name": "conv5_block22_1_relu"}, "name": "conv5_block22_1_relu"}, {"inbound_nodes": [[["conv5_block22_1_relu", 0, 0, {}]]], "class_name": "Conv2D", "config": {"kernel_size": [3, 3], "kernel_regularizer": null, "kernel_constraint": null, "activation": "linear", "bias_constraint": null, "strides": [1, 1], "data_format": "channels_last", "filters": 32, "activity_regularizer": null, "trainable": true, "name": "conv5_block22_2_conv", "use_bias": false, "padding": "same", "dilation_rate": [1, 1], "bias_regularizer": null, "kernel_initializer": {"class_name": "VarianceScaling", "config": {"seed": null, "distribution": "uniform", "scale": 1.0, "mode": "fan_avg"}}, "bias_initializer": {"class_name": "Zeros", "config": {}}}, "name": "conv5_block22_2_conv"}, {"inbound_nodes": [[["conv5_block21_concat", 0, 0, {}], ["conv5_block22_2_conv", 0, 0, {}]]], "class_name": "Concatenate", "config": {"axis": 3, "trainable": true, "name": "conv5_block22_concat"}, "name": "conv5_block22_concat"}, {"inbound_nodes": [[["conv5_block22_concat", 0, 0, {}]]], "class_name": "BatchNormalization", "config": {"momentum": 0.99, "axis": 3, "moving_variance_initializer": {"class_name": "Ones", "config": {}}, "epsilon": 1.001e-05, "scale": true, "beta_regularizer": null, "trainable": true, "name": "conv5_block23_0_bn", "moving_mean_initializer": {"class_name": "Zeros", "config": {}}, "gamma_constraint": null, "gamma_regularizer": null, "gamma_initializer": {"class_name": "Ones", "config": {}}, "beta_initializer": {"class_name": "Zeros", "config": {}}, "center": true, "beta_constraint": null}, "name": "conv5_block23_0_bn"}, {"inbound_nodes": [[["conv5_block23_0_bn", 0, 0, {}]]], "class_name": "Activation", "config": {"activation": "relu", "trainable": true, "name": "conv5_block23_0_relu"}, "name": "conv5_block23_0_relu"}, {"inbound_nodes": [[["conv5_block23_0_relu", 0, 0, {}]]], "class_name": "Conv2D", "config": {"kernel_size": [1, 1], "kernel_regularizer": null, "kernel_constraint": null, "activation": "linear", "bias_constraint": null, "strides": [1, 1], "data_format": "channels_last", "filters": 128, "activity_regularizer": null, "trainable": true, "name": "conv5_block23_1_conv", "use_bias": false, "padding": "valid", "dilation_rate": [1, 1], "bias_regularizer": null, "kernel_initializer": {"class_name": "VarianceScaling", "config": {"seed": null, "distribution": "uniform", "scale": 1.0, "mode": "fan_avg"}}, "bias_initializer": {"class_name": "Zeros", "config": {}}}, "name": "conv5_block23_1_conv"}, {"inbound_nodes": [[["conv5_block23_1_conv", 0, 0, {}]]], "class_name": "BatchNormalization", "config": {"momentum": 0.99, "axis": 3, "moving_variance_initializer": {"class_name": "Ones", "config": {}}, "epsilon": 1.001e-05, "scale": true, "beta_regularizer": null, "trainable": true, "name": "conv5_block23_1_bn", "moving_mean_initializer": {"class_name": "Zeros", "config": {}}, "gamma_constraint": null, "gamma_regularizer": null, "gamma_initializer": {"class_name": "Ones", "config": {}}, "beta_initializer": {"class_name": "Zeros", "config": {}}, "center": true, "beta_constraint": null}, "name": "conv5_block23_1_bn"}, {"inbound_nodes": [[["conv5_block23_1_bn", 0, 0, {}]]], "class_name": "Activation", "config": {"activation": "relu", "trainable": true, "name": "conv5_block23_1_relu"}, "name": "conv5_block23_1_relu"}, {"inbound_nodes": [[["conv5_block23_1_relu", 0, 0, {}]]], "class_name": "Conv2D", "config": {"kernel_size": [3, 3], "kernel_regularizer": null, "kernel_constraint": null, "activation": "linear", "bias_constraint": null, "strides": [1, 1], "data_format": "channels_last", "filters": 32, "activity_regularizer": null, "trainable": true, "name": "conv5_block23_2_conv", "use_bias": false, "padding": "same", "dilation_rate": [1, 1], "bias_regularizer": null, "kernel_initializer": {"class_name": "VarianceScaling", "config": {"seed": null, "distribution": "uniform", "scale": 1.0, "mode": "fan_avg"}}, "bias_initializer": {"class_name": "Zeros", "config": {}}}, "name": "conv5_block23_2_conv"}, {"inbound_nodes": [[["conv5_block22_concat", 0, 0, {}], ["conv5_block23_2_conv", 0, 0, {}]]], "class_name": "Concatenate", "config": {"axis": 3, "trainable": true, "name": "conv5_block23_concat"}, "name": "conv5_block23_concat"}, {"inbound_nodes": [[["conv5_block23_concat", 0, 0, {}]]], "class_name": "BatchNormalization", "config": {"momentum": 0.99, "axis": 3, "moving_variance_initializer": {"class_name": "Ones", "config": {}}, "epsilon": 1.001e-05, "scale": true, "beta_regularizer": null, "trainable": true, "name": "conv5_block24_0_bn", "moving_mean_initializer": {"class_name": "Zeros", "config": {}}, "gamma_constraint": null, "gamma_regularizer": null, "gamma_initializer": {"class_name": "Ones", "config": {}}, "beta_initializer": {"class_name": "Zeros", "config": {}}, "center": true, "beta_constraint": null}, "name": "conv5_block24_0_bn"}, {"inbound_nodes": [[["conv5_block24_0_bn", 0, 0, {}]]], "class_name": "Activation", "config": {"activation": "relu", "trainable": true, "name": "conv5_block24_0_relu"}, "name": "conv5_block24_0_relu"}, {"inbound_nodes": [[["conv5_block24_0_relu", 0, 0, {}]]], "class_name": "Conv2D", "config": {"kernel_size": [1, 1], "kernel_regularizer": null, "kernel_constraint": null, "activation": "linear", "bias_constraint": null, "strides": [1, 1], "data_format": "channels_last", "filters": 128, "activity_regularizer": null, "trainable": true, "name": "conv5_block24_1_conv", "use_bias": false, "padding": "valid", "dilation_rate": [1, 1], "bias_regularizer": null, "kernel_initializer": {"class_name": "VarianceScaling", "config": {"seed": null, "distribution": "uniform", "scale": 1.0, "mode": "fan_avg"}}, "bias_initializer": {"class_name": "Zeros", "config": {}}}, "name": "conv5_block24_1_conv"}, {"inbound_nodes": [[["conv5_block24_1_conv", 0, 0, {}]]], "class_name": "BatchNormalization", "config": {"momentum": 0.99, "axis": 3, "moving_variance_initializer": {"class_name": "Ones", "config": {}}, "epsilon": 1.001e-05, "scale": true, "beta_regularizer": null, "trainable": true, "name": "conv5_block24_1_bn", "moving_mean_initializer": {"class_name": "Zeros", "config": {}}, "gamma_constraint": null, "gamma_regularizer": null, "gamma_initializer": {"class_name": "Ones", "config": {}}, "beta_initializer": {"class_name": "Zeros", "config": {}}, "center": true, "beta_constraint": null}, "name": "conv5_block24_1_bn"}, {"inbound_nodes": [[["conv5_block24_1_bn", 0, 0, {}]]], "class_name": "Activation", "config": {"activation": "relu", "trainable": true, "name": "conv5_block24_1_relu"}, "name": "conv5_block24_1_relu"}, {"inbound_nodes": [[["conv5_block24_1_relu", 0, 0, {}]]], "class_name": "Conv2D", "config": {"kernel_size": [3, 3], "kernel_regularizer": null, "kernel_constraint": null, "activation": "linear", "bias_constraint": null, "strides": [1, 1], "data_format": "channels_last", "filters": 32, "activity_regularizer": null, "trainable": true, "name": "conv5_block24_2_conv", "use_bias": false, "padding": "same", "dilation_rate": [1, 1], "bias_regularizer": null, "kernel_initializer": {"class_name": "VarianceScaling", "config": {"seed": null, "distribution": "uniform", "scale": 1.0, "mode": "fan_avg"}}, "bias_initializer": {"class_name": "Zeros", "config": {}}}, "name": "conv5_block24_2_conv"}, {"inbound_nodes": [[["conv5_block23_concat", 0, 0, {}], ["conv5_block24_2_conv", 0, 0, {}]]], "class_name": "Concatenate", "config": {"axis": 3, "trainable": true, "name": "conv5_block24_concat"}, "name": "conv5_block24_concat"}, {"inbound_nodes": [[["conv5_block24_concat", 0, 0, {}]]], "class_name": "BatchNormalization", "config": {"momentum": 0.99, "axis": 3, "moving_variance_initializer": {"class_name": "Ones", "config": {}}, "epsilon": 1.001e-05, "scale": true, "beta_regularizer": null, "trainable": true, "name": "conv5_block25_0_bn", "moving_mean_initializer": {"class_name": "Zeros", "config": {}}, "gamma_constraint": null, "gamma_regularizer": null, "gamma_initializer": {"class_name": "Ones", "config": {}}, "beta_initializer": {"class_name": "Zeros", "config": {}}, "center": true, "beta_constraint": null}, "name": "conv5_block25_0_bn"}, {"inbound_nodes": [[["conv5_block25_0_bn", 0, 0, {}]]], "class_name": "Activation", "config": {"activation": "relu", "trainable": true, "name": "conv5_block25_0_relu"}, "name": "conv5_block25_0_relu"}, {"inbound_nodes": [[["conv5_block25_0_relu", 0, 0, {}]]], "class_name": "Conv2D", "config": {"kernel_size": [1, 1], "kernel_regularizer": null, "kernel_constraint": null, "activation": "linear", "bias_constraint": null, "strides": [1, 1], "data_format": "channels_last", "filters": 128, "activity_regularizer": null, "trainable": true, "name": "conv5_block25_1_conv", "use_bias": false, "padding": "valid", "dilation_rate": [1, 1], "bias_regularizer": null, "kernel_initializer": {"class_name": "VarianceScaling", "config": {"seed": null, "distribution": "uniform", "scale": 1.0, "mode": "fan_avg"}}, "bias_initializer": {"class_name": "Zeros", "config": {}}}, "name": "conv5_block25_1_conv"}, {"inbound_nodes": [[["conv5_block25_1_conv", 0, 0, {}]]], "class_name": "BatchNormalization", "config": {"momentum": 0.99, "axis": 3, "moving_variance_initializer": {"class_name": "Ones", "config": {}}, "epsilon": 1.001e-05, "scale": true, "beta_regularizer": null, "trainable": true, "name": "conv5_block25_1_bn", "moving_mean_initializer": {"class_name": "Zeros", "config": {}}, "gamma_constraint": null, "gamma_regularizer": null, "gamma_initializer": {"class_name": "Ones", "config": {}}, "beta_initializer": {"class_name": "Zeros", "config": {}}, "center": true, "beta_constraint": null}, "name": "conv5_block25_1_bn"}, {"inbound_nodes": [[["conv5_block25_1_bn", 0, 0, {}]]], "class_name": "Activation", "config": {"activation": "relu", "trainable": true, "name": "conv5_block25_1_relu"}, "name": "conv5_block25_1_relu"}, {"inbound_nodes": [[["conv5_block25_1_relu", 0, 0, {}]]], "class_name": "Conv2D", "config": {"kernel_size": [3, 3], "kernel_regularizer": null, "kernel_constraint": null, "activation": "linear", "bias_constraint": null, "strides": [1, 1], "data_format": "channels_last", "filters": 32, "activity_regularizer": null, "trainable": true, "name": "conv5_block25_2_conv", "use_bias": false, "padding": "same", "dilation_rate": [1, 1], "bias_regularizer": null, "kernel_initializer": {"class_name": "VarianceScaling", "config": {"seed": null, "distribution": "uniform", "scale": 1.0, "mode": "fan_avg"}}, "bias_initializer": {"class_name": "Zeros", "config": {}}}, "name": "conv5_block25_2_conv"}, {"inbound_nodes": [[["conv5_block24_concat", 0, 0, {}], ["conv5_block25_2_conv", 0, 0, {}]]], "class_name": "Concatenate", "config": {"axis": 3, "trainable": true, "name": "conv5_block25_concat"}, "name": "conv5_block25_concat"}, {"inbound_nodes": [[["conv5_block25_concat", 0, 0, {}]]], "class_name": "BatchNormalization", "config": {"momentum": 0.99, "axis": 3, "moving_variance_initializer": {"class_name": "Ones", "config": {}}, "epsilon": 1.001e-05, "scale": true, "beta_regularizer": null, "trainable": true, "name": "conv5_block26_0_bn", "moving_mean_initializer": {"class_name": "Zeros", "config": {}}, "gamma_constraint": null, "gamma_regularizer": null, "gamma_initializer": {"class_name": "Ones", "config": {}}, "beta_initializer": {"class_name": "Zeros", "config": {}}, "center": true, "beta_constraint": null}, "name": "conv5_block26_0_bn"}, {"inbound_nodes": [[["conv5_block26_0_bn", 0, 0, {}]]], "class_name": "Activation", "config": {"activation": "relu", "trainable": true, "name": "conv5_block26_0_relu"}, "name": "conv5_block26_0_relu"}, {"inbound_nodes": [[["conv5_block26_0_relu", 0, 0, {}]]], "class_name": "Conv2D", "config": {"kernel_size": [1, 1], "kernel_regularizer": null, "kernel_constraint": null, "activation": "linear", "bias_constraint": null, "strides": [1, 1], "data_format": "channels_last", "filters": 128, "activity_regularizer": null, "trainable": true, "name": "conv5_block26_1_conv", "use_bias": false, "padding": "valid", "dilation_rate": [1, 1], "bias_regularizer": null, "kernel_initializer": {"class_name": "VarianceScaling", "config": {"seed": null, "distribution": "uniform", "scale": 1.0, "mode": "fan_avg"}}, "bias_initializer": {"class_name": "Zeros", "config": {}}}, "name": "conv5_block26_1_conv"}, {"inbound_nodes": [[["conv5_block26_1_conv", 0, 0, {}]]], "class_name": "BatchNormalization", "config": {"momentum": 0.99, "axis": 3, "moving_variance_initializer": {"class_name": "Ones", "config": {}}, "epsilon": 1.001e-05, "scale": true, "beta_regularizer": null, "trainable": true, "name": "conv5_block26_1_bn", "moving_mean_initializer": {"class_name": "Zeros", "config": {}}, "gamma_constraint": null, "gamma_regularizer": null, "gamma_initializer": {"class_name": "Ones", "config": {}}, "beta_initializer": {"class_name": "Zeros", "config": {}}, "center": true, "beta_constraint": null}, "name": "conv5_block26_1_bn"}, {"inbound_nodes": [[["conv5_block26_1_bn", 0, 0, {}]]], "class_name": "Activation", "config": {"activation": "relu", "trainable": true, "name": "conv5_block26_1_relu"}, "name": "conv5_block26_1_relu"}, {"inbound_nodes": [[["conv5_block26_1_relu", 0, 0, {}]]], "class_name": "Conv2D", "config": {"kernel_size": [3, 3], "kernel_regularizer": null, "kernel_constraint": null, "activation": "linear", "bias_constraint": null, "strides": [1, 1], "data_format": "channels_last", "filters": 32, "activity_regularizer": null, "trainable": true, "name": "conv5_block26_2_conv", "use_bias": false, "padding": "same", "dilation_rate": [1, 1], "bias_regularizer": null, "kernel_initializer": {"class_name": "VarianceScaling", "config": {"seed": null, "distribution": "uniform", "scale": 1.0, "mode": "fan_avg"}}, "bias_initializer": {"class_name": "Zeros", "config": {}}}, "name": "conv5_block26_2_conv"}, {"inbound_nodes": [[["conv5_block25_concat", 0, 0, {}], ["conv5_block26_2_conv", 0, 0, {}]]], "class_name": "Concatenate", "config": {"axis": 3, "trainable": true, "name": "conv5_block26_concat"}, "name": "conv5_block26_concat"}, {"inbound_nodes": [[["conv5_block26_concat", 0, 0, {}]]], "class_name": "BatchNormalization", "config": {"momentum": 0.99, "axis": 3, "moving_variance_initializer": {"class_name": "Ones", "config": {}}, "epsilon": 1.001e-05, "scale": true, "beta_regularizer": null, "trainable": true, "name": "conv5_block27_0_bn", "moving_mean_initializer": {"class_name": "Zeros", "config": {}}, "gamma_constraint": null, "gamma_regularizer": null, "gamma_initializer": {"class_name": "Ones", "config": {}}, "beta_initializer": {"class_name": "Zeros", "config": {}}, "center": true, "beta_constraint": null}, "name": "conv5_block27_0_bn"}, {"inbound_nodes": [[["conv5_block27_0_bn", 0, 0, {}]]], "class_name": "Activation", "config": {"activation": "relu", "trainable": true, "name": "conv5_block27_0_relu"}, "name": "conv5_block27_0_relu"}, {"inbound_nodes": [[["conv5_block27_0_relu", 0, 0, {}]]], "class_name": "Conv2D", "config": {"kernel_size": [1, 1], "kernel_regularizer": null, "kernel_constraint": null, "activation": "linear", "bias_constraint": null, "strides": [1, 1], "data_format": "channels_last", "filters": 128, "activity_regularizer": null, "trainable": true, "name": "conv5_block27_1_conv", "use_bias": false, "padding": "valid", "dilation_rate": [1, 1], "bias_regularizer": null, "kernel_initializer": {"class_name": "VarianceScaling", "config": {"seed": null, "distribution": "uniform", "scale": 1.0, "mode": "fan_avg"}}, "bias_initializer": {"class_name": "Zeros", "config": {}}}, "name": "conv5_block27_1_conv"}, {"inbound_nodes": [[["conv5_block27_1_conv", 0, 0, {}]]], "class_name": "BatchNormalization", "config": {"momentum": 0.99, "axis": 3, "moving_variance_initializer": {"class_name": "Ones", "config": {}}, "epsilon": 1.001e-05, "scale": true, "beta_regularizer": null, "trainable": true, "name": "conv5_block27_1_bn", "moving_mean_initializer": {"class_name": "Zeros", "config": {}}, "gamma_constraint": null, "gamma_regularizer": null, "gamma_initializer": {"class_name": "Ones", "config": {}}, "beta_initializer": {"class_name": "Zeros", "config": {}}, "center": true, "beta_constraint": null}, "name": "conv5_block27_1_bn"}, {"inbound_nodes": [[["conv5_block27_1_bn", 0, 0, {}]]], "class_name": "Activation", "config": {"activation": "relu", "trainable": true, "name": "conv5_block27_1_relu"}, "name": "conv5_block27_1_relu"}, {"inbound_nodes": [[["conv5_block27_1_relu", 0, 0, {}]]], "class_name": "Conv2D", "config": {"kernel_size": [3, 3], "kernel_regularizer": null, "kernel_constraint": null, "activation": "linear", "bias_constraint": null, "strides": [1, 1], "data_format": "channels_last", "filters": 32, "activity_regularizer": null, "trainable": true, "name": "conv5_block27_2_conv", "use_bias": false, "padding": "same", "dilation_rate": [1, 1], "bias_regularizer": null, "kernel_initializer": {"class_name": "VarianceScaling", "config": {"seed": null, "distribution": "uniform", "scale": 1.0, "mode": "fan_avg"}}, "bias_initializer": {"class_name": "Zeros", "config": {}}}, "name": "conv5_block27_2_conv"}, {"inbound_nodes": [[["conv5_block26_concat", 0, 0, {}], ["conv5_block27_2_conv", 0, 0, {}]]], "class_name": "Concatenate", "config": {"axis": 3, "trainable": true, "name": "conv5_block27_concat"}, "name": "conv5_block27_concat"}, {"inbound_nodes": [[["conv5_block27_concat", 0, 0, {}]]], "class_name": "BatchNormalization", "config": {"momentum": 0.99, "axis": 3, "moving_variance_initializer": {"class_name": "Ones", "config": {}}, "epsilon": 1.001e-05, "scale": true, "beta_regularizer": null, "trainable": true, "name": "conv5_block28_0_bn", "moving_mean_initializer": {"class_name": "Zeros", "config": {}}, "gamma_constraint": null, "gamma_regularizer": null, "gamma_initializer": {"class_name": "Ones", "config": {}}, "beta_initializer": {"class_name": "Zeros", "config": {}}, "center": true, "beta_constraint": null}, "name": "conv5_block28_0_bn"}, {"inbound_nodes": [[["conv5_block28_0_bn", 0, 0, {}]]], "class_name": "Activation", "config": {"activation": "relu", "trainable": true, "name": "conv5_block28_0_relu"}, "name": "conv5_block28_0_relu"}, {"inbound_nodes": [[["conv5_block28_0_relu", 0, 0, {}]]], "class_name": "Conv2D", "config": {"kernel_size": [1, 1], "kernel_regularizer": null, "kernel_constraint": null, "activation": "linear", "bias_constraint": null, "strides": [1, 1], "data_format": "channels_last", "filters": 128, "activity_regularizer": null, "trainable": true, "name": "conv5_block28_1_conv", "use_bias": false, "padding": "valid", "dilation_rate": [1, 1], "bias_regularizer": null, "kernel_initializer": {"class_name": "VarianceScaling", "config": {"seed": null, "distribution": "uniform", "scale": 1.0, "mode": "fan_avg"}}, "bias_initializer": {"class_name": "Zeros", "config": {}}}, "name": "conv5_block28_1_conv"}, {"inbound_nodes": [[["conv5_block28_1_conv", 0, 0, {}]]], "class_name": "BatchNormalization", "config": {"momentum": 0.99, "axis": 3, "moving_variance_initializer": {"class_name": "Ones", "config": {}}, "epsilon": 1.001e-05, "scale": true, "beta_regularizer": null, "trainable": true, "name": "conv5_block28_1_bn", "moving_mean_initializer": {"class_name": "Zeros", "config": {}}, "gamma_constraint": null, "gamma_regularizer": null, "gamma_initializer": {"class_name": "Ones", "config": {}}, "beta_initializer": {"class_name": "Zeros", "config": {}}, "center": true, "beta_constraint": null}, "name": "conv5_block28_1_bn"}, {"inbound_nodes": [[["conv5_block28_1_bn", 0, 0, {}]]], "class_name": "Activation", "config": {"activation": "relu", "trainable": true, "name": "conv5_block28_1_relu"}, "name": "conv5_block28_1_relu"}, {"inbound_nodes": [[["conv5_block28_1_relu", 0, 0, {}]]], "class_name": "Conv2D", "config": {"kernel_size": [3, 3], "kernel_regularizer": null, "kernel_constraint": null, "activation": "linear", "bias_constraint": null, "strides": [1, 1], "data_format": "channels_last", "filters": 32, "activity_regularizer": null, "trainable": true, "name": "conv5_block28_2_conv", "use_bias": false, "padding": "same", "dilation_rate": [1, 1], "bias_regularizer": null, "kernel_initializer": {"class_name": "VarianceScaling", "config": {"seed": null, "distribution": "uniform", "scale": 1.0, "mode": "fan_avg"}}, "bias_initializer": {"class_name": "Zeros", "config": {}}}, "name": "conv5_block28_2_conv"}, {"inbound_nodes": [[["conv5_block27_concat", 0, 0, {}], ["conv5_block28_2_conv", 0, 0, {}]]], "class_name": "Concatenate", "config": {"axis": 3, "trainable": true, "name": "conv5_block28_concat"}, "name": "conv5_block28_concat"}, {"inbound_nodes": [[["conv5_block28_concat", 0, 0, {}]]], "class_name": "BatchNormalization", "config": {"momentum": 0.99, "axis": 3, "moving_variance_initializer": {"class_name": "Ones", "config": {}}, "epsilon": 1.001e-05, "scale": true, "beta_regularizer": null, "trainable": true, "name": "conv5_block29_0_bn", "moving_mean_initializer": {"class_name": "Zeros", "config": {}}, "gamma_constraint": null, "gamma_regularizer": null, "gamma_initializer": {"class_name": "Ones", "config": {}}, "beta_initializer": {"class_name": "Zeros", "config": {}}, "center": true, "beta_constraint": null}, "name": "conv5_block29_0_bn"}, {"inbound_nodes": [[["conv5_block29_0_bn", 0, 0, {}]]], "class_name": "Activation", "config": {"activation": "relu", "trainable": true, "name": "conv5_block29_0_relu"}, "name": "conv5_block29_0_relu"}, {"inbound_nodes": [[["conv5_block29_0_relu", 0, 0, {}]]], "class_name": "Conv2D", "config": {"kernel_size": [1, 1], "kernel_regularizer": null, "kernel_constraint": null, "activation": "linear", "bias_constraint": null, "strides": [1, 1], "data_format": "channels_last", "filters": 128, "activity_regularizer": null, "trainable": true, "name": "conv5_block29_1_conv", "use_bias": false, "padding": "valid", "dilation_rate": [1, 1], "bias_regularizer": null, "kernel_initializer": {"class_name": "VarianceScaling", "config": {"seed": null, "distribution": "uniform", "scale": 1.0, "mode": "fan_avg"}}, "bias_initializer": {"class_name": "Zeros", "config": {}}}, "name": "conv5_block29_1_conv"}, {"inbound_nodes": [[["conv5_block29_1_conv", 0, 0, {}]]], "class_name": "BatchNormalization", "config": {"momentum": 0.99, "axis": 3, "moving_variance_initializer": {"class_name": "Ones", "config": {}}, "epsilon": 1.001e-05, "scale": true, "beta_regularizer": null, "trainable": true, "name": "conv5_block29_1_bn", "moving_mean_initializer": {"class_name": "Zeros", "config": {}}, "gamma_constraint": null, "gamma_regularizer": null, "gamma_initializer": {"class_name": "Ones", "config": {}}, "beta_initializer": {"class_name": "Zeros", "config": {}}, "center": true, "beta_constraint": null}, "name": "conv5_block29_1_bn"}, {"inbound_nodes": [[["conv5_block29_1_bn", 0, 0, {}]]], "class_name": "Activation", "config": {"activation": "relu", "trainable": true, "name": "conv5_block29_1_relu"}, "name": "conv5_block29_1_relu"}, {"inbound_nodes": [[["conv5_block29_1_relu", 0, 0, {}]]], "class_name": "Conv2D", "config": {"kernel_size": [3, 3], "kernel_regularizer": null, "kernel_constraint": null, "activation": "linear", "bias_constraint": null, "strides": [1, 1], "data_format": "channels_last", "filters": 32, "activity_regularizer": null, "trainable": true, "name": "conv5_block29_2_conv", "use_bias": false, "padding": "same", "dilation_rate": [1, 1], "bias_regularizer": null, "kernel_initializer": {"class_name": "VarianceScaling", "config": {"seed": null, "distribution": "uniform", "scale": 1.0, "mode": "fan_avg"}}, "bias_initializer": {"class_name": "Zeros", "config": {}}}, "name": "conv5_block29_2_conv"}, {"inbound_nodes": [[["conv5_block28_concat", 0, 0, {}], ["conv5_block29_2_conv", 0, 0, {}]]], "class_name": "Concatenate", "config": {"axis": 3, "trainable": true, "name": "conv5_block29_concat"}, "name": "conv5_block29_concat"}, {"inbound_nodes": [[["conv5_block29_concat", 0, 0, {}]]], "class_name": "BatchNormalization", "config": {"momentum": 0.99, "axis": 3, "moving_variance_initializer": {"class_name": "Ones", "config": {}}, "epsilon": 1.001e-05, "scale": true, "beta_regularizer": null, "trainable": true, "name": "conv5_block30_0_bn", "moving_mean_initializer": {"class_name": "Zeros", "config": {}}, "gamma_constraint": null, "gamma_regularizer": null, "gamma_initializer": {"class_name": "Ones", "config": {}}, "beta_initializer": {"class_name": "Zeros", "config": {}}, "center": true, "beta_constraint": null}, "name": "conv5_block30_0_bn"}, {"inbound_nodes": [[["conv5_block30_0_bn", 0, 0, {}]]], "class_name": "Activation", "config": {"activation": "relu", "trainable": true, "name": "conv5_block30_0_relu"}, "name": "conv5_block30_0_relu"}, {"inbound_nodes": [[["conv5_block30_0_relu", 0, 0, {}]]], "class_name": "Conv2D", "config": {"kernel_size": [1, 1], "kernel_regularizer": null, "kernel_constraint": null, "activation": "linear", "bias_constraint": null, "strides": [1, 1], "data_format": "channels_last", "filters": 128, "activity_regularizer": null, "trainable": true, "name": "conv5_block30_1_conv", "use_bias": false, "padding": "valid", "dilation_rate": [1, 1], "bias_regularizer": null, "kernel_initializer": {"class_name": "VarianceScaling", "config": {"seed": null, "distribution": "uniform", "scale": 1.0, "mode": "fan_avg"}}, "bias_initializer": {"class_name": "Zeros", "config": {}}}, "name": "conv5_block30_1_conv"}, {"inbound_nodes": [[["conv5_block30_1_conv", 0, 0, {}]]], "class_name": "BatchNormalization", "config": {"momentum": 0.99, "axis": 3, "moving_variance_initializer": {"class_name": "Ones", "config": {}}, "epsilon": 1.001e-05, "scale": true, "beta_regularizer": null, "trainable": true, "name": "conv5_block30_1_bn", "moving_mean_initializer": {"class_name": "Zeros", "config": {}}, "gamma_constraint": null, "gamma_regularizer": null, "gamma_initializer": {"class_name": "Ones", "config": {}}, "beta_initializer": {"class_name": "Zeros", "config": {}}, "center": true, "beta_constraint": null}, "name": "conv5_block30_1_bn"}, {"inbound_nodes": [[["conv5_block30_1_bn", 0, 0, {}]]], "class_name": "Activation", "config": {"activation": "relu", "trainable": true, "name": "conv5_block30_1_relu"}, "name": "conv5_block30_1_relu"}, {"inbound_nodes": [[["conv5_block30_1_relu", 0, 0, {}]]], "class_name": "Conv2D", "config": {"kernel_size": [3, 3], "kernel_regularizer": null, "kernel_constraint": null, "activation": "linear", "bias_constraint": null, "strides": [1, 1], "data_format": "channels_last", "filters": 32, "activity_regularizer": null, "trainable": true, "name": "conv5_block30_2_conv", "use_bias": false, "padding": "same", "dilation_rate": [1, 1], "bias_regularizer": null, "kernel_initializer": {"class_name": "VarianceScaling", "config": {"seed": null, "distribution": "uniform", "scale": 1.0, "mode": "fan_avg"}}, "bias_initializer": {"class_name": "Zeros", "config": {}}}, "name": "conv5_block30_2_conv"}, {"inbound_nodes": [[["conv5_block29_concat", 0, 0, {}], ["conv5_block30_2_conv", 0, 0, {}]]], "class_name": "Concatenate", "config": {"axis": 3, "trainable": true, "name": "conv5_block30_concat"}, "name": "conv5_block30_concat"}, {"inbound_nodes": [[["conv5_block30_concat", 0, 0, {}]]], "class_name": "BatchNormalization", "config": {"momentum": 0.99, "axis": 3, "moving_variance_initializer": {"class_name": "Ones", "config": {}}, "epsilon": 1.001e-05, "scale": true, "beta_regularizer": null, "trainable": true, "name": "conv5_block31_0_bn", "moving_mean_initializer": {"class_name": "Zeros", "config": {}}, "gamma_constraint": null, "gamma_regularizer": null, "gamma_initializer": {"class_name": "Ones", "config": {}}, "beta_initializer": {"class_name": "Zeros", "config": {}}, "center": true, "beta_constraint": null}, "name": "conv5_block31_0_bn"}, {"inbound_nodes": [[["conv5_block31_0_bn", 0, 0, {}]]], "class_name": "Activation", "config": {"activation": "relu", "trainable": true, "name": "conv5_block31_0_relu"}, "name": "conv5_block31_0_relu"}, {"inbound_nodes": [[["conv5_block31_0_relu", 0, 0, {}]]], "class_name": "Conv2D", "config": {"kernel_size": [1, 1], "kernel_regularizer": null, "kernel_constraint": null, "activation": "linear", "bias_constraint": null, "strides": [1, 1], "data_format": "channels_last", "filters": 128, "activity_regularizer": null, "trainable": true, "name": "conv5_block31_1_conv", "use_bias": false, "padding": "valid", "dilation_rate": [1, 1], "bias_regularizer": null, "kernel_initializer": {"class_name": "VarianceScaling", "config": {"seed": null, "distribution": "uniform", "scale": 1.0, "mode": "fan_avg"}}, "bias_initializer": {"class_name": "Zeros", "config": {}}}, "name": "conv5_block31_1_conv"}, {"inbound_nodes": [[["conv5_block31_1_conv", 0, 0, {}]]], "class_name": "BatchNormalization", "config": {"momentum": 0.99, "axis": 3, "moving_variance_initializer": {"class_name": "Ones", "config": {}}, "epsilon": 1.001e-05, "scale": true, "beta_regularizer": null, "trainable": true, "name": "conv5_block31_1_bn", "moving_mean_initializer": {"class_name": "Zeros", "config": {}}, "gamma_constraint": null, "gamma_regularizer": null, "gamma_initializer": {"class_name": "Ones", "config": {}}, "beta_initializer": {"class_name": "Zeros", "config": {}}, "center": true, "beta_constraint": null}, "name": "conv5_block31_1_bn"}, {"inbound_nodes": [[["conv5_block31_1_bn", 0, 0, {}]]], "class_name": "Activation", "config": {"activation": "relu", "trainable": true, "name": "conv5_block31_1_relu"}, "name": "conv5_block31_1_relu"}, {"inbound_nodes": [[["conv5_block31_1_relu", 0, 0, {}]]], "class_name": "Conv2D", "config": {"kernel_size": [3, 3], "kernel_regularizer": null, "kernel_constraint": null, "activation": "linear", "bias_constraint": null, "strides": [1, 1], "data_format": "channels_last", "filters": 32, "activity_regularizer": null, "trainable": true, "name": "conv5_block31_2_conv", "use_bias": false, "padding": "same", "dilation_rate": [1, 1], "bias_regularizer": null, "kernel_initializer": {"class_name": "VarianceScaling", "config": {"seed": null, "distribution": "uniform", "scale": 1.0, "mode": "fan_avg"}}, "bias_initializer": {"class_name": "Zeros", "config": {}}}, "name": "conv5_block31_2_conv"}, {"inbound_nodes": [[["conv5_block30_concat", 0, 0, {}], ["conv5_block31_2_conv", 0, 0, {}]]], "class_name": "Concatenate", "config": {"axis": 3, "trainable": true, "name": "conv5_block31_concat"}, "name": "conv5_block31_concat"}, {"inbound_nodes": [[["conv5_block31_concat", 0, 0, {}]]], "class_name": "BatchNormalization", "config": {"momentum": 0.99, "axis": 3, "moving_variance_initializer": {"class_name": "Ones", "config": {}}, "epsilon": 1.001e-05, "scale": true, "beta_regularizer": null, "trainable": true, "name": "conv5_block32_0_bn", "moving_mean_initializer": {"class_name": "Zeros", "config": {}}, "gamma_constraint": null, "gamma_regularizer": null, "gamma_initializer": {"class_name": "Ones", "config": {}}, "beta_initializer": {"class_name": "Zeros", "config": {}}, "center": true, "beta_constraint": null}, "name": "conv5_block32_0_bn"}, {"inbound_nodes": [[["conv5_block32_0_bn", 0, 0, {}]]], "class_name": "Activation", "config": {"activation": "relu", "trainable": true, "name": "conv5_block32_0_relu"}, "name": "conv5_block32_0_relu"}, {"inbound_nodes": [[["conv5_block32_0_relu", 0, 0, {}]]], "class_name": "Conv2D", "config": {"kernel_size": [1, 1], "kernel_regularizer": null, "kernel_constraint": null, "activation": "linear", "bias_constraint": null, "strides": [1, 1], "data_format": "channels_last", "filters": 128, "activity_regularizer": null, "trainable": true, "name": "conv5_block32_1_conv", "use_bias": false, "padding": "valid", "dilation_rate": [1, 1], "bias_regularizer": null, "kernel_initializer": {"class_name": "VarianceScaling", "config": {"seed": null, "distribution": "uniform", "scale": 1.0, "mode": "fan_avg"}}, "bias_initializer": {"class_name": "Zeros", "config": {}}}, "name": "conv5_block32_1_conv"}, {"inbound_nodes": [[["conv5_block32_1_conv", 0, 0, {}]]], "class_name": "BatchNormalization", "config": {"momentum": 0.99, "axis": 3, "moving_variance_initializer": {"class_name": "Ones", "config": {}}, "epsilon": 1.001e-05, "scale": true, "beta_regularizer": null, "trainable": true, "name": "conv5_block32_1_bn", "moving_mean_initializer": {"class_name": "Zeros", "config": {}}, "gamma_constraint": null, "gamma_regularizer": null, "gamma_initializer": {"class_name": "Ones", "config": {}}, "beta_initializer": {"class_name": "Zeros", "config": {}}, "center": true, "beta_constraint": null}, "name": "conv5_block32_1_bn"}, {"inbound_nodes": [[["conv5_block32_1_bn", 0, 0, {}]]], "class_name": "Activation", "config": {"activation": "relu", "trainable": true, "name": "conv5_block32_1_relu"}, "name": "conv5_block32_1_relu"}, {"inbound_nodes": [[["conv5_block32_1_relu", 0, 0, {}]]], "class_name": "Conv2D", "config": {"kernel_size": [3, 3], "kernel_regularizer": null, "kernel_constraint": null, "activation": "linear", "bias_constraint": null, "strides": [1, 1], "data_format": "channels_last", "filters": 32, "activity_regularizer": null, "trainable": true, "name": "conv5_block32_2_conv", "use_bias": false, "padding": "same", "dilation_rate": [1, 1], "bias_regularizer": null, "kernel_initializer": {"class_name": "VarianceScaling", "config": {"seed": null, "distribution": "uniform", "scale": 1.0, "mode": "fan_avg"}}, "bias_initializer": {"class_name": "Zeros", "config": {}}}, "name": "conv5_block32_2_conv"}, {"inbound_nodes": [[["conv5_block31_concat", 0, 0, {}], ["conv5_block32_2_conv", 0, 0, {}]]], "class_name": "Concatenate", "config": {"axis": 3, "trainable": true, "name": "conv5_block32_concat"}, "name": "conv5_block32_concat"}, {"inbound_nodes": [[["conv5_block32_concat", 0, 0, {}]]], "class_name": "BatchNormalization", "config": {"momentum": 0.99, "axis": 3, "moving_variance_initializer": {"class_name": "Ones", "config": {}}, "epsilon": 1.001e-05, "scale": true, "beta_regularizer": null, "trainable": true, "name": "bn", "moving_mean_initializer": {"class_name": "Zeros", "config": {}}, "gamma_constraint": null, "gamma_regularizer": null, "gamma_initializer": {"class_name": "Ones", "config": {}}, "beta_initializer": {"class_name": "Zeros", "config": {}}, "center": true, "beta_constraint": null}, "name": "bn"}, {"inbound_nodes": [[["bn", 0, 0, {}]]], "class_name": "GlobalAveragePooling2D", "config": {"data_format": "channels_last", "trainable": true, "name": "avg_pool"}, "name": "avg_pool"}, {"inbound_nodes": [[["avg_pool", 0, 0, {}]]], "class_name": "Dense", "config": {"bias_constraint": null, "bias_regularizer": null, "kernel_regularizer": null, "kernel_constraint": null, "activation": "softmax", "activity_regularizer": null, "trainable": true, "name": "fc1000", "use_bias": true, "bias_initializer": {"class_name": "Zeros", "config": {}}, "units": 1000, "kernel_initializer": {"class_name": "VarianceScaling", "config": {"seed": null, "distribution": "uniform", "scale": 1.0, "mode": "fan_avg"}}}, "name": "fc1000"}], "input_layers": [["input_1", 0, 0]], "output_layers": [["fc1000", 0, 0]], "name": "densenet169"}, "keras_version": "2.2.2"}