{"keras_version": "2.1.2", "params": {"activation_32": 0, "batch_normalization_6": 192, "activation_19": 0, "batch_normalization_88": 1152, "conv2d_23": 18432, "conv2d_79": 442368, "activation_17": 0, "activation_33": 0, "batch_normalization_1": 96, "conv2d_71": 147456, "conv2d_52": 122880, "batch_normalization_55": 480, "batch_normalization_5": 576, "activation_21": 0, "batch_normalization_73": 576, "conv2d_19": 16384, "avg_pool": 0, "batch_normalization_82": 1152, "activation_47": 0, "activation_65": 0, "batch_normalization_3": 192, "conv2d_12": 6144, "conv2d_82": 1548288, "conv2d_88": 442368, "activation_15": 0, "activation_72": 0, "activation_63": 0, "batch_normalization_38": 384, "activation_26": 0, "batch_normalization_40": 576, "conv2d_61": 147456, "batch_normalization_23": 192, "mixed9": 0, "concatenate_1": 0, "activation_53": 0, "activation_36": 0, "activation_83": 0, "activation_39": 0, "activation_86": 0, "conv2d_15": 76800, "activation_64": 0, "batch_normalization_69": 576, "conv2d_1": 864, "batch_normalization_51": 576, "conv2d_37": 114688, "batch_normalization_31": 576, "activation_69": 0, "activation_12": 0, "batch_normalization_67": 576, "conv2d_62": 147456, "batch_normalization_12": 96, "activation_16": 0, "conv2d_70": 147456, "activation_81": 0, "batch_normalization_58": 480, "activation_61": 0, "batch_normalization_28": 192, "batch_normalization_90": 1344, "activation_82": 0, "batch_normalization_42": 480, "activation_60": 0, "max_pooling2d_4": 0, "conv2d_84": 442368, "activation_31": 0, "activation_44": 0, "conv2d_60": 147456, "batch_normalization_68": 576, "batch_normalization_80": 1152, "conv2d_16": 16384, "batch_normalization_43": 480, "batch_normalization_77": 960, "batch_normalization_93": 1152, "activation_88": 0, "activation_74": 0, "conv2d_94": 393216, "batch_normalization_87": 1152, "mixed2": 0, "average_pooling2d_7": 0, "conv2d_49": 215040, "activation_55": 0, "conv2d_57": 179200, "batch_normalization_70": 576, "batch_normalization_62": 576, "batch_normalization_61": 576, "conv2d_90": 917504, "mixed5": 0, "activation_30": 0, "mixed1": 0, "batch_normalization_81": 1344, "conv2d_2": 9216, "activation_78": 0, "conv2d_72": 552960, "activation_56": 0, "batch_normalization_18": 288, "conv2d_40": 147456, "activation_91": 0, "batch_normalization_72": 960, "conv2d_58": 179200, "activation_34": 0, "mixed9_1": 0, "batch_normalization_30": 288, "conv2d_24": 55296, "batch_normalization_15": 192, "conv2d_45": 122880, "batch_normalization_92": 1152, "batch_normalization_79": 1152, "conv2d_21": 13824, "conv2d_39": 172032, "batch_normalization_78": 1152, "conv2d_30": 82944, "batch_normalization_54": 576, "conv2d_28": 18432, "batch_normalization_53": 480, "conv2d_53": 179200, "activation_80": 0, "batch_normalization_50": 576, "conv2d_27": 995328, "conv2d_32": 98304, "conv2d_11": 82944, "conv2d_74": 258048, "conv2d_8": 76800, "conv2d_55": 122880, "batch_normalization_17": 288, "activation_58": 0, "activation_42": 0, "activation_3": 0, "batch_normalization_34": 576, "activation_1": 0, "batch_normalization_2": 96, "batch_normalization_21": 144, "conv2d_51": 147456, "conv2d_63": 258048, "batch_normalization_9": 192, "batch_normalization_44": 576, "activation_43": 0, "batch_normalization_75": 576, "batch_normalization_83": 1152, "conv2d_5": 138240, "batch_normalization_60": 576, "activation_38": 0, "max_pooling2d_3": 0, "activation_48": 0, "conv2d_87": 786432, "activation_94": 0, "activation_6": 0, "batch_normalization_26": 192, "activation_10": 0, "activation_90": 0, "activation_49": 0, "conv2d_13": 16384, "conv2d_69": 258048, "conv2d_31": 147456, "conv2d_36": 114688, "activation_51": 0, "activation_84": 0, "batch_normalization_94": 576, "conv2d_66": 258048, "activation_87": 0, "conv2d_67": 258048, "conv2d_43": 179200, "batch_normalization_14": 144, "batch_normalization_71": 576, "batch_normalization_49": 576, "conv2d_6": 12288, "activation_52": 0, "activation_24": 0, "mixed4": 0, "batch_normalization_56": 480, "mixed0": 0, "activation_11": 0, "max_pooling2d_2": 0, "conv2d_76": 331776, "conv2d_44": 215040, "average_pooling2d_1": 0, "batch_normalization_85": 576, "batch_normalization_7": 144, "activation_40": 0, "batch_normalization_46": 480, "activation_7": 0, "batch_normalization_63": 576, "conv2d_7": 9216, "batch_normalization_39": 576, "batch_normalization_25": 288, "batch_normalization_4": 240, "activation_68": 0, "conv2d_42": 122880, "conv2d_92": 442368, "activation_75": 0, "conv2d_68": 258048, "activation_92": 0, "conv2d_9": 12288, "activation_20": 0, "batch_normalization_45": 480, "batch_normalization_91": 1152, "batch_normalization_19": 192, "batch_normalization_84": 1152, "batch_normalization_48": 480, "batch_normalization_22": 192, "conv2d_89": 442368, "conv2d_26": 18432, "conv2d_54": 215040, "max_pooling2d_1": 0, "conv2d_75": 258048, "conv2d_3": 18432, "activation_79": 0, "conv2d_29": 55296, "average_pooling2d_9": 0, "average_pooling2d_5": 0, "conv2d_86": 655360, "batch_normalization_24": 288, "mixed10": 0, "conv2d_81": 573440, "average_pooling2d_4": 0, "activation_28": 0, "activation_85": 0, "batch_normalization_33": 384, "batch_normalization_64": 576, "activation_13": 0, "activation_35": 0, "conv2d_80": 442368, "conv2d_91": 1548288, "conv2d_85": 245760, "activation_45": 0, "activation_41": 0, "activation_5": 0, "activation_66": 0, "mixed3": 0, "activation_73": 0, "batch_normalization_35": 384, "conv2d_20": 18432, "activation_76": 0, "conv2d_56": 179200, "input_1": 0, "batch_normalization_13": 192, "mixed6": 0, "conv2d_65": 147456, "batch_normalization_65": 576, "predictions": 2049000, "conv2d_34": 172032, "mixed9_0": 0, "conv2d_22": 76800, "conv2d_38": 114688, "activation_25": 0, "batch_normalization_52": 480, "activation_37": 0, "conv2d_10": 55296, "activation_50": 0, "batch_normalization_36": 384, "conv2d_46": 179200, "activation_23": 0, "activation_93": 0, "conv2d_18": 82944, "conv2d_41": 147456, "conv2d_83": 442368, "activation_77": 0, "concatenate_2": 0, "activation_67": 0, "activation_29": 0, "batch_normalization_29": 288, "activation_71": 0, "activation_4": 0, "activation_2": 0, "average_pooling2d_3": 0, "batch_normalization_32": 384, "conv2d_33": 114688, "conv2d_47": 179200, "conv2d_78": 491520, "activation_59": 0, "conv2d_14": 12288, "conv2d_17": 55296, "activation_22": 0, "activation_46": 0, "activation_14": 0, "batch_normalization_41": 576, "activation_9": 0, "batch_normalization_10": 288, "conv2d_35": 98304, "activation_89": 0, "average_pooling2d_2": 0, "activation_70": 0, "activation_8": 0, "batch_normalization_76": 576, "batch_normalization_20": 192, "mixed7": 0, "batch_normalization_89": 1152, "batch_normalization_8": 192, "average_pooling2d_8": 0, "batch_normalization_66": 576, "activation_62": 0, "activation_18": 0, "mixed8": 0, "conv2d_59": 215040, "batch_normalization_74": 576, "activation_27": 0, "conv2d_73": 147456, "activation_54": 0, "conv2d_48": 179200, "batch_normalization_11": 288, "conv2d_77": 409600, "batch_normalization_59": 576, "conv2d_50": 147456, "conv2d_93": 442368, "activation_57": 0, "average_pooling2d_6": 0, "conv2d_25": 82944, "batch_normalization_27": 1152, "batch_normalization_16": 192, "batch_normalization_47": 480, "conv2d_4": 5120, "batch_normalization_86": 960, "batch_normalization_57": 480, "conv2d_64": 258048, "batch_normalization_37": 384}, "class_name": "Model", "config": {"layers": [{"config": {"batch_input_shape": [null, null, null, 3], "sparse": false, "name": "input_1", "dtype": "float32"}, "inbound_nodes": [], "class_name": "InputLayer", "name": "input_1"}, {"config": {"bias_constraint": null, "name": "conv2d_1", "data_format": "channels_last", "filters": 32, "trainable": true, "use_bias": false, "bias_regularizer": null, "strides": [2, 2], "bias_initializer": {"class_name": "Zeros", "config": {}}, "kernel_initializer": {"class_name": "VarianceScaling", "config": {"distribution": "uniform", "mode": "fan_avg", "scale": 1.0, "seed": null}}, "kernel_size": [3, 3], "padding": "valid", "activity_regularizer": null, "activation": "linear", "kernel_regularizer": null, "dilation_rate": [1, 1], "kernel_constraint": null}, "inbound_nodes": [[["input_1", 0, 0, {}]]], "class_name": "Conv2D", "name": "conv2d_1"}, {"config": {"beta_regularizer": null, "name": "batch_normalization_1", "gamma_regularizer": null, "trainable": true, "beta_initializer": {"class_name": "Zeros", "config": {}}, "beta_constraint": null, "epsilon": 0.001, "gamma_initializer": {"class_name": "Ones", "config": {}}, "scale": false, "axis": 3, "moving_mean_initializer": {"class_name": "Zeros", "config": {}}, "moving_variance_initializer": {"class_name": "Ones", "config": {}}, "momentum": 0.99, "gamma_constraint": null, "center": true}, "inbound_nodes": [[["conv2d_1", 0, 0, {}]]], "class_name": "BatchNormalization", "name": "batch_normalization_1"}, {"config": {"trainable": true, "name": "activation_1", "activation": "relu"}, "inbound_nodes": [[["batch_normalization_1", 0, 0, {}]]], "class_name": "Activation", "name": "activation_1"}, {"config": {"bias_constraint": null, "name": "conv2d_2", "data_format": "channels_last", "filters": 32, "trainable": true, "use_bias": false, "bias_regularizer": null, "strides": [1, 1], "bias_initializer": {"class_name": "Zeros", "config": {}}, "kernel_initializer": {"class_name": "VarianceScaling", "config": {"distribution": "uniform", "mode": "fan_avg", "scale": 1.0, "seed": null}}, "kernel_size": [3, 3], "padding": "valid", "activity_regularizer": null, "activation": "linear", "kernel_regularizer": null, "dilation_rate": [1, 1], "kernel_constraint": null}, "inbound_nodes": [[["activation_1", 0, 0, {}]]], "class_name": "Conv2D", "name": "conv2d_2"}, {"config": {"beta_regularizer": null, "name": "batch_normalization_2", "gamma_regularizer": null, "trainable": true, "beta_initializer": {"class_name": "Zeros", "config": {}}, "beta_constraint": null, "epsilon": 0.001, "gamma_initializer": {"class_name": "Ones", "config": {}}, "scale": false, "axis": 3, "moving_mean_initializer": {"class_name": "Zeros", "config": {}}, "moving_variance_initializer": {"class_name": "Ones", "config": {}}, "momentum": 0.99, "gamma_constraint": null, "center": true}, "inbound_nodes": [[["conv2d_2", 0, 0, {}]]], "class_name": "BatchNormalization", "name": "batch_normalization_2"}, {"config": {"trainable": true, "name": "activation_2", "activation": "relu"}, "inbound_nodes": [[["batch_normalization_2", 0, 0, {}]]], "class_name": "Activation", "name": "activation_2"}, {"config": {"bias_constraint": null, "name": "conv2d_3", "data_format": "channels_last", "filters": 64, "trainable": true, "use_bias": false, "bias_regularizer": null, "strides": [1, 1], "bias_initializer": {"class_name": "Zeros", "config": {}}, "kernel_initializer": {"class_name": "VarianceScaling", "config": {"distribution": "uniform", "mode": "fan_avg", "scale": 1.0, "seed": null}}, "kernel_size": [3, 3], "padding": "same", "activity_regularizer": null, "activation": "linear", "kernel_regularizer": null, "dilation_rate": [1, 1], "kernel_constraint": null}, "inbound_nodes": [[["activation_2", 0, 0, {}]]], "class_name": "Conv2D", "name": "conv2d_3"}, {"config": {"beta_regularizer": null, "name": "batch_normalization_3", "gamma_regularizer": null, "trainable": true, "beta_initializer": {"class_name": "Zeros", "config": {}}, "beta_constraint": null, "epsilon": 0.001, "gamma_initializer": {"class_name": "Ones", "config": {}}, "scale": false, "axis": 3, "moving_mean_initializer": {"class_name": "Zeros", "config": {}}, "moving_variance_initializer": {"class_name": "Ones", "config": {}}, "momentum": 0.99, "gamma_constraint": null, "center": true}, "inbound_nodes": [[["conv2d_3", 0, 0, {}]]], "class_name": "BatchNormalization", "name": "batch_normalization_3"}, {"config": {"trainable": true, "name": "activation_3", "activation": "relu"}, "inbound_nodes": [[["batch_normalization_3", 0, 0, {}]]], "class_name": "Activation", "name": "activation_3"}, {"config": {"strides": [2, 2], "name": "max_pooling2d_1", "data_format": "channels_last", "trainable": true, "padding": "valid", "pool_size": [3, 3]}, "inbound_nodes": [[["activation_3", 0, 0, {}]]], "class_name": "MaxPooling2D", "name": "max_pooling2d_1"}, {"config": {"bias_constraint": null, "name": "conv2d_4", "data_format": "channels_last", "filters": 80, "trainable": true, "use_bias": false, "bias_regularizer": null, "strides": [1, 1], "bias_initializer": {"class_name": "Zeros", "config": {}}, "kernel_initializer": {"class_name": "VarianceScaling", "config": {"distribution": "uniform", "mode": "fan_avg", "scale": 1.0, "seed": null}}, "kernel_size": [1, 1], "padding": "valid", "activity_regularizer": null, "activation": "linear", "kernel_regularizer": null, "dilation_rate": [1, 1], "kernel_constraint": null}, "inbound_nodes": [[["max_pooling2d_1", 0, 0, {}]]], "class_name": "Conv2D", "name": "conv2d_4"}, {"config": {"beta_regularizer": null, "name": "batch_normalization_4", "gamma_regularizer": null, "trainable": true, "beta_initializer": {"class_name": "Zeros", "config": {}}, "beta_constraint": null, "epsilon": 0.001, "gamma_initializer": {"class_name": "Ones", "config": {}}, "scale": false, "axis": 3, "moving_mean_initializer": {"class_name": "Zeros", "config": {}}, "moving_variance_initializer": {"class_name": "Ones", "config": {}}, "momentum": 0.99, "gamma_constraint": null, "center": true}, "inbound_nodes": [[["conv2d_4", 0, 0, {}]]], "class_name": "BatchNormalization", "name": "batch_normalization_4"}, {"config": {"trainable": true, "name": "activation_4", "activation": "relu"}, "inbound_nodes": [[["batch_normalization_4", 0, 0, {}]]], "class_name": "Activation", "name": "activation_4"}, {"config": {"bias_constraint": null, "name": "conv2d_5", "data_format": "channels_last", "filters": 192, "trainable": true, "use_bias": false, "bias_regularizer": null, "strides": [1, 1], "bias_initializer": {"class_name": "Zeros", "config": {}}, "kernel_initializer": {"class_name": "VarianceScaling", "config": {"distribution": "uniform", "mode": "fan_avg", "scale": 1.0, "seed": null}}, "kernel_size": [3, 3], "padding": "valid", "activity_regularizer": null, "activation": "linear", "kernel_regularizer": null, "dilation_rate": [1, 1], "kernel_constraint": null}, "inbound_nodes": [[["activation_4", 0, 0, {}]]], "class_name": "Conv2D", "name": "conv2d_5"}, {"config": {"beta_regularizer": null, "name": "batch_normalization_5", "gamma_regularizer": null, "trainable": true, "beta_initializer": {"class_name": "Zeros", "config": {}}, "beta_constraint": null, "epsilon": 0.001, "gamma_initializer": {"class_name": "Ones", "config": {}}, "scale": false, "axis": 3, "moving_mean_initializer": {"class_name": "Zeros", "config": {}}, "moving_variance_initializer": {"class_name": "Ones", "config": {}}, "momentum": 0.99, "gamma_constraint": null, "center": true}, "inbound_nodes": [[["conv2d_5", 0, 0, {}]]], "class_name": "BatchNormalization", "name": "batch_normalization_5"}, {"config": {"trainable": true, "name": "activation_5", "activation": "relu"}, "inbound_nodes": [[["batch_normalization_5", 0, 0, {}]]], "class_name": "Activation", "name": "activation_5"}, {"config": {"strides": [2, 2], "name": "max_pooling2d_2", "data_format": "channels_last", "trainable": true, "padding": "valid", "pool_size": [3, 3]}, "inbound_nodes": [[["activation_5", 0, 0, {}]]], "class_name": "MaxPooling2D", "name": "max_pooling2d_2"}, {"config": {"bias_constraint": null, "name": "conv2d_9", "data_format": "channels_last", "filters": 64, "trainable": true, "use_bias": false, "bias_regularizer": null, "strides": [1, 1], "bias_initializer": {"class_name": "Zeros", "config": {}}, "kernel_initializer": {"class_name": "VarianceScaling", "config": {"distribution": "uniform", "mode": "fan_avg", "scale": 1.0, "seed": null}}, "kernel_size": [1, 1], "padding": "same", "activity_regularizer": null, "activation": "linear", "kernel_regularizer": null, "dilation_rate": [1, 1], "kernel_constraint": null}, "inbound_nodes": [[["max_pooling2d_2", 0, 0, {}]]], "class_name": "Conv2D", "name": "conv2d_9"}, {"config": {"beta_regularizer": null, "name": "batch_normalization_9", "gamma_regularizer": null, "trainable": true, "beta_initializer": {"class_name": "Zeros", "config": {}}, "beta_constraint": null, "epsilon": 0.001, "gamma_initializer": {"class_name": "Ones", "config": {}}, "scale": false, "axis": 3, "moving_mean_initializer": {"class_name": "Zeros", "config": {}}, "moving_variance_initializer": {"class_name": "Ones", "config": {}}, "momentum": 0.99, "gamma_constraint": null, "center": true}, "inbound_nodes": [[["conv2d_9", 0, 0, {}]]], "class_name": "BatchNormalization", "name": "batch_normalization_9"}, {"config": {"trainable": true, "name": "activation_9", "activation": "relu"}, "inbound_nodes": [[["batch_normalization_9", 0, 0, {}]]], "class_name": "Activation", "name": "activation_9"}, {"config": {"bias_constraint": null, "name": "conv2d_7", "data_format": "channels_last", "filters": 48, "trainable": true, "use_bias": false, "bias_regularizer": null, "strides": [1, 1], "bias_initializer": {"class_name": "Zeros", "config": {}}, "kernel_initializer": {"class_name": "VarianceScaling", "config": {"distribution": "uniform", "mode": "fan_avg", "scale": 1.0, "seed": null}}, "kernel_size": [1, 1], "padding": "same", "activity_regularizer": null, "activation": "linear", "kernel_regularizer": null, "dilation_rate": [1, 1], "kernel_constraint": null}, "inbound_nodes": [[["max_pooling2d_2", 0, 0, {}]]], "class_name": "Conv2D", "name": "conv2d_7"}, {"config": {"bias_constraint": null, "name": "conv2d_10", "data_format": "channels_last", "filters": 96, "trainable": true, "use_bias": false, "bias_regularizer": null, "strides": [1, 1], "bias_initializer": {"class_name": "Zeros", "config": {}}, "kernel_initializer": {"class_name": "VarianceScaling", "config": {"distribution": "uniform", "mode": "fan_avg", "scale": 1.0, "seed": null}}, "kernel_size": [3, 3], "padding": "same", "activity_regularizer": null, "activation": "linear", "kernel_regularizer": null, "dilation_rate": [1, 1], "kernel_constraint": null}, "inbound_nodes": [[["activation_9", 0, 0, {}]]], "class_name": "Conv2D", "name": "conv2d_10"}, {"config": {"beta_regularizer": null, "name": "batch_normalization_7", "gamma_regularizer": null, "trainable": true, "beta_initializer": {"class_name": "Zeros", "config": {}}, "beta_constraint": null, "epsilon": 0.001, "gamma_initializer": {"class_name": "Ones", "config": {}}, "scale": false, "axis": 3, "moving_mean_initializer": {"class_name": "Zeros", "config": {}}, "moving_variance_initializer": {"class_name": "Ones", "config": {}}, "momentum": 0.99, "gamma_constraint": null, "center": true}, "inbound_nodes": [[["conv2d_7", 0, 0, {}]]], "class_name": "BatchNormalization", "name": "batch_normalization_7"}, {"config": {"beta_regularizer": null, "name": "batch_normalization_10", "gamma_regularizer": null, "trainable": true, "beta_initializer": {"class_name": "Zeros", "config": {}}, "beta_constraint": null, "epsilon": 0.001, "gamma_initializer": {"class_name": "Ones", "config": {}}, "scale": false, "axis": 3, "moving_mean_initializer": {"class_name": "Zeros", "config": {}}, "moving_variance_initializer": {"class_name": "Ones", "config": {}}, "momentum": 0.99, "gamma_constraint": null, "center": true}, "inbound_nodes": [[["conv2d_10", 0, 0, {}]]], "class_name": "BatchNormalization", "name": "batch_normalization_10"}, {"config": {"trainable": true, "name": "activation_7", "activation": "relu"}, "inbound_nodes": [[["batch_normalization_7", 0, 0, {}]]], "class_name": "Activation", "name": "activation_7"}, {"config": {"trainable": true, "name": "activation_10", "activation": "relu"}, "inbound_nodes": [[["batch_normalization_10", 0, 0, {}]]], "class_name": "Activation", "name": "activation_10"}, {"config": {"strides": [1, 1], "name": "average_pooling2d_1", "data_format": "channels_last", "trainable": true, "padding": "same", "pool_size": [3, 3]}, "inbound_nodes": [[["max_pooling2d_2", 0, 0, {}]]], "class_name": "AveragePooling2D", "name": "average_pooling2d_1"}, {"config": {"bias_constraint": null, "name": "conv2d_6", "data_format": "channels_last", "filters": 64, "trainable": true, "use_bias": false, "bias_regularizer": null, "strides": [1, 1], "bias_initializer": {"class_name": "Zeros", "config": {}}, "kernel_initializer": {"class_name": "VarianceScaling", "config": {"distribution": "uniform", "mode": "fan_avg", "scale": 1.0, "seed": null}}, "kernel_size": [1, 1], "padding": "same", "activity_regularizer": null, "activation": "linear", "kernel_regularizer": null, "dilation_rate": [1, 1], "kernel_constraint": null}, "inbound_nodes": [[["max_pooling2d_2", 0, 0, {}]]], "class_name": "Conv2D", "name": "conv2d_6"}, {"config": {"bias_constraint": null, "name": "conv2d_8", "data_format": "channels_last", "filters": 64, "trainable": true, "use_bias": false, "bias_regularizer": null, "strides": [1, 1], "bias_initializer": {"class_name": "Zeros", "config": {}}, "kernel_initializer": {"class_name": "VarianceScaling", "config": {"distribution": "uniform", "mode": "fan_avg", "scale": 1.0, "seed": null}}, "kernel_size": [5, 5], "padding": "same", "activity_regularizer": null, "activation": "linear", "kernel_regularizer": null, "dilation_rate": [1, 1], "kernel_constraint": null}, "inbound_nodes": [[["activation_7", 0, 0, {}]]], "class_name": "Conv2D", "name": "conv2d_8"}, {"config": {"bias_constraint": null, "name": "conv2d_11", "data_format": "channels_last", "filters": 96, "trainable": true, "use_bias": false, "bias_regularizer": null, "strides": [1, 1], "bias_initializer": {"class_name": "Zeros", "config": {}}, "kernel_initializer": {"class_name": "VarianceScaling", "config": {"distribution": "uniform", "mode": "fan_avg", "scale": 1.0, "seed": null}}, "kernel_size": [3, 3], "padding": "same", "activity_regularizer": null, "activation": "linear", "kernel_regularizer": null, "dilation_rate": [1, 1], "kernel_constraint": null}, "inbound_nodes": [[["activation_10", 0, 0, {}]]], "class_name": "Conv2D", "name": "conv2d_11"}, {"config": {"bias_constraint": null, "name": "conv2d_12", "data_format": "channels_last", "filters": 32, "trainable": true, "use_bias": false, "bias_regularizer": null, "strides": [1, 1], "bias_initializer": {"class_name": "Zeros", "config": {}}, "kernel_initializer": {"class_name": "VarianceScaling", "config": {"distribution": "uniform", "mode": "fan_avg", "scale": 1.0, "seed": null}}, "kernel_size": [1, 1], "padding": "same", "activity_regularizer": null, "activation": "linear", "kernel_regularizer": null, "dilation_rate": [1, 1], "kernel_constraint": null}, "inbound_nodes": [[["average_pooling2d_1", 0, 0, {}]]], "class_name": "Conv2D", "name": "conv2d_12"}, {"config": {"beta_regularizer": null, "name": "batch_normalization_6", "gamma_regularizer": null, "trainable": true, "beta_initializer": {"class_name": "Zeros", "config": {}}, "beta_constraint": null, "epsilon": 0.001, "gamma_initializer": {"class_name": "Ones", "config": {}}, "scale": false, "axis": 3, "moving_mean_initializer": {"class_name": "Zeros", "config": {}}, "moving_variance_initializer": {"class_name": "Ones", "config": {}}, "momentum": 0.99, "gamma_constraint": null, "center": true}, "inbound_nodes": [[["conv2d_6", 0, 0, {}]]], "class_name": "BatchNormalization", "name": "batch_normalization_6"}, {"config": {"beta_regularizer": null, "name": "batch_normalization_8", "gamma_regularizer": null, "trainable": true, "beta_initializer": {"class_name": "Zeros", "config": {}}, "beta_constraint": null, "epsilon": 0.001, "gamma_initializer": {"class_name": "Ones", "config": {}}, "scale": false, "axis": 3, "moving_mean_initializer": {"class_name": "Zeros", "config": {}}, "moving_variance_initializer": {"class_name": "Ones", "config": {}}, "momentum": 0.99, "gamma_constraint": null, "center": true}, "inbound_nodes": [[["conv2d_8", 0, 0, {}]]], "class_name": "BatchNormalization", "name": "batch_normalization_8"}, {"config": {"beta_regularizer": null, "name": "batch_normalization_11", "gamma_regularizer": null, "trainable": true, "beta_initializer": {"class_name": "Zeros", "config": {}}, "beta_constraint": null, "epsilon": 0.001, "gamma_initializer": {"class_name": "Ones", "config": {}}, "scale": false, "axis": 3, "moving_mean_initializer": {"class_name": "Zeros", "config": {}}, "moving_variance_initializer": {"class_name": "Ones", "config": {}}, "momentum": 0.99, "gamma_constraint": null, "center": true}, "inbound_nodes": [[["conv2d_11", 0, 0, {}]]], "class_name": "BatchNormalization", "name": "batch_normalization_11"}, {"config": {"beta_regularizer": null, "name": "batch_normalization_12", "gamma_regularizer": null, "trainable": true, "beta_initializer": {"class_name": "Zeros", "config": {}}, "beta_constraint": null, "epsilon": 0.001, "gamma_initializer": {"class_name": "Ones", "config": {}}, "scale": false, "axis": 3, "moving_mean_initializer": {"class_name": "Zeros", "config": {}}, "moving_variance_initializer": {"class_name": "Ones", "config": {}}, "momentum": 0.99, "gamma_constraint": null, "center": true}, "inbound_nodes": [[["conv2d_12", 0, 0, {}]]], "class_name": "BatchNormalization", "name": "batch_normalization_12"}, {"config": {"trainable": true, "name": "activation_6", "activation": "relu"}, "inbound_nodes": [[["batch_normalization_6", 0, 0, {}]]], "class_name": "Activation", "name": "activation_6"}, {"config": {"trainable": true, "name": "activation_8", "activation": "relu"}, "inbound_nodes": [[["batch_normalization_8", 0, 0, {}]]], "class_name": "Activation", "name": "activation_8"}, {"config": {"trainable": true, "name": "activation_11", "activation": "relu"}, "inbound_nodes": [[["batch_normalization_11", 0, 0, {}]]], "class_name": "Activation", "name": "activation_11"}, {"config": {"trainable": true, "name": "activation_12", "activation": "relu"}, "inbound_nodes": [[["batch_normalization_12", 0, 0, {}]]], "class_name": "Activation", "name": "activation_12"}, {"config": {"axis": 3, "trainable": true, "name": "mixed0"}, "inbound_nodes": [[["activation_6", 0, 0, {}], ["activation_8", 0, 0, {}], ["activation_11", 0, 0, {}], ["activation_12", 0, 0, {}]]], "class_name": "Concatenate", "name": "mixed0"}, {"config": {"bias_constraint": null, "name": "conv2d_16", "data_format": "channels_last", "filters": 64, "trainable": true, "use_bias": false, "bias_regularizer": null, "strides": [1, 1], "bias_initializer": {"class_name": "Zeros", "config": {}}, "kernel_initializer": {"class_name": "VarianceScaling", "config": {"distribution": "uniform", "mode": "fan_avg", "scale": 1.0, "seed": null}}, "kernel_size": [1, 1], "padding": "same", "activity_regularizer": null, "activation": "linear", "kernel_regularizer": null, "dilation_rate": [1, 1], "kernel_constraint": null}, "inbound_nodes": [[["mixed0", 0, 0, {}]]], "class_name": "Conv2D", "name": "conv2d_16"}, {"config": {"beta_regularizer": null, "name": "batch_normalization_16", "gamma_regularizer": null, "trainable": true, "beta_initializer": {"class_name": "Zeros", "config": {}}, "beta_constraint": null, "epsilon": 0.001, "gamma_initializer": {"class_name": "Ones", "config": {}}, "scale": false, "axis": 3, "moving_mean_initializer": {"class_name": "Zeros", "config": {}}, "moving_variance_initializer": {"class_name": "Ones", "config": {}}, "momentum": 0.99, "gamma_constraint": null, "center": true}, "inbound_nodes": [[["conv2d_16", 0, 0, {}]]], "class_name": "BatchNormalization", "name": "batch_normalization_16"}, {"config": {"trainable": true, "name": "activation_16", "activation": "relu"}, "inbound_nodes": [[["batch_normalization_16", 0, 0, {}]]], "class_name": "Activation", "name": "activation_16"}, {"config": {"bias_constraint": null, "name": "conv2d_14", "data_format": "channels_last", "filters": 48, "trainable": true, "use_bias": false, "bias_regularizer": null, "strides": [1, 1], "bias_initializer": {"class_name": "Zeros", "config": {}}, "kernel_initializer": {"class_name": "VarianceScaling", "config": {"distribution": "uniform", "mode": "fan_avg", "scale": 1.0, "seed": null}}, "kernel_size": [1, 1], "padding": "same", "activity_regularizer": null, "activation": "linear", "kernel_regularizer": null, "dilation_rate": [1, 1], "kernel_constraint": null}, "inbound_nodes": [[["mixed0", 0, 0, {}]]], "class_name": "Conv2D", "name": "conv2d_14"}, {"config": {"bias_constraint": null, "name": "conv2d_17", "data_format": "channels_last", "filters": 96, "trainable": true, "use_bias": false, "bias_regularizer": null, "strides": [1, 1], "bias_initializer": {"class_name": "Zeros", "config": {}}, "kernel_initializer": {"class_name": "VarianceScaling", "config": {"distribution": "uniform", "mode": "fan_avg", "scale": 1.0, "seed": null}}, "kernel_size": [3, 3], "padding": "same", "activity_regularizer": null, "activation": "linear", "kernel_regularizer": null, "dilation_rate": [1, 1], "kernel_constraint": null}, "inbound_nodes": [[["activation_16", 0, 0, {}]]], "class_name": "Conv2D", "name": "conv2d_17"}, {"config": {"beta_regularizer": null, "name": "batch_normalization_14", "gamma_regularizer": null, "trainable": true, "beta_initializer": {"class_name": "Zeros", "config": {}}, "beta_constraint": null, "epsilon": 0.001, "gamma_initializer": {"class_name": "Ones", "config": {}}, "scale": false, "axis": 3, "moving_mean_initializer": {"class_name": "Zeros", "config": {}}, "moving_variance_initializer": {"class_name": "Ones", "config": {}}, "momentum": 0.99, "gamma_constraint": null, "center": true}, "inbound_nodes": [[["conv2d_14", 0, 0, {}]]], "class_name": "BatchNormalization", "name": "batch_normalization_14"}, {"config": {"beta_regularizer": null, "name": "batch_normalization_17", "gamma_regularizer": null, "trainable": true, "beta_initializer": {"class_name": "Zeros", "config": {}}, "beta_constraint": null, "epsilon": 0.001, "gamma_initializer": {"class_name": "Ones", "config": {}}, "scale": false, "axis": 3, "moving_mean_initializer": {"class_name": "Zeros", "config": {}}, "moving_variance_initializer": {"class_name": "Ones", "config": {}}, "momentum": 0.99, "gamma_constraint": null, "center": true}, "inbound_nodes": [[["conv2d_17", 0, 0, {}]]], "class_name": "BatchNormalization", "name": "batch_normalization_17"}, {"config": {"trainable": true, "name": "activation_14", "activation": "relu"}, "inbound_nodes": [[["batch_normalization_14", 0, 0, {}]]], "class_name": "Activation", "name": "activation_14"}, {"config": {"trainable": true, "name": "activation_17", "activation": "relu"}, "inbound_nodes": [[["batch_normalization_17", 0, 0, {}]]], "class_name": "Activation", "name": "activation_17"}, {"config": {"strides": [1, 1], "name": "average_pooling2d_2", "data_format": "channels_last", "trainable": true, "padding": "same", "pool_size": [3, 3]}, "inbound_nodes": [[["mixed0", 0, 0, {}]]], "class_name": "AveragePooling2D", "name": "average_pooling2d_2"}, {"config": {"bias_constraint": null, "name": "conv2d_13", "data_format": "channels_last", "filters": 64, "trainable": true, "use_bias": false, "bias_regularizer": null, "strides": [1, 1], "bias_initializer": {"class_name": "Zeros", "config": {}}, "kernel_initializer": {"class_name": "VarianceScaling", "config": {"distribution": "uniform", "mode": "fan_avg", "scale": 1.0, "seed": null}}, "kernel_size": [1, 1], "padding": "same", "activity_regularizer": null, "activation": "linear", "kernel_regularizer": null, "dilation_rate": [1, 1], "kernel_constraint": null}, "inbound_nodes": [[["mixed0", 0, 0, {}]]], "class_name": "Conv2D", "name": "conv2d_13"}, {"config": {"bias_constraint": null, "name": "conv2d_15", "data_format": "channels_last", "filters": 64, "trainable": true, "use_bias": false, "bias_regularizer": null, "strides": [1, 1], "bias_initializer": {"class_name": "Zeros", "config": {}}, "kernel_initializer": {"class_name": "VarianceScaling", "config": {"distribution": "uniform", "mode": "fan_avg", "scale": 1.0, "seed": null}}, "kernel_size": [5, 5], "padding": "same", "activity_regularizer": null, "activation": "linear", "kernel_regularizer": null, "dilation_rate": [1, 1], "kernel_constraint": null}, "inbound_nodes": [[["activation_14", 0, 0, {}]]], "class_name": "Conv2D", "name": "conv2d_15"}, {"config": {"bias_constraint": null, "name": "conv2d_18", "data_format": "channels_last", "filters": 96, "trainable": true, "use_bias": false, "bias_regularizer": null, "strides": [1, 1], "bias_initializer": {"class_name": "Zeros", "config": {}}, "kernel_initializer": {"class_name": "VarianceScaling", "config": {"distribution": "uniform", "mode": "fan_avg", "scale": 1.0, "seed": null}}, "kernel_size": [3, 3], "padding": "same", "activity_regularizer": null, "activation": "linear", "kernel_regularizer": null, "dilation_rate": [1, 1], "kernel_constraint": null}, "inbound_nodes": [[["activation_17", 0, 0, {}]]], "class_name": "Conv2D", "name": "conv2d_18"}, {"config": {"bias_constraint": null, "name": "conv2d_19", "data_format": "channels_last", "filters": 64, "trainable": true, "use_bias": false, "bias_regularizer": null, "strides": [1, 1], "bias_initializer": {"class_name": "Zeros", "config": {}}, "kernel_initializer": {"class_name": "VarianceScaling", "config": {"distribution": "uniform", "mode": "fan_avg", "scale": 1.0, "seed": null}}, "kernel_size": [1, 1], "padding": "same", "activity_regularizer": null, "activation": "linear", "kernel_regularizer": null, "dilation_rate": [1, 1], "kernel_constraint": null}, "inbound_nodes": [[["average_pooling2d_2", 0, 0, {}]]], "class_name": "Conv2D", "name": "conv2d_19"}, {"config": {"beta_regularizer": null, "name": "batch_normalization_13", "gamma_regularizer": null, "trainable": true, "beta_initializer": {"class_name": "Zeros", "config": {}}, "beta_constraint": null, "epsilon": 0.001, "gamma_initializer": {"class_name": "Ones", "config": {}}, "scale": false, "axis": 3, "moving_mean_initializer": {"class_name": "Zeros", "config": {}}, "moving_variance_initializer": {"class_name": "Ones", "config": {}}, "momentum": 0.99, "gamma_constraint": null, "center": true}, "inbound_nodes": [[["conv2d_13", 0, 0, {}]]], "class_name": "BatchNormalization", "name": "batch_normalization_13"}, {"config": {"beta_regularizer": null, "name": "batch_normalization_15", "gamma_regularizer": null, "trainable": true, "beta_initializer": {"class_name": "Zeros", "config": {}}, "beta_constraint": null, "epsilon": 0.001, "gamma_initializer": {"class_name": "Ones", "config": {}}, "scale": false, "axis": 3, "moving_mean_initializer": {"class_name": "Zeros", "config": {}}, "moving_variance_initializer": {"class_name": "Ones", "config": {}}, "momentum": 0.99, "gamma_constraint": null, "center": true}, "inbound_nodes": [[["conv2d_15", 0, 0, {}]]], "class_name": "BatchNormalization", "name": "batch_normalization_15"}, {"config": {"beta_regularizer": null, "name": "batch_normalization_18", "gamma_regularizer": null, "trainable": true, "beta_initializer": {"class_name": "Zeros", "config": {}}, "beta_constraint": null, "epsilon": 0.001, "gamma_initializer": {"class_name": "Ones", "config": {}}, "scale": false, "axis": 3, "moving_mean_initializer": {"class_name": "Zeros", "config": {}}, "moving_variance_initializer": {"class_name": "Ones", "config": {}}, "momentum": 0.99, "gamma_constraint": null, "center": true}, "inbound_nodes": [[["conv2d_18", 0, 0, {}]]], "class_name": "BatchNormalization", "name": "batch_normalization_18"}, {"config": {"beta_regularizer": null, "name": "batch_normalization_19", "gamma_regularizer": null, "trainable": true, "beta_initializer": {"class_name": "Zeros", "config": {}}, "beta_constraint": null, "epsilon": 0.001, "gamma_initializer": {"class_name": "Ones", "config": {}}, "scale": false, "axis": 3, "moving_mean_initializer": {"class_name": "Zeros", "config": {}}, "moving_variance_initializer": {"class_name": "Ones", "config": {}}, "momentum": 0.99, "gamma_constraint": null, "center": true}, "inbound_nodes": [[["conv2d_19", 0, 0, {}]]], "class_name": "BatchNormalization", "name": "batch_normalization_19"}, {"config": {"trainable": true, "name": "activation_13", "activation": "relu"}, "inbound_nodes": [[["batch_normalization_13", 0, 0, {}]]], "class_name": "Activation", "name": "activation_13"}, {"config": {"trainable": true, "name": "activation_15", "activation": "relu"}, "inbound_nodes": [[["batch_normalization_15", 0, 0, {}]]], "class_name": "Activation", "name": "activation_15"}, {"config": {"trainable": true, "name": "activation_18", "activation": "relu"}, "inbound_nodes": [[["batch_normalization_18", 0, 0, {}]]], "class_name": "Activation", "name": "activation_18"}, {"config": {"trainable": true, "name": "activation_19", "activation": "relu"}, "inbound_nodes": [[["batch_normalization_19", 0, 0, {}]]], "class_name": "Activation", "name": "activation_19"}, {"config": {"axis": 3, "trainable": true, "name": "mixed1"}, "inbound_nodes": [[["activation_13", 0, 0, {}], ["activation_15", 0, 0, {}], ["activation_18", 0, 0, {}], ["activation_19", 0, 0, {}]]], "class_name": "Concatenate", "name": "mixed1"}, {"config": {"bias_constraint": null, "name": "conv2d_23", "data_format": "channels_last", "filters": 64, "trainable": true, "use_bias": false, "bias_regularizer": null, "strides": [1, 1], "bias_initializer": {"class_name": "Zeros", "config": {}}, "kernel_initializer": {"class_name": "VarianceScaling", "config": {"distribution": "uniform", "mode": "fan_avg", "scale": 1.0, "seed": null}}, "kernel_size": [1, 1], "padding": "same", "activity_regularizer": null, "activation": "linear", "kernel_regularizer": null, "dilation_rate": [1, 1], "kernel_constraint": null}, "inbound_nodes": [[["mixed1", 0, 0, {}]]], "class_name": "Conv2D", "name": "conv2d_23"}, {"config": {"beta_regularizer": null, "name": "batch_normalization_23", "gamma_regularizer": null, "trainable": true, "beta_initializer": {"class_name": "Zeros", "config": {}}, "beta_constraint": null, "epsilon": 0.001, "gamma_initializer": {"class_name": "Ones", "config": {}}, "scale": false, "axis": 3, "moving_mean_initializer": {"class_name": "Zeros", "config": {}}, "moving_variance_initializer": {"class_name": "Ones", "config": {}}, "momentum": 0.99, "gamma_constraint": null, "center": true}, "inbound_nodes": [[["conv2d_23", 0, 0, {}]]], "class_name": "BatchNormalization", "name": "batch_normalization_23"}, {"config": {"trainable": true, "name": "activation_23", "activation": "relu"}, "inbound_nodes": [[["batch_normalization_23", 0, 0, {}]]], "class_name": "Activation", "name": "activation_23"}, {"config": {"bias_constraint": null, "name": "conv2d_21", "data_format": "channels_last", "filters": 48, "trainable": true, "use_bias": false, "bias_regularizer": null, "strides": [1, 1], "bias_initializer": {"class_name": "Zeros", "config": {}}, "kernel_initializer": {"class_name": "VarianceScaling", "config": {"distribution": "uniform", "mode": "fan_avg", "scale": 1.0, "seed": null}}, "kernel_size": [1, 1], "padding": "same", "activity_regularizer": null, "activation": "linear", "kernel_regularizer": null, "dilation_rate": [1, 1], "kernel_constraint": null}, "inbound_nodes": [[["mixed1", 0, 0, {}]]], "class_name": "Conv2D", "name": "conv2d_21"}, {"config": {"bias_constraint": null, "name": "conv2d_24", "data_format": "channels_last", "filters": 96, "trainable": true, "use_bias": false, "bias_regularizer": null, "strides": [1, 1], "bias_initializer": {"class_name": "Zeros", "config": {}}, "kernel_initializer": {"class_name": "VarianceScaling", "config": {"distribution": "uniform", "mode": "fan_avg", "scale": 1.0, "seed": null}}, "kernel_size": [3, 3], "padding": "same", "activity_regularizer": null, "activation": "linear", "kernel_regularizer": null, "dilation_rate": [1, 1], "kernel_constraint": null}, "inbound_nodes": [[["activation_23", 0, 0, {}]]], "class_name": "Conv2D", "name": "conv2d_24"}, {"config": {"beta_regularizer": null, "name": "batch_normalization_21", "gamma_regularizer": null, "trainable": true, "beta_initializer": {"class_name": "Zeros", "config": {}}, "beta_constraint": null, "epsilon": 0.001, "gamma_initializer": {"class_name": "Ones", "config": {}}, "scale": false, "axis": 3, "moving_mean_initializer": {"class_name": "Zeros", "config": {}}, "moving_variance_initializer": {"class_name": "Ones", "config": {}}, "momentum": 0.99, "gamma_constraint": null, "center": true}, "inbound_nodes": [[["conv2d_21", 0, 0, {}]]], "class_name": "BatchNormalization", "name": "batch_normalization_21"}, {"config": {"beta_regularizer": null, "name": "batch_normalization_24", "gamma_regularizer": null, "trainable": true, "beta_initializer": {"class_name": "Zeros", "config": {}}, "beta_constraint": null, "epsilon": 0.001, "gamma_initializer": {"class_name": "Ones", "config": {}}, "scale": false, "axis": 3, "moving_mean_initializer": {"class_name": "Zeros", "config": {}}, "moving_variance_initializer": {"class_name": "Ones", "config": {}}, "momentum": 0.99, "gamma_constraint": null, "center": true}, "inbound_nodes": [[["conv2d_24", 0, 0, {}]]], "class_name": "BatchNormalization", "name": "batch_normalization_24"}, {"config": {"trainable": true, "name": "activation_21", "activation": "relu"}, "inbound_nodes": [[["batch_normalization_21", 0, 0, {}]]], "class_name": "Activation", "name": "activation_21"}, {"config": {"trainable": true, "name": "activation_24", "activation": "relu"}, "inbound_nodes": [[["batch_normalization_24", 0, 0, {}]]], "class_name": "Activation", "name": "activation_24"}, {"config": {"strides": [1, 1], "name": "average_pooling2d_3", "data_format": "channels_last", "trainable": true, "padding": "same", "pool_size": [3, 3]}, "inbound_nodes": [[["mixed1", 0, 0, {}]]], "class_name": "AveragePooling2D", "name": "average_pooling2d_3"}, {"config": {"bias_constraint": null, "name": "conv2d_20", "data_format": "channels_last", "filters": 64, "trainable": true, "use_bias": false, "bias_regularizer": null, "strides": [1, 1], "bias_initializer": {"class_name": "Zeros", "config": {}}, "kernel_initializer": {"class_name": "VarianceScaling", "config": {"distribution": "uniform", "mode": "fan_avg", "scale": 1.0, "seed": null}}, "kernel_size": [1, 1], "padding": "same", "activity_regularizer": null, "activation": "linear", "kernel_regularizer": null, "dilation_rate": [1, 1], "kernel_constraint": null}, "inbound_nodes": [[["mixed1", 0, 0, {}]]], "class_name": "Conv2D", "name": "conv2d_20"}, {"config": {"bias_constraint": null, "name": "conv2d_22", "data_format": "channels_last", "filters": 64, "trainable": true, "use_bias": false, "bias_regularizer": null, "strides": [1, 1], "bias_initializer": {"class_name": "Zeros", "config": {}}, "kernel_initializer": {"class_name": "VarianceScaling", "config": {"distribution": "uniform", "mode": "fan_avg", "scale": 1.0, "seed": null}}, "kernel_size": [5, 5], "padding": "same", "activity_regularizer": null, "activation": "linear", "kernel_regularizer": null, "dilation_rate": [1, 1], "kernel_constraint": null}, "inbound_nodes": [[["activation_21", 0, 0, {}]]], "class_name": "Conv2D", "name": "conv2d_22"}, {"config": {"bias_constraint": null, "name": "conv2d_25", "data_format": "channels_last", "filters": 96, "trainable": true, "use_bias": false, "bias_regularizer": null, "strides": [1, 1], "bias_initializer": {"class_name": "Zeros", "config": {}}, "kernel_initializer": {"class_name": "VarianceScaling", "config": {"distribution": "uniform", "mode": "fan_avg", "scale": 1.0, "seed": null}}, "kernel_size": [3, 3], "padding": "same", "activity_regularizer": null, "activation": "linear", "kernel_regularizer": null, "dilation_rate": [1, 1], "kernel_constraint": null}, "inbound_nodes": [[["activation_24", 0, 0, {}]]], "class_name": "Conv2D", "name": "conv2d_25"}, {"config": {"bias_constraint": null, "name": "conv2d_26", "data_format": "channels_last", "filters": 64, "trainable": true, "use_bias": false, "bias_regularizer": null, "strides": [1, 1], "bias_initializer": {"class_name": "Zeros", "config": {}}, "kernel_initializer": {"class_name": "VarianceScaling", "config": {"distribution": "uniform", "mode": "fan_avg", "scale": 1.0, "seed": null}}, "kernel_size": [1, 1], "padding": "same", "activity_regularizer": null, "activation": "linear", "kernel_regularizer": null, "dilation_rate": [1, 1], "kernel_constraint": null}, "inbound_nodes": [[["average_pooling2d_3", 0, 0, {}]]], "class_name": "Conv2D", "name": "conv2d_26"}, {"config": {"beta_regularizer": null, "name": "batch_normalization_20", "gamma_regularizer": null, "trainable": true, "beta_initializer": {"class_name": "Zeros", "config": {}}, "beta_constraint": null, "epsilon": 0.001, "gamma_initializer": {"class_name": "Ones", "config": {}}, "scale": false, "axis": 3, "moving_mean_initializer": {"class_name": "Zeros", "config": {}}, "moving_variance_initializer": {"class_name": "Ones", "config": {}}, "momentum": 0.99, "gamma_constraint": null, "center": true}, "inbound_nodes": [[["conv2d_20", 0, 0, {}]]], "class_name": "BatchNormalization", "name": "batch_normalization_20"}, {"config": {"beta_regularizer": null, "name": "batch_normalization_22", "gamma_regularizer": null, "trainable": true, "beta_initializer": {"class_name": "Zeros", "config": {}}, "beta_constraint": null, "epsilon": 0.001, "gamma_initializer": {"class_name": "Ones", "config": {}}, "scale": false, "axis": 3, "moving_mean_initializer": {"class_name": "Zeros", "config": {}}, "moving_variance_initializer": {"class_name": "Ones", "config": {}}, "momentum": 0.99, "gamma_constraint": null, "center": true}, "inbound_nodes": [[["conv2d_22", 0, 0, {}]]], "class_name": "BatchNormalization", "name": "batch_normalization_22"}, {"config": {"beta_regularizer": null, "name": "batch_normalization_25", "gamma_regularizer": null, "trainable": true, "beta_initializer": {"class_name": "Zeros", "config": {}}, "beta_constraint": null, "epsilon": 0.001, "gamma_initializer": {"class_name": "Ones", "config": {}}, "scale": false, "axis": 3, "moving_mean_initializer": {"class_name": "Zeros", "config": {}}, "moving_variance_initializer": {"class_name": "Ones", "config": {}}, "momentum": 0.99, "gamma_constraint": null, "center": true}, "inbound_nodes": [[["conv2d_25", 0, 0, {}]]], "class_name": "BatchNormalization", "name": "batch_normalization_25"}, {"config": {"beta_regularizer": null, "name": "batch_normalization_26", "gamma_regularizer": null, "trainable": true, "beta_initializer": {"class_name": "Zeros", "config": {}}, "beta_constraint": null, "epsilon": 0.001, "gamma_initializer": {"class_name": "Ones", "config": {}}, "scale": false, "axis": 3, "moving_mean_initializer": {"class_name": "Zeros", "config": {}}, "moving_variance_initializer": {"class_name": "Ones", "config": {}}, "momentum": 0.99, "gamma_constraint": null, "center": true}, "inbound_nodes": [[["conv2d_26", 0, 0, {}]]], "class_name": "BatchNormalization", "name": "batch_normalization_26"}, {"config": {"trainable": true, "name": "activation_20", "activation": "relu"}, "inbound_nodes": [[["batch_normalization_20", 0, 0, {}]]], "class_name": "Activation", "name": "activation_20"}, {"config": {"trainable": true, "name": "activation_22", "activation": "relu"}, "inbound_nodes": [[["batch_normalization_22", 0, 0, {}]]], "class_name": "Activation", "name": "activation_22"}, {"config": {"trainable": true, "name": "activation_25", "activation": "relu"}, "inbound_nodes": [[["batch_normalization_25", 0, 0, {}]]], "class_name": "Activation", "name": "activation_25"}, {"config": {"trainable": true, "name": "activation_26", "activation": "relu"}, "inbound_nodes": [[["batch_normalization_26", 0, 0, {}]]], "class_name": "Activation", "name": "activation_26"}, {"config": {"axis": 3, "trainable": true, "name": "mixed2"}, "inbound_nodes": [[["activation_20", 0, 0, {}], ["activation_22", 0, 0, {}], ["activation_25", 0, 0, {}], ["activation_26", 0, 0, {}]]], "class_name": "Concatenate", "name": "mixed2"}, {"config": {"bias_constraint": null, "name": "conv2d_28", "data_format": "channels_last", "filters": 64, "trainable": true, "use_bias": false, "bias_regularizer": null, "strides": [1, 1], "bias_initializer": {"class_name": "Zeros", "config": {}}, "kernel_initializer": {"class_name": "VarianceScaling", "config": {"distribution": "uniform", "mode": "fan_avg", "scale": 1.0, "seed": null}}, "kernel_size": [1, 1], "padding": "same", "activity_regularizer": null, "activation": "linear", "kernel_regularizer": null, "dilation_rate": [1, 1], "kernel_constraint": null}, "inbound_nodes": [[["mixed2", 0, 0, {}]]], "class_name": "Conv2D", "name": "conv2d_28"}, {"config": {"beta_regularizer": null, "name": "batch_normalization_28", "gamma_regularizer": null, "trainable": true, "beta_initializer": {"class_name": "Zeros", "config": {}}, "beta_constraint": null, "epsilon": 0.001, "gamma_initializer": {"class_name": "Ones", "config": {}}, "scale": false, "axis": 3, "moving_mean_initializer": {"class_name": "Zeros", "config": {}}, "moving_variance_initializer": {"class_name": "Ones", "config": {}}, "momentum": 0.99, "gamma_constraint": null, "center": true}, "inbound_nodes": [[["conv2d_28", 0, 0, {}]]], "class_name": "BatchNormalization", "name": "batch_normalization_28"}, {"config": {"trainable": true, "name": "activation_28", "activation": "relu"}, "inbound_nodes": [[["batch_normalization_28", 0, 0, {}]]], "class_name": "Activation", "name": "activation_28"}, {"config": {"bias_constraint": null, "name": "conv2d_29", "data_format": "channels_last", "filters": 96, "trainable": true, "use_bias": false, "bias_regularizer": null, "strides": [1, 1], "bias_initializer": {"class_name": "Zeros", "config": {}}, "kernel_initializer": {"class_name": "VarianceScaling", "config": {"distribution": "uniform", "mode": "fan_avg", "scale": 1.0, "seed": null}}, "kernel_size": [3, 3], "padding": "same", "activity_regularizer": null, "activation": "linear", "kernel_regularizer": null, "dilation_rate": [1, 1], "kernel_constraint": null}, "inbound_nodes": [[["activation_28", 0, 0, {}]]], "class_name": "Conv2D", "name": "conv2d_29"}, {"config": {"beta_regularizer": null, "name": "batch_normalization_29", "gamma_regularizer": null, "trainable": true, "beta_initializer": {"class_name": "Zeros", "config": {}}, "beta_constraint": null, "epsilon": 0.001, "gamma_initializer": {"class_name": "Ones", "config": {}}, "scale": false, "axis": 3, "moving_mean_initializer": {"class_name": "Zeros", "config": {}}, "moving_variance_initializer": {"class_name": "Ones", "config": {}}, "momentum": 0.99, "gamma_constraint": null, "center": true}, "inbound_nodes": [[["conv2d_29", 0, 0, {}]]], "class_name": "BatchNormalization", "name": "batch_normalization_29"}, {"config": {"trainable": true, "name": "activation_29", "activation": "relu"}, "inbound_nodes": [[["batch_normalization_29", 0, 0, {}]]], "class_name": "Activation", "name": "activation_29"}, {"config": {"bias_constraint": null, "name": "conv2d_27", "data_format": "channels_last", "filters": 384, "trainable": true, "use_bias": false, "bias_regularizer": null, "strides": [2, 2], "bias_initializer": {"class_name": "Zeros", "config": {}}, "kernel_initializer": {"class_name": "VarianceScaling", "config": {"distribution": "uniform", "mode": "fan_avg", "scale": 1.0, "seed": null}}, "kernel_size": [3, 3], "padding": "valid", "activity_regularizer": null, "activation": "linear", "kernel_regularizer": null, "dilation_rate": [1, 1], "kernel_constraint": null}, "inbound_nodes": [[["mixed2", 0, 0, {}]]], "class_name": "Conv2D", "name": "conv2d_27"}, {"config": {"bias_constraint": null, "name": "conv2d_30", "data_format": "channels_last", "filters": 96, "trainable": true, "use_bias": false, "bias_regularizer": null, "strides": [2, 2], "bias_initializer": {"class_name": "Zeros", "config": {}}, "kernel_initializer": {"class_name": "VarianceScaling", "config": {"distribution": "uniform", "mode": "fan_avg", "scale": 1.0, "seed": null}}, "kernel_size": [3, 3], "padding": "valid", "activity_regularizer": null, "activation": "linear", "kernel_regularizer": null, "dilation_rate": [1, 1], "kernel_constraint": null}, "inbound_nodes": [[["activation_29", 0, 0, {}]]], "class_name": "Conv2D", "name": "conv2d_30"}, {"config": {"beta_regularizer": null, "name": "batch_normalization_27", "gamma_regularizer": null, "trainable": true, "beta_initializer": {"class_name": "Zeros", "config": {}}, "beta_constraint": null, "epsilon": 0.001, "gamma_initializer": {"class_name": "Ones", "config": {}}, "scale": false, "axis": 3, "moving_mean_initializer": {"class_name": "Zeros", "config": {}}, "moving_variance_initializer": {"class_name": "Ones", "config": {}}, "momentum": 0.99, "gamma_constraint": null, "center": true}, "inbound_nodes": [[["conv2d_27", 0, 0, {}]]], "class_name": "BatchNormalization", "name": "batch_normalization_27"}, {"config": {"beta_regularizer": null, "name": "batch_normalization_30", "gamma_regularizer": null, "trainable": true, "beta_initializer": {"class_name": "Zeros", "config": {}}, "beta_constraint": null, "epsilon": 0.001, "gamma_initializer": {"class_name": "Ones", "config": {}}, "scale": false, "axis": 3, "moving_mean_initializer": {"class_name": "Zeros", "config": {}}, "moving_variance_initializer": {"class_name": "Ones", "config": {}}, "momentum": 0.99, "gamma_constraint": null, "center": true}, "inbound_nodes": [[["conv2d_30", 0, 0, {}]]], "class_name": "BatchNormalization", "name": "batch_normalization_30"}, {"config": {"trainable": true, "name": "activation_27", "activation": "relu"}, "inbound_nodes": [[["batch_normalization_27", 0, 0, {}]]], "class_name": "Activation", "name": "activation_27"}, {"config": {"trainable": true, "name": "activation_30", "activation": "relu"}, "inbound_nodes": [[["batch_normalization_30", 0, 0, {}]]], "class_name": "Activation", "name": "activation_30"}, {"config": {"strides": [2, 2], "name": "max_pooling2d_3", "data_format": "channels_last", "trainable": true, "padding": "valid", "pool_size": [3, 3]}, "inbound_nodes": [[["mixed2", 0, 0, {}]]], "class_name": "MaxPooling2D", "name": "max_pooling2d_3"}, {"config": {"axis": 3, "trainable": true, "name": "mixed3"}, "inbound_nodes": [[["activation_27", 0, 0, {}], ["activation_30", 0, 0, {}], ["max_pooling2d_3", 0, 0, {}]]], "class_name": "Concatenate", "name": "mixed3"}, {"config": {"bias_constraint": null, "name": "conv2d_35", "data_format": "channels_last", "filters": 128, "trainable": true, "use_bias": false, "bias_regularizer": null, "strides": [1, 1], "bias_initializer": {"class_name": "Zeros", "config": {}}, "kernel_initializer": {"class_name": "VarianceScaling", "config": {"distribution": "uniform", "mode": "fan_avg", "scale": 1.0, "seed": null}}, "kernel_size": [1, 1], "padding": "same", "activity_regularizer": null, "activation": "linear", "kernel_regularizer": null, "dilation_rate": [1, 1], "kernel_constraint": null}, "inbound_nodes": [[["mixed3", 0, 0, {}]]], "class_name": "Conv2D", "name": "conv2d_35"}, {"config": {"beta_regularizer": null, "name": "batch_normalization_35", "gamma_regularizer": null, "trainable": true, "beta_initializer": {"class_name": "Zeros", "config": {}}, "beta_constraint": null, "epsilon": 0.001, "gamma_initializer": {"class_name": "Ones", "config": {}}, "scale": false, "axis": 3, "moving_mean_initializer": {"class_name": "Zeros", "config": {}}, "moving_variance_initializer": {"class_name": "Ones", "config": {}}, "momentum": 0.99, "gamma_constraint": null, "center": true}, "inbound_nodes": [[["conv2d_35", 0, 0, {}]]], "class_name": "BatchNormalization", "name": "batch_normalization_35"}, {"config": {"trainable": true, "name": "activation_35", "activation": "relu"}, "inbound_nodes": [[["batch_normalization_35", 0, 0, {}]]], "class_name": "Activation", "name": "activation_35"}, {"config": {"bias_constraint": null, "name": "conv2d_36", "data_format": "channels_last", "filters": 128, "trainable": true, "use_bias": false, "bias_regularizer": null, "strides": [1, 1], "bias_initializer": {"class_name": "Zeros", "config": {}}, "kernel_initializer": {"class_name": "VarianceScaling", "config": {"distribution": "uniform", "mode": "fan_avg", "scale": 1.0, "seed": null}}, "kernel_size": [7, 1], "padding": "same", "activity_regularizer": null, "activation": "linear", "kernel_regularizer": null, "dilation_rate": [1, 1], "kernel_constraint": null}, "inbound_nodes": [[["activation_35", 0, 0, {}]]], "class_name": "Conv2D", "name": "conv2d_36"}, {"config": {"beta_regularizer": null, "name": "batch_normalization_36", "gamma_regularizer": null, "trainable": true, "beta_initializer": {"class_name": "Zeros", "config": {}}, "beta_constraint": null, "epsilon": 0.001, "gamma_initializer": {"class_name": "Ones", "config": {}}, "scale": false, "axis": 3, "moving_mean_initializer": {"class_name": "Zeros", "config": {}}, "moving_variance_initializer": {"class_name": "Ones", "config": {}}, "momentum": 0.99, "gamma_constraint": null, "center": true}, "inbound_nodes": [[["conv2d_36", 0, 0, {}]]], "class_name": "BatchNormalization", "name": "batch_normalization_36"}, {"config": {"trainable": true, "name": "activation_36", "activation": "relu"}, "inbound_nodes": [[["batch_normalization_36", 0, 0, {}]]], "class_name": "Activation", "name": "activation_36"}, {"config": {"bias_constraint": null, "name": "conv2d_32", "data_format": "channels_last", "filters": 128, "trainable": true, "use_bias": false, "bias_regularizer": null, "strides": [1, 1], "bias_initializer": {"class_name": "Zeros", "config": {}}, "kernel_initializer": {"class_name": "VarianceScaling", "config": {"distribution": "uniform", "mode": "fan_avg", "scale": 1.0, "seed": null}}, "kernel_size": [1, 1], "padding": "same", "activity_regularizer": null, "activation": "linear", "kernel_regularizer": null, "dilation_rate": [1, 1], "kernel_constraint": null}, "inbound_nodes": [[["mixed3", 0, 0, {}]]], "class_name": "Conv2D", "name": "conv2d_32"}, {"config": {"bias_constraint": null, "name": "conv2d_37", "data_format": "channels_last", "filters": 128, "trainable": true, "use_bias": false, "bias_regularizer": null, "strides": [1, 1], "bias_initializer": {"class_name": "Zeros", "config": {}}, "kernel_initializer": {"class_name": "VarianceScaling", "config": {"distribution": "uniform", "mode": "fan_avg", "scale": 1.0, "seed": null}}, "kernel_size": [1, 7], "padding": "same", "activity_regularizer": null, "activation": "linear", "kernel_regularizer": null, "dilation_rate": [1, 1], "kernel_constraint": null}, "inbound_nodes": [[["activation_36", 0, 0, {}]]], "class_name": "Conv2D", "name": "conv2d_37"}, {"config": {"beta_regularizer": null, "name": "batch_normalization_32", "gamma_regularizer": null, "trainable": true, "beta_initializer": {"class_name": "Zeros", "config": {}}, "beta_constraint": null, "epsilon": 0.001, "gamma_initializer": {"class_name": "Ones", "config": {}}, "scale": false, "axis": 3, "moving_mean_initializer": {"class_name": "Zeros", "config": {}}, "moving_variance_initializer": {"class_name": "Ones", "config": {}}, "momentum": 0.99, "gamma_constraint": null, "center": true}, "inbound_nodes": [[["conv2d_32", 0, 0, {}]]], "class_name": "BatchNormalization", "name": "batch_normalization_32"}, {"config": {"beta_regularizer": null, "name": "batch_normalization_37", "gamma_regularizer": null, "trainable": true, "beta_initializer": {"class_name": "Zeros", "config": {}}, "beta_constraint": null, "epsilon": 0.001, "gamma_initializer": {"class_name": "Ones", "config": {}}, "scale": false, "axis": 3, "moving_mean_initializer": {"class_name": "Zeros", "config": {}}, "moving_variance_initializer": {"class_name": "Ones", "config": {}}, "momentum": 0.99, "gamma_constraint": null, "center": true}, "inbound_nodes": [[["conv2d_37", 0, 0, {}]]], "class_name": "BatchNormalization", "name": "batch_normalization_37"}, {"config": {"trainable": true, "name": "activation_32", "activation": "relu"}, "inbound_nodes": [[["batch_normalization_32", 0, 0, {}]]], "class_name": "Activation", "name": "activation_32"}, {"config": {"trainable": true, "name": "activation_37", "activation": "relu"}, "inbound_nodes": [[["batch_normalization_37", 0, 0, {}]]], "class_name": "Activation", "name": "activation_37"}, {"config": {"bias_constraint": null, "name": "conv2d_33", "data_format": "channels_last", "filters": 128, "trainable": true, "use_bias": false, "bias_regularizer": null, "strides": [1, 1], "bias_initializer": {"class_name": "Zeros", "config": {}}, "kernel_initializer": {"class_name": "VarianceScaling", "config": {"distribution": "uniform", "mode": "fan_avg", "scale": 1.0, "seed": null}}, "kernel_size": [1, 7], "padding": "same", "activity_regularizer": null, "activation": "linear", "kernel_regularizer": null, "dilation_rate": [1, 1], "kernel_constraint": null}, "inbound_nodes": [[["activation_32", 0, 0, {}]]], "class_name": "Conv2D", "name": "conv2d_33"}, {"config": {"bias_constraint": null, "name": "conv2d_38", "data_format": "channels_last", "filters": 128, "trainable": true, "use_bias": false, "bias_regularizer": null, "strides": [1, 1], "bias_initializer": {"class_name": "Zeros", "config": {}}, "kernel_initializer": {"class_name": "VarianceScaling", "config": {"distribution": "uniform", "mode": "fan_avg", "scale": 1.0, "seed": null}}, "kernel_size": [7, 1], "padding": "same", "activity_regularizer": null, "activation": "linear", "kernel_regularizer": null, "dilation_rate": [1, 1], "kernel_constraint": null}, "inbound_nodes": [[["activation_37", 0, 0, {}]]], "class_name": "Conv2D", "name": "conv2d_38"}, {"config": {"beta_regularizer": null, "name": "batch_normalization_33", "gamma_regularizer": null, "trainable": true, "beta_initializer": {"class_name": "Zeros", "config": {}}, "beta_constraint": null, "epsilon": 0.001, "gamma_initializer": {"class_name": "Ones", "config": {}}, "scale": false, "axis": 3, "moving_mean_initializer": {"class_name": "Zeros", "config": {}}, "moving_variance_initializer": {"class_name": "Ones", "config": {}}, "momentum": 0.99, "gamma_constraint": null, "center": true}, "inbound_nodes": [[["conv2d_33", 0, 0, {}]]], "class_name": "BatchNormalization", "name": "batch_normalization_33"}, {"config": {"beta_regularizer": null, "name": "batch_normalization_38", "gamma_regularizer": null, "trainable": true, "beta_initializer": {"class_name": "Zeros", "config": {}}, "beta_constraint": null, "epsilon": 0.001, "gamma_initializer": {"class_name": "Ones", "config": {}}, "scale": false, "axis": 3, "moving_mean_initializer": {"class_name": "Zeros", "config": {}}, "moving_variance_initializer": {"class_name": "Ones", "config": {}}, "momentum": 0.99, "gamma_constraint": null, "center": true}, "inbound_nodes": [[["conv2d_38", 0, 0, {}]]], "class_name": "BatchNormalization", "name": "batch_normalization_38"}, {"config": {"trainable": true, "name": "activation_33", "activation": "relu"}, "inbound_nodes": [[["batch_normalization_33", 0, 0, {}]]], "class_name": "Activation", "name": "activation_33"}, {"config": {"trainable": true, "name": "activation_38", "activation": "relu"}, "inbound_nodes": [[["batch_normalization_38", 0, 0, {}]]], "class_name": "Activation", "name": "activation_38"}, {"config": {"strides": [1, 1], "name": "average_pooling2d_4", "data_format": "channels_last", "trainable": true, "padding": "same", "pool_size": [3, 3]}, "inbound_nodes": [[["mixed3", 0, 0, {}]]], "class_name": "AveragePooling2D", "name": "average_pooling2d_4"}, {"config": {"bias_constraint": null, "name": "conv2d_31", "data_format": "channels_last", "filters": 192, "trainable": true, "use_bias": false, "bias_regularizer": null, "strides": [1, 1], "bias_initializer": {"class_name": "Zeros", "config": {}}, "kernel_initializer": {"class_name": "VarianceScaling", "config": {"distribution": "uniform", "mode": "fan_avg", "scale": 1.0, "seed": null}}, "kernel_size": [1, 1], "padding": "same", "activity_regularizer": null, "activation": "linear", "kernel_regularizer": null, "dilation_rate": [1, 1], "kernel_constraint": null}, "inbound_nodes": [[["mixed3", 0, 0, {}]]], "class_name": "Conv2D", "name": "conv2d_31"}, {"config": {"bias_constraint": null, "name": "conv2d_34", "data_format": "channels_last", "filters": 192, "trainable": true, "use_bias": false, "bias_regularizer": null, "strides": [1, 1], "bias_initializer": {"class_name": "Zeros", "config": {}}, "kernel_initializer": {"class_name": "VarianceScaling", "config": {"distribution": "uniform", "mode": "fan_avg", "scale": 1.0, "seed": null}}, "kernel_size": [7, 1], "padding": "same", "activity_regularizer": null, "activation": "linear", "kernel_regularizer": null, "dilation_rate": [1, 1], "kernel_constraint": null}, "inbound_nodes": [[["activation_33", 0, 0, {}]]], "class_name": "Conv2D", "name": "conv2d_34"}, {"config": {"bias_constraint": null, "name": "conv2d_39", "data_format": "channels_last", "filters": 192, "trainable": true, "use_bias": false, "bias_regularizer": null, "strides": [1, 1], "bias_initializer": {"class_name": "Zeros", "config": {}}, "kernel_initializer": {"class_name": "VarianceScaling", "config": {"distribution": "uniform", "mode": "fan_avg", "scale": 1.0, "seed": null}}, "kernel_size": [1, 7], "padding": "same", "activity_regularizer": null, "activation": "linear", "kernel_regularizer": null, "dilation_rate": [1, 1], "kernel_constraint": null}, "inbound_nodes": [[["activation_38", 0, 0, {}]]], "class_name": "Conv2D", "name": "conv2d_39"}, {"config": {"bias_constraint": null, "name": "conv2d_40", "data_format": "channels_last", "filters": 192, "trainable": true, "use_bias": false, "bias_regularizer": null, "strides": [1, 1], "bias_initializer": {"class_name": "Zeros", "config": {}}, "kernel_initializer": {"class_name": "VarianceScaling", "config": {"distribution": "uniform", "mode": "fan_avg", "scale": 1.0, "seed": null}}, "kernel_size": [1, 1], "padding": "same", "activity_regularizer": null, "activation": "linear", "kernel_regularizer": null, "dilation_rate": [1, 1], "kernel_constraint": null}, "inbound_nodes": [[["average_pooling2d_4", 0, 0, {}]]], "class_name": "Conv2D", "name": "conv2d_40"}, {"config": {"beta_regularizer": null, "name": "batch_normalization_31", "gamma_regularizer": null, "trainable": true, "beta_initializer": {"class_name": "Zeros", "config": {}}, "beta_constraint": null, "epsilon": 0.001, "gamma_initializer": {"class_name": "Ones", "config": {}}, "scale": false, "axis": 3, "moving_mean_initializer": {"class_name": "Zeros", "config": {}}, "moving_variance_initializer": {"class_name": "Ones", "config": {}}, "momentum": 0.99, "gamma_constraint": null, "center": true}, "inbound_nodes": [[["conv2d_31", 0, 0, {}]]], "class_name": "BatchNormalization", "name": "batch_normalization_31"}, {"config": {"beta_regularizer": null, "name": "batch_normalization_34", "gamma_regularizer": null, "trainable": true, "beta_initializer": {"class_name": "Zeros", "config": {}}, "beta_constraint": null, "epsilon": 0.001, "gamma_initializer": {"class_name": "Ones", "config": {}}, "scale": false, "axis": 3, "moving_mean_initializer": {"class_name": "Zeros", "config": {}}, "moving_variance_initializer": {"class_name": "Ones", "config": {}}, "momentum": 0.99, "gamma_constraint": null, "center": true}, "inbound_nodes": [[["conv2d_34", 0, 0, {}]]], "class_name": "BatchNormalization", "name": "batch_normalization_34"}, {"config": {"beta_regularizer": null, "name": "batch_normalization_39", "gamma_regularizer": null, "trainable": true, "beta_initializer": {"class_name": "Zeros", "config": {}}, "beta_constraint": null, "epsilon": 0.001, "gamma_initializer": {"class_name": "Ones", "config": {}}, "scale": false, "axis": 3, "moving_mean_initializer": {"class_name": "Zeros", "config": {}}, "moving_variance_initializer": {"class_name": "Ones", "config": {}}, "momentum": 0.99, "gamma_constraint": null, "center": true}, "inbound_nodes": [[["conv2d_39", 0, 0, {}]]], "class_name": "BatchNormalization", "name": "batch_normalization_39"}, {"config": {"beta_regularizer": null, "name": "batch_normalization_40", "gamma_regularizer": null, "trainable": true, "beta_initializer": {"class_name": "Zeros", "config": {}}, "beta_constraint": null, "epsilon": 0.001, "gamma_initializer": {"class_name": "Ones", "config": {}}, "scale": false, "axis": 3, "moving_mean_initializer": {"class_name": "Zeros", "config": {}}, "moving_variance_initializer": {"class_name": "Ones", "config": {}}, "momentum": 0.99, "gamma_constraint": null, "center": true}, "inbound_nodes": [[["conv2d_40", 0, 0, {}]]], "class_name": "BatchNormalization", "name": "batch_normalization_40"}, {"config": {"trainable": true, "name": "activation_31", "activation": "relu"}, "inbound_nodes": [[["batch_normalization_31", 0, 0, {}]]], "class_name": "Activation", "name": "activation_31"}, {"config": {"trainable": true, "name": "activation_34", "activation": "relu"}, "inbound_nodes": [[["batch_normalization_34", 0, 0, {}]]], "class_name": "Activation", "name": "activation_34"}, {"config": {"trainable": true, "name": "activation_39", "activation": "relu"}, "inbound_nodes": [[["batch_normalization_39", 0, 0, {}]]], "class_name": "Activation", "name": "activation_39"}, {"config": {"trainable": true, "name": "activation_40", "activation": "relu"}, "inbound_nodes": [[["batch_normalization_40", 0, 0, {}]]], "class_name": "Activation", "name": "activation_40"}, {"config": {"axis": 3, "trainable": true, "name": "mixed4"}, "inbound_nodes": [[["activation_31", 0, 0, {}], ["activation_34", 0, 0, {}], ["activation_39", 0, 0, {}], ["activation_40", 0, 0, {}]]], "class_name": "Concatenate", "name": "mixed4"}, {"config": {"bias_constraint": null, "name": "conv2d_45", "data_format": "channels_last", "filters": 160, "trainable": true, "use_bias": false, "bias_regularizer": null, "strides": [1, 1], "bias_initializer": {"class_name": "Zeros", "config": {}}, "kernel_initializer": {"class_name": "VarianceScaling", "config": {"distribution": "uniform", "mode": "fan_avg", "scale": 1.0, "seed": null}}, "kernel_size": [1, 1], "padding": "same", "activity_regularizer": null, "activation": "linear", "kernel_regularizer": null, "dilation_rate": [1, 1], "kernel_constraint": null}, "inbound_nodes": [[["mixed4", 0, 0, {}]]], "class_name": "Conv2D", "name": "conv2d_45"}, {"config": {"beta_regularizer": null, "name": "batch_normalization_45", "gamma_regularizer": null, "trainable": true, "beta_initializer": {"class_name": "Zeros", "config": {}}, "beta_constraint": null, "epsilon": 0.001, "gamma_initializer": {"class_name": "Ones", "config": {}}, "scale": false, "axis": 3, "moving_mean_initializer": {"class_name": "Zeros", "config": {}}, "moving_variance_initializer": {"class_name": "Ones", "config": {}}, "momentum": 0.99, "gamma_constraint": null, "center": true}, "inbound_nodes": [[["conv2d_45", 0, 0, {}]]], "class_name": "BatchNormalization", "name": "batch_normalization_45"}, {"config": {"trainable": true, "name": "activation_45", "activation": "relu"}, "inbound_nodes": [[["batch_normalization_45", 0, 0, {}]]], "class_name": "Activation", "name": "activation_45"}, {"config": {"bias_constraint": null, "name": "conv2d_46", "data_format": "channels_last", "filters": 160, "trainable": true, "use_bias": false, "bias_regularizer": null, "strides": [1, 1], "bias_initializer": {"class_name": "Zeros", "config": {}}, "kernel_initializer": {"class_name": "VarianceScaling", "config": {"distribution": "uniform", "mode": "fan_avg", "scale": 1.0, "seed": null}}, "kernel_size": [7, 1], "padding": "same", "activity_regularizer": null, "activation": "linear", "kernel_regularizer": null, "dilation_rate": [1, 1], "kernel_constraint": null}, "inbound_nodes": [[["activation_45", 0, 0, {}]]], "class_name": "Conv2D", "name": "conv2d_46"}, {"config": {"beta_regularizer": null, "name": "batch_normalization_46", "gamma_regularizer": null, "trainable": true, "beta_initializer": {"class_name": "Zeros", "config": {}}, "beta_constraint": null, "epsilon": 0.001, "gamma_initializer": {"class_name": "Ones", "config": {}}, "scale": false, "axis": 3, "moving_mean_initializer": {"class_name": "Zeros", "config": {}}, "moving_variance_initializer": {"class_name": "Ones", "config": {}}, "momentum": 0.99, "gamma_constraint": null, "center": true}, "inbound_nodes": [[["conv2d_46", 0, 0, {}]]], "class_name": "BatchNormalization", "name": "batch_normalization_46"}, {"config": {"trainable": true, "name": "activation_46", "activation": "relu"}, "inbound_nodes": [[["batch_normalization_46", 0, 0, {}]]], "class_name": "Activation", "name": "activation_46"}, {"config": {"bias_constraint": null, "name": "conv2d_42", "data_format": "channels_last", "filters": 160, "trainable": true, "use_bias": false, "bias_regularizer": null, "strides": [1, 1], "bias_initializer": {"class_name": "Zeros", "config": {}}, "kernel_initializer": {"class_name": "VarianceScaling", "config": {"distribution": "uniform", "mode": "fan_avg", "scale": 1.0, "seed": null}}, "kernel_size": [1, 1], "padding": "same", "activity_regularizer": null, "activation": "linear", "kernel_regularizer": null, "dilation_rate": [1, 1], "kernel_constraint": null}, "inbound_nodes": [[["mixed4", 0, 0, {}]]], "class_name": "Conv2D", "name": "conv2d_42"}, {"config": {"bias_constraint": null, "name": "conv2d_47", "data_format": "channels_last", "filters": 160, "trainable": true, "use_bias": false, "bias_regularizer": null, "strides": [1, 1], "bias_initializer": {"class_name": "Zeros", "config": {}}, "kernel_initializer": {"class_name": "VarianceScaling", "config": {"distribution": "uniform", "mode": "fan_avg", "scale": 1.0, "seed": null}}, "kernel_size": [1, 7], "padding": "same", "activity_regularizer": null, "activation": "linear", "kernel_regularizer": null, "dilation_rate": [1, 1], "kernel_constraint": null}, "inbound_nodes": [[["activation_46", 0, 0, {}]]], "class_name": "Conv2D", "name": "conv2d_47"}, {"config": {"beta_regularizer": null, "name": "batch_normalization_42", "gamma_regularizer": null, "trainable": true, "beta_initializer": {"class_name": "Zeros", "config": {}}, "beta_constraint": null, "epsilon": 0.001, "gamma_initializer": {"class_name": "Ones", "config": {}}, "scale": false, "axis": 3, "moving_mean_initializer": {"class_name": "Zeros", "config": {}}, "moving_variance_initializer": {"class_name": "Ones", "config": {}}, "momentum": 0.99, "gamma_constraint": null, "center": true}, "inbound_nodes": [[["conv2d_42", 0, 0, {}]]], "class_name": "BatchNormalization", "name": "batch_normalization_42"}, {"config": {"beta_regularizer": null, "name": "batch_normalization_47", "gamma_regularizer": null, "trainable": true, "beta_initializer": {"class_name": "Zeros", "config": {}}, "beta_constraint": null, "epsilon": 0.001, "gamma_initializer": {"class_name": "Ones", "config": {}}, "scale": false, "axis": 3, "moving_mean_initializer": {"class_name": "Zeros", "config": {}}, "moving_variance_initializer": {"class_name": "Ones", "config": {}}, "momentum": 0.99, "gamma_constraint": null, "center": true}, "inbound_nodes": [[["conv2d_47", 0, 0, {}]]], "class_name": "BatchNormalization", "name": "batch_normalization_47"}, {"config": {"trainable": true, "name": "activation_42", "activation": "relu"}, "inbound_nodes": [[["batch_normalization_42", 0, 0, {}]]], "class_name": "Activation", "name": "activation_42"}, {"config": {"trainable": true, "name": "activation_47", "activation": "relu"}, "inbound_nodes": [[["batch_normalization_47", 0, 0, {}]]], "class_name": "Activation", "name": "activation_47"}, {"config": {"bias_constraint": null, "name": "conv2d_43", "data_format": "channels_last", "filters": 160, "trainable": true, "use_bias": false, "bias_regularizer": null, "strides": [1, 1], "bias_initializer": {"class_name": "Zeros", "config": {}}, "kernel_initializer": {"class_name": "VarianceScaling", "config": {"distribution": "uniform", "mode": "fan_avg", "scale": 1.0, "seed": null}}, "kernel_size": [1, 7], "padding": "same", "activity_regularizer": null, "activation": "linear", "kernel_regularizer": null, "dilation_rate": [1, 1], "kernel_constraint": null}, "inbound_nodes": [[["activation_42", 0, 0, {}]]], "class_name": "Conv2D", "name": "conv2d_43"}, {"config": {"bias_constraint": null, "name": "conv2d_48", "data_format": "channels_last", "filters": 160, "trainable": true, "use_bias": false, "bias_regularizer": null, "strides": [1, 1], "bias_initializer": {"class_name": "Zeros", "config": {}}, "kernel_initializer": {"class_name": "VarianceScaling", "config": {"distribution": "uniform", "mode": "fan_avg", "scale": 1.0, "seed": null}}, "kernel_size": [7, 1], "padding": "same", "activity_regularizer": null, "activation": "linear", "kernel_regularizer": null, "dilation_rate": [1, 1], "kernel_constraint": null}, "inbound_nodes": [[["activation_47", 0, 0, {}]]], "class_name": "Conv2D", "name": "conv2d_48"}, {"config": {"beta_regularizer": null, "name": "batch_normalization_43", "gamma_regularizer": null, "trainable": true, "beta_initializer": {"class_name": "Zeros", "config": {}}, "beta_constraint": null, "epsilon": 0.001, "gamma_initializer": {"class_name": "Ones", "config": {}}, "scale": false, "axis": 3, "moving_mean_initializer": {"class_name": "Zeros", "config": {}}, "moving_variance_initializer": {"class_name": "Ones", "config": {}}, "momentum": 0.99, "gamma_constraint": null, "center": true}, "inbound_nodes": [[["conv2d_43", 0, 0, {}]]], "class_name": "BatchNormalization", "name": "batch_normalization_43"}, {"config": {"beta_regularizer": null, "name": "batch_normalization_48", "gamma_regularizer": null, "trainable": true, "beta_initializer": {"class_name": "Zeros", "config": {}}, "beta_constraint": null, "epsilon": 0.001, "gamma_initializer": {"class_name": "Ones", "config": {}}, "scale": false, "axis": 3, "moving_mean_initializer": {"class_name": "Zeros", "config": {}}, "moving_variance_initializer": {"class_name": "Ones", "config": {}}, "momentum": 0.99, "gamma_constraint": null, "center": true}, "inbound_nodes": [[["conv2d_48", 0, 0, {}]]], "class_name": "BatchNormalization", "name": "batch_normalization_48"}, {"config": {"trainable": true, "name": "activation_43", "activation": "relu"}, "inbound_nodes": [[["batch_normalization_43", 0, 0, {}]]], "class_name": "Activation", "name": "activation_43"}, {"config": {"trainable": true, "name": "activation_48", "activation": "relu"}, "inbound_nodes": [[["batch_normalization_48", 0, 0, {}]]], "class_name": "Activation", "name": "activation_48"}, {"config": {"strides": [1, 1], "name": "average_pooling2d_5", "data_format": "channels_last", "trainable": true, "padding": "same", "pool_size": [3, 3]}, "inbound_nodes": [[["mixed4", 0, 0, {}]]], "class_name": "AveragePooling2D", "name": "average_pooling2d_5"}, {"config": {"bias_constraint": null, "name": "conv2d_41", "data_format": "channels_last", "filters": 192, "trainable": true, "use_bias": false, "bias_regularizer": null, "strides": [1, 1], "bias_initializer": {"class_name": "Zeros", "config": {}}, "kernel_initializer": {"class_name": "VarianceScaling", "config": {"distribution": "uniform", "mode": "fan_avg", "scale": 1.0, "seed": null}}, "kernel_size": [1, 1], "padding": "same", "activity_regularizer": null, "activation": "linear", "kernel_regularizer": null, "dilation_rate": [1, 1], "kernel_constraint": null}, "inbound_nodes": [[["mixed4", 0, 0, {}]]], "class_name": "Conv2D", "name": "conv2d_41"}, {"config": {"bias_constraint": null, "name": "conv2d_44", "data_format": "channels_last", "filters": 192, "trainable": true, "use_bias": false, "bias_regularizer": null, "strides": [1, 1], "bias_initializer": {"class_name": "Zeros", "config": {}}, "kernel_initializer": {"class_name": "VarianceScaling", "config": {"distribution": "uniform", "mode": "fan_avg", "scale": 1.0, "seed": null}}, "kernel_size": [7, 1], "padding": "same", "activity_regularizer": null, "activation": "linear", "kernel_regularizer": null, "dilation_rate": [1, 1], "kernel_constraint": null}, "inbound_nodes": [[["activation_43", 0, 0, {}]]], "class_name": "Conv2D", "name": "conv2d_44"}, {"config": {"bias_constraint": null, "name": "conv2d_49", "data_format": "channels_last", "filters": 192, "trainable": true, "use_bias": false, "bias_regularizer": null, "strides": [1, 1], "bias_initializer": {"class_name": "Zeros", "config": {}}, "kernel_initializer": {"class_name": "VarianceScaling", "config": {"distribution": "uniform", "mode": "fan_avg", "scale": 1.0, "seed": null}}, "kernel_size": [1, 7], "padding": "same", "activity_regularizer": null, "activation": "linear", "kernel_regularizer": null, "dilation_rate": [1, 1], "kernel_constraint": null}, "inbound_nodes": [[["activation_48", 0, 0, {}]]], "class_name": "Conv2D", "name": "conv2d_49"}, {"config": {"bias_constraint": null, "name": "conv2d_50", "data_format": "channels_last", "filters": 192, "trainable": true, "use_bias": false, "bias_regularizer": null, "strides": [1, 1], "bias_initializer": {"class_name": "Zeros", "config": {}}, "kernel_initializer": {"class_name": "VarianceScaling", "config": {"distribution": "uniform", "mode": "fan_avg", "scale": 1.0, "seed": null}}, "kernel_size": [1, 1], "padding": "same", "activity_regularizer": null, "activation": "linear", "kernel_regularizer": null, "dilation_rate": [1, 1], "kernel_constraint": null}, "inbound_nodes": [[["average_pooling2d_5", 0, 0, {}]]], "class_name": "Conv2D", "name": "conv2d_50"}, {"config": {"beta_regularizer": null, "name": "batch_normalization_41", "gamma_regularizer": null, "trainable": true, "beta_initializer": {"class_name": "Zeros", "config": {}}, "beta_constraint": null, "epsilon": 0.001, "gamma_initializer": {"class_name": "Ones", "config": {}}, "scale": false, "axis": 3, "moving_mean_initializer": {"class_name": "Zeros", "config": {}}, "moving_variance_initializer": {"class_name": "Ones", "config": {}}, "momentum": 0.99, "gamma_constraint": null, "center": true}, "inbound_nodes": [[["conv2d_41", 0, 0, {}]]], "class_name": "BatchNormalization", "name": "batch_normalization_41"}, {"config": {"beta_regularizer": null, "name": "batch_normalization_44", "gamma_regularizer": null, "trainable": true, "beta_initializer": {"class_name": "Zeros", "config": {}}, "beta_constraint": null, "epsilon": 0.001, "gamma_initializer": {"class_name": "Ones", "config": {}}, "scale": false, "axis": 3, "moving_mean_initializer": {"class_name": "Zeros", "config": {}}, "moving_variance_initializer": {"class_name": "Ones", "config": {}}, "momentum": 0.99, "gamma_constraint": null, "center": true}, "inbound_nodes": [[["conv2d_44", 0, 0, {}]]], "class_name": "BatchNormalization", "name": "batch_normalization_44"}, {"config": {"beta_regularizer": null, "name": "batch_normalization_49", "gamma_regularizer": null, "trainable": true, "beta_initializer": {"class_name": "Zeros", "config": {}}, "beta_constraint": null, "epsilon": 0.001, "gamma_initializer": {"class_name": "Ones", "config": {}}, "scale": false, "axis": 3, "moving_mean_initializer": {"class_name": "Zeros", "config": {}}, "moving_variance_initializer": {"class_name": "Ones", "config": {}}, "momentum": 0.99, "gamma_constraint": null, "center": true}, "inbound_nodes": [[["conv2d_49", 0, 0, {}]]], "class_name": "BatchNormalization", "name": "batch_normalization_49"}, {"config": {"beta_regularizer": null, "name": "batch_normalization_50", "gamma_regularizer": null, "trainable": true, "beta_initializer": {"class_name": "Zeros", "config": {}}, "beta_constraint": null, "epsilon": 0.001, "gamma_initializer": {"class_name": "Ones", "config": {}}, "scale": false, "axis": 3, "moving_mean_initializer": {"class_name": "Zeros", "config": {}}, "moving_variance_initializer": {"class_name": "Ones", "config": {}}, "momentum": 0.99, "gamma_constraint": null, "center": true}, "inbound_nodes": [[["conv2d_50", 0, 0, {}]]], "class_name": "BatchNormalization", "name": "batch_normalization_50"}, {"config": {"trainable": true, "name": "activation_41", "activation": "relu"}, "inbound_nodes": [[["batch_normalization_41", 0, 0, {}]]], "class_name": "Activation", "name": "activation_41"}, {"config": {"trainable": true, "name": "activation_44", "activation": "relu"}, "inbound_nodes": [[["batch_normalization_44", 0, 0, {}]]], "class_name": "Activation", "name": "activation_44"}, {"config": {"trainable": true, "name": "activation_49", "activation": "relu"}, "inbound_nodes": [[["batch_normalization_49", 0, 0, {}]]], "class_name": "Activation", "name": "activation_49"}, {"config": {"trainable": true, "name": "activation_50", "activation": "relu"}, "inbound_nodes": [[["batch_normalization_50", 0, 0, {}]]], "class_name": "Activation", "name": "activation_50"}, {"config": {"axis": 3, "trainable": true, "name": "mixed5"}, "inbound_nodes": [[["activation_41", 0, 0, {}], ["activation_44", 0, 0, {}], ["activation_49", 0, 0, {}], ["activation_50", 0, 0, {}]]], "class_name": "Concatenate", "name": "mixed5"}, {"config": {"bias_constraint": null, "name": "conv2d_55", "data_format": "channels_last", "filters": 160, "trainable": true, "use_bias": false, "bias_regularizer": null, "strides": [1, 1], "bias_initializer": {"class_name": "Zeros", "config": {}}, "kernel_initializer": {"class_name": "VarianceScaling", "config": {"distribution": "uniform", "mode": "fan_avg", "scale": 1.0, "seed": null}}, "kernel_size": [1, 1], "padding": "same", "activity_regularizer": null, "activation": "linear", "kernel_regularizer": null, "dilation_rate": [1, 1], "kernel_constraint": null}, "inbound_nodes": [[["mixed5", 0, 0, {}]]], "class_name": "Conv2D", "name": "conv2d_55"}, {"config": {"beta_regularizer": null, "name": "batch_normalization_55", "gamma_regularizer": null, "trainable": true, "beta_initializer": {"class_name": "Zeros", "config": {}}, "beta_constraint": null, "epsilon": 0.001, "gamma_initializer": {"class_name": "Ones", "config": {}}, "scale": false, "axis": 3, "moving_mean_initializer": {"class_name": "Zeros", "config": {}}, "moving_variance_initializer": {"class_name": "Ones", "config": {}}, "momentum": 0.99, "gamma_constraint": null, "center": true}, "inbound_nodes": [[["conv2d_55", 0, 0, {}]]], "class_name": "BatchNormalization", "name": "batch_normalization_55"}, {"config": {"trainable": true, "name": "activation_55", "activation": "relu"}, "inbound_nodes": [[["batch_normalization_55", 0, 0, {}]]], "class_name": "Activation", "name": "activation_55"}, {"config": {"bias_constraint": null, "name": "conv2d_56", "data_format": "channels_last", "filters": 160, "trainable": true, "use_bias": false, "bias_regularizer": null, "strides": [1, 1], "bias_initializer": {"class_name": "Zeros", "config": {}}, "kernel_initializer": {"class_name": "VarianceScaling", "config": {"distribution": "uniform", "mode": "fan_avg", "scale": 1.0, "seed": null}}, "kernel_size": [7, 1], "padding": "same", "activity_regularizer": null, "activation": "linear", "kernel_regularizer": null, "dilation_rate": [1, 1], "kernel_constraint": null}, "inbound_nodes": [[["activation_55", 0, 0, {}]]], "class_name": "Conv2D", "name": "conv2d_56"}, {"config": {"beta_regularizer": null, "name": "batch_normalization_56", "gamma_regularizer": null, "trainable": true, "beta_initializer": {"class_name": "Zeros", "config": {}}, "beta_constraint": null, "epsilon": 0.001, "gamma_initializer": {"class_name": "Ones", "config": {}}, "scale": false, "axis": 3, "moving_mean_initializer": {"class_name": "Zeros", "config": {}}, "moving_variance_initializer": {"class_name": "Ones", "config": {}}, "momentum": 0.99, "gamma_constraint": null, "center": true}, "inbound_nodes": [[["conv2d_56", 0, 0, {}]]], "class_name": "BatchNormalization", "name": "batch_normalization_56"}, {"config": {"trainable": true, "name": "activation_56", "activation": "relu"}, "inbound_nodes": [[["batch_normalization_56", 0, 0, {}]]], "class_name": "Activation", "name": "activation_56"}, {"config": {"bias_constraint": null, "name": "conv2d_52", "data_format": "channels_last", "filters": 160, "trainable": true, "use_bias": false, "bias_regularizer": null, "strides": [1, 1], "bias_initializer": {"class_name": "Zeros", "config": {}}, "kernel_initializer": {"class_name": "VarianceScaling", "config": {"distribution": "uniform", "mode": "fan_avg", "scale": 1.0, "seed": null}}, "kernel_size": [1, 1], "padding": "same", "activity_regularizer": null, "activation": "linear", "kernel_regularizer": null, "dilation_rate": [1, 1], "kernel_constraint": null}, "inbound_nodes": [[["mixed5", 0, 0, {}]]], "class_name": "Conv2D", "name": "conv2d_52"}, {"config": {"bias_constraint": null, "name": "conv2d_57", "data_format": "channels_last", "filters": 160, "trainable": true, "use_bias": false, "bias_regularizer": null, "strides": [1, 1], "bias_initializer": {"class_name": "Zeros", "config": {}}, "kernel_initializer": {"class_name": "VarianceScaling", "config": {"distribution": "uniform", "mode": "fan_avg", "scale": 1.0, "seed": null}}, "kernel_size": [1, 7], "padding": "same", "activity_regularizer": null, "activation": "linear", "kernel_regularizer": null, "dilation_rate": [1, 1], "kernel_constraint": null}, "inbound_nodes": [[["activation_56", 0, 0, {}]]], "class_name": "Conv2D", "name": "conv2d_57"}, {"config": {"beta_regularizer": null, "name": "batch_normalization_52", "gamma_regularizer": null, "trainable": true, "beta_initializer": {"class_name": "Zeros", "config": {}}, "beta_constraint": null, "epsilon": 0.001, "gamma_initializer": {"class_name": "Ones", "config": {}}, "scale": false, "axis": 3, "moving_mean_initializer": {"class_name": "Zeros", "config": {}}, "moving_variance_initializer": {"class_name": "Ones", "config": {}}, "momentum": 0.99, "gamma_constraint": null, "center": true}, "inbound_nodes": [[["conv2d_52", 0, 0, {}]]], "class_name": "BatchNormalization", "name": "batch_normalization_52"}, {"config": {"beta_regularizer": null, "name": "batch_normalization_57", "gamma_regularizer": null, "trainable": true, "beta_initializer": {"class_name": "Zeros", "config": {}}, "beta_constraint": null, "epsilon": 0.001, "gamma_initializer": {"class_name": "Ones", "config": {}}, "scale": false, "axis": 3, "moving_mean_initializer": {"class_name": "Zeros", "config": {}}, "moving_variance_initializer": {"class_name": "Ones", "config": {}}, "momentum": 0.99, "gamma_constraint": null, "center": true}, "inbound_nodes": [[["conv2d_57", 0, 0, {}]]], "class_name": "BatchNormalization", "name": "batch_normalization_57"}, {"config": {"trainable": true, "name": "activation_52", "activation": "relu"}, "inbound_nodes": [[["batch_normalization_52", 0, 0, {}]]], "class_name": "Activation", "name": "activation_52"}, {"config": {"trainable": true, "name": "activation_57", "activation": "relu"}, "inbound_nodes": [[["batch_normalization_57", 0, 0, {}]]], "class_name": "Activation", "name": "activation_57"}, {"config": {"bias_constraint": null, "name": "conv2d_53", "data_format": "channels_last", "filters": 160, "trainable": true, "use_bias": false, "bias_regularizer": null, "strides": [1, 1], "bias_initializer": {"class_name": "Zeros", "config": {}}, "kernel_initializer": {"class_name": "VarianceScaling", "config": {"distribution": "uniform", "mode": "fan_avg", "scale": 1.0, "seed": null}}, "kernel_size": [1, 7], "padding": "same", "activity_regularizer": null, "activation": "linear", "kernel_regularizer": null, "dilation_rate": [1, 1], "kernel_constraint": null}, "inbound_nodes": [[["activation_52", 0, 0, {}]]], "class_name": "Conv2D", "name": "conv2d_53"}, {"config": {"bias_constraint": null, "name": "conv2d_58", "data_format": "channels_last", "filters": 160, "trainable": true, "use_bias": false, "bias_regularizer": null, "strides": [1, 1], "bias_initializer": {"class_name": "Zeros", "config": {}}, "kernel_initializer": {"class_name": "VarianceScaling", "config": {"distribution": "uniform", "mode": "fan_avg", "scale": 1.0, "seed": null}}, "kernel_size": [7, 1], "padding": "same", "activity_regularizer": null, "activation": "linear", "kernel_regularizer": null, "dilation_rate": [1, 1], "kernel_constraint": null}, "inbound_nodes": [[["activation_57", 0, 0, {}]]], "class_name": "Conv2D", "name": "conv2d_58"}, {"config": {"beta_regularizer": null, "name": "batch_normalization_53", "gamma_regularizer": null, "trainable": true, "beta_initializer": {"class_name": "Zeros", "config": {}}, "beta_constraint": null, "epsilon": 0.001, "gamma_initializer": {"class_name": "Ones", "config": {}}, "scale": false, "axis": 3, "moving_mean_initializer": {"class_name": "Zeros", "config": {}}, "moving_variance_initializer": {"class_name": "Ones", "config": {}}, "momentum": 0.99, "gamma_constraint": null, "center": true}, "inbound_nodes": [[["conv2d_53", 0, 0, {}]]], "class_name": "BatchNormalization", "name": "batch_normalization_53"}, {"config": {"beta_regularizer": null, "name": "batch_normalization_58", "gamma_regularizer": null, "trainable": true, "beta_initializer": {"class_name": "Zeros", "config": {}}, "beta_constraint": null, "epsilon": 0.001, "gamma_initializer": {"class_name": "Ones", "config": {}}, "scale": false, "axis": 3, "moving_mean_initializer": {"class_name": "Zeros", "config": {}}, "moving_variance_initializer": {"class_name": "Ones", "config": {}}, "momentum": 0.99, "gamma_constraint": null, "center": true}, "inbound_nodes": [[["conv2d_58", 0, 0, {}]]], "class_name": "BatchNormalization", "name": "batch_normalization_58"}, {"config": {"trainable": true, "name": "activation_53", "activation": "relu"}, "inbound_nodes": [[["batch_normalization_53", 0, 0, {}]]], "class_name": "Activation", "name": "activation_53"}, {"config": {"trainable": true, "name": "activation_58", "activation": "relu"}, "inbound_nodes": [[["batch_normalization_58", 0, 0, {}]]], "class_name": "Activation", "name": "activation_58"}, {"config": {"strides": [1, 1], "name": "average_pooling2d_6", "data_format": "channels_last", "trainable": true, "padding": "same", "pool_size": [3, 3]}, "inbound_nodes": [[["mixed5", 0, 0, {}]]], "class_name": "AveragePooling2D", "name": "average_pooling2d_6"}, {"config": {"bias_constraint": null, "name": "conv2d_51", "data_format": "channels_last", "filters": 192, "trainable": true, "use_bias": false, "bias_regularizer": null, "strides": [1, 1], "bias_initializer": {"class_name": "Zeros", "config": {}}, "kernel_initializer": {"class_name": "VarianceScaling", "config": {"distribution": "uniform", "mode": "fan_avg", "scale": 1.0, "seed": null}}, "kernel_size": [1, 1], "padding": "same", "activity_regularizer": null, "activation": "linear", "kernel_regularizer": null, "dilation_rate": [1, 1], "kernel_constraint": null}, "inbound_nodes": [[["mixed5", 0, 0, {}]]], "class_name": "Conv2D", "name": "conv2d_51"}, {"config": {"bias_constraint": null, "name": "conv2d_54", "data_format": "channels_last", "filters": 192, "trainable": true, "use_bias": false, "bias_regularizer": null, "strides": [1, 1], "bias_initializer": {"class_name": "Zeros", "config": {}}, "kernel_initializer": {"class_name": "VarianceScaling", "config": {"distribution": "uniform", "mode": "fan_avg", "scale": 1.0, "seed": null}}, "kernel_size": [7, 1], "padding": "same", "activity_regularizer": null, "activation": "linear", "kernel_regularizer": null, "dilation_rate": [1, 1], "kernel_constraint": null}, "inbound_nodes": [[["activation_53", 0, 0, {}]]], "class_name": "Conv2D", "name": "conv2d_54"}, {"config": {"bias_constraint": null, "name": "conv2d_59", "data_format": "channels_last", "filters": 192, "trainable": true, "use_bias": false, "bias_regularizer": null, "strides": [1, 1], "bias_initializer": {"class_name": "Zeros", "config": {}}, "kernel_initializer": {"class_name": "VarianceScaling", "config": {"distribution": "uniform", "mode": "fan_avg", "scale": 1.0, "seed": null}}, "kernel_size": [1, 7], "padding": "same", "activity_regularizer": null, "activation": "linear", "kernel_regularizer": null, "dilation_rate": [1, 1], "kernel_constraint": null}, "inbound_nodes": [[["activation_58", 0, 0, {}]]], "class_name": "Conv2D", "name": "conv2d_59"}, {"config": {"bias_constraint": null, "name": "conv2d_60", "data_format": "channels_last", "filters": 192, "trainable": true, "use_bias": false, "bias_regularizer": null, "strides": [1, 1], "bias_initializer": {"class_name": "Zeros", "config": {}}, "kernel_initializer": {"class_name": "VarianceScaling", "config": {"distribution": "uniform", "mode": "fan_avg", "scale": 1.0, "seed": null}}, "kernel_size": [1, 1], "padding": "same", "activity_regularizer": null, "activation": "linear", "kernel_regularizer": null, "dilation_rate": [1, 1], "kernel_constraint": null}, "inbound_nodes": [[["average_pooling2d_6", 0, 0, {}]]], "class_name": "Conv2D", "name": "conv2d_60"}, {"config": {"beta_regularizer": null, "name": "batch_normalization_51", "gamma_regularizer": null, "trainable": true, "beta_initializer": {"class_name": "Zeros", "config": {}}, "beta_constraint": null, "epsilon": 0.001, "gamma_initializer": {"class_name": "Ones", "config": {}}, "scale": false, "axis": 3, "moving_mean_initializer": {"class_name": "Zeros", "config": {}}, "moving_variance_initializer": {"class_name": "Ones", "config": {}}, "momentum": 0.99, "gamma_constraint": null, "center": true}, "inbound_nodes": [[["conv2d_51", 0, 0, {}]]], "class_name": "BatchNormalization", "name": "batch_normalization_51"}, {"config": {"beta_regularizer": null, "name": "batch_normalization_54", "gamma_regularizer": null, "trainable": true, "beta_initializer": {"class_name": "Zeros", "config": {}}, "beta_constraint": null, "epsilon": 0.001, "gamma_initializer": {"class_name": "Ones", "config": {}}, "scale": false, "axis": 3, "moving_mean_initializer": {"class_name": "Zeros", "config": {}}, "moving_variance_initializer": {"class_name": "Ones", "config": {}}, "momentum": 0.99, "gamma_constraint": null, "center": true}, "inbound_nodes": [[["conv2d_54", 0, 0, {}]]], "class_name": "BatchNormalization", "name": "batch_normalization_54"}, {"config": {"beta_regularizer": null, "name": "batch_normalization_59", "gamma_regularizer": null, "trainable": true, "beta_initializer": {"class_name": "Zeros", "config": {}}, "beta_constraint": null, "epsilon": 0.001, "gamma_initializer": {"class_name": "Ones", "config": {}}, "scale": false, "axis": 3, "moving_mean_initializer": {"class_name": "Zeros", "config": {}}, "moving_variance_initializer": {"class_name": "Ones", "config": {}}, "momentum": 0.99, "gamma_constraint": null, "center": true}, "inbound_nodes": [[["conv2d_59", 0, 0, {}]]], "class_name": "BatchNormalization", "name": "batch_normalization_59"}, {"config": {"beta_regularizer": null, "name": "batch_normalization_60", "gamma_regularizer": null, "trainable": true, "beta_initializer": {"class_name": "Zeros", "config": {}}, "beta_constraint": null, "epsilon": 0.001, "gamma_initializer": {"class_name": "Ones", "config": {}}, "scale": false, "axis": 3, "moving_mean_initializer": {"class_name": "Zeros", "config": {}}, "moving_variance_initializer": {"class_name": "Ones", "config": {}}, "momentum": 0.99, "gamma_constraint": null, "center": true}, "inbound_nodes": [[["conv2d_60", 0, 0, {}]]], "class_name": "BatchNormalization", "name": "batch_normalization_60"}, {"config": {"trainable": true, "name": "activation_51", "activation": "relu"}, "inbound_nodes": [[["batch_normalization_51", 0, 0, {}]]], "class_name": "Activation", "name": "activation_51"}, {"config": {"trainable": true, "name": "activation_54", "activation": "relu"}, "inbound_nodes": [[["batch_normalization_54", 0, 0, {}]]], "class_name": "Activation", "name": "activation_54"}, {"config": {"trainable": true, "name": "activation_59", "activation": "relu"}, "inbound_nodes": [[["batch_normalization_59", 0, 0, {}]]], "class_name": "Activation", "name": "activation_59"}, {"config": {"trainable": true, "name": "activation_60", "activation": "relu"}, "inbound_nodes": [[["batch_normalization_60", 0, 0, {}]]], "class_name": "Activation", "name": "activation_60"}, {"config": {"axis": 3, "trainable": true, "name": "mixed6"}, "inbound_nodes": [[["activation_51", 0, 0, {}], ["activation_54", 0, 0, {}], ["activation_59", 0, 0, {}], ["activation_60", 0, 0, {}]]], "class_name": "Concatenate", "name": "mixed6"}, {"config": {"bias_constraint": null, "name": "conv2d_65", "data_format": "channels_last", "filters": 192, "trainable": true, "use_bias": false, "bias_regularizer": null, "strides": [1, 1], "bias_initializer": {"class_name": "Zeros", "config": {}}, "kernel_initializer": {"class_name": "VarianceScaling", "config": {"distribution": "uniform", "mode": "fan_avg", "scale": 1.0, "seed": null}}, "kernel_size": [1, 1], "padding": "same", "activity_regularizer": null, "activation": "linear", "kernel_regularizer": null, "dilation_rate": [1, 1], "kernel_constraint": null}, "inbound_nodes": [[["mixed6", 0, 0, {}]]], "class_name": "Conv2D", "name": "conv2d_65"}, {"config": {"beta_regularizer": null, "name": "batch_normalization_65", "gamma_regularizer": null, "trainable": true, "beta_initializer": {"class_name": "Zeros", "config": {}}, "beta_constraint": null, "epsilon": 0.001, "gamma_initializer": {"class_name": "Ones", "config": {}}, "scale": false, "axis": 3, "moving_mean_initializer": {"class_name": "Zeros", "config": {}}, "moving_variance_initializer": {"class_name": "Ones", "config": {}}, "momentum": 0.99, "gamma_constraint": null, "center": true}, "inbound_nodes": [[["conv2d_65", 0, 0, {}]]], "class_name": "BatchNormalization", "name": "batch_normalization_65"}, {"config": {"trainable": true, "name": "activation_65", "activation": "relu"}, "inbound_nodes": [[["batch_normalization_65", 0, 0, {}]]], "class_name": "Activation", "name": "activation_65"}, {"config": {"bias_constraint": null, "name": "conv2d_66", "data_format": "channels_last", "filters": 192, "trainable": true, "use_bias": false, "bias_regularizer": null, "strides": [1, 1], "bias_initializer": {"class_name": "Zeros", "config": {}}, "kernel_initializer": {"class_name": "VarianceScaling", "config": {"distribution": "uniform", "mode": "fan_avg", "scale": 1.0, "seed": null}}, "kernel_size": [7, 1], "padding": "same", "activity_regularizer": null, "activation": "linear", "kernel_regularizer": null, "dilation_rate": [1, 1], "kernel_constraint": null}, "inbound_nodes": [[["activation_65", 0, 0, {}]]], "class_name": "Conv2D", "name": "conv2d_66"}, {"config": {"beta_regularizer": null, "name": "batch_normalization_66", "gamma_regularizer": null, "trainable": true, "beta_initializer": {"class_name": "Zeros", "config": {}}, "beta_constraint": null, "epsilon": 0.001, "gamma_initializer": {"class_name": "Ones", "config": {}}, "scale": false, "axis": 3, "moving_mean_initializer": {"class_name": "Zeros", "config": {}}, "moving_variance_initializer": {"class_name": "Ones", "config": {}}, "momentum": 0.99, "gamma_constraint": null, "center": true}, "inbound_nodes": [[["conv2d_66", 0, 0, {}]]], "class_name": "BatchNormalization", "name": "batch_normalization_66"}, {"config": {"trainable": true, "name": "activation_66", "activation": "relu"}, "inbound_nodes": [[["batch_normalization_66", 0, 0, {}]]], "class_name": "Activation", "name": "activation_66"}, {"config": {"bias_constraint": null, "name": "conv2d_62", "data_format": "channels_last", "filters": 192, "trainable": true, "use_bias": false, "bias_regularizer": null, "strides": [1, 1], "bias_initializer": {"class_name": "Zeros", "config": {}}, "kernel_initializer": {"class_name": "VarianceScaling", "config": {"distribution": "uniform", "mode": "fan_avg", "scale": 1.0, "seed": null}}, "kernel_size": [1, 1], "padding": "same", "activity_regularizer": null, "activation": "linear", "kernel_regularizer": null, "dilation_rate": [1, 1], "kernel_constraint": null}, "inbound_nodes": [[["mixed6", 0, 0, {}]]], "class_name": "Conv2D", "name": "conv2d_62"}, {"config": {"bias_constraint": null, "name": "conv2d_67", "data_format": "channels_last", "filters": 192, "trainable": true, "use_bias": false, "bias_regularizer": null, "strides": [1, 1], "bias_initializer": {"class_name": "Zeros", "config": {}}, "kernel_initializer": {"class_name": "VarianceScaling", "config": {"distribution": "uniform", "mode": "fan_avg", "scale": 1.0, "seed": null}}, "kernel_size": [1, 7], "padding": "same", "activity_regularizer": null, "activation": "linear", "kernel_regularizer": null, "dilation_rate": [1, 1], "kernel_constraint": null}, "inbound_nodes": [[["activation_66", 0, 0, {}]]], "class_name": "Conv2D", "name": "conv2d_67"}, {"config": {"beta_regularizer": null, "name": "batch_normalization_62", "gamma_regularizer": null, "trainable": true, "beta_initializer": {"class_name": "Zeros", "config": {}}, "beta_constraint": null, "epsilon": 0.001, "gamma_initializer": {"class_name": "Ones", "config": {}}, "scale": false, "axis": 3, "moving_mean_initializer": {"class_name": "Zeros", "config": {}}, "moving_variance_initializer": {"class_name": "Ones", "config": {}}, "momentum": 0.99, "gamma_constraint": null, "center": true}, "inbound_nodes": [[["conv2d_62", 0, 0, {}]]], "class_name": "BatchNormalization", "name": "batch_normalization_62"}, {"config": {"beta_regularizer": null, "name": "batch_normalization_67", "gamma_regularizer": null, "trainable": true, "beta_initializer": {"class_name": "Zeros", "config": {}}, "beta_constraint": null, "epsilon": 0.001, "gamma_initializer": {"class_name": "Ones", "config": {}}, "scale": false, "axis": 3, "moving_mean_initializer": {"class_name": "Zeros", "config": {}}, "moving_variance_initializer": {"class_name": "Ones", "config": {}}, "momentum": 0.99, "gamma_constraint": null, "center": true}, "inbound_nodes": [[["conv2d_67", 0, 0, {}]]], "class_name": "BatchNormalization", "name": "batch_normalization_67"}, {"config": {"trainable": true, "name": "activation_62", "activation": "relu"}, "inbound_nodes": [[["batch_normalization_62", 0, 0, {}]]], "class_name": "Activation", "name": "activation_62"}, {"config": {"trainable": true, "name": "activation_67", "activation": "relu"}, "inbound_nodes": [[["batch_normalization_67", 0, 0, {}]]], "class_name": "Activation", "name": "activation_67"}, {"config": {"bias_constraint": null, "name": "conv2d_63", "data_format": "channels_last", "filters": 192, "trainable": true, "use_bias": false, "bias_regularizer": null, "strides": [1, 1], "bias_initializer": {"class_name": "Zeros", "config": {}}, "kernel_initializer": {"class_name": "VarianceScaling", "config": {"distribution": "uniform", "mode": "fan_avg", "scale": 1.0, "seed": null}}, "kernel_size": [1, 7], "padding": "same", "activity_regularizer": null, "activation": "linear", "kernel_regularizer": null, "dilation_rate": [1, 1], "kernel_constraint": null}, "inbound_nodes": [[["activation_62", 0, 0, {}]]], "class_name": "Conv2D", "name": "conv2d_63"}, {"config": {"bias_constraint": null, "name": "conv2d_68", "data_format": "channels_last", "filters": 192, "trainable": true, "use_bias": false, "bias_regularizer": null, "strides": [1, 1], "bias_initializer": {"class_name": "Zeros", "config": {}}, "kernel_initializer": {"class_name": "VarianceScaling", "config": {"distribution": "uniform", "mode": "fan_avg", "scale": 1.0, "seed": null}}, "kernel_size": [7, 1], "padding": "same", "activity_regularizer": null, "activation": "linear", "kernel_regularizer": null, "dilation_rate": [1, 1], "kernel_constraint": null}, "inbound_nodes": [[["activation_67", 0, 0, {}]]], "class_name": "Conv2D", "name": "conv2d_68"}, {"config": {"beta_regularizer": null, "name": "batch_normalization_63", "gamma_regularizer": null, "trainable": true, "beta_initializer": {"class_name": "Zeros", "config": {}}, "beta_constraint": null, "epsilon": 0.001, "gamma_initializer": {"class_name": "Ones", "config": {}}, "scale": false, "axis": 3, "moving_mean_initializer": {"class_name": "Zeros", "config": {}}, "moving_variance_initializer": {"class_name": "Ones", "config": {}}, "momentum": 0.99, "gamma_constraint": null, "center": true}, "inbound_nodes": [[["conv2d_63", 0, 0, {}]]], "class_name": "BatchNormalization", "name": "batch_normalization_63"}, {"config": {"beta_regularizer": null, "name": "batch_normalization_68", "gamma_regularizer": null, "trainable": true, "beta_initializer": {"class_name": "Zeros", "config": {}}, "beta_constraint": null, "epsilon": 0.001, "gamma_initializer": {"class_name": "Ones", "config": {}}, "scale": false, "axis": 3, "moving_mean_initializer": {"class_name": "Zeros", "config": {}}, "moving_variance_initializer": {"class_name": "Ones", "config": {}}, "momentum": 0.99, "gamma_constraint": null, "center": true}, "inbound_nodes": [[["conv2d_68", 0, 0, {}]]], "class_name": "BatchNormalization", "name": "batch_normalization_68"}, {"config": {"trainable": true, "name": "activation_63", "activation": "relu"}, "inbound_nodes": [[["batch_normalization_63", 0, 0, {}]]], "class_name": "Activation", "name": "activation_63"}, {"config": {"trainable": true, "name": "activation_68", "activation": "relu"}, "inbound_nodes": [[["batch_normalization_68", 0, 0, {}]]], "class_name": "Activation", "name": "activation_68"}, {"config": {"strides": [1, 1], "name": "average_pooling2d_7", "data_format": "channels_last", "trainable": true, "padding": "same", "pool_size": [3, 3]}, "inbound_nodes": [[["mixed6", 0, 0, {}]]], "class_name": "AveragePooling2D", "name": "average_pooling2d_7"}, {"config": {"bias_constraint": null, "name": "conv2d_61", "data_format": "channels_last", "filters": 192, "trainable": true, "use_bias": false, "bias_regularizer": null, "strides": [1, 1], "bias_initializer": {"class_name": "Zeros", "config": {}}, "kernel_initializer": {"class_name": "VarianceScaling", "config": {"distribution": "uniform", "mode": "fan_avg", "scale": 1.0, "seed": null}}, "kernel_size": [1, 1], "padding": "same", "activity_regularizer": null, "activation": "linear", "kernel_regularizer": null, "dilation_rate": [1, 1], "kernel_constraint": null}, "inbound_nodes": [[["mixed6", 0, 0, {}]]], "class_name": "Conv2D", "name": "conv2d_61"}, {"config": {"bias_constraint": null, "name": "conv2d_64", "data_format": "channels_last", "filters": 192, "trainable": true, "use_bias": false, "bias_regularizer": null, "strides": [1, 1], "bias_initializer": {"class_name": "Zeros", "config": {}}, "kernel_initializer": {"class_name": "VarianceScaling", "config": {"distribution": "uniform", "mode": "fan_avg", "scale": 1.0, "seed": null}}, "kernel_size": [7, 1], "padding": "same", "activity_regularizer": null, "activation": "linear", "kernel_regularizer": null, "dilation_rate": [1, 1], "kernel_constraint": null}, "inbound_nodes": [[["activation_63", 0, 0, {}]]], "class_name": "Conv2D", "name": "conv2d_64"}, {"config": {"bias_constraint": null, "name": "conv2d_69", "data_format": "channels_last", "filters": 192, "trainable": true, "use_bias": false, "bias_regularizer": null, "strides": [1, 1], "bias_initializer": {"class_name": "Zeros", "config": {}}, "kernel_initializer": {"class_name": "VarianceScaling", "config": {"distribution": "uniform", "mode": "fan_avg", "scale": 1.0, "seed": null}}, "kernel_size": [1, 7], "padding": "same", "activity_regularizer": null, "activation": "linear", "kernel_regularizer": null, "dilation_rate": [1, 1], "kernel_constraint": null}, "inbound_nodes": [[["activation_68", 0, 0, {}]]], "class_name": "Conv2D", "name": "conv2d_69"}, {"config": {"bias_constraint": null, "name": "conv2d_70", "data_format": "channels_last", "filters": 192, "trainable": true, "use_bias": false, "bias_regularizer": null, "strides": [1, 1], "bias_initializer": {"class_name": "Zeros", "config": {}}, "kernel_initializer": {"class_name": "VarianceScaling", "config": {"distribution": "uniform", "mode": "fan_avg", "scale": 1.0, "seed": null}}, "kernel_size": [1, 1], "padding": "same", "activity_regularizer": null, "activation": "linear", "kernel_regularizer": null, "dilation_rate": [1, 1], "kernel_constraint": null}, "inbound_nodes": [[["average_pooling2d_7", 0, 0, {}]]], "class_name": "Conv2D", "name": "conv2d_70"}, {"config": {"beta_regularizer": null, "name": "batch_normalization_61", "gamma_regularizer": null, "trainable": true, "beta_initializer": {"class_name": "Zeros", "config": {}}, "beta_constraint": null, "epsilon": 0.001, "gamma_initializer": {"class_name": "Ones", "config": {}}, "scale": false, "axis": 3, "moving_mean_initializer": {"class_name": "Zeros", "config": {}}, "moving_variance_initializer": {"class_name": "Ones", "config": {}}, "momentum": 0.99, "gamma_constraint": null, "center": true}, "inbound_nodes": [[["conv2d_61", 0, 0, {}]]], "class_name": "BatchNormalization", "name": "batch_normalization_61"}, {"config": {"beta_regularizer": null, "name": "batch_normalization_64", "gamma_regularizer": null, "trainable": true, "beta_initializer": {"class_name": "Zeros", "config": {}}, "beta_constraint": null, "epsilon": 0.001, "gamma_initializer": {"class_name": "Ones", "config": {}}, "scale": false, "axis": 3, "moving_mean_initializer": {"class_name": "Zeros", "config": {}}, "moving_variance_initializer": {"class_name": "Ones", "config": {}}, "momentum": 0.99, "gamma_constraint": null, "center": true}, "inbound_nodes": [[["conv2d_64", 0, 0, {}]]], "class_name": "BatchNormalization", "name": "batch_normalization_64"}, {"config": {"beta_regularizer": null, "name": "batch_normalization_69", "gamma_regularizer": null, "trainable": true, "beta_initializer": {"class_name": "Zeros", "config": {}}, "beta_constraint": null, "epsilon": 0.001, "gamma_initializer": {"class_name": "Ones", "config": {}}, "scale": false, "axis": 3, "moving_mean_initializer": {"class_name": "Zeros", "config": {}}, "moving_variance_initializer": {"class_name": "Ones", "config": {}}, "momentum": 0.99, "gamma_constraint": null, "center": true}, "inbound_nodes": [[["conv2d_69", 0, 0, {}]]], "class_name": "BatchNormalization", "name": "batch_normalization_69"}, {"config": {"beta_regularizer": null, "name": "batch_normalization_70", "gamma_regularizer": null, "trainable": true, "beta_initializer": {"class_name": "Zeros", "config": {}}, "beta_constraint": null, "epsilon": 0.001, "gamma_initializer": {"class_name": "Ones", "config": {}}, "scale": false, "axis": 3, "moving_mean_initializer": {"class_name": "Zeros", "config": {}}, "moving_variance_initializer": {"class_name": "Ones", "config": {}}, "momentum": 0.99, "gamma_constraint": null, "center": true}, "inbound_nodes": [[["conv2d_70", 0, 0, {}]]], "class_name": "BatchNormalization", "name": "batch_normalization_70"}, {"config": {"trainable": true, "name": "activation_61", "activation": "relu"}, "inbound_nodes": [[["batch_normalization_61", 0, 0, {}]]], "class_name": "Activation", "name": "activation_61"}, {"config": {"trainable": true, "name": "activation_64", "activation": "relu"}, "inbound_nodes": [[["batch_normalization_64", 0, 0, {}]]], "class_name": "Activation", "name": "activation_64"}, {"config": {"trainable": true, "name": "activation_69", "activation": "relu"}, "inbound_nodes": [[["batch_normalization_69", 0, 0, {}]]], "class_name": "Activation", "name": "activation_69"}, {"config": {"trainable": true, "name": "activation_70", "activation": "relu"}, "inbound_nodes": [[["batch_normalization_70", 0, 0, {}]]], "class_name": "Activation", "name": "activation_70"}, {"config": {"axis": 3, "trainable": true, "name": "mixed7"}, "inbound_nodes": [[["activation_61", 0, 0, {}], ["activation_64", 0, 0, {}], ["activation_69", 0, 0, {}], ["activation_70", 0, 0, {}]]], "class_name": "Concatenate", "name": "mixed7"}, {"config": {"bias_constraint": null, "name": "conv2d_73", "data_format": "channels_last", "filters": 192, "trainable": true, "use_bias": false, "bias_regularizer": null, "strides": [1, 1], "bias_initializer": {"class_name": "Zeros", "config": {}}, "kernel_initializer": {"class_name": "VarianceScaling", "config": {"distribution": "uniform", "mode": "fan_avg", "scale": 1.0, "seed": null}}, "kernel_size": [1, 1], "padding": "same", "activity_regularizer": null, "activation": "linear", "kernel_regularizer": null, "dilation_rate": [1, 1], "kernel_constraint": null}, "inbound_nodes": [[["mixed7", 0, 0, {}]]], "class_name": "Conv2D", "name": "conv2d_73"}, {"config": {"beta_regularizer": null, "name": "batch_normalization_73", "gamma_regularizer": null, "trainable": true, "beta_initializer": {"class_name": "Zeros", "config": {}}, "beta_constraint": null, "epsilon": 0.001, "gamma_initializer": {"class_name": "Ones", "config": {}}, "scale": false, "axis": 3, "moving_mean_initializer": {"class_name": "Zeros", "config": {}}, "moving_variance_initializer": {"class_name": "Ones", "config": {}}, "momentum": 0.99, "gamma_constraint": null, "center": true}, "inbound_nodes": [[["conv2d_73", 0, 0, {}]]], "class_name": "BatchNormalization", "name": "batch_normalization_73"}, {"config": {"trainable": true, "name": "activation_73", "activation": "relu"}, "inbound_nodes": [[["batch_normalization_73", 0, 0, {}]]], "class_name": "Activation", "name": "activation_73"}, {"config": {"bias_constraint": null, "name": "conv2d_74", "data_format": "channels_last", "filters": 192, "trainable": true, "use_bias": false, "bias_regularizer": null, "strides": [1, 1], "bias_initializer": {"class_name": "Zeros", "config": {}}, "kernel_initializer": {"class_name": "VarianceScaling", "config": {"distribution": "uniform", "mode": "fan_avg", "scale": 1.0, "seed": null}}, "kernel_size": [1, 7], "padding": "same", "activity_regularizer": null, "activation": "linear", "kernel_regularizer": null, "dilation_rate": [1, 1], "kernel_constraint": null}, "inbound_nodes": [[["activation_73", 0, 0, {}]]], "class_name": "Conv2D", "name": "conv2d_74"}, {"config": {"beta_regularizer": null, "name": "batch_normalization_74", "gamma_regularizer": null, "trainable": true, "beta_initializer": {"class_name": "Zeros", "config": {}}, "beta_constraint": null, "epsilon": 0.001, "gamma_initializer": {"class_name": "Ones", "config": {}}, "scale": false, "axis": 3, "moving_mean_initializer": {"class_name": "Zeros", "config": {}}, "moving_variance_initializer": {"class_name": "Ones", "config": {}}, "momentum": 0.99, "gamma_constraint": null, "center": true}, "inbound_nodes": [[["conv2d_74", 0, 0, {}]]], "class_name": "BatchNormalization", "name": "batch_normalization_74"}, {"config": {"trainable": true, "name": "activation_74", "activation": "relu"}, "inbound_nodes": [[["batch_normalization_74", 0, 0, {}]]], "class_name": "Activation", "name": "activation_74"}, {"config": {"bias_constraint": null, "name": "conv2d_71", "data_format": "channels_last", "filters": 192, "trainable": true, "use_bias": false, "bias_regularizer": null, "strides": [1, 1], "bias_initializer": {"class_name": "Zeros", "config": {}}, "kernel_initializer": {"class_name": "VarianceScaling", "config": {"distribution": "uniform", "mode": "fan_avg", "scale": 1.0, "seed": null}}, "kernel_size": [1, 1], "padding": "same", "activity_regularizer": null, "activation": "linear", "kernel_regularizer": null, "dilation_rate": [1, 1], "kernel_constraint": null}, "inbound_nodes": [[["mixed7", 0, 0, {}]]], "class_name": "Conv2D", "name": "conv2d_71"}, {"config": {"bias_constraint": null, "name": "conv2d_75", "data_format": "channels_last", "filters": 192, "trainable": true, "use_bias": false, "bias_regularizer": null, "strides": [1, 1], "bias_initializer": {"class_name": "Zeros", "config": {}}, "kernel_initializer": {"class_name": "VarianceScaling", "config": {"distribution": "uniform", "mode": "fan_avg", "scale": 1.0, "seed": null}}, "kernel_size": [7, 1], "padding": "same", "activity_regularizer": null, "activation": "linear", "kernel_regularizer": null, "dilation_rate": [1, 1], "kernel_constraint": null}, "inbound_nodes": [[["activation_74", 0, 0, {}]]], "class_name": "Conv2D", "name": "conv2d_75"}, {"config": {"beta_regularizer": null, "name": "batch_normalization_71", "gamma_regularizer": null, "trainable": true, "beta_initializer": {"class_name": "Zeros", "config": {}}, "beta_constraint": null, "epsilon": 0.001, "gamma_initializer": {"class_name": "Ones", "config": {}}, "scale": false, "axis": 3, "moving_mean_initializer": {"class_name": "Zeros", "config": {}}, "moving_variance_initializer": {"class_name": "Ones", "config": {}}, "momentum": 0.99, "gamma_constraint": null, "center": true}, "inbound_nodes": [[["conv2d_71", 0, 0, {}]]], "class_name": "BatchNormalization", "name": "batch_normalization_71"}, {"config": {"beta_regularizer": null, "name": "batch_normalization_75", "gamma_regularizer": null, "trainable": true, "beta_initializer": {"class_name": "Zeros", "config": {}}, "beta_constraint": null, "epsilon": 0.001, "gamma_initializer": {"class_name": "Ones", "config": {}}, "scale": false, "axis": 3, "moving_mean_initializer": {"class_name": "Zeros", "config": {}}, "moving_variance_initializer": {"class_name": "Ones", "config": {}}, "momentum": 0.99, "gamma_constraint": null, "center": true}, "inbound_nodes": [[["conv2d_75", 0, 0, {}]]], "class_name": "BatchNormalization", "name": "batch_normalization_75"}, {"config": {"trainable": true, "name": "activation_71", "activation": "relu"}, "inbound_nodes": [[["batch_normalization_71", 0, 0, {}]]], "class_name": "Activation", "name": "activation_71"}, {"config": {"trainable": true, "name": "activation_75", "activation": "relu"}, "inbound_nodes": [[["batch_normalization_75", 0, 0, {}]]], "class_name": "Activation", "name": "activation_75"}, {"config": {"bias_constraint": null, "name": "conv2d_72", "data_format": "channels_last", "filters": 320, "trainable": true, "use_bias": false, "bias_regularizer": null, "strides": [2, 2], "bias_initializer": {"class_name": "Zeros", "config": {}}, "kernel_initializer": {"class_name": "VarianceScaling", "config": {"distribution": "uniform", "mode": "fan_avg", "scale": 1.0, "seed": null}}, "kernel_size": [3, 3], "padding": "valid", "activity_regularizer": null, "activation": "linear", "kernel_regularizer": null, "dilation_rate": [1, 1], "kernel_constraint": null}, "inbound_nodes": [[["activation_71", 0, 0, {}]]], "class_name": "Conv2D", "name": "conv2d_72"}, {"config": {"bias_constraint": null, "name": "conv2d_76", "data_format": "channels_last", "filters": 192, "trainable": true, "use_bias": false, "bias_regularizer": null, "strides": [2, 2], "bias_initializer": {"class_name": "Zeros", "config": {}}, "kernel_initializer": {"class_name": "VarianceScaling", "config": {"distribution": "uniform", "mode": "fan_avg", "scale": 1.0, "seed": null}}, "kernel_size": [3, 3], "padding": "valid", "activity_regularizer": null, "activation": "linear", "kernel_regularizer": null, "dilation_rate": [1, 1], "kernel_constraint": null}, "inbound_nodes": [[["activation_75", 0, 0, {}]]], "class_name": "Conv2D", "name": "conv2d_76"}, {"config": {"beta_regularizer": null, "name": "batch_normalization_72", "gamma_regularizer": null, "trainable": true, "beta_initializer": {"class_name": "Zeros", "config": {}}, "beta_constraint": null, "epsilon": 0.001, "gamma_initializer": {"class_name": "Ones", "config": {}}, "scale": false, "axis": 3, "moving_mean_initializer": {"class_name": "Zeros", "config": {}}, "moving_variance_initializer": {"class_name": "Ones", "config": {}}, "momentum": 0.99, "gamma_constraint": null, "center": true}, "inbound_nodes": [[["conv2d_72", 0, 0, {}]]], "class_name": "BatchNormalization", "name": "batch_normalization_72"}, {"config": {"beta_regularizer": null, "name": "batch_normalization_76", "gamma_regularizer": null, "trainable": true, "beta_initializer": {"class_name": "Zeros", "config": {}}, "beta_constraint": null, "epsilon": 0.001, "gamma_initializer": {"class_name": "Ones", "config": {}}, "scale": false, "axis": 3, "moving_mean_initializer": {"class_name": "Zeros", "config": {}}, "moving_variance_initializer": {"class_name": "Ones", "config": {}}, "momentum": 0.99, "gamma_constraint": null, "center": true}, "inbound_nodes": [[["conv2d_76", 0, 0, {}]]], "class_name": "BatchNormalization", "name": "batch_normalization_76"}, {"config": {"trainable": true, "name": "activation_72", "activation": "relu"}, "inbound_nodes": [[["batch_normalization_72", 0, 0, {}]]], "class_name": "Activation", "name": "activation_72"}, {"config": {"trainable": true, "name": "activation_76", "activation": "relu"}, "inbound_nodes": [[["batch_normalization_76", 0, 0, {}]]], "class_name": "Activation", "name": "activation_76"}, {"config": {"strides": [2, 2], "name": "max_pooling2d_4", "data_format": "channels_last", "trainable": true, "padding": "valid", "pool_size": [3, 3]}, "inbound_nodes": [[["mixed7", 0, 0, {}]]], "class_name": "MaxPooling2D", "name": "max_pooling2d_4"}, {"config": {"axis": 3, "trainable": true, "name": "mixed8"}, "inbound_nodes": [[["activation_72", 0, 0, {}], ["activation_76", 0, 0, {}], ["max_pooling2d_4", 0, 0, {}]]], "class_name": "Concatenate", "name": "mixed8"}, {"config": {"bias_constraint": null, "name": "conv2d_81", "data_format": "channels_last", "filters": 448, "trainable": true, "use_bias": false, "bias_regularizer": null, "strides": [1, 1], "bias_initializer": {"class_name": "Zeros", "config": {}}, "kernel_initializer": {"class_name": "VarianceScaling", "config": {"distribution": "uniform", "mode": "fan_avg", "scale": 1.0, "seed": null}}, "kernel_size": [1, 1], "padding": "same", "activity_regularizer": null, "activation": "linear", "kernel_regularizer": null, "dilation_rate": [1, 1], "kernel_constraint": null}, "inbound_nodes": [[["mixed8", 0, 0, {}]]], "class_name": "Conv2D", "name": "conv2d_81"}, {"config": {"beta_regularizer": null, "name": "batch_normalization_81", "gamma_regularizer": null, "trainable": true, "beta_initializer": {"class_name": "Zeros", "config": {}}, "beta_constraint": null, "epsilon": 0.001, "gamma_initializer": {"class_name": "Ones", "config": {}}, "scale": false, "axis": 3, "moving_mean_initializer": {"class_name": "Zeros", "config": {}}, "moving_variance_initializer": {"class_name": "Ones", "config": {}}, "momentum": 0.99, "gamma_constraint": null, "center": true}, "inbound_nodes": [[["conv2d_81", 0, 0, {}]]], "class_name": "BatchNormalization", "name": "batch_normalization_81"}, {"config": {"trainable": true, "name": "activation_81", "activation": "relu"}, "inbound_nodes": [[["batch_normalization_81", 0, 0, {}]]], "class_name": "Activation", "name": "activation_81"}, {"config": {"bias_constraint": null, "name": "conv2d_78", "data_format": "channels_last", "filters": 384, "trainable": true, "use_bias": false, "bias_regularizer": null, "strides": [1, 1], "bias_initializer": {"class_name": "Zeros", "config": {}}, "kernel_initializer": {"class_name": "VarianceScaling", "config": {"distribution": "uniform", "mode": "fan_avg", "scale": 1.0, "seed": null}}, "kernel_size": [1, 1], "padding": "same", "activity_regularizer": null, "activation": "linear", "kernel_regularizer": null, "dilation_rate": [1, 1], "kernel_constraint": null}, "inbound_nodes": [[["mixed8", 0, 0, {}]]], "class_name": "Conv2D", "name": "conv2d_78"}, {"config": {"bias_constraint": null, "name": "conv2d_82", "data_format": "channels_last", "filters": 384, "trainable": true, "use_bias": false, "bias_regularizer": null, "strides": [1, 1], "bias_initializer": {"class_name": "Zeros", "config": {}}, "kernel_initializer": {"class_name": "VarianceScaling", "config": {"distribution": "uniform", "mode": "fan_avg", "scale": 1.0, "seed": null}}, "kernel_size": [3, 3], "padding": "same", "activity_regularizer": null, "activation": "linear", "kernel_regularizer": null, "dilation_rate": [1, 1], "kernel_constraint": null}, "inbound_nodes": [[["activation_81", 0, 0, {}]]], "class_name": "Conv2D", "name": "conv2d_82"}, {"config": {"beta_regularizer": null, "name": "batch_normalization_78", "gamma_regularizer": null, "trainable": true, "beta_initializer": {"class_name": "Zeros", "config": {}}, "beta_constraint": null, "epsilon": 0.001, "gamma_initializer": {"class_name": "Ones", "config": {}}, "scale": false, "axis": 3, "moving_mean_initializer": {"class_name": "Zeros", "config": {}}, "moving_variance_initializer": {"class_name": "Ones", "config": {}}, "momentum": 0.99, "gamma_constraint": null, "center": true}, "inbound_nodes": [[["conv2d_78", 0, 0, {}]]], "class_name": "BatchNormalization", "name": "batch_normalization_78"}, {"config": {"beta_regularizer": null, "name": "batch_normalization_82", "gamma_regularizer": null, "trainable": true, "beta_initializer": {"class_name": "Zeros", "config": {}}, "beta_constraint": null, "epsilon": 0.001, "gamma_initializer": {"class_name": "Ones", "config": {}}, "scale": false, "axis": 3, "moving_mean_initializer": {"class_name": "Zeros", "config": {}}, "moving_variance_initializer": {"class_name": "Ones", "config": {}}, "momentum": 0.99, "gamma_constraint": null, "center": true}, "inbound_nodes": [[["conv2d_82", 0, 0, {}]]], "class_name": "BatchNormalization", "name": "batch_normalization_82"}, {"config": {"trainable": true, "name": "activation_78", "activation": "relu"}, "inbound_nodes": [[["batch_normalization_78", 0, 0, {}]]], "class_name": "Activation", "name": "activation_78"}, {"config": {"trainable": true, "name": "activation_82", "activation": "relu"}, "inbound_nodes": [[["batch_normalization_82", 0, 0, {}]]], "class_name": "Activation", "name": "activation_82"}, {"config": {"bias_constraint": null, "name": "conv2d_79", "data_format": "channels_last", "filters": 384, "trainable": true, "use_bias": false, "bias_regularizer": null, "strides": [1, 1], "bias_initializer": {"class_name": "Zeros", "config": {}}, "kernel_initializer": {"class_name": "VarianceScaling", "config": {"distribution": "uniform", "mode": "fan_avg", "scale": 1.0, "seed": null}}, "kernel_size": [1, 3], "padding": "same", "activity_regularizer": null, "activation": "linear", "kernel_regularizer": null, "dilation_rate": [1, 1], "kernel_constraint": null}, "inbound_nodes": [[["activation_78", 0, 0, {}]]], "class_name": "Conv2D", "name": "conv2d_79"}, {"config": {"bias_constraint": null, "name": "conv2d_80", "data_format": "channels_last", "filters": 384, "trainable": true, "use_bias": false, "bias_regularizer": null, "strides": [1, 1], "bias_initializer": {"class_name": "Zeros", "config": {}}, "kernel_initializer": {"class_name": "VarianceScaling", "config": {"distribution": "uniform", "mode": "fan_avg", "scale": 1.0, "seed": null}}, "kernel_size": [3, 1], "padding": "same", "activity_regularizer": null, "activation": "linear", "kernel_regularizer": null, "dilation_rate": [1, 1], "kernel_constraint": null}, "inbound_nodes": [[["activation_78", 0, 0, {}]]], "class_name": "Conv2D", "name": "conv2d_80"}, {"config": {"bias_constraint": null, "name": "conv2d_83", "data_format": "channels_last", "filters": 384, "trainable": true, "use_bias": false, "bias_regularizer": null, "strides": [1, 1], "bias_initializer": {"class_name": "Zeros", "config": {}}, "kernel_initializer": {"class_name": "VarianceScaling", "config": {"distribution": "uniform", "mode": "fan_avg", "scale": 1.0, "seed": null}}, "kernel_size": [1, 3], "padding": "same", "activity_regularizer": null, "activation": "linear", "kernel_regularizer": null, "dilation_rate": [1, 1], "kernel_constraint": null}, "inbound_nodes": [[["activation_82", 0, 0, {}]]], "class_name": "Conv2D", "name": "conv2d_83"}, {"config": {"bias_constraint": null, "name": "conv2d_84", "data_format": "channels_last", "filters": 384, "trainable": true, "use_bias": false, "bias_regularizer": null, "strides": [1, 1], "bias_initializer": {"class_name": "Zeros", "config": {}}, "kernel_initializer": {"class_name": "VarianceScaling", "config": {"distribution": "uniform", "mode": "fan_avg", "scale": 1.0, "seed": null}}, "kernel_size": [3, 1], "padding": "same", "activity_regularizer": null, "activation": "linear", "kernel_regularizer": null, "dilation_rate": [1, 1], "kernel_constraint": null}, "inbound_nodes": [[["activation_82", 0, 0, {}]]], "class_name": "Conv2D", "name": "conv2d_84"}, {"config": {"strides": [1, 1], "name": "average_pooling2d_8", "data_format": "channels_last", "trainable": true, "padding": "same", "pool_size": [3, 3]}, "inbound_nodes": [[["mixed8", 0, 0, {}]]], "class_name": "AveragePooling2D", "name": "average_pooling2d_8"}, {"config": {"bias_constraint": null, "name": "conv2d_77", "data_format": "channels_last", "filters": 320, "trainable": true, "use_bias": false, "bias_regularizer": null, "strides": [1, 1], "bias_initializer": {"class_name": "Zeros", "config": {}}, "kernel_initializer": {"class_name": "VarianceScaling", "config": {"distribution": "uniform", "mode": "fan_avg", "scale": 1.0, "seed": null}}, "kernel_size": [1, 1], "padding": "same", "activity_regularizer": null, "activation": "linear", "kernel_regularizer": null, "dilation_rate": [1, 1], "kernel_constraint": null}, "inbound_nodes": [[["mixed8", 0, 0, {}]]], "class_name": "Conv2D", "name": "conv2d_77"}, {"config": {"beta_regularizer": null, "name": "batch_normalization_79", "gamma_regularizer": null, "trainable": true, "beta_initializer": {"class_name": "Zeros", "config": {}}, "beta_constraint": null, "epsilon": 0.001, "gamma_initializer": {"class_name": "Ones", "config": {}}, "scale": false, "axis": 3, "moving_mean_initializer": {"class_name": "Zeros", "config": {}}, "moving_variance_initializer": {"class_name": "Ones", "config": {}}, "momentum": 0.99, "gamma_constraint": null, "center": true}, "inbound_nodes": [[["conv2d_79", 0, 0, {}]]], "class_name": "BatchNormalization", "name": "batch_normalization_79"}, {"config": {"beta_regularizer": null, "name": "batch_normalization_80", "gamma_regularizer": null, "trainable": true, "beta_initializer": {"class_name": "Zeros", "config": {}}, "beta_constraint": null, "epsilon": 0.001, "gamma_initializer": {"class_name": "Ones", "config": {}}, "scale": false, "axis": 3, "moving_mean_initializer": {"class_name": "Zeros", "config": {}}, "moving_variance_initializer": {"class_name": "Ones", "config": {}}, "momentum": 0.99, "gamma_constraint": null, "center": true}, "inbound_nodes": [[["conv2d_80", 0, 0, {}]]], "class_name": "BatchNormalization", "name": "batch_normalization_80"}, {"config": {"beta_regularizer": null, "name": "batch_normalization_83", "gamma_regularizer": null, "trainable": true, "beta_initializer": {"class_name": "Zeros", "config": {}}, "beta_constraint": null, "epsilon": 0.001, "gamma_initializer": {"class_name": "Ones", "config": {}}, "scale": false, "axis": 3, "moving_mean_initializer": {"class_name": "Zeros", "config": {}}, "moving_variance_initializer": {"class_name": "Ones", "config": {}}, "momentum": 0.99, "gamma_constraint": null, "center": true}, "inbound_nodes": [[["conv2d_83", 0, 0, {}]]], "class_name": "BatchNormalization", "name": "batch_normalization_83"}, {"config": {"beta_regularizer": null, "name": "batch_normalization_84", "gamma_regularizer": null, "trainable": true, "beta_initializer": {"class_name": "Zeros", "config": {}}, "beta_constraint": null, "epsilon": 0.001, "gamma_initializer": {"class_name": "Ones", "config": {}}, "scale": false, "axis": 3, "moving_mean_initializer": {"class_name": "Zeros", "config": {}}, "moving_variance_initializer": {"class_name": "Ones", "config": {}}, "momentum": 0.99, "gamma_constraint": null, "center": true}, "inbound_nodes": [[["conv2d_84", 0, 0, {}]]], "class_name": "BatchNormalization", "name": "batch_normalization_84"}, {"config": {"bias_constraint": null, "name": "conv2d_85", "data_format": "channels_last", "filters": 192, "trainable": true, "use_bias": false, "bias_regularizer": null, "strides": [1, 1], "bias_initializer": {"class_name": "Zeros", "config": {}}, "kernel_initializer": {"class_name": "VarianceScaling", "config": {"distribution": "uniform", "mode": "fan_avg", "scale": 1.0, "seed": null}}, "kernel_size": [1, 1], "padding": "same", "activity_regularizer": null, "activation": "linear", "kernel_regularizer": null, "dilation_rate": [1, 1], "kernel_constraint": null}, "inbound_nodes": [[["average_pooling2d_8", 0, 0, {}]]], "class_name": "Conv2D", "name": "conv2d_85"}, {"config": {"beta_regularizer": null, "name": "batch_normalization_77", "gamma_regularizer": null, "trainable": true, "beta_initializer": {"class_name": "Zeros", "config": {}}, "beta_constraint": null, "epsilon": 0.001, "gamma_initializer": {"class_name": "Ones", "config": {}}, "scale": false, "axis": 3, "moving_mean_initializer": {"class_name": "Zeros", "config": {}}, "moving_variance_initializer": {"class_name": "Ones", "config": {}}, "momentum": 0.99, "gamma_constraint": null, "center": true}, "inbound_nodes": [[["conv2d_77", 0, 0, {}]]], "class_name": "BatchNormalization", "name": "batch_normalization_77"}, {"config": {"trainable": true, "name": "activation_79", "activation": "relu"}, "inbound_nodes": [[["batch_normalization_79", 0, 0, {}]]], "class_name": "Activation", "name": "activation_79"}, {"config": {"trainable": true, "name": "activation_80", "activation": "relu"}, "inbound_nodes": [[["batch_normalization_80", 0, 0, {}]]], "class_name": "Activation", "name": "activation_80"}, {"config": {"trainable": true, "name": "activation_83", "activation": "relu"}, "inbound_nodes": [[["batch_normalization_83", 0, 0, {}]]], "class_name": "Activation", "name": "activation_83"}, {"config": {"trainable": true, "name": "activation_84", "activation": "relu"}, "inbound_nodes": [[["batch_normalization_84", 0, 0, {}]]], "class_name": "Activation", "name": "activation_84"}, {"config": {"beta_regularizer": null, "name": "batch_normalization_85", "gamma_regularizer": null, "trainable": true, "beta_initializer": {"class_name": "Zeros", "config": {}}, "beta_constraint": null, "epsilon": 0.001, "gamma_initializer": {"class_name": "Ones", "config": {}}, "scale": false, "axis": 3, "moving_mean_initializer": {"class_name": "Zeros", "config": {}}, "moving_variance_initializer": {"class_name": "Ones", "config": {}}, "momentum": 0.99, "gamma_constraint": null, "center": true}, "inbound_nodes": [[["conv2d_85", 0, 0, {}]]], "class_name": "BatchNormalization", "name": "batch_normalization_85"}, {"config": {"trainable": true, "name": "activation_77", "activation": "relu"}, "inbound_nodes": [[["batch_normalization_77", 0, 0, {}]]], "class_name": "Activation", "name": "activation_77"}, {"config": {"axis": 3, "trainable": true, "name": "mixed9_0"}, "inbound_nodes": [[["activation_79", 0, 0, {}], ["activation_80", 0, 0, {}]]], "class_name": "Concatenate", "name": "mixed9_0"}, {"config": {"axis": 3, "trainable": true, "name": "concatenate_1"}, "inbound_nodes": [[["activation_83", 0, 0, {}], ["activation_84", 0, 0, {}]]], "class_name": "Concatenate", "name": "concatenate_1"}, {"config": {"trainable": true, "name": "activation_85", "activation": "relu"}, "inbound_nodes": [[["batch_normalization_85", 0, 0, {}]]], "class_name": "Activation", "name": "activation_85"}, {"config": {"axis": 3, "trainable": true, "name": "mixed9"}, "inbound_nodes": [[["activation_77", 0, 0, {}], ["mixed9_0", 0, 0, {}], ["concatenate_1", 0, 0, {}], ["activation_85", 0, 0, {}]]], "class_name": "Concatenate", "name": "mixed9"}, {"config": {"bias_constraint": null, "name": "conv2d_90", "data_format": "channels_last", "filters": 448, "trainable": true, "use_bias": false, "bias_regularizer": null, "strides": [1, 1], "bias_initializer": {"class_name": "Zeros", "config": {}}, "kernel_initializer": {"class_name": "VarianceScaling", "config": {"distribution": "uniform", "mode": "fan_avg", "scale": 1.0, "seed": null}}, "kernel_size": [1, 1], "padding": "same", "activity_regularizer": null, "activation": "linear", "kernel_regularizer": null, "dilation_rate": [1, 1], "kernel_constraint": null}, "inbound_nodes": [[["mixed9", 0, 0, {}]]], "class_name": "Conv2D", "name": "conv2d_90"}, {"config": {"beta_regularizer": null, "name": "batch_normalization_90", "gamma_regularizer": null, "trainable": true, "beta_initializer": {"class_name": "Zeros", "config": {}}, "beta_constraint": null, "epsilon": 0.001, "gamma_initializer": {"class_name": "Ones", "config": {}}, "scale": false, "axis": 3, "moving_mean_initializer": {"class_name": "Zeros", "config": {}}, "moving_variance_initializer": {"class_name": "Ones", "config": {}}, "momentum": 0.99, "gamma_constraint": null, "center": true}, "inbound_nodes": [[["conv2d_90", 0, 0, {}]]], "class_name": "BatchNormalization", "name": "batch_normalization_90"}, {"config": {"trainable": true, "name": "activation_90", "activation": "relu"}, "inbound_nodes": [[["batch_normalization_90", 0, 0, {}]]], "class_name": "Activation", "name": "activation_90"}, {"config": {"bias_constraint": null, "name": "conv2d_87", "data_format": "channels_last", "filters": 384, "trainable": true, "use_bias": false, "bias_regularizer": null, "strides": [1, 1], "bias_initializer": {"class_name": "Zeros", "config": {}}, "kernel_initializer": {"class_name": "VarianceScaling", "config": {"distribution": "uniform", "mode": "fan_avg", "scale": 1.0, "seed": null}}, "kernel_size": [1, 1], "padding": "same", "activity_regularizer": null, "activation": "linear", "kernel_regularizer": null, "dilation_rate": [1, 1], "kernel_constraint": null}, "inbound_nodes": [[["mixed9", 0, 0, {}]]], "class_name": "Conv2D", "name": "conv2d_87"}, {"config": {"bias_constraint": null, "name": "conv2d_91", "data_format": "channels_last", "filters": 384, "trainable": true, "use_bias": false, "bias_regularizer": null, "strides": [1, 1], "bias_initializer": {"class_name": "Zeros", "config": {}}, "kernel_initializer": {"class_name": "VarianceScaling", "config": {"distribution": "uniform", "mode": "fan_avg", "scale": 1.0, "seed": null}}, "kernel_size": [3, 3], "padding": "same", "activity_regularizer": null, "activation": "linear", "kernel_regularizer": null, "dilation_rate": [1, 1], "kernel_constraint": null}, "inbound_nodes": [[["activation_90", 0, 0, {}]]], "class_name": "Conv2D", "name": "conv2d_91"}, {"config": {"beta_regularizer": null, "name": "batch_normalization_87", "gamma_regularizer": null, "trainable": true, "beta_initializer": {"class_name": "Zeros", "config": {}}, "beta_constraint": null, "epsilon": 0.001, "gamma_initializer": {"class_name": "Ones", "config": {}}, "scale": false, "axis": 3, "moving_mean_initializer": {"class_name": "Zeros", "config": {}}, "moving_variance_initializer": {"class_name": "Ones", "config": {}}, "momentum": 0.99, "gamma_constraint": null, "center": true}, "inbound_nodes": [[["conv2d_87", 0, 0, {}]]], "class_name": "BatchNormalization", "name": "batch_normalization_87"}, {"config": {"beta_regularizer": null, "name": "batch_normalization_91", "gamma_regularizer": null, "trainable": true, "beta_initializer": {"class_name": "Zeros", "config": {}}, "beta_constraint": null, "epsilon": 0.001, "gamma_initializer": {"class_name": "Ones", "config": {}}, "scale": false, "axis": 3, "moving_mean_initializer": {"class_name": "Zeros", "config": {}}, "moving_variance_initializer": {"class_name": "Ones", "config": {}}, "momentum": 0.99, "gamma_constraint": null, "center": true}, "inbound_nodes": [[["conv2d_91", 0, 0, {}]]], "class_name": "BatchNormalization", "name": "batch_normalization_91"}, {"config": {"trainable": true, "name": "activation_87", "activation": "relu"}, "inbound_nodes": [[["batch_normalization_87", 0, 0, {}]]], "class_name": "Activation", "name": "activation_87"}, {"config": {"trainable": true, "name": "activation_91", "activation": "relu"}, "inbound_nodes": [[["batch_normalization_91", 0, 0, {}]]], "class_name": "Activation", "name": "activation_91"}, {"config": {"bias_constraint": null, "name": "conv2d_88", "data_format": "channels_last", "filters": 384, "trainable": true, "use_bias": false, "bias_regularizer": null, "strides": [1, 1], "bias_initializer": {"class_name": "Zeros", "config": {}}, "kernel_initializer": {"class_name": "VarianceScaling", "config": {"distribution": "uniform", "mode": "fan_avg", "scale": 1.0, "seed": null}}, "kernel_size": [1, 3], "padding": "same", "activity_regularizer": null, "activation": "linear", "kernel_regularizer": null, "dilation_rate": [1, 1], "kernel_constraint": null}, "inbound_nodes": [[["activation_87", 0, 0, {}]]], "class_name": "Conv2D", "name": "conv2d_88"}, {"config": {"bias_constraint": null, "name": "conv2d_89", "data_format": "channels_last", "filters": 384, "trainable": true, "use_bias": false, "bias_regularizer": null, "strides": [1, 1], "bias_initializer": {"class_name": "Zeros", "config": {}}, "kernel_initializer": {"class_name": "VarianceScaling", "config": {"distribution": "uniform", "mode": "fan_avg", "scale": 1.0, "seed": null}}, "kernel_size": [3, 1], "padding": "same", "activity_regularizer": null, "activation": "linear", "kernel_regularizer": null, "dilation_rate": [1, 1], "kernel_constraint": null}, "inbound_nodes": [[["activation_87", 0, 0, {}]]], "class_name": "Conv2D", "name": "conv2d_89"}, {"config": {"bias_constraint": null, "name": "conv2d_92", "data_format": "channels_last", "filters": 384, "trainable": true, "use_bias": false, "bias_regularizer": null, "strides": [1, 1], "bias_initializer": {"class_name": "Zeros", "config": {}}, "kernel_initializer": {"class_name": "VarianceScaling", "config": {"distribution": "uniform", "mode": "fan_avg", "scale": 1.0, "seed": null}}, "kernel_size": [1, 3], "padding": "same", "activity_regularizer": null, "activation": "linear", "kernel_regularizer": null, "dilation_rate": [1, 1], "kernel_constraint": null}, "inbound_nodes": [[["activation_91", 0, 0, {}]]], "class_name": "Conv2D", "name": "conv2d_92"}, {"config": {"bias_constraint": null, "name": "conv2d_93", "data_format": "channels_last", "filters": 384, "trainable": true, "use_bias": false, "bias_regularizer": null, "strides": [1, 1], "bias_initializer": {"class_name": "Zeros", "config": {}}, "kernel_initializer": {"class_name": "VarianceScaling", "config": {"distribution": "uniform", "mode": "fan_avg", "scale": 1.0, "seed": null}}, "kernel_size": [3, 1], "padding": "same", "activity_regularizer": null, "activation": "linear", "kernel_regularizer": null, "dilation_rate": [1, 1], "kernel_constraint": null}, "inbound_nodes": [[["activation_91", 0, 0, {}]]], "class_name": "Conv2D", "name": "conv2d_93"}, {"config": {"strides": [1, 1], "name": "average_pooling2d_9", "data_format": "channels_last", "trainable": true, "padding": "same", "pool_size": [3, 3]}, "inbound_nodes": [[["mixed9", 0, 0, {}]]], "class_name": "AveragePooling2D", "name": "average_pooling2d_9"}, {"config": {"bias_constraint": null, "name": "conv2d_86", "data_format": "channels_last", "filters": 320, "trainable": true, "use_bias": false, "bias_regularizer": null, "strides": [1, 1], "bias_initializer": {"class_name": "Zeros", "config": {}}, "kernel_initializer": {"class_name": "VarianceScaling", "config": {"distribution": "uniform", "mode": "fan_avg", "scale": 1.0, "seed": null}}, "kernel_size": [1, 1], "padding": "same", "activity_regularizer": null, "activation": "linear", "kernel_regularizer": null, "dilation_rate": [1, 1], "kernel_constraint": null}, "inbound_nodes": [[["mixed9", 0, 0, {}]]], "class_name": "Conv2D", "name": "conv2d_86"}, {"config": {"beta_regularizer": null, "name": "batch_normalization_88", "gamma_regularizer": null, "trainable": true, "beta_initializer": {"class_name": "Zeros", "config": {}}, "beta_constraint": null, "epsilon": 0.001, "gamma_initializer": {"class_name": "Ones", "config": {}}, "scale": false, "axis": 3, "moving_mean_initializer": {"class_name": "Zeros", "config": {}}, "moving_variance_initializer": {"class_name": "Ones", "config": {}}, "momentum": 0.99, "gamma_constraint": null, "center": true}, "inbound_nodes": [[["conv2d_88", 0, 0, {}]]], "class_name": "BatchNormalization", "name": "batch_normalization_88"}, {"config": {"beta_regularizer": null, "name": "batch_normalization_89", "gamma_regularizer": null, "trainable": true, "beta_initializer": {"class_name": "Zeros", "config": {}}, "beta_constraint": null, "epsilon": 0.001, "gamma_initializer": {"class_name": "Ones", "config": {}}, "scale": false, "axis": 3, "moving_mean_initializer": {"class_name": "Zeros", "config": {}}, "moving_variance_initializer": {"class_name": "Ones", "config": {}}, "momentum": 0.99, "gamma_constraint": null, "center": true}, "inbound_nodes": [[["conv2d_89", 0, 0, {}]]], "class_name": "BatchNormalization", "name": "batch_normalization_89"}, {"config": {"beta_regularizer": null, "name": "batch_normalization_92", "gamma_regularizer": null, "trainable": true, "beta_initializer": {"class_name": "Zeros", "config": {}}, "beta_constraint": null, "epsilon": 0.001, "gamma_initializer": {"class_name": "Ones", "config": {}}, "scale": false, "axis": 3, "moving_mean_initializer": {"class_name": "Zeros", "config": {}}, "moving_variance_initializer": {"class_name": "Ones", "config": {}}, "momentum": 0.99, "gamma_constraint": null, "center": true}, "inbound_nodes": [[["conv2d_92", 0, 0, {}]]], "class_name": "BatchNormalization", "name": "batch_normalization_92"}, {"config": {"beta_regularizer": null, "name": "batch_normalization_93", "gamma_regularizer": null, "trainable": true, "beta_initializer": {"class_name": "Zeros", "config": {}}, "beta_constraint": null, "epsilon": 0.001, "gamma_initializer": {"class_name": "Ones", "config": {}}, "scale": false, "axis": 3, "moving_mean_initializer": {"class_name": "Zeros", "config": {}}, "moving_variance_initializer": {"class_name": "Ones", "config": {}}, "momentum": 0.99, "gamma_constraint": null, "center": true}, "inbound_nodes": [[["conv2d_93", 0, 0, {}]]], "class_name": "BatchNormalization", "name": "batch_normalization_93"}, {"config": {"bias_constraint": null, "name": "conv2d_94", "data_format": "channels_last", "filters": 192, "trainable": true, "use_bias": false, "bias_regularizer": null, "strides": [1, 1], "bias_initializer": {"class_name": "Zeros", "config": {}}, "kernel_initializer": {"class_name": "VarianceScaling", "config": {"distribution": "uniform", "mode": "fan_avg", "scale": 1.0, "seed": null}}, "kernel_size": [1, 1], "padding": "same", "activity_regularizer": null, "activation": "linear", "kernel_regularizer": null, "dilation_rate": [1, 1], "kernel_constraint": null}, "inbound_nodes": [[["average_pooling2d_9", 0, 0, {}]]], "class_name": "Conv2D", "name": "conv2d_94"}, {"config": {"beta_regularizer": null, "name": "batch_normalization_86", "gamma_regularizer": null, "trainable": true, "beta_initializer": {"class_name": "Zeros", "config": {}}, "beta_constraint": null, "epsilon": 0.001, "gamma_initializer": {"class_name": "Ones", "config": {}}, "scale": false, "axis": 3, "moving_mean_initializer": {"class_name": "Zeros", "config": {}}, "moving_variance_initializer": {"class_name": "Ones", "config": {}}, "momentum": 0.99, "gamma_constraint": null, "center": true}, "inbound_nodes": [[["conv2d_86", 0, 0, {}]]], "class_name": "BatchNormalization", "name": "batch_normalization_86"}, {"config": {"trainable": true, "name": "activation_88", "activation": "relu"}, "inbound_nodes": [[["batch_normalization_88", 0, 0, {}]]], "class_name": "Activation", "name": "activation_88"}, {"config": {"trainable": true, "name": "activation_89", "activation": "relu"}, "inbound_nodes": [[["batch_normalization_89", 0, 0, {}]]], "class_name": "Activation", "name": "activation_89"}, {"config": {"trainable": true, "name": "activation_92", "activation": "relu"}, "inbound_nodes": [[["batch_normalization_92", 0, 0, {}]]], "class_name": "Activation", "name": "activation_92"}, {"config": {"trainable": true, "name": "activation_93", "activation": "relu"}, "inbound_nodes": [[["batch_normalization_93", 0, 0, {}]]], "class_name": "Activation", "name": "activation_93"}, {"config": {"beta_regularizer": null, "name": "batch_normalization_94", "gamma_regularizer": null, "trainable": true, "beta_initializer": {"class_name": "Zeros", "config": {}}, "beta_constraint": null, "epsilon": 0.001, "gamma_initializer": {"class_name": "Ones", "config": {}}, "scale": false, "axis": 3, "moving_mean_initializer": {"class_name": "Zeros", "config": {}}, "moving_variance_initializer": {"class_name": "Ones", "config": {}}, "momentum": 0.99, "gamma_constraint": null, "center": true}, "inbound_nodes": [[["conv2d_94", 0, 0, {}]]], "class_name": "BatchNormalization", "name": "batch_normalization_94"}, {"config": {"trainable": true, "name": "activation_86", "activation": "relu"}, "inbound_nodes": [[["batch_normalization_86", 0, 0, {}]]], "class_name": "Activation", "name": "activation_86"}, {"config": {"axis": 3, "trainable": true, "name": "mixed9_1"}, "inbound_nodes": [[["activation_88", 0, 0, {}], ["activation_89", 0, 0, {}]]], "class_name": "Concatenate", "name": "mixed9_1"}, {"config": {"axis": 3, "trainable": true, "name": "concatenate_2"}, "inbound_nodes": [[["activation_92", 0, 0, {}], ["activation_93", 0, 0, {}]]], "class_name": "Concatenate", "name": "concatenate_2"}, {"config": {"trainable": true, "name": "activation_94", "activation": "relu"}, "inbound_nodes": [[["batch_normalization_94", 0, 0, {}]]], "class_name": "Activation", "name": "activation_94"}, {"config": {"axis": 3, "trainable": true, "name": "mixed10"}, "inbound_nodes": [[["activation_86", 0, 0, {}], ["mixed9_1", 0, 0, {}], ["concatenate_2", 0, 0, {}], ["activation_94", 0, 0, {}]]], "class_name": "Concatenate", "name": "mixed10"}, {"config": {"trainable": true, "name": "avg_pool", "data_format": "channels_last"}, "inbound_nodes": [[["mixed10", 0, 0, {}]]], "class_name": "GlobalAveragePooling2D", "name": "avg_pool"}, {"config": {"bias_constraint": null, "name": "predictions", "trainable": true, "use_bias": true, "bias_regularizer": null, "units": 1000, "bias_initializer": {"class_name": "Zeros", "config": {}}, "kernel_initializer": {"class_name": "VarianceScaling", "config": {"distribution": "uniform", "mode": "fan_avg", "scale": 1.0, "seed": null}}, "activity_regularizer": null, "activation": "softmax", "kernel_regularizer": null, "kernel_constraint": null}, "inbound_nodes": [[["avg_pool", 0, 0, {}]]], "class_name": "Dense", "name": "predictions"}], "output_layers": [["predictions", 0, 0]], "name": "inception_v3", "input_layers": [["input_1", 0, 0]]}, "backend": "tensorflow"}