{"backend": "tensorflow", "keras_version": "2.1.2", "params": {"separable_conv_2_normal_left5_18": 17536, "activation_192": 0, "normal_concat_18": 0, "activation_111": 0, "separable_conv_1_bn_normal_left5_12": 256, "normal_concat_8": 0, "separable_conv_2_bn_reduction_1_reduce_12": 512, "separable_conv_2_normal_left5_17": 17536, "normal_bn_1_0": 128, "normal_left4_8": 0, "activation_10": 0, "activation_36": 0, "separable_conv_2_bn_normal_right2_10": 256, "activation_83": 0, "normal_conv_1_8": 24576, "separable_conv_1_normal_right1_2": 1312, "normal_concat_4": 0, "activation_236": 0, "normal_concat_11": 0, "separable_conv_2_normal_right2_13": 17536, "activation_195": 0, "separable_conv_2_normal_right1_17": 17536, "activation_91": 0, "separable_conv_1_bn_normal_right2_5": 128, "activation_169": 0, "activation_152": 0, "activation_50": 0, "activation_14": 0, "separable_conv_1_bn_normal_left5_0": 128, "separable_conv_1_bn_normal_right2_14": 512, "separable_conv_2_bn_normal_left1_4": 128, "activation_7": 0, "separable_conv_1_normal_right2_14": 17536, "separable_conv_1_normal_left1_18": 19584, "separable_conv_1_bn_normal_right2_4": 128, "adjust_conv_projection_2": 6144, "activation_157": 0, "activation_11": 0, "separable_conv_2_bn_normal_right2_13": 512, "activation_148": 0, "adjust_bn_2": 128, "activation_123": 0, "separable_conv_1_normal_left5_10": 4672, "activation_9": 0, "separable_conv_1_normal_right1_11": 4672, "activation_126": 0, "adjust_bn_11": 256, "normal_add_1_14": 0, "separable_conv_1_normal_left1_14": 19584, "separable_conv_2_bn_normal_left1_16": 512, "activation_27": 0, "separable_conv_1_bn_normal_left2_5": 128, "normal_add_5_13": 0, "normal_add_5_14": 0, "activation_113": 0, "separable_conv_1_bn_normal_right2_11": 256, "separable_conv_1_bn_reduction_left1_reduce_12": 512, "adjust_conv_projection_4": 6144, "separable_conv_2_normal_left1_11": 5696, "separable_conv_2_bn_reduction_left1_reduce_6": 256, "activation_115": 0, "activation_15": 0, "separable_conv_1_reduction_left1_reduce_6": 5696, "activation_22": 0, "activation_119": 0, "normal_concat_5": 0, "separable_conv_1_normal_right2_15": 17536, "separable_conv_2_bn_normal_left2_14": 512, "normal_conv_1_14": 98304, "normal_add_3_7": 0, "separable_conv_2_normal_right2_7": 4672, "normal_add_3_3": 0, "separable_conv_2_bn_normal_left1_15": 512, "separable_conv_2_normal_left1_0": 1824, "activation_190": 0, "activation_97": 0, "separable_conv_1_bn_normal_left5_3": 128, "normal_left4_15": 0, "separable_conv_2_normal_left5_15": 17536, "separable_conv_2_bn_normal_right2_7": 256, "separable_conv_1_normal_right1_15": 17536, "separable_conv_1_bn_normal_right1_5": 128, "separable_conv_2_bn_reduction_left4_reduce_12": 512, "activation_20": 0, "activation_218": 0, "activation_153": 0, "separable_conv_2_normal_left1_7": 5696, "separable_conv_2_reduction_left1_reduce_6": 5696, "separable_conv_1_bn_normal_right1_16": 512, "normal_add_5_15": 0, "activation_78": 0, "activation_101": 0, "separable_conv_2_bn_normal_left1_2": 128, "normal_right4_11": 0, "activation_138": 0, "separable_conv_2_normal_left1_5": 1824, "adjust_conv_projection_9": 24576, "activation_233": 0, "activation_207": 0, "separable_conv_1_bn_normal_left5_8": 256, "normal_left3_12": 0, "activation_99": 0, "activation_64": 0, "activation_95": 0, "separable_conv_2_bn_normal_left5_18": 512, "activation_142": 0, "normal_conv_1_2": 6144, "normal_add_1_9": 0, "normal_bn_1_18": 512, "activation_87": 0, "separable_conv_1_normal_right2_8": 4672, "normal_add_2_18": 0, "activation_202": 0, "separable_conv_2_normal_right2_0": 1312, "normal_add_3_0": 0, "separable_conv_1_bn_normal_left1_16": 512, "adjust_bn_18": 512, "separable_conv_2_bn_normal_right1_11": 256, "normal_right4_5": 0, "activation_187": 0, "activation_71": 0, "normal_concat_15": 0, "separable_conv_1_bn_normal_left2_3": 128, "activation_75": 0, "separable_conv_1_bn_normal_right1_7": 256, "separable_conv_1_normal_right1_5": 1312, "normal_add_5_5": 0, "separable_conv_1_normal_right2_3": 1312, "normal_bn_1_14": 512, "separable_conv_1_bn_normal_left1_9": 256, "activation_165": 0, "separable_conv_2_bn_normal_left1_14": 512, "activation_227": 0, "activation_149": 0, "activation_37": 0, "normal_left4_0": 0, "separable_conv_1_normal_left2_3": 1824, "separable_conv_2_bn_normal_right1_15": 512, "activation_44": 0, "separable_conv_2_bn_normal_left1_9": 256, "normal_bn_1_9": 256, "activation_158": 0, "reduction_left3_reduce_12": 0, "activation_13": 0, "separable_conv_2_normal_right2_4": 1312, "normal_left3_16": 0, "separable_conv_1_normal_right1_0": 1312, "separable_conv_2_normal_left2_0": 1824, "separable_conv_2_bn_normal_left1_8": 256, "separable_conv_1_normal_left5_7": 4672, "normal_add_4_3": 0, "activation_103": 0, "normal_add_4_11": 0, "adjust_conv_projection_reduce_12": 49152, "separable_conv_2_normal_left5_5": 1312, "separable_conv_2_bn_reduction_right3_reduce_6": 256, "activation_234": 0, "normal_right4_4": 0, "separable_conv_2_normal_right1_15": 17536, "normal_add_2_9": 0, "separable_conv_2_normal_right2_3": 1312, "normal_left3_11": 0, "normal_add_5_1": 0, "predictions": 7690, "adjust_conv_1_13": 24576, "separable_conv_2_bn_normal_right2_17": 512, "separable_conv_2_bn_normal_right1_14": 512, "separable_conv_2_normal_left1_3": 1824, "normal_add_4_4": 0, "separable_conv_1_bn_reduction_right2_reduce_12": 512, "adjust_avg_pool_2_7": 0, "separable_conv_2_normal_right1_16": 17536, "normal_add_3_12": 0, "separable_conv_2_bn_reduction_right2_reduce_12": 512, "normal_right4_8": 0, "normal_right4_3": 0, "separable_conv_1_bn_normal_left1_8": 256, "separable_conv_1_normal_left2_4": 1824, "separable_conv_2_normal_right1_18": 17536, "activation_151": 0, "separable_conv_2_normal_left2_1": 1824, "separable_conv_2_normal_left5_2": 1312, "activation_25": 0, "activation_146": 0, "reduction_left2_reduce_12": 0, "normal_concat_16": 0, "separable_conv_2_normal_right2_15": 17536, "normal_add_3_1": 0, "activation_43": 0, "normal_bn_1_16": 512, "adjust_bn_5": 128, "normal_add_3_18": 0, "activation_38": 0, "activation_163": 0, "normal_add_3_9": 0, "activation_161": 0, "separable_conv_1_bn_normal_left5_15": 512, "activation_73": 0, "activation_29": 0, "separable_conv_2_normal_left2_4": 1824, "separable_conv_2_normal_left2_14": 19584, "normal_add_4_8": 0, "activation_147": 0, "normal_add_5_17": 0, "activation_156": 0, "separable_conv_2_bn_normal_right1_10": 256, "stem_conv1": 864, "separable_conv_2_bn_normal_left5_15": 512, "separable_conv_2_normal_left1_15": 19584, "separable_conv_1_normal_right1_13": 17536, "normal_bn_1_3": 128, "separable_conv_1_bn_reduction_right3_reduce_6": 256, "separable_conv_2_normal_right1_13": 17536, "activation_211": 0, "separable_conv_1_bn_normal_left1_4": 128, "separable_conv_1_normal_right1_3": 1312, "separable_conv_1_bn_reduction_1_reduce_12": 512, "normal_right4_0": 0, "separable_conv_2_bn_normal_left2_10": 256, "separable_conv_1_normal_left5_8": 4672, "separable_conv_2_normal_right1_12": 4672, "separable_conv_1_bn_normal_right2_0": 128, "separable_conv_2_normal_left5_9": 4672, "adjust_bn_14": 512, "global_average_pooling2d_1": 0, "activation_125": 0, "separable_conv_1_normal_left2_9": 5696, "normal_add_1_18": 0, "separable_conv_2_bn_normal_right1_13": 512, "activation_167": 0, "activation_150": 0, "separable_conv_1_bn_normal_right1_8": 256, "separable_conv_2_bn_normal_right2_14": 512, "activation_106": 0, "separable_conv_1_bn_normal_left2_18": 512, "normal_add_4_9": 0, "separable_conv_2_normal_left2_13": 19584, "normal_add_1_0": 0, "normal_add_5_10": 0, "separable_conv_2_bn_normal_left2_3": 128, "adjust_bn_17": 512, "separable_conv_1_normal_left5_12": 4672, "normal_left4_5": 0, "separable_conv_1_bn_normal_right2_3": 128, "separable_conv_1_bn_normal_left5_2": 128, "separable_conv_2_normal_left5_3": 1312, "normal_right4_17": 0, "separable_conv_1_bn_normal_left1_7": 256, "reduction_add3_reduce_6": 0, "activation_128": 0, "separable_conv_1_normal_right1_1": 1312, "separable_conv_1_bn_normal_right1_15": 512, "adjust_conv_projection_14": 65536, "separable_conv_1_bn_normal_right2_13": 512, "activation_229": 0, "activation_201": 0, "separable_conv_2_bn_reduction_1_reduce_6": 256, "activation_203": 0, "normal_bn_1_12": 256, "activation_200": 0, "activation_30": 0, "separable_conv_1_normal_left1_8": 5696, "normal_bn_1_13": 512, "separable_conv_1_normal_right2_2": 1312, "activation_89": 0, "normal_left4_4": 0, "normal_add_2_11": 0, "separable_conv_2_bn_normal_left1_11": 256, "separable_conv_1_normal_right2_17": 17536, "adjust_conv_projection_16": 98304, "separable_conv_1_normal_left5_9": 4672, "separable_conv_1_bn_normal_right1_13": 512, "separable_conv_2_normal_right1_0": 1312, "separable_conv_1_normal_left5_2": 1312, "separable_conv_1_bn_reduction_right3_reduce_12": 512, "separable_conv_1_bn_normal_left2_4": 128, "reduction_concat_reduce_6": 0, "activation_213": 0, "activation_110": 0, "separable_conv_2_normal_left5_13": 17536, "cropping2d_2": 0, "separable_conv_1_reduction_1_reduce_12": 22656, "separable_conv_2_normal_left1_13": 19584, "normal_conv_1_18": 98304, "activation_104": 0, "separable_conv_1_bn_normal_left1_13": 512, "separable_conv_2_normal_right2_10": 4672, "adjust_bn_reduce_12": 512, "activation_188": 0, "separable_conv_1_bn_normal_right1_12": 256, "activation_216": 0, "activation_221": 0, "separable_conv_2_bn_normal_right2_1": 128, "adjust_conv_2_7": 6144, "separable_conv_1_bn_normal_left1_15": 512, "adjust_relu_1_13": 0, "normal_left4_11": 0, "normal_add_5_8": 0, "separable_conv_1_normal_right2_1": 1312, "normal_add_1_1": 0, "separable_conv_2_normal_left2_17": 19584, "separable_conv_2_normal_left5_0": 1312, "separable_conv_2_normal_left5_12": 4672, "separable_conv_2_normal_left2_2": 1824, "activation_48": 0, "activation_134": 0, "activation_33": 0, "adjust_bn_10": 256, "adjust_bn_3": 128, "separable_conv_2_bn_normal_left2_9": 256, "separable_conv_1_bn_normal_right1_2": 128, "activation_52": 0, "normal_add_1_3": 0, "activation_74": 0, "separable_conv_1_bn_normal_left5_4": 128, "normal_add_1_17": 0, "normal_add_2_3": 0, "separable_conv_1_normal_right2_16": 17536, "activation_217": 0, "normal_conv_1_3": 6144, "separable_conv_2_bn_reduction_right2_reduce_6": 256, "adjust_avg_pool_1_13": 0, "separable_conv_2_normal_left2_12": 5696, "activation_16": 0, "separable_conv_1_bn_normal_right1_0": 128, "separable_conv_1_bn_normal_right2_7": 256, "separable_conv_1_normal_left1_17": 19584, "separable_conv_1_normal_left2_17": 19584, "activation_179": 0, "separable_conv_2_normal_left2_18": 19584, "separable_conv_2_normal_left1_14": 19584, "activation_80": 0, "separable_conv_1_bn_reduction_left4_reduce_12": 512, "adjust_bn_12": 256, "activation_34": 0, "separable_conv_1_bn_reduction_left4_reduce_6": 256, "normal_left4_9": 0, "reduction_right5_reduce_12": 0, "reduction_left4_reduce_12": 0, "activation_63": 0, "separable_conv_1_normal_left5_13": 17536, "separable_conv_1_bn_normal_left2_16": 512, "separable_conv_1_normal_left2_7": 5696, "normal_left3_18": 0, "activation_222": 0, "normal_add_4_14": 0, "separable_conv_2_bn_normal_right2_5": 128, "normal_conv_1_13": 65536, "normal_bn_1_2": 128, "normal_left3_17": 0, "separable_conv_1_bn_normal_right2_16": 512, "normal_right4_9": 0, "separable_conv_1_bn_normal_left2_1": 128, "normal_bn_1_17": 512, "reduction_add_1_reduce_12": 0, "normal_left4_3": 0, "normal_conv_1_5": 6144, "normal_add_5_16": 0, "adjust_conv_projection_12": 24576, "activation_225": 0, "adjust_conv_projection_8": 16384, "activation_24": 0, "separable_conv_2_bn_normal_left1_18": 512, "activation_182": 0, "separable_conv_2_bn_normal_right2_3": 128, "normal_left3_4": 0, "activation_61": 0, "activation_21": 0, "normal_bn_1_1": 128, "normal_bn_1_10": 256, "separable_conv_1_reduction_right3_reduce_6": 5696, "separable_conv_2_bn_normal_right2_9": 256, "separable_conv_2_bn_normal_left5_9": 256, "normal_add_5_0": 0, "separable_conv_1_normal_left5_4": 1312, "normal_add_1_5": 0, "separable_conv_2_bn_normal_right2_0": 128, "activation_219": 0, "normal_add_3_17": 0, "activation_81": 0, "separable_conv_1_bn_normal_left5_16": 512, "adjust_conv_projection_3": 6144, "separable_conv_2_bn_normal_right1_17": 512, "activation_205": 0, "separable_conv_1_normal_right1_16": 17536, "separable_conv_2_bn_reduction_left1_reduce_12": 512, "separable_conv_2_bn_normal_right1_5": 128, "zero_padding2d_2": 0, "separable_conv_1_reduction_left1_reduce_12": 19584, "separable_conv_1_normal_right2_4": 1312, "adjust_bn_15": 512, "activation_231": 0, "separable_conv_2_normal_left2_15": 19584, "normal_right4_14": 0, "separable_conv_2_normal_left5_11": 4672, "activation_139": 0, "separable_conv_2_bn_normal_left2_8": 256, "separable_conv_2_normal_right1_9": 4672, "activation_51": 0, "separable_conv_1_normal_left2_16": 19584, "separable_conv_2_reduction_right3_reduce_12": 19584, "activation_4": 0, "activation_108": 0, "activation_93": 0, "cropping2d_1": 0, "separable_conv_2_bn_normal_left5_11": 256, "normal_left3_2": 0, "normal_add_4_16": 0, "activation_3": 0, "separable_conv_2_bn_normal_left1_5": 128, "activation_18": 0, "separable_conv_1_normal_left5_15": 17536, "separable_conv_1_bn_normal_left1_10": 256, "activation_206": 0, "normal_add_4_12": 0, "normal_bn_1_7": 256, "normal_add_2_13": 0, "separable_conv_1_bn_normal_left1_11": 256, "separable_conv_1_bn_normal_right1_9": 256, "separable_conv_1_bn_normal_left2_9": 256, "normal_add_3_10": 0, "separable_conv_1_normal_left2_1": 1824, "separable_conv_1_bn_normal_left1_12": 256, "separable_conv_2_bn_normal_left2_13": 512, "activation_170": 0, "normal_concat_14": 0, "activation_145": 0, "normal_concat_12": 0, "normal_left4_12": 0, "activation_208": 0, "separable_conv_1_normal_left5_17": 17536, "separable_conv_2_normal_left5_16": 17536, "separable_conv_1_normal_right2_11": 4672, "activation_1": 0, "separable_conv_2_bn_normal_right2_4": 128, "normal_left3_7": 0, "separable_conv_2_normal_right2_12": 4672, "separable_conv_2_reduction_left1_reduce_12": 19584, "separable_conv_1_normal_left5_1": 1312, "activation_94": 0, "separable_conv_1_bn_normal_left5_11": 256, "activation_237": 0, "normal_left4_17": 0, "normal_right4_1": 0, "activation_5": 0, "activation_127": 0, "normal_conv_1_4": 6144, "activation_214": 0, "adjust_relu_1_7": 0, "separable_conv_2_bn_normal_left5_10": 256, "separable_conv_1_bn_normal_right2_1": 128, "activation_82": 0, "separable_conv_1_normal_left2_14": 19584, "normal_concat_2": 0, "normal_add_1_8": 0, "separable_conv_1_bn_normal_right2_12": 256, "separable_conv_1_bn_normal_right2_15": 512, "adjust_conv_projection_11": 24576, "normal_left3_8": 0, "activation_220": 0, "separable_conv_2_bn_normal_left5_4": 128, "activation_178": 0, "normal_add_3_5": 0, "activation_79": 0, "activation_56": 0, "separable_conv_2_normal_left5_1": 1312, "separable_conv_2_normal_left1_12": 5696, "separable_conv_1_normal_left5_11": 4672, "activation_131": 0, "adjust_bn_9": 256, "activation_130": 0, "separable_conv_1_bn_normal_left1_5": 128, "separable_conv_2_reduction_right2_reduce_6": 7232, "separable_conv_2_bn_normal_left5_7": 256, "separable_conv_2_bn_normal_left5_5": 128, "separable_conv_1_bn_normal_left5_10": 256, "separable_conv_2_bn_normal_left5_14": 512, "separable_conv_2_bn_normal_left2_15": 512, "separable_conv_2_normal_left1_8": 5696, "activation_144": 0, "separable_conv_2_bn_normal_right2_11": 256, "zero_padding2d_1": 0, "separable_conv_2_normal_right1_2": 1312, "normal_add_2_16": 0, "separable_conv_2_reduction_left4_reduce_12": 17536, "normal_add_4_5": 0, "separable_conv_2_normal_right1_11": 4672, "normal_conv_1_15": 98304, "separable_conv_1_bn_normal_left1_17": 512, "activation_189": 0, "normal_add_2_15": 0, "separable_conv_1_normal_left1_16": 19584, "normal_bn_1_11": 256, "separable_conv_2_normal_right1_10": 4672, "activation_88": 0, "separable_conv_1_bn_normal_left2_17": 512, "separable_conv_2_normal_left2_11": 5696, "adjust_conv_projection_10": 24576, "activation_53": 0, "normal_conv_1_7": 16384, "normal_add_1_10": 0, "activation_114": 0, "separable_conv_1_bn_normal_left2_15": 512, "separable_conv_1_bn_normal_left1_0": 128, "separable_conv_1_bn_normal_left2_11": 256, "separable_conv_1_bn_normal_right1_10": 256, "activation_45": 0, "separable_conv_1_normal_right1_4": 1312, "activation_215": 0, "reduction_conv_1_reduce_6": 12288, "separable_conv_1_bn_normal_right2_18": 512, "activation_42": 0, "separable_conv_2_bn_normal_right1_1": 128, "normal_conv_1_1": 6144, "separable_conv_2_normal_left1_10": 5696, "separable_conv_1_bn_normal_right1_1": 128, "adjust_conv_2_13": 24576, "activation_140": 0, "separable_conv_1_normal_right1_17": 17536, "normal_add_5_7": 0, "activation_23": 0, "reduction_left2_reduce_6": 0, "activation_194": 0, "reduction_right5_reduce_6": 0, "normal_add_3_14": 0, "separable_conv_2_normal_right2_18": 17536, "separable_conv_1_bn_normal_right2_10": 256, "separable_conv_2_bn_normal_right1_12": 256, "adjust_bn_16": 512, "normal_add_3_2": 0, "separable_conv_1_normal_left2_18": 19584, "separable_conv_1_bn_normal_left1_2": 128, "normal_concat_7": 0, "adjust_bn_7": 256, "separable_conv_2_reduction_right2_reduce_12": 22656, "normal_left3_3": 0, "normal_left4_10": 0, "activation_77": 0, "separable_conv_2_bn_normal_left2_0": 128, "separable_conv_1_bn_normal_left2_12": 256, "normal_right4_18": 0, "separable_conv_1_bn_normal_left1_3": 128, "normal_add_3_11": 0, "activation_191": 0, "reduction_add4_reduce_6": 0, "activation_54": 0, "separable_conv_2_normal_left1_17": 19584, "separable_conv_1_reduction_right3_reduce_12": 19584, "normal_add_3_8": 0, "normal_right4_7": 0, "separable_conv_1_bn_normal_left2_7": 256, "separable_conv_1_normal_left2_15": 19584, "separable_conv_1_normal_left2_8": 5696, "normal_add_2_17": 0, "normal_add_5_4": 0, "normal_concat_3": 0, "separable_conv_1_reduction_right2_reduce_6": 7232, "separable_conv_2_bn_normal_right2_15": 512, "separable_conv_1_bn_normal_right1_3": 128, "activation_129": 0, "activation_107": 0, "activation_173": 0, "activation_85": 0, "separable_conv_1_reduction_1_reduce_6": 7232, "activation_196": 0, "normal_left4_18": 0, "activation_116": 0, "separable_conv_2_bn_normal_right1_16": 512, "activation_230": 0, "separable_conv_1_normal_right2_7": 4672, "separable_conv_2_normal_left2_5": 1824, "separable_conv_1_normal_left1_5": 1824, "separable_conv_2_normal_left2_3": 1824, "separable_conv_1_normal_left1_9": 5696, "separable_conv_1_normal_left1_0": 1824, "separable_conv_1_normal_left2_0": 1824, "activation_26": 0, "normal_left3_15": 0, "activation_86": 0, "activation_8": 0, "separable_conv_2_bn_normal_left1_10": 256, "separable_conv_2_bn_normal_right2_12": 256, "activation_197": 0, "separable_conv_2_reduction_1_reduce_6": 7232, "separable_conv_1_bn_normal_left5_9": 256, "activation_210": 0, "activation_166": 0, "activation_6": 0, "separable_conv_2_normal_right1_8": 4672, "separable_conv_2_normal_right1_1": 1312, "activation_232": 0, "normal_add_5_2": 0, "activation_62": 0, "separable_conv_1_normal_left2_2": 1824, "separable_conv_2_normal_right2_1": 1312, "separable_conv_1_normal_right1_8": 4672, "normal_add_1_7": 0, "separable_conv_2_bn_normal_right1_2": 128, "separable_conv_1_normal_left1_10": 5696, "separable_conv_1_normal_left1_3": 1824, "separable_conv_1_reduction_left4_reduce_6": 4672, "separable_conv_2_normal_right1_4": 1312, "activation_67": 0, "separable_conv_2_bn_normal_left5_8": 256, "normal_left3_5": 0, "activation_40": 0, "activation_120": 0, "separable_conv_2_normal_right2_17": 17536, "activation_109": 0, "separable_conv_1_bn_normal_right1_17": 512, "separable_conv_2_bn_normal_left5_17": 512, "separable_conv_1_bn_reduction_left1_reduce_6": 256, "separable_conv_2_bn_normal_right1_9": 256, "activation_235": 0, "separable_conv_2_bn_normal_left2_4": 128, "separable_conv_2_bn_normal_right1_18": 512, "separable_conv_2_bn_normal_left2_11": 256, "activation_32": 0, "normal_add_4_13": 0, "separable_conv_1_reduction_left4_reduce_12": 17536, "normal_add_4_17": 0, "reduction_add3_reduce_12": 0, "adjust_conv_projection_reduce_6": 12288, "activation_35": 0, "normal_add_2_0": 0, "separable_conv_2_bn_normal_right1_4": 128, "normal_left3_13": 0, "separable_conv_2_normal_left1_9": 5696, "activation_57": 0, "activation_226": 0, "normal_add_5_3": 0, "stem_bn1": 128, "separable_conv_2_normal_left1_1": 1824, "separable_conv_1_normal_left1_1": 1824, "normal_add_4_15": 0, "activation_155": 0, "separable_conv_2_bn_normal_left5_3": 128, "activation_118": 0, "normal_concat_13": 0, "dropout_1": 0, "normal_left4_1": 0, "separable_conv_2_normal_right2_16": 17536, "separable_conv_2_bn_normal_left1_1": 128, "separable_conv_1_normal_left2_11": 5696, "reduction_bn_1_reduce_12": 512, "reduction_concat_reduce_12": 0, "separable_conv_1_normal_right1_7": 4672, "normal_add_5_12": 0, "separable_conv_2_normal_left5_7": 4672, "separable_conv_1_normal_right1_14": 17536, "adjust_avg_pool_1_7": 0, "activation_46": 0, "normal_add_2_7": 0, "adjust_conv_projection_18": 98304, "input_1": 0, "normal_bn_1_15": 512, "separable_conv_2_normal_right1_14": 17536, "separable_conv_2_normal_left2_7": 5696, "activation_168": 0, "normal_left4_2": 0, "normal_add_2_8": 0, "normal_bn_1_4": 128, "activation_28": 0, "separable_conv_2_normal_left5_14": 17536, "separable_conv_2_bn_reduction_left4_reduce_6": 256, "adjust_bn_4": 128, "activation_198": 0, "activation_112": 0, "normal_right4_15": 0, "normal_left4_7": 0, "separable_conv_2_normal_left2_16": 19584, "activation_58": 0, "separable_conv_2_normal_left2_10": 5696, "activation_39": 0, "activation_12": 0, "adjust_conv_projection_5": 6144, "adjust_avg_pool_2_13": 0, "activation_174": 0, "normal_concat_10": 0, "activation_49": 0, "normal_concat_9": 0, "separable_conv_2_bn_normal_right1_3": 128, "normal_add_1_11": 0, "separable_conv_2_normal_right2_9": 4672, "separable_conv_1_normal_left1_2": 1824, "activation_31": 0, "activation_17": 0, "normal_right4_10": 0, "separable_conv_1_bn_reduction_right2_reduce_6": 256, "separable_conv_2_normal_left1_2": 1824, "normal_add_1_4": 0, "separable_conv_2_bn_normal_left1_7": 256, "normal_left3_9": 0, "normal_add_4_10": 0, "activation_121": 0, "activation_68": 0, "separable_conv_2_bn_normal_left1_17": 512, "activation_76": 0, "concatenate_2": 0, "separable_conv_1_normal_right2_12": 4672, "normal_add_1_13": 0, "separable_conv_2_normal_right2_5": 1312, "separable_conv_2_bn_normal_left2_17": 512, "separable_conv_2_bn_normal_left2_12": 256, "separable_conv_1_bn_normal_left2_8": 256, "activation_177": 0, "normal_add_2_2": 0, "adjust_conv_projection_17": 98304, "normal_conv_1_12": 24576, "separable_conv_1_normal_left5_0": 1312, "reduction_add4_reduce_12": 0, "reduction_add_1_reduce_6": 0, "activation_122": 0, "separable_conv_1_bn_normal_left5_14": 512, "normal_left3_1": 0, "normal_concat_17": 0, "separable_conv_1_normal_right1_12": 4672, "separable_conv_2_bn_normal_right2_2": 128, "activation_124": 0, "activation_175": 0, "separable_conv_1_bn_normal_left1_18": 512, "separable_conv_1_normal_left5_5": 1312, "separable_conv_2_normal_left5_10": 4672, "separable_conv_1_normal_right1_10": 4672, "separable_conv_1_bn_normal_left2_14": 512, "normal_add_2_10": 0, "separable_conv_2_bn_normal_right2_18": 512, "activation_19": 0, "separable_conv_2_bn_normal_right2_8": 256, "activation_117": 0, "reduction_add_2_reduce_12": 0, "separable_conv_2_bn_normal_left2_2": 128, "activation_209": 0, "normal_add_4_1": 0, "separable_conv_1_bn_normal_right1_14": 512, "activation_98": 0, "separable_conv_2_bn_normal_left2_16": 512, "activation_164": 0, "normal_conv_1_0": 1024, "activation_70": 0, "reduction_left3_reduce_6": 0, "separable_conv_2_bn_normal_right1_7": 256, "normal_conv_1_9": 24576, "normal_bn_1_5": 128, "separable_conv_1_bn_normal_right2_8": 256, "separable_conv_2_normal_left1_16": 19584, "separable_conv_1_normal_left1_15": 19584, "separable_conv_2_bn_normal_left5_16": 512, "separable_conv_1_normal_left1_4": 1824, "reduction_bn_1_reduce_6": 256, "activation_65": 0, "activation_159": 0, "separable_conv_1_bn_normal_left5_13": 512, "activation_2": 0, "separable_conv_1_normal_right1_9": 4672, "separable_conv_1_normal_left2_5": 1824, "activation_55": 0, "normal_add_4_0": 0, "activation_141": 0, "normal_conv_1_10": 24576, "normal_left4_16": 0, "separable_conv_1_normal_left2_10": 5696, "normal_add_4_7": 0, "normal_add_4_2": 0, "activation_162": 0, "separable_conv_2_bn_normal_left1_13": 512, "separable_conv_2_normal_left2_8": 5696, "separable_conv_2_bn_normal_left5_12": 256, "normal_left4_14": 0, "activation_204": 0, "add_1": 0, "separable_conv_2_normal_left1_4": 1824, "separable_conv_2_bn_normal_left5_1": 128, "separable_conv_1_bn_normal_right2_17": 512, "activation_186": 0, "activation_183": 0, "normal_left3_10": 0, "activation_105": 0, "separable_conv_2_reduction_right3_reduce_6": 5696, "normal_concat_0": 0, "separable_conv_2_reduction_left4_reduce_6": 4672, "activation_160": 0, "separable_conv_2_normal_left2_9": 5696, "separable_conv_2_normal_left5_8": 4672, "normal_left3_0": 0, "activation_176": 0, "normal_add_2_12": 0, "normal_add_3_4": 0, "activation_137": 0, "activation_66": 0, "separable_conv_1_normal_left5_14": 17536, "add_2": 0, "activation_132": 0, "separable_conv_2_bn_normal_left1_0": 128, "normal_right4_16": 0, "normal_add_3_13": 0, "normal_add_3_16": 0, "separable_conv_2_normal_right1_7": 4672, "adjust_bn_13": 512, "separable_conv_1_normal_right2_10": 4672, "activation_172": 0, "separable_conv_1_reduction_right2_reduce_12": 22656, "separable_conv_2_normal_left1_18": 19584, "separable_conv_2_bn_normal_right1_8": 256, "normal_add_1_15": 0, "separable_conv_1_bn_normal_left1_14": 512, "activation_84": 0, "activation_72": 0, "adjust_bn_8": 256, "activation_136": 0, "normal_concat_1": 0, "normal_add_2_4": 0, "separable_conv_2_normal_right1_5": 1312, "separable_conv_1_bn_normal_left5_5": 128, "separable_conv_1_bn_normal_right1_18": 512, "separable_conv_1_normal_left2_12": 5696, "activation_171": 0, "separable_conv_1_bn_normal_right2_2": 128, "separable_conv_1_normal_left5_3": 1312, "separable_conv_2_bn_reduction_right3_reduce_12": 512, "activation_92": 0, "separable_conv_2_normal_left5_4": 1312, "separable_conv_2_bn_normal_left5_13": 512, "separable_conv_2_bn_normal_left2_5": 128, "separable_conv_2_normal_right2_14": 17536, "separable_conv_2_reduction_1_reduce_12": 22656, "normal_right4_12": 0, "normal_right4_2": 0, "separable_conv_1_bn_normal_right2_9": 256, "separable_conv_1_normal_right2_13": 17536, "activation_180": 0, "activation_90": 0, "activation_69": 0, "concatenate_1": 0, "normal_add_2_1": 0, "activation_102": 0, "activation_223": 0, "adjust_conv_projection_15": 98304, "separable_conv_1_normal_right1_18": 17536, "separable_conv_1_bn_normal_left5_1": 128, "separable_conv_2_normal_right2_11": 4672, "activation_135": 0, "normal_add_4_18": 0, "normal_add_1_16": 0, "activation_199": 0, "activation_60": 0, "separable_conv_2_bn_normal_left2_7": 256, "adjust_bn_reduce_6": 256, "separable_conv_1_bn_normal_left5_7": 256, "activation_100": 0, "activation_193": 0, "normal_left3_14": 0, "normal_add_2_5": 0, "normal_bn_1_8": 256, "separable_conv_2_bn_normal_right2_16": 512, "normal_add_2_14": 0, "separable_conv_2_normal_right2_8": 4672, "separable_conv_1_normal_left1_12": 5696, "separable_conv_2_normal_right1_3": 1312, "separable_conv_2_normal_right2_2": 1312, "separable_conv_2_bn_normal_left5_2": 128, "activation_181": 0, "separable_conv_1_bn_normal_right1_11": 256, "separable_conv_1_bn_normal_left5_18": 512, "separable_conv_1_bn_normal_left1_1": 128, "activation_185": 0, "separable_conv_1_normal_right2_9": 4672, "normal_right4_13": 0, "separable_conv_1_normal_left5_18": 17536, "separable_conv_1_bn_normal_left5_17": 512, "separable_conv_1_normal_left2_13": 19584, "separable_conv_1_normal_left1_11": 5696, "normal_conv_1_16": 98304, "normal_add_5_11": 0, "separable_conv_2_bn_normal_left1_3": 128, "separable_conv_1_normal_left1_13": 19584, "separable_conv_2_bn_normal_left2_18": 512, "separable_conv_2_bn_normal_left2_1": 128, "normal_add_3_15": 0, "adjust_conv_1_7": 6144, "activation_47": 0, "activation_184": 0, "reduction_left4_reduce_6": 0, "separable_conv_1_bn_normal_left2_13": 512, "activation_143": 0, "activation_212": 0, "activation_133": 0, "activation_41": 0, "separable_conv_1_normal_right2_18": 17536, "separable_conv_1_normal_right2_5": 1312, "normal_add_5_18": 0, "separable_conv_1_bn_normal_left2_0": 128, "separable_conv_1_bn_normal_right1_4": 128, "separable_conv_1_bn_reduction_1_reduce_6": 256, "activation_154": 0, "normal_conv_1_11": 24576, "activation_59": 0, "separable_conv_1_normal_left1_7": 5696, "separable_conv_1_bn_normal_left2_10": 256, "normal_conv_1_17": 98304, "separable_conv_2_bn_normal_left1_12": 256, "activation_96": 0, "activation_224": 0, "activation_228": 0, "normal_add_5_9": 0, "normal_add_1_2": 0, "reduction_add_2_reduce_6": 0, "separable_conv_2_bn_normal_right1_0": 128, "reduction_conv_1_reduce_12": 49152, "separable_conv_1_normal_left5_16": 17536, "separable_conv_1_normal_right2_0": 1312, "normal_add_1_12": 0, "normal_left4_13": 0, "separable_conv_2_bn_normal_left5_0": 128, "separable_conv_1_bn_normal_left2_2": 128}, "config": {"name": "NASNet", "output_layers": [["predictions", 0, 0]], "layers": [{"name": "input_1", "config": {"dtype": "float32", "sparse": false, "name": "input_1", "batch_input_shape": [null, 32, 32, 3]}, "class_name": "InputLayer", "inbound_nodes": []}, {"name": "stem_conv1", "config": {"strides": [1, 1], "bias_regularizer": null, "trainable": true, "activation": "linear", "dilation_rate": [1, 1], "activity_regularizer": null, "padding": "same", "name": "stem_conv1", "use_bias": false, "data_format": "channels_last", "filters": 32, "kernel_initializer": {"config": {"distribution": "normal", "mode": "fan_in", "seed": null, "scale": 2.0}, "class_name": "VarianceScaling"}, "kernel_size": [3, 3], "kernel_regularizer": {"config": {"l1": 0.0, "l2": 0.0005000000237487257}, "class_name": "L1L2"}, "bias_initializer": {"config": {}, "class_name": "Zeros"}, "kernel_constraint": null, "bias_constraint": null}, "class_name": "Conv2D", "inbound_nodes": [[["input_1", 0, 0, {}]]]}, {"name": "stem_bn1", "config": {"epsilon": 1e-05, "gamma_initializer": {"config": {}, "class_name": "Ones"}, "trainable": true, "gamma_constraint": null, "beta_regularizer": null, "beta_constraint": null, "axis": -1, "scale": true, "moving_mean_initializer": {"config": {}, "class_name": "Zeros"}, "name": "stem_bn1", "gamma_regularizer": null, "beta_initializer": {"config": {}, "class_name": "Zeros"}, "moving_variance_initializer": {"config": {}, "class_name": "Ones"}, "center": true, "momentum": 0.9}, "class_name": "BatchNormalization", "inbound_nodes": [[["stem_conv1", 0, 0, {}]]]}, {"name": "activation_1", "config": {"activation": "relu", "name": "activation_1", "trainable": true}, "class_name": "Activation", "inbound_nodes": [[["stem_bn1", 0, 0, {}]]]}, {"name": "normal_conv_1_0", "config": {"strides": [1, 1], "bias_regularizer": null, "trainable": true, "activation": "linear", "dilation_rate": [1, 1], "activity_regularizer": null, "padding": "same", "name": "normal_conv_1_0", "use_bias": false, "data_format": "channels_last", "filters": 32, "kernel_initializer": {"config": {"distribution": "normal", "mode": "fan_in", "seed": null, "scale": 2.0}, "class_name": "VarianceScaling"}, "kernel_size": [1, 1], "kernel_regularizer": {"config": {"l1": 0.0, "l2": 0.0005000000237487257}, "class_name": "L1L2"}, "bias_initializer": {"config": {}, "class_name": "Zeros"}, "kernel_constraint": null, "bias_constraint": null}, "class_name": "Conv2D", "inbound_nodes": [[["activation_1", 0, 0, {}]]]}, {"name": "normal_bn_1_0", "config": {"epsilon": 1e-05, "gamma_initializer": {"config": {}, "class_name": "Ones"}, "trainable": true, "gamma_constraint": null, "beta_regularizer": null, "beta_constraint": null, "axis": -1, "scale": true, "moving_mean_initializer": {"config": {}, "class_name": "Zeros"}, "name": "normal_bn_1_0", "gamma_regularizer": null, "beta_initializer": {"config": {}, "class_name": "Zeros"}, "moving_variance_initializer": {"config": {}, "class_name": "Ones"}, "center": true, "momentum": 0.9}, "class_name": "BatchNormalization", "inbound_nodes": [[["normal_conv_1_0", 0, 0, {}]]]}, {"name": "activation_2", "config": {"activation": "relu", "name": "activation_2", "trainable": true}, "class_name": "Activation", "inbound_nodes": [[["normal_bn_1_0", 0, 0, {}]]]}, {"name": "activation_4", "config": {"activation": "relu", "name": "activation_4", "trainable": true}, "class_name": "Activation", "inbound_nodes": [[["stem_bn1", 0, 0, {}]]]}, {"name": "activation_6", "config": {"activation": "relu", "name": "activation_6", "trainable": true}, "class_name": "Activation", "inbound_nodes": [[["stem_bn1", 0, 0, {}]]]}, {"name": "activation_8", "config": {"activation": "relu", "name": "activation_8", "trainable": true}, "class_name": "Activation", "inbound_nodes": [[["stem_bn1", 0, 0, {}]]]}, {"name": "activation_10", "config": {"activation": "relu", "name": "activation_10", "trainable": true}, "class_name": "Activation", "inbound_nodes": [[["normal_bn_1_0", 0, 0, {}]]]}, {"name": "separable_conv_1_normal_left1_0", "config": {"strides": [1, 1], "depthwise_initializer": {"config": {"distribution": "uniform", "mode": "fan_avg", "seed": null, "scale": 1.0}, "class_name": "VarianceScaling"}, "use_bias": false, "trainable": true, "dilation_rate": [1, 1], "activation": "linear", "padding": "same", "pointwise_initializer": {"config": {"distribution": "uniform", "mode": "fan_avg", "seed": null, "scale": 1.0}, "class_name": "VarianceScaling"}, "pointwise_regularizer": null, "name": "separable_conv_1_normal_left1_0", "bias_regularizer": null, "pointwise_constraint": null, "activity_regularizer": null, "depthwise_constraint": null, "data_format": "channels_last", "filters": 32, "depth_multiplier": 1, "kernel_size": [5, 5], "bias_initializer": {"config": {}, "class_name": "Zeros"}, "depthwise_regularizer": null, "bias_constraint": null}, "class_name": "SeparableConv2D", "inbound_nodes": [[["activation_2", 0, 0, {}]]]}, {"name": "separable_conv_1_normal_right1_0", "config": {"strides": [1, 1], "depthwise_initializer": {"config": {"distribution": "uniform", "mode": "fan_avg", "seed": null, "scale": 1.0}, "class_name": "VarianceScaling"}, "use_bias": false, "trainable": true, "dilation_rate": [1, 1], "activation": "linear", "padding": "same", "pointwise_initializer": {"config": {"distribution": "uniform", "mode": "fan_avg", "seed": null, "scale": 1.0}, "class_name": "VarianceScaling"}, "pointwise_regularizer": null, "name": "separable_conv_1_normal_right1_0", "bias_regularizer": null, "pointwise_constraint": null, "activity_regularizer": null, "depthwise_constraint": null, "data_format": "channels_last", "filters": 32, "depth_multiplier": 1, "kernel_size": [3, 3], "bias_initializer": {"config": {}, "class_name": "Zeros"}, "depthwise_regularizer": null, "bias_constraint": null}, "class_name": "SeparableConv2D", "inbound_nodes": [[["activation_4", 0, 0, {}]]]}, {"name": "separable_conv_1_normal_left2_0", "config": {"strides": [1, 1], "depthwise_initializer": {"config": {"distribution": "uniform", "mode": "fan_avg", "seed": null, "scale": 1.0}, "class_name": "VarianceScaling"}, "use_bias": false, "trainable": true, "dilation_rate": [1, 1], "activation": "linear", "padding": "same", "pointwise_initializer": {"config": {"distribution": "uniform", "mode": "fan_avg", "seed": null, "scale": 1.0}, "class_name": "VarianceScaling"}, "pointwise_regularizer": null, "name": "separable_conv_1_normal_left2_0", "bias_regularizer": null, "pointwise_constraint": null, "activity_regularizer": null, "depthwise_constraint": null, "data_format": "channels_last", "filters": 32, "depth_multiplier": 1, "kernel_size": [5, 5], "bias_initializer": {"config": {}, "class_name": "Zeros"}, "depthwise_regularizer": null, "bias_constraint": null}, "class_name": "SeparableConv2D", "inbound_nodes": [[["activation_6", 0, 0, {}]]]}, {"name": "separable_conv_1_normal_right2_0", "config": {"strides": [1, 1], "depthwise_initializer": {"config": {"distribution": "uniform", "mode": "fan_avg", "seed": null, "scale": 1.0}, "class_name": "VarianceScaling"}, "use_bias": false, "trainable": true, "dilation_rate": [1, 1], "activation": "linear", "padding": "same", "pointwise_initializer": {"config": {"distribution": "uniform", "mode": "fan_avg", "seed": null, "scale": 1.0}, "class_name": "VarianceScaling"}, "pointwise_regularizer": null, "name": "separable_conv_1_normal_right2_0", "bias_regularizer": null, "pointwise_constraint": null, "activity_regularizer": null, "depthwise_constraint": null, "data_format": "channels_last", "filters": 32, "depth_multiplier": 1, "kernel_size": [3, 3], "bias_initializer": {"config": {}, "class_name": "Zeros"}, "depthwise_regularizer": null, "bias_constraint": null}, "class_name": "SeparableConv2D", "inbound_nodes": [[["activation_8", 0, 0, {}]]]}, {"name": "separable_conv_1_normal_left5_0", "config": {"strides": [1, 1], "depthwise_initializer": {"config": {"distribution": "uniform", "mode": "fan_avg", "seed": null, "scale": 1.0}, "class_name": "VarianceScaling"}, "use_bias": false, "trainable": true, "dilation_rate": [1, 1], "activation": "linear", "padding": "same", "pointwise_initializer": {"config": {"distribution": "uniform", "mode": "fan_avg", "seed": null, "scale": 1.0}, "class_name": "VarianceScaling"}, "pointwise_regularizer": null, "name": "separable_conv_1_normal_left5_0", "bias_regularizer": null, "pointwise_constraint": null, "activity_regularizer": null, "depthwise_constraint": null, "data_format": "channels_last", "filters": 32, "depth_multiplier": 1, "kernel_size": [3, 3], "bias_initializer": {"config": {}, "class_name": "Zeros"}, "depthwise_regularizer": null, "bias_constraint": null}, "class_name": "SeparableConv2D", "inbound_nodes": [[["activation_10", 0, 0, {}]]]}, {"name": "separable_conv_1_bn_normal_left1_0", "config": {"epsilon": 1e-05, "gamma_initializer": {"config": {}, "class_name": "Ones"}, "trainable": true, "gamma_constraint": null, "beta_regularizer": null, "beta_constraint": null, "axis": -1, "scale": true, "moving_mean_initializer": {"config": {}, "class_name": "Zeros"}, "name": "separable_conv_1_bn_normal_left1_0", "gamma_regularizer": null, "beta_initializer": {"config": {}, "class_name": "Zeros"}, "moving_variance_initializer": {"config": {}, "class_name": "Ones"}, "center": true, "momentum": 0.9}, "class_name": "BatchNormalization", "inbound_nodes": [[["separable_conv_1_normal_left1_0", 0, 0, {}]]]}, {"name": "separable_conv_1_bn_normal_right1_0", "config": {"epsilon": 1e-05, "gamma_initializer": {"config": {}, "class_name": "Ones"}, "trainable": true, "gamma_constraint": null, "beta_regularizer": null, "beta_constraint": null, "axis": -1, "scale": true, "moving_mean_initializer": {"config": {}, "class_name": "Zeros"}, "name": "separable_conv_1_bn_normal_right1_0", "gamma_regularizer": null, "beta_initializer": {"config": {}, "class_name": "Zeros"}, "moving_variance_initializer": {"config": {}, "class_name": "Ones"}, "center": true, "momentum": 0.9}, "class_name": "BatchNormalization", "inbound_nodes": [[["separable_conv_1_normal_right1_0", 0, 0, {}]]]}, {"name": "separable_conv_1_bn_normal_left2_0", "config": {"epsilon": 1e-05, "gamma_initializer": {"config": {}, "class_name": "Ones"}, "trainable": true, "gamma_constraint": null, "beta_regularizer": null, "beta_constraint": null, "axis": -1, "scale": true, "moving_mean_initializer": {"config": {}, "class_name": "Zeros"}, "name": "separable_conv_1_bn_normal_left2_0", "gamma_regularizer": null, "beta_initializer": {"config": {}, "class_name": "Zeros"}, "moving_variance_initializer": {"config": {}, "class_name": "Ones"}, "center": true, "momentum": 0.9}, "class_name": "BatchNormalization", "inbound_nodes": [[["separable_conv_1_normal_left2_0", 0, 0, {}]]]}, {"name": "separable_conv_1_bn_normal_right2_0", "config": {"epsilon": 1e-05, "gamma_initializer": {"config": {}, "class_name": "Ones"}, "trainable": true, "gamma_constraint": null, "beta_regularizer": null, "beta_constraint": null, "axis": -1, "scale": true, "moving_mean_initializer": {"config": {}, "class_name": "Zeros"}, "name": "separable_conv_1_bn_normal_right2_0", "gamma_regularizer": null, "beta_initializer": {"config": {}, "class_name": "Zeros"}, "moving_variance_initializer": {"config": {}, "class_name": "Ones"}, "center": true, "momentum": 0.9}, "class_name": "BatchNormalization", "inbound_nodes": [[["separable_conv_1_normal_right2_0", 0, 0, {}]]]}, {"name": "separable_conv_1_bn_normal_left5_0", "config": {"epsilon": 1e-05, "gamma_initializer": {"config": {}, "class_name": "Ones"}, "trainable": true, "gamma_constraint": null, "beta_regularizer": null, "beta_constraint": null, "axis": -1, "scale": true, "moving_mean_initializer": {"config": {}, "class_name": "Zeros"}, "name": "separable_conv_1_bn_normal_left5_0", "gamma_regularizer": null, "beta_initializer": {"config": {}, "class_name": "Zeros"}, "moving_variance_initializer": {"config": {}, "class_name": "Ones"}, "center": true, "momentum": 0.9}, "class_name": "BatchNormalization", "inbound_nodes": [[["separable_conv_1_normal_left5_0", 0, 0, {}]]]}, {"name": "activation_3", "config": {"activation": "relu", "name": "activation_3", "trainable": true}, "class_name": "Activation", "inbound_nodes": [[["separable_conv_1_bn_normal_left1_0", 0, 0, {}]]]}, {"name": "activation_5", "config": {"activation": "relu", "name": "activation_5", "trainable": true}, "class_name": "Activation", "inbound_nodes": [[["separable_conv_1_bn_normal_right1_0", 0, 0, {}]]]}, {"name": "activation_7", "config": {"activation": "relu", "name": "activation_7", "trainable": true}, "class_name": "Activation", "inbound_nodes": [[["separable_conv_1_bn_normal_left2_0", 0, 0, {}]]]}, {"name": "activation_9", "config": {"activation": "relu", "name": "activation_9", "trainable": true}, "class_name": "Activation", "inbound_nodes": [[["separable_conv_1_bn_normal_right2_0", 0, 0, {}]]]}, {"name": "activation_11", "config": {"activation": "relu", "name": "activation_11", "trainable": true}, "class_name": "Activation", "inbound_nodes": [[["separable_conv_1_bn_normal_left5_0", 0, 0, {}]]]}, {"name": "separable_conv_2_normal_left1_0", "config": {"strides": [1, 1], "depthwise_initializer": {"config": {"distribution": "uniform", "mode": "fan_avg", "seed": null, "scale": 1.0}, "class_name": "VarianceScaling"}, "use_bias": false, "trainable": true, "dilation_rate": [1, 1], "activation": "linear", "padding": "same", "pointwise_initializer": {"config": {"distribution": "uniform", "mode": "fan_avg", "seed": null, "scale": 1.0}, "class_name": "VarianceScaling"}, "pointwise_regularizer": null, "name": "separable_conv_2_normal_left1_0", "bias_regularizer": null, "pointwise_constraint": null, "activity_regularizer": null, "depthwise_constraint": null, "data_format": "channels_last", "filters": 32, "depth_multiplier": 1, "kernel_size": [5, 5], "bias_initializer": {"config": {}, "class_name": "Zeros"}, "depthwise_regularizer": null, "bias_constraint": null}, "class_name": "SeparableConv2D", "inbound_nodes": [[["activation_3", 0, 0, {}]]]}, {"name": "separable_conv_2_normal_right1_0", "config": {"strides": [1, 1], "depthwise_initializer": {"config": {"distribution": "uniform", "mode": "fan_avg", "seed": null, "scale": 1.0}, "class_name": "VarianceScaling"}, "use_bias": false, "trainable": true, "dilation_rate": [1, 1], "activation": "linear", "padding": "same", "pointwise_initializer": {"config": {"distribution": "uniform", "mode": "fan_avg", "seed": null, "scale": 1.0}, "class_name": "VarianceScaling"}, "pointwise_regularizer": null, "name": "separable_conv_2_normal_right1_0", "bias_regularizer": null, "pointwise_constraint": null, "activity_regularizer": null, "depthwise_constraint": null, "data_format": "channels_last", "filters": 32, "depth_multiplier": 1, "kernel_size": [3, 3], "bias_initializer": {"config": {}, "class_name": "Zeros"}, "depthwise_regularizer": null, "bias_constraint": null}, "class_name": "SeparableConv2D", "inbound_nodes": [[["activation_5", 0, 0, {}]]]}, {"name": "separable_conv_2_normal_left2_0", "config": {"strides": [1, 1], "depthwise_initializer": {"config": {"distribution": "uniform", "mode": "fan_avg", "seed": null, "scale": 1.0}, "class_name": "VarianceScaling"}, "use_bias": false, "trainable": true, "dilation_rate": [1, 1], "activation": "linear", "padding": "same", "pointwise_initializer": {"config": {"distribution": "uniform", "mode": "fan_avg", "seed": null, "scale": 1.0}, "class_name": "VarianceScaling"}, "pointwise_regularizer": null, "name": "separable_conv_2_normal_left2_0", "bias_regularizer": null, "pointwise_constraint": null, "activity_regularizer": null, "depthwise_constraint": null, "data_format": "channels_last", "filters": 32, "depth_multiplier": 1, "kernel_size": [5, 5], "bias_initializer": {"config": {}, "class_name": "Zeros"}, "depthwise_regularizer": null, "bias_constraint": null}, "class_name": "SeparableConv2D", "inbound_nodes": [[["activation_7", 0, 0, {}]]]}, {"name": "separable_conv_2_normal_right2_0", "config": {"strides": [1, 1], "depthwise_initializer": {"config": {"distribution": "uniform", "mode": "fan_avg", "seed": null, "scale": 1.0}, "class_name": "VarianceScaling"}, "use_bias": false, "trainable": true, "dilation_rate": [1, 1], "activation": "linear", "padding": "same", "pointwise_initializer": {"config": {"distribution": "uniform", "mode": "fan_avg", "seed": null, "scale": 1.0}, "class_name": "VarianceScaling"}, "pointwise_regularizer": null, "name": "separable_conv_2_normal_right2_0", "bias_regularizer": null, "pointwise_constraint": null, "activity_regularizer": null, "depthwise_constraint": null, "data_format": "channels_last", "filters": 32, "depth_multiplier": 1, "kernel_size": [3, 3], "bias_initializer": {"config": {}, "class_name": "Zeros"}, "depthwise_regularizer": null, "bias_constraint": null}, "class_name": "SeparableConv2D", "inbound_nodes": [[["activation_9", 0, 0, {}]]]}, {"name": "separable_conv_2_normal_left5_0", "config": {"strides": [1, 1], "depthwise_initializer": {"config": {"distribution": "uniform", "mode": "fan_avg", "seed": null, "scale": 1.0}, "class_name": "VarianceScaling"}, "use_bias": false, "trainable": true, "dilation_rate": [1, 1], "activation": "linear", "padding": "same", "pointwise_initializer": {"config": {"distribution": "uniform", "mode": "fan_avg", "seed": null, "scale": 1.0}, "class_name": "VarianceScaling"}, "pointwise_regularizer": null, "name": "separable_conv_2_normal_left5_0", "bias_regularizer": null, "pointwise_constraint": null, "activity_regularizer": null, "depthwise_constraint": null, "data_format": "channels_last", "filters": 32, "depth_multiplier": 1, "kernel_size": [3, 3], "bias_initializer": {"config": {}, "class_name": "Zeros"}, "depthwise_regularizer": null, "bias_constraint": null}, "class_name": "SeparableConv2D", "inbound_nodes": [[["activation_11", 0, 0, {}]]]}, {"name": "separable_conv_2_bn_normal_left1_0", "config": {"epsilon": 1e-05, "gamma_initializer": {"config": {}, "class_name": "Ones"}, "trainable": true, "gamma_constraint": null, "beta_regularizer": null, "beta_constraint": null, "axis": -1, "scale": true, "moving_mean_initializer": {"config": {}, "class_name": "Zeros"}, "name": "separable_conv_2_bn_normal_left1_0", "gamma_regularizer": null, "beta_initializer": {"config": {}, "class_name": "Zeros"}, "moving_variance_initializer": {"config": {}, "class_name": "Ones"}, "center": true, "momentum": 0.9}, "class_name": "BatchNormalization", "inbound_nodes": [[["separable_conv_2_normal_left1_0", 0, 0, {}]]]}, {"name": "separable_conv_2_bn_normal_right1_0", "config": {"epsilon": 1e-05, "gamma_initializer": {"config": {}, "class_name": "Ones"}, "trainable": true, "gamma_constraint": null, "beta_regularizer": null, "beta_constraint": null, "axis": -1, "scale": true, "moving_mean_initializer": {"config": {}, "class_name": "Zeros"}, "name": "separable_conv_2_bn_normal_right1_0", "gamma_regularizer": null, "beta_initializer": {"config": {}, "class_name": "Zeros"}, "moving_variance_initializer": {"config": {}, "class_name": "Ones"}, "center": true, "momentum": 0.9}, "class_name": "BatchNormalization", "inbound_nodes": [[["separable_conv_2_normal_right1_0", 0, 0, {}]]]}, {"name": "separable_conv_2_bn_normal_left2_0", "config": {"epsilon": 1e-05, "gamma_initializer": {"config": {}, "class_name": "Ones"}, "trainable": true, "gamma_constraint": null, "beta_regularizer": null, "beta_constraint": null, "axis": -1, "scale": true, "moving_mean_initializer": {"config": {}, "class_name": "Zeros"}, "name": "separable_conv_2_bn_normal_left2_0", "gamma_regularizer": null, "beta_initializer": {"config": {}, "class_name": "Zeros"}, "moving_variance_initializer": {"config": {}, "class_name": "Ones"}, "center": true, "momentum": 0.9}, "class_name": "BatchNormalization", "inbound_nodes": [[["separable_conv_2_normal_left2_0", 0, 0, {}]]]}, {"name": "separable_conv_2_bn_normal_right2_0", "config": {"epsilon": 1e-05, "gamma_initializer": {"config": {}, "class_name": "Ones"}, "trainable": true, "gamma_constraint": null, "beta_regularizer": null, "beta_constraint": null, "axis": -1, "scale": true, "moving_mean_initializer": {"config": {}, "class_name": "Zeros"}, "name": "separable_conv_2_bn_normal_right2_0", "gamma_regularizer": null, "beta_initializer": {"config": {}, "class_name": "Zeros"}, "moving_variance_initializer": {"config": {}, "class_name": "Ones"}, "center": true, "momentum": 0.9}, "class_name": "BatchNormalization", "inbound_nodes": [[["separable_conv_2_normal_right2_0", 0, 0, {}]]]}, {"name": "normal_left3_0", "config": {"strides": [1, 1], "name": "normal_left3_0", "trainable": true, "data_format": "channels_last", "pool_size": [3, 3], "padding": "same"}, "class_name": "AveragePooling2D", "inbound_nodes": [[["normal_bn_1_0", 0, 0, {}]]]}, {"name": "normal_left4_0", "config": {"strides": [1, 1], "name": "normal_left4_0", "trainable": true, "data_format": "channels_last", "pool_size": [3, 3], "padding": "same"}, "class_name": "AveragePooling2D", "inbound_nodes": [[["stem_bn1", 0, 0, {}]]]}, {"name": "normal_right4_0", "config": {"strides": [1, 1], "name": "normal_right4_0", "trainable": true, "data_format": "channels_last", "pool_size": [3, 3], "padding": "same"}, "class_name": "AveragePooling2D", "inbound_nodes": [[["stem_bn1", 0, 0, {}]]]}, {"name": "separable_conv_2_bn_normal_left5_0", "config": {"epsilon": 1e-05, "gamma_initializer": {"config": {}, "class_name": "Ones"}, "trainable": true, "gamma_constraint": null, "beta_regularizer": null, "beta_constraint": null, "axis": -1, "scale": true, "moving_mean_initializer": {"config": {}, "class_name": "Zeros"}, "name": "separable_conv_2_bn_normal_left5_0", "gamma_regularizer": null, "beta_initializer": {"config": {}, "class_name": "Zeros"}, "moving_variance_initializer": {"config": {}, "class_name": "Ones"}, "center": true, "momentum": 0.9}, "class_name": "BatchNormalization", "inbound_nodes": [[["separable_conv_2_normal_left5_0", 0, 0, {}]]]}, {"name": "normal_add_1_0", "config": {"name": "normal_add_1_0", "trainable": true}, "class_name": "Add", "inbound_nodes": [[["separable_conv_2_bn_normal_left1_0", 0, 0, {}], ["separable_conv_2_bn_normal_right1_0", 0, 0, {}]]]}, {"name": "normal_add_2_0", "config": {"name": "normal_add_2_0", "trainable": true}, "class_name": "Add", "inbound_nodes": [[["separable_conv_2_bn_normal_left2_0", 0, 0, {}], ["separable_conv_2_bn_normal_right2_0", 0, 0, {}]]]}, {"name": "normal_add_3_0", "config": {"name": "normal_add_3_0", "trainable": true}, "class_name": "Add", "inbound_nodes": [[["normal_left3_0", 0, 0, {}], ["stem_bn1", 0, 0, {}]]]}, {"name": "normal_add_4_0", "config": {"name": "normal_add_4_0", "trainable": true}, "class_name": "Add", "inbound_nodes": [[["normal_left4_0", 0, 0, {}], ["normal_right4_0", 0, 0, {}]]]}, {"name": "normal_add_5_0", "config": {"name": "normal_add_5_0", "trainable": true}, "class_name": "Add", "inbound_nodes": [[["separable_conv_2_bn_normal_left5_0", 0, 0, {}], ["normal_bn_1_0", 0, 0, {}]]]}, {"name": "normal_concat_0", "config": {"name": "normal_concat_0", "axis": -1, "trainable": true}, "class_name": "Concatenate", "inbound_nodes": [[["stem_bn1", 0, 0, {}], ["normal_add_1_0", 0, 0, {}], ["normal_add_2_0", 0, 0, {}], ["normal_add_3_0", 0, 0, {}], ["normal_add_4_0", 0, 0, {}], ["normal_add_5_0", 0, 0, {}]]]}, {"name": "activation_12", "config": {"activation": "relu", "name": "activation_12", "trainable": true}, "class_name": "Activation", "inbound_nodes": [[["normal_concat_0", 0, 0, {}]]]}, {"name": "normal_conv_1_1", "config": {"strides": [1, 1], "bias_regularizer": null, "trainable": true, "activation": "linear", "dilation_rate": [1, 1], "activity_regularizer": null, "padding": "same", "name": "normal_conv_1_1", "use_bias": false, "data_format": "channels_last", "filters": 32, "kernel_initializer": {"config": {"distribution": "normal", "mode": "fan_in", "seed": null, "scale": 2.0}, "class_name": "VarianceScaling"}, "kernel_size": [1, 1], "kernel_regularizer": {"config": {"l1": 0.0, "l2": 0.0005000000237487257}, "class_name": "L1L2"}, "bias_initializer": {"config": {}, "class_name": "Zeros"}, "kernel_constraint": null, "bias_constraint": null}, "class_name": "Conv2D", "inbound_nodes": [[["activation_12", 0, 0, {}]]]}, {"name": "normal_bn_1_1", "config": {"epsilon": 1e-05, "gamma_initializer": {"config": {}, "class_name": "Ones"}, "trainable": true, "gamma_constraint": null, "beta_regularizer": null, "beta_constraint": null, "axis": -1, "scale": true, "moving_mean_initializer": {"config": {}, "class_name": "Zeros"}, "name": "normal_bn_1_1", "gamma_regularizer": null, "beta_initializer": {"config": {}, "class_name": "Zeros"}, "moving_variance_initializer": {"config": {}, "class_name": "Ones"}, "center": true, "momentum": 0.9}, "class_name": "BatchNormalization", "inbound_nodes": [[["normal_conv_1_1", 0, 0, {}]]]}, {"name": "activation_13", "config": {"activation": "relu", "name": "activation_13", "trainable": true}, "class_name": "Activation", "inbound_nodes": [[["normal_bn_1_1", 0, 0, {}]]]}, {"name": "activation_15", "config": {"activation": "relu", "name": "activation_15", "trainable": true}, "class_name": "Activation", "inbound_nodes": [[["stem_bn1", 0, 0, {}]]]}, {"name": "activation_17", "config": {"activation": "relu", "name": "activation_17", "trainable": true}, "class_name": "Activation", "inbound_nodes": [[["stem_bn1", 0, 0, {}]]]}, {"name": "activation_19", "config": {"activation": "relu", "name": "activation_19", "trainable": true}, "class_name": "Activation", "inbound_nodes": [[["stem_bn1", 0, 0, {}]]]}, {"name": "activation_21", "config": {"activation": "relu", "name": "activation_21", "trainable": true}, "class_name": "Activation", "inbound_nodes": [[["normal_bn_1_1", 0, 0, {}]]]}, {"name": "separable_conv_1_normal_left1_1", "config": {"strides": [1, 1], "depthwise_initializer": {"config": {"distribution": "uniform", "mode": "fan_avg", "seed": null, "scale": 1.0}, "class_name": "VarianceScaling"}, "use_bias": false, "trainable": true, "dilation_rate": [1, 1], "activation": "linear", "padding": "same", "pointwise_initializer": {"config": {"distribution": "uniform", "mode": "fan_avg", "seed": null, "scale": 1.0}, "class_name": "VarianceScaling"}, "pointwise_regularizer": null, "name": "separable_conv_1_normal_left1_1", "bias_regularizer": null, "pointwise_constraint": null, "activity_regularizer": null, "depthwise_constraint": null, "data_format": "channels_last", "filters": 32, "depth_multiplier": 1, "kernel_size": [5, 5], "bias_initializer": {"config": {}, "class_name": "Zeros"}, "depthwise_regularizer": null, "bias_constraint": null}, "class_name": "SeparableConv2D", "inbound_nodes": [[["activation_13", 0, 0, {}]]]}, {"name": "separable_conv_1_normal_right1_1", "config": {"strides": [1, 1], "depthwise_initializer": {"config": {"distribution": "uniform", "mode": "fan_avg", "seed": null, "scale": 1.0}, "class_name": "VarianceScaling"}, "use_bias": false, "trainable": true, "dilation_rate": [1, 1], "activation": "linear", "padding": "same", "pointwise_initializer": {"config": {"distribution": "uniform", "mode": "fan_avg", "seed": null, "scale": 1.0}, "class_name": "VarianceScaling"}, "pointwise_regularizer": null, "name": "separable_conv_1_normal_right1_1", "bias_regularizer": null, "pointwise_constraint": null, "activity_regularizer": null, "depthwise_constraint": null, "data_format": "channels_last", "filters": 32, "depth_multiplier": 1, "kernel_size": [3, 3], "bias_initializer": {"config": {}, "class_name": "Zeros"}, "depthwise_regularizer": null, "bias_constraint": null}, "class_name": "SeparableConv2D", "inbound_nodes": [[["activation_15", 0, 0, {}]]]}, {"name": "separable_conv_1_normal_left2_1", "config": {"strides": [1, 1], "depthwise_initializer": {"config": {"distribution": "uniform", "mode": "fan_avg", "seed": null, "scale": 1.0}, "class_name": "VarianceScaling"}, "use_bias": false, "trainable": true, "dilation_rate": [1, 1], "activation": "linear", "padding": "same", "pointwise_initializer": {"config": {"distribution": "uniform", "mode": "fan_avg", "seed": null, "scale": 1.0}, "class_name": "VarianceScaling"}, "pointwise_regularizer": null, "name": "separable_conv_1_normal_left2_1", "bias_regularizer": null, "pointwise_constraint": null, "activity_regularizer": null, "depthwise_constraint": null, "data_format": "channels_last", "filters": 32, "depth_multiplier": 1, "kernel_size": [5, 5], "bias_initializer": {"config": {}, "class_name": "Zeros"}, "depthwise_regularizer": null, "bias_constraint": null}, "class_name": "SeparableConv2D", "inbound_nodes": [[["activation_17", 0, 0, {}]]]}, {"name": "separable_conv_1_normal_right2_1", "config": {"strides": [1, 1], "depthwise_initializer": {"config": {"distribution": "uniform", "mode": "fan_avg", "seed": null, "scale": 1.0}, "class_name": "VarianceScaling"}, "use_bias": false, "trainable": true, "dilation_rate": [1, 1], "activation": "linear", "padding": "same", "pointwise_initializer": {"config": {"distribution": "uniform", "mode": "fan_avg", "seed": null, "scale": 1.0}, "class_name": "VarianceScaling"}, "pointwise_regularizer": null, "name": "separable_conv_1_normal_right2_1", "bias_regularizer": null, "pointwise_constraint": null, "activity_regularizer": null, "depthwise_constraint": null, "data_format": "channels_last", "filters": 32, "depth_multiplier": 1, "kernel_size": [3, 3], "bias_initializer": {"config": {}, "class_name": "Zeros"}, "depthwise_regularizer": null, "bias_constraint": null}, "class_name": "SeparableConv2D", "inbound_nodes": [[["activation_19", 0, 0, {}]]]}, {"name": "separable_conv_1_normal_left5_1", "config": {"strides": [1, 1], "depthwise_initializer": {"config": {"distribution": "uniform", "mode": "fan_avg", "seed": null, "scale": 1.0}, "class_name": "VarianceScaling"}, "use_bias": false, "trainable": true, "dilation_rate": [1, 1], "activation": "linear", "padding": "same", "pointwise_initializer": {"config": {"distribution": "uniform", "mode": "fan_avg", "seed": null, "scale": 1.0}, "class_name": "VarianceScaling"}, "pointwise_regularizer": null, "name": "separable_conv_1_normal_left5_1", "bias_regularizer": null, "pointwise_constraint": null, "activity_regularizer": null, "depthwise_constraint": null, "data_format": "channels_last", "filters": 32, "depth_multiplier": 1, "kernel_size": [3, 3], "bias_initializer": {"config": {}, "class_name": "Zeros"}, "depthwise_regularizer": null, "bias_constraint": null}, "class_name": "SeparableConv2D", "inbound_nodes": [[["activation_21", 0, 0, {}]]]}, {"name": "separable_conv_1_bn_normal_left1_1", "config": {"epsilon": 1e-05, "gamma_initializer": {"config": {}, "class_name": "Ones"}, "trainable": true, "gamma_constraint": null, "beta_regularizer": null, "beta_constraint": null, "axis": -1, "scale": true, "moving_mean_initializer": {"config": {}, "class_name": "Zeros"}, "name": "separable_conv_1_bn_normal_left1_1", "gamma_regularizer": null, "beta_initializer": {"config": {}, "class_name": "Zeros"}, "moving_variance_initializer": {"config": {}, "class_name": "Ones"}, "center": true, "momentum": 0.9}, "class_name": "BatchNormalization", "inbound_nodes": [[["separable_conv_1_normal_left1_1", 0, 0, {}]]]}, {"name": "separable_conv_1_bn_normal_right1_1", "config": {"epsilon": 1e-05, "gamma_initializer": {"config": {}, "class_name": "Ones"}, "trainable": true, "gamma_constraint": null, "beta_regularizer": null, "beta_constraint": null, "axis": -1, "scale": true, "moving_mean_initializer": {"config": {}, "class_name": "Zeros"}, "name": "separable_conv_1_bn_normal_right1_1", "gamma_regularizer": null, "beta_initializer": {"config": {}, "class_name": "Zeros"}, "moving_variance_initializer": {"config": {}, "class_name": "Ones"}, "center": true, "momentum": 0.9}, "class_name": "BatchNormalization", "inbound_nodes": [[["separable_conv_1_normal_right1_1", 0, 0, {}]]]}, {"name": "separable_conv_1_bn_normal_left2_1", "config": {"epsilon": 1e-05, "gamma_initializer": {"config": {}, "class_name": "Ones"}, "trainable": true, "gamma_constraint": null, "beta_regularizer": null, "beta_constraint": null, "axis": -1, "scale": true, "moving_mean_initializer": {"config": {}, "class_name": "Zeros"}, "name": "separable_conv_1_bn_normal_left2_1", "gamma_regularizer": null, "beta_initializer": {"config": {}, "class_name": "Zeros"}, "moving_variance_initializer": {"config": {}, "class_name": "Ones"}, "center": true, "momentum": 0.9}, "class_name": "BatchNormalization", "inbound_nodes": [[["separable_conv_1_normal_left2_1", 0, 0, {}]]]}, {"name": "separable_conv_1_bn_normal_right2_1", "config": {"epsilon": 1e-05, "gamma_initializer": {"config": {}, "class_name": "Ones"}, "trainable": true, "gamma_constraint": null, "beta_regularizer": null, "beta_constraint": null, "axis": -1, "scale": true, "moving_mean_initializer": {"config": {}, "class_name": "Zeros"}, "name": "separable_conv_1_bn_normal_right2_1", "gamma_regularizer": null, "beta_initializer": {"config": {}, "class_name": "Zeros"}, "moving_variance_initializer": {"config": {}, "class_name": "Ones"}, "center": true, "momentum": 0.9}, "class_name": "BatchNormalization", "inbound_nodes": [[["separable_conv_1_normal_right2_1", 0, 0, {}]]]}, {"name": "separable_conv_1_bn_normal_left5_1", "config": {"epsilon": 1e-05, "gamma_initializer": {"config": {}, "class_name": "Ones"}, "trainable": true, "gamma_constraint": null, "beta_regularizer": null, "beta_constraint": null, "axis": -1, "scale": true, "moving_mean_initializer": {"config": {}, "class_name": "Zeros"}, "name": "separable_conv_1_bn_normal_left5_1", "gamma_regularizer": null, "beta_initializer": {"config": {}, "class_name": "Zeros"}, "moving_variance_initializer": {"config": {}, "class_name": "Ones"}, "center": true, "momentum": 0.9}, "class_name": "BatchNormalization", "inbound_nodes": [[["separable_conv_1_normal_left5_1", 0, 0, {}]]]}, {"name": "activation_14", "config": {"activation": "relu", "name": "activation_14", "trainable": true}, "class_name": "Activation", "inbound_nodes": [[["separable_conv_1_bn_normal_left1_1", 0, 0, {}]]]}, {"name": "activation_16", "config": {"activation": "relu", "name": "activation_16", "trainable": true}, "class_name": "Activation", "inbound_nodes": [[["separable_conv_1_bn_normal_right1_1", 0, 0, {}]]]}, {"name": "activation_18", "config": {"activation": "relu", "name": "activation_18", "trainable": true}, "class_name": "Activation", "inbound_nodes": [[["separable_conv_1_bn_normal_left2_1", 0, 0, {}]]]}, {"name": "activation_20", "config": {"activation": "relu", "name": "activation_20", "trainable": true}, "class_name": "Activation", "inbound_nodes": [[["separable_conv_1_bn_normal_right2_1", 0, 0, {}]]]}, {"name": "activation_22", "config": {"activation": "relu", "name": "activation_22", "trainable": true}, "class_name": "Activation", "inbound_nodes": [[["separable_conv_1_bn_normal_left5_1", 0, 0, {}]]]}, {"name": "separable_conv_2_normal_left1_1", "config": {"strides": [1, 1], "depthwise_initializer": {"config": {"distribution": "uniform", "mode": "fan_avg", "seed": null, "scale": 1.0}, "class_name": "VarianceScaling"}, "use_bias": false, "trainable": true, "dilation_rate": [1, 1], "activation": "linear", "padding": "same", "pointwise_initializer": {"config": {"distribution": "uniform", "mode": "fan_avg", "seed": null, "scale": 1.0}, "class_name": "VarianceScaling"}, "pointwise_regularizer": null, "name": "separable_conv_2_normal_left1_1", "bias_regularizer": null, "pointwise_constraint": null, "activity_regularizer": null, "depthwise_constraint": null, "data_format": "channels_last", "filters": 32, "depth_multiplier": 1, "kernel_size": [5, 5], "bias_initializer": {"config": {}, "class_name": "Zeros"}, "depthwise_regularizer": null, "bias_constraint": null}, "class_name": "SeparableConv2D", "inbound_nodes": [[["activation_14", 0, 0, {}]]]}, {"name": "separable_conv_2_normal_right1_1", "config": {"strides": [1, 1], "depthwise_initializer": {"config": {"distribution": "uniform", "mode": "fan_avg", "seed": null, "scale": 1.0}, "class_name": "VarianceScaling"}, "use_bias": false, "trainable": true, "dilation_rate": [1, 1], "activation": "linear", "padding": "same", "pointwise_initializer": {"config": {"distribution": "uniform", "mode": "fan_avg", "seed": null, "scale": 1.0}, "class_name": "VarianceScaling"}, "pointwise_regularizer": null, "name": "separable_conv_2_normal_right1_1", "bias_regularizer": null, "pointwise_constraint": null, "activity_regularizer": null, "depthwise_constraint": null, "data_format": "channels_last", "filters": 32, "depth_multiplier": 1, "kernel_size": [3, 3], "bias_initializer": {"config": {}, "class_name": "Zeros"}, "depthwise_regularizer": null, "bias_constraint": null}, "class_name": "SeparableConv2D", "inbound_nodes": [[["activation_16", 0, 0, {}]]]}, {"name": "separable_conv_2_normal_left2_1", "config": {"strides": [1, 1], "depthwise_initializer": {"config": {"distribution": "uniform", "mode": "fan_avg", "seed": null, "scale": 1.0}, "class_name": "VarianceScaling"}, "use_bias": false, "trainable": true, "dilation_rate": [1, 1], "activation": "linear", "padding": "same", "pointwise_initializer": {"config": {"distribution": "uniform", "mode": "fan_avg", "seed": null, "scale": 1.0}, "class_name": "VarianceScaling"}, "pointwise_regularizer": null, "name": "separable_conv_2_normal_left2_1", "bias_regularizer": null, "pointwise_constraint": null, "activity_regularizer": null, "depthwise_constraint": null, "data_format": "channels_last", "filters": 32, "depth_multiplier": 1, "kernel_size": [5, 5], "bias_initializer": {"config": {}, "class_name": "Zeros"}, "depthwise_regularizer": null, "bias_constraint": null}, "class_name": "SeparableConv2D", "inbound_nodes": [[["activation_18", 0, 0, {}]]]}, {"name": "separable_conv_2_normal_right2_1", "config": {"strides": [1, 1], "depthwise_initializer": {"config": {"distribution": "uniform", "mode": "fan_avg", "seed": null, "scale": 1.0}, "class_name": "VarianceScaling"}, "use_bias": false, "trainable": true, "dilation_rate": [1, 1], "activation": "linear", "padding": "same", "pointwise_initializer": {"config": {"distribution": "uniform", "mode": "fan_avg", "seed": null, "scale": 1.0}, "class_name": "VarianceScaling"}, "pointwise_regularizer": null, "name": "separable_conv_2_normal_right2_1", "bias_regularizer": null, "pointwise_constraint": null, "activity_regularizer": null, "depthwise_constraint": null, "data_format": "channels_last", "filters": 32, "depth_multiplier": 1, "kernel_size": [3, 3], "bias_initializer": {"config": {}, "class_name": "Zeros"}, "depthwise_regularizer": null, "bias_constraint": null}, "class_name": "SeparableConv2D", "inbound_nodes": [[["activation_20", 0, 0, {}]]]}, {"name": "separable_conv_2_normal_left5_1", "config": {"strides": [1, 1], "depthwise_initializer": {"config": {"distribution": "uniform", "mode": "fan_avg", "seed": null, "scale": 1.0}, "class_name": "VarianceScaling"}, "use_bias": false, "trainable": true, "dilation_rate": [1, 1], "activation": "linear", "padding": "same", "pointwise_initializer": {"config": {"distribution": "uniform", "mode": "fan_avg", "seed": null, "scale": 1.0}, "class_name": "VarianceScaling"}, "pointwise_regularizer": null, "name": "separable_conv_2_normal_left5_1", "bias_regularizer": null, "pointwise_constraint": null, "activity_regularizer": null, "depthwise_constraint": null, "data_format": "channels_last", "filters": 32, "depth_multiplier": 1, "kernel_size": [3, 3], "bias_initializer": {"config": {}, "class_name": "Zeros"}, "depthwise_regularizer": null, "bias_constraint": null}, "class_name": "SeparableConv2D", "inbound_nodes": [[["activation_22", 0, 0, {}]]]}, {"name": "separable_conv_2_bn_normal_left1_1", "config": {"epsilon": 1e-05, "gamma_initializer": {"config": {}, "class_name": "Ones"}, "trainable": true, "gamma_constraint": null, "beta_regularizer": null, "beta_constraint": null, "axis": -1, "scale": true, "moving_mean_initializer": {"config": {}, "class_name": "Zeros"}, "name": "separable_conv_2_bn_normal_left1_1", "gamma_regularizer": null, "beta_initializer": {"config": {}, "class_name": "Zeros"}, "moving_variance_initializer": {"config": {}, "class_name": "Ones"}, "center": true, "momentum": 0.9}, "class_name": "BatchNormalization", "inbound_nodes": [[["separable_conv_2_normal_left1_1", 0, 0, {}]]]}, {"name": "separable_conv_2_bn_normal_right1_1", "config": {"epsilon": 1e-05, "gamma_initializer": {"config": {}, "class_name": "Ones"}, "trainable": true, "gamma_constraint": null, "beta_regularizer": null, "beta_constraint": null, "axis": -1, "scale": true, "moving_mean_initializer": {"config": {}, "class_name": "Zeros"}, "name": "separable_conv_2_bn_normal_right1_1", "gamma_regularizer": null, "beta_initializer": {"config": {}, "class_name": "Zeros"}, "moving_variance_initializer": {"config": {}, "class_name": "Ones"}, "center": true, "momentum": 0.9}, "class_name": "BatchNormalization", "inbound_nodes": [[["separable_conv_2_normal_right1_1", 0, 0, {}]]]}, {"name": "separable_conv_2_bn_normal_left2_1", "config": {"epsilon": 1e-05, "gamma_initializer": {"config": {}, "class_name": "Ones"}, "trainable": true, "gamma_constraint": null, "beta_regularizer": null, "beta_constraint": null, "axis": -1, "scale": true, "moving_mean_initializer": {"config": {}, "class_name": "Zeros"}, "name": "separable_conv_2_bn_normal_left2_1", "gamma_regularizer": null, "beta_initializer": {"config": {}, "class_name": "Zeros"}, "moving_variance_initializer": {"config": {}, "class_name": "Ones"}, "center": true, "momentum": 0.9}, "class_name": "BatchNormalization", "inbound_nodes": [[["separable_conv_2_normal_left2_1", 0, 0, {}]]]}, {"name": "separable_conv_2_bn_normal_right2_1", "config": {"epsilon": 1e-05, "gamma_initializer": {"config": {}, "class_name": "Ones"}, "trainable": true, "gamma_constraint": null, "beta_regularizer": null, "beta_constraint": null, "axis": -1, "scale": true, "moving_mean_initializer": {"config": {}, "class_name": "Zeros"}, "name": "separable_conv_2_bn_normal_right2_1", "gamma_regularizer": null, "beta_initializer": {"config": {}, "class_name": "Zeros"}, "moving_variance_initializer": {"config": {}, "class_name": "Ones"}, "center": true, "momentum": 0.9}, "class_name": "BatchNormalization", "inbound_nodes": [[["separable_conv_2_normal_right2_1", 0, 0, {}]]]}, {"name": "normal_left3_1", "config": {"strides": [1, 1], "name": "normal_left3_1", "trainable": true, "data_format": "channels_last", "pool_size": [3, 3], "padding": "same"}, "class_name": "AveragePooling2D", "inbound_nodes": [[["normal_bn_1_1", 0, 0, {}]]]}, {"name": "normal_left4_1", "config": {"strides": [1, 1], "name": "normal_left4_1", "trainable": true, "data_format": "channels_last", "pool_size": [3, 3], "padding": "same"}, "class_name": "AveragePooling2D", "inbound_nodes": [[["stem_bn1", 0, 0, {}]]]}, {"name": "normal_right4_1", "config": {"strides": [1, 1], "name": "normal_right4_1", "trainable": true, "data_format": "channels_last", "pool_size": [3, 3], "padding": "same"}, "class_name": "AveragePooling2D", "inbound_nodes": [[["stem_bn1", 0, 0, {}]]]}, {"name": "separable_conv_2_bn_normal_left5_1", "config": {"epsilon": 1e-05, "gamma_initializer": {"config": {}, "class_name": "Ones"}, "trainable": true, "gamma_constraint": null, "beta_regularizer": null, "beta_constraint": null, "axis": -1, "scale": true, "moving_mean_initializer": {"config": {}, "class_name": "Zeros"}, "name": "separable_conv_2_bn_normal_left5_1", "gamma_regularizer": null, "beta_initializer": {"config": {}, "class_name": "Zeros"}, "moving_variance_initializer": {"config": {}, "class_name": "Ones"}, "center": true, "momentum": 0.9}, "class_name": "BatchNormalization", "inbound_nodes": [[["separable_conv_2_normal_left5_1", 0, 0, {}]]]}, {"name": "normal_add_1_1", "config": {"name": "normal_add_1_1", "trainable": true}, "class_name": "Add", "inbound_nodes": [[["separable_conv_2_bn_normal_left1_1", 0, 0, {}], ["separable_conv_2_bn_normal_right1_1", 0, 0, {}]]]}, {"name": "normal_add_2_1", "config": {"name": "normal_add_2_1", "trainable": true}, "class_name": "Add", "inbound_nodes": [[["separable_conv_2_bn_normal_left2_1", 0, 0, {}], ["separable_conv_2_bn_normal_right2_1", 0, 0, {}]]]}, {"name": "normal_add_3_1", "config": {"name": "normal_add_3_1", "trainable": true}, "class_name": "Add", "inbound_nodes": [[["normal_left3_1", 0, 0, {}], ["stem_bn1", 0, 0, {}]]]}, {"name": "normal_add_4_1", "config": {"name": "normal_add_4_1", "trainable": true}, "class_name": "Add", "inbound_nodes": [[["normal_left4_1", 0, 0, {}], ["normal_right4_1", 0, 0, {}]]]}, {"name": "normal_add_5_1", "config": {"name": "normal_add_5_1", "trainable": true}, "class_name": "Add", "inbound_nodes": [[["separable_conv_2_bn_normal_left5_1", 0, 0, {}], ["normal_bn_1_1", 0, 0, {}]]]}, {"name": "normal_concat_1", "config": {"name": "normal_concat_1", "axis": -1, "trainable": true}, "class_name": "Concatenate", "inbound_nodes": [[["stem_bn1", 0, 0, {}], ["normal_add_1_1", 0, 0, {}], ["normal_add_2_1", 0, 0, {}], ["normal_add_3_1", 0, 0, {}], ["normal_add_4_1", 0, 0, {}], ["normal_add_5_1", 0, 0, {}]]]}, {"name": "activation_23", "config": {"activation": "relu", "name": "activation_23", "trainable": true}, "class_name": "Activation", "inbound_nodes": [[["normal_concat_0", 0, 0, {}]]]}, {"name": "activation_24", "config": {"activation": "relu", "name": "activation_24", "trainable": true}, "class_name": "Activation", "inbound_nodes": [[["normal_concat_1", 0, 0, {}]]]}, {"name": "adjust_conv_projection_2", "config": {"strides": [1, 1], "bias_regularizer": null, "trainable": true, "activation": "linear", "dilation_rate": [1, 1], "activity_regularizer": null, "padding": "same", "name": "adjust_conv_projection_2", "use_bias": false, "data_format": "channels_last", "filters": 32, "kernel_initializer": {"config": {"distribution": "normal", "mode": "fan_in", "seed": null, "scale": 2.0}, "class_name": "VarianceScaling"}, "kernel_size": [1, 1], "kernel_regularizer": {"config": {"l1": 0.0, "l2": 0.0005000000237487257}, "class_name": "L1L2"}, "bias_initializer": {"config": {}, "class_name": "Zeros"}, "kernel_constraint": null, "bias_constraint": null}, "class_name": "Conv2D", "inbound_nodes": [[["activation_23", 0, 0, {}]]]}, {"name": "normal_conv_1_2", "config": {"strides": [1, 1], "bias_regularizer": null, "trainable": true, "activation": "linear", "dilation_rate": [1, 1], "activity_regularizer": null, "padding": "same", "name": "normal_conv_1_2", "use_bias": false, "data_format": "channels_last", "filters": 32, "kernel_initializer": {"config": {"distribution": "normal", "mode": "fan_in", "seed": null, "scale": 2.0}, "class_name": "VarianceScaling"}, "kernel_size": [1, 1], "kernel_regularizer": {"config": {"l1": 0.0, "l2": 0.0005000000237487257}, "class_name": "L1L2"}, "bias_initializer": {"config": {}, "class_name": "Zeros"}, "kernel_constraint": null, "bias_constraint": null}, "class_name": "Conv2D", "inbound_nodes": [[["activation_24", 0, 0, {}]]]}, {"name": "adjust_bn_2", "config": {"epsilon": 1e-05, "gamma_initializer": {"config": {}, "class_name": "Ones"}, "trainable": true, "gamma_constraint": null, "beta_regularizer": null, "beta_constraint": null, "axis": -1, "scale": true, "moving_mean_initializer": {"config": {}, "class_name": "Zeros"}, "name": "adjust_bn_2", "gamma_regularizer": null, "beta_initializer": {"config": {}, "class_name": "Zeros"}, "moving_variance_initializer": {"config": {}, "class_name": "Ones"}, "center": true, "momentum": 0.9}, "class_name": "BatchNormalization", "inbound_nodes": [[["adjust_conv_projection_2", 0, 0, {}]]]}, {"name": "normal_bn_1_2", "config": {"epsilon": 1e-05, "gamma_initializer": {"config": {}, "class_name": "Ones"}, "trainable": true, "gamma_constraint": null, "beta_regularizer": null, "beta_constraint": null, "axis": -1, "scale": true, "moving_mean_initializer": {"config": {}, "class_name": "Zeros"}, "name": "normal_bn_1_2", "gamma_regularizer": null, "beta_initializer": {"config": {}, "class_name": "Zeros"}, "moving_variance_initializer": {"config": {}, "class_name": "Ones"}, "center": true, "momentum": 0.9}, "class_name": "BatchNormalization", "inbound_nodes": [[["normal_conv_1_2", 0, 0, {}]]]}, {"name": "activation_25", "config": {"activation": "relu", "name": "activation_25", "trainable": true}, "class_name": "Activation", "inbound_nodes": [[["normal_bn_1_2", 0, 0, {}]]]}, {"name": "activation_27", "config": {"activation": "relu", "name": "activation_27", "trainable": true}, "class_name": "Activation", "inbound_nodes": [[["adjust_bn_2", 0, 0, {}]]]}, {"name": "activation_29", "config": {"activation": "relu", "name": "activation_29", "trainable": true}, "class_name": "Activation", "inbound_nodes": [[["adjust_bn_2", 0, 0, {}]]]}, {"name": "activation_31", "config": {"activation": "relu", "name": "activation_31", "trainable": true}, "class_name": "Activation", "inbound_nodes": [[["adjust_bn_2", 0, 0, {}]]]}, {"name": "activation_33", "config": {"activation": "relu", "name": "activation_33", "trainable": true}, "class_name": "Activation", "inbound_nodes": [[["normal_bn_1_2", 0, 0, {}]]]}, {"name": "separable_conv_1_normal_left1_2", "config": {"strides": [1, 1], "depthwise_initializer": {"config": {"distribution": "uniform", "mode": "fan_avg", "seed": null, "scale": 1.0}, "class_name": "VarianceScaling"}, "use_bias": false, "trainable": true, "dilation_rate": [1, 1], "activation": "linear", "padding": "same", "pointwise_initializer": {"config": {"distribution": "uniform", "mode": "fan_avg", "seed": null, "scale": 1.0}, "class_name": "VarianceScaling"}, "pointwise_regularizer": null, "name": "separable_conv_1_normal_left1_2", "bias_regularizer": null, "pointwise_constraint": null, "activity_regularizer": null, "depthwise_constraint": null, "data_format": "channels_last", "filters": 32, "depth_multiplier": 1, "kernel_size": [5, 5], "bias_initializer": {"config": {}, "class_name": "Zeros"}, "depthwise_regularizer": null, "bias_constraint": null}, "class_name": "SeparableConv2D", "inbound_nodes": [[["activation_25", 0, 0, {}]]]}, {"name": "separable_conv_1_normal_right1_2", "config": {"strides": [1, 1], "depthwise_initializer": {"config": {"distribution": "uniform", "mode": "fan_avg", "seed": null, "scale": 1.0}, "class_name": "VarianceScaling"}, "use_bias": false, "trainable": true, "dilation_rate": [1, 1], "activation": "linear", "padding": "same", "pointwise_initializer": {"config": {"distribution": "uniform", "mode": "fan_avg", "seed": null, "scale": 1.0}, "class_name": "VarianceScaling"}, "pointwise_regularizer": null, "name": "separable_conv_1_normal_right1_2", "bias_regularizer": null, "pointwise_constraint": null, "activity_regularizer": null, "depthwise_constraint": null, "data_format": "channels_last", "filters": 32, "depth_multiplier": 1, "kernel_size": [3, 3], "bias_initializer": {"config": {}, "class_name": "Zeros"}, "depthwise_regularizer": null, "bias_constraint": null}, "class_name": "SeparableConv2D", "inbound_nodes": [[["activation_27", 0, 0, {}]]]}, {"name": "separable_conv_1_normal_left2_2", "config": {"strides": [1, 1], "depthwise_initializer": {"config": {"distribution": "uniform", "mode": "fan_avg", "seed": null, "scale": 1.0}, "class_name": "VarianceScaling"}, "use_bias": false, "trainable": true, "dilation_rate": [1, 1], "activation": "linear", "padding": "same", "pointwise_initializer": {"config": {"distribution": "uniform", "mode": "fan_avg", "seed": null, "scale": 1.0}, "class_name": "VarianceScaling"}, "pointwise_regularizer": null, "name": "separable_conv_1_normal_left2_2", "bias_regularizer": null, "pointwise_constraint": null, "activity_regularizer": null, "depthwise_constraint": null, "data_format": "channels_last", "filters": 32, "depth_multiplier": 1, "kernel_size": [5, 5], "bias_initializer": {"config": {}, "class_name": "Zeros"}, "depthwise_regularizer": null, "bias_constraint": null}, "class_name": "SeparableConv2D", "inbound_nodes": [[["activation_29", 0, 0, {}]]]}, {"name": "separable_conv_1_normal_right2_2", "config": {"strides": [1, 1], "depthwise_initializer": {"config": {"distribution": "uniform", "mode": "fan_avg", "seed": null, "scale": 1.0}, "class_name": "VarianceScaling"}, "use_bias": false, "trainable": true, "dilation_rate": [1, 1], "activation": "linear", "padding": "same", "pointwise_initializer": {"config": {"distribution": "uniform", "mode": "fan_avg", "seed": null, "scale": 1.0}, "class_name": "VarianceScaling"}, "pointwise_regularizer": null, "name": "separable_conv_1_normal_right2_2", "bias_regularizer": null, "pointwise_constraint": null, "activity_regularizer": null, "depthwise_constraint": null, "data_format": "channels_last", "filters": 32, "depth_multiplier": 1, "kernel_size": [3, 3], "bias_initializer": {"config": {}, "class_name": "Zeros"}, "depthwise_regularizer": null, "bias_constraint": null}, "class_name": "SeparableConv2D", "inbound_nodes": [[["activation_31", 0, 0, {}]]]}, {"name": "separable_conv_1_normal_left5_2", "config": {"strides": [1, 1], "depthwise_initializer": {"config": {"distribution": "uniform", "mode": "fan_avg", "seed": null, "scale": 1.0}, "class_name": "VarianceScaling"}, "use_bias": false, "trainable": true, "dilation_rate": [1, 1], "activation": "linear", "padding": "same", "pointwise_initializer": {"config": {"distribution": "uniform", "mode": "fan_avg", "seed": null, "scale": 1.0}, "class_name": "VarianceScaling"}, "pointwise_regularizer": null, "name": "separable_conv_1_normal_left5_2", "bias_regularizer": null, "pointwise_constraint": null, "activity_regularizer": null, "depthwise_constraint": null, "data_format": "channels_last", "filters": 32, "depth_multiplier": 1, "kernel_size": [3, 3], "bias_initializer": {"config": {}, "class_name": "Zeros"}, "depthwise_regularizer": null, "bias_constraint": null}, "class_name": "SeparableConv2D", "inbound_nodes": [[["activation_33", 0, 0, {}]]]}, {"name": "separable_conv_1_bn_normal_left1_2", "config": {"epsilon": 1e-05, "gamma_initializer": {"config": {}, "class_name": "Ones"}, "trainable": true, "gamma_constraint": null, "beta_regularizer": null, "beta_constraint": null, "axis": -1, "scale": true, "moving_mean_initializer": {"config": {}, "class_name": "Zeros"}, "name": "separable_conv_1_bn_normal_left1_2", "gamma_regularizer": null, "beta_initializer": {"config": {}, "class_name": "Zeros"}, "moving_variance_initializer": {"config": {}, "class_name": "Ones"}, "center": true, "momentum": 0.9}, "class_name": "BatchNormalization", "inbound_nodes": [[["separable_conv_1_normal_left1_2", 0, 0, {}]]]}, {"name": "separable_conv_1_bn_normal_right1_2", "config": {"epsilon": 1e-05, "gamma_initializer": {"config": {}, "class_name": "Ones"}, "trainable": true, "gamma_constraint": null, "beta_regularizer": null, "beta_constraint": null, "axis": -1, "scale": true, "moving_mean_initializer": {"config": {}, "class_name": "Zeros"}, "name": "separable_conv_1_bn_normal_right1_2", "gamma_regularizer": null, "beta_initializer": {"config": {}, "class_name": "Zeros"}, "moving_variance_initializer": {"config": {}, "class_name": "Ones"}, "center": true, "momentum": 0.9}, "class_name": "BatchNormalization", "inbound_nodes": [[["separable_conv_1_normal_right1_2", 0, 0, {}]]]}, {"name": "separable_conv_1_bn_normal_left2_2", "config": {"epsilon": 1e-05, "gamma_initializer": {"config": {}, "class_name": "Ones"}, "trainable": true, "gamma_constraint": null, "beta_regularizer": null, "beta_constraint": null, "axis": -1, "scale": true, "moving_mean_initializer": {"config": {}, "class_name": "Zeros"}, "name": "separable_conv_1_bn_normal_left2_2", "gamma_regularizer": null, "beta_initializer": {"config": {}, "class_name": "Zeros"}, "moving_variance_initializer": {"config": {}, "class_name": "Ones"}, "center": true, "momentum": 0.9}, "class_name": "BatchNormalization", "inbound_nodes": [[["separable_conv_1_normal_left2_2", 0, 0, {}]]]}, {"name": "separable_conv_1_bn_normal_right2_2", "config": {"epsilon": 1e-05, "gamma_initializer": {"config": {}, "class_name": "Ones"}, "trainable": true, "gamma_constraint": null, "beta_regularizer": null, "beta_constraint": null, "axis": -1, "scale": true, "moving_mean_initializer": {"config": {}, "class_name": "Zeros"}, "name": "separable_conv_1_bn_normal_right2_2", "gamma_regularizer": null, "beta_initializer": {"config": {}, "class_name": "Zeros"}, "moving_variance_initializer": {"config": {}, "class_name": "Ones"}, "center": true, "momentum": 0.9}, "class_name": "BatchNormalization", "inbound_nodes": [[["separable_conv_1_normal_right2_2", 0, 0, {}]]]}, {"name": "separable_conv_1_bn_normal_left5_2", "config": {"epsilon": 1e-05, "gamma_initializer": {"config": {}, "class_name": "Ones"}, "trainable": true, "gamma_constraint": null, "beta_regularizer": null, "beta_constraint": null, "axis": -1, "scale": true, "moving_mean_initializer": {"config": {}, "class_name": "Zeros"}, "name": "separable_conv_1_bn_normal_left5_2", "gamma_regularizer": null, "beta_initializer": {"config": {}, "class_name": "Zeros"}, "moving_variance_initializer": {"config": {}, "class_name": "Ones"}, "center": true, "momentum": 0.9}, "class_name": "BatchNormalization", "inbound_nodes": [[["separable_conv_1_normal_left5_2", 0, 0, {}]]]}, {"name": "activation_26", "config": {"activation": "relu", "name": "activation_26", "trainable": true}, "class_name": "Activation", "inbound_nodes": [[["separable_conv_1_bn_normal_left1_2", 0, 0, {}]]]}, {"name": "activation_28", "config": {"activation": "relu", "name": "activation_28", "trainable": true}, "class_name": "Activation", "inbound_nodes": [[["separable_conv_1_bn_normal_right1_2", 0, 0, {}]]]}, {"name": "activation_30", "config": {"activation": "relu", "name": "activation_30", "trainable": true}, "class_name": "Activation", "inbound_nodes": [[["separable_conv_1_bn_normal_left2_2", 0, 0, {}]]]}, {"name": "activation_32", "config": {"activation": "relu", "name": "activation_32", "trainable": true}, "class_name": "Activation", "inbound_nodes": [[["separable_conv_1_bn_normal_right2_2", 0, 0, {}]]]}, {"name": "activation_34", "config": {"activation": "relu", "name": "activation_34", "trainable": true}, "class_name": "Activation", "inbound_nodes": [[["separable_conv_1_bn_normal_left5_2", 0, 0, {}]]]}, {"name": "separable_conv_2_normal_left1_2", "config": {"strides": [1, 1], "depthwise_initializer": {"config": {"distribution": "uniform", "mode": "fan_avg", "seed": null, "scale": 1.0}, "class_name": "VarianceScaling"}, "use_bias": false, "trainable": true, "dilation_rate": [1, 1], "activation": "linear", "padding": "same", "pointwise_initializer": {"config": {"distribution": "uniform", "mode": "fan_avg", "seed": null, "scale": 1.0}, "class_name": "VarianceScaling"}, "pointwise_regularizer": null, "name": "separable_conv_2_normal_left1_2", "bias_regularizer": null, "pointwise_constraint": null, "activity_regularizer": null, "depthwise_constraint": null, "data_format": "channels_last", "filters": 32, "depth_multiplier": 1, "kernel_size": [5, 5], "bias_initializer": {"config": {}, "class_name": "Zeros"}, "depthwise_regularizer": null, "bias_constraint": null}, "class_name": "SeparableConv2D", "inbound_nodes": [[["activation_26", 0, 0, {}]]]}, {"name": "separable_conv_2_normal_right1_2", "config": {"strides": [1, 1], "depthwise_initializer": {"config": {"distribution": "uniform", "mode": "fan_avg", "seed": null, "scale": 1.0}, "class_name": "VarianceScaling"}, "use_bias": false, "trainable": true, "dilation_rate": [1, 1], "activation": "linear", "padding": "same", "pointwise_initializer": {"config": {"distribution": "uniform", "mode": "fan_avg", "seed": null, "scale": 1.0}, "class_name": "VarianceScaling"}, "pointwise_regularizer": null, "name": "separable_conv_2_normal_right1_2", "bias_regularizer": null, "pointwise_constraint": null, "activity_regularizer": null, "depthwise_constraint": null, "data_format": "channels_last", "filters": 32, "depth_multiplier": 1, "kernel_size": [3, 3], "bias_initializer": {"config": {}, "class_name": "Zeros"}, "depthwise_regularizer": null, "bias_constraint": null}, "class_name": "SeparableConv2D", "inbound_nodes": [[["activation_28", 0, 0, {}]]]}, {"name": "separable_conv_2_normal_left2_2", "config": {"strides": [1, 1], "depthwise_initializer": {"config": {"distribution": "uniform", "mode": "fan_avg", "seed": null, "scale": 1.0}, "class_name": "VarianceScaling"}, "use_bias": false, "trainable": true, "dilation_rate": [1, 1], "activation": "linear", "padding": "same", "pointwise_initializer": {"config": {"distribution": "uniform", "mode": "fan_avg", "seed": null, "scale": 1.0}, "class_name": "VarianceScaling"}, "pointwise_regularizer": null, "name": "separable_conv_2_normal_left2_2", "bias_regularizer": null, "pointwise_constraint": null, "activity_regularizer": null, "depthwise_constraint": null, "data_format": "channels_last", "filters": 32, "depth_multiplier": 1, "kernel_size": [5, 5], "bias_initializer": {"config": {}, "class_name": "Zeros"}, "depthwise_regularizer": null, "bias_constraint": null}, "class_name": "SeparableConv2D", "inbound_nodes": [[["activation_30", 0, 0, {}]]]}, {"name": "separable_conv_2_normal_right2_2", "config": {"strides": [1, 1], "depthwise_initializer": {"config": {"distribution": "uniform", "mode": "fan_avg", "seed": null, "scale": 1.0}, "class_name": "VarianceScaling"}, "use_bias": false, "trainable": true, "dilation_rate": [1, 1], "activation": "linear", "padding": "same", "pointwise_initializer": {"config": {"distribution": "uniform", "mode": "fan_avg", "seed": null, "scale": 1.0}, "class_name": "VarianceScaling"}, "pointwise_regularizer": null, "name": "separable_conv_2_normal_right2_2", "bias_regularizer": null, "pointwise_constraint": null, "activity_regularizer": null, "depthwise_constraint": null, "data_format": "channels_last", "filters": 32, "depth_multiplier": 1, "kernel_size": [3, 3], "bias_initializer": {"config": {}, "class_name": "Zeros"}, "depthwise_regularizer": null, "bias_constraint": null}, "class_name": "SeparableConv2D", "inbound_nodes": [[["activation_32", 0, 0, {}]]]}, {"name": "separable_conv_2_normal_left5_2", "config": {"strides": [1, 1], "depthwise_initializer": {"config": {"distribution": "uniform", "mode": "fan_avg", "seed": null, "scale": 1.0}, "class_name": "VarianceScaling"}, "use_bias": false, "trainable": true, "dilation_rate": [1, 1], "activation": "linear", "padding": "same", "pointwise_initializer": {"config": {"distribution": "uniform", "mode": "fan_avg", "seed": null, "scale": 1.0}, "class_name": "VarianceScaling"}, "pointwise_regularizer": null, "name": "separable_conv_2_normal_left5_2", "bias_regularizer": null, "pointwise_constraint": null, "activity_regularizer": null, "depthwise_constraint": null, "data_format": "channels_last", "filters": 32, "depth_multiplier": 1, "kernel_size": [3, 3], "bias_initializer": {"config": {}, "class_name": "Zeros"}, "depthwise_regularizer": null, "bias_constraint": null}, "class_name": "SeparableConv2D", "inbound_nodes": [[["activation_34", 0, 0, {}]]]}, {"name": "separable_conv_2_bn_normal_left1_2", "config": {"epsilon": 1e-05, "gamma_initializer": {"config": {}, "class_name": "Ones"}, "trainable": true, "gamma_constraint": null, "beta_regularizer": null, "beta_constraint": null, "axis": -1, "scale": true, "moving_mean_initializer": {"config": {}, "class_name": "Zeros"}, "name": "separable_conv_2_bn_normal_left1_2", "gamma_regularizer": null, "beta_initializer": {"config": {}, "class_name": "Zeros"}, "moving_variance_initializer": {"config": {}, "class_name": "Ones"}, "center": true, "momentum": 0.9}, "class_name": "BatchNormalization", "inbound_nodes": [[["separable_conv_2_normal_left1_2", 0, 0, {}]]]}, {"name": "separable_conv_2_bn_normal_right1_2", "config": {"epsilon": 1e-05, "gamma_initializer": {"config": {}, "class_name": "Ones"}, "trainable": true, "gamma_constraint": null, "beta_regularizer": null, "beta_constraint": null, "axis": -1, "scale": true, "moving_mean_initializer": {"config": {}, "class_name": "Zeros"}, "name": "separable_conv_2_bn_normal_right1_2", "gamma_regularizer": null, "beta_initializer": {"config": {}, "class_name": "Zeros"}, "moving_variance_initializer": {"config": {}, "class_name": "Ones"}, "center": true, "momentum": 0.9}, "class_name": "BatchNormalization", "inbound_nodes": [[["separable_conv_2_normal_right1_2", 0, 0, {}]]]}, {"name": "separable_conv_2_bn_normal_left2_2", "config": {"epsilon": 1e-05, "gamma_initializer": {"config": {}, "class_name": "Ones"}, "trainable": true, "gamma_constraint": null, "beta_regularizer": null, "beta_constraint": null, "axis": -1, "scale": true, "moving_mean_initializer": {"config": {}, "class_name": "Zeros"}, "name": "separable_conv_2_bn_normal_left2_2", "gamma_regularizer": null, "beta_initializer": {"config": {}, "class_name": "Zeros"}, "moving_variance_initializer": {"config": {}, "class_name": "Ones"}, "center": true, "momentum": 0.9}, "class_name": "BatchNormalization", "inbound_nodes": [[["separable_conv_2_normal_left2_2", 0, 0, {}]]]}, {"name": "separable_conv_2_bn_normal_right2_2", "config": {"epsilon": 1e-05, "gamma_initializer": {"config": {}, "class_name": "Ones"}, "trainable": true, "gamma_constraint": null, "beta_regularizer": null, "beta_constraint": null, "axis": -1, "scale": true, "moving_mean_initializer": {"config": {}, "class_name": "Zeros"}, "name": "separable_conv_2_bn_normal_right2_2", "gamma_regularizer": null, "beta_initializer": {"config": {}, "class_name": "Zeros"}, "moving_variance_initializer": {"config": {}, "class_name": "Ones"}, "center": true, "momentum": 0.9}, "class_name": "BatchNormalization", "inbound_nodes": [[["separable_conv_2_normal_right2_2", 0, 0, {}]]]}, {"name": "normal_left3_2", "config": {"strides": [1, 1], "name": "normal_left3_2", "trainable": true, "data_format": "channels_last", "pool_size": [3, 3], "padding": "same"}, "class_name": "AveragePooling2D", "inbound_nodes": [[["normal_bn_1_2", 0, 0, {}]]]}, {"name": "normal_left4_2", "config": {"strides": [1, 1], "name": "normal_left4_2", "trainable": true, "data_format": "channels_last", "pool_size": [3, 3], "padding": "same"}, "class_name": "AveragePooling2D", "inbound_nodes": [[["adjust_bn_2", 0, 0, {}]]]}, {"name": "normal_right4_2", "config": {"strides": [1, 1], "name": "normal_right4_2", "trainable": true, "data_format": "channels_last", "pool_size": [3, 3], "padding": "same"}, "class_name": "AveragePooling2D", "inbound_nodes": [[["adjust_bn_2", 0, 0, {}]]]}, {"name": "separable_conv_2_bn_normal_left5_2", "config": {"epsilon": 1e-05, "gamma_initializer": {"config": {}, "class_name": "Ones"}, "trainable": true, "gamma_constraint": null, "beta_regularizer": null, "beta_constraint": null, "axis": -1, "scale": true, "moving_mean_initializer": {"config": {}, "class_name": "Zeros"}, "name": "separable_conv_2_bn_normal_left5_2", "gamma_regularizer": null, "beta_initializer": {"config": {}, "class_name": "Zeros"}, "moving_variance_initializer": {"config": {}, "class_name": "Ones"}, "center": true, "momentum": 0.9}, "class_name": "BatchNormalization", "inbound_nodes": [[["separable_conv_2_normal_left5_2", 0, 0, {}]]]}, {"name": "normal_add_1_2", "config": {"name": "normal_add_1_2", "trainable": true}, "class_name": "Add", "inbound_nodes": [[["separable_conv_2_bn_normal_left1_2", 0, 0, {}], ["separable_conv_2_bn_normal_right1_2", 0, 0, {}]]]}, {"name": "normal_add_2_2", "config": {"name": "normal_add_2_2", "trainable": true}, "class_name": "Add", "inbound_nodes": [[["separable_conv_2_bn_normal_left2_2", 0, 0, {}], ["separable_conv_2_bn_normal_right2_2", 0, 0, {}]]]}, {"name": "normal_add_3_2", "config": {"name": "normal_add_3_2", "trainable": true}, "class_name": "Add", "inbound_nodes": [[["normal_left3_2", 0, 0, {}], ["adjust_bn_2", 0, 0, {}]]]}, {"name": "normal_add_4_2", "config": {"name": "normal_add_4_2", "trainable": true}, "class_name": "Add", "inbound_nodes": [[["normal_left4_2", 0, 0, {}], ["normal_right4_2", 0, 0, {}]]]}, {"name": "normal_add_5_2", "config": {"name": "normal_add_5_2", "trainable": true}, "class_name": "Add", "inbound_nodes": [[["separable_conv_2_bn_normal_left5_2", 0, 0, {}], ["normal_bn_1_2", 0, 0, {}]]]}, {"name": "normal_concat_2", "config": {"name": "normal_concat_2", "axis": -1, "trainable": true}, "class_name": "Concatenate", "inbound_nodes": [[["adjust_bn_2", 0, 0, {}], ["normal_add_1_2", 0, 0, {}], ["normal_add_2_2", 0, 0, {}], ["normal_add_3_2", 0, 0, {}], ["normal_add_4_2", 0, 0, {}], ["normal_add_5_2", 0, 0, {}]]]}, {"name": "activation_35", "config": {"activation": "relu", "name": "activation_35", "trainable": true}, "class_name": "Activation", "inbound_nodes": [[["normal_concat_1", 0, 0, {}]]]}, {"name": "activation_36", "config": {"activation": "relu", "name": "activation_36", "trainable": true}, "class_name": "Activation", "inbound_nodes": [[["normal_concat_2", 0, 0, {}]]]}, {"name": "adjust_conv_projection_3", "config": {"strides": [1, 1], "bias_regularizer": null, "trainable": true, "activation": "linear", "dilation_rate": [1, 1], "activity_regularizer": null, "padding": "same", "name": "adjust_conv_projection_3", "use_bias": false, "data_format": "channels_last", "filters": 32, "kernel_initializer": {"config": {"distribution": "normal", "mode": "fan_in", "seed": null, "scale": 2.0}, "class_name": "VarianceScaling"}, "kernel_size": [1, 1], "kernel_regularizer": {"config": {"l1": 0.0, "l2": 0.0005000000237487257}, "class_name": "L1L2"}, "bias_initializer": {"config": {}, "class_name": "Zeros"}, "kernel_constraint": null, "bias_constraint": null}, "class_name": "Conv2D", "inbound_nodes": [[["activation_35", 0, 0, {}]]]}, {"name": "normal_conv_1_3", "config": {"strides": [1, 1], "bias_regularizer": null, "trainable": true, "activation": "linear", "dilation_rate": [1, 1], "activity_regularizer": null, "padding": "same", "name": "normal_conv_1_3", "use_bias": false, "data_format": "channels_last", "filters": 32, "kernel_initializer": {"config": {"distribution": "normal", "mode": "fan_in", "seed": null, "scale": 2.0}, "class_name": "VarianceScaling"}, "kernel_size": [1, 1], "kernel_regularizer": {"config": {"l1": 0.0, "l2": 0.0005000000237487257}, "class_name": "L1L2"}, "bias_initializer": {"config": {}, "class_name": "Zeros"}, "kernel_constraint": null, "bias_constraint": null}, "class_name": "Conv2D", "inbound_nodes": [[["activation_36", 0, 0, {}]]]}, {"name": "adjust_bn_3", "config": {"epsilon": 1e-05, "gamma_initializer": {"config": {}, "class_name": "Ones"}, "trainable": true, "gamma_constraint": null, "beta_regularizer": null, "beta_constraint": null, "axis": -1, "scale": true, "moving_mean_initializer": {"config": {}, "class_name": "Zeros"}, "name": "adjust_bn_3", "gamma_regularizer": null, "beta_initializer": {"config": {}, "class_name": "Zeros"}, "moving_variance_initializer": {"config": {}, "class_name": "Ones"}, "center": true, "momentum": 0.9}, "class_name": "BatchNormalization", "inbound_nodes": [[["adjust_conv_projection_3", 0, 0, {}]]]}, {"name": "normal_bn_1_3", "config": {"epsilon": 1e-05, "gamma_initializer": {"config": {}, "class_name": "Ones"}, "trainable": true, "gamma_constraint": null, "beta_regularizer": null, "beta_constraint": null, "axis": -1, "scale": true, "moving_mean_initializer": {"config": {}, "class_name": "Zeros"}, "name": "normal_bn_1_3", "gamma_regularizer": null, "beta_initializer": {"config": {}, "class_name": "Zeros"}, "moving_variance_initializer": {"config": {}, "class_name": "Ones"}, "center": true, "momentum": 0.9}, "class_name": "BatchNormalization", "inbound_nodes": [[["normal_conv_1_3", 0, 0, {}]]]}, {"name": "activation_37", "config": {"activation": "relu", "name": "activation_37", "trainable": true}, "class_name": "Activation", "inbound_nodes": [[["normal_bn_1_3", 0, 0, {}]]]}, {"name": "activation_39", "config": {"activation": "relu", "name": "activation_39", "trainable": true}, "class_name": "Activation", "inbound_nodes": [[["adjust_bn_3", 0, 0, {}]]]}, {"name": "activation_41", "config": {"activation": "relu", "name": "activation_41", "trainable": true}, "class_name": "Activation", "inbound_nodes": [[["adjust_bn_3", 0, 0, {}]]]}, {"name": "activation_43", "config": {"activation": "relu", "name": "activation_43", "trainable": true}, "class_name": "Activation", "inbound_nodes": [[["adjust_bn_3", 0, 0, {}]]]}, {"name": "activation_45", "config": {"activation": "relu", "name": "activation_45", "trainable": true}, "class_name": "Activation", "inbound_nodes": [[["normal_bn_1_3", 0, 0, {}]]]}, {"name": "separable_conv_1_normal_left1_3", "config": {"strides": [1, 1], "depthwise_initializer": {"config": {"distribution": "uniform", "mode": "fan_avg", "seed": null, "scale": 1.0}, "class_name": "VarianceScaling"}, "use_bias": false, "trainable": true, "dilation_rate": [1, 1], "activation": "linear", "padding": "same", "pointwise_initializer": {"config": {"distribution": "uniform", "mode": "fan_avg", "seed": null, "scale": 1.0}, "class_name": "VarianceScaling"}, "pointwise_regularizer": null, "name": "separable_conv_1_normal_left1_3", "bias_regularizer": null, "pointwise_constraint": null, "activity_regularizer": null, "depthwise_constraint": null, "data_format": "channels_last", "filters": 32, "depth_multiplier": 1, "kernel_size": [5, 5], "bias_initializer": {"config": {}, "class_name": "Zeros"}, "depthwise_regularizer": null, "bias_constraint": null}, "class_name": "SeparableConv2D", "inbound_nodes": [[["activation_37", 0, 0, {}]]]}, {"name": "separable_conv_1_normal_right1_3", "config": {"strides": [1, 1], "depthwise_initializer": {"config": {"distribution": "uniform", "mode": "fan_avg", "seed": null, "scale": 1.0}, "class_name": "VarianceScaling"}, "use_bias": false, "trainable": true, "dilation_rate": [1, 1], "activation": "linear", "padding": "same", "pointwise_initializer": {"config": {"distribution": "uniform", "mode": "fan_avg", "seed": null, "scale": 1.0}, "class_name": "VarianceScaling"}, "pointwise_regularizer": null, "name": "separable_conv_1_normal_right1_3", "bias_regularizer": null, "pointwise_constraint": null, "activity_regularizer": null, "depthwise_constraint": null, "data_format": "channels_last", "filters": 32, "depth_multiplier": 1, "kernel_size": [3, 3], "bias_initializer": {"config": {}, "class_name": "Zeros"}, "depthwise_regularizer": null, "bias_constraint": null}, "class_name": "SeparableConv2D", "inbound_nodes": [[["activation_39", 0, 0, {}]]]}, {"name": "separable_conv_1_normal_left2_3", "config": {"strides": [1, 1], "depthwise_initializer": {"config": {"distribution": "uniform", "mode": "fan_avg", "seed": null, "scale": 1.0}, "class_name": "VarianceScaling"}, "use_bias": false, "trainable": true, "dilation_rate": [1, 1], "activation": "linear", "padding": "same", "pointwise_initializer": {"config": {"distribution": "uniform", "mode": "fan_avg", "seed": null, "scale": 1.0}, "class_name": "VarianceScaling"}, "pointwise_regularizer": null, "name": "separable_conv_1_normal_left2_3", "bias_regularizer": null, "pointwise_constraint": null, "activity_regularizer": null, "depthwise_constraint": null, "data_format": "channels_last", "filters": 32, "depth_multiplier": 1, "kernel_size": [5, 5], "bias_initializer": {"config": {}, "class_name": "Zeros"}, "depthwise_regularizer": null, "bias_constraint": null}, "class_name": "SeparableConv2D", "inbound_nodes": [[["activation_41", 0, 0, {}]]]}, {"name": "separable_conv_1_normal_right2_3", "config": {"strides": [1, 1], "depthwise_initializer": {"config": {"distribution": "uniform", "mode": "fan_avg", "seed": null, "scale": 1.0}, "class_name": "VarianceScaling"}, "use_bias": false, "trainable": true, "dilation_rate": [1, 1], "activation": "linear", "padding": "same", "pointwise_initializer": {"config": {"distribution": "uniform", "mode": "fan_avg", "seed": null, "scale": 1.0}, "class_name": "VarianceScaling"}, "pointwise_regularizer": null, "name": "separable_conv_1_normal_right2_3", "bias_regularizer": null, "pointwise_constraint": null, "activity_regularizer": null, "depthwise_constraint": null, "data_format": "channels_last", "filters": 32, "depth_multiplier": 1, "kernel_size": [3, 3], "bias_initializer": {"config": {}, "class_name": "Zeros"}, "depthwise_regularizer": null, "bias_constraint": null}, "class_name": "SeparableConv2D", "inbound_nodes": [[["activation_43", 0, 0, {}]]]}, {"name": "separable_conv_1_normal_left5_3", "config": {"strides": [1, 1], "depthwise_initializer": {"config": {"distribution": "uniform", "mode": "fan_avg", "seed": null, "scale": 1.0}, "class_name": "VarianceScaling"}, "use_bias": false, "trainable": true, "dilation_rate": [1, 1], "activation": "linear", "padding": "same", "pointwise_initializer": {"config": {"distribution": "uniform", "mode": "fan_avg", "seed": null, "scale": 1.0}, "class_name": "VarianceScaling"}, "pointwise_regularizer": null, "name": "separable_conv_1_normal_left5_3", "bias_regularizer": null, "pointwise_constraint": null, "activity_regularizer": null, "depthwise_constraint": null, "data_format": "channels_last", "filters": 32, "depth_multiplier": 1, "kernel_size": [3, 3], "bias_initializer": {"config": {}, "class_name": "Zeros"}, "depthwise_regularizer": null, "bias_constraint": null}, "class_name": "SeparableConv2D", "inbound_nodes": [[["activation_45", 0, 0, {}]]]}, {"name": "separable_conv_1_bn_normal_left1_3", "config": {"epsilon": 1e-05, "gamma_initializer": {"config": {}, "class_name": "Ones"}, "trainable": true, "gamma_constraint": null, "beta_regularizer": null, "beta_constraint": null, "axis": -1, "scale": true, "moving_mean_initializer": {"config": {}, "class_name": "Zeros"}, "name": "separable_conv_1_bn_normal_left1_3", "gamma_regularizer": null, "beta_initializer": {"config": {}, "class_name": "Zeros"}, "moving_variance_initializer": {"config": {}, "class_name": "Ones"}, "center": true, "momentum": 0.9}, "class_name": "BatchNormalization", "inbound_nodes": [[["separable_conv_1_normal_left1_3", 0, 0, {}]]]}, {"name": "separable_conv_1_bn_normal_right1_3", "config": {"epsilon": 1e-05, "gamma_initializer": {"config": {}, "class_name": "Ones"}, "trainable": true, "gamma_constraint": null, "beta_regularizer": null, "beta_constraint": null, "axis": -1, "scale": true, "moving_mean_initializer": {"config": {}, "class_name": "Zeros"}, "name": "separable_conv_1_bn_normal_right1_3", "gamma_regularizer": null, "beta_initializer": {"config": {}, "class_name": "Zeros"}, "moving_variance_initializer": {"config": {}, "class_name": "Ones"}, "center": true, "momentum": 0.9}, "class_name": "BatchNormalization", "inbound_nodes": [[["separable_conv_1_normal_right1_3", 0, 0, {}]]]}, {"name": "separable_conv_1_bn_normal_left2_3", "config": {"epsilon": 1e-05, "gamma_initializer": {"config": {}, "class_name": "Ones"}, "trainable": true, "gamma_constraint": null, "beta_regularizer": null, "beta_constraint": null, "axis": -1, "scale": true, "moving_mean_initializer": {"config": {}, "class_name": "Zeros"}, "name": "separable_conv_1_bn_normal_left2_3", "gamma_regularizer": null, "beta_initializer": {"config": {}, "class_name": "Zeros"}, "moving_variance_initializer": {"config": {}, "class_name": "Ones"}, "center": true, "momentum": 0.9}, "class_name": "BatchNormalization", "inbound_nodes": [[["separable_conv_1_normal_left2_3", 0, 0, {}]]]}, {"name": "separable_conv_1_bn_normal_right2_3", "config": {"epsilon": 1e-05, "gamma_initializer": {"config": {}, "class_name": "Ones"}, "trainable": true, "gamma_constraint": null, "beta_regularizer": null, "beta_constraint": null, "axis": -1, "scale": true, "moving_mean_initializer": {"config": {}, "class_name": "Zeros"}, "name": "separable_conv_1_bn_normal_right2_3", "gamma_regularizer": null, "beta_initializer": {"config": {}, "class_name": "Zeros"}, "moving_variance_initializer": {"config": {}, "class_name": "Ones"}, "center": true, "momentum": 0.9}, "class_name": "BatchNormalization", "inbound_nodes": [[["separable_conv_1_normal_right2_3", 0, 0, {}]]]}, {"name": "separable_conv_1_bn_normal_left5_3", "config": {"epsilon": 1e-05, "gamma_initializer": {"config": {}, "class_name": "Ones"}, "trainable": true, "gamma_constraint": null, "beta_regularizer": null, "beta_constraint": null, "axis": -1, "scale": true, "moving_mean_initializer": {"config": {}, "class_name": "Zeros"}, "name": "separable_conv_1_bn_normal_left5_3", "gamma_regularizer": null, "beta_initializer": {"config": {}, "class_name": "Zeros"}, "moving_variance_initializer": {"config": {}, "class_name": "Ones"}, "center": true, "momentum": 0.9}, "class_name": "BatchNormalization", "inbound_nodes": [[["separable_conv_1_normal_left5_3", 0, 0, {}]]]}, {"name": "activation_38", "config": {"activation": "relu", "name": "activation_38", "trainable": true}, "class_name": "Activation", "inbound_nodes": [[["separable_conv_1_bn_normal_left1_3", 0, 0, {}]]]}, {"name": "activation_40", "config": {"activation": "relu", "name": "activation_40", "trainable": true}, "class_name": "Activation", "inbound_nodes": [[["separable_conv_1_bn_normal_right1_3", 0, 0, {}]]]}, {"name": "activation_42", "config": {"activation": "relu", "name": "activation_42", "trainable": true}, "class_name": "Activation", "inbound_nodes": [[["separable_conv_1_bn_normal_left2_3", 0, 0, {}]]]}, {"name": "activation_44", "config": {"activation": "relu", "name": "activation_44", "trainable": true}, "class_name": "Activation", "inbound_nodes": [[["separable_conv_1_bn_normal_right2_3", 0, 0, {}]]]}, {"name": "activation_46", "config": {"activation": "relu", "name": "activation_46", "trainable": true}, "class_name": "Activation", "inbound_nodes": [[["separable_conv_1_bn_normal_left5_3", 0, 0, {}]]]}, {"name": "separable_conv_2_normal_left1_3", "config": {"strides": [1, 1], "depthwise_initializer": {"config": {"distribution": "uniform", "mode": "fan_avg", "seed": null, "scale": 1.0}, "class_name": "VarianceScaling"}, "use_bias": false, "trainable": true, "dilation_rate": [1, 1], "activation": "linear", "padding": "same", "pointwise_initializer": {"config": {"distribution": "uniform", "mode": "fan_avg", "seed": null, "scale": 1.0}, "class_name": "VarianceScaling"}, "pointwise_regularizer": null, "name": "separable_conv_2_normal_left1_3", "bias_regularizer": null, "pointwise_constraint": null, "activity_regularizer": null, "depthwise_constraint": null, "data_format": "channels_last", "filters": 32, "depth_multiplier": 1, "kernel_size": [5, 5], "bias_initializer": {"config": {}, "class_name": "Zeros"}, "depthwise_regularizer": null, "bias_constraint": null}, "class_name": "SeparableConv2D", "inbound_nodes": [[["activation_38", 0, 0, {}]]]}, {"name": "separable_conv_2_normal_right1_3", "config": {"strides": [1, 1], "depthwise_initializer": {"config": {"distribution": "uniform", "mode": "fan_avg", "seed": null, "scale": 1.0}, "class_name": "VarianceScaling"}, "use_bias": false, "trainable": true, "dilation_rate": [1, 1], "activation": "linear", "padding": "same", "pointwise_initializer": {"config": {"distribution": "uniform", "mode": "fan_avg", "seed": null, "scale": 1.0}, "class_name": "VarianceScaling"}, "pointwise_regularizer": null, "name": "separable_conv_2_normal_right1_3", "bias_regularizer": null, "pointwise_constraint": null, "activity_regularizer": null, "depthwise_constraint": null, "data_format": "channels_last", "filters": 32, "depth_multiplier": 1, "kernel_size": [3, 3], "bias_initializer": {"config": {}, "class_name": "Zeros"}, "depthwise_regularizer": null, "bias_constraint": null}, "class_name": "SeparableConv2D", "inbound_nodes": [[["activation_40", 0, 0, {}]]]}, {"name": "separable_conv_2_normal_left2_3", "config": {"strides": [1, 1], "depthwise_initializer": {"config": {"distribution": "uniform", "mode": "fan_avg", "seed": null, "scale": 1.0}, "class_name": "VarianceScaling"}, "use_bias": false, "trainable": true, "dilation_rate": [1, 1], "activation": "linear", "padding": "same", "pointwise_initializer": {"config": {"distribution": "uniform", "mode": "fan_avg", "seed": null, "scale": 1.0}, "class_name": "VarianceScaling"}, "pointwise_regularizer": null, "name": "separable_conv_2_normal_left2_3", "bias_regularizer": null, "pointwise_constraint": null, "activity_regularizer": null, "depthwise_constraint": null, "data_format": "channels_last", "filters": 32, "depth_multiplier": 1, "kernel_size": [5, 5], "bias_initializer": {"config": {}, "class_name": "Zeros"}, "depthwise_regularizer": null, "bias_constraint": null}, "class_name": "SeparableConv2D", "inbound_nodes": [[["activation_42", 0, 0, {}]]]}, {"name": "separable_conv_2_normal_right2_3", "config": {"strides": [1, 1], "depthwise_initializer": {"config": {"distribution": "uniform", "mode": "fan_avg", "seed": null, "scale": 1.0}, "class_name": "VarianceScaling"}, "use_bias": false, "trainable": true, "dilation_rate": [1, 1], "activation": "linear", "padding": "same", "pointwise_initializer": {"config": {"distribution": "uniform", "mode": "fan_avg", "seed": null, "scale": 1.0}, "class_name": "VarianceScaling"}, "pointwise_regularizer": null, "name": "separable_conv_2_normal_right2_3", "bias_regularizer": null, "pointwise_constraint": null, "activity_regularizer": null, "depthwise_constraint": null, "data_format": "channels_last", "filters": 32, "depth_multiplier": 1, "kernel_size": [3, 3], "bias_initializer": {"config": {}, "class_name": "Zeros"}, "depthwise_regularizer": null, "bias_constraint": null}, "class_name": "SeparableConv2D", "inbound_nodes": [[["activation_44", 0, 0, {}]]]}, {"name": "separable_conv_2_normal_left5_3", "config": {"strides": [1, 1], "depthwise_initializer": {"config": {"distribution": "uniform", "mode": "fan_avg", "seed": null, "scale": 1.0}, "class_name": "VarianceScaling"}, "use_bias": false, "trainable": true, "dilation_rate": [1, 1], "activation": "linear", "padding": "same", "pointwise_initializer": {"config": {"distribution": "uniform", "mode": "fan_avg", "seed": null, "scale": 1.0}, "class_name": "VarianceScaling"}, "pointwise_regularizer": null, "name": "separable_conv_2_normal_left5_3", "bias_regularizer": null, "pointwise_constraint": null, "activity_regularizer": null, "depthwise_constraint": null, "data_format": "channels_last", "filters": 32, "depth_multiplier": 1, "kernel_size": [3, 3], "bias_initializer": {"config": {}, "class_name": "Zeros"}, "depthwise_regularizer": null, "bias_constraint": null}, "class_name": "SeparableConv2D", "inbound_nodes": [[["activation_46", 0, 0, {}]]]}, {"name": "separable_conv_2_bn_normal_left1_3", "config": {"epsilon": 1e-05, "gamma_initializer": {"config": {}, "class_name": "Ones"}, "trainable": true, "gamma_constraint": null, "beta_regularizer": null, "beta_constraint": null, "axis": -1, "scale": true, "moving_mean_initializer": {"config": {}, "class_name": "Zeros"}, "name": "separable_conv_2_bn_normal_left1_3", "gamma_regularizer": null, "beta_initializer": {"config": {}, "class_name": "Zeros"}, "moving_variance_initializer": {"config": {}, "class_name": "Ones"}, "center": true, "momentum": 0.9}, "class_name": "BatchNormalization", "inbound_nodes": [[["separable_conv_2_normal_left1_3", 0, 0, {}]]]}, {"name": "separable_conv_2_bn_normal_right1_3", "config": {"epsilon": 1e-05, "gamma_initializer": {"config": {}, "class_name": "Ones"}, "trainable": true, "gamma_constraint": null, "beta_regularizer": null, "beta_constraint": null, "axis": -1, "scale": true, "moving_mean_initializer": {"config": {}, "class_name": "Zeros"}, "name": "separable_conv_2_bn_normal_right1_3", "gamma_regularizer": null, "beta_initializer": {"config": {}, "class_name": "Zeros"}, "moving_variance_initializer": {"config": {}, "class_name": "Ones"}, "center": true, "momentum": 0.9}, "class_name": "BatchNormalization", "inbound_nodes": [[["separable_conv_2_normal_right1_3", 0, 0, {}]]]}, {"name": "separable_conv_2_bn_normal_left2_3", "config": {"epsilon": 1e-05, "gamma_initializer": {"config": {}, "class_name": "Ones"}, "trainable": true, "gamma_constraint": null, "beta_regularizer": null, "beta_constraint": null, "axis": -1, "scale": true, "moving_mean_initializer": {"config": {}, "class_name": "Zeros"}, "name": "separable_conv_2_bn_normal_left2_3", "gamma_regularizer": null, "beta_initializer": {"config": {}, "class_name": "Zeros"}, "moving_variance_initializer": {"config": {}, "class_name": "Ones"}, "center": true, "momentum": 0.9}, "class_name": "BatchNormalization", "inbound_nodes": [[["separable_conv_2_normal_left2_3", 0, 0, {}]]]}, {"name": "separable_conv_2_bn_normal_right2_3", "config": {"epsilon": 1e-05, "gamma_initializer": {"config": {}, "class_name": "Ones"}, "trainable": true, "gamma_constraint": null, "beta_regularizer": null, "beta_constraint": null, "axis": -1, "scale": true, "moving_mean_initializer": {"config": {}, "class_name": "Zeros"}, "name": "separable_conv_2_bn_normal_right2_3", "gamma_regularizer": null, "beta_initializer": {"config": {}, "class_name": "Zeros"}, "moving_variance_initializer": {"config": {}, "class_name": "Ones"}, "center": true, "momentum": 0.9}, "class_name": "BatchNormalization", "inbound_nodes": [[["separable_conv_2_normal_right2_3", 0, 0, {}]]]}, {"name": "normal_left3_3", "config": {"strides": [1, 1], "name": "normal_left3_3", "trainable": true, "data_format": "channels_last", "pool_size": [3, 3], "padding": "same"}, "class_name": "AveragePooling2D", "inbound_nodes": [[["normal_bn_1_3", 0, 0, {}]]]}, {"name": "normal_left4_3", "config": {"strides": [1, 1], "name": "normal_left4_3", "trainable": true, "data_format": "channels_last", "pool_size": [3, 3], "padding": "same"}, "class_name": "AveragePooling2D", "inbound_nodes": [[["adjust_bn_3", 0, 0, {}]]]}, {"name": "normal_right4_3", "config": {"strides": [1, 1], "name": "normal_right4_3", "trainable": true, "data_format": "channels_last", "pool_size": [3, 3], "padding": "same"}, "class_name": "AveragePooling2D", "inbound_nodes": [[["adjust_bn_3", 0, 0, {}]]]}, {"name": "separable_conv_2_bn_normal_left5_3", "config": {"epsilon": 1e-05, "gamma_initializer": {"config": {}, "class_name": "Ones"}, "trainable": true, "gamma_constraint": null, "beta_regularizer": null, "beta_constraint": null, "axis": -1, "scale": true, "moving_mean_initializer": {"config": {}, "class_name": "Zeros"}, "name": "separable_conv_2_bn_normal_left5_3", "gamma_regularizer": null, "beta_initializer": {"config": {}, "class_name": "Zeros"}, "moving_variance_initializer": {"config": {}, "class_name": "Ones"}, "center": true, "momentum": 0.9}, "class_name": "BatchNormalization", "inbound_nodes": [[["separable_conv_2_normal_left5_3", 0, 0, {}]]]}, {"name": "normal_add_1_3", "config": {"name": "normal_add_1_3", "trainable": true}, "class_name": "Add", "inbound_nodes": [[["separable_conv_2_bn_normal_left1_3", 0, 0, {}], ["separable_conv_2_bn_normal_right1_3", 0, 0, {}]]]}, {"name": "normal_add_2_3", "config": {"name": "normal_add_2_3", "trainable": true}, "class_name": "Add", "inbound_nodes": [[["separable_conv_2_bn_normal_left2_3", 0, 0, {}], ["separable_conv_2_bn_normal_right2_3", 0, 0, {}]]]}, {"name": "normal_add_3_3", "config": {"name": "normal_add_3_3", "trainable": true}, "class_name": "Add", "inbound_nodes": [[["normal_left3_3", 0, 0, {}], ["adjust_bn_3", 0, 0, {}]]]}, {"name": "normal_add_4_3", "config": {"name": "normal_add_4_3", "trainable": true}, "class_name": "Add", "inbound_nodes": [[["normal_left4_3", 0, 0, {}], ["normal_right4_3", 0, 0, {}]]]}, {"name": "normal_add_5_3", "config": {"name": "normal_add_5_3", "trainable": true}, "class_name": "Add", "inbound_nodes": [[["separable_conv_2_bn_normal_left5_3", 0, 0, {}], ["normal_bn_1_3", 0, 0, {}]]]}, {"name": "normal_concat_3", "config": {"name": "normal_concat_3", "axis": -1, "trainable": true}, "class_name": "Concatenate", "inbound_nodes": [[["adjust_bn_3", 0, 0, {}], ["normal_add_1_3", 0, 0, {}], ["normal_add_2_3", 0, 0, {}], ["normal_add_3_3", 0, 0, {}], ["normal_add_4_3", 0, 0, {}], ["normal_add_5_3", 0, 0, {}]]]}, {"name": "activation_47", "config": {"activation": "relu", "name": "activation_47", "trainable": true}, "class_name": "Activation", "inbound_nodes": [[["normal_concat_2", 0, 0, {}]]]}, {"name": "activation_48", "config": {"activation": "relu", "name": "activation_48", "trainable": true}, "class_name": "Activation", "inbound_nodes": [[["normal_concat_3", 0, 0, {}]]]}, {"name": "adjust_conv_projection_4", "config": {"strides": [1, 1], "bias_regularizer": null, "trainable": true, "activation": "linear", "dilation_rate": [1, 1], "activity_regularizer": null, "padding": "same", "name": "adjust_conv_projection_4", "use_bias": false, "data_format": "channels_last", "filters": 32, "kernel_initializer": {"config": {"distribution": "normal", "mode": "fan_in", "seed": null, "scale": 2.0}, "class_name": "VarianceScaling"}, "kernel_size": [1, 1], "kernel_regularizer": {"config": {"l1": 0.0, "l2": 0.0005000000237487257}, "class_name": "L1L2"}, "bias_initializer": {"config": {}, "class_name": "Zeros"}, "kernel_constraint": null, "bias_constraint": null}, "class_name": "Conv2D", "inbound_nodes": [[["activation_47", 0, 0, {}]]]}, {"name": "normal_conv_1_4", "config": {"strides": [1, 1], "bias_regularizer": null, "trainable": true, "activation": "linear", "dilation_rate": [1, 1], "activity_regularizer": null, "padding": "same", "name": "normal_conv_1_4", "use_bias": false, "data_format": "channels_last", "filters": 32, "kernel_initializer": {"config": {"distribution": "normal", "mode": "fan_in", "seed": null, "scale": 2.0}, "class_name": "VarianceScaling"}, "kernel_size": [1, 1], "kernel_regularizer": {"config": {"l1": 0.0, "l2": 0.0005000000237487257}, "class_name": "L1L2"}, "bias_initializer": {"config": {}, "class_name": "Zeros"}, "kernel_constraint": null, "bias_constraint": null}, "class_name": "Conv2D", "inbound_nodes": [[["activation_48", 0, 0, {}]]]}, {"name": "adjust_bn_4", "config": {"epsilon": 1e-05, "gamma_initializer": {"config": {}, "class_name": "Ones"}, "trainable": true, "gamma_constraint": null, "beta_regularizer": null, "beta_constraint": null, "axis": -1, "scale": true, "moving_mean_initializer": {"config": {}, "class_name": "Zeros"}, "name": "adjust_bn_4", "gamma_regularizer": null, "beta_initializer": {"config": {}, "class_name": "Zeros"}, "moving_variance_initializer": {"config": {}, "class_name": "Ones"}, "center": true, "momentum": 0.9}, "class_name": "BatchNormalization", "inbound_nodes": [[["adjust_conv_projection_4", 0, 0, {}]]]}, {"name": "normal_bn_1_4", "config": {"epsilon": 1e-05, "gamma_initializer": {"config": {}, "class_name": "Ones"}, "trainable": true, "gamma_constraint": null, "beta_regularizer": null, "beta_constraint": null, "axis": -1, "scale": true, "moving_mean_initializer": {"config": {}, "class_name": "Zeros"}, "name": "normal_bn_1_4", "gamma_regularizer": null, "beta_initializer": {"config": {}, "class_name": "Zeros"}, "moving_variance_initializer": {"config": {}, "class_name": "Ones"}, "center": true, "momentum": 0.9}, "class_name": "BatchNormalization", "inbound_nodes": [[["normal_conv_1_4", 0, 0, {}]]]}, {"name": "activation_49", "config": {"activation": "relu", "name": "activation_49", "trainable": true}, "class_name": "Activation", "inbound_nodes": [[["normal_bn_1_4", 0, 0, {}]]]}, {"name": "activation_51", "config": {"activation": "relu", "name": "activation_51", "trainable": true}, "class_name": "Activation", "inbound_nodes": [[["adjust_bn_4", 0, 0, {}]]]}, {"name": "activation_53", "config": {"activation": "relu", "name": "activation_53", "trainable": true}, "class_name": "Activation", "inbound_nodes": [[["adjust_bn_4", 0, 0, {}]]]}, {"name": "activation_55", "config": {"activation": "relu", "name": "activation_55", "trainable": true}, "class_name": "Activation", "inbound_nodes": [[["adjust_bn_4", 0, 0, {}]]]}, {"name": "activation_57", "config": {"activation": "relu", "name": "activation_57", "trainable": true}, "class_name": "Activation", "inbound_nodes": [[["normal_bn_1_4", 0, 0, {}]]]}, {"name": "separable_conv_1_normal_left1_4", "config": {"strides": [1, 1], "depthwise_initializer": {"config": {"distribution": "uniform", "mode": "fan_avg", "seed": null, "scale": 1.0}, "class_name": "VarianceScaling"}, "use_bias": false, "trainable": true, "dilation_rate": [1, 1], "activation": "linear", "padding": "same", "pointwise_initializer": {"config": {"distribution": "uniform", "mode": "fan_avg", "seed": null, "scale": 1.0}, "class_name": "VarianceScaling"}, "pointwise_regularizer": null, "name": "separable_conv_1_normal_left1_4", "bias_regularizer": null, "pointwise_constraint": null, "activity_regularizer": null, "depthwise_constraint": null, "data_format": "channels_last", "filters": 32, "depth_multiplier": 1, "kernel_size": [5, 5], "bias_initializer": {"config": {}, "class_name": "Zeros"}, "depthwise_regularizer": null, "bias_constraint": null}, "class_name": "SeparableConv2D", "inbound_nodes": [[["activation_49", 0, 0, {}]]]}, {"name": "separable_conv_1_normal_right1_4", "config": {"strides": [1, 1], "depthwise_initializer": {"config": {"distribution": "uniform", "mode": "fan_avg", "seed": null, "scale": 1.0}, "class_name": "VarianceScaling"}, "use_bias": false, "trainable": true, "dilation_rate": [1, 1], "activation": "linear", "padding": "same", "pointwise_initializer": {"config": {"distribution": "uniform", "mode": "fan_avg", "seed": null, "scale": 1.0}, "class_name": "VarianceScaling"}, "pointwise_regularizer": null, "name": "separable_conv_1_normal_right1_4", "bias_regularizer": null, "pointwise_constraint": null, "activity_regularizer": null, "depthwise_constraint": null, "data_format": "channels_last", "filters": 32, "depth_multiplier": 1, "kernel_size": [3, 3], "bias_initializer": {"config": {}, "class_name": "Zeros"}, "depthwise_regularizer": null, "bias_constraint": null}, "class_name": "SeparableConv2D", "inbound_nodes": [[["activation_51", 0, 0, {}]]]}, {"name": "separable_conv_1_normal_left2_4", "config": {"strides": [1, 1], "depthwise_initializer": {"config": {"distribution": "uniform", "mode": "fan_avg", "seed": null, "scale": 1.0}, "class_name": "VarianceScaling"}, "use_bias": false, "trainable": true, "dilation_rate": [1, 1], "activation": "linear", "padding": "same", "pointwise_initializer": {"config": {"distribution": "uniform", "mode": "fan_avg", "seed": null, "scale": 1.0}, "class_name": "VarianceScaling"}, "pointwise_regularizer": null, "name": "separable_conv_1_normal_left2_4", "bias_regularizer": null, "pointwise_constraint": null, "activity_regularizer": null, "depthwise_constraint": null, "data_format": "channels_last", "filters": 32, "depth_multiplier": 1, "kernel_size": [5, 5], "bias_initializer": {"config": {}, "class_name": "Zeros"}, "depthwise_regularizer": null, "bias_constraint": null}, "class_name": "SeparableConv2D", "inbound_nodes": [[["activation_53", 0, 0, {}]]]}, {"name": "separable_conv_1_normal_right2_4", "config": {"strides": [1, 1], "depthwise_initializer": {"config": {"distribution": "uniform", "mode": "fan_avg", "seed": null, "scale": 1.0}, "class_name": "VarianceScaling"}, "use_bias": false, "trainable": true, "dilation_rate": [1, 1], "activation": "linear", "padding": "same", "pointwise_initializer": {"config": {"distribution": "uniform", "mode": "fan_avg", "seed": null, "scale": 1.0}, "class_name": "VarianceScaling"}, "pointwise_regularizer": null, "name": "separable_conv_1_normal_right2_4", "bias_regularizer": null, "pointwise_constraint": null, "activity_regularizer": null, "depthwise_constraint": null, "data_format": "channels_last", "filters": 32, "depth_multiplier": 1, "kernel_size": [3, 3], "bias_initializer": {"config": {}, "class_name": "Zeros"}, "depthwise_regularizer": null, "bias_constraint": null}, "class_name": "SeparableConv2D", "inbound_nodes": [[["activation_55", 0, 0, {}]]]}, {"name": "separable_conv_1_normal_left5_4", "config": {"strides": [1, 1], "depthwise_initializer": {"config": {"distribution": "uniform", "mode": "fan_avg", "seed": null, "scale": 1.0}, "class_name": "VarianceScaling"}, "use_bias": false, "trainable": true, "dilation_rate": [1, 1], "activation": "linear", "padding": "same", "pointwise_initializer": {"config": {"distribution": "uniform", "mode": "fan_avg", "seed": null, "scale": 1.0}, "class_name": "VarianceScaling"}, "pointwise_regularizer": null, "name": "separable_conv_1_normal_left5_4", "bias_regularizer": null, "pointwise_constraint": null, "activity_regularizer": null, "depthwise_constraint": null, "data_format": "channels_last", "filters": 32, "depth_multiplier": 1, "kernel_size": [3, 3], "bias_initializer": {"config": {}, "class_name": "Zeros"}, "depthwise_regularizer": null, "bias_constraint": null}, "class_name": "SeparableConv2D", "inbound_nodes": [[["activation_57", 0, 0, {}]]]}, {"name": "separable_conv_1_bn_normal_left1_4", "config": {"epsilon": 1e-05, "gamma_initializer": {"config": {}, "class_name": "Ones"}, "trainable": true, "gamma_constraint": null, "beta_regularizer": null, "beta_constraint": null, "axis": -1, "scale": true, "moving_mean_initializer": {"config": {}, "class_name": "Zeros"}, "name": "separable_conv_1_bn_normal_left1_4", "gamma_regularizer": null, "beta_initializer": {"config": {}, "class_name": "Zeros"}, "moving_variance_initializer": {"config": {}, "class_name": "Ones"}, "center": true, "momentum": 0.9}, "class_name": "BatchNormalization", "inbound_nodes": [[["separable_conv_1_normal_left1_4", 0, 0, {}]]]}, {"name": "separable_conv_1_bn_normal_right1_4", "config": {"epsilon": 1e-05, "gamma_initializer": {"config": {}, "class_name": "Ones"}, "trainable": true, "gamma_constraint": null, "beta_regularizer": null, "beta_constraint": null, "axis": -1, "scale": true, "moving_mean_initializer": {"config": {}, "class_name": "Zeros"}, "name": "separable_conv_1_bn_normal_right1_4", "gamma_regularizer": null, "beta_initializer": {"config": {}, "class_name": "Zeros"}, "moving_variance_initializer": {"config": {}, "class_name": "Ones"}, "center": true, "momentum": 0.9}, "class_name": "BatchNormalization", "inbound_nodes": [[["separable_conv_1_normal_right1_4", 0, 0, {}]]]}, {"name": "separable_conv_1_bn_normal_left2_4", "config": {"epsilon": 1e-05, "gamma_initializer": {"config": {}, "class_name": "Ones"}, "trainable": true, "gamma_constraint": null, "beta_regularizer": null, "beta_constraint": null, "axis": -1, "scale": true, "moving_mean_initializer": {"config": {}, "class_name": "Zeros"}, "name": "separable_conv_1_bn_normal_left2_4", "gamma_regularizer": null, "beta_initializer": {"config": {}, "class_name": "Zeros"}, "moving_variance_initializer": {"config": {}, "class_name": "Ones"}, "center": true, "momentum": 0.9}, "class_name": "BatchNormalization", "inbound_nodes": [[["separable_conv_1_normal_left2_4", 0, 0, {}]]]}, {"name": "separable_conv_1_bn_normal_right2_4", "config": {"epsilon": 1e-05, "gamma_initializer": {"config": {}, "class_name": "Ones"}, "trainable": true, "gamma_constraint": null, "beta_regularizer": null, "beta_constraint": null, "axis": -1, "scale": true, "moving_mean_initializer": {"config": {}, "class_name": "Zeros"}, "name": "separable_conv_1_bn_normal_right2_4", "gamma_regularizer": null, "beta_initializer": {"config": {}, "class_name": "Zeros"}, "moving_variance_initializer": {"config": {}, "class_name": "Ones"}, "center": true, "momentum": 0.9}, "class_name": "BatchNormalization", "inbound_nodes": [[["separable_conv_1_normal_right2_4", 0, 0, {}]]]}, {"name": "separable_conv_1_bn_normal_left5_4", "config": {"epsilon": 1e-05, "gamma_initializer": {"config": {}, "class_name": "Ones"}, "trainable": true, "gamma_constraint": null, "beta_regularizer": null, "beta_constraint": null, "axis": -1, "scale": true, "moving_mean_initializer": {"config": {}, "class_name": "Zeros"}, "name": "separable_conv_1_bn_normal_left5_4", "gamma_regularizer": null, "beta_initializer": {"config": {}, "class_name": "Zeros"}, "moving_variance_initializer": {"config": {}, "class_name": "Ones"}, "center": true, "momentum": 0.9}, "class_name": "BatchNormalization", "inbound_nodes": [[["separable_conv_1_normal_left5_4", 0, 0, {}]]]}, {"name": "activation_50", "config": {"activation": "relu", "name": "activation_50", "trainable": true}, "class_name": "Activation", "inbound_nodes": [[["separable_conv_1_bn_normal_left1_4", 0, 0, {}]]]}, {"name": "activation_52", "config": {"activation": "relu", "name": "activation_52", "trainable": true}, "class_name": "Activation", "inbound_nodes": [[["separable_conv_1_bn_normal_right1_4", 0, 0, {}]]]}, {"name": "activation_54", "config": {"activation": "relu", "name": "activation_54", "trainable": true}, "class_name": "Activation", "inbound_nodes": [[["separable_conv_1_bn_normal_left2_4", 0, 0, {}]]]}, {"name": "activation_56", "config": {"activation": "relu", "name": "activation_56", "trainable": true}, "class_name": "Activation", "inbound_nodes": [[["separable_conv_1_bn_normal_right2_4", 0, 0, {}]]]}, {"name": "activation_58", "config": {"activation": "relu", "name": "activation_58", "trainable": true}, "class_name": "Activation", "inbound_nodes": [[["separable_conv_1_bn_normal_left5_4", 0, 0, {}]]]}, {"name": "separable_conv_2_normal_left1_4", "config": {"strides": [1, 1], "depthwise_initializer": {"config": {"distribution": "uniform", "mode": "fan_avg", "seed": null, "scale": 1.0}, "class_name": "VarianceScaling"}, "use_bias": false, "trainable": true, "dilation_rate": [1, 1], "activation": "linear", "padding": "same", "pointwise_initializer": {"config": {"distribution": "uniform", "mode": "fan_avg", "seed": null, "scale": 1.0}, "class_name": "VarianceScaling"}, "pointwise_regularizer": null, "name": "separable_conv_2_normal_left1_4", "bias_regularizer": null, "pointwise_constraint": null, "activity_regularizer": null, "depthwise_constraint": null, "data_format": "channels_last", "filters": 32, "depth_multiplier": 1, "kernel_size": [5, 5], "bias_initializer": {"config": {}, "class_name": "Zeros"}, "depthwise_regularizer": null, "bias_constraint": null}, "class_name": "SeparableConv2D", "inbound_nodes": [[["activation_50", 0, 0, {}]]]}, {"name": "separable_conv_2_normal_right1_4", "config": {"strides": [1, 1], "depthwise_initializer": {"config": {"distribution": "uniform", "mode": "fan_avg", "seed": null, "scale": 1.0}, "class_name": "VarianceScaling"}, "use_bias": false, "trainable": true, "dilation_rate": [1, 1], "activation": "linear", "padding": "same", "pointwise_initializer": {"config": {"distribution": "uniform", "mode": "fan_avg", "seed": null, "scale": 1.0}, "class_name": "VarianceScaling"}, "pointwise_regularizer": null, "name": "separable_conv_2_normal_right1_4", "bias_regularizer": null, "pointwise_constraint": null, "activity_regularizer": null, "depthwise_constraint": null, "data_format": "channels_last", "filters": 32, "depth_multiplier": 1, "kernel_size": [3, 3], "bias_initializer": {"config": {}, "class_name": "Zeros"}, "depthwise_regularizer": null, "bias_constraint": null}, "class_name": "SeparableConv2D", "inbound_nodes": [[["activation_52", 0, 0, {}]]]}, {"name": "separable_conv_2_normal_left2_4", "config": {"strides": [1, 1], "depthwise_initializer": {"config": {"distribution": "uniform", "mode": "fan_avg", "seed": null, "scale": 1.0}, "class_name": "VarianceScaling"}, "use_bias": false, "trainable": true, "dilation_rate": [1, 1], "activation": "linear", "padding": "same", "pointwise_initializer": {"config": {"distribution": "uniform", "mode": "fan_avg", "seed": null, "scale": 1.0}, "class_name": "VarianceScaling"}, "pointwise_regularizer": null, "name": "separable_conv_2_normal_left2_4", "bias_regularizer": null, "pointwise_constraint": null, "activity_regularizer": null, "depthwise_constraint": null, "data_format": "channels_last", "filters": 32, "depth_multiplier": 1, "kernel_size": [5, 5], "bias_initializer": {"config": {}, "class_name": "Zeros"}, "depthwise_regularizer": null, "bias_constraint": null}, "class_name": "SeparableConv2D", "inbound_nodes": [[["activation_54", 0, 0, {}]]]}, {"name": "separable_conv_2_normal_right2_4", "config": {"strides": [1, 1], "depthwise_initializer": {"config": {"distribution": "uniform", "mode": "fan_avg", "seed": null, "scale": 1.0}, "class_name": "VarianceScaling"}, "use_bias": false, "trainable": true, "dilation_rate": [1, 1], "activation": "linear", "padding": "same", "pointwise_initializer": {"config": {"distribution": "uniform", "mode": "fan_avg", "seed": null, "scale": 1.0}, "class_name": "VarianceScaling"}, "pointwise_regularizer": null, "name": "separable_conv_2_normal_right2_4", "bias_regularizer": null, "pointwise_constraint": null, "activity_regularizer": null, "depthwise_constraint": null, "data_format": "channels_last", "filters": 32, "depth_multiplier": 1, "kernel_size": [3, 3], "bias_initializer": {"config": {}, "class_name": "Zeros"}, "depthwise_regularizer": null, "bias_constraint": null}, "class_name": "SeparableConv2D", "inbound_nodes": [[["activation_56", 0, 0, {}]]]}, {"name": "separable_conv_2_normal_left5_4", "config": {"strides": [1, 1], "depthwise_initializer": {"config": {"distribution": "uniform", "mode": "fan_avg", "seed": null, "scale": 1.0}, "class_name": "VarianceScaling"}, "use_bias": false, "trainable": true, "dilation_rate": [1, 1], "activation": "linear", "padding": "same", "pointwise_initializer": {"config": {"distribution": "uniform", "mode": "fan_avg", "seed": null, "scale": 1.0}, "class_name": "VarianceScaling"}, "pointwise_regularizer": null, "name": "separable_conv_2_normal_left5_4", "bias_regularizer": null, "pointwise_constraint": null, "activity_regularizer": null, "depthwise_constraint": null, "data_format": "channels_last", "filters": 32, "depth_multiplier": 1, "kernel_size": [3, 3], "bias_initializer": {"config": {}, "class_name": "Zeros"}, "depthwise_regularizer": null, "bias_constraint": null}, "class_name": "SeparableConv2D", "inbound_nodes": [[["activation_58", 0, 0, {}]]]}, {"name": "separable_conv_2_bn_normal_left1_4", "config": {"epsilon": 1e-05, "gamma_initializer": {"config": {}, "class_name": "Ones"}, "trainable": true, "gamma_constraint": null, "beta_regularizer": null, "beta_constraint": null, "axis": -1, "scale": true, "moving_mean_initializer": {"config": {}, "class_name": "Zeros"}, "name": "separable_conv_2_bn_normal_left1_4", "gamma_regularizer": null, "beta_initializer": {"config": {}, "class_name": "Zeros"}, "moving_variance_initializer": {"config": {}, "class_name": "Ones"}, "center": true, "momentum": 0.9}, "class_name": "BatchNormalization", "inbound_nodes": [[["separable_conv_2_normal_left1_4", 0, 0, {}]]]}, {"name": "separable_conv_2_bn_normal_right1_4", "config": {"epsilon": 1e-05, "gamma_initializer": {"config": {}, "class_name": "Ones"}, "trainable": true, "gamma_constraint": null, "beta_regularizer": null, "beta_constraint": null, "axis": -1, "scale": true, "moving_mean_initializer": {"config": {}, "class_name": "Zeros"}, "name": "separable_conv_2_bn_normal_right1_4", "gamma_regularizer": null, "beta_initializer": {"config": {}, "class_name": "Zeros"}, "moving_variance_initializer": {"config": {}, "class_name": "Ones"}, "center": true, "momentum": 0.9}, "class_name": "BatchNormalization", "inbound_nodes": [[["separable_conv_2_normal_right1_4", 0, 0, {}]]]}, {"name": "separable_conv_2_bn_normal_left2_4", "config": {"epsilon": 1e-05, "gamma_initializer": {"config": {}, "class_name": "Ones"}, "trainable": true, "gamma_constraint": null, "beta_regularizer": null, "beta_constraint": null, "axis": -1, "scale": true, "moving_mean_initializer": {"config": {}, "class_name": "Zeros"}, "name": "separable_conv_2_bn_normal_left2_4", "gamma_regularizer": null, "beta_initializer": {"config": {}, "class_name": "Zeros"}, "moving_variance_initializer": {"config": {}, "class_name": "Ones"}, "center": true, "momentum": 0.9}, "class_name": "BatchNormalization", "inbound_nodes": [[["separable_conv_2_normal_left2_4", 0, 0, {}]]]}, {"name": "separable_conv_2_bn_normal_right2_4", "config": {"epsilon": 1e-05, "gamma_initializer": {"config": {}, "class_name": "Ones"}, "trainable": true, "gamma_constraint": null, "beta_regularizer": null, "beta_constraint": null, "axis": -1, "scale": true, "moving_mean_initializer": {"config": {}, "class_name": "Zeros"}, "name": "separable_conv_2_bn_normal_right2_4", "gamma_regularizer": null, "beta_initializer": {"config": {}, "class_name": "Zeros"}, "moving_variance_initializer": {"config": {}, "class_name": "Ones"}, "center": true, "momentum": 0.9}, "class_name": "BatchNormalization", "inbound_nodes": [[["separable_conv_2_normal_right2_4", 0, 0, {}]]]}, {"name": "normal_left3_4", "config": {"strides": [1, 1], "name": "normal_left3_4", "trainable": true, "data_format": "channels_last", "pool_size": [3, 3], "padding": "same"}, "class_name": "AveragePooling2D", "inbound_nodes": [[["normal_bn_1_4", 0, 0, {}]]]}, {"name": "normal_left4_4", "config": {"strides": [1, 1], "name": "normal_left4_4", "trainable": true, "data_format": "channels_last", "pool_size": [3, 3], "padding": "same"}, "class_name": "AveragePooling2D", "inbound_nodes": [[["adjust_bn_4", 0, 0, {}]]]}, {"name": "normal_right4_4", "config": {"strides": [1, 1], "name": "normal_right4_4", "trainable": true, "data_format": "channels_last", "pool_size": [3, 3], "padding": "same"}, "class_name": "AveragePooling2D", "inbound_nodes": [[["adjust_bn_4", 0, 0, {}]]]}, {"name": "separable_conv_2_bn_normal_left5_4", "config": {"epsilon": 1e-05, "gamma_initializer": {"config": {}, "class_name": "Ones"}, "trainable": true, "gamma_constraint": null, "beta_regularizer": null, "beta_constraint": null, "axis": -1, "scale": true, "moving_mean_initializer": {"config": {}, "class_name": "Zeros"}, "name": "separable_conv_2_bn_normal_left5_4", "gamma_regularizer": null, "beta_initializer": {"config": {}, "class_name": "Zeros"}, "moving_variance_initializer": {"config": {}, "class_name": "Ones"}, "center": true, "momentum": 0.9}, "class_name": "BatchNormalization", "inbound_nodes": [[["separable_conv_2_normal_left5_4", 0, 0, {}]]]}, {"name": "normal_add_1_4", "config": {"name": "normal_add_1_4", "trainable": true}, "class_name": "Add", "inbound_nodes": [[["separable_conv_2_bn_normal_left1_4", 0, 0, {}], ["separable_conv_2_bn_normal_right1_4", 0, 0, {}]]]}, {"name": "normal_add_2_4", "config": {"name": "normal_add_2_4", "trainable": true}, "class_name": "Add", "inbound_nodes": [[["separable_conv_2_bn_normal_left2_4", 0, 0, {}], ["separable_conv_2_bn_normal_right2_4", 0, 0, {}]]]}, {"name": "normal_add_3_4", "config": {"name": "normal_add_3_4", "trainable": true}, "class_name": "Add", "inbound_nodes": [[["normal_left3_4", 0, 0, {}], ["adjust_bn_4", 0, 0, {}]]]}, {"name": "normal_add_4_4", "config": {"name": "normal_add_4_4", "trainable": true}, "class_name": "Add", "inbound_nodes": [[["normal_left4_4", 0, 0, {}], ["normal_right4_4", 0, 0, {}]]]}, {"name": "normal_add_5_4", "config": {"name": "normal_add_5_4", "trainable": true}, "class_name": "Add", "inbound_nodes": [[["separable_conv_2_bn_normal_left5_4", 0, 0, {}], ["normal_bn_1_4", 0, 0, {}]]]}, {"name": "normal_concat_4", "config": {"name": "normal_concat_4", "axis": -1, "trainable": true}, "class_name": "Concatenate", "inbound_nodes": [[["adjust_bn_4", 0, 0, {}], ["normal_add_1_4", 0, 0, {}], ["normal_add_2_4", 0, 0, {}], ["normal_add_3_4", 0, 0, {}], ["normal_add_4_4", 0, 0, {}], ["normal_add_5_4", 0, 0, {}]]]}, {"name": "activation_59", "config": {"activation": "relu", "name": "activation_59", "trainable": true}, "class_name": "Activation", "inbound_nodes": [[["normal_concat_3", 0, 0, {}]]]}, {"name": "activation_60", "config": {"activation": "relu", "name": "activation_60", "trainable": true}, "class_name": "Activation", "inbound_nodes": [[["normal_concat_4", 0, 0, {}]]]}, {"name": "adjust_conv_projection_5", "config": {"strides": [1, 1], "bias_regularizer": null, "trainable": true, "activation": "linear", "dilation_rate": [1, 1], "activity_regularizer": null, "padding": "same", "name": "adjust_conv_projection_5", "use_bias": false, "data_format": "channels_last", "filters": 32, "kernel_initializer": {"config": {"distribution": "normal", "mode": "fan_in", "seed": null, "scale": 2.0}, "class_name": "VarianceScaling"}, "kernel_size": [1, 1], "kernel_regularizer": {"config": {"l1": 0.0, "l2": 0.0005000000237487257}, "class_name": "L1L2"}, "bias_initializer": {"config": {}, "class_name": "Zeros"}, "kernel_constraint": null, "bias_constraint": null}, "class_name": "Conv2D", "inbound_nodes": [[["activation_59", 0, 0, {}]]]}, {"name": "normal_conv_1_5", "config": {"strides": [1, 1], "bias_regularizer": null, "trainable": true, "activation": "linear", "dilation_rate": [1, 1], "activity_regularizer": null, "padding": "same", "name": "normal_conv_1_5", "use_bias": false, "data_format": "channels_last", "filters": 32, "kernel_initializer": {"config": {"distribution": "normal", "mode": "fan_in", "seed": null, "scale": 2.0}, "class_name": "VarianceScaling"}, "kernel_size": [1, 1], "kernel_regularizer": {"config": {"l1": 0.0, "l2": 0.0005000000237487257}, "class_name": "L1L2"}, "bias_initializer": {"config": {}, "class_name": "Zeros"}, "kernel_constraint": null, "bias_constraint": null}, "class_name": "Conv2D", "inbound_nodes": [[["activation_60", 0, 0, {}]]]}, {"name": "adjust_bn_5", "config": {"epsilon": 1e-05, "gamma_initializer": {"config": {}, "class_name": "Ones"}, "trainable": true, "gamma_constraint": null, "beta_regularizer": null, "beta_constraint": null, "axis": -1, "scale": true, "moving_mean_initializer": {"config": {}, "class_name": "Zeros"}, "name": "adjust_bn_5", "gamma_regularizer": null, "beta_initializer": {"config": {}, "class_name": "Zeros"}, "moving_variance_initializer": {"config": {}, "class_name": "Ones"}, "center": true, "momentum": 0.9}, "class_name": "BatchNormalization", "inbound_nodes": [[["adjust_conv_projection_5", 0, 0, {}]]]}, {"name": "normal_bn_1_5", "config": {"epsilon": 1e-05, "gamma_initializer": {"config": {}, "class_name": "Ones"}, "trainable": true, "gamma_constraint": null, "beta_regularizer": null, "beta_constraint": null, "axis": -1, "scale": true, "moving_mean_initializer": {"config": {}, "class_name": "Zeros"}, "name": "normal_bn_1_5", "gamma_regularizer": null, "beta_initializer": {"config": {}, "class_name": "Zeros"}, "moving_variance_initializer": {"config": {}, "class_name": "Ones"}, "center": true, "momentum": 0.9}, "class_name": "BatchNormalization", "inbound_nodes": [[["normal_conv_1_5", 0, 0, {}]]]}, {"name": "activation_61", "config": {"activation": "relu", "name": "activation_61", "trainable": true}, "class_name": "Activation", "inbound_nodes": [[["normal_bn_1_5", 0, 0, {}]]]}, {"name": "activation_63", "config": {"activation": "relu", "name": "activation_63", "trainable": true}, "class_name": "Activation", "inbound_nodes": [[["adjust_bn_5", 0, 0, {}]]]}, {"name": "activation_65", "config": {"activation": "relu", "name": "activation_65", "trainable": true}, "class_name": "Activation", "inbound_nodes": [[["adjust_bn_5", 0, 0, {}]]]}, {"name": "activation_67", "config": {"activation": "relu", "name": "activation_67", "trainable": true}, "class_name": "Activation", "inbound_nodes": [[["adjust_bn_5", 0, 0, {}]]]}, {"name": "activation_69", "config": {"activation": "relu", "name": "activation_69", "trainable": true}, "class_name": "Activation", "inbound_nodes": [[["normal_bn_1_5", 0, 0, {}]]]}, {"name": "separable_conv_1_normal_left1_5", "config": {"strides": [1, 1], "depthwise_initializer": {"config": {"distribution": "uniform", "mode": "fan_avg", "seed": null, "scale": 1.0}, "class_name": "VarianceScaling"}, "use_bias": false, "trainable": true, "dilation_rate": [1, 1], "activation": "linear", "padding": "same", "pointwise_initializer": {"config": {"distribution": "uniform", "mode": "fan_avg", "seed": null, "scale": 1.0}, "class_name": "VarianceScaling"}, "pointwise_regularizer": null, "name": "separable_conv_1_normal_left1_5", "bias_regularizer": null, "pointwise_constraint": null, "activity_regularizer": null, "depthwise_constraint": null, "data_format": "channels_last", "filters": 32, "depth_multiplier": 1, "kernel_size": [5, 5], "bias_initializer": {"config": {}, "class_name": "Zeros"}, "depthwise_regularizer": null, "bias_constraint": null}, "class_name": "SeparableConv2D", "inbound_nodes": [[["activation_61", 0, 0, {}]]]}, {"name": "separable_conv_1_normal_right1_5", "config": {"strides": [1, 1], "depthwise_initializer": {"config": {"distribution": "uniform", "mode": "fan_avg", "seed": null, "scale": 1.0}, "class_name": "VarianceScaling"}, "use_bias": false, "trainable": true, "dilation_rate": [1, 1], "activation": "linear", "padding": "same", "pointwise_initializer": {"config": {"distribution": "uniform", "mode": "fan_avg", "seed": null, "scale": 1.0}, "class_name": "VarianceScaling"}, "pointwise_regularizer": null, "name": "separable_conv_1_normal_right1_5", "bias_regularizer": null, "pointwise_constraint": null, "activity_regularizer": null, "depthwise_constraint": null, "data_format": "channels_l…
zer": {"config": {}, "class_name": "Zeros"}, "moving_variance_initializer": {"config": {}, "class_name": "Ones"}, "center": true, "momentum": 0.9}, "class_name": "BatchNormalization", "inbound_nodes": [[["separable_conv_2_normal_left5_16", 0, 0, {}]]]}, {"name": "normal_add_1_16", "config": {"name": "normal_add_1_16", "trainable": true}, "class_name": "Add", "inbound_nodes": [[["separable_conv_2_bn_normal_left1_16", 0, 0, {}], ["separable_conv_2_bn_normal_right1_16", 0, 0, {}]]]}, {"name": "normal_add_2_16", "config": {"name": "normal_add_2_16", "trainable": true}, "class_name": "Add", "inbound_nodes": [[["separable_conv_2_bn_normal_left2_16", 0, 0, {}], ["separable_conv_2_bn_normal_right2_16", 0, 0, {}]]]}, {"name": "normal_add_3_16", "config": {"name": "normal_add_3_16", "trainable": true}, "class_name": "Add", "inbound_nodes": [[["normal_left3_16", 0, 0, {}], ["adjust_bn_16", 0, 0, {}]]]}, {"name": "normal_add_4_16", "config": {"name": "normal_add_4_16", "trainable": true}, "class_name": "Add", "inbound_nodes": [[["normal_left4_16", 0, 0, {}], ["normal_right4_16", 0, 0, {}]]]}, {"name": "normal_add_5_16", "config": {"name": "normal_add_5_16", "trainable": true}, "class_name": "Add", "inbound_nodes": [[["separable_conv_2_bn_normal_left5_16", 0, 0, {}], ["normal_bn_1_16", 0, 0, {}]]]}, {"name": "normal_concat_16", "config": {"name": "normal_concat_16", "axis": -1, "trainable": true}, "class_name": "Concatenate", "inbound_nodes": [[["adjust_bn_16", 0, 0, {}], ["normal_add_1_16", 0, 0, {}], ["normal_add_2_16", 0, 0, {}], ["normal_add_3_16", 0, 0, {}], ["normal_add_4_16", 0, 0, {}], ["normal_add_5_16", 0, 0, {}]]]}, {"name": "activation_213", "config": {"activation": "relu", "name": "activation_213", "trainable": true}, "class_name": "Activation", "inbound_nodes": [[["normal_concat_15", 0, 0, {}]]]}, {"name": "activation_214", "config": {"activation": "relu", "name": "activation_214", "trainable": true}, "class_name": "Activation", "inbound_nodes": [[["normal_concat_16", 0, 0, {}]]]}, {"name": "adjust_conv_projection_17", "config": {"strides": [1, 1], "bias_regularizer": null, "trainable": true, "activation": "linear", "dilation_rate": [1, 1], "activity_regularizer": null, "padding": "same", "name": "adjust_conv_projection_17", "use_bias": false, "data_format": "channels_last", "filters": 128, "kernel_initializer": {"config": {"distribution": "normal", "mode": "fan_in", "seed": null, "scale": 2.0}, "class_name": "VarianceScaling"}, "kernel_size": [1, 1], "kernel_regularizer": {"config": {"l1": 0.0, "l2": 0.0005000000237487257}, "class_name": "L1L2"}, "bias_initializer": {"config": {}, "class_name": "Zeros"}, "kernel_constraint": null, "bias_constraint": null}, "class_name": "Conv2D", "inbound_nodes": [[["activation_213", 0, 0, {}]]]}, {"name": "normal_conv_1_17", "config": {"strides": [1, 1], "bias_regularizer": null, "trainable": true, "activation": "linear", "dilation_rate": [1, 1], "activity_regularizer": null, "padding": "same", "name": "normal_conv_1_17", "use_bias": false, "data_format": "channels_last", "filters": 128, "kernel_initializer": {"config": {"distribution": "normal", "mode": "fan_in", "seed": null, "scale": 2.0}, "class_name": "VarianceScaling"}, "kernel_size": [1, 1], "kernel_regularizer": {"config": {"l1": 0.0, "l2": 0.0005000000237487257}, "class_name": "L1L2"}, "bias_initializer": {"config": {}, "class_name": "Zeros"}, "kernel_constraint": null, "bias_constraint": null}, "class_name": "Conv2D", "inbound_nodes": [[["activation_214", 0, 0, {}]]]}, {"name": "adjust_bn_17", "config": {"epsilon": 1e-05, "gamma_initializer": {"config": {}, "class_name": "Ones"}, "trainable": true, "gamma_constraint": null, "beta_regularizer": null, "beta_constraint": null, "axis": -1, "scale": true, "moving_mean_initializer": {"config": {}, "class_name": "Zeros"}, "name": "adjust_bn_17", "gamma_regularizer": null, "beta_initializer": {"config": {}, "class_name": "Zeros"}, "moving_variance_initializer": {"config": {}, "class_name": "Ones"}, "center": true, "momentum": 0.9}, "class_name": "BatchNormalization", "inbound_nodes": [[["adjust_conv_projection_17", 0, 0, {}]]]}, {"name": "normal_bn_1_17", "config": {"epsilon": 1e-05, "gamma_initializer": {"config": {}, "class_name": "Ones"}, "trainable": true, "gamma_constraint": null, "beta_regularizer": null, "beta_constraint": null, "axis": -1, "scale": true, "moving_mean_initializer": {"config": {}, "class_name": "Zeros"}, "name": "normal_bn_1_17", "gamma_regularizer": null, "beta_initializer": {"config": {}, "class_name": "Zeros"}, "moving_variance_initializer": {"config": {}, "class_name": "Ones"}, "center": true, "momentum": 0.9}, "class_name": "BatchNormalization", "inbound_nodes": [[["normal_conv_1_17", 0, 0, {}]]]}, {"name": "activation_215", "config": {"activation": "relu", "name": "activation_215", "trainable": true}, "class_name": "Activation", "inbound_nodes": [[["normal_bn_1_17", 0, 0, {}]]]}, {"name": "activation_217", "config": {"activation": "relu", "name": "activation_217", "trainable": true}, "class_name": "Activation", "inbound_nodes": [[["adjust_bn_17", 0, 0, {}]]]}, {"name": "activation_219", "config": {"activation": "relu", "name": "activation_219", "trainable": true}, "class_name": "Activation", "inbound_nodes": [[["adjust_bn_17", 0, 0, {}]]]}, {"name": "activation_221", "config": {"activation": "relu", "name": "activation_221", "trainable": true}, "class_name": "Activation", "inbound_nodes": [[["adjust_bn_17", 0, 0, {}]]]}, {"name": "activation_223", "config": {"activation": "relu", "name": "activation_223", "trainable": true}, "class_name": "Activation", "inbound_nodes": [[["normal_bn_1_17", 0, 0, {}]]]}, {"name": "separable_conv_1_normal_left1_17", "config": {"strides": [1, 1], "depthwise_initializer": {"config": {"distribution": "uniform", "mode": "fan_avg", "seed": null, "scale": 1.0}, "class_name": "VarianceScaling"}, "use_bias": false, "trainable": true, "dilation_rate": [1, 1], "activation": "linear", "padding": "same", "pointwise_initializer": {"config": {"distribution": "uniform", "mode": "fan_avg", "seed": null, "scale": 1.0}, "class_name": "VarianceScaling"}, "pointwise_regularizer": null, "name": "separable_conv_1_normal_left1_17", "bias_regularizer": null, "pointwise_constraint": null, "activity_regularizer": null, "depthwise_constraint": null, "data_format": "channels_last", "filters": 128, "depth_multiplier": 1, "kernel_size": [5, 5], "bias_initializer": {"config": {}, "class_name": "Zeros"}, "depthwise_regularizer": null, "bias_constraint": null}, "class_name": "SeparableConv2D", "inbound_nodes": [[["activation_215", 0, 0, {}]]]}, {"name": "separable_conv_1_normal_right1_17", "config": {"strides": [1, 1], "depthwise_initializer": {"config": {"distribution": "uniform", "mode": "fan_avg", "seed": null, "scale": 1.0}, "class_name": "VarianceScaling"}, "use_bias": false, "trainable": true, "dilation_rate": [1, 1], "activation": "linear", "padding": "same", "pointwise_initializer": {"config": {"distribution": "uniform", "mode": "fan_avg", "seed": null, "scale": 1.0}, "class_name": "VarianceScaling"}, "pointwise_regularizer": null, "name": "separable_conv_1_normal_right1_17", "bias_regularizer": null, "pointwise_constraint": null, "activity_regularizer": null, "depthwise_constraint": null, "data_format": "channels_last", "filters": 128, "depth_multiplier": 1, "kernel_size": [3, 3], "bias_initializer": {"config": {}, "class_name": "Zeros"}, "depthwise_regularizer": null, "bias_constraint": null}, "class_name": "SeparableConv2D", "inbound_nodes": [[["activation_217", 0, 0, {}]]]}, {"name": "separable_conv_1_normal_left2_17", "config": {"strides": [1, 1], "depthwise_initializer": {"config": {"distribution": "uniform", "mode": "fan_avg", "seed": null, "scale": 1.0}, "class_name": "VarianceScaling"}, "use_bias": false, "trainable": true, "dilation_rate": [1, 1], "activation": "linear", "padding": "same", "pointwise_initializer": {"config": {"distribution": "uniform", "mode": "fan_avg", "seed": null, "scale": 1.0}, "class_name": "VarianceScaling"}, "pointwise_regularizer": null, "name": "separable_conv_1_normal_left2_17", "bias_regularizer": null, "pointwise_constraint": null, "activity_regularizer": null, "depthwise_constraint": null, "data_format": "channels_last", "filters": 128, "depth_multiplier": 1, "kernel_size": [5, 5], "bias_initializer": {"config": {}, "class_name": "Zeros"}, "depthwise_regularizer": null, "bias_constraint": null}, "class_name": "SeparableConv2D", "inbound_nodes": [[["activation_219", 0, 0, {}]]]}, {"name": "separable_conv_1_normal_right2_17", "config": {"strides": [1, 1], "depthwise_initializer": {"config": {"distribution": "uniform", "mode": "fan_avg", "seed": null, "scale": 1.0}, "class_name": "VarianceScaling"}, "use_bias": false, "trainable": true, "dilation_rate": [1, 1], "activation": "linear", "padding": "same", "pointwise_initializer": {"config": {"distribution": "uniform", "mode": "fan_avg", "seed": null, "scale": 1.0}, "class_name": "VarianceScaling"}, "pointwise_regularizer": null, "name": "separable_conv_1_normal_right2_17", "bias_regularizer": null, "pointwise_constraint": null, "activity_regularizer": null, "depthwise_constraint": null, "data_format": "channels_last", "filters": 128, "depth_multiplier": 1, "kernel_size": [3, 3], "bias_initializer": {"config": {}, "class_name": "Zeros"}, "depthwise_regularizer": null, "bias_constraint": null}, "class_name": "SeparableConv2D", "inbound_nodes": [[["activation_221", 0, 0, {}]]]}, {"name": "separable_conv_1_normal_left5_17", "config": {"strides": [1, 1], "depthwise_initializer": {"config": {"distribution": "uniform", "mode": "fan_avg", "seed": null, "scale": 1.0}, "class_name": "VarianceScaling"}, "use_bias": false, "trainable": true, "dilation_rate": [1, 1], "activation": "linear", "padding": "same", "pointwise_initializer": {"config": {"distribution": "uniform", "mode": "fan_avg", "seed": null, "scale": 1.0}, "class_name": "VarianceScaling"}, "pointwise_regularizer": null, "name": "separable_conv_1_normal_left5_17", "bias_regularizer": null, "pointwise_constraint": null, "activity_regularizer": null, "depthwise_constraint": null, "data_format": "channels_last", "filters": 128, "depth_multiplier": 1, "kernel_size": [3, 3], "bias_initializer": {"config": {}, "class_name": "Zeros"}, "depthwise_regularizer": null, "bias_constraint": null}, "class_name": "SeparableConv2D", "inbound_nodes": [[["activation_223", 0, 0, {}]]]}, {"name": "separable_conv_1_bn_normal_left1_17", "config": {"epsilon": 1e-05, "gamma_initializer": {"config": {}, "class_name": "Ones"}, "trainable": true, "gamma_constraint": null, "beta_regularizer": null, "beta_constraint": null, "axis": -1, "scale": true, "moving_mean_initializer": {"config": {}, "class_name": "Zeros"}, "name": "separable_conv_1_bn_normal_left1_17", "gamma_regularizer": null, "beta_initializer": {"config": {}, "class_name": "Zeros"}, "moving_variance_initializer": {"config": {}, "class_name": "Ones"}, "center": true, "momentum": 0.9}, "class_name": "BatchNormalization", "inbound_nodes": [[["separable_conv_1_normal_left1_17", 0, 0, {}]]]}, {"name": "separable_conv_1_bn_normal_right1_17", "config": {"epsilon": 1e-05, "gamma_initializer": {"config": {}, "class_name": "Ones"}, "trainable": true, "gamma_constraint": null, "beta_regularizer": null, "beta_constraint": null, "axis": -1, "scale": true, "moving_mean_initializer": {"config": {}, "class_name": "Zeros"}, "name": "separable_conv_1_bn_normal_right1_17", "gamma_regularizer": null, "beta_initializer": {"config": {}, "class_name": "Zeros"}, "moving_variance_initializer": {"config": {}, "class_name": "Ones"}, "center": true, "momentum": 0.9}, "class_name": "BatchNormalization", "inbound_nodes": [[["separable_conv_1_normal_right1_17", 0, 0, {}]]]}, {"name": "separable_conv_1_bn_normal_left2_17", "config": {"epsilon": 1e-05, "gamma_initializer": {"config": {}, "class_name": "Ones"}, "trainable": true, "gamma_constraint": null, "beta_regularizer": null, "beta_constraint": null, "axis": -1, "scale": true, "moving_mean_initializer": {"config": {}, "class_name": "Zeros"}, "name": "separable_conv_1_bn_normal_left2_17", "gamma_regularizer": null, "beta_initializer": {"config": {}, "class_name": "Zeros"}, "moving_variance_initializer": {"config": {}, "class_name": "Ones"}, "center": true, "momentum": 0.9}, "class_name": "BatchNormalization", "inbound_nodes": [[["separable_conv_1_normal_left2_17", 0, 0, {}]]]}, {"name": "separable_conv_1_bn_normal_right2_17", "config": {"epsilon": 1e-05, "gamma_initializer": {"config": {}, "class_name": "Ones"}, "trainable": true, "gamma_constraint": null, "beta_regularizer": null, "beta_constraint": null, "axis": -1, "scale": true, "moving_mean_initializer": {"config": {}, "class_name": "Zeros"}, "name": "separable_conv_1_bn_normal_right2_17", "gamma_regularizer": null, "beta_initializer": {"config": {}, "class_name": "Zeros"}, "moving_variance_initializer": {"config": {}, "class_name": "Ones"}, "center": true, "momentum": 0.9}, "class_name": "BatchNormalization", "inbound_nodes": [[["separable_conv_1_normal_right2_17", 0, 0, {}]]]}, {"name": "separable_conv_1_bn_normal_left5_17", "config": {"epsilon": 1e-05, "gamma_initializer": {"config": {}, "class_name": "Ones"}, "trainable": true, "gamma_constraint": null, "beta_regularizer": null, "beta_constraint": null, "axis": -1, "scale": true, "moving_mean_initializer": {"config": {}, "class_name": "Zeros"}, "name": "separable_conv_1_bn_normal_left5_17", "gamma_regularizer": null, "beta_initializer": {"config": {}, "class_name": "Zeros"}, "moving_variance_initializer": {"config": {}, "class_name": "Ones"}, "center": true, "momentum": 0.9}, "class_name": "BatchNormalization", "inbound_nodes": [[["separable_conv_1_normal_left5_17", 0, 0, {}]]]}, {"name": "activation_216", "config": {"activation": "relu", "name": "activation_216", "trainable": true}, "class_name": "Activation", "inbound_nodes": [[["separable_conv_1_bn_normal_left1_17", 0, 0, {}]]]}, {"name": "activation_218", "config": {"activation": "relu", "name": "activation_218", "trainable": true}, "class_name": "Activation", "inbound_nodes": [[["separable_conv_1_bn_normal_right1_17", 0, 0, {}]]]}, {"name": "activation_220", "config": {"activation": "relu", "name": "activation_220", "trainable": true}, "class_name": "Activation", "inbound_nodes": [[["separable_conv_1_bn_normal_left2_17", 0, 0, {}]]]}, {"name": "activation_222", "config": {"activation": "relu", "name": "activation_222", "trainable": true}, "class_name": "Activation", "inbound_nodes": [[["separable_conv_1_bn_normal_right2_17", 0, 0, {}]]]}, {"name": "activation_224", "config": {"activation": "relu", "name": "activation_224", "trainable": true}, "class_name": "Activation", "inbound_nodes": [[["separable_conv_1_bn_normal_left5_17", 0, 0, {}]]]}, {"name": "separable_conv_2_normal_left1_17", "config": {"strides": [1, 1], "depthwise_initializer": {"config": {"distribution": "uniform", "mode": "fan_avg", "seed": null, "scale": 1.0}, "class_name": "VarianceScaling"}, "use_bias": false, "trainable": true, "dilation_rate": [1, 1], "activation": "linear", "padding": "same", "pointwise_initializer": {"config": {"distribution": "uniform", "mode": "fan_avg", "seed": null, "scale": 1.0}, "class_name": "VarianceScaling"}, "pointwise_regularizer": null, "name": "separable_conv_2_normal_left1_17", "bias_regularizer": null, "pointwise_constraint": null, "activity_regularizer": null, "depthwise_constraint": null, "data_format": "channels_last", "filters": 128, "depth_multiplier": 1, "kernel_size": [5, 5], "bias_initializer": {"config": {}, "class_name": "Zeros"}, "depthwise_regularizer": null, "bias_constraint": null}, "class_name": "SeparableConv2D", "inbound_nodes": [[["activation_216", 0, 0, {}]]]}, {"name": "separable_conv_2_normal_right1_17", "config": {"strides": [1, 1], "depthwise_initializer": {"config": {"distribution": "uniform", "mode": "fan_avg", "seed": null, "scale": 1.0}, "class_name": "VarianceScaling"}, "use_bias": false, "trainable": true, "dilation_rate": [1, 1], "activation": "linear", "padding": "same", "pointwise_initializer": {"config": {"distribution": "uniform", "mode": "fan_avg", "seed": null, "scale": 1.0}, "class_name": "VarianceScaling"}, "pointwise_regularizer": null, "name": "separable_conv_2_normal_right1_17", "bias_regularizer": null, "pointwise_constraint": null, "activity_regularizer": null, "depthwise_constraint": null, "data_format": "channels_last", "filters": 128, "depth_multiplier": 1, "kernel_size": [3, 3], "bias_initializer": {"config": {}, "class_name": "Zeros"}, "depthwise_regularizer": null, "bias_constraint": null}, "class_name": "SeparableConv2D", "inbound_nodes": [[["activation_218", 0, 0, {}]]]}, {"name": "separable_conv_2_normal_left2_17", "config": {"strides": [1, 1], "depthwise_initializer": {"config": {"distribution": "uniform", "mode": "fan_avg", "seed": null, "scale": 1.0}, "class_name": "VarianceScaling"}, "use_bias": false, "trainable": true, "dilation_rate": [1, 1], "activation": "linear", "padding": "same", "pointwise_initializer": {"config": {"distribution": "uniform", "mode": "fan_avg", "seed": null, "scale": 1.0}, "class_name": "VarianceScaling"}, "pointwise_regularizer": null, "name": "separable_conv_2_normal_left2_17", "bias_regularizer": null, "pointwise_constraint": null, "activity_regularizer": null, "depthwise_constraint": null, "data_format": "channels_last", "filters": 128, "depth_multiplier": 1, "kernel_size": [5, 5], "bias_initializer": {"config": {}, "class_name": "Zeros"}, "depthwise_regularizer": null, "bias_constraint": null}, "class_name": "SeparableConv2D", "inbound_nodes": [[["activation_220", 0, 0, {}]]]}, {"name": "separable_conv_2_normal_right2_17", "config": {"strides": [1, 1], "depthwise_initializer": {"config": {"distribution": "uniform", "mode": "fan_avg", "seed": null, "scale": 1.0}, "class_name": "VarianceScaling"}, "use_bias": false, "trainable": true, "dilation_rate": [1, 1], "activation": "linear", "padding": "same", "pointwise_initializer": {"config": {"distribution": "uniform", "mode": "fan_avg", "seed": null, "scale": 1.0}, "class_name": "VarianceScaling"}, "pointwise_regularizer": null, "name": "separable_conv_2_normal_right2_17", "bias_regularizer": null, "pointwise_constraint": null, "activity_regularizer": null, "depthwise_constraint": null, "data_format": "channels_last", "filters": 128, "depth_multiplier": 1, "kernel_size": [3, 3], "bias_initializer": {"config": {}, "class_name": "Zeros"}, "depthwise_regularizer": null, "bias_constraint": null}, "class_name": "SeparableConv2D", "inbound_nodes": [[["activation_222", 0, 0, {}]]]}, {"name": "separable_conv_2_normal_left5_17", "config": {"strides": [1, 1], "depthwise_initializer": {"config": {"distribution": "uniform", "mode": "fan_avg", "seed": null, "scale": 1.0}, "class_name": "VarianceScaling"}, "use_bias": false, "trainable": true, "dilation_rate": [1, 1], "activation": "linear", "padding": "same", "pointwise_initializer": {"config": {"distribution": "uniform", "mode": "fan_avg", "seed": null, "scale": 1.0}, "class_name": "VarianceScaling"}, "pointwise_regularizer": null, "name": "separable_conv_2_normal_left5_17", "bias_regularizer": null, "pointwise_constraint": null, "activity_regularizer": null, "depthwise_constraint": null, "data_format": "channels_last", "filters": 128, "depth_multiplier": 1, "kernel_size": [3, 3], "bias_initializer": {"config": {}, "class_name": "Zeros"}, "depthwise_regularizer": null, "bias_constraint": null}, "class_name": "SeparableConv2D", "inbound_nodes": [[["activation_224", 0, 0, {}]]]}, {"name": "separable_conv_2_bn_normal_left1_17", "config": {"epsilon": 1e-05, "gamma_initializer": {"config": {}, "class_name": "Ones"}, "trainable": true, "gamma_constraint": null, "beta_regularizer": null, "beta_constraint": null, "axis": -1, "scale": true, "moving_mean_initializer": {"config": {}, "class_name": "Zeros"}, "name": "separable_conv_2_bn_normal_left1_17", "gamma_regularizer": null, "beta_initializer": {"config": {}, "class_name": "Zeros"}, "moving_variance_initializer": {"config": {}, "class_name": "Ones"}, "center": true, "momentum": 0.9}, "class_name": "BatchNormalization", "inbound_nodes": [[["separable_conv_2_normal_left1_17", 0, 0, {}]]]}, {"name": "separable_conv_2_bn_normal_right1_17", "config": {"epsilon": 1e-05, "gamma_initializer": {"config": {}, "class_name": "Ones"}, "trainable": true, "gamma_constraint": null, "beta_regularizer": null, "beta_constraint": null, "axis": -1, "scale": true, "moving_mean_initializer": {"config": {}, "class_name": "Zeros"}, "name": "separable_conv_2_bn_normal_right1_17", "gamma_regularizer": null, "beta_initializer": {"config": {}, "class_name": "Zeros"}, "moving_variance_initializer": {"config": {}, "class_name": "Ones"}, "center": true, "momentum": 0.9}, "class_name": "BatchNormalization", "inbound_nodes": [[["separable_conv_2_normal_right1_17", 0, 0, {}]]]}, {"name": "separable_conv_2_bn_normal_left2_17", "config": {"epsilon": 1e-05, "gamma_initializer": {"config": {}, "class_name": "Ones"}, "trainable": true, "gamma_constraint": null, "beta_regularizer": null, "beta_constraint": null, "axis": -1, "scale": true, "moving_mean_initializer": {"config": {}, "class_name": "Zeros"}, "name": "separable_conv_2_bn_normal_left2_17", "gamma_regularizer": null, "beta_initializer": {"config": {}, "class_name": "Zeros"}, "moving_variance_initializer": {"config": {}, "class_name": "Ones"}, "center": true, "momentum": 0.9}, "class_name": "BatchNormalization", "inbound_nodes": [[["separable_conv_2_normal_left2_17", 0, 0, {}]]]}, {"name": "separable_conv_2_bn_normal_right2_17", "config": {"epsilon": 1e-05, "gamma_initializer": {"config": {}, "class_name": "Ones"}, "trainable": true, "gamma_constraint": null, "beta_regularizer": null, "beta_constraint": null, "axis": -1, "scale": true, "moving_mean_initializer": {"config": {}, "class_name": "Zeros"}, "name": "separable_conv_2_bn_normal_right2_17", "gamma_regularizer": null, "beta_initializer": {"config": {}, "class_name": "Zeros"}, "moving_variance_initializer": {"config": {}, "class_name": "Ones"}, "center": true, "momentum": 0.9}, "class_name": "BatchNormalization", "inbound_nodes": [[["separable_conv_2_normal_right2_17", 0, 0, {}]]]}, {"name": "normal_left3_17", "config": {"strides": [1, 1], "name": "normal_left3_17", "trainable": true, "data_format": "channels_last", "pool_size": [3, 3], "padding": "same"}, "class_name": "AveragePooling2D", "inbound_nodes": [[["normal_bn_1_17", 0, 0, {}]]]}, {"name": "normal_left4_17", "config": {"strides": [1, 1], "name": "normal_left4_17", "trainable": true, "data_format": "channels_last", "pool_size": [3, 3], "padding": "same"}, "class_name": "AveragePooling2D", "inbound_nodes": [[["adjust_bn_17", 0, 0, {}]]]}, {"name": "normal_right4_17", "config": {"strides": [1, 1], "name": "normal_right4_17", "trainable": true, "data_format": "channels_last", "pool_size": [3, 3], "padding": "same"}, "class_name": "AveragePooling2D", "inbound_nodes": [[["adjust_bn_17", 0, 0, {}]]]}, {"name": "separable_conv_2_bn_normal_left5_17", "config": {"epsilon": 1e-05, "gamma_initializer": {"config": {}, "class_name": "Ones"}, "trainable": true, "gamma_constraint": null, "beta_regularizer": null, "beta_constraint": null, "axis": -1, "scale": true, "moving_mean_initializer": {"config": {}, "class_name": "Zeros"}, "name": "separable_conv_2_bn_normal_left5_17", "gamma_regularizer": null, "beta_initializer": {"config": {}, "class_name": "Zeros"}, "moving_variance_initializer": {"config": {}, "class_name": "Ones"}, "center": true, "momentum": 0.9}, "class_name": "BatchNormalization", "inbound_nodes": [[["separable_conv_2_normal_left5_17", 0, 0, {}]]]}, {"name": "normal_add_1_17", "config": {"name": "normal_add_1_17", "trainable": true}, "class_name": "Add", "inbound_nodes": [[["separable_conv_2_bn_normal_left1_17", 0, 0, {}], ["separable_conv_2_bn_normal_right1_17", 0, 0, {}]]]}, {"name": "normal_add_2_17", "config": {"name": "normal_add_2_17", "trainable": true}, "class_name": "Add", "inbound_nodes": [[["separable_conv_2_bn_normal_left2_17", 0, 0, {}], ["separable_conv_2_bn_normal_right2_17", 0, 0, {}]]]}, {"name": "normal_add_3_17", "config": {"name": "normal_add_3_17", "trainable": true}, "class_name": "Add", "inbound_nodes": [[["normal_left3_17", 0, 0, {}], ["adjust_bn_17", 0, 0, {}]]]}, {"name": "normal_add_4_17", "config": {"name": "normal_add_4_17", "trainable": true}, "class_name": "Add", "inbound_nodes": [[["normal_left4_17", 0, 0, {}], ["normal_right4_17", 0, 0, {}]]]}, {"name": "normal_add_5_17", "config": {"name": "normal_add_5_17", "trainable": true}, "class_name": "Add", "inbound_nodes": [[["separable_conv_2_bn_normal_left5_17", 0, 0, {}], ["normal_bn_1_17", 0, 0, {}]]]}, {"name": "normal_concat_17", "config": {"name": "normal_concat_17", "axis": -1, "trainable": true}, "class_name": "Concatenate", "inbound_nodes": [[["adjust_bn_17", 0, 0, {}], ["normal_add_1_17", 0, 0, {}], ["normal_add_2_17", 0, 0, {}], ["normal_add_3_17", 0, 0, {}], ["normal_add_4_17", 0, 0, {}], ["normal_add_5_17", 0, 0, {}]]]}, {"name": "activation_225", "config": {"activation": "relu", "name": "activation_225", "trainable": true}, "class_name": "Activation", "inbound_nodes": [[["normal_concat_16", 0, 0, {}]]]}, {"name": "activation_226", "config": {"activation": "relu", "name": "activation_226", "trainable": true}, "class_name": "Activation", "inbound_nodes": [[["normal_concat_17", 0, 0, {}]]]}, {"name": "adjust_conv_projection_18", "config": {"strides": [1, 1], "bias_regularizer": null, "trainable": true, "activation": "linear", "dilation_rate": [1, 1], "activity_regularizer": null, "padding": "same", "name": "adjust_conv_projection_18", "use_bias": false, "data_format": "channels_last", "filters": 128, "kernel_initializer": {"config": {"distribution": "normal", "mode": "fan_in", "seed": null, "scale": 2.0}, "class_name": "VarianceScaling"}, "kernel_size": [1, 1], "kernel_regularizer": {"config": {"l1": 0.0, "l2": 0.0005000000237487257}, "class_name": "L1L2"}, "bias_initializer": {"config": {}, "class_name": "Zeros"}, "kernel_constraint": null, "bias_constraint": null}, "class_name": "Conv2D", "inbound_nodes": [[["activation_225", 0, 0, {}]]]}, {"name": "normal_conv_1_18", "config": {"strides": [1, 1], "bias_regularizer": null, "trainable": true, "activation": "linear", "dilation_rate": [1, 1], "activity_regularizer": null, "padding": "same", "name": "normal_conv_1_18", "use_bias": false, "data_format": "channels_last", "filters": 128, "kernel_initializer": {"config": {"distribution": "normal", "mode": "fan_in", "seed": null, "scale": 2.0}, "class_name": "VarianceScaling"}, "kernel_size": [1, 1], "kernel_regularizer": {"config": {"l1": 0.0, "l2": 0.0005000000237487257}, "class_name": "L1L2"}, "bias_initializer": {"config": {}, "class_name": "Zeros"}, "kernel_constraint": null, "bias_constraint": null}, "class_name": "Conv2D", "inbound_nodes": [[["activation_226", 0, 0, {}]]]}, {"name": "adjust_bn_18", "config": {"epsilon": 1e-05, "gamma_initializer": {"config": {}, "class_name": "Ones"}, "trainable": true, "gamma_constraint": null, "beta_regularizer": null, "beta_constraint": null, "axis": -1, "scale": true, "moving_mean_initializer": {"config": {}, "class_name": "Zeros"}, "name": "adjust_bn_18", "gamma_regularizer": null, "beta_initializer": {"config": {}, "class_name": "Zeros"}, "moving_variance_initializer": {"config": {}, "class_name": "Ones"}, "center": true, "momentum": 0.9}, "class_name": "BatchNormalization", "inbound_nodes": [[["adjust_conv_projection_18", 0, 0, {}]]]}, {"name": "normal_bn_1_18", "config": {"epsilon": 1e-05, "gamma_initializer": {"config": {}, "class_name": "Ones"}, "trainable": true, "gamma_constraint": null, "beta_regularizer": null, "beta_constraint": null, "axis": -1, "scale": true, "moving_mean_initializer": {"config": {}, "class_name": "Zeros"}, "name": "normal_bn_1_18", "gamma_regularizer": null, "beta_initializer": {"config": {}, "class_name": "Zeros"}, "moving_variance_initializer": {"config": {}, "class_name": "Ones"}, "center": true, "momentum": 0.9}, "class_name": "BatchNormalization", "inbound_nodes": [[["normal_conv_1_18", 0, 0, {}]]]}, {"name": "activation_227", "config": {"activation": "relu", "name": "activation_227", "trainable": true}, "class_name": "Activation", "inbound_nodes": [[["normal_bn_1_18", 0, 0, {}]]]}, {"name": "activation_229", "config": {"activation": "relu", "name": "activation_229", "trainable": true}, "class_name": "Activation", "inbound_nodes": [[["adjust_bn_18", 0, 0, {}]]]}, {"name": "activation_231", "config": {"activation": "relu", "name": "activation_231", "trainable": true}, "class_name": "Activation", "inbound_nodes": [[["adjust_bn_18", 0, 0, {}]]]}, {"name": "activation_233", "config": {"activation": "relu", "name": "activation_233", "trainable": true}, "class_name": "Activation", "inbound_nodes": [[["adjust_bn_18", 0, 0, {}]]]}, {"name": "activation_235", "config": {"activation": "relu", "name": "activation_235", "trainable": true}, "class_name": "Activation", "inbound_nodes": [[["normal_bn_1_18", 0, 0, {}]]]}, {"name": "separable_conv_1_normal_left1_18", "config": {"strides": [1, 1], "depthwise_initializer": {"config": {"distribution": "uniform", "mode": "fan_avg", "seed": null, "scale": 1.0}, "class_name": "VarianceScaling"}, "use_bias": false, "trainable": true, "dilation_rate": [1, 1], "activation": "linear", "padding": "same", "pointwise_initializer": {"config": {"distribution": "uniform", "mode": "fan_avg", "seed": null, "scale": 1.0}, "class_name": "VarianceScaling"}, "pointwise_regularizer": null, "name": "separable_conv_1_normal_left1_18", "bias_regularizer": null, "pointwise_constraint": null, "activity_regularizer": null, "depthwise_constraint": null, "data_format": "channels_last", "filters": 128, "depth_multiplier": 1, "kernel_size": [5, 5], "bias_initializer": {"config": {}, "class_name": "Zeros"}, "depthwise_regularizer": null, "bias_constraint": null}, "class_name": "SeparableConv2D", "inbound_nodes": [[["activation_227", 0, 0, {}]]]}, {"name": "separable_conv_1_normal_right1_18", "config": {"strides": [1, 1], "depthwise_initializer": {"config": {"distribution": "uniform", "mode": "fan_avg", "seed": null, "scale": 1.0}, "class_name": "VarianceScaling"}, "use_bias": false, "trainable": true, "dilation_rate": [1, 1], "activation": "linear", "padding": "same", "pointwise_initializer": {"config": {"distribution": "uniform", "mode": "fan_avg", "seed": null, "scale": 1.0}, "class_name": "VarianceScaling"}, "pointwise_regularizer": null, "name": "separable_conv_1_normal_right1_18", "bias_regularizer": null, "pointwise_constraint": null, "activity_regularizer": null, "depthwise_constraint": null, "data_format": "channels_last", "filters": 128, "depth_multiplier": 1, "kernel_size": [3, 3], "bias_initializer": {"config": {}, "class_name": "Zeros"}, "depthwise_regularizer": null, "bias_constraint": null}, "class_name": "SeparableConv2D", "inbound_nodes": [[["activation_229", 0, 0, {}]]]}, {"name": "separable_conv_1_normal_left2_18", "config": {"strides": [1, 1], "depthwise_initializer": {"config": {"distribution": "uniform", "mode": "fan_avg", "seed": null, "scale": 1.0}, "class_name": "VarianceScaling"}, "use_bias": false, "trainable": true, "dilation_rate": [1, 1], "activation": "linear", "padding": "same", "pointwise_initializer": {"config": {"distribution": "uniform", "mode": "fan_avg", "seed": null, "scale": 1.0}, "class_name": "VarianceScaling"}, "pointwise_regularizer": null, "name": "separable_conv_1_normal_left2_18", "bias_regularizer": null, "pointwise_constraint": null, "activity_regularizer": null, "depthwise_constraint": null, "data_format": "channels_last", "filters": 128, "depth_multiplier": 1, "kernel_size": [5, 5], "bias_initializer": {"config": {}, "class_name": "Zeros"}, "depthwise_regularizer": null, "bias_constraint": null}, "class_name": "SeparableConv2D", "inbound_nodes": [[["activation_231", 0, 0, {}]]]}, {"name": "separable_conv_1_normal_right2_18", "config": {"strides": [1, 1], "depthwise_initializer": {"config": {"distribution": "uniform", "mode": "fan_avg", "seed": null, "scale": 1.0}, "class_name": "VarianceScaling"}, "use_bias": false, "trainable": true, "dilation_rate": [1, 1], "activation": "linear", "padding": "same", "pointwise_initializer": {"config": {"distribution": "uniform", "mode": "fan_avg", "seed": null, "scale": 1.0}, "class_name": "VarianceScaling"}, "pointwise_regularizer": null, "name": "separable_conv_1_normal_right2_18", "bias_regularizer": null, "pointwise_constraint": null, "activity_regularizer": null, "depthwise_constraint": null, "data_format": "channels_last", "filters": 128, "depth_multiplier": 1, "kernel_size": [3, 3], "bias_initializer": {"config": {}, "class_name": "Zeros"}, "depthwise_regularizer": null, "bias_constraint": null}, "class_name": "SeparableConv2D", "inbound_nodes": [[["activation_233", 0, 0, {}]]]}, {"name": "separable_conv_1_normal_left5_18", "config": {"strides": [1, 1], "depthwise_initializer": {"config": {"distribution": "uniform", "mode": "fan_avg", "seed": null, "scale": 1.0}, "class_name": "VarianceScaling"}, "use_bias": false, "trainable": true, "dilation_rate": [1, 1], "activation": "linear", "padding": "same", "pointwise_initializer": {"config": {"distribution": "uniform", "mode": "fan_avg", "seed": null, "scale": 1.0}, "class_name": "VarianceScaling"}, "pointwise_regularizer": null, "name": "separable_conv_1_normal_left5_18", "bias_regularizer": null, "pointwise_constraint": null, "activity_regularizer": null, "depthwise_constraint": null, "data_format": "channels_last", "filters": 128, "depth_multiplier": 1, "kernel_size": [3, 3], "bias_initializer": {"config": {}, "class_name": "Zeros"}, "depthwise_regularizer": null, "bias_constraint": null}, "class_name": "SeparableConv2D", "inbound_nodes": [[["activation_235", 0, 0, {}]]]}, {"name": "separable_conv_1_bn_normal_left1_18", "config": {"epsilon": 1e-05, "gamma_initializer": {"config": {}, "class_name": "Ones"}, "trainable": true, "gamma_constraint": null, "beta_regularizer": null, "beta_constraint": null, "axis": -1, "scale": true, "moving_mean_initializer": {"config": {}, "class_name": "Zeros"}, "name": "separable_conv_1_bn_normal_left1_18", "gamma_regularizer": null, "beta_initializer": {"config": {}, "class_name": "Zeros"}, "moving_variance_initializer": {"config": {}, "class_name": "Ones"}, "center": true, "momentum": 0.9}, "class_name": "BatchNormalization", "inbound_nodes": [[["separable_conv_1_normal_left1_18", 0, 0, {}]]]}, {"name": "separable_conv_1_bn_normal_right1_18", "config": {"epsilon": 1e-05, "gamma_initializer": {"config": {}, "class_name": "Ones"}, "trainable": true, "gamma_constraint": null, "beta_regularizer": null, "beta_constraint": null, "axis": -1, "scale": true, "moving_mean_initializer": {"config": {}, "class_name": "Zeros"}, "name": "separable_conv_1_bn_normal_right1_18", "gamma_regularizer": null, "beta_initializer": {"config": {}, "class_name": "Zeros"}, "moving_variance_initializer": {"config": {}, "class_name": "Ones"}, "center": true, "momentum": 0.9}, "class_name": "BatchNormalization", "inbound_nodes": [[["separable_conv_1_normal_right1_18", 0, 0, {}]]]}, {"name": "separable_conv_1_bn_normal_left2_18", "config": {"epsilon": 1e-05, "gamma_initializer": {"config": {}, "class_name": "Ones"}, "trainable": true, "gamma_constraint": null, "beta_regularizer": null, "beta_constraint": null, "axis": -1, "scale": true, "moving_mean_initializer": {"config": {}, "class_name": "Zeros"}, "name": "separable_conv_1_bn_normal_left2_18", "gamma_regularizer": null, "beta_initializer": {"config": {}, "class_name": "Zeros"}, "moving_variance_initializer": {"config": {}, "class_name": "Ones"}, "center": true, "momentum": 0.9}, "class_name": "BatchNormalization", "inbound_nodes": [[["separable_conv_1_normal_left2_18", 0, 0, {}]]]}, {"name": "separable_conv_1_bn_normal_right2_18", "config": {"epsilon": 1e-05, "gamma_initializer": {"config": {}, "class_name": "Ones"}, "trainable": true, "gamma_constraint": null, "beta_regularizer": null, "beta_constraint": null, "axis": -1, "scale": true, "moving_mean_initializer": {"config": {}, "class_name": "Zeros"}, "name": "separable_conv_1_bn_normal_right2_18", "gamma_regularizer": null, "beta_initializer": {"config": {}, "class_name": "Zeros"}, "moving_variance_initializer": {"config": {}, "class_name": "Ones"}, "center": true, "momentum": 0.9}, "class_name": "BatchNormalization", "inbound_nodes": [[["separable_conv_1_normal_right2_18", 0, 0, {}]]]}, {"name": "separable_conv_1_bn_normal_left5_18", "config": {"epsilon": 1e-05, "gamma_initializer": {"config": {}, "class_name": "Ones"}, "trainable": true, "gamma_constraint": null, "beta_regularizer": null, "beta_constraint": null, "axis": -1, "scale": true, "moving_mean_initializer": {"config": {}, "class_name": "Zeros"}, "name": "separable_conv_1_bn_normal_left5_18", "gamma_regularizer": null, "beta_initializer": {"config": {}, "class_name": "Zeros"}, "moving_variance_initializer": {"config": {}, "class_name": "Ones"}, "center": true, "momentum": 0.9}, "class_name": "BatchNormalization", "inbound_nodes": [[["separable_conv_1_normal_left5_18", 0, 0, {}]]]}, {"name": "activation_228", "config": {"activation": "relu", "name": "activation_228", "trainable": true}, "class_name": "Activation", "inbound_nodes": [[["separable_conv_1_bn_normal_left1_18", 0, 0, {}]]]}, {"name": "activation_230", "config": {"activation": "relu", "name": "activation_230", "trainable": true}, "class_name": "Activation", "inbound_nodes": [[["separable_conv_1_bn_normal_right1_18", 0, 0, {}]]]}, {"name": "activation_232", "config": {"activation": "relu", "name": "activation_232", "trainable": true}, "class_name": "Activation", "inbound_nodes": [[["separable_conv_1_bn_normal_left2_18", 0, 0, {}]]]}, {"name": "activation_234", "config": {"activation": "relu", "name": "activation_234", "trainable": true}, "class_name": "Activation", "inbound_nodes": [[["separable_conv_1_bn_normal_right2_18", 0, 0, {}]]]}, {"name": "activation_236", "config": {"activation": "relu", "name": "activation_236", "trainable": true}, "class_name": "Activation", "inbound_nodes": [[["separable_conv_1_bn_normal_left5_18", 0, 0, {}]]]}, {"name": "separable_conv_2_normal_left1_18", "config": {"strides": [1, 1], "depthwise_initializer": {"config": {"distribution": "uniform", "mode": "fan_avg", "seed": null, "scale": 1.0}, "class_name": "VarianceScaling"}, "use_bias": false, "trainable": true, "dilation_rate": [1, 1], "activation": "linear", "padding": "same", "pointwise_initializer": {"config": {"distribution": "uniform", "mode": "fan_avg", "seed": null, "scale": 1.0}, "class_name": "VarianceScaling"}, "pointwise_regularizer": null, "name": "separable_conv_2_normal_left1_18", "bias_regularizer": null, "pointwise_constraint": null, "activity_regularizer": null, "depthwise_constraint": null, "data_format": "channels_last", "filters": 128, "depth_multiplier": 1, "kernel_size": [5, 5], "bias_initializer": {"config": {}, "class_name": "Zeros"}, "depthwise_regularizer": null, "bias_constraint": null}, "class_name": "SeparableConv2D", "inbound_nodes": [[["activation_228", 0, 0, {}]]]}, {"name": "separable_conv_2_normal_right1_18", "config": {"strides": [1, 1], "depthwise_initializer": {"config": {"distribution": "uniform", "mode": "fan_avg", "seed": null, "scale": 1.0}, "class_name": "VarianceScaling"}, "use_bias": false, "trainable": true, "dilation_rate": [1, 1], "activation": "linear", "padding": "same", "pointwise_initializer": {"config": {"distribution": "uniform", "mode": "fan_avg", "seed": null, "scale": 1.0}, "class_name": "VarianceScaling"}, "pointwise_regularizer": null, "name": "separable_conv_2_normal_right1_18", "bias_regularizer": null, "pointwise_constraint": null, "activity_regularizer": null, "depthwise_constraint": null, "data_format": "channels_last", "filters": 128, "depth_multiplier": 1, "kernel_size": [3, 3], "bias_initializer": {"config": {}, "class_name": "Zeros"}, "depthwise_regularizer": null, "bias_constraint": null}, "class_name": "SeparableConv2D", "inbound_nodes": [[["activation_230", 0, 0, {}]]]}, {"name": "separable_conv_2_normal_left2_18", "config": {"strides": [1, 1], "depthwise_initializer": {"config": {"distribution": "uniform", "mode": "fan_avg", "seed": null, "scale": 1.0}, "class_name": "VarianceScaling"}, "use_bias": false, "trainable": true, "dilation_rate": [1, 1], "activation": "linear", "padding": "same", "pointwise_initializer": {"config": {"distribution": "uniform", "mode": "fan_avg", "seed": null, "scale": 1.0}, "class_name": "VarianceScaling"}, "pointwise_regularizer": null, "name": "separable_conv_2_normal_left2_18", "bias_regularizer": null, "pointwise_constraint": null, "activity_regularizer": null, "depthwise_constraint": null, "data_format": "channels_last", "filters": 128, "depth_multiplier": 1, "kernel_size": [5, 5], "bias_initializer": {"config": {}, "class_name": "Zeros"}, "depthwise_regularizer": null, "bias_constraint": null}, "class_name": "SeparableConv2D", "inbound_nodes": [[["activation_232", 0, 0, {}]]]}, {"name": "separable_conv_2_normal_right2_18", "config": {"strides": [1, 1], "depthwise_initializer": {"config": {"distribution": "uniform", "mode": "fan_avg", "seed": null, "scale": 1.0}, "class_name": "VarianceScaling"}, "use_bias": false, "trainable": true, "dilation_rate": [1, 1], "activation": "linear", "padding": "same", "pointwise_initializer": {"config": {"distribution": "uniform", "mode": "fan_avg", "seed": null, "scale": 1.0}, "class_name": "VarianceScaling"}, "pointwise_regularizer": null, "name": "separable_conv_2_normal_right2_18", "bias_regularizer": null, "pointwise_constraint": null, "activity_regularizer": null, "depthwise_constraint": null, "data_format": "channels_last", "filters": 128, "depth_multiplier": 1, "kernel_size": [3, 3], "bias_initializer": {"config": {}, "class_name": "Zeros"}, "depthwise_regularizer": null, "bias_constraint": null}, "class_name": "SeparableConv2D", "inbound_nodes": [[["activation_234", 0, 0, {}]]]}, {"name": "separable_conv_2_normal_left5_18", "config": {"strides": [1, 1], "depthwise_initializer": {"config": {"distribution": "uniform", "mode": "fan_avg", "seed": null, "scale": 1.0}, "class_name": "VarianceScaling"}, "use_bias": false, "trainable": true, "dilation_rate": [1, 1], "activation": "linear", "padding": "same", "pointwise_initializer": {"config": {"distribution": "uniform", "mode": "fan_avg", "seed": null, "scale": 1.0}, "class_name": "VarianceScaling"}, "pointwise_regularizer": null, "name": "separable_conv_2_normal_left5_18", "bias_regularizer": null, "pointwise_constraint": null, "activity_regularizer": null, "depthwise_constraint": null, "data_format": "channels_last", "filters": 128, "depth_multiplier": 1, "kernel_size": [3, 3], "bias_initializer": {"config": {}, "class_name": "Zeros"}, "depthwise_regularizer": null, "bias_constraint": null}, "class_name": "SeparableConv2D", "inbound_nodes": [[["activation_236", 0, 0, {}]]]}, {"name": "separable_conv_2_bn_normal_left1_18", "config": {"epsilon": 1e-05, "gamma_initializer": {"config": {}, "class_name": "Ones"}, "trainable": true, "gamma_constraint": null, "beta_regularizer": null, "beta_constraint": null, "axis": -1, "scale": true, "moving_mean_initializer": {"config": {}, "class_name": "Zeros"}, "name": "separable_conv_2_bn_normal_left1_18", "gamma_regularizer": null, "beta_initializer": {"config": {}, "class_name": "Zeros"}, "moving_variance_initializer": {"config": {}, "class_name": "Ones"}, "center": true, "momentum": 0.9}, "class_name": "BatchNormalization", "inbound_nodes": [[["separable_conv_2_normal_left1_18", 0, 0, {}]]]}, {"name": "separable_conv_2_bn_normal_right1_18", "config": {"epsilon": 1e-05, "gamma_initializer": {"config": {}, "class_name": "Ones"}, "trainable": true, "gamma_constraint": null, "beta_regularizer": null, "beta_constraint": null, "axis": -1, "scale": true, "moving_mean_initializer": {"config": {}, "class_name": "Zeros"}, "name": "separable_conv_2_bn_normal_right1_18", "gamma_regularizer": null, "beta_initializer": {"config": {}, "class_name": "Zeros"}, "moving_variance_initializer": {"config": {}, "class_name": "Ones"}, "center": true, "momentum": 0.9}, "class_name": "BatchNormalization", "inbound_nodes": [[["separable_conv_2_normal_right1_18", 0, 0, {}]]]}, {"name": "separable_conv_2_bn_normal_left2_18", "config": {"epsilon": 1e-05, "gamma_initializer": {"config": {}, "class_name": "Ones"}, "trainable": true, "gamma_constraint": null, "beta_regularizer": null, "beta_constraint": null, "axis": -1, "scale": true, "moving_mean_initializer": {"config": {}, "class_name": "Zeros"}, "name": "separable_conv_2_bn_normal_left2_18", "gamma_regularizer": null, "beta_initializer": {"config": {}, "class_name": "Zeros"}, "moving_variance_initializer": {"config": {}, "class_name": "Ones"}, "center": true, "momentum": 0.9}, "class_name": "BatchNormalization", "inbound_nodes": [[["separable_conv_2_normal_left2_18", 0, 0, {}]]]}, {"name": "separable_conv_2_bn_normal_right2_18", "config": {"epsilon": 1e-05, "gamma_initializer": {"config": {}, "class_name": "Ones"}, "trainable": true, "gamma_constraint": null, "beta_regularizer": null, "beta_constraint": null, "axis": -1, "scale": true, "moving_mean_initializer": {"config": {}, "class_name": "Zeros"}, "name": "separable_conv_2_bn_normal_right2_18", "gamma_regularizer": null, "beta_initializer": {"config": {}, "class_name": "Zeros"}, "moving_variance_initializer": {"config": {}, "class_name": "Ones"}, "center": true, "momentum": 0.9}, "class_name": "BatchNormalization", "inbound_nodes": [[["separable_conv_2_normal_right2_18", 0, 0, {}]]]}, {"name": "normal_left3_18", "config": {"strides": [1, 1], "name": "normal_left3_18", "trainable": true, "data_format": "channels_last", "pool_size": [3, 3], "padding": "same"}, "class_name": "AveragePooling2D", "inbound_nodes": [[["normal_bn_1_18", 0, 0, {}]]]}, {"name": "normal_left4_18", "config": {"strides": [1, 1], "name": "normal_left4_18", "trainable": true, "data_format": "channels_last", "pool_size": [3, 3], "padding": "same"}, "class_name": "AveragePooling2D", "inbound_nodes": [[["adjust_bn_18", 0, 0, {}]]]}, {"name": "normal_right4_18", "config": {"strides": [1, 1], "name": "normal_right4_18", "trainable": true, "data_format": "channels_last", "pool_size": [3, 3], "padding": "same"}, "class_name": "AveragePooling2D", "inbound_nodes": [[["adjust_bn_18", 0, 0, {}]]]}, {"name": "separable_conv_2_bn_normal_left5_18", "config": {"epsilon": 1e-05, "gamma_initializer": {"config": {}, "class_name": "Ones"}, "trainable": true, "gamma_constraint": null, "beta_regularizer": null, "beta_constraint": null, "axis": -1, "scale": true, "moving_mean_initializer": {"config": {}, "class_name": "Zeros"}, "name": "separable_conv_2_bn_normal_left5_18", "gamma_regularizer": null, "beta_initializer": {"config": {}, "class_name": "Zeros"}, "moving_variance_initializer": {"config": {}, "class_name": "Ones"}, "center": true, "momentum": 0.9}, "class_name": "BatchNormalization", "inbound_nodes": [[["separable_conv_2_normal_left5_18", 0, 0, {}]]]}, {"name": "normal_add_1_18", "config": {"name": "normal_add_1_18", "trainable": true}, "class_name": "Add", "inbound_nodes": [[["separable_conv_2_bn_normal_left1_18", 0, 0, {}], ["separable_conv_2_bn_normal_right1_18", 0, 0, {}]]]}, {"name": "normal_add_2_18", "config": {"name": "normal_add_2_18", "trainable": true}, "class_name": "Add", "inbound_nodes": [[["separable_conv_2_bn_normal_left2_18", 0, 0, {}], ["separable_conv_2_bn_normal_right2_18", 0, 0, {}]]]}, {"name": "normal_add_3_18", "config": {"name": "normal_add_3_18", "trainable": true}, "class_name": "Add", "inbound_nodes": [[["normal_left3_18", 0, 0, {}], ["adjust_bn_18", 0, 0, {}]]]}, {"name": "normal_add_4_18", "config": {"name": "normal_add_4_18", "trainable": true}, "class_name": "Add", "inbound_nodes": [[["normal_left4_18", 0, 0, {}], ["normal_right4_18", 0, 0, {}]]]}, {"name": "normal_add_5_18", "config": {"name": "normal_add_5_18", "trainable": true}, "class_name": "Add", "inbound_nodes": [[["separable_conv_2_bn_normal_left5_18", 0, 0, {}], ["normal_bn_1_18", 0, 0, {}]]]}, {"name": "normal_concat_18", "config": {"name": "normal_concat_18", "axis": -1, "trainable": true}, "class_name": "Concatenate", "inbound_nodes": [[["adjust_bn_18", 0, 0, {}], ["normal_add_1_18", 0, 0, {}], ["normal_add_2_18", 0, 0, {}], ["normal_add_3_18", 0, 0, {}], ["normal_add_4_18", 0, 0, {}], ["normal_add_5_18", 0, 0, {}]]]}, {"name": "activation_237", "config": {"activation": "relu", "name": "activation_237", "trainable": true}, "class_name": "Activation", "inbound_nodes": [[["normal_concat_18", 0, 0, {}]]]}, {"name": "global_average_pooling2d_1", "config": {"name": "global_average_pooling2d_1", "trainable": true, "data_format": "channels_last"}, "class_name": "GlobalAveragePooling2D", "inbound_nodes": [[["activation_237", 0, 0, {}]]]}, {"name": "dropout_1", "config": {"name": "dropout_1", "seed": null, "noise_shape": null, "trainable": true, "rate": 0.0}, "class_name": "Dropout", "inbound_nodes": [[["global_average_pooling2d_1", 0, 0, {}]]]}, {"name": "predictions", "config": {"use_bias": true, "units": 10, "trainable": true, "activation": "softmax", "activity_regularizer": null, "kernel_regularizer": {"config": {"l1": 0.0, "l2": 0.0005000000237487257}, "class_name": "L1L2"}, "name": "predictions", "bias_regularizer": null, "kernel_initializer": {"config": {"distribution": "uniform", "mode": "fan_avg", "seed": null, "scale": 1.0}, "class_name": "VarianceScaling"}, "kernel_constraint": null, "bias_initializer": {"config": {}, "class_name": "Zeros"}, "bias_constraint": null}, "class_name": "Dense", "inbound_nodes": [[["dropout_1", 0, 0, {}]]]}], "input_layers": [["input_1", 0, 0]]}, "class_name": "Model"}