{"config": {"name": "model_1", "input_layers": [["input_1", 0, 0]], "layers": [{"name": "input_1", "config": {"name": "input_1", "batch_input_shape": [null, 32, 32, 3], "sparse": false, "dtype": "float32"}, "class_name": "InputLayer", "inbound_nodes": []}, {"name": "conv2d_1", "config": {"kernel_initializer": {"config": {"mode": "fan_in", "seed": null, "distribution": "normal", "scale": 2.0}, "class_name": "VarianceScaling"}, "kernel_regularizer": {"config": {"l2": 9.999999747378752e-05, "l1": 0.0}, "class_name": "L1L2"}, "name": "conv2d_1", "bias_constraint": null, "use_bias": true, "activation": "linear", "bias_regularizer": null, "strides": [1, 1], "filters": 16, "kernel_constraint": null, "dilation_rate": [1, 1], "kernel_size": [3, 3], "bias_initializer": {"config": {}, "class_name": "Zeros"}, "trainable": true, "padding": "same", "data_format": "channels_last", "activity_regularizer": null}, "class_name": "Conv2D", "inbound_nodes": [[["input_1", 0, 0, {}]]]}, {"name": "batch_normalization_1", "config": {"beta_initializer": {"config": {}, "class_name": "Zeros"}, "moving_mean_initializer": {"config": {}, "class_name": "Zeros"}, "beta_constraint": null, "gamma_constraint": null, "name": "batch_normalization_1", "gamma_regularizer": null, "axis": -1, "moving_variance_initializer": {"config": {}, "class_name": "Ones"}, "epsilon": 0.001, "momentum": 0.99, "scale": true, "trainable": true, "gamma_initializer": {"config": {}, "class_name": "Ones"}, "center": true, "beta_regularizer": null}, "class_name": "BatchNormalization", "inbound_nodes": [[["conv2d_1", 0, 0, {}]]]}, {"name": "activation_1", "config": {"name": "activation_1", "trainable": true, "activation": "relu"}, "class_name": "Activation", "inbound_nodes": [[["batch_normalization_1", 0, 0, {}]]]}, {"name": "conv2d_2", "config": {"kernel_initializer": {"config": {"mode": "fan_in", "seed": null, "distribution": "normal", "scale": 2.0}, "class_name": "VarianceScaling"}, "kernel_regularizer": {"config": {"l2": 9.999999747378752e-05, "l1": 0.0}, "class_name": "L1L2"}, "name": "conv2d_2", "bias_constraint": null, "use_bias": true, "activation": "linear", "bias_regularizer": null, "strides": [1, 1], "filters": 16, "kernel_constraint": null, "dilation_rate": [1, 1], "kernel_size": [3, 3], "bias_initializer": {"config": {}, "class_name": "Zeros"}, "trainable": true, "padding": "same", "data_format": "channels_last", "activity_regularizer": null}, "class_name": "Conv2D", "inbound_nodes": [[["activation_1", 0, 0, {}]]]}, {"name": "batch_normalization_2", "config": {"beta_initializer": {"config": {}, "class_name": "Zeros"}, "moving_mean_initializer": {"config": {}, "class_name": "Zeros"}, "beta_constraint": null, "gamma_constraint": null, "name": "batch_normalization_2", "gamma_regularizer": null, "axis": -1, "moving_variance_initializer": {"config": {}, "class_name": "Ones"}, "epsilon": 0.001, "momentum": 0.99, "scale": true, "trainable": true, "gamma_initializer": {"config": {}, "class_name": "Ones"}, "center": true, "beta_regularizer": null}, "class_name": "BatchNormalization", "inbound_nodes": [[["conv2d_2", 0, 0, {}]]]}, {"name": "activation_2", "config": {"name": "activation_2", "trainable": true, "activation": "relu"}, "class_name": "Activation", "inbound_nodes": [[["batch_normalization_2", 0, 0, {}]]]}, {"name": "conv2d_3", "config": {"kernel_initializer": {"config": {"mode": "fan_in", "seed": null, "distribution": "normal", "scale": 2.0}, "class_name": "VarianceScaling"}, "kernel_regularizer": {"config": {"l2": 9.999999747378752e-05, "l1": 0.0}, "class_name": "L1L2"}, "name": "conv2d_3", "bias_constraint": null, "use_bias": true, "activation": "linear", "bias_regularizer": null, "strides": [1, 1], "filters": 16, "kernel_constraint": null, "dilation_rate": [1, 1], "kernel_size": [3, 3], "bias_initializer": {"config": {}, "class_name": "Zeros"}, "trainable": true, "padding": "same", "data_format": "channels_last", "activity_regularizer": null}, "class_name": "Conv2D", "inbound_nodes": [[["activation_2", 0, 0, {}]]]}, {"name": "batch_normalization_3", "config": {"beta_initializer": {"config": {}, "class_name": "Zeros"}, "moving_mean_initializer": {"config": {}, "class_name": "Zeros"}, "beta_constraint": null, "gamma_constraint": null, "name": "batch_normalization_3", "gamma_regularizer": null, "axis": -1, "moving_variance_initializer": {"config": {}, "class_name": "Ones"}, "epsilon": 0.001, "momentum": 0.99, "scale": true, "trainable": true, "gamma_initializer": {"config": {}, "class_name": "Ones"}, "center": true, "beta_regularizer": null}, "class_name": "BatchNormalization", "inbound_nodes": [[["conv2d_3", 0, 0, {}]]]}, {"name": "add_1", "config": {"name": "add_1", "trainable": true}, "class_name": "Add", "inbound_nodes": [[["activation_1", 0, 0, {}], ["batch_normalization_3", 0, 0, {}]]]}, {"name": "activation_3", "config": {"name": "activation_3", "trainable": true, "activation": "relu"}, "class_name": "Activation", "inbound_nodes": [[["add_1", 0, 0, {}]]]}, {"name": "conv2d_4", "config": {"kernel_initializer": {"config": {"mode": "fan_in", "seed": null, "distribution": "normal", "scale": 2.0}, "class_name": "VarianceScaling"}, "kernel_regularizer": {"config": {"l2": 9.999999747378752e-05, "l1": 0.0}, "class_name": "L1L2"}, "name": "conv2d_4", "bias_constraint": null, "use_bias": true, "activation": "linear", "bias_regularizer": null, "strides": [1, 1], "filters": 16, "kernel_constraint": null, "dilation_rate": [1, 1], "kernel_size": [3, 3], "bias_initializer": {"config": {}, "class_name": "Zeros"}, "trainable": true, "padding": "same", "data_format": "channels_last", "activity_regularizer": null}, "class_name": "Conv2D", "inbound_nodes": [[["activation_3", 0, 0, {}]]]}, {"name": "batch_normalization_4", "config": {"beta_initializer": {"config": {}, "class_name": "Zeros"}, "moving_mean_initializer": {"config": {}, "class_name": "Zeros"}, "beta_constraint": null, "gamma_constraint": null, "name": "batch_normalization_4", "gamma_regularizer": null, "axis": -1, "moving_variance_initializer": {"config": {}, "class_name": "Ones"}, "epsilon": 0.001, "momentum": 0.99, "scale": true, "trainable": true, "gamma_initializer": {"config": {}, "class_name": "Ones"}, "center": true, "beta_regularizer": null}, "class_name": "BatchNormalization", "inbound_nodes": [[["conv2d_4", 0, 0, {}]]]}, {"name": "activation_4", "config": {"name": "activation_4", "trainable": true, "activation": "relu"}, "class_name": "Activation", "inbound_nodes": [[["batch_normalization_4", 0, 0, {}]]]}, {"name": "conv2d_5", "config": {"kernel_initializer": {"config": {"mode": "fan_in", "seed": null, "distribution": "normal", "scale": 2.0}, "class_name": "VarianceScaling"}, "kernel_regularizer": {"config": {"l2": 9.999999747378752e-05, "l1": 0.0}, "class_name": "L1L2"}, "name": "conv2d_5", "bias_constraint": null, "use_bias": true, "activation": "linear", "bias_regularizer": null, "strides": [1, 1], "filters": 16, "kernel_constraint": null, "dilation_rate": [1, 1], "kernel_size": [3, 3], "bias_initializer": {"config": {}, "class_name": "Zeros"}, "trainable": true, "padding": "same", "data_format": "channels_last", "activity_regularizer": null}, "class_name": "Conv2D", "inbound_nodes": [[["activation_4", 0, 0, {}]]]}, {"name": "batch_normalization_5", "config": {"beta_initializer": {"config": {}, "class_name": "Zeros"}, "moving_mean_initializer": {"config": {}, "class_name": "Zeros"}, "beta_constraint": null, "gamma_constraint": null, "name": "batch_normalization_5", "gamma_regularizer": null, "axis": -1, "moving_variance_initializer": {"config": {}, "class_name": "Ones"}, "epsilon": 0.001, "momentum": 0.99, "scale": true, "trainable": true, "gamma_initializer": {"config": {}, "class_name": "Ones"}, "center": true, "beta_regularizer": null}, "class_name": "BatchNormalization", "inbound_nodes": [[["conv2d_5", 0, 0, {}]]]}, {"name": "add_2", "config": {"name": "add_2", "trainable": true}, "class_name": "Add", "inbound_nodes": [[["activation_3", 0, 0, {}], ["batch_normalization_5", 0, 0, {}]]]}, {"name": "activation_5", "config": {"name": "activation_5", "trainable": true, "activation": "relu"}, "class_name": "Activation", "inbound_nodes": [[["add_2", 0, 0, {}]]]}, {"name": "conv2d_6", "config": {"kernel_initializer": {"config": {"mode": "fan_in", "seed": null, "distribution": "normal", "scale": 2.0}, "class_name": "VarianceScaling"}, "kernel_regularizer": {"config": {"l2": 9.999999747378752e-05, "l1": 0.0}, "class_name": "L1L2"}, "name": "conv2d_6", "bias_constraint": null, "use_bias": true, "activation": "linear", "bias_regularizer": null, "strides": [1, 1], "filters": 16, "kernel_constraint": null, "dilation_rate": [1, 1], "kernel_size": [3, 3], "bias_initializer": {"config": {}, "class_name": "Zeros"}, "trainable": true, "padding": "same", "data_format": "channels_last", "activity_regularizer": null}, "class_name": "Conv2D", "inbound_nodes": [[["activation_5", 0, 0, {}]]]}, {"name": "batch_normalization_6", "config": {"beta_initializer": {"config": {}, "class_name": "Zeros"}, "moving_mean_initializer": {"config": {}, "class_name": "Zeros"}, "beta_constraint": null, "gamma_constraint": null, "name": "batch_normalization_6", "gamma_regularizer": null, "axis": -1, "moving_variance_initializer": {"config": {}, "class_name": "Ones"}, "epsilon": 0.001, "momentum": 0.99, "scale": true, "trainable": true, "gamma_initializer": {"config": {}, "class_name": "Ones"}, "center": true, "beta_regularizer": null}, "class_name": "BatchNormalization", "inbound_nodes": [[["conv2d_6", 0, 0, {}]]]}, {"name": "activation_6", "config": {"name": "activation_6", "trainable": true, "activation": "relu"}, "class_name": "Activation", "inbound_nodes": [[["batch_normalization_6", 0, 0, {}]]]}, {"name": "conv2d_7", "config": {"kernel_initializer": {"config": {"mode": "fan_in", "seed": null, "distribution": "normal", "scale": 2.0}, "class_name": "VarianceScaling"}, "kernel_regularizer": {"config": {"l2": 9.999999747378752e-05, "l1": 0.0}, "class_name": "L1L2"}, "name": "conv2d_7", "bias_constraint": null, "use_bias": true, "activation": "linear", "bias_regularizer": null, "strides": [1, 1], "filters": 16, "kernel_constraint": null, "dilation_rate": [1, 1], "kernel_size": [3, 3], "bias_initializer": {"config": {}, "class_name": "Zeros"}, "trainable": true, "padding": "same", "data_format": "channels_last", "activity_regularizer": null}, "class_name": "Conv2D", "inbound_nodes": [[["activation_6", 0, 0, {}]]]}, {"name": "batch_normalization_7", "config": {"beta_initializer": {"config": {}, "class_name": "Zeros"}, "moving_mean_initializer": {"config": {}, "class_name": "Zeros"}, "beta_constraint": null, "gamma_constraint": null, "name": "batch_normalization_7", "gamma_regularizer": null, "axis": -1, "moving_variance_initializer": {"config": {}, "class_name": "Ones"}, "epsilon": 0.001, "momentum": 0.99, "scale": true, "trainable": true, "gamma_initializer": {"config": {}, "class_name": "Ones"}, "center": true, "beta_regularizer": null}, "class_name": "BatchNormalization", "inbound_nodes": [[["conv2d_7", 0, 0, {}]]]}, {"name": "add_3", "config": {"name": "add_3", "trainable": true}, "class_name": "Add", "inbound_nodes": [[["activation_5", 0, 0, {}], ["batch_normalization_7", 0, 0, {}]]]}, {"name": "activation_7", "config": {"name": "activation_7", "trainable": true, "activation": "relu"}, "class_name": "Activation", "inbound_nodes": [[["add_3", 0, 0, {}]]]}, {"name": "conv2d_8", "config": {"kernel_initializer": {"config": {"mode": "fan_in", "seed": null, "distribution": "normal", "scale": 2.0}, "class_name": "VarianceScaling"}, "kernel_regularizer": {"config": {"l2": 9.999999747378752e-05, "l1": 0.0}, "class_name": "L1L2"}, "name": "conv2d_8", "bias_constraint": null, "use_bias": true, "activation": "linear", "bias_regularizer": null, "strides": [1, 1], "filters": 16, "kernel_constraint": null, "dilation_rate": [1, 1], "kernel_size": [3, 3], "bias_initializer": {"config": {}, "class_name": "Zeros"}, "trainable": true, "padding": "same", "data_format": "channels_last", "activity_regularizer": null}, "class_name": "Conv2D", "inbound_nodes": [[["activation_7", 0, 0, {}]]]}, {"name": "batch_normalization_8", "config": {"beta_initializer": {"config": {}, "class_name": "Zeros"}, "moving_mean_initializer": {"config": {}, "class_name": "Zeros"}, "beta_constraint": null, "gamma_constraint": null, "name": "batch_normalization_8", "gamma_regularizer": null, "axis": -1, "moving_variance_initializer": {"config": {}, "class_name": "Ones"}, "epsilon": 0.001, "momentum": 0.99, "scale": true, "trainable": true, "gamma_initializer": {"config": {}, "class_name": "Ones"}, "center": true, "beta_regularizer": null}, "class_name": "BatchNormalization", "inbound_nodes": [[["conv2d_8", 0, 0, {}]]]}, {"name": "activation_8", "config": {"name": "activation_8", "trainable": true, "activation": "relu"}, "class_name": "Activation", "inbound_nodes": [[["batch_normalization_8", 0, 0, {}]]]}, {"name": "conv2d_9", "config": {"kernel_initializer": {"config": {"mode": "fan_in", "seed": null, "distribution": "normal", "scale": 2.0}, "class_name": "VarianceScaling"}, "kernel_regularizer": {"config": {"l2": 9.999999747378752e-05, "l1": 0.0}, "class_name": "L1L2"}, "name": "conv2d_9", "bias_constraint": null, "use_bias": true, "activation": "linear", "bias_regularizer": null, "strides": [1, 1], "filters": 16, "kernel_constraint": null, "dilation_rate": [1, 1], "kernel_size": [3, 3], "bias_initializer": {"config": {}, "class_name": "Zeros"}, "trainable": true, "padding": "same", "data_format": "channels_last", "activity_regularizer": null}, "class_name": "Conv2D", "inbound_nodes": [[["activation_8", 0, 0, {}]]]}, {"name": "batch_normalization_9", "config": {"beta_initializer": {"config": {}, "class_name": "Zeros"}, "moving_mean_initializer": {"config": {}, "class_name": "Zeros"}, "beta_constraint": null, "gamma_constraint": null, "name": "batch_normalization_9", "gamma_regularizer": null, "axis": -1, "moving_variance_initializer": {"config": {}, "class_name": "Ones"}, "epsilon": 0.001, "momentum": 0.99, "scale": true, "trainable": true, "gamma_initializer": {"config": {}, "class_name": "Ones"}, "center": true, "beta_regularizer": null}, "class_name": "BatchNormalization", "inbound_nodes": [[["conv2d_9", 0, 0, {}]]]}, {"name": "add_4", "config": {"name": "add_4", "trainable": true}, "class_name": "Add", "inbound_nodes": [[["activation_7", 0, 0, {}], ["batch_normalization_9", 0, 0, {}]]]}, {"name": "activation_9", "config": {"name": "activation_9", "trainable": true, "activation": "relu"}, "class_name": "Activation", "inbound_nodes": [[["add_4", 0, 0, {}]]]}, {"name": "conv2d_10", "config": {"kernel_initializer": {"config": {"mode": "fan_in", "seed": null, "distribution": "normal", "scale": 2.0}, "class_name": "VarianceScaling"}, "kernel_regularizer": {"config": {"l2": 9.999999747378752e-05, "l1": 0.0}, "class_name": "L1L2"}, "name": "conv2d_10", "bias_constraint": null, "use_bias": true, "activation": "linear", "bias_regularizer": null, "strides": [1, 1], "filters": 16, "kernel_constraint": null, "dilation_rate": [1, 1], "kernel_size": [3, 3], "bias_initializer": {"config": {}, "class_name": "Zeros"}, "trainable": true, "padding": "same", "data_format": "channels_last", "activity_regularizer": null}, "class_name": "Conv2D", "inbound_nodes": [[["activation_9", 0, 0, {}]]]}, {"name": "batch_normalization_10", "config": {"beta_initializer": {"config": {}, "class_name": "Zeros"}, "moving_mean_initializer": {"config": {}, "class_name": "Zeros"}, "beta_constraint": null, "gamma_constraint": null, "name": "batch_normalization_10", "gamma_regularizer": null, "axis": -1, "moving_variance_initializer": {"config": {}, "class_name": "Ones"}, "epsilon": 0.001, "momentum": 0.99, "scale": true, "trainable": true, "gamma_initializer": {"config": {}, "class_name": "Ones"}, "center": true, "beta_regularizer": null}, "class_name": "BatchNormalization", "inbound_nodes": [[["conv2d_10", 0, 0, {}]]]}, {"name": "activation_10", "config": {"name": "activation_10", "trainable": true, "activation": "relu"}, "class_name": "Activation", "inbound_nodes": [[["batch_normalization_10", 0, 0, {}]]]}, {"name": "conv2d_11", "config": {"kernel_initializer": {"config": {"mode": "fan_in", "seed": null, "distribution": "normal", "scale": 2.0}, "class_name": "VarianceScaling"}, "kernel_regularizer": {"config": {"l2": 9.999999747378752e-05, "l1": 0.0}, "class_name": "L1L2"}, "name": "conv2d_11", "bias_constraint": null, "use_bias": true, "activation": "linear", "bias_regularizer": null, "strides": [1, 1], "filters": 16, "kernel_constraint": null, "dilation_rate": [1, 1], "kernel_size": [3, 3], "bias_initializer": {"config": {}, "class_name": "Zeros"}, "trainable": true, "padding": "same", "data_format": "channels_last", "activity_regularizer": null}, "class_name": "Conv2D", "inbound_nodes": [[["activation_10", 0, 0, {}]]]}, {"name": "batch_normalization_11", "config": {"beta_initializer": {"config": {}, "class_name": "Zeros"}, "moving_mean_initializer": {"config": {}, "class_name": "Zeros"}, "beta_constraint": null, "gamma_constraint": null, "name": "batch_normalization_11", "gamma_regularizer": null, "axis": -1, "moving_variance_initializer": {"config": {}, "class_name": "Ones"}, "epsilon": 0.001, "momentum": 0.99, "scale": true, "trainable": true, "gamma_initializer": {"config": {}, "class_name": "Ones"}, "center": true, "beta_regularizer": null}, "class_name": "BatchNormalization", "inbound_nodes": [[["conv2d_11", 0, 0, {}]]]}, {"name": "add_5", "config": {"name": "add_5", "trainable": true}, "class_name": "Add", "inbound_nodes": [[["activation_9", 0, 0, {}], ["batch_normalization_11", 0, 0, {}]]]}, {"name": "activation_11", "config": {"name": "activation_11", "trainable": true, "activation": "relu"}, "class_name": "Activation", "inbound_nodes": [[["add_5", 0, 0, {}]]]}, {"name": "conv2d_12", "config": {"kernel_initializer": {"config": {"mode": "fan_in", "seed": null, "distribution": "normal", "scale": 2.0}, "class_name": "VarianceScaling"}, "kernel_regularizer": {"config": {"l2": 9.999999747378752e-05, "l1": 0.0}, "class_name": "L1L2"}, "name": "conv2d_12", "bias_constraint": null, "use_bias": true, "activation": "linear", "bias_regularizer": null, "strides": [2, 2], "filters": 32, "kernel_constraint": null, "dilation_rate": [1, 1], "kernel_size": [3, 3], "bias_initializer": {"config": {}, "class_name": "Zeros"}, "trainable": true, "padding": "same", "data_format": "channels_last", "activity_regularizer": null}, "class_name": "Conv2D", "inbound_nodes": [[["activation_11", 0, 0, {}]]]}, {"name": "batch_normalization_12", "config": {"beta_initializer": {"config": {}, "class_name": "Zeros"}, "moving_mean_initializer": {"config": {}, "class_name": "Zeros"}, "beta_constraint": null, "gamma_constraint": null, "name": "batch_normalization_12", "gamma_regularizer": null, "axis": -1, "moving_variance_initializer": {"config": {}, "class_name": "Ones"}, "epsilon": 0.001, "momentum": 0.99, "scale": true, "trainable": true, "gamma_initializer": {"config": {}, "class_name": "Ones"}, "center": true, "beta_regularizer": null}, "class_name": "BatchNormalization", "inbound_nodes": [[["conv2d_12", 0, 0, {}]]]}, {"name": "activation_12", "config": {"name": "activation_12", "trainable": true, "activation": "relu"}, "class_name": "Activation", "inbound_nodes": [[["batch_normalization_12", 0, 0, {}]]]}, {"name": "conv2d_13", "config": {"kernel_initializer": {"config": {"mode": "fan_in", "seed": null, "distribution": "normal", "scale": 2.0}, "class_name": "VarianceScaling"}, "kernel_regularizer": {"config": {"l2": 9.999999747378752e-05, "l1": 0.0}, "class_name": "L1L2"}, "name": "conv2d_13", "bias_constraint": null, "use_bias": true, "activation": "linear", "bias_regularizer": null, "strides": [1, 1], "filters": 32, "kernel_constraint": null, "dilation_rate": [1, 1], "kernel_size": [3, 3], "bias_initializer": {"config": {}, "class_name": "Zeros"}, "trainable": true, "padding": "same", "data_format": "channels_last", "activity_regularizer": null}, "class_name": "Conv2D", "inbound_nodes": [[["activation_12", 0, 0, {}]]]}, {"name": "conv2d_14", "config": {"kernel_initializer": {"config": {"mode": "fan_in", "seed": null, "distribution": "normal", "scale": 2.0}, "class_name": "VarianceScaling"}, "kernel_regularizer": {"config": {"l2": 9.999999747378752e-05, "l1": 0.0}, "class_name": "L1L2"}, "name": "conv2d_14", "bias_constraint": null, "use_bias": true, "activation": "linear", "bias_regularizer": null, "strides": [2, 2], "filters": 32, "kernel_constraint": null, "dilation_rate": [1, 1], "kernel_size": [1, 1], "bias_initializer": {"config": {}, "class_name": "Zeros"}, "trainable": true, "padding": "same", "data_format": "channels_last", "activity_regularizer": null}, "class_name": "Conv2D", "inbound_nodes": [[["activation_11", 0, 0, {}]]]}, {"name": "batch_normalization_13", "config": {"beta_initializer": {"config": {}, "class_name": "Zeros"}, "moving_mean_initializer": {"config": {}, "class_name": "Zeros"}, "beta_constraint": null, "gamma_constraint": null, "name": "batch_normalization_13", "gamma_regularizer": null, "axis": -1, "moving_variance_initializer": {"config": {}, "class_name": "Ones"}, "epsilon": 0.001, "momentum": 0.99, "scale": true, "trainable": true, "gamma_initializer": {"config": {}, "class_name": "Ones"}, "center": true, "beta_regularizer": null}, "class_name": "BatchNormalization", "inbound_nodes": [[["conv2d_13", 0, 0, {}]]]}, {"name": "add_6", "config": {"name": "add_6", "trainable": true}, "class_name": "Add", "inbound_nodes": [[["conv2d_14", 0, 0, {}], ["batch_normalization_13", 0, 0, {}]]]}, {"name": "activation_13", "config": {"name": "activation_13", "trainable": true, "activation": "relu"}, "class_name": "Activation", "inbound_nodes": [[["add_6", 0, 0, {}]]]}, {"name": "conv2d_15", "config": {"kernel_initializer": {"config": {"mode": "fan_in", "seed": null, "distribution": "normal", "scale": 2.0}, "class_name": "VarianceScaling"}, "kernel_regularizer": {"config": {"l2": 9.999999747378752e-05, "l1": 0.0}, "class_name": "L1L2"}, "name": "conv2d_15", "bias_constraint": null, "use_bias": true, "activation": "linear", "bias_regularizer": null, "strides": [1, 1], "filters": 32, "kernel_constraint": null, "dilation_rate": [1, 1], "kernel_size": [3, 3], "bias_initializer": {"config": {}, "class_name": "Zeros"}, "trainable": true, "padding": "same", "data_format": "channels_last", "activity_regularizer": null}, "class_name": "Conv2D", "inbound_nodes": [[["activation_13", 0, 0, {}]]]}, {"name": "batch_normalization_14", "config": {"beta_initializer": {"config": {}, "class_name": "Zeros"}, "moving_mean_initializer": {"config": {}, "class_name": "Zeros"}, "beta_constraint": null, "gamma_constraint": null, "name": "batch_normalization_14", "gamma_regularizer": null, "axis": -1, "moving_variance_initializer": {"config": {}, "class_name": "Ones"}, "epsilon": 0.001, "momentum": 0.99, "scale": true, "trainable": true, "gamma_initializer": {"config": {}, "class_name": "Ones"}, "center": true, "beta_regularizer": null}, "class_name": "BatchNormalization", "inbound_nodes": [[["conv2d_15", 0, 0, {}]]]}, {"name": "activation_14", "config": {"name": "activation_14", "trainable": true, "activation": "relu"}, "class_name": "Activation", "inbound_nodes": [[["batch_normalization_14", 0, 0, {}]]]}, {"name": "conv2d_16", "config": {"kernel_initializer": {"config": {"mode": "fan_in", "seed": null, "distribution": "normal", "scale": 2.0}, "class_name": "VarianceScaling"}, "kernel_regularizer": {"config": {"l2": 9.999999747378752e-05, "l1": 0.0}, "class_name": "L1L2"}, "name": "conv2d_16", "bias_constraint": null, "use_bias": true, "activation": "linear", "bias_regularizer": null, "strides": [1, 1], "filters": 32, "kernel_constraint": null, "dilation_rate": [1, 1], "kernel_size": [3, 3], "bias_initializer": {"config": {}, "class_name": "Zeros"}, "trainable": true, "padding": "same", "data_format": "channels_last", "activity_regularizer": null}, "class_name": "Conv2D", "inbound_nodes": [[["activation_14", 0, 0, {}]]]}, {"name": "batch_normalization_15", "config": {"beta_initializer": {"config": {}, "class_name": "Zeros"}, "moving_mean_initializer": {"config": {}, "class_name": "Zeros"}, "beta_constraint": null, "gamma_constraint": null, "name": "batch_normalization_15", "gamma_regularizer": null, "axis": -1, "moving_variance_initializer": {"config": {}, "class_name": "Ones"}, "epsilon": 0.001, "momentum": 0.99, "scale": true, "trainable": true, "gamma_initializer": {"config": {}, "class_name": "Ones"}, "center": true, "beta_regularizer": null}, "class_name": "BatchNormalization", "inbound_nodes": [[["conv2d_16", 0, 0, {}]]]}, {"name": "add_7", "config": {"name": "add_7", "trainable": true}, "class_name": "Add", "inbound_nodes": [[["activation_13", 0, 0, {}], ["batch_normalization_15", 0, 0, {}]]]}, {"name": "activation_15", "config": {"name": "activation_15", "trainable": true, "activation": "relu"}, "class_name": "Activation", "inbound_nodes": [[["add_7", 0, 0, {}]]]}, {"name": "conv2d_17", "config": {"kernel_initializer": {"config": {"mode": "fan_in", "seed": null, "distribution": "normal", "scale": 2.0}, "class_name": "VarianceScaling"}, "kernel_regularizer": {"config": {"l2": 9.999999747378752e-05, "l1": 0.0}, "class_name": "L1L2"}, "name": "conv2d_17", "bias_constraint": null, "use_bias": true, "activation": "linear", "bias_regularizer": null, "strides": [1, 1], "filters": 32, "kernel_constraint": null, "dilation_rate": [1, 1], "kernel_size": [3, 3], "bias_initializer": {"config": {}, "class_name": "Zeros"}, "trainable": true, "padding": "same", "data_format": "channels_last", "activity_regularizer": null}, "class_name": "Conv2D", "inbound_nodes": [[["activation_15", 0, 0, {}]]]}, {"name": "batch_normalization_16", "config": {"beta_initializer": {"config": {}, "class_name": "Zeros"}, "moving_mean_initializer": {"config": {}, "class_name": "Zeros"}, "beta_constraint": null, "gamma_constraint": null, "name": "batch_normalization_16", "gamma_regularizer": null, "axis": -1, "moving_variance_initializer": {"config": {}, "class_name": "Ones"}, "epsilon": 0.001, "momentum": 0.99, "scale": true, "trainable": true, "gamma_initializer": {"config": {}, "class_name": "Ones"}, "center": true, "beta_regularizer": null}, "class_name": "BatchNormalization", "inbound_nodes": [[["conv2d_17", 0, 0, {}]]]}, {"name": "activation_16", "config": {"name": "activation_16", "trainable": true, "activation": "relu"}, "class_name": "Activation", "inbound_nodes": [[["batch_normalization_16", 0, 0, {}]]]}, {"name": "conv2d_18", "config": {"kernel_initializer": {"config": {"mode": "fan_in", "seed": null, "distribution": "normal", "scale": 2.0}, "class_name": "VarianceScaling"}, "kernel_regularizer": {"config": {"l2": 9.999999747378752e-05, "l1": 0.0}, "class_name": "L1L2"}, "name": "conv2d_18", "bias_constraint": null, "use_bias": true, "activation": "linear", "bias_regularizer": null, "strides": [1, 1], "filters": 32, "kernel_constraint": null, "dilation_rate": [1, 1], "kernel_size": [3, 3], "bias_initializer": {"config": {}, "class_name": "Zeros"}, "trainable": true, "padding": "same", "data_format": "channels_last", "activity_regularizer": null}, "class_name": "Conv2D", "inbound_nodes": [[["activation_16", 0, 0, {}]]]}, {"name": "batch_normalization_17", "config": {"beta_initializer": {"config": {}, "class_name": "Zeros"}, "moving_mean_initializer": {"config": {}, "class_name": "Zeros"}, "beta_constraint": null, "gamma_constraint": null, "name": "batch_normalization_17", "gamma_regularizer": null, "axis": -1, "moving_variance_initializer": {"config": {}, "class_name": "Ones"}, "epsilon": 0.001, "momentum": 0.99, "scale": true, "trainable": true, "gamma_initializer": {"config": {}, "class_name": "Ones"}, "center": true, "beta_regularizer": null}, "class_name": "BatchNormalization", "inbound_nodes": [[["conv2d_18", 0, 0, {}]]]}, {"name": "add_8", "config": {"name": "add_8", "trainable": true}, "class_name": "Add", "inbound_nodes": [[["activation_15", 0, 0, {}], ["batch_normalization_17", 0, 0, {}]]]}, {"name": "activation_17", "config": {"name": "activation_17", "trainable": true, "activation": "relu"}, "class_name": "Activation", "inbound_nodes": [[["add_8", 0, 0, {}]]]}, {"name": "conv2d_19", "config": {"kernel_initializer": {"config": {"mode": "fan_in", "seed": null, "distribution": "normal", "scale": 2.0}, "class_name": "VarianceScaling"}, "kernel_regularizer": {"config": {"l2": 9.999999747378752e-05, "l1": 0.0}, "class_name": "L1L2"}, "name": "conv2d_19", "bias_constraint": null, "use_bias": true, "activation": "linear", "bias_regularizer": null, "strides": [1, 1], "filters": 32, "kernel_constraint": null, "dilation_rate": [1, 1], "kernel_size": [3, 3], "bias_initializer": {"config": {}, "class_name": "Zeros"}, "trainable": true, "padding": "same", "data_format": "channels_last", "activity_regularizer": null}, "class_name": "Conv2D", "inbound_nodes": [[["activation_17", 0, 0, {}]]]}, {"name": "batch_normalization_18", "config": {"beta_initializer": {"config": {}, "class_name": "Zeros"}, "moving_mean_initializer": {"config": {}, "class_name": "Zeros"}, "beta_constraint": null, "gamma_constraint": null, "name": "batch_normalization_18", "gamma_regularizer": null, "axis": -1, "moving_variance_initializer": {"config": {}, "class_name": "Ones"}, "epsilon": 0.001, "momentum": 0.99, "scale": true, "trainable": true, "gamma_initializer": {"config": {}, "class_name": "Ones"}, "center": true, "beta_regularizer": null}, "class_name": "BatchNormalization", "inbound_nodes": [[["conv2d_19", 0, 0, {}]]]}, {"name": "activation_18", "config": {"name": "activation_18", "trainable": true, "activation": "relu"}, "class_name": "Activation", "inbound_nodes": [[["batch_normalization_18", 0, 0, {}]]]}, {"name": "conv2d_20", "config": {"kernel_initializer": {"config": {"mode": "fan_in", "seed": null, "distribution": "normal", "scale": 2.0}, "class_name": "VarianceScaling"}, "kernel_regularizer": {"config": {"l2": 9.999999747378752e-05, "l1": 0.0}, "class_name": "L1L2"}, "name": "conv2d_20", "bias_constraint": null, "use_bias": true, "activation": "linear", "bias_regularizer": null, "strides": [1, 1], "filters": 32, "kernel_constraint": null, "dilation_rate": [1, 1], "kernel_size": [3, 3], "bias_initializer": {"config": {}, "class_name": "Zeros"}, "trainable": true, "padding": "same", "data_format": "channels_last", "activity_regularizer": null}, "class_name": "Conv2D", "inbound_nodes": [[["activation_18", 0, 0, {}]]]}, {"name": "batch_normalization_19", "config": {"beta_initializer": {"config": {}, "class_name": "Zeros"}, "moving_mean_initializer": {"config": {}, "class_name": "Zeros"}, "beta_constraint": null, "gamma_constraint": null, "name": "batch_normalization_19", "gamma_regularizer": null, "axis": -1, "moving_variance_initializer": {"config": {}, "class_name": "Ones"}, "epsilon": 0.001, "momentum": 0.99, "scale": true, "trainable": true, "gamma_initializer": {"config": {}, "class_name": "Ones"}, "center": true, "beta_regularizer": null}, "class_name": "BatchNormalization", "inbound_nodes": [[["conv2d_20", 0, 0, {}]]]}, {"name": "add_9", "config": {"name": "add_9", "trainable": true}, "class_name": "Add", "inbound_nodes": [[["activation_17", 0, 0, {}], ["batch_normalization_19", 0, 0, {}]]]}, {"name": "activation_19", "config": {"name": "activation_19", "trainable": true, "activation": "relu"}, "class_name": "Activation", "inbound_nodes": [[["add_9", 0, 0, {}]]]}, {"name": "conv2d_21", "config": {"kernel_initializer": {"config": {"mode": "fan_in", "seed": null, "distribution": "normal", "scale": 2.0}, "class_name": "VarianceScaling"}, "kernel_regularizer": {"config": {"l2": 9.999999747378752e-05, "l1": 0.0}, "class_name": "L1L2"}, "name": "conv2d_21", "bias_constraint": null, "use_bias": true, "activation": "linear", "bias_regularizer": null, "strides": [1, 1], "filters": 32, "kernel_constraint": null, "dilation_rate": [1, 1], "kernel_size": [3, 3], "bias_initializer": {"config": {}, "class_name": "Zeros"}, "trainable": true, "padding": "same", "data_format": "channels_last", "activity_regularizer": null}, "class_name": "Conv2D", "inbound_nodes": [[["activation_19", 0, 0, {}]]]}, {"name": "batch_normalization_20", "config": {"beta_initializer": {"config": {}, "class_name": "Zeros"}, "moving_mean_initializer": {"config": {}, "class_name": "Zeros"}, "beta_constraint": null, "gamma_constraint": null, "name": "batch_normalization_20", "gamma_regularizer": null, "axis": -1, "moving_variance_initializer": {"config": {}, "class_name": "Ones"}, "epsilon": 0.001, "momentum": 0.99, "scale": true, "trainable": true, "gamma_initializer": {"config": {}, "class_name": "Ones"}, "center": true, "beta_regularizer": null}, "class_name": "BatchNormalization", "inbound_nodes": [[["conv2d_21", 0, 0, {}]]]}, {"name": "activation_20", "config": {"name": "activation_20", "trainable": true, "activation": "relu"}, "class_name": "Activation", "inbound_nodes": [[["batch_normalization_20", 0, 0, {}]]]}, {"name": "conv2d_22", "config": {"kernel_initializer": {"config": {"mode": "fan_in", "seed": null, "distribution": "normal", "scale": 2.0}, "class_name": "VarianceScaling"}, "kernel_regularizer": {"config": {"l2": 9.999999747378752e-05, "l1": 0.0}, "class_name": "L1L2"}, "name": "conv2d_22", "bias_constraint": null, "use_bias": true, "activation": "linear", "bias_regularizer": null, "strides": [1, 1], "filters": 32, "kernel_constraint": null, "dilation_rate": [1, 1], "kernel_size": [3, 3], "bias_initializer": {"config": {}, "class_name": "Zeros"}, "trainable": true, "padding": "same", "data_format": "channels_last", "activity_regularizer": null}, "class_name": "Conv2D", "inbound_nodes": [[["activation_20", 0, 0, {}]]]}, {"name": "batch_normalization_21", "config": {"beta_initializer": {"config": {}, "class_name": "Zeros"}, "moving_mean_initializer": {"config": {}, "class_name": "Zeros"}, "beta_constraint": null, "gamma_constraint": null, "name": "batch_normalization_21", "gamma_regularizer": null, "axis": -1, "moving_variance_initializer": {"config": {}, "class_name": "Ones"}, "epsilon": 0.001, "momentum": 0.99, "scale": true, "trainable": true, "gamma_initializer": {"config": {}, "class_name": "Ones"}, "center": true, "beta_regularizer": null}, "class_name": "BatchNormalization", "inbound_nodes": [[["conv2d_22", 0, 0, {}]]]}, {"name": "add_10", "config": {"name": "add_10", "trainable": true}, "class_name": "Add", "inbound_nodes": [[["activation_19", 0, 0, {}], ["batch_normalization_21", 0, 0, {}]]]}, {"name": "activation_21", "config": {"name": "activation_21", "trainable": true, "activation": "relu"}, "class_name": "Activation", "inbound_nodes": [[["add_10", 0, 0, {}]]]}, {"name": "conv2d_23", "config": {"kernel_initializer": {"config": {"mode": "fan_in", "seed": null, "distribution": "normal", "scale": 2.0}, "class_name": "VarianceScaling"}, "kernel_regularizer": {"config": {"l2": 9.999999747378752e-05, "l1": 0.0}, "class_name": "L1L2"}, "name": "conv2d_23", "bias_constraint": null, "use_bias": true, "activation": "linear", "bias_regularizer": null, "strides": [2, 2], "filters": 64, "kernel_constraint": null, "dilation_rate": [1, 1], "kernel_size": [3, 3], "bias_initializer": {"config": {}, "class_name": "Zeros"}, "trainable": true, "padding": "same", "data_format": "channels_last", "activity_regularizer": null}, "class_name": "Conv2D", "inbound_nodes": [[["activation_21", 0, 0, {}]]]}, {"name": "batch_normalization_22", "config": {"beta_initializer": {"config": {}, "class_name": "Zeros"}, "moving_mean_initializer": {"config": {}, "class_name": "Zeros"}, "beta_constraint": null, "gamma_constraint": null, "name": "batch_normalization_22", "gamma_regularizer": null, "axis": -1, "moving_variance_initializer": {"config": {}, "class_name": "Ones"}, "epsilon": 0.001, "momentum": 0.99, "scale": true, "trainable": true, "gamma_initializer": {"config": {}, "class_name": "Ones"}, "center": true, "beta_regularizer": null}, "class_name": "BatchNormalization", "inbound_nodes": [[["conv2d_23", 0, 0, {}]]]}, {"name": "activation_22", "config": {"name": "activation_22", "trainable": true, "activation": "relu"}, "class_name": "Activation", "inbound_nodes": [[["batch_normalization_22", 0, 0, {}]]]}, {"name": "conv2d_24", "config": {"kernel_initializer": {"config": {"mode": "fan_in", "seed": null, "distribution": "normal", "scale": 2.0}, "class_name": "VarianceScaling"}, "kernel_regularizer": {"config": {"l2": 9.999999747378752e-05, "l1": 0.0}, "class_name": "L1L2"}, "name": "conv2d_24", "bias_constraint": null, "use_bias": true, "activation": "linear", "bias_regularizer": null, "strides": [1, 1], "filters": 64, "kernel_constraint": null, "dilation_rate": [1, 1], "kernel_size": [3, 3], "bias_initializer": {"config": {}, "class_name": "Zeros"}, "trainable": true, "padding": "same", "data_format": "channels_last", "activity_regularizer": null}, "class_name": "Conv2D", "inbound_nodes": [[["activation_22", 0, 0, {}]]]}, {"name": "conv2d_25", "config": {"kernel_initializer": {"config": {"mode": "fan_in", "seed": null, "distribution": "normal", "scale": 2.0}, "class_name": "VarianceScaling"}, "kernel_regularizer": {"config": {"l2": 9.999999747378752e-05, "l1": 0.0}, "class_name": "L1L2"}, "name": "conv2d_25", "bias_constraint": null, "use_bias": true, "activation": "linear", "bias_regularizer": null, "strides": [2, 2], "filters": 64, "kernel_constraint": null, "dilation_rate": [1, 1], "kernel_size": [1, 1], "bias_initializer": {"config": {}, "class_name": "Zeros"}, "trainable": true, "padding": "same", "data_format": "channels_last", "activity_regularizer": null}, "class_name": "Conv2D", "inbound_nodes": [[["activation_21", 0, 0, {}]]]}, {"name": "batch_normalization_23", "config": {"beta_initializer": {"config": {}, "class_name": "Zeros"}, "moving_mean_initializer": {"config": {}, "class_name": "Zeros"}, "beta_constraint": null, "gamma_constraint": null, "name": "batch_normalization_23", "gamma_regularizer": null, "axis": -1, "moving_variance_initializer": {"config": {}, "class_name": "Ones"}, "epsilon": 0.001, "momentum": 0.99, "scale": true, "trainable": true, "gamma_initializer": {"config": {}, "class_name": "Ones"}, "center": true, "beta_regularizer": null}, "class_name": "BatchNormalization", "inbound_nodes": [[["conv2d_24", 0, 0, {}]]]}, {"name": "add_11", "config": {"name": "add_11", "trainable": true}, "class_name": "Add", "inbound_nodes": [[["conv2d_25", 0, 0, {}], ["batch_normalization_23", 0, 0, {}]]]}, {"name": "activation_23", "config": {"name": "activation_23", "trainable": true, "activation": "relu"}, "class_name": "Activation", "inbound_nodes": [[["add_11", 0, 0, {}]]]}, {"name": "conv2d_26", "config": {"kernel_initializer": {"config": {"mode": "fan_in", "seed": null, "distribution": "normal", "scale": 2.0}, "class_name": "VarianceScaling"}, "kernel_regularizer": {"config": {"l2": 9.999999747378752e-05, "l1": 0.0}, "class_name": "L1L2"}, "name": "conv2d_26", "bias_constraint": null, "use_bias": true, "activation": "linear", "bias_regularizer": null, "strides": [1, 1], "filters": 64, "kernel_constraint": null, "dilation_rate": [1, 1], "kernel_size": [3, 3], "bias_initializer": {"config": {}, "class_name": "Zeros"}, "trainable": true, "padding": "same", "data_format": "channels_last", "activity_regularizer": null}, "class_name": "Conv2D", "inbound_nodes": [[["activation_23", 0, 0, {}]]]}, {"name": "batch_normalization_24", "config": {"beta_initializer": {"config": {}, "class_name": "Zeros"}, "moving_mean_initializer": {"config": {}, "class_name": "Zeros"}, "beta_constraint": null, "gamma_constraint": null, "name": "batch_normalization_24", "gamma_regularizer": null, "axis": -1, "moving_variance_initializer": {"config": {}, "class_name": "Ones"}, "epsilon": 0.001, "momentum": 0.99, "scale": true, "trainable": true, "gamma_initializer": {"config": {}, "class_name": "Ones"}, "center": true, "beta_regularizer": null}, "class_name": "BatchNormalization", "inbound_nodes": [[["conv2d_26", 0, 0, {}]]]}, {"name": "activation_24", "config": {"name": "activation_24", "trainable": true, "activation": "relu"}, "class_name": "Activation", "inbound_nodes": [[["batch_normalization_24", 0, 0, {}]]]}, {"name": "conv2d_27", "config": {"kernel_initializer": {"config": {"mode": "fan_in", "seed": null, "distribution": "normal", "scale": 2.0}, "class_name": "VarianceScaling"}, "kernel_regularizer": {"config": {"l2": 9.999999747378752e-05, "l1": 0.0}, "class_name": "L1L2"}, "name": "conv2d_27", "bias_constraint": null, "use_bias": true, "activation": "linear", "bias_regularizer": null, "strides": [1, 1], "filters": 64, "kernel_constraint": null, "dilation_rate": [1, 1], "kernel_size": [3, 3], "bias_initializer": {"config": {}, "class_name": "Zeros"}, "trainable": true, "padding": "same", "data_format": "channels_last", "activity_regularizer": null}, "class_name": "Conv2D", "inbound_nodes": [[["activation_24", 0, 0, {}]]]}, {"name": "batch_normalization_25", "config": {"beta_initializer": {"config": {}, "class_name": "Zeros"}, "moving_mean_initializer": {"config": {}, "class_name": "Zeros"}, "beta_constraint": null, "gamma_constraint": null, "name": "batch_normalization_25", "gamma_regularizer": null, "axis": -1, "moving_variance_initializer": {"config": {}, "class_name": "Ones"}, "epsilon": 0.001, "momentum": 0.99, "scale": true, "trainable": true, "gamma_initializer": {"config": {}, "class_name": "Ones"}, "center": true, "beta_regularizer": null}, "class_name": "BatchNormalization", "inbound_nodes": [[["conv2d_27", 0, 0, {}]]]}, {"name": "add_12", "config": {"name": "add_12", "trainable": true}, "class_name": "Add", "inbound_nodes": [[["activation_23", 0, 0, {}], ["batch_normalization_25", 0, 0, {}]]]}, {"name": "activation_25", "config": {"name": "activation_25", "trainable": true, "activation": "relu"}, "class_name": "Activation", "inbound_nodes": [[["add_12", 0, 0, {}]]]}, {"name": "conv2d_28", "config": {"kernel_initializer": {"config": {"mode": "fan_in", "seed": null, "distribution": "normal", "scale": 2.0}, "class_name": "VarianceScaling"}, "kernel_regularizer": {"config": {"l2": 9.999999747378752e-05, "l1": 0.0}, "class_name": "L1L2"}, "name": "conv2d_28", "bias_constraint": null, "use_bias": true, "activation": "linear", "bias_regularizer": null, "strides": [1, 1], "filters": 64, "kernel_constraint": null, "dilation_rate": [1, 1], "kernel_size": [3, 3], "bias_initializer": {"config": {}, "class_name": "Zeros"}, "trainable": true, "padding": "same", "data_format": "channels_last", "activity_regularizer": null}, "class_name": "Conv2D", "inbound_nodes": [[["activation_25", 0, 0, {}]]]}, {"name": "batch_normalization_26", "config": {"beta_initializer": {"config": {}, "class_name": "Zeros"}, "moving_mean_initializer": {"config": {}, "class_name": "Zeros"}, "beta_constraint": null, "gamma_constraint": null, "name": "batch_normalization_26", "gamma_regularizer": null, "axis": -1, "moving_variance_initializer": {"config": {}, "class_name": "Ones"}, "epsilon": 0.001, "momentum": 0.99, "scale": true, "trainable": true, "gamma_initializer": {"config": {}, "class_name": "Ones"}, "center": true, "beta_regularizer": null}, "class_name": "BatchNormalization", "inbound_nodes": [[["conv2d_28", 0, 0, {}]]]}, {"name": "activation_26", "config": {"name": "activation_26", "trainable": true, "activation": "relu"}, "class_name": "Activation", "inbound_nodes": [[["batch_normalization_26", 0, 0, {}]]]}, {"name": "conv2d_29", "config": {"kernel_initializer": {"config": {"mode": "fan_in", "seed": null, "distribution": "normal", "scale": 2.0}, "class_name": "VarianceScaling"}, "kernel_regularizer": {"config": {"l2": 9.999999747378752e-05, "l1": 0.0}, "class_name": "L1L2"}, "name": "conv2d_29", "bias_constraint": null, "use_bias": true, "activation": "linear", "bias_regularizer": null, "strides": [1, 1], "filters": 64, "kernel_constraint": null, "dilation_rate": [1, 1], "kernel_size": [3, 3], "bias_initializer": {"config": {}, "class_name": "Zeros"}, "trainable": true, "padding": "same", "data_format": "channels_last", "activity_regularizer": null}, "class_name": "Conv2D", "inbound_nodes": [[["activation_26", 0, 0, {}]]]}, {"name": "batch_normalization_27", "config": {"beta_initializer": {"config": {}, "class_name": "Zeros"}, "moving_mean_initializer": {"config": {}, "class_name": "Zeros"}, "beta_constraint": null, "gamma_constraint": null, "name": "batch_normalization_27", "gamma_regularizer": null, "axis": -1, "moving_variance_initializer": {"config": {}, "class_name": "Ones"}, "epsilon": 0.001, "momentum": 0.99, "scale": true, "trainable": true, "gamma_initializer": {"config": {}, "class_name": "Ones"}, "center": true, "beta_regularizer": null}, "class_name": "BatchNormalization", "inbound_nodes": [[["conv2d_29", 0, 0, {}]]]}, {"name": "add_13", "config": {"name": "add_13", "trainable": true}, "class_name": "Add", "inbound_nodes": [[["activation_25", 0, 0, {}], ["batch_normalization_27", 0, 0, {}]]]}, {"name": "activation_27", "config": {"name": "activation_27", "trainable": true, "activation": "relu"}, "class_name": "Activation", "inbound_nodes": [[["add_13", 0, 0, {}]]]}, {"name": "conv2d_30", "config": {"kernel_initializer": {"config": {"mode": "fan_in", "seed": null, "distribution": "normal", "scale": 2.0}, "class_name": "VarianceScaling"}, "kernel_regularizer": {"config": {"l2": 9.999999747378752e-05, "l1": 0.0}, "class_name": "L1L2"}, "name": "conv2d_30", "bias_constraint": null, "use_bias": true, "activation": "linear", "bias_regularizer": null, "strides": [1, 1], "filters": 64, "kernel_constraint": null, "dilation_rate": [1, 1], "kernel_size": [3, 3], "bias_initializer": {"config": {}, "class_name": "Zeros"}, "trainable": true, "padding": "same", "data_format": "channels_last", "activity_regularizer": null}, "class_name": "Conv2D", "inbound_nodes": [[["activation_27", 0, 0, {}]]]}, {"name": "batch_normalization_28", "config": {"beta_initializer": {"config": {}, "class_name": "Zeros"}, "moving_mean_initializer": {"config": {}, "class_name": "Zeros"}, "beta_constraint": null, "gamma_constraint": null, "name": "batch_normalization_28", "gamma_regularizer": null, "axis": -1, "moving_variance_initializer": {"config": {}, "class_name": "Ones"}, "epsilon": 0.001, "momentum": 0.99, "scale": true, "trainable": true, "gamma_initializer": {"config": {}, "class_name": "Ones"}, "center": true, "beta_regularizer": null}, "class_name": "BatchNormalization", "inbound_nodes": [[["conv2d_30", 0, 0, {}]]]}, {"name": "activation_28", "config": {"name": "activation_28", "trainable": true, "activation": "relu"}, "class_name": "Activation", "inbound_nodes": [[["batch_normalization_28", 0, 0, {}]]]}, {"name": "conv2d_31", "config": {"kernel_initializer": {"config": {"mode": "fan_in", "seed": null, "distribution": "normal", "scale": 2.0}, "class_name": "VarianceScaling"}, "kernel_regularizer": {"config": {"l2": 9.999999747378752e-05, "l1": 0.0}, "class_name": "L1L2"}, "name": "conv2d_31", "bias_constraint": null, "use_bias": true, "activation": "linear", "bias_regularizer": null, "strides": [1, 1], "filters": 64, "kernel_constraint": null, "dilation_rate": [1, 1], "kernel_size": [3, 3], "bias_initializer": {"config": {}, "class_name": "Zeros"}, "trainable": true, "padding": "same", "data_format": "channels_last", "activity_regularizer": null}, "class_name": "Conv2D", "inbound_nodes": [[["activation_28", 0, 0, {}]]]}, {"name": "batch_normalization_29", "config": {"beta_initializer": {"config": {}, "class_name": "Zeros"}, "moving_mean_initializer": {"config": {}, "class_name": "Zeros"}, "beta_constraint": null, "gamma_constraint": null, "name": "batch_normalization_29", "gamma_regularizer": null, "axis": -1, "moving_variance_initializer": {"config": {}, "class_name": "Ones"}, "epsilon": 0.001, "momentum": 0.99, "scale": true, "trainable": true, "gamma_initializer": {"config": {}, "class_name": "Ones"}, "center": true, "beta_regularizer": null}, "class_name": "BatchNormalization", "inbound_nodes": [[["conv2d_31", 0, 0, {}]]]}, {"name": "add_14", "config": {"name": "add_14", "trainable": true}, "class_name": "Add", "inbound_nodes": [[["activation_27", 0, 0, {}], ["batch_normalization_29", 0, 0, {}]]]}, {"name": "activation_29", "config": {"name": "activation_29", "trainable": true, "activation": "relu"}, "class_name": "Activation", "inbound_nodes": [[["add_14", 0, 0, {}]]]}, {"name": "conv2d_32", "config": {"kernel_initializer": {"config": {"mode": "fan_in", "seed": null, "distribution": "normal", "scale": 2.0}, "class_name": "VarianceScaling"}, "kernel_regularizer": {"config": {"l2": 9.999999747378752e-05, "l1": 0.0}, "class_name": "L1L2"}, "name": "conv2d_32", "bias_constraint": null, "use_bias": true, "activation": "linear", "bias_regularizer": null, "strides": [1, 1], "filters": 64, "kernel_constraint": null, "dilation_rate": [1, 1], "kernel_size": [3, 3], "bias_initializer": {"config": {}, "class_name": "Zeros"}, "trainable": true, "padding": "same", "data_format": "channels_last", "activity_regularizer": null}, "class_name": "Conv2D", "inbound_nodes": [[["activation_29", 0, 0, {}]]]}, {"name": "batch_normalization_30", "config": {"beta_initializer": {"config": {}, "class_name": "Zeros"}, "moving_mean_initializer": {"config": {}, "class_name": "Zeros"}, "beta_constraint": null, "gamma_constraint": null, "name": "batch_normalization_30", "gamma_regularizer": null, "axis": -1, "moving_variance_initializer": {"config": {}, "class_name": "Ones"}, "epsilon": 0.001, "momentum": 0.99, "scale": true, "trainable": true, "gamma_initializer": {"config": {}, "class_name": "Ones"}, "center": true, "beta_regularizer": null}, "class_name": "BatchNormalization", "inbound_nodes": [[["conv2d_32", 0, 0, {}]]]}, {"name": "activation_30", "config": {"name": "activation_30", "trainable": true, "activation": "relu"}, "class_name": "Activation", "inbound_nodes": [[["batch_normalization_30", 0, 0, {}]]]}, {"name": "conv2d_33", "config": {"kernel_initializer": {"config": {"mode": "fan_in", "seed": null, "distribution": "normal", "scale": 2.0}, "class_name": "VarianceScaling"}, "kernel_regularizer": {"config": {"l2": 9.999999747378752e-05, "l1": 0.0}, "class_name": "L1L2"}, "name": "conv2d_33", "bias_constraint": null, "use_bias": true, "activation": "linear", "bias_regularizer": null, "strides": [1, 1], "filters": 64, "kernel_constraint": null, "dilation_rate": [1, 1], "kernel_size": [3, 3], "bias_initializer": {"config": {}, "class_name": "Zeros"}, "trainable": true, "padding": "same", "data_format": "channels_last", "activity_regularizer": null}, "class_name": "Conv2D", "inbound_nodes": [[["activation_30", 0, 0, {}]]]}, {"name": "batch_normalization_31", "config": {"beta_initializer": {"config": {}, "class_name": "Zeros"}, "moving_mean_initializer": {"config": {}, "class_name": "Zeros"}, "beta_constraint": null, "gamma_constraint": null, "name": "batch_normalization_31", "gamma_regularizer": null, "axis": -1, "moving_variance_initializer": {"config": {}, "class_name": "Ones"}, "epsilon": 0.001, "momentum": 0.99, "scale": true, "trainable": true, "gamma_initializer": {"config": {}, "class_name": "Ones"}, "center": true, "beta_regularizer": null}, "class_name": "BatchNormalization", "inbound_nodes": [[["conv2d_33", 0, 0, {}]]]}, {"name": "add_15", "config": {"name": "add_15", "trainable": true}, "class_name": "Add", "inbound_nodes": [[["activation_29", 0, 0, {}], ["batch_normalization_31", 0, 0, {}]]]}, {"name": "activation_31", "config": {"name": "activation_31", "trainable": true, "activation": "relu"}, "class_name": "Activation", "inbound_nodes": [[["add_15", 0, 0, {}]]]}, {"name": "average_pooling2d_1", "config": {"name": "average_pooling2d_1", "data_format": "channels_last", "trainable": true, "padding": "valid", "pool_size": [8, 8], "strides": [8, 8]}, "class_name": "AveragePooling2D", "inbound_nodes": [[["activation_31", 0, 0, {}]]]}, {"name": "flatten_1", "config": {"name": "flatten_1", "trainable": true}, "class_name": "Flatten", "inbound_nodes": [[["average_pooling2d_1", 0, 0, {}]]]}, {"name": "dense_1", "config": {"kernel_initializer": {"config": {"mode": "fan_in", "seed": null, "distribution": "normal", "scale": 2.0}, "class_name": "VarianceScaling"}, "name": "dense_1", "use_bias": true, "kernel_constraint": null, "bias_regularizer": null, "activation": "softmax", "bias_constraint": null, "units": 10, "activity_regularizer": null, "bias_initializer": {"config": {}, "class_name": "Zeros"}, "trainable": true, "kernel_regularizer": null}, "class_name": "Dense", "inbound_nodes": [[["flatten_1", 0, 0, {}]]]}], "output_layers": [["dense_1", 0, 0]]}, "class_name": "Model", "backend": "tensorflow", "keras_version": "2.0.5"}