{"class_name": "Model", "config": {"name": "deeplabv3plus", "layers": [{"name": "input_1", "class_name": "InputLayer", "config": {"batch_input_shape": [null, 512, 512, 3], "dtype": "float32", "sparse": false, "name": "input_1"}, "inbound_nodes": []}, {"name": "Conv", "class_name": "Conv2D", "config": {"name": "Conv", "trainable": true, "filters": 32, "kernel_size": [3, 3], "strides": [2, 2], "padding": "same", "data_format": "channels_last", "dilation_rate": [1, 1], "activation": "linear", "use_bias": false, "kernel_initializer": {"class_name": "VarianceScaling", "config": {"scale": 1.0, "mode": "fan_avg", "distribution": "uniform", "seed": null}}, "bias_initializer": {"class_name": "Zeros", "config": {}}, "kernel_regularizer": null, "bias_regularizer": null, "activity_regularizer": null, "kernel_constraint": null, "bias_constraint": null}, "inbound_nodes": [[["input_1", 0, 0, {}]]]}, {"name": "Conv_BN", "class_name": "BatchNormalization", "config": {"name": "Conv_BN", "trainable": true, "axis": -1, "momentum": 0.999, "epsilon": 0.001, "center": true, "scale": true, "beta_initializer": {"class_name": "Zeros", "config": {}}, "gamma_initializer": {"class_name": "Ones", "config": {}}, "moving_mean_initializer": {"class_name": "Zeros", "config": {}}, "moving_variance_initializer": {"class_name": "Ones", "config": {}}, "beta_regularizer": null, "gamma_regularizer": null, "beta_constraint": null, "gamma_constraint": null}, "inbound_nodes": [[["Conv", 0, 0, {}]]]}, {"name": "Conv_Relu6", "class_name": "Activation", "config": {"name": "Conv_Relu6", "trainable": true, "activation": "relu6"}, "inbound_nodes": [[["Conv_BN", 0, 0, {}]]]}, {"name": "expanded_conv_depthwise", "class_name": "DepthwiseConv2D", "config": {"name": "expanded_conv_depthwise", "trainable": true, "kernel_size": [3, 3], "strides": [1, 1], "padding": "same", "data_format": "channels_last", "dilation_rate": [1, 1], "activation": "linear", "use_bias": false, "bias_initializer": {"class_name": "Zeros", "config": {}}, "bias_regularizer": null, "activity_regularizer": null, "bias_constraint": null, "depth_multiplier": 1, "depthwise_initializer": {"class_name": "VarianceScaling", "config": {"scale": 1.0, "mode": "fan_avg", "distribution": "uniform", "seed": null}}, "depthwise_regularizer": null, "depthwise_constraint": null}, "inbound_nodes": [[["Conv_Relu6", 0, 0, {}]]]}, {"name": "expanded_conv_depthwise_BN", "class_name": "BatchNormalization", "config": {"name": "expanded_conv_depthwise_BN", "trainable": true, "axis": -1, "momentum": 0.999, "epsilon": 0.001, "center": true, "scale": true, "beta_initializer": {"class_name": "Zeros", "config": {}}, "gamma_initializer": {"class_name": "Ones", "config": {}}, "moving_mean_initializer": {"class_name": "Zeros", "config": {}}, "moving_variance_initializer": {"class_name": "Ones", "config": {}}, "beta_regularizer": null, "gamma_regularizer": null, "beta_constraint": null, "gamma_constraint": null}, "inbound_nodes": [[["expanded_conv_depthwise", 0, 0, {}]]]}, {"name": "expanded_conv_depthwise_relu", "class_name": "Activation", "config": {"name": "expanded_conv_depthwise_relu", "trainable": true, "activation": "relu6"}, "inbound_nodes": [[["expanded_conv_depthwise_BN", 0, 0, {}]]]}, {"name": "expanded_conv_project", "class_name": "Conv2D", "config": {"name": "expanded_conv_project", "trainable": true, "filters": 16, "kernel_size": [1, 1], "strides": [1, 1], "padding": "same", "data_format": "channels_last", "dilation_rate": [1, 1], "activation": "linear", "use_bias": false, "kernel_initializer": {"class_name": "VarianceScaling", "config": {"scale": 1.0, "mode": "fan_avg", "distribution": "uniform", "seed": null}}, "bias_initializer": {"class_name": "Zeros", "config": {}}, "kernel_regularizer": null, "bias_regularizer": null, "activity_regularizer": null, "kernel_constraint": null, "bias_constraint": null}, "inbound_nodes": [[["expanded_conv_depthwise_relu", 0, 0, {}]]]}, {"name": "expanded_conv_project_BN", "class_name": "BatchNormalization", "config": {"name": "expanded_conv_project_BN", "trainable": true, "axis": -1, "momentum": 0.999, "epsilon": 0.001, "center": true, "scale": true, "beta_initializer": {"class_name": "Zeros", "config": {}}, "gamma_initializer": {"class_name": "Ones", "config": {}}, "moving_mean_initializer": {"class_name": "Zeros", "config": {}}, "moving_variance_initializer": {"class_name": "Ones", "config": {}}, "beta_regularizer": null, "gamma_regularizer": null, "beta_constraint": null, "gamma_constraint": null}, "inbound_nodes": [[["expanded_conv_project", 0, 0, {}]]]}, {"name": "expanded_conv_1_expand", "class_name": "Conv2D", "config": {"name": "expanded_conv_1_expand", "trainable": true, "filters": 96, "kernel_size": [1, 1], "strides": [1, 1], "padding": "same", "data_format": "channels_last", "dilation_rate": [1, 1], "activation": "linear", "use_bias": false, "kernel_initializer": {"class_name": "VarianceScaling", "config": {"scale": 1.0, "mode": "fan_avg", "distribution": "uniform", "seed": null}}, "bias_initializer": {"class_name": "Zeros", "config": {}}, "kernel_regularizer": null, "bias_regularizer": null, "activity_regularizer": null, "kernel_constraint": null, "bias_constraint": null}, "inbound_nodes": [[["expanded_conv_project_BN", 0, 0, {}]]]}, {"name": "expanded_conv_1_expand_BN", "class_name": "BatchNormalization", "config": {"name": "expanded_conv_1_expand_BN", "trainable": true, "axis": -1, "momentum": 0.999, "epsilon": 0.001, "center": true, "scale": true, "beta_initializer": {"class_name": "Zeros", "config": {}}, "gamma_initializer": {"class_name": "Ones", "config": {}}, "moving_mean_initializer": {"class_name": "Zeros", "config": {}}, "moving_variance_initializer": {"class_name": "Ones", "config": {}}, "beta_regularizer": null, "gamma_regularizer": null, "beta_constraint": null, "gamma_constraint": null}, "inbound_nodes": [[["expanded_conv_1_expand", 0, 0, {}]]]}, {"name": "expanded_conv_1_expand_relu", "class_name": "Activation", "config": {"name": "expanded_conv_1_expand_relu", "trainable": true, "activation": "relu6"}, "inbound_nodes": [[["expanded_conv_1_expand_BN", 0, 0, {}]]]}, {"name": "expanded_conv_1_depthwise", "class_name": "DepthwiseConv2D", "config": {"name": "expanded_conv_1_depthwise", "trainable": true, "kernel_size": [3, 3], "strides": [2, 2], "padding": "same", "data_format": "channels_last", "dilation_rate": [1, 1], "activation": "linear", "use_bias": false, "bias_initializer": {"class_name": "Zeros", "config": {}}, "bias_regularizer": null, "activity_regularizer": null, "bias_constraint": null, "depth_multiplier": 1, "depthwise_initializer": {"class_name": "VarianceScaling", "config": {"scale": 1.0, "mode": "fan_avg", "distribution": "uniform", "seed": null}}, "depthwise_regularizer": null, "depthwise_constraint": null}, "inbound_nodes": [[["expanded_conv_1_expand_relu", 0, 0, {}]]]}, {"name": "expanded_conv_1_depthwise_BN", "class_name": "BatchNormalization", "config": {"name": "expanded_conv_1_depthwise_BN", "trainable": true, "axis": -1, "momentum": 0.999, "epsilon": 0.001, "center": true, "scale": true, "beta_initializer": {"class_name": "Zeros", "config": {}}, "gamma_initializer": {"class_name": "Ones", "config": {}}, "moving_mean_initializer": {"class_name": "Zeros", "config": {}}, "moving_variance_initializer": {"class_name": "Ones", "config": {}}, "beta_regularizer": null, "gamma_regularizer": null, "beta_constraint": null, "gamma_constraint": null}, "inbound_nodes": [[["expanded_conv_1_depthwise", 0, 0, {}]]]}, {"name": "expanded_conv_1_depthwise_relu", "class_name": "Activation", "config": {"name": "expanded_conv_1_depthwise_relu", "trainable": true, "activation": "relu6"}, "inbound_nodes": [[["expanded_conv_1_depthwise_BN", 0, 0, {}]]]}, {"name": "expanded_conv_1_project", "class_name": "Conv2D", "config": {"name": "expanded_conv_1_project", "trainable": true, "filters": 24, "kernel_size": [1, 1], "strides": [1, 1], "padding": "same", "data_format": "channels_last", "dilation_rate": [1, 1], "activation": "linear", "use_bias": false, "kernel_initializer": {"class_name": "VarianceScaling", "config": {"scale": 1.0, "mode": "fan_avg", "distribution": "uniform", "seed": null}}, "bias_initializer": {"class_name": "Zeros", "config": {}}, "kernel_regularizer": null, "bias_regularizer": null, "activity_regularizer": null, "kernel_constraint": null, "bias_constraint": null}, "inbound_nodes": [[["expanded_conv_1_depthwise_relu", 0, 0, {}]]]}, {"name": "expanded_conv_1_project_BN", "class_name": "BatchNormalization", "config": {"name": "expanded_conv_1_project_BN", "trainable": true, "axis": -1, "momentum": 0.999, "epsilon": 0.001, "center": true, "scale": true, "beta_initializer": {"class_name": "Zeros", "config": {}}, "gamma_initializer": {"class_name": "Ones", "config": {}}, "moving_mean_initializer": {"class_name": "Zeros", "config": {}}, "moving_variance_initializer": {"class_name": "Ones", "config": {}}, "beta_regularizer": null, "gamma_regularizer": null, "beta_constraint": null, "gamma_constraint": null}, "inbound_nodes": [[["expanded_conv_1_project", 0, 0, {}]]]}, {"name": "expanded_conv_2_expand", "class_name": "Conv2D", "config": {"name": "expanded_conv_2_expand", "trainable": true, "filters": 144, "kernel_size": [1, 1], "strides": [1, 1], "padding": "same", "data_format": "channels_last", "dilation_rate": [1, 1], "activation": "linear", "use_bias": false, "kernel_initializer": {"class_name": "VarianceScaling", "config": {"scale": 1.0, "mode": "fan_avg", "distribution": "uniform", "seed": null}}, "bias_initializer": {"class_name": "Zeros", "config": {}}, "kernel_regularizer": null, "bias_regularizer": null, "activity_regularizer": null, "kernel_constraint": null, "bias_constraint": null}, "inbound_nodes": [[["expanded_conv_1_project_BN", 0, 0, {}]]]}, {"name": "expanded_conv_2_expand_BN", "class_name": "BatchNormalization", "config": {"name": "expanded_conv_2_expand_BN", "trainable": true, "axis": -1, "momentum": 0.999, "epsilon": 0.001, "center": true, "scale": true, "beta_initializer": {"class_name": "Zeros", "config": {}}, "gamma_initializer": {"class_name": "Ones", "config": {}}, "moving_mean_initializer": {"class_name": "Zeros", "config": {}}, "moving_variance_initializer": {"class_name": "Ones", "config": {}}, "beta_regularizer": null, "gamma_regularizer": null, "beta_constraint": null, "gamma_constraint": null}, "inbound_nodes": [[["expanded_conv_2_expand", 0, 0, {}]]]}, {"name": "expanded_conv_2_expand_relu", "class_name": "Activation", "config": {"name": "expanded_conv_2_expand_relu", "trainable": true, "activation": "relu6"}, "inbound_nodes": [[["expanded_conv_2_expand_BN", 0, 0, {}]]]}, {"name": "expanded_conv_2_depthwise", "class_name": "DepthwiseConv2D", "config": {"name": "expanded_conv_2_depthwise", "trainable": true, "kernel_size": [3, 3], "strides": [1, 1], "padding": "same", "data_format": "channels_last", "dilation_rate": [1, 1], "activation": "linear", "use_bias": false, "bias_initializer": {"class_name": "Zeros", "config": {}}, "bias_regularizer": null, "activity_regularizer": null, "bias_constraint": null, "depth_multiplier": 1, "depthwise_initializer": {"class_name": "VarianceScaling", "config": {"scale": 1.0, "mode": "fan_avg", "distribution": "uniform", "seed": null}}, "depthwise_regularizer": null, "depthwise_constraint": null}, "inbound_nodes": [[["expanded_conv_2_expand_relu", 0, 0, {}]]]}, {"name": "expanded_conv_2_depthwise_BN", "class_name": "BatchNormalization", "config": {"name": "expanded_conv_2_depthwise_BN", "trainable": true, "axis": -1, "momentum": 0.999, "epsilon": 0.001, "center": true, "scale": true, "beta_initializer": {"class_name": "Zeros", "config": {}}, "gamma_initializer": {"class_name": "Ones", "config": {}}, "moving_mean_initializer": {"class_name": "Zeros", "config": {}}, "moving_variance_initializer": {"class_name": "Ones", "config": {}}, "beta_regularizer": null, "gamma_regularizer": null, "beta_constraint": null, "gamma_constraint": null}, "inbound_nodes": [[["expanded_conv_2_depthwise", 0, 0, {}]]]}, {"name": "expanded_conv_2_depthwise_relu", "class_name": "Activation", "config": {"name": "expanded_conv_2_depthwise_relu", "trainable": true, "activation": "relu6"}, "inbound_nodes": [[["expanded_conv_2_depthwise_BN", 0, 0, {}]]]}, {"name": "expanded_conv_2_project", "class_name": "Conv2D", "config": {"name": "expanded_conv_2_project", "trainable": true, "filters": 24, "kernel_size": [1, 1], "strides": [1, 1], "padding": "same", "data_format": "channels_last", "dilation_rate": [1, 1], "activation": "linear", "use_bias": false, "kernel_initializer": {"class_name": "VarianceScaling", "config": {"scale": 1.0, "mode": "fan_avg", "distribution": "uniform", "seed": null}}, "bias_initializer": {"class_name": "Zeros", "config": {}}, "kernel_regularizer": null, "bias_regularizer": null, "activity_regularizer": null, "kernel_constraint": null, "bias_constraint": null}, "inbound_nodes": [[["expanded_conv_2_depthwise_relu", 0, 0, {}]]]}, {"name": "expanded_conv_2_project_BN", "class_name": "BatchNormalization", "config": {"name": "expanded_conv_2_project_BN", "trainable": true, "axis": -1, "momentum": 0.999, "epsilon": 0.001, "center": true, "scale": true, "beta_initializer": {"class_name": "Zeros", "config": {}}, "gamma_initializer": {"class_name": "Ones", "config": {}}, "moving_mean_initializer": {"class_name": "Zeros", "config": {}}, "moving_variance_initializer": {"class_name": "Ones", "config": {}}, "beta_regularizer": null, "gamma_regularizer": null, "beta_constraint": null, "gamma_constraint": null}, "inbound_nodes": [[["expanded_conv_2_project", 0, 0, {}]]]}, {"name": "expanded_conv_2_add", "class_name": "Add", "config": {"name": "expanded_conv_2_add", "trainable": true}, "inbound_nodes": [[["expanded_conv_1_project_BN", 0, 0, {}], ["expanded_conv_2_project_BN", 0, 0, {}]]]}, {"name": "expanded_conv_3_expand", "class_name": "Conv2D", "config": {"name": "expanded_conv_3_expand", "trainable": true, "filters": 144, "kernel_size": [1, 1], "strides": [1, 1], "padding": "same", "data_format": "channels_last", "dilation_rate": [1, 1], "activation": "linear", "use_bias": false, "kernel_initializer": {"class_name": "VarianceScaling", "config": {"scale": 1.0, "mode": "fan_avg", "distribution": "uniform", "seed": null}}, "bias_initializer": {"class_name": "Zeros", "config": {}}, "kernel_regularizer": null, "bias_regularizer": null, "activity_regularizer": null, "kernel_constraint": null, "bias_constraint": null}, "inbound_nodes": [[["expanded_conv_2_add", 0, 0, {}]]]}, {"name": "expanded_conv_3_expand_BN", "class_name": "BatchNormalization", "config": {"name": "expanded_conv_3_expand_BN", "trainable": true, "axis": -1, "momentum": 0.999, "epsilon": 0.001, "center": true, "scale": true, "beta_initializer": {"class_name": "Zeros", "config": {}}, "gamma_initializer": {"class_name": "Ones", "config": {}}, "moving_mean_initializer": {"class_name": "Zeros", "config": {}}, "moving_variance_initializer": {"class_name": "Ones", "config": {}}, "beta_regularizer": null, "gamma_regularizer": null, "beta_constraint": null, "gamma_constraint": null}, "inbound_nodes": [[["expanded_conv_3_expand", 0, 0, {}]]]}, {"name": "expanded_conv_3_expand_relu", "class_name": "Activation", "config": {"name": "expanded_conv_3_expand_relu", "trainable": true, "activation": "relu6"}, "inbound_nodes": [[["expanded_conv_3_expand_BN", 0, 0, {}]]]}, {"name": "expanded_conv_3_depthwise", "class_name": "DepthwiseConv2D", "config": {"name": "expanded_conv_3_depthwise", "trainable": true, "kernel_size": [3, 3], "strides": [2, 2], "padding": "same", "data_format": "channels_last", "dilation_rate": [1, 1], "activation": "linear", "use_bias": false, "bias_initializer": {"class_name": "Zeros", "config": {}}, "bias_regularizer": null, "activity_regularizer": null, "bias_constraint": null, "depth_multiplier": 1, "depthwise_initializer": {"class_name": "VarianceScaling", "config": {"scale": 1.0, "mode": "fan_avg", "distribution": "uniform", "seed": null}}, "depthwise_regularizer": null, "depthwise_constraint": null}, "inbound_nodes": [[["expanded_conv_3_expand_relu", 0, 0, {}]]]}, {"name": "expanded_conv_3_depthwise_BN", "class_name": "BatchNormalization", "config": {"name": "expanded_conv_3_depthwise_BN", "trainable": true, "axis": -1, "momentum": 0.999, "epsilon": 0.001, "center": true, "scale": true, "beta_initializer": {"class_name": "Zeros", "config": {}}, "gamma_initializer": {"class_name": "Ones", "config": {}}, "moving_mean_initializer": {"class_name": "Zeros", "config": {}}, "moving_variance_initializer": {"class_name": "Ones", "config": {}}, "beta_regularizer": null, "gamma_regularizer": null, "beta_constraint": null, "gamma_constraint": null}, "inbound_nodes": [[["expanded_conv_3_depthwise", 0, 0, {}]]]}, {"name": "expanded_conv_3_depthwise_relu", "class_name": "Activation", "config": {"name": "expanded_conv_3_depthwise_relu", "trainable": true, "activation": "relu6"}, "inbound_nodes": [[["expanded_conv_3_depthwise_BN", 0, 0, {}]]]}, {"name": "expanded_conv_3_project", "class_name": "Conv2D", "config": {"name": "expanded_conv_3_project", "trainable": true, "filters": 32, "kernel_size": [1, 1], "strides": [1, 1], "padding": "same", "data_format": "channels_last", "dilation_rate": [1, 1], "activation": "linear", "use_bias": false, "kernel_initializer": {"class_name": "VarianceScaling", "config": {"scale": 1.0, "mode": "fan_avg", "distribution": "uniform", "seed": null}}, "bias_initializer": {"class_name": "Zeros", "config": {}}, "kernel_regularizer": null, "bias_regularizer": null, "activity_regularizer": null, "kernel_constraint": null, "bias_constraint": null}, "inbound_nodes": [[["expanded_conv_3_depthwise_relu", 0, 0, {}]]]}, {"name": "expanded_conv_3_project_BN", "class_name": "BatchNormalization", "config": {"name": "expanded_conv_3_project_BN", "trainable": true, "axis": -1, "momentum": 0.999, "epsilon": 0.001, "center": true, "scale": true, "beta_initializer": {"class_name": "Zeros", "config": {}}, "gamma_initializer": {"class_name": "Ones", "config": {}}, "moving_mean_initializer": {"class_name": "Zeros", "config": {}}, "moving_variance_initializer": {"class_name": "Ones", "config": {}}, "beta_regularizer": null, "gamma_regularizer": null, "beta_constraint": null, "gamma_constraint": null}, "inbound_nodes": [[["expanded_conv_3_project", 0, 0, {}]]]}, {"name": "expanded_conv_4_expand", "class_name": "Conv2D", "config": {"name": "expanded_conv_4_expand", "trainable": true, "filters": 192, "kernel_size": [1, 1], "strides": [1, 1], "padding": "same", "data_format": "channels_last", "dilation_rate": [1, 1], "activation": "linear", "use_bias": false, "kernel_initializer": {"class_name": "VarianceScaling", "config": {"scale": 1.0, "mode": "fan_avg", "distribution": "uniform", "seed": null}}, "bias_initializer": {"class_name": "Zeros", "config": {}}, "kernel_regularizer": null, "bias_regularizer": null, "activity_regularizer": null, "kernel_constraint": null, "bias_constraint": null}, "inbound_nodes": [[["expanded_conv_3_project_BN", 0, 0, {}]]]}, {"name": "expanded_conv_4_expand_BN", "class_name": "BatchNormalization", "config": {"name": "expanded_conv_4_expand_BN", "trainable": true, "axis": -1, "momentum": 0.999, "epsilon": 0.001, "center": true, "scale": true, "beta_initializer": {"class_name": "Zeros", "config": {}}, "gamma_initializer": {"class_name": "Ones", "config": {}}, "moving_mean_initializer": {"class_name": "Zeros", "config": {}}, "moving_variance_initializer": {"class_name": "Ones", "config": {}}, "beta_regularizer": null, "gamma_regularizer": null, "beta_constraint": null, "gamma_constraint": null}, "inbound_nodes": [[["expanded_conv_4_expand", 0, 0, {}]]]}, {"name": "expanded_conv_4_expand_relu", "class_name": "Activation", "config": {"name": "expanded_conv_4_expand_relu", "trainable": true, "activation": "relu6"}, "inbound_nodes": [[["expanded_conv_4_expand_BN", 0, 0, {}]]]}, {"name": "expanded_conv_4_depthwise", "class_name": "DepthwiseConv2D", "config": {"name": "expanded_conv_4_depthwise", "trainable": true, "kernel_size": [3, 3], "strides": [1, 1], "padding": "same", "data_format": "channels_last", "dilation_rate": [1, 1], "activation": "linear", "use_bias": false, "bias_initializer": {"class_name": "Zeros", "config": {}}, "bias_regularizer": null, "activity_regularizer": null, "bias_constraint": null, "depth_multiplier": 1, "depthwise_initializer": {"class_name": "VarianceScaling", "config": {"scale": 1.0, "mode": "fan_avg", "distribution": "uniform", "seed": null}}, "depthwise_regularizer": null, "depthwise_constraint": null}, "inbound_nodes": [[["expanded_conv_4_expand_relu", 0, 0, {}]]]}, {"name": "expanded_conv_4_depthwise_BN", "class_name": "BatchNormalization", "config": {"name": "expanded_conv_4_depthwise_BN", "trainable": true, "axis": -1, "momentum": 0.999, "epsilon": 0.001, "center": true, "scale": true, "beta_initializer": {"class_name": "Zeros", "config": {}}, "gamma_initializer": {"class_name": "Ones", "config": {}}, "moving_mean_initializer": {"class_name": "Zeros", "config": {}}, "moving_variance_initializer": {"class_name": "Ones", "config": {}}, "beta_regularizer": null, "gamma_regularizer": null, "beta_constraint": null, "gamma_constraint": null}, "inbound_nodes": [[["expanded_conv_4_depthwise", 0, 0, {}]]]}, {"name": "expanded_conv_4_depthwise_relu", "class_name": "Activation", "config": {"name": "expanded_conv_4_depthwise_relu", "trainable": true, "activation": "relu6"}, "inbound_nodes": [[["expanded_conv_4_depthwise_BN", 0, 0, {}]]]}, {"name": "expanded_conv_4_project", "class_name": "Conv2D", "config": {"name": "expanded_conv_4_project", "trainable": true, "filters": 32, "kernel_size": [1, 1], "strides": [1, 1], "padding": "same", "data_format": "channels_last", "dilation_rate": [1, 1], "activation": "linear", "use_bias": false, "kernel_initializer": {"class_name": "VarianceScaling", "config": {"scale": 1.0, "mode": "fan_avg", "distribution": "uniform", "seed": null}}, "bias_initializer": {"class_name": "Zeros", "config": {}}, "kernel_regularizer": null, "bias_regularizer": null, "activity_regularizer": null, "kernel_constraint": null, "bias_constraint": null}, "inbound_nodes": [[["expanded_conv_4_depthwise_relu", 0, 0, {}]]]}, {"name": "expanded_conv_4_project_BN", "class_name": "BatchNormalization", "config": {"name": "expanded_conv_4_project_BN", "trainable": true, "axis": -1, "momentum": 0.999, "epsilon": 0.001, "center": true, "scale": true, "beta_initializer": {"class_name": "Zeros", "config": {}}, "gamma_initializer": {"class_name": "Ones", "config": {}}, "moving_mean_initializer": {"class_name": "Zeros", "config": {}}, "moving_variance_initializer": {"class_name": "Ones", "config": {}}, "beta_regularizer": null, "gamma_regularizer": null, "beta_constraint": null, "gamma_constraint": null}, "inbound_nodes": [[["expanded_conv_4_project", 0, 0, {}]]]}, {"name": "expanded_conv_4_add", "class_name": "Add", "config": {"name": "expanded_conv_4_add", "trainable": true}, "inbound_nodes": [[["expanded_conv_3_project_BN", 0, 0, {}], ["expanded_conv_4_project_BN", 0, 0, {}]]]}, {"name": "expanded_conv_5_expand", "class_name": "Conv2D", "config": {"name": "expanded_conv_5_expand", "trainable": true, "filters": 192, "kernel_size": [1, 1], "strides": [1, 1], "padding": "same", "data_format": "channels_last", "dilation_rate": [1, 1], "activation": "linear", "use_bias": false, "kernel_initializer": {"class_name": "VarianceScaling", "config": {"scale": 1.0, "mode": "fan_avg", "distribution": "uniform", "seed": null}}, "bias_initializer": {"class_name": "Zeros", "config": {}}, "kernel_regularizer": null, "bias_regularizer": null, "activity_regularizer": null, "kernel_constraint": null, "bias_constraint": null}, "inbound_nodes": [[["expanded_conv_4_add", 0, 0, {}]]]}, {"name": "expanded_conv_5_expand_BN", "class_name": "BatchNormalization", "config": {"name": "expanded_conv_5_expand_BN", "trainable": true, "axis": -1, "momentum": 0.999, "epsilon": 0.001, "center": true, "scale": true, "beta_initializer": {"class_name": "Zeros", "config": {}}, "gamma_initializer": {"class_name": "Ones", "config": {}}, "moving_mean_initializer": {"class_name": "Zeros", "config": {}}, "moving_variance_initializer": {"class_name": "Ones", "config": {}}, "beta_regularizer": null, "gamma_regularizer": null, "beta_constraint": null, "gamma_constraint": null}, "inbound_nodes": [[["expanded_conv_5_expand", 0, 0, {}]]]}, {"name": "expanded_conv_5_expand_relu", "class_name": "Activation", "config": {"name": "expanded_conv_5_expand_relu", "trainable": true, "activation": "relu6"}, "inbound_nodes": [[["expanded_conv_5_expand_BN", 0, 0, {}]]]}, {"name": "expanded_conv_5_depthwise", "class_name": "DepthwiseConv2D", "config": {"name": "expanded_conv_5_depthwise", "trainable": true, "kernel_size": [3, 3], "strides": [1, 1], "padding": "same", "data_format": "channels_last", "dilation_rate": [1, 1], "activation": "linear", "use_bias": false, "bias_initializer": {"class_name": "Zeros", "config": {}}, "bias_regularizer": null, "activity_regularizer": null, "bias_constraint": null, "depth_multiplier": 1, "depthwise_initializer": {"class_name": "VarianceScaling", "config": {"scale": 1.0, "mode": "fan_avg", "distribution": "uniform", "seed": null}}, "depthwise_regularizer": null, "depthwise_constraint": null}, "inbound_nodes": [[["expanded_conv_5_expand_relu", 0, 0, {}]]]}, {"name": "expanded_conv_5_depthwise_BN", "class_name": "BatchNormalization", "config": {"name": "expanded_conv_5_depthwise_BN", "trainable": true, "axis": -1, "momentum": 0.999, "epsilon": 0.001, "center": true, "scale": true, "beta_initializer": {"class_name": "Zeros", "config": {}}, "gamma_initializer": {"class_name": "Ones", "config": {}}, "moving_mean_initializer": {"class_name": "Zeros", "config": {}}, "moving_variance_initializer": {"class_name": "Ones", "config": {}}, "beta_regularizer": null, "gamma_regularizer": null, "beta_constraint": null, "gamma_constraint": null}, "inbound_nodes": [[["expanded_conv_5_depthwise", 0, 0, {}]]]}, {"name": "expanded_conv_5_depthwise_relu", "class_name": "Activation", "config": {"name": "expanded_conv_5_depthwise_relu", "trainable": true, "activation": "relu6"}, "inbound_nodes": [[["expanded_conv_5_depthwise_BN", 0, 0, {}]]]}, {"name": "expanded_conv_5_project", "class_name": "Conv2D", "config": {"name": "expanded_conv_5_project", "trainable": true, "filters": 32, "kernel_size": [1, 1], "strides": [1, 1], "padding": "same", "data_format": "channels_last", "dilation_rate": [1, 1], "activation": "linear", "use_bias": false, "kernel_initializer": {"class_name": "VarianceScaling", "config": {"scale": 1.0, "mode": "fan_avg", "distribution": "uniform", "seed": null}}, "bias_initializer": {"class_name": "Zeros", "config": {}}, "kernel_regularizer": null, "bias_regularizer": null, "activity_regularizer": null, "kernel_constraint": null, "bias_constraint": null}, "inbound_nodes": [[["expanded_conv_5_depthwise_relu", 0, 0, {}]]]}, {"name": "expanded_conv_5_project_BN", "class_name": "BatchNormalization", "config": {"name": "expanded_conv_5_project_BN", "trainable": true, "axis": -1, "momentum": 0.999, "epsilon": 0.001, "center": true, "scale": true, "beta_initializer": {"class_name": "Zeros", "config": {}}, "gamma_initializer": {"class_name": "Ones", "config": {}}, "moving_mean_initializer": {"class_name": "Zeros", "config": {}}, "moving_variance_initializer": {"class_name": "Ones", "config": {}}, "beta_regularizer": null, "gamma_regularizer": null, "beta_constraint": null, "gamma_constraint": null}, "inbound_nodes": [[["expanded_conv_5_project", 0, 0, {}]]]}, {"name": "expanded_conv_5_add", "class_name": "Add", "config": {"name": "expanded_conv_5_add", "trainable": true}, "inbound_nodes": [[["expanded_conv_4_add", 0, 0, {}], ["expanded_conv_5_project_BN", 0, 0, {}]]]}, {"name": "expanded_conv_6_expand", "class_name": "Conv2D", "config": {"name": "expanded_conv_6_expand", "trainable": true, "filters": 192, "kernel_size": [1, 1], "strides": [1, 1], "padding": "same", "data_format": "channels_last", "dilation_rate": [1, 1], "activation": "linear", "use_bias": false, "kernel_initializer": {"class_name": "VarianceScaling", "config": {"scale": 1.0, "mode": "fan_avg", "distribution": "uniform", "seed": null}}, "bias_initializer": {"class_name": "Zeros", "config": {}}, "kernel_regularizer": null, "bias_regularizer": null, "activity_regularizer": null, "kernel_constraint": null, "bias_constraint": null}, "inbound_nodes": [[["expanded_conv_5_add", 0, 0, {}]]]}, {"name": "expanded_conv_6_expand_BN", "class_name": "BatchNormalization", "config": {"name": "expanded_conv_6_expand_BN", "trainable": true, "axis": -1, "momentum": 0.999, "epsilon": 0.001, "center": true, "scale": true, "beta_initializer": {"class_name": "Zeros", "config": {}}, "gamma_initializer": {"class_name": "Ones", "config": {}}, "moving_mean_initializer": {"class_name": "Zeros", "config": {}}, "moving_variance_initializer": {"class_name": "Ones", "config": {}}, "beta_regularizer": null, "gamma_regularizer": null, "beta_constraint": null, "gamma_constraint": null}, "inbound_nodes": [[["expanded_conv_6_expand", 0, 0, {}]]]}, {"name": "expanded_conv_6_expand_relu", "class_name": "Activation", "config": {"name": "expanded_conv_6_expand_relu", "trainable": true, "activation": "relu6"}, "inbound_nodes": [[["expanded_conv_6_expand_BN", 0, 0, {}]]]}, {"name": "expanded_conv_6_depthwise", "class_name": "DepthwiseConv2D", "config": {"name": "expanded_conv_6_depthwise", "trainable": true, "kernel_size": [3, 3], "strides": [1, 1], "padding": "same", "data_format": "channels_last", "dilation_rate": [1, 1], "activation": "linear", "use_bias": false, "bias_initializer": {"class_name": "Zeros", "config": {}}, "bias_regularizer": null, "activity_regularizer": null, "bias_constraint": null, "depth_multiplier": 1, "depthwise_initializer": {"class_name": "VarianceScaling", "config": {"scale": 1.0, "mode": "fan_avg", "distribution": "uniform", "seed": null}}, "depthwise_regularizer": null, "depthwise_constraint": null}, "inbound_nodes": [[["expanded_conv_6_expand_relu", 0, 0, {}]]]}, {"name": "expanded_conv_6_depthwise_BN", "class_name": "BatchNormalization", "config": {"name": "expanded_conv_6_depthwise_BN", "trainable": true, "axis": -1, "momentum": 0.999, "epsilon": 0.001, "center": true, "scale": true, "beta_initializer": {"class_name": "Zeros", "config": {}}, "gamma_initializer": {"class_name": "Ones", "config": {}}, "moving_mean_initializer": {"class_name": "Zeros", "config": {}}, "moving_variance_initializer": {"class_name": "Ones", "config": {}}, "beta_regularizer": null, "gamma_regularizer": null, "beta_constraint": null, "gamma_constraint": null}, "inbound_nodes": [[["expanded_conv_6_depthwise", 0, 0, {}]]]}, {"name": "expanded_conv_6_depthwise_relu", "class_name": "Activation", "config": {"name": "expanded_conv_6_depthwise_relu", "trainable": true, "activation": "relu6"}, "inbound_nodes": [[["expanded_conv_6_depthwise_BN", 0, 0, {}]]]}, {"name": "expanded_conv_6_project", "class_name": "Conv2D", "config": {"name": "expanded_conv_6_project", "trainable": true, "filters": 64, "kernel_size": [1, 1], "strides": [1, 1], "padding": "same", "data_format": "channels_last", "dilation_rate": [1, 1], "activation": "linear", "use_bias": false, "kernel_initializer": {"class_name": "VarianceScaling", "config": {"scale": 1.0, "mode": "fan_avg", "distribution": "uniform", "seed": null}}, "bias_initializer": {"class_name": "Zeros", "config": {}}, "kernel_regularizer": null, "bias_regularizer": null, "activity_regularizer": null, "kernel_constraint": null, "bias_constraint": null}, "inbound_nodes": [[["expanded_conv_6_depthwise_relu", 0, 0, {}]]]}, {"name": "expanded_conv_6_project_BN", "class_name": "BatchNormalization", "config": {"name": "expanded_conv_6_project_BN", "trainable": true, "axis": -1, "momentum": 0.999, "epsilon": 0.001, "center": true, "scale": true, "beta_initializer": {"class_name": "Zeros", "config": {}}, "gamma_initializer": {"class_name": "Ones", "config": {}}, "moving_mean_initializer": {"class_name": "Zeros", "config": {}}, "moving_variance_initializer": {"class_name": "Ones", "config": {}}, "beta_regularizer": null, "gamma_regularizer": null, "beta_constraint": null, "gamma_constraint": null}, "inbound_nodes": [[["expanded_conv_6_project", 0, 0, {}]]]}, {"name": "expanded_conv_7_expand", "class_name": "Conv2D", "config": {"name": "expanded_conv_7_expand", "trainable": true, "filters": 384, "kernel_size": [1, 1], "strides": [1, 1], "padding": "same", "data_format": "channels_last", "dilation_rate": [1, 1], "activation": "linear", "use_bias": false, "kernel_initializer": {"class_name": "VarianceScaling", "config": {"scale": 1.0, "mode": "fan_avg", "distribution": "uniform", "seed": null}}, "bias_initializer": {"class_name": "Zeros", "config": {}}, "kernel_regularizer": null, "bias_regularizer": null, "activity_regularizer": null, "kernel_constraint": null, "bias_constraint": null}, "inbound_nodes": [[["expanded_conv_6_project_BN", 0, 0, {}]]]}, {"name": "expanded_conv_7_expand_BN", "class_name": "BatchNormalization", "config": {"name": "expanded_conv_7_expand_BN", "trainable": true, "axis": -1, "momentum": 0.999, "epsilon": 0.001, "center": true, "scale": true, "beta_initializer": {"class_name": "Zeros", "config": {}}, "gamma_initializer": {"class_name": "Ones", "config": {}}, "moving_mean_initializer": {"class_name": "Zeros", "config": {}}, "moving_variance_initializer": {"class_name": "Ones", "config": {}}, "beta_regularizer": null, "gamma_regularizer": null, "beta_constraint": null, "gamma_constraint": null}, "inbound_nodes": [[["expanded_conv_7_expand", 0, 0, {}]]]}, {"name": "expanded_conv_7_expand_relu", "class_name": "Activation", "config": {"name": "expanded_conv_7_expand_relu", "trainable": true, "activation": "relu6"}, "inbound_nodes": [[["expanded_conv_7_expand_BN", 0, 0, {}]]]}, {"name": "expanded_conv_7_depthwise", "class_name": "DepthwiseConv2D", "config": {"name": "expanded_conv_7_depthwise", "trainable": true, "kernel_size": [3, 3], "strides": [1, 1], "padding": "same", "data_format": "channels_last", "dilation_rate": [2, 2], "activation": "linear", "use_bias": false, "bias_initializer": {"class_name": "Zeros", "config": {}}, "bias_regularizer": null, "activity_regularizer": null, "bias_constraint": null, "depth_multiplier": 1, "depthwise_initializer": {"class_name": "VarianceScaling", "config": {"scale": 1.0, "mode": "fan_avg", "distribution": "uniform", "seed": null}}, "depthwise_regularizer": null, "depthwise_constraint": null}, "inbound_nodes": [[["expanded_conv_7_expand_relu", 0, 0, {}]]]}, {"name": "expanded_conv_7_depthwise_BN", "class_name": "BatchNormalization", "config": {"name": "expanded_conv_7_depthwise_BN", "trainable": true, "axis": -1, "momentum": 0.999, "epsilon": 0.001, "center": true, "scale": true, "beta_initializer": {"class_name": "Zeros", "config": {}}, "gamma_initializer": {"class_name": "Ones", "config": {}}, "moving_mean_initializer": {"class_name": "Zeros", "config": {}}, "moving_variance_initializer": {"class_name": "Ones", "config": {}}, "beta_regularizer": null, "gamma_regularizer": null, "beta_constraint": null, "gamma_constraint": null}, "inbound_nodes": [[["expanded_conv_7_depthwise", 0, 0, {}]]]}, {"name": "expanded_conv_7_depthwise_relu", "class_name": "Activation", "config": {"name": "expanded_conv_7_depthwise_relu", "trainable": true, "activation": "relu6"}, "inbound_nodes": [[["expanded_conv_7_depthwise_BN", 0, 0, {}]]]}, {"name": "expanded_conv_7_project", "class_name": "Conv2D", "config": {"name": "expanded_conv_7_project", "trainable": true, "filters": 64, "kernel_size": [1, 1], "strides": [1, 1], "padding": "same", "data_format": "channels_last", "dilation_rate": [1, 1], "activation": "linear", "use_bias": false, "kernel_initializer": {"class_name": "VarianceScaling", "config": {"scale": 1.0, "mode": "fan_avg", "distribution": "uniform", "seed": null}}, "bias_initializer": {"class_name": "Zeros", "config": {}}, "kernel_regularizer": null, "bias_regularizer": null, "activity_regularizer": null, "kernel_constraint": null, "bias_constraint": null}, "inbound_nodes": [[["expanded_conv_7_depthwise_relu", 0, 0, {}]]]}, {"name": "expanded_conv_7_project_BN", "class_name": "BatchNormalization", "config": {"name": "expanded_conv_7_project_BN", "trainable": true, "axis": -1, "momentum": 0.999, "epsilon": 0.001, "center": true, "scale": true, "beta_initializer": {"class_name": "Zeros", "config": {}}, "gamma_initializer": {"class_name": "Ones", "config": {}}, "moving_mean_initializer": {"class_name": "Zeros", "config": {}}, "moving_variance_initializer": {"class_name": "Ones", "config": {}}, "beta_regularizer": null, "gamma_regularizer": null, "beta_constraint": null, "gamma_constraint": null}, "inbound_nodes": [[["expanded_conv_7_project", 0, 0, {}]]]}, {"name": "expanded_conv_7_add", "class_name": "Add", "config": {"name": "expanded_conv_7_add", "trainable": true}, "inbound_nodes": [[["expanded_conv_6_project_BN", 0, 0, {}], ["expanded_conv_7_project_BN", 0, 0, {}]]]}, {"name": "expanded_conv_8_expand", "class_name": "Conv2D", "config": {"name": "expanded_conv_8_expand", "trainable": true, "filters": 384, "kernel_size": [1, 1], "strides": [1, 1], "padding": "same", "data_format": "channels_last", "dilation_rate": [1, 1], "activation": "linear", "use_bias": false, "kernel_initializer": {"class_name": "VarianceScaling", "config": {"scale": 1.0, "mode": "fan_avg", "distribution": "uniform", "seed": null}}, "bias_initializer": {"class_name": "Zeros", "config": {}}, "kernel_regularizer": null, "bias_regularizer": null, "activity_regularizer": null, "kernel_constraint": null, "bias_constraint": null}, "inbound_nodes": [[["expanded_conv_7_add", 0, 0, {}]]]}, {"name": "expanded_conv_8_expand_BN", "class_name": "BatchNormalization", "config": {"name": "expanded_conv_8_expand_BN", "trainable": true, "axis": -1, "momentum": 0.999, "epsilon": 0.001, "center": true, "scale": true, "beta_initializer": {"class_name": "Zeros", "config": {}}, "gamma_initializer": {"class_name": "Ones", "config": {}}, "moving_mean_initializer": {"class_name": "Zeros", "config": {}}, "moving_variance_initializer": {"class_name": "Ones", "config": {}}, "beta_regularizer": null, "gamma_regularizer": null, "beta_constraint": null, "gamma_constraint": null}, "inbound_nodes": [[["expanded_conv_8_expand", 0, 0, {}]]]}, {"name": "expanded_conv_8_expand_relu", "class_name": "Activation", "config": {"name": "expanded_conv_8_expand_relu", "trainable": true, "activation": "relu6"}, "inbound_nodes": [[["expanded_conv_8_expand_BN", 0, 0, {}]]]}, {"name": "expanded_conv_8_depthwise", "class_name": "DepthwiseConv2D", "config": {"name": "expanded_conv_8_depthwise", "trainable": true, "kernel_size": [3, 3], "strides": [1, 1], "padding": "same", "data_format": "channels_last", "dilation_rate": [2, 2], "activation": "linear", "use_bias": false, "bias_initializer": {"class_name": "Zeros", "config": {}}, "bias_regularizer": null, "activity_regularizer": null, "bias_constraint": null, "depth_multiplier": 1, "depthwise_initializer": {"class_name": "VarianceScaling", "config": {"scale": 1.0, "mode": "fan_avg", "distribution": "uniform", "seed": null}}, "depthwise_regularizer": null, "depthwise_constraint": null}, "inbound_nodes": [[["expanded_conv_8_expand_relu", 0, 0, {}]]]}, {"name": "expanded_conv_8_depthwise_BN", "class_name": "BatchNormalization", "config": {"name": "expanded_conv_8_depthwise_BN", "trainable": true, "axis": -1, "momentum": 0.999, "epsilon": 0.001, "center": true, "scale": true, "beta_initializer": {"class_name": "Zeros", "config": {}}, "gamma_initializer": {"class_name": "Ones", "config": {}}, "moving_mean_initializer": {"class_name": "Zeros", "config": {}}, "moving_variance_initializer": {"class_name": "Ones", "config": {}}, "beta_regularizer": null, "gamma_regularizer": null, "beta_constraint": null, "gamma_constraint": null}, "inbound_nodes": [[["expanded_conv_8_depthwise", 0, 0, {}]]]}, {"name": "expanded_conv_8_depthwise_relu", "class_name": "Activation", "config": {"name": "expanded_conv_8_depthwise_relu", "trainable": true, "activation": "relu6"}, "inbound_nodes": [[["expanded_conv_8_depthwise_BN", 0, 0, {}]]]}, {"name": "expanded_conv_8_project", "class_name": "Conv2D", "config": {"name": "expanded_conv_8_project", "trainable": true, "filters": 64, "kernel_size": [1, 1], "strides": [1, 1], "padding": "same", "data_format": "channels_last", "dilation_rate": [1, 1], "activation": "linear", "use_bias": false, "kernel_initializer": {"class_name": "VarianceScaling", "config": {"scale": 1.0, "mode": "fan_avg", "distribution": "uniform", "seed": null}}, "bias_initializer": {"class_name": "Zeros", "config": {}}, "kernel_regularizer": null, "bias_regularizer": null, "activity_regularizer": null, "kernel_constraint": null, "bias_constraint": null}, "inbound_nodes": [[["expanded_conv_8_depthwise_relu", 0, 0, {}]]]}, {"name": "expanded_conv_8_project_BN", "class_name": "BatchNormalization", "config": {"name": "expanded_conv_8_project_BN", "trainable": true, "axis": -1, "momentum": 0.999, "epsilon": 0.001, "center": true, "scale": true, "beta_initializer": {"class_name": "Zeros", "config": {}}, "gamma_initializer": {"class_name": "Ones", "config": {}}, "moving_mean_initializer": {"class_name": "Zeros", "config": {}}, "moving_variance_initializer": {"class_name": "Ones", "config": {}}, "beta_regularizer": null, "gamma_regularizer": null, "beta_constraint": null, "gamma_constraint": null}, "inbound_nodes": [[["expanded_conv_8_project", 0, 0, {}]]]}, {"name": "expanded_conv_8_add", "class_name": "Add", "config": {"name": "expanded_conv_8_add", "trainable": true}, "inbound_nodes": [[["expanded_conv_7_add", 0, 0, {}], ["expanded_conv_8_project_BN", 0, 0, {}]]]}, {"name": "expanded_conv_9_expand", "class_name": "Conv2D", "config": {"name": "expanded_conv_9_expand", "trainable": true, "filters": 384, "kernel_size": [1, 1], "strides": [1, 1], "padding": "same", "data_format": "channels_last", "dilation_rate": [1, 1], "activation": "linear", "use_bias": false, "kernel_initializer": {"class_name": "VarianceScaling", "config": {"scale": 1.0, "mode": "fan_avg", "distribution": "uniform", "seed": null}}, "bias_initializer": {"class_name": "Zeros", "config": {}}, "kernel_regularizer": null, "bias_regularizer": null, "activity_regularizer": null, "kernel_constraint": null, "bias_constraint": null}, "inbound_nodes": [[["expanded_conv_8_add", 0, 0, {}]]]}, {"name": "expanded_conv_9_expand_BN", "class_name": "BatchNormalization", "config": {"name": "expanded_conv_9_expand_BN", "trainable": true, "axis": -1, "momentum": 0.999, "epsilon": 0.001, "center": true, "scale": true, "beta_initializer": {"class_name": "Zeros", "config": {}}, "gamma_initializer": {"class_name": "Ones", "config": {}}, "moving_mean_initializer": {"class_name": "Zeros", "config": {}}, "moving_variance_initializer": {"class_name": "Ones", "config": {}}, "beta_regularizer": null, "gamma_regularizer": null, "beta_constraint": null, "gamma_constraint": null}, "inbound_nodes": [[["expanded_conv_9_expand", 0, 0, {}]]]}, {"name": "expanded_conv_9_expand_relu", "class_name": "Activation", "config": {"name": "expanded_conv_9_expand_relu", "trainable": true, "activation": "relu6"}, "inbound_nodes": [[["expanded_conv_9_expand_BN", 0, 0, {}]]]}, {"name": "expanded_conv_9_depthwise", "class_name": "DepthwiseConv2D", "config": {"name": "expanded_conv_9_depthwise", "trainable": true, "kernel_size": [3, 3], "strides": [1, 1], "padding": "same", "data_format": "channels_last", "dilation_rate": [2, 2], "activation": "linear", "use_bias": false, "bias_initializer": {"class_name": "Zeros", "config": {}}, "bias_regularizer": null, "activity_regularizer": null, "bias_constraint": null, "depth_multiplier": 1, "depthwise_initializer": {"class_name": "VarianceScaling", "config": {"scale": 1.0, "mode": "fan_avg", "distribution": "uniform", "seed": null}}, "depthwise_regularizer": null, "depthwise_constraint": null}, "inbound_nodes": [[["expanded_conv_9_expand_relu", 0, 0, {}]]]}, {"name": "expanded_conv_9_depthwise_BN", "class_name": "BatchNormalization", "config": {"name": "expanded_conv_9_depthwise_BN", "trainable": true, "axis": -1, "momentum": 0.999, "epsilon": 0.001, "center": true, "scale": true, "beta_initializer": {"class_name": "Zeros", "config": {}}, "gamma_initializer": {"class_name": "Ones", "config": {}}, "moving_mean_initializer": {"class_name": "Zeros", "config": {}}, "moving_variance_initializer": {"class_name": "Ones", "config": {}}, "beta_regularizer": null, "gamma_regularizer": null, "beta_constraint": null, "gamma_constraint": null}, "inbound_nodes": [[["expanded_conv_9_depthwise", 0, 0, {}]]]}, {"name": "expanded_conv_9_depthwise_relu", "class_name": "Activation", "config": {"name": "expanded_conv_9_depthwise_relu", "trainable": true, "activation": "relu6"}, "inbound_nodes": [[["expanded_conv_9_depthwise_BN", 0, 0, {}]]]}, {"name": "expanded_conv_9_project", "class_name": "Conv2D", "config": {"name": "expanded_conv_9_project", "trainable": true, "filters": 64, "kernel_size": [1, 1], "strides": [1, 1], "padding": "same", "data_format": "channels_last", "dilation_rate": [1, 1], "activation": "linear", "use_bias": false, "kernel_initializer": {"class_name": "VarianceScaling", "config": {"scale": 1.0, "mode": "fan_avg", "distribution": "uniform", "seed": null}}, "bias_initializer": {"class_name": "Zeros", "config": {}}, "kernel_regularizer": null, "bias_regularizer": null, "activity_regularizer": null, "kernel_constraint": null, "bias_constraint": null}, "inbound_nodes": [[["expanded_conv_9_depthwise_relu", 0, 0, {}]]]}, {"name": "expanded_conv_9_project_BN", "class_name": "BatchNormalization", "config": {"name": "expanded_conv_9_project_BN", "trainable": true, "axis": -1, "momentum": 0.999, "epsilon": 0.001, "center": true, "scale": true, "beta_initializer": {"class_name": "Zeros", "config": {}}, "gamma_initializer": {"class_name": "Ones", "config": {}}, "moving_mean_initializer": {"class_name": "Zeros", "config": {}}, "moving_variance_initializer": {"class_name": "Ones", "config": {}}, "beta_regularizer": null, "gamma_regularizer": null, "beta_constraint": null, "gamma_constraint": null}, "inbound_nodes": [[["expanded_conv_9_project", 0, 0, {}]]]}, {"name": "expanded_conv_9_add", "class_name": "Add", "config": {"name": "expanded_conv_9_add", "trainable": true}, "inbound_nodes": [[["expanded_conv_8_add", 0, 0, {}], ["expanded_conv_9_project_BN", 0, 0, {}]]]}, {"name": "expanded_conv_10_expand", "class_name": "Conv2D", "config": {"name": "expanded_conv_10_expand", "trainable": true, "filters": 384, "kernel_size": [1, 1], "strides": [1, 1], "padding": "same", "data_format": "channels_last", "dilation_rate": [1, 1], "activation": "linear", "use_bias": false, "kernel_initializer": {"class_name": "VarianceScaling", "config": {"scale": 1.0, "mode": "fan_avg", "distribution": "uniform", "seed": null}}, "bias_initializer": {"class_name": "Zeros", "config": {}}, "kernel_regularizer": null, "bias_regularizer": null, "activity_regularizer": null, "kernel_constraint": null, "bias_constraint": null}, "inbound_nodes": [[["expanded_conv_9_add", 0, 0, {}]]]}, {"name": "expanded_conv_10_expand_BN", "class_name": "BatchNormalization", "config": {"name": "expanded_conv_10_expand_BN", "trainable": true, "axis": -1, "momentum": 0.999, "epsilon": 0.001, "center": true, "scale": true, "beta_initializer": {"class_name": "Zeros", "config": {}}, "gamma_initializer": {"class_name": "Ones", "config": {}}, "moving_mean_initializer": {"class_name": "Zeros", "config": {}}, "moving_variance_initializer": {"class_name": "Ones", "config": {}}, "beta_regularizer": null, "gamma_regularizer": null, "beta_constraint": null, "gamma_constraint": null}, "inbound_nodes": [[["expanded_conv_10_expand", 0, 0, {}]]]}, {"name": "expanded_conv_10_expand_relu", "class_name": "Activation", "config": {"name": "expanded_conv_10_expand_relu", "trainable": true, "activation": "relu6"}, "inbound_nodes": [[["expanded_conv_10_expand_BN", 0, 0, {}]]]}, {"name": "expanded_conv_10_depthwise", "class_name": "DepthwiseConv2D", "config": {"name": "expanded_conv_10_depthwise", "trainable": true, "kernel_size": [3, 3], "strides": [1, 1], "padding": "same", "data_format": "channels_last", "dilation_rate": [2, 2], "activation": "linear", "use_bias": false, "bias_initializer": {"class_name": "Zeros", "config": {}}, "bias_regularizer": null, "activity_regularizer": null, "bias_constraint": null, "depth_multiplier": 1, "depthwise_initializer": {"class_name": "VarianceScaling", "config": {"scale": 1.0, "mode": "fan_avg", "distribution": "uniform", "seed": null}}, "depthwise_regularizer": null, "depthwise_constraint": null}, "inbound_nodes": [[["expanded_conv_10_expand_relu", 0, 0, {}]]]}, {"name": "expanded_conv_10_depthwise_BN", "class_name": "BatchNormalization", "config": {"name": "expanded_conv_10_depthwise_BN", "trainable": true, "axis": -1, "momentum": 0.999, "epsilon": 0.001, "center": true, "scale": true, "beta_initializer": {"class_name": "Zeros", "config": {}}, "gamma_initializer": {"class_name": "Ones", "config": {}}, "moving_mean_initializer": {"class_name": "Zeros", "config": {}}, "moving_variance_initializer": {"class_name": "Ones", "config": {}}, "beta_regularizer": null, "gamma_regularizer": null, "beta_constraint": null, "gamma_constraint": null}, "inbound_nodes": [[["expanded_conv_10_depthwise", 0, 0, {}]]]}, {"name": "expanded_conv_10_depthwise_relu", "class_name": "Activation", "config": {"name": "expanded_conv_10_depthwise_relu", "trainable": true, "activation": "relu6"}, "inbound_nodes": [[["expanded_conv_10_depthwise_BN", 0, 0, {}]]]}, {"name": "expanded_conv_10_project", "class_name": "Conv2D", "config": {"name": "expanded_conv_10_project", "trainable": true, "filters": 96, "kernel_size": [1, 1], "strides": [1, 1], "padding": "same", "data_format": "channels_last", "dilation_rate": [1, 1], "activation": "linear", "use_bias": false, "kernel_initializer": {"class_name": "VarianceScaling", "config": {"scale": 1.0, "mode": "fan_avg", "distribution": "uniform", "seed": null}}, "bias_initializer": {"class_name": "Zeros", "config": {}}, "kernel_regularizer": null, "bias_regularizer": null, "activity_regularizer": null, "kernel_constraint": null, "bias_constraint": null}, "inbound_nodes": [[["expanded_conv_10_depthwise_relu", 0, 0, {}]]]}, {"name": "expanded_conv_10_project_BN", "class_name": "BatchNormalization", "config": {"name": "expanded_conv_10_project_BN", "trainable": true, "axis": -1, "momentum": 0.999, "epsilon": 0.001, "center": true, "scale": true, "beta_initializer": {"class_name": "Zeros", "config": {}}, "gamma_initializer": {"class_name": "Ones", "config": {}}, "moving_mean_initializer": {"class_name": "Zeros", "config": {}}, "moving_variance_initializer": {"class_name": "Ones", "config": {}}, "beta_regularizer": null, "gamma_regularizer": null, "beta_constraint": null, "gamma_constraint": null}, "inbound_nodes": [[["expanded_conv_10_project", 0, 0, {}]]]}, {"name": "expanded_conv_11_expand", "class_name": "Conv2D", "config": {"name": "expanded_conv_11_expand", "trainable": true, "filters": 576, "kernel_size": [1, 1], "strides": [1, 1], "padding": "same", "data_format": "channels_last", "dilation_rate": [1, 1], "activation": "linear", "use_bias": false, "kernel_initializer": {"class_name": "VarianceScaling", "config": {"scale": 1.0, "mode": "fan_avg", "distribution": "uniform", "seed": null}}, "bias_initializer": {"class_name": "Zeros", "config": {}}, "kernel_regularizer": null, "bias_regularizer": null, "activity_regularizer": null, "kernel_constraint": null, "bias_constraint": null}, "inbound_nodes": [[["expanded_conv_10_project_BN", 0, 0, {}]]]}, {"name": "expanded_conv_11_expand_BN", "class_name": "BatchNormalization", "config": {"name": "expanded_conv_11_expand_BN", "trainable": true, "axis": -1, "momentum": 0.999, "epsilon": 0.001, "center": true, "scale": true, "beta_initializer": {"class_name": "Zeros", "config": {}}, "gamma_initializer": {"class_name": "Ones", "config": {}}, "moving_mean_initializer": {"class_name": "Zeros", "config": {}}, "moving_variance_initializer": {"class_name": "Ones", "config": {}}, "beta_regularizer": null, "gamma_regularizer": null, "beta_constraint": null, "gamma_constraint": null}, "inbound_nodes": [[["expanded_conv_11_expand", 0, 0, {}]]]}, {"name": "expanded_conv_11_expand_relu", "class_name": "Activation", "config": {"name": "expanded_conv_11_expand_relu", "trainable": true, "activation": "relu6"}, "inbound_nodes": [[["expanded_conv_11_expand_BN", 0, 0, {}]]]}, {"name": "expanded_conv_11_depthwise", "class_name": "DepthwiseConv2D", "config": {"name": "expanded_conv_11_depthwise", "trainable": true, "kernel_size": [3, 3], "strides": [1, 1], "padding": "same", "data_format": "channels_last", "dilation_rate": [2, 2], "activation": "linear", "use_bias": false, "bias_initializer": {"class_name": "Zeros", "config": {}}, "bias_regularizer": null, "activity_regularizer": null, "bias_constraint": null, "depth_multiplier": 1, "depthwise_initializer": {"class_name": "VarianceScaling", "config": {"scale": 1.0, "mode": "fan_avg", "distribution": "uniform", "seed": null}}, "depthwise_regularizer": null, "depthwise_constraint": null}, "inbound_nodes": [[["expanded_conv_11_expand_relu", 0, 0, {}]]]}, {"name": "expanded_conv_11_depthwise_BN", "class_name": "BatchNormalization", "config": {"name": "expanded_conv_11_depthwise_BN", "trainable": true, "axis": -1, "momentum": 0.999, "epsilon": 0.001, "center": true, "scale": true, "beta_initializer": {"class_name": "Zeros", "config": {}}, "gamma_initializer": {"class_name": "Ones", "config": {}}, "moving_mean_initializer": {"class_name": "Zeros", "config": {}}, "moving_variance_initializer": {"class_name": "Ones", "config": {}}, "beta_regularizer": null, "gamma_regularizer": null, "beta_constraint": null, "gamma_constraint": null}, "inbound_nodes": [[["expanded_conv_11_depthwise", 0, 0, {}]]]}, {"name": "expanded_conv_11_depthwise_relu", "class_name": "Activation", "config": {"name": "expanded_conv_11_depthwise_relu", "trainable": true, "activation": "relu6"}, "inbound_nodes": [[["expanded_conv_11_depthwise_BN", 0, 0, {}]]]}, {"name": "expanded_conv_11_project", "class_name": "Conv2D", "config": {"name": "expanded_conv_11_project", "trainable": true, "filters": 96, "kernel_size": [1, 1], "strides": [1, 1], "padding": "same", "data_format": "channels_last", "dilation_rate": [1, 1], "activation": "linear", "use_bias": false, "kernel_initializer": {"class_name": "VarianceScaling", "config": {"scale": 1.0, "mode": "fan_avg", "distribution": "uniform", "seed": null}}, "bias_initializer": {"class_name": "Zeros", "config": {}}, "kernel_regularizer": null, "bias_regularizer": null, "activity_regularizer": null, "kernel_constraint": null, "bias_constraint": null}, "inbound_nodes": [[["expanded_conv_11_depthwise_relu", 0, 0, {}]]]}, {"name": "expanded_conv_11_project_BN", "class_name": "BatchNormalization", "config": {"name": "expanded_conv_11_project_BN", "trainable": true, "axis": -1, "momentum": 0.999, "epsilon": 0.001, "center": true, "scale": true, "beta_initializer": {"class_name": "Zeros", "config": {}}, "gamma_initializer": {"class_name": "Ones", "config": {}}, "moving_mean_initializer": {"class_name": "Zeros", "config": {}}, "moving_variance_initializer": {"class_name": "Ones", "config": {}}, "beta_regularizer": null, "gamma_regularizer": null, "beta_constraint": null, "gamma_constraint": null}, "inbound_nodes": [[["expanded_conv_11_project", 0, 0, {}]]]}, {"name": "expanded_conv_11_add", "class_name": "Add", "config": {"name": "expanded_conv_11_add", "trainable": true}, "inbound_nodes": [[["expanded_conv_10_project_BN", 0, 0, {}], ["expanded_conv_11_project_BN", 0, 0, {}]]]}, {"name": "expanded_conv_12_expand", "class_name": "Conv2D", "config": {"name": "expanded_conv_12_expand", "trainable": true, "filters": 576, "kernel_size": [1, 1], "strides": [1, 1], "padding": "same", "data_format": "channels_last", "dilation_rate": [1, 1], "activation": "linear", "use_bias": false, "kernel_initializer": {"class_name": "VarianceScaling", "config": {"scale": 1.0, "mode": "fan_avg", "distribution": "uniform", "seed": null}}, "bias_initializer": {"class_name": "Zeros", "config": {}}, "kernel_regularizer": null, "bias_regularizer": null, "activity_regularizer": null, "kernel_constraint": null, "bias_constraint": null}, "inbound_nodes": [[["expanded_conv_11_add", 0, 0, {}]]]}, {"name": "expanded_conv_12_expand_BN", "class_name": "BatchNormalization", "config": {"name": "expanded_conv_12_expand_BN", "trainable": true, "axis": -1, "momentum": 0.999, "epsilon": 0.001, "center": true, "scale": true, "beta_initializer": {"class_name": "Zeros", "config": {}}, "gamma_initializer": {"class_name": "Ones", "config": {}}, "moving_mean_initializer": {"class_name": "Zeros", "config": {}}, "moving_variance_initializer": {"class_name": "Ones", "config": {}}, "beta_regularizer": null, "gamma_regularizer": null, "beta_constraint": null, "gamma_constraint": null}, "inbound_nodes": [[["expanded_conv_12_expand", 0, 0, {}]]]}, {"name": "expanded_conv_12_expand_relu", "class_name": "Activation", "config": {"name": "expanded_conv_12_expand_relu", "trainable": true, "activation": "relu6"}, "inbound_nodes": [[["expanded_conv_12_expand_BN", 0, 0, {}]]]}, {"name": "expanded_conv_12_depthwise", "class_name": "DepthwiseConv2D", "config": {"name": "expanded_conv_12_depthwise", "trainable": true, "kernel_size": [3, 3], "strides": [1, 1], "padding": "same", "data_format": "channels_last", "dilation_rate": [2, 2], "activation": "linear", "use_bias": false, "bias_initializer": {"class_name": "Zeros", "config": {}}, "bias_regularizer": null, "activity_regularizer": null, "bias_constraint": null, "depth_multiplier": 1, "depthwise_initializer": {"class_name": "VarianceScaling", "config": {"scale": 1.0, "mode": "fan_avg", "distribution": "uniform", "seed": null}}, "depthwise_regularizer": null, "depthwise_constraint": null}, "inbound_nodes": [[["expanded_conv_12_expand_relu", 0, 0, {}]]]}, {"name": "expanded_conv_12_depthwise_BN", "class_name": "BatchNormalization", "config": {"name": "expanded_conv_12_depthwise_BN", "trainable": true, "axis": -1, "momentum": 0.999, "epsilon": 0.001, "center": true, "scale": true, "beta_initializer": {"class_name": "Zeros", "config": {}}, "gamma_initializer": {"class_name": "Ones", "config": {}}, "moving_mean_initializer": {"class_name": "Zeros", "config": {}}, "moving_variance_initializer": {"class_name": "Ones", "config": {}}, "beta_regularizer": null, "gamma_regularizer": null, "beta_constraint": null, "gamma_constraint": null}, "inbound_nodes": [[["expanded_conv_12_depthwise", 0, 0, {}]]]}, {"name": "expanded_conv_12_depthwise_relu", "class_name": "Activation", "config": {"name": "expanded_conv_12_depthwise_relu", "trainable": true, "activation": "relu6"}, "inbound_nodes": [[["expanded_conv_12_depthwise_BN", 0, 0, {}]]]}, {"name": "expanded_conv_12_project", "class_name": "Conv2D", "config": {"name": "expanded_conv_12_project", "trainable": true, "filters": 96, "kernel_size": [1, 1], "strides": [1, 1], "padding": "same", "data_format": "channels_last", "dilation_rate": [1, 1], "activation": "linear", "use_bias": false, "kernel_initializer": {"class_name": "VarianceScaling", "config": {"scale": 1.0, "mode": "fan_avg", "distribution": "uniform", "seed": null}}, "bias_initializer": {"class_name": "Zeros", "config": {}}, "kernel_regularizer": null, "bias_regularizer": null, "activity_regularizer": null, "kernel_constraint": null, "bias_constraint": null}, "inbound_nodes": [[["expanded_conv_12_depthwise_relu", 0, 0, {}]]]}, {"name": "expanded_conv_12_project_BN", "class_name": "BatchNormalization", "config": {"name": "expanded_conv_12_project_BN", "trainable": true, "axis": -1, "momentum": 0.999, "epsilon": 0.001, "center": true, "scale": true, "beta_initializer": {"class_name": "Zeros", "config": {}}, "gamma_initializer": {"class_name": "Ones", "config": {}}, "moving_mean_initializer": {"class_name": "Zeros", "config": {}}, "moving_variance_initializer": {"class_name": "Ones", "config": {}}, "beta_regularizer": null, "gamma_regularizer": null, "beta_constraint": null, "gamma_constraint": null}, "inbound_nodes": [[["expanded_conv_12_project", 0, 0, {}]]]}, {"name": "expanded_conv_12_add", "class_name": "Add", "config": {"name": "expanded_conv_12_add", "trainable": true}, "inbound_nodes": [[["expanded_conv_11_add", 0, 0, {}], ["expanded_conv_12_project_BN", 0, 0, {}]]]}, {"name": "expanded_conv_13_expand", "class_name": "Conv2D", "config": {"name": "expanded_conv_13_expand", "trainable": true, "filters": 576, "kernel_size": [1, 1], "strides": [1, 1], "padding": "same", "data_format": "channels_last", "dilation_rate": [1, 1], "activation": "linear", "use_bias": false, "kernel_initializer": {"class_name": "VarianceScaling", "config": {"scale": 1.0, "mode": "fan_avg", "distribution": "uniform", "seed": null}}, "bias_initializer": {"class_name": "Zeros", "config": {}}, "kernel_regularizer": null, "bias_regularizer": null, "activity_regularizer": null, "kernel_constraint": null, "bias_constraint": null}, "inbound_nodes": [[["expanded_conv_12_add", 0, 0, {}]]]}, {"name": "expanded_conv_13_expand_BN", "class_name": "BatchNormalization", "config": {"name": "expanded_conv_13_expand_BN", "trainable": true, "axis": -1, "momentum": 0.999, "epsilon": 0.001, "center": true, "scale": true, "beta_initializer": {"class_name": "Zeros", "config": {}}, "gamma_initializer": {"class_name": "Ones", "config": {}}, "moving_mean_initializer": {"class_name": "Zeros", "config": {}}, "moving_variance_initializer": {"class_name": "Ones", "config": {}}, "beta_regularizer": null, "gamma_regularizer": null, "beta_constraint": null, "gamma_constraint": null}, "inbound_nodes": [[["expanded_conv_13_expand", 0, 0, {}]]]}, {"name": "expanded_conv_13_expand_relu", "class_name": "Activation", "config": {"name": "expanded_conv_13_expand_relu", "trainable": true, "activation": "relu6"}, "inbound_nodes": [[["expanded_conv_13_expand_BN", 0, 0, {}]]]}, {"name": "expanded_conv_13_depthwise", "class_name": "DepthwiseConv2D", "config": {"name": "expanded_conv_13_depthwise", "trainable": true, "kernel_size": [3, 3], "strides": [1, 1], "padding": "same", "data_format": "channels_last", "dilation_rate": [2, 2], "activation": "linear", "use_bias": false, "bias_initializer": {"class_name": "Zeros", "config": {}}, "bias_regularizer": null, "activity_regularizer": null, "bias_constraint": null, "depth_multiplier": 1, "depthwise_initializer": {"class_name": "VarianceScaling", "config": {"scale": 1.0, "mode": "fan_avg", "distribution": "uniform", "seed": null}}, "depthwise_regularizer": null, "depthwise_constraint": null}, "inbound_nodes": [[["expanded_conv_13_expand_relu", 0, 0, {}]]]}, {"name": "expanded_conv_13_depthwise_BN", "class_name": "BatchNormalization", "config": {"name": "expanded_conv_13_depthwise_BN", "trainable": true, "axis": -1, "momentum": 0.999, "epsilon": 0.001, "center": true, "scale": true, "beta_initializer": {"class_name": "Zeros", "config": {}}, "gamma_initializer": {"class_name": "Ones", "config": {}}, "moving_mean_initializer": {"class_name": "Zeros", "config": {}}, "moving_variance_initializer": {"class_name": "Ones", "config": {}}, "beta_regularizer": null, "gamma_regularizer": null, "beta_constraint": null, "gamma_constraint": null}, "inbound_nodes": [[["expanded_conv_13_depthwise", 0, 0, {}]]]}, {"name": "expanded_conv_13_depthwise_relu", "class_name": "Activation", "config": {"name": "expanded_conv_13_depthwise_relu", "trainable": true, "activation": "relu6"}, "inbound_nodes": [[["expanded_conv_13_depthwise_BN", 0, 0, {}]]]}, {"name": "expanded_conv_13_project", "class_name": "Conv2D", "config": {"name": "expanded_conv_13_project", "trainable": true, "filters": 160, "kernel_size": [1, 1], "strides": [1, 1], "padding": "same", "data_format": "channels_last", "dilation_rate": [1, 1], "activation": "linear", "use_bias": false, "kernel_initializer": {"class_name": "VarianceScaling", "config": {"scale": 1.0, "mode": "fan_avg", "distribution": "uniform", "seed": null}}, "bias_initializer": {"class_name": "Zeros", "config": {}}, "kernel_regularizer": null, "bias_regularizer": null, "activity_regularizer": null, "kernel_constraint": null, "bias_constraint": null}, "inbound_nodes": [[["expanded_conv_13_depthwise_relu", 0, 0, {}]]]}, {"name": "expanded_conv_13_project_BN", "class_name": "BatchNormalization", "config": {"name": "expanded_conv_13_project_BN", "trainable": true, "axis": -1, "momentum": 0.999, "epsilon": 0.001, "center": true, "scale": true, "beta_initializer": {"class_name": "Zeros", "config": {}}, "gamma_initializer": {"class_name": "Ones", "config": {}}, "moving_mean_initializer": {"class_name": "Zeros", "config": {}}, "moving_variance_initializer": {"class_name": "Ones", "config": {}}, "beta_regularizer": null, "gamma_regularizer": null, "beta_constraint": null, "gamma_constraint": null}, "inbound_nodes": [[["expanded_conv_13_project", 0, 0, {}]]]}, {"name": "expanded_conv_14_expand", "class_name": "Conv2D", "config": {"name": "expanded_conv_14_expand", "trainable": true, "filters": 960, "kernel_size": [1, 1], "strides": [1, 1], "padding": "same", "data_format": "channels_last", "dilation_rate": [1, 1], "activation": "linear", "use_bias": false, "kernel_initializer": {"class_name": "VarianceScaling", "config": {"scale": 1.0, "mode": "fan_avg", "distribution": "uniform", "seed": null}}, "bias_initializer": {"class_name": "Zeros", "config": {}}, "kernel_regularizer": null, "bias_regularizer": null, "activity_regularizer": null, "kernel_constraint": null, "bias_constraint": null}, "inbound_nodes": [[["expanded_conv_13_project_BN", 0, 0, {}]]]}, {"name": "expanded_conv_14_expand_BN", "class_name": "BatchNormalization", "config": {"name": "expanded_conv_14_expand_BN", "trainable": true, "axis": -1, "momentum": 0.999, "epsilon": 0.001, "center": true, "scale": true, "beta_initializer": {"class_name": "Zeros", "config": {}}, "gamma_initializer": {"class_name": "Ones", "config": {}}, "moving_mean_initializer": {"class_name": "Zeros", "config": {}}, "moving_variance_initializer": {"class_name": "Ones", "config": {}}, "beta_regularizer": null, "gamma_regularizer": null, "beta_constraint": null, "gamma_constraint": null}, "inbound_nodes": [[["expanded_conv_14_expand", 0, 0, {}]]]}, {"name": "expanded_conv_14_expand_relu", "class_name": "Activation", "config": {"name": "expanded_conv_14_expand_relu", "trainable": true, "activation": "relu6"}, "inbound_nodes": [[["expanded_conv_14_expand_BN", 0, 0, {}]]]}, {"name": "expanded_conv_14_depthwise", "class_name": "DepthwiseConv2D", "config": {"name": "expanded_conv_14_depthwise", "trainable": true, "kernel_size": [3, 3], "strides": [1, 1], "padding": "same", "data_format": "channels_last", "dilation_rate": [4, 4], "activation": "linear", "use_bias": false, "bias_initializer": {"class_name": "Zeros", "config": {}}, "bias_regularizer": null, "activity_regularizer": null, "bias_constraint": null, "depth_multiplier": 1, "depthwise_initializer": {"class_name": "VarianceScaling", "config": {"scale": 1.0, "mode": "fan_avg", "distribution": "uniform", "seed": null}}, "depthwise_regularizer": null, "depthwise_constraint": null}, "inbound_nodes": [[["expanded_conv_14_expand_relu", 0, 0, {}]]]}, {"name": "expanded_conv_14_depthwise_BN", "class_name": "BatchNormalization", "config": {"name": "expanded_conv_14_depthwise_BN", "trainable": true, "axis": -1, "momentum": 0.999, "epsilon": 0.001, "center": true, "scale": true, "beta_initializer": {"class_name": "Zeros", "config": {}}, "gamma_initializer": {"class_name": "Ones", "config": {}}, "moving_mean_initializer": {"class_name": "Zeros", "config": {}}, "moving_variance_initializer": {"class_name": "Ones", "config": {}}, "beta_regularizer": null, "gamma_regularizer": null, "beta_constraint": null, "gamma_constraint": null}, "inbound_nodes": [[["expanded_conv_14_depthwise", 0, 0, {}]]]}, {"name": "expanded_conv_14_depthwise_relu", "class_name": "Activation", "config": {"name": "expanded_conv_14_depthwise_relu", "trainable": true, "activation": "relu6"}, "inbound_nodes": [[["expanded_conv_14_depthwise_BN", 0, 0, {}]]]}, {"name": "expanded_conv_14_project", "class_name": "Conv2D", "config": {"name": "expanded_conv_14_project", "trainable": true, "filters": 160, "kernel_size": [1, 1], "strides": [1, 1], "padding": "same", "data_format": "channels_last", "dilation_rate": [1, 1], "activation": "linear", "use_bias": false, "kernel_initializer": {"class_name": "VarianceScaling", "config": {"scale": 1.0, "mode": "fan_avg", "distribution": "uniform", "seed": null}}, "bias_initializer": {"class_name": "Zeros", "config": {}}, "kernel_regularizer": null, "bias_regularizer": null, "activity_regularizer": null, "kernel_constraint": null, "bias_constraint": null}, "inbound_nodes": [[["expanded_conv_14_depthwise_relu", 0, 0, {}]]]}, {"name": "expanded_conv_14_project_BN", "class_name": "BatchNormalization", "config": {"name": "expanded_conv_14_project_BN", "trainable": true, "axis": -1, "momentum": 0.999, "epsilon": 0.001, "center": true, "scale": true, "beta_initializer": {"class_name": "Zeros", "config": {}}, "gamma_initializer": {"class_name": "Ones", "config": {}}, "moving_mean_initializer": {"class_name": "Zeros", "config": {}}, "moving_variance_initializer": {"class_name": "Ones", "config": {}}, "beta_regularizer": null, "gamma_regularizer": null, "beta_constraint": null, "gamma_constraint": null}, "inbound_nodes": [[["expanded_conv_14_project", 0, 0, {}]]]}, {"name": "expanded_conv_14_add", "class_name": "Add", "config": {"name": "expanded_conv_14_add", "trainable": true}, "inbound_nodes": [[["expanded_conv_13_project_BN", 0, 0, {}], ["expanded_conv_14_project_BN", 0, 0, {}]]]}, {"name": "expanded_conv_15_expand", "class_name": "Conv2D", "config": {"name": "expanded_conv_15_expand", "trainable": true, "filters": 960, "kernel_size": [1, 1], "strides": [1, 1], "padding": "same", "data_format": "channels_last", "dilation_rate": [1, 1], "activation": "linear", "use_bias": false, "kernel_initializer": {"class_name": "VarianceScaling", "config": {"scale": 1.0, "mode": "fan_avg", "distribution": "uniform", "seed": null}}, "bias_initializer": {"class_name": "Zeros", "config": {}}, "kernel_regularizer": null, "bias_regularizer": null, "activity_regularizer": null, "kernel_constraint": null, "bias_constraint": null}, "inbound_nodes": [[["expanded_conv_14_add", 0, 0, {}]]]}, {"name": "expanded_conv_15_expand_BN", "class_name": "BatchNormalization", "config": {"name": "expanded_conv_15_expand_BN", "trainable": true, "axis": -1, "momentum": 0.999, "epsilon": 0.001, "center": true, "scale": true, "beta_initializer": {"class_name": "Zeros", "config": {}}, "gamma_initializer": {"class_name": "Ones", "config": {}}, "moving_mean_initializer": {"class_name": "Zeros", "config": {}}, "moving_variance_initializer": {"class_name": "Ones", "config": {}}, "beta_regularizer": null, "gamma_regularizer": null, "beta_constraint": null, "gamma_constraint": null}, "inbound_nodes": [[["expanded_conv_15_expand", 0, 0, {}]]]}, {"name": "expanded_conv_15_expand_relu", "class_name": "Activation", "config": {"name": "expanded_conv_15_expand_relu", "trainable": true, "activation": "relu6"}, "inbound_nodes": [[["expanded_conv_15_expand_BN", 0, 0, {}]]]}, {"name": "expanded_conv_15_depthwise", "class_name": "DepthwiseConv2D", "config": {"name": "expanded_conv_15_depthwise", "trainable": true, "kernel_size": [3, 3], "strides": [1, 1], "padding": "same", "data_format": "channels_last", "dilation_rate": [4, 4], "activation": "linear", "use_bias": false, "bias_initializer": {"class_name": "Zeros", "config": {}}, "bias_regularizer": null, "activity_regularizer": null, "bias_constraint": null, "depth_multiplier": 1, "depthwise_initializer": {"class_name": "VarianceScaling", "config": {"scale": 1.0, "mode": "fan_avg", "distribution": "uniform", "seed": null}}, "depthwise_regularizer": null, "depthwise_constraint": null}, "inbound_nodes": [[["expanded_conv_15_expand_relu", 0, 0, {}]]]}, {"name": "expanded_conv_15_depthwise_BN", "class_name": "BatchNormalization", "config": {"name": "expanded_conv_15_depthwise_BN", "trainable": true, "axis": -1, "momentum": 0.999, "epsilon": 0.001, "center": true, "scale": true, "beta_initializer": {"class_name": "Zeros", "config": {}}, "gamma_initializer": {"class_name": "Ones", "config": {}}, "moving_mean_initializer": {"class_name": "Zeros", "config": {}}, "moving_variance_initializer": {"class_name": "Ones", "config": {}}, "beta_regularizer": null, "gamma_regularizer": null, "beta_constraint": null, "gamma_constraint": null}, "inbound_nodes": [[["expanded_conv_15_depthwise", 0, 0, {}]]]}, {"name": "expanded_conv_15_depthwise_relu", "class_name": "Activation", "config": {"name": "expanded_conv_15_depthwise_relu", "trainable": true, "activation": "relu6"}, "inbound_nodes": [[["expanded_conv_15_depthwise_BN", 0, 0, {}]]]}, {"name": "expanded_conv_15_project", "class_name": "Conv2D", "config": {"name": "expanded_conv_15_project", "trainable": true, "filters": 160, "kernel_size": [1, 1], "strides": [1, 1], "padding": "same", "data_format": "channels_last", "dilation_rate": [1, 1], "activation": "linear", "use_bias": false, "kernel_initializer": {"class_name": "VarianceScaling", "config": {"scale": 1.0, "mode": "fan_avg", "distribution": "uniform", "seed": null}}, "bias_initializer": {"class_name": "Zeros", "config": {}}, "kernel_regularizer": null, "bias_regularizer": null, "activity_regularizer": null, "kernel_constraint": null, "bias_constraint": null}, "inbound_nodes": [[["expanded_conv_15_depthwise_relu", 0, 0, {}]]]}, {"name": "expanded_conv_15_project_BN", "class_name": "BatchNormalization", "config": {"name": "expanded_conv_15_project_BN", "trainable": true, "axis": -1, "momentum": 0.999, "epsilon": 0.001, "center": true, "scale": true, "beta_initializer": {"class_name": "Zeros", "config": {}}, "gamma_initializer": {"class_name": "Ones", "config": {}}, "moving_mean_initializer": {"class_name": "Zeros", "config": {}}, "moving_variance_initializer": {"class_name": "Ones", "config": {}}, "beta_regularizer": null, "gamma_regularizer": null, "beta_constraint": null, "gamma_constraint": null}, "inbound_nodes": [[["expanded_conv_15_project", 0, 0, {}]]]}, {"name": "expanded_conv_15_add", "class_name": "Add", "config": {"name": "expanded_conv_15_add", "trainable": true}, "inbound_nodes": [[["expanded_conv_14_add", 0, 0, {}], ["expanded_conv_15_project_BN", 0, 0, {}]]]}, {"name": "expanded_conv_16_expand", "class_name": "Conv2D", "config": {"name": "expanded_conv_16_expand", "trainable": true, "filters": 960, "kernel_size": [1, 1], "strides": [1, 1], "padding": "same", "data_format": "channels_last", "dilation_rate": [1, 1], "activation": "linear", "use_bias": false, "kernel_initializer": {"class_name": "VarianceScaling", "config": {"scale": 1.0, "mode": "fan_avg", "distribution": "uniform", "seed": null}}, "bias_initializer": {"class_name": "Zeros", "config": {}}, "kernel_regularizer": null, "bias_regularizer": null, "activity_regularizer": null, "kernel_constraint": null, "bias_constraint": null}, "inbound_nodes": [[["expanded_conv_15_add", 0, 0, {}]]]}, {"name": "expanded_conv_16_expand_BN", "class_name": "BatchNormalization", "config": {"name": "expanded_conv_16_expand_BN", "trainable": true, "axis": -1, "momentum": 0.999, "epsilon": 0.001, "center": true, "scale": true, "beta_initializer": {"class_name": "Zeros", "config": {}}, "gamma_initializer": {"class_name": "Ones", "config": {}}, "moving_mean_initializer": {"class_name": "Zeros", "config": {}}, "moving_variance_initializer": {"class_name": "Ones", "config": {}}, "beta_regularizer": null, "gamma_regularizer": null, "beta_constraint": null, "gamma_constraint": null}, "inbound_nodes": [[["expanded_conv_16_expand", 0, 0, {}]]]}, {"name": "expanded_conv_16_expand_relu", "class_name": "Activation", "config": {"name": "expanded_conv_16_expand_relu", "trainable": true, "activation": "relu6"}, "inbound_nodes": [[["expanded_conv_16_expand_BN", 0, 0, {}]]]}, {"name": "expanded_conv_16_depthwise", "class_name": "DepthwiseConv2D", "config": {"name": "expanded_conv_16_depthwise", "trainable": true, "kernel_size": [3, 3], "strides": [1, 1], "padding": "same", "data_format": "channels_last", "dilation_rate": [4, 4], "activation": "linear", "use_bias": false, "bias_initializer": {"class_name": "Zeros", "config": {}}, "bias_regularizer": null, "activity_regularizer": null, "bias_constraint": null, "depth_multiplier": 1, "depthwise_initializer": {"class_name": "VarianceScaling", "config": {"scale": 1.0, "mode": "fan_avg", "distribution": "uniform", "seed": null}}, "depthwise_regularizer": null, "depthwise_constraint": null}, "inbound_nodes": [[["expanded_conv_16_expand_relu", 0, 0, {}]]]}, {"name": "expanded_conv_16_depthwise_BN", "class_name": "BatchNormalization", "config": {"name": "expanded_conv_16_depthwise_BN", "trainable": true, "axis": -1, "momentum": 0.999, "epsilon": 0.001, "center": true, "scale": true, "beta_initializer": {"class_name": "Zeros", "config": {}}, "gamma_initializer": {"class_name": "Ones", "config": {}}, "moving_mean_initializer": {"class_name": "Zeros", "config": {}}, "moving_variance_initializer": {"class_name": "Ones", "config": {}}, "beta_regularizer": null, "gamma_regularizer": null, "beta_constraint": null, "gamma_constraint": null}, "inbound_nodes": [[["expanded_conv_16_depthwise", 0, 0, {}]]]}, {"name": "expanded_conv_16_depthwise_relu", "class_name": "Activation", "config": {"name": "expanded_conv_16_depthwise_relu", "trainable": true, "activation": "relu6"}, "inbound_nodes": [[["expanded_conv_16_depthwise_BN", 0, 0, {}]]]}, {"name": "expanded_conv_16_project", "class_name": "Conv2D", "config": {"name": "expanded_conv_16_project", "trainable": true, "filters": 320, "kernel_size": [1, 1], "strides": [1, 1], "padding": "same", "data_format": "channels_last", "dilation_rate": [1, 1], "activation": "linear", "use_bias": false, "kernel_initializer": {"class_name": "VarianceScaling", "config": {"scale": 1.0, "mode": "fan_avg", "distribution": "uniform", "seed": null}}, "bias_initializer": {"class_name": "Zeros", "config": {}}, "kernel_regularizer": null, "bias_regularizer": null, "activity_regularizer": null, "kernel_constraint": null, "bias_constraint": null}, "inbound_nodes": [[["expanded_conv_16_depthwise_relu", 0, 0, {}]]]}, {"name": "expanded_conv_16_project_BN", "class_name": "BatchNormalization", "config": {"name": "expanded_conv_16_project_BN", "trainable": true, "axis": -1, "momentum": 0.999, "epsilon": 0.001, "center": true, "scale": true, "beta_initializer": {"class_name": "Zeros", "config": {}}, "gamma_initializer": {"class_name": "Ones", "config": {}}, "moving_mean_initializer": {"class_name": "Zeros", "config": {}}, "moving_variance_initializer": {"class_name": "Ones", "config": {}}, "beta_regularizer": null, "gamma_regularizer": null, "beta_constraint": null, "gamma_constraint": null}, "inbound_nodes": [[["expanded_conv_16_project", 0, 0, {}]]]}, {"name": "average_pooling2d_1", "class_name": "AveragePooling2D", "config": {"name": "average_pooling2d_1", "trainable": true, "pool_size": [64, 64], "padding": "valid", "strides": [64, 64], "data_format": "channels_last"}, "inbound_nodes": [[["expanded_conv_16_project_BN", 0, 0, {}]]]}, {"name": "image_pooling", "class_name": "Conv2D", "config": {"name": "image_pooling", "trainable": true, "filters": 256, "kernel_size": [1, 1], "strides": [1, 1], "padding": "same", "data_format": "channels_last", "dilation_rate": [1, 1], "activation": "linear", "use_bias": false, "kernel_initializer": {"class_name": "VarianceScaling", "config": {"scale": 1.0, "mode": "fan_avg", "distribution": "uniform", "seed": null}}, "bias_initializer": {"class_name": "Zeros", "config": {}}, "kernel_regularizer": null, "bias_regularizer": null, "activity_regularizer": null, "kernel_constraint": null, "bias_constraint": null}, "inbound_nodes": [[["average_pooling2d_1", 0, 0, {}]]]}, {"name": "image_pooling_BN", "class_name": "BatchNormalization", "config": {"name": "image_pooling_BN", "trainable": true, "axis": -1, "momentum": 0.99, "epsilon": 1e-05, "center": true, "scale": true, "beta_initializer": {"class_name": "Zeros", "config": {}}, "gamma_initializer": {"class_name": "Ones", "config": {}}, "moving_mean_initializer": {"class_name": "Zeros", "config": {}}, "moving_variance_initializer": {"class_name": "Ones", "config": {}}, "beta_regularizer": null, "gamma_regularizer": null, "beta_constraint": null, "gamma_constraint": null}, "inbound_nodes": [[["image_pooling", 0, 0, {}]]]}, {"name": "aspp0", "class_name": "Conv2D", "config": {"name": "aspp0", "trainable": true, "filters": 256, "kernel_size": [1, 1], "strides": [1, 1], "padding": "same", "data_format": "channels_last", "dilation_rate": [1, 1], "activation": "linear", "use_bias": false, "kernel_initializer": {"class_name": "VarianceScaling", "config": {"scale": 1.0, "mode": "fan_avg", "distribution": "uniform", "seed": null}}, "bias_initializer": {"class_name": "Zeros", "config": {}}, "kernel_regularizer": null, "bias_regularizer": null, "activity_regularizer": null, "kernel_constraint": null, "bias_constraint": null}, "inbound_nodes": [[["expanded_conv_16_project_BN", 0, 0, {}]]]}, {"name": "activation_1", "class_name": "Activation", "config": {"name": "activation_1", "trainable": true, "activation": "relu"}, "inbound_nodes": [[["image_pooling_BN", 0, 0, {}]]]}, {"name": "aspp0_BN", "class_name": "BatchNormalization", "config": {"name": "aspp0_BN", "trainable": true, "axis": -1, "momentum": 0.99, "epsilon": 1e-05, "center": true, "scale": true, "beta_initializer": {"class_name": "Zeros", "config": {}}, "gamma_initializer": {"class_name": "Ones", "config": {}}, "moving_mean_initializer": {"class_name": "Zeros", "config": {}}, "moving_variance_initializer": {"class_name": "Ones", "config": {}}, "beta_regularizer": null, "gamma_regularizer": null, "beta_constraint": null, "gamma_constraint": null}, "inbound_nodes": [[["aspp0", 0, 0, {}]]]}, {"name": "bilinear_upsampling_1", "class_name": "BilinearUpsampling", "config": {"name": "bilinear_upsampling_1", "trainable": true, "upsampling": [64, 64], "output_size": null, "data_format": "channels_last"}, "inbound_nodes": [[["activation_1", 0, 0, {}]]]}, {"name": "aspp0_activation", "class_name": "Activation", "config": {"name": "aspp0_activation", "trainable": true, "activation": "relu"}, "inbound_nodes": [[["aspp0_BN", 0, 0, {}]]]}, {"name": "concatenate_1", "class_name": "Concatenate", "config": {"name": "concatenate_1", "trainable": true, "axis": -1}, "inbound_nodes": [[["bilinear_upsampling_1", 0, 0, {}], ["aspp0_activation", 0, 0, {}]]]}, {"name": "concat_projection", "class_name": "Conv2D", "config": {"name": "concat_projection", "trainable": true, "filters": 256, "kernel_size": [1, 1], "strides": [1, 1], "padding": "same", "data_format": "channels_last", "dilation_rate": [1, 1], "activation": "linear", "use_bias": false, "kernel_initializer": {"class_name": "VarianceScaling", "config": {"scale": 1.0, "mode": "fan_avg", "distribution": "uniform", "seed": null}}, "bias_initializer": {"class_name": "Zeros", "config": {}}, "kernel_regularizer": null, "bias_regularizer": null, "activity_regularizer": null, "kernel_constraint": null, "bias_constraint": null}, "inbound_nodes": [[["concatenate_1", 0, 0, {}]]]}, {"name": "concat_projection_BN", "class_name": "BatchNormalization", "config": {"name": "concat_projection_BN", "trainable": true, "axis": -1, "momentum": 0.99, "epsilon": 1e-05, "center": true, "scale": true, "beta_initializer": {"class_name": "Zeros", "config": {}}, "gamma_initializer": {"class_name": "Ones", "config": {}}, "moving_mean_initializer": {"class_name": "Zeros", "config": {}}, "moving_variance_initializer": {"class_name": "Ones", "config": {}}, "beta_regularizer": null, "gamma_regularizer": null, "beta_constraint": null, "gamma_constraint": null}, "inbound_nodes": [[["concat_projection", 0, 0, {}]]]}, {"name": "activation_2", "class_name": "Activation", "config": {"name": "activation_2", "trainable": true, "activation": "relu"}, "inbound_nodes": [[["concat_projection_BN", 0, 0, {}]]]}, {"name": "dropout_1", "class_name": "Dropout", "config": {"name": "dropout_1", "trainable": true, "rate": 0.1, "noise_shape": null, "seed": null}, "inbound_nodes": [[["activation_2", 0, 0, {}]]]}, {"name": "logits_semantic", "class_name": "Conv2D", "config": {"name": "logits_semantic", "trainable": true, "filters": 21, "kernel_size": [1, 1], "strides": [1, 1], "padding": "same", "data_format": "channels_last", "dilation_rate": [1, 1], "activation": "linear", "use_bias": true, "kernel_initializer": {"class_name": "VarianceScaling", "config": {"scale": 1.0, "mode": "fan_avg", "distribution": "uniform", "seed": null}}, "bias_initializer": {"class_name": "Zeros", "config": {}}, "kernel_regularizer": null, "bias_regularizer": null, "activity_regularizer": null, "kernel_constraint": null, "bias_constraint": null}, "inbound_nodes": [[["dropout_1", 0, 0, {}]]]}, {"name": "bilinear_upsampling_2", "class_name": "BilinearUpsampling", "config": {"name": "bilinear_upsampling_2", "trainable": true, "upsampling": null, "output_size": [512, 512], "data_format": "channels_last"}, "inbound_nodes": [[["logits_semantic", 0, 0, {}]]]}], "input_layers": [["input_1", 0, 0]], "output_layers": [["bilinear_upsampling_2", 0, 0]]}, "keras_version": "2.2.2", "backend": "tensorflow", "params": {"input_1": 0, "Conv": 864, "Conv_BN": 128, "Conv_Relu6": 0, "expanded_conv_depthwise": 288, "expanded_conv_depthwise_BN": 128, "expanded_conv_depthwise_relu": 0, "expanded_conv_project": 512, "expanded_conv_project_BN": 64, "expanded_conv_1_expand": 1536, "expanded_conv_1_expand_BN": 384, "expanded_conv_1_expand_relu": 0, "expanded_conv_1_depthwise": 864, "expanded_conv_1_depthwise_BN": 384, "expanded_conv_1_depthwise_relu": 0, "expanded_conv_1_project": 2304, "expanded_conv_1_project_BN": 96, "expanded_conv_2_expand": 3456, "expanded_conv_2_expand_BN": 576, "expanded_conv_2_expand_relu": 0, "expanded_conv_2_depthwise": 1296, "expanded_conv_2_depthwise_BN": 576, "expanded_conv_2_depthwise_relu": 0, "expanded_conv_2_project": 3456, "expanded_conv_2_project_BN": 96, "expanded_conv_2_add": 0, "expanded_conv_3_expand": 3456, "expanded_conv_3_expand_BN": 576, "expanded_conv_3_expand_relu": 0, "expanded_conv_3_depthwise": 1296, "expanded_conv_3_depthwise_BN": 576, "expanded_conv_3_depthwise_relu": 0, "expanded_conv_3_project": 4608, "expanded_conv_3_project_BN": 128, "expanded_conv_4_expand": 6144, "expanded_conv_4_expand_BN": 768, "expanded_conv_4_expand_relu": 0, "expanded_conv_4_depthwise": 1728, "expanded_conv_4_depthwise_BN": 768, "expanded_conv_4_depthwise_relu": 0, "expanded_conv_4_project": 6144, "expanded_conv_4_project_BN": 128, "expanded_conv_4_add": 0, "expanded_conv_5_expand": 6144, "expanded_conv_5_expand_BN": 768, "expanded_conv_5_expand_relu": 0, "expanded_conv_5_depthwise": 1728, "expanded_conv_5_depthwise_BN": 768, "expanded_conv_5_depthwise_relu": 0, "expanded_conv_5_project": 6144, "expanded_conv_5_project_BN": 128, "expanded_conv_5_add": 0, "expanded_conv_6_expand": 6144, "expanded_conv_6_expand_BN": 768, "expanded_conv_6_expand_relu": 0, "expanded_conv_6_depthwise": 1728, "expanded_conv_6_depthwise_BN": 768, "expanded_conv_6_depthwise_relu": 0, "expanded_conv_6_project": 12288, "expanded_conv_6_project_BN": 256, "expanded_conv_7_expand": 24576, "expanded_conv_7_expand_BN": 1536, "expanded_conv_7_expand_relu": 0, "expanded_conv_7_depthwise": 3456, "expanded_conv_7_depthwise_BN": 1536, "expanded_conv_7_depthwise_relu": 0, "expanded_conv_7_project": 24576, "expanded_conv_7_project_BN": 256, "expanded_conv_7_add": 0, "expanded_conv_8_expand": 24576, "expanded_conv_8_expand_BN": 1536, "expanded_conv_8_expand_relu": 0, "expanded_conv_8_depthwise": 3456, "expanded_conv_8_depthwise_BN": 1536, "expanded_conv_8_depthwise_relu": 0, "expanded_conv_8_project": 24576, "expanded_conv_8_project_BN": 256, "expanded_conv_8_add": 0, "expanded_conv_9_expand": 24576, "expanded_conv_9_expand_BN": 1536, "expanded_conv_9_expand_relu": 0, "expanded_conv_9_depthwise": 3456, "expanded_conv_9_depthwise_BN": 1536, "expanded_conv_9_depthwise_relu": 0, "expanded_conv_9_project": 24576, "expanded_conv_9_project_BN": 256, "expanded_conv_9_add": 0, "expanded_conv_10_expand": 24576, "expanded_conv_10_expand_BN": 1536, "expanded_conv_10_expand_relu": 0, "expanded_conv_10_depthwise": 3456, "expanded_conv_10_depthwise_BN": 1536, "expanded_conv_10_depthwise_relu": 0, "expanded_conv_10_project": 36864, "expanded_conv_10_project_BN": 384, "expanded_conv_11_expand": 55296, "expanded_conv_11_expand_BN": 2304, "expanded_conv_11_expand_relu": 0, "expanded_conv_11_depthwise": 5184, "expanded_conv_11_depthwise_BN": 2304, "expanded_conv_11_depthwise_relu": 0, "expanded_conv_11_project": 55296, "expanded_conv_11_project_BN": 384, "expanded_conv_11_add": 0, "expanded_conv_12_expand": 55296, "expanded_conv_12_expand_BN": 2304, "expanded_conv_12_expand_relu": 0, "expanded_conv_12_depthwise": 5184, "expanded_conv_12_depthwise_BN": 2304, "expanded_conv_12_depthwise_relu": 0, "expanded_conv_12_project": 55296, "expanded_conv_12_project_BN": 384, "expanded_conv_12_add": 0, "expanded_conv_13_expand": 55296, "expanded_conv_13_expand_BN": 2304, "expanded_conv_13_expand_relu": 0, "expanded_conv_13_depthwise": 5184, "expanded_conv_13_depthwise_BN": 2304, "expanded_conv_13_depthwise_relu": 0, "expanded_conv_13_project": 92160, "expanded_conv_13_project_BN": 640, "expanded_conv_14_expand": 153600, "expanded_conv_14_expand_BN": 3840, "expanded_conv_14_expand_relu": 0, "expanded_conv_14_depthwise": 8640, "expanded_conv_14_depthwise_BN": 3840, "expanded_conv_14_depthwise_relu": 0, "expanded_conv_14_project": 153600, "expanded_conv_14_project_BN": 640, "expanded_conv_14_add": 0, "expanded_conv_15_expand": 153600, "expanded_conv_15_expand_BN": 3840, "expanded_conv_15_expand_relu": 0, "expanded_conv_15_depthwise": 8640, "expanded_conv_15_depthwise_BN": 3840, "expanded_conv_15_depthwise_relu": 0, "expanded_conv_15_project": 153600, "expanded_conv_15_project_BN": 640, "expanded_conv_15_add": 0, "expanded_conv_16_expand": 153600, "expanded_conv_16_expand_BN": 3840, "expanded_conv_16_expand_relu": 0, "expanded_conv_16_depthwise": 8640, "expanded_conv_16_depthwise_BN": 3840, "expanded_conv_16_depthwise_relu": 0, "expanded_conv_16_project": 307200, "expanded_conv_16_project_BN": 1280, "average_pooling2d_1": 0, "image_pooling": 81920, "image_pooling_BN": 1024, "aspp0": 81920, "activation_1": 0, "aspp0_BN": 1024, "bilinear_upsampling_1": 0, "aspp0_activation": 0, "concatenate_1": 0, "concat_projection": 131072, "concat_projection_BN": 1024, "activation_2": 0, "dropout_1": 0, "logits_semantic": 5397, "bilinear_upsampling_2": 0}}