{"config": {"name": "dilation_voc12", "layers": [{"name": "input_1", "config": {"name": "input_1", "batch_input_shape": [null, 500, 500, 3], "dtype": "float32", "sparse": false}, "inbound_nodes": [], "class_name": "InputLayer"}, {"name": "conv1_1", "config": {"name": "conv1_1", "dilation_rate": [1, 1], "use_bias": true, "padding": "valid", "strides": [1, 1], "kernel_initializer": {"config": {"distribution": "uniform", "mode": "fan_avg", "scale": 1.0, "seed": null}, "class_name": "VarianceScaling"}, "kernel_constraint": null, "trainable": true, "bias_regularizer": null, "activation": "relu", "bias_initializer": {"config": {}, "class_name": "Zeros"}, "data_format": "channels_last", "kernel_regularizer": null, "bias_constraint": null, "filters": 64, "kernel_size": [3, 3], "activity_regularizer": null}, "inbound_nodes": [[["input_1", 0, 0, {}]]], "class_name": "Conv2D"}, {"name": "conv1_2", "config": {"name": "conv1_2", "dilation_rate": [1, 1], "use_bias": true, "padding": "valid", "strides": [1, 1], "kernel_initializer": {"config": {"distribution": "uniform", "mode": "fan_avg", "scale": 1.0, "seed": null}, "class_name": "VarianceScaling"}, "kernel_constraint": null, "trainable": true, "bias_regularizer": null, "activation": "relu", "bias_initializer": {"config": {}, "class_name": "Zeros"}, "data_format": "channels_last", "kernel_regularizer": null, "bias_constraint": null, "filters": 64, "kernel_size": [3, 3], "activity_regularizer": null}, "inbound_nodes": [[["conv1_1", 0, 0, {}]]], "class_name": "Conv2D"}, {"name": "pool1", "config": {"name": "pool1", "trainable": true, "strides": [2, 2], "data_format": "channels_last", "padding": "valid", "pool_size": [2, 2]}, "inbound_nodes": [[["conv1_2", 0, 0, {}]]], "class_name": "MaxPooling2D"}, {"name": "conv2_1", "config": {"name": "conv2_1", "dilation_rate": [1, 1], "use_bias": true, "padding": "valid", "strides": [1, 1], "kernel_initializer": {"config": {"distribution": "uniform", "mode": "fan_avg", "scale": 1.0, "seed": null}, "class_name": "VarianceScaling"}, "kernel_constraint": null, "trainable": true, "bias_regularizer": null, "activation": "relu", "bias_initializer": {"config": {}, "class_name": "Zeros"}, "data_format": "channels_last", "kernel_regularizer": null, "bias_constraint": null, "filters": 128, "kernel_size": [3, 3], "activity_regularizer": null}, "inbound_nodes": [[["pool1", 0, 0, {}]]], "class_name": "Conv2D"}, {"name": "conv2_2", "config": {"name": "conv2_2", "dilation_rate": [1, 1], "use_bias": true, "padding": "valid", "strides": [1, 1], "kernel_initializer": {"config": {"distribution": "uniform", "mode": "fan_avg", "scale": 1.0, "seed": null}, "class_name": "VarianceScaling"}, "kernel_constraint": null, "trainable": true, "bias_regularizer": null, "activation": "relu", "bias_initializer": {"config": {}, "class_name": "Zeros"}, "data_format": "channels_last", "kernel_regularizer": null, "bias_constraint": null, "filters": 128, "kernel_size": [3, 3], "activity_regularizer": null}, "inbound_nodes": [[["conv2_1", 0, 0, {}]]], "class_name": "Conv2D"}, {"name": "pool2", "config": {"name": "pool2", "trainable": true, "strides": [2, 2], "data_format": "channels_last", "padding": "valid", "pool_size": [2, 2]}, "inbound_nodes": [[["conv2_2", 0, 0, {}]]], "class_name": "MaxPooling2D"}, {"name": "conv3_1", "config": {"name": "conv3_1", "dilation_rate": [1, 1], "use_bias": true, "padding": "valid", "strides": [1, 1], "kernel_initializer": {"config": {"distribution": "uniform", "mode": "fan_avg", "scale": 1.0, "seed": null}, "class_name": "VarianceScaling"}, "kernel_constraint": null, "trainable": true, "bias_regularizer": null, "activation": "relu", "bias_initializer": {"config": {}, "class_name": "Zeros"}, "data_format": "channels_last", "kernel_regularizer": null, "bias_constraint": null, "filters": 256, "kernel_size": [3, 3], "activity_regularizer": null}, "inbound_nodes": [[["pool2", 0, 0, {}]]], "class_name": "Conv2D"}, {"name": "conv3_2", "config": {"name": "conv3_2", "dilation_rate": [1, 1], "use_bias": true, "padding": "valid", "strides": [1, 1], "kernel_initializer": {"config": {"distribution": "uniform", "mode": "fan_avg", "scale": 1.0, "seed": null}, "class_name": "VarianceScaling"}, "kernel_constraint": null, "trainable": true, "bias_regularizer": null, "activation": "relu", "bias_initializer": {"config": {}, "class_name": "Zeros"}, "data_format": "channels_last", "kernel_regularizer": null, "bias_constraint": null, "filters": 256, "kernel_size": [3, 3], "activity_regularizer": null}, "inbound_nodes": [[["conv3_1", 0, 0, {}]]], "class_name": "Conv2D"}, {"name": "conv3_3", "config": {"name": "conv3_3", "dilation_rate": [1, 1], "use_bias": true, "padding": "valid", "strides": [1, 1], "kernel_initializer": {"config": {"distribution": "uniform", "mode": "fan_avg", "scale": 1.0, "seed": null}, "class_name": "VarianceScaling"}, "kernel_constraint": null, "trainable": true, "bias_regularizer": null, "activation": "relu", "bias_initializer": {"config": {}, "class_name": "Zeros"}, "data_format": "channels_last", "kernel_regularizer": null, "bias_constraint": null, "filters": 256, "kernel_size": [3, 3], "activity_regularizer": null}, "inbound_nodes": [[["conv3_2", 0, 0, {}]]], "class_name": "Conv2D"}, {"name": "pool3", "config": {"name": "pool3", "trainable": true, "strides": [2, 2], "data_format": "channels_last", "padding": "valid", "pool_size": [2, 2]}, "inbound_nodes": [[["conv3_3", 0, 0, {}]]], "class_name": "MaxPooling2D"}, {"name": "conv4_1", "config": {"name": "conv4_1", "dilation_rate": [1, 1], "use_bias": true, "padding": "valid", "strides": [1, 1], "kernel_initializer": {"config": {"distribution": "uniform", "mode": "fan_avg", "scale": 1.0, "seed": null}, "class_name": "VarianceScaling"}, "kernel_constraint": null, "trainable": true, "bias_regularizer": null, "activation": "relu", "bias_initializer": {"config": {}, "class_name": "Zeros"}, "data_format": "channels_last", "kernel_regularizer": null, "bias_constraint": null, "filters": 512, "kernel_size": [3, 3], "activity_regularizer": null}, "inbound_nodes": [[["pool3", 0, 0, {}]]], "class_name": "Conv2D"}, {"name": "conv4_2", "config": {"name": "conv4_2", "dilation_rate": [1, 1], "use_bias": true, "padding": "valid", "strides": [1, 1], "kernel_initializer": {"config": {"distribution": "uniform", "mode": "fan_avg", "scale": 1.0, "seed": null}, "class_name": "VarianceScaling"}, "kernel_constraint": null, "trainable": true, "bias_regularizer": null, "activation": "relu", "bias_initializer": {"config": {}, "class_name": "Zeros"}, "data_format": "channels_last", "kernel_regularizer": null, "bias_constraint": null, "filters": 512, "kernel_size": [3, 3], "activity_regularizer": null}, "inbound_nodes": [[["conv4_1", 0, 0, {}]]], "class_name": "Conv2D"}, {"name": "conv4_3", "config": {"name": "conv4_3", "dilation_rate": [1, 1], "use_bias": true, "padding": "valid", "strides": [1, 1], "kernel_initializer": {"config": {"distribution": "uniform", "mode": "fan_avg", "scale": 1.0, "seed": null}, "class_name": "VarianceScaling"}, "kernel_constraint": null, "trainable": true, "bias_regularizer": null, "activation": "relu", "bias_initializer": {"config": {}, "class_name": "Zeros"}, "data_format": "channels_last", "kernel_regularizer": null, "bias_constraint": null, "filters": 512, "kernel_size": [3, 3], "activity_regularizer": null}, "inbound_nodes": [[["conv4_2", 0, 0, {}]]], "class_name": "Conv2D"}, {"name": "conv5_1", "config": {"name": "conv5_1", "dilation_rate": [2, 2], "use_bias": true, "padding": "valid", "strides": [1, 1], "kernel_initializer": {"config": {"distribution": "uniform", "mode": "fan_avg", "scale": 1.0, "seed": null}, "class_name": "VarianceScaling"}, "kernel_constraint": null, "trainable": true, "bias_regularizer": null, "activation": "relu", "bias_initializer": {"config": {}, "class_name": "Zeros"}, "data_format": "channels_last", "kernel_regularizer": null, "bias_constraint": null, "filters": 512, "kernel_size": [3, 3], "activity_regularizer": null}, "inbound_nodes": [[["conv4_3", 0, 0, {}]]], "class_name": "Conv2D"}, {"name": "conv5_2", "config": {"name": "conv5_2", "dilation_rate": [2, 2], "use_bias": true, "padding": "valid", "strides": [1, 1], "kernel_initializer": {"config": {"distribution": "uniform", "mode": "fan_avg", "scale": 1.0, "seed": null}, "class_name": "VarianceScaling"}, "kernel_constraint": null, "trainable": true, "bias_regularizer": null, "activation": "relu", "bias_initializer": {"config": {}, "class_name": "Zeros"}, "data_format": "channels_last", "kernel_regularizer": null, "bias_constraint": null, "filters": 512, "kernel_size": [3, 3], "activity_regularizer": null}, "inbound_nodes": [[["conv5_1", 0, 0, {}]]], "class_name": "Conv2D"}, {"name": "conv5_3", "config": {"name": "conv5_3", "dilation_rate": [2, 2], "use_bias": true, "padding": "valid", "strides": [1, 1], "kernel_initializer": {"config": {"distribution": "uniform", "mode": "fan_avg", "scale": 1.0, "seed": null}, "class_name": "VarianceScaling"}, "kernel_constraint": null, "trainable": true, "bias_regularizer": null, "activation": "relu", "bias_initializer": {"config": {}, "class_name": "Zeros"}, "data_format": "channels_last", "kernel_regularizer": null, "bias_constraint": null, "filters": 512, "kernel_size": [3, 3], "activity_regularizer": null}, "inbound_nodes": [[["conv5_2", 0, 0, {}]]], "class_name": "Conv2D"}, {"name": "fc6", "config": {"name": "fc6", "dilation_rate": [4, 4], "use_bias": true, "padding": "valid", "strides": [1, 1], "kernel_initializer": {"config": {"distribution": "uniform", "mode": "fan_avg", "scale": 1.0, "seed": null}, "class_name": "VarianceScaling"}, "kernel_constraint": null, "trainable": true, "bias_regularizer": null, "activation": "relu", "bias_initializer": {"config": {}, "class_name": "Zeros"}, "data_format": "channels_last", "kernel_regularizer": null, "bias_constraint": null, "filters": 4096, "kernel_size": [7, 7], "activity_regularizer": null}, "inbound_nodes": [[["conv5_3", 0, 0, {}]]], "class_name": "Conv2D"}, {"name": "drop6", "config": {"name": "drop6", "trainable": true, "noise_shape": null, "rate": 0.5, "seed": null}, "inbound_nodes": [[["fc6", 0, 0, {}]]], "class_name": "Dropout"}, {"name": "fc7", "config": {"name": "fc7", "dilation_rate": [1, 1], "use_bias": true, "padding": "valid", "strides": [1, 1], "kernel_initializer": {"config": {"distribution": "uniform", "mode": "fan_avg", "scale": 1.0, "seed": null}, "class_name": "VarianceScaling"}, "kernel_constraint": null, "trainable": true, "bias_regularizer": null, "activation": "relu", "bias_initializer": {"config": {}, "class_name": "Zeros"}, "data_format": "channels_last", "kernel_regularizer": null, "bias_constraint": null, "filters": 4096, "kernel_size": [1, 1], "activity_regularizer": null}, "inbound_nodes": [[["drop6", 0, 0, {}]]], "class_name": "Conv2D"}, {"name": "drop7", "config": {"name": "drop7", "trainable": true, "noise_shape": null, "rate": 0.5, "seed": null}, "inbound_nodes": [[["fc7", 0, 0, {}]]], "class_name": "Dropout"}, {"name": "fc-final", "config": {"name": "fc-final", "dilation_rate": [1, 1], "use_bias": true, "padding": "valid", "strides": [1, 1], "kernel_initializer": {"config": {"distribution": "uniform", "mode": "fan_avg", "scale": 1.0, "seed": null}, "class_name": "VarianceScaling"}, "kernel_constraint": null, "trainable": true, "bias_regularizer": null, "activation": "relu", "bias_initializer": {"config": {}, "class_name": "Zeros"}, "data_format": "channels_last", "kernel_regularizer": null, "bias_constraint": null, "filters": 21, "kernel_size": [1, 1], "activity_regularizer": null}, "inbound_nodes": [[["drop7", 0, 0, {}]]], "class_name": "Conv2D"}, {"name": "zero_padding2d_1", "config": {"name": "zero_padding2d_1", "trainable": true, "padding": [[33, 33], [33, 33]], "data_format": "channels_last"}, "inbound_nodes": [[["fc-final", 0, 0, {}]]], "class_name": "ZeroPadding2D"}, {"name": "ct_conv1_1", "config": {"name": "ct_conv1_1", "dilation_rate": [1, 1], "use_bias": true, "padding": "valid", "strides": [1, 1], "kernel_initializer": {"config": {"distribution": "uniform", "mode": "fan_avg", "scale": 1.0, "seed": null}, "class_name": "VarianceScaling"}, "kernel_constraint": null, "trainable": true, "bias_regularizer": null, "activation": "relu", "bias_initializer": {"config": {}, "class_name": "Zeros"}, "data_format": "channels_last", "kernel_regularizer": null, "bias_constraint": null, "filters": 42, "kernel_size": [3, 3], "activity_regularizer": null}, "inbound_nodes": [[["zero_padding2d_1", 0, 0, {}]]], "class_name": "Conv2D"}, {"name": "ct_conv1_2", "config": {"name": "ct_conv1_2", "dilation_rate": [1, 1], "use_bias": true, "padding": "valid", "strides": [1, 1], "kernel_initializer": {"config": {"distribution": "uniform", "mode": "fan_avg", "scale": 1.0, "seed": null}, "class_name": "VarianceScaling"}, "kernel_constraint": null, "trainable": true, "bias_regularizer": null, "activation": "relu", "bias_initializer": {"config": {}, "class_name": "Zeros"}, "data_format": "channels_last", "kernel_regularizer": null, "bias_constraint": null, "filters": 42, "kernel_size": [3, 3], "activity_regularizer": null}, "inbound_nodes": [[["ct_conv1_1", 0, 0, {}]]], "class_name": "Conv2D"}, {"name": "ct_conv2_1", "config": {"name": "ct_conv2_1", "dilation_rate": [2, 2], "use_bias": true, "padding": "valid", "strides": [1, 1], "kernel_initializer": {"config": {"distribution": "uniform", "mode": "fan_avg", "scale": 1.0, "seed": null}, "class_name": "VarianceScaling"}, "kernel_constraint": null, "trainable": true, "bias_regularizer": null, "activation": "relu", "bias_initializer": {"config": {}, "class_name": "Zeros"}, "data_format": "channels_last", "kernel_regularizer": null, "bias_constraint": null, "filters": 84, "kernel_size": [3, 3], "activity_regularizer": null}, "inbound_nodes": [[["ct_conv1_2", 0, 0, {}]]], "class_name": "Conv2D"}, {"name": "ct_conv3_1", "config": {"name": "ct_conv3_1", "dilation_rate": [4, 4], "use_bias": true, "padding": "valid", "strides": [1, 1], "kernel_initializer": {"config": {"distribution": "uniform", "mode": "fan_avg", "scale": 1.0, "seed": null}, "class_name": "VarianceScaling"}, "kernel_constraint": null, "trainable": true, "bias_regularizer": null, "activation": "relu", "bias_initializer": {"config": {}, "class_name": "Zeros"}, "data_format": "channels_last", "kernel_regularizer": null, "bias_constraint": null, "filters": 168, "kernel_size": [3, 3], "activity_regularizer": null}, "inbound_nodes": [[["ct_conv2_1", 0, 0, {}]]], "class_name": "Conv2D"}, {"name": "ct_conv4_1", "config": {"name": "ct_conv4_1", "dilation_rate": [8, 8], "use_bias": true, "padding": "valid", "strides": [1, 1], "kernel_initializer": {"config": {"distribution": "uniform", "mode": "fan_avg", "scale": 1.0, "seed": null}, "class_name": "VarianceScaling"}, "kernel_constraint": null, "trainable": true, "bias_regularizer": null, "activation": "relu", "bias_initializer": {"config": {}, "class_name": "Zeros"}, "data_format": "channels_last", "kernel_regularizer": null, "bias_constraint": null, "filters": 336, "kernel_size": [3, 3], "activity_regularizer": null}, "inbound_nodes": [[["ct_conv3_1", 0, 0, {}]]], "class_name": "Conv2D"}, {"name": "ct_conv5_1", "config": {"name": "ct_conv5_1", "dilation_rate": [16, 16], "use_bias": true, "padding": "valid", "strides": [1, 1], "kernel_initializer": {"config": {"distribution": "uniform", "mode": "fan_avg", "scale": 1.0, "seed": null}, "class_name": "VarianceScaling"}, "kernel_constraint": null, "trainable": true, "bias_regularizer": null, "activation": "relu", "bias_initializer": {"config": {}, "class_name": "Zeros"}, "data_format": "channels_last", "kernel_regularizer": null, "bias_constraint": null, "filters": 672, "kernel_size": [3, 3], "activity_regularizer": null}, "inbound_nodes": [[["ct_conv4_1", 0, 0, {}]]], "class_name": "Conv2D"}, {"name": "ct_fc1", "config": {"name": "ct_fc1", "dilation_rate": [1, 1], "use_bias": true, "padding": "valid", "strides": [1, 1], "kernel_initializer": {"config": {"distribution": "uniform", "mode": "fan_avg", "scale": 1.0, "seed": null}, "class_name": "VarianceScaling"}, "kernel_constraint": null, "trainable": true, "bias_regularizer": null, "activation": "relu", "bias_initializer": {"config": {}, "class_name": "Zeros"}, "data_format": "channels_last", "kernel_regularizer": null, "bias_constraint": null, "filters": 672, "kernel_size": [3, 3], "activity_regularizer": null}, "inbound_nodes": [[["ct_conv5_1", 0, 0, {}]]], "class_name": "Conv2D"}, {"name": "ct_final", "config": {"name": "ct_final", "dilation_rate": [1, 1], "use_bias": true, "padding": "valid", "strides": [1, 1], "kernel_initializer": {"config": {"distribution": "uniform", "mode": "fan_avg", "scale": 1.0, "seed": null}, "class_name": "VarianceScaling"}, "kernel_constraint": null, "trainable": true, "bias_regularizer": null, "activation": "softmax", "bias_initializer": {"config": {}, "class_name": "Zeros"}, "data_format": "channels_last", "kernel_regularizer": null, "bias_constraint": null, "filters": 21, "kernel_size": [1, 1], "activity_regularizer": null}, "inbound_nodes": [[["ct_fc1", 0, 0, {}]]], "class_name": "Conv2D"}], "input_layers": [["input_1", 0, 0]], "output_layers": [["ct_final", 0, 0]]}, "keras_version": "2.2.2", "backend": "tensorflow", "params": {"zero_padding2d_1": 0, "input_1": 0, "ct_conv5_1": 2032800, "pool3": 0, "conv1_1": 1792, "ct_conv4_1": 508368, "conv4_3": 2359808, "conv5_1": 2359808, "conv2_1": 73856, "conv4_1": 1180160, "fc-final": 86037, "fc7": 16781312, "ct_conv3_1": 127176, "conv3_1": 295168, "ct_conv2_1": 31836, "pool2": 0, "conv3_2": 590080, "ct_final": 14133, "ct_conv1_2": 15918, "conv5_3": 2359808, "pool1": 0, "conv5_2": 2359808, "conv3_3": 590080, "drop7": 0, "conv4_2": 2359808, "fc6": 102764544, "ct_fc1": 4064928, "conv1_2": 36928, "conv2_2": 147584, "drop6": 0, "ct_conv1_1": 7980}, "class_name": "Model"}