{"class_name": "Model", "config": {"name": "model_1", "layers": [{"name": "input_1", "class_name": "InputLayer", "config": {"batch_input_shape": [null, 300, 300, 3], "dtype": "float32", "sparse": false, "name": "input_1"}, "inbound_nodes": []}, {"name": "conv2d_1", "class_name": "Conv2D", "config": {"name": "conv2d_1", "trainable": true, "filters": 64, "kernel_size": [3, 3], "strides": [2, 2], "padding": "same", "data_format": "channels_last", "dilation_rate": [1, 1], "activation": "linear", "use_bias": true, "kernel_initializer": {"class_name": "VarianceScaling", "config": {"scale": 1.0, "mode": "fan_avg", "distribution": "uniform", "seed": null}}, "bias_initializer": {"class_name": "Zeros", "config": {}}, "kernel_regularizer": null, "bias_regularizer": null, "activity_regularizer": null, "kernel_constraint": null, "bias_constraint": null}, "inbound_nodes": [[["input_1", 0, 0, {}]]]}, {"name": "conv2d_2", "class_name": "Conv2D", "config": {"name": "conv2d_2", "trainable": true, "filters": 64, "kernel_size": [3, 3], "strides": [1, 1], "padding": "same", "data_format": "channels_last", "dilation_rate": [1, 1], "activation": "linear", "use_bias": true, "kernel_initializer": {"class_name": "VarianceScaling", "config": {"scale": 1.0, "mode": "fan_avg", "distribution": "uniform", "seed": null}}, "bias_initializer": {"class_name": "Zeros", "config": {}}, "kernel_regularizer": null, "bias_regularizer": null, "activity_regularizer": null, "kernel_constraint": null, "bias_constraint": null}, "inbound_nodes": [[["conv2d_1", 0, 0, {}]]]}, {"name": "conv2d_3", "class_name": "Conv2D", "config": {"name": "conv2d_3", "trainable": true, "filters": 128, "kernel_size": [3, 3], "strides": [1, 1], "padding": "same", "data_format": "channels_last", "dilation_rate": [1, 1], "activation": "linear", "use_bias": true, "kernel_initializer": {"class_name": "VarianceScaling", "config": {"scale": 1.0, "mode": "fan_avg", "distribution": "uniform", "seed": null}}, "bias_initializer": {"class_name": "Zeros", "config": {}}, "kernel_regularizer": null, "bias_regularizer": null, "activity_regularizer": null, "kernel_constraint": null, "bias_constraint": null}, "inbound_nodes": [[["conv2d_2", 0, 0, {}]]]}, {"name": "max_pooling2d_1", "class_name": "MaxPooling2D", "config": {"name": "max_pooling2d_1", "trainable": true, "pool_size": [2, 2], "padding": "valid", "strides": [2, 2], "data_format": "channels_last"}, "inbound_nodes": [[["conv2d_3", 0, 0, {}]]]}, {"name": "bn/0denseblock1", "class_name": "BatchNormalization", "config": {"name": "bn/0denseblock1", "trainable": true, "axis": -1, "momentum": 0.99, "epsilon": 0.001, "center": true, "scale": true, "beta_initializer": {"class_name": "Zeros", "config": {}}, "gamma_initializer": {"class_name": "Ones", "config": {}}, "moving_mean_initializer": {"class_name": "Zeros", "config": {}}, "moving_variance_initializer": {"class_name": "Ones", "config": {}}, "beta_regularizer": null, "gamma_regularizer": null, "beta_constraint": null, "gamma_constraint": null}, "inbound_nodes": [[["max_pooling2d_1", 0, 0, {}]]]}, {"name": "conv1/0denseblock1", "class_name": "Conv2D", "config": {"name": "conv1/0denseblock1", "trainable": true, "filters": 48, "kernel_size": [1, 1], "strides": [1, 1], "padding": "same", "data_format": "channels_last", "dilation_rate": [1, 1], "activation": "linear", "use_bias": true, "kernel_initializer": {"class_name": "VarianceScaling", "config": {"scale": 1.0, "mode": "fan_avg", "distribution": "uniform", "seed": null}}, "bias_initializer": {"class_name": "Zeros", "config": {}}, "kernel_regularizer": null, "bias_regularizer": null, "activity_regularizer": null, "kernel_constraint": null, "bias_constraint": null}, "inbound_nodes": [[["bn/0denseblock1", 0, 0, {}]]]}, {"name": "bn2/0denseblock1", "class_name": "BatchNormalization", "config": {"name": "bn2/0denseblock1", "trainable": true, "axis": -1, "momentum": 0.99, "epsilon": 0.001, "center": true, "scale": true, "beta_initializer": {"class_name": "Zeros", "config": {}}, "gamma_initializer": {"class_name": "Ones", "config": {}}, "moving_mean_initializer": {"class_name": "Zeros", "config": {}}, "moving_variance_initializer": {"class_name": "Ones", "config": {}}, "beta_regularizer": null, "gamma_regularizer": null, "beta_constraint": null, "gamma_constraint": null}, "inbound_nodes": [[["conv1/0denseblock1", 0, 0, {}]]]}, {"name": "conv2/0denseblock1", "class_name": "Conv2D", "config": {"name": "conv2/0denseblock1", "trainable": true, "filters": 48, "kernel_size": [3, 3], "strides": [1, 1], "padding": "same", "data_format": "channels_last", "dilation_rate": [1, 1], "activation": "linear", "use_bias": true, "kernel_initializer": {"class_name": "VarianceScaling", "config": {"scale": 1.0, "mode": "fan_avg", "distribution": "uniform", "seed": null}}, "bias_initializer": {"class_name": "Zeros", "config": {}}, "kernel_regularizer": null, "bias_regularizer": null, "activity_regularizer": null, "kernel_constraint": null, "bias_constraint": null}, "inbound_nodes": [[["bn2/0denseblock1", 0, 0, {}]]]}, {"name": "concat/0denseblock1", "class_name": "Concatenate", "config": {"name": "concat/0denseblock1", "trainable": true, "axis": -1}, "inbound_nodes": [[["max_pooling2d_1", 0, 0, {}], ["conv2/0denseblock1", 0, 0, {}]]]}, {"name": "bn/1denseblock1", "class_name": "BatchNormalization", "config": {"name": "bn/1denseblock1", "trainable": true, "axis": -1, "momentum": 0.99, "epsilon": 0.001, "center": true, "scale": true, "beta_initializer": {"class_name": "Zeros", "config": {}}, "gamma_initializer": {"class_name": "Ones", "config": {}}, "moving_mean_initializer": {"class_name": "Zeros", "config": {}}, "moving_variance_initializer": {"class_name": "Ones", "config": {}}, "beta_regularizer": null, "gamma_regularizer": null, "beta_constraint": null, "gamma_constraint": null}, "inbound_nodes": [[["concat/0denseblock1", 0, 0, {}]]]}, {"name": "conv1/1denseblock1", "class_name": "Conv2D", "config": {"name": "conv1/1denseblock1", "trainable": true, "filters": 48, "kernel_size": [1, 1], "strides": [1, 1], "padding": "same", "data_format": "channels_last", "dilation_rate": [1, 1], "activation": "linear", "use_bias": true, "kernel_initializer": {"class_name": "VarianceScaling", "config": {"scale": 1.0, "mode": "fan_avg", "distribution": "uniform", "seed": null}}, "bias_initializer": {"class_name": "Zeros", "config": {}}, "kernel_regularizer": null, "bias_regularizer": null, "activity_regularizer": null, "kernel_constraint": null, "bias_constraint": null}, "inbound_nodes": [[["bn/1denseblock1", 0, 0, {}]]]}, {"name": "bn2/1denseblock1", "class_name": "BatchNormalization", "config": {"name": "bn2/1denseblock1", "trainable": true, "axis": -1, "momentum": 0.99, "epsilon": 0.001, "center": true, "scale": true, "beta_initializer": {"class_name": "Zeros", "config": {}}, "gamma_initializer": {"class_name": "Ones", "config": {}}, "moving_mean_initializer": {"class_name": "Zeros", "config": {}}, "moving_variance_initializer": {"class_name": "Ones", "config": {}}, "beta_regularizer": null, "gamma_regularizer": null, "beta_constraint": null, "gamma_constraint": null}, "inbound_nodes": [[["conv1/1denseblock1", 0, 0, {}]]]}, {"name": "conv2/1denseblock1", "class_name": "Conv2D", "config": {"name": "conv2/1denseblock1", "trainable": true, "filters": 48, "kernel_size": [3, 3], "strides": [1, 1], "padding": "same", "data_format": "channels_last", "dilation_rate": [1, 1], "activation": "linear", "use_bias": true, "kernel_initializer": {"class_name": "VarianceScaling", "config": {"scale": 1.0, "mode": "fan_avg", "distribution": "uniform", "seed": null}}, "bias_initializer": {"class_name": "Zeros", "config": {}}, "kernel_regularizer": null, "bias_regularizer": null, "activity_regularizer": null, "kernel_constraint": null, "bias_constraint": null}, "inbound_nodes": [[["bn2/1denseblock1", 0, 0, {}]]]}, {"name": "concat/1denseblock1", "class_name": "Concatenate", "config": {"name": "concat/1denseblock1", "trainable": true, "axis": -1}, "inbound_nodes": [[["concat/0denseblock1", 0, 0, {}], ["conv2/1denseblock1", 0, 0, {}]]]}, {"name": "bn/2denseblock1", "class_name": "BatchNormalization", "config": {"name": "bn/2denseblock1", "trainable": true, "axis": -1, "momentum": 0.99, "epsilon": 0.001, "center": true, "scale": true, "beta_initializer": {"class_name": "Zeros", "config": {}}, "gamma_initializer": {"class_name": "Ones", "config": {}}, "moving_mean_initializer": {"class_name": "Zeros", "config": {}}, "moving_variance_initializer": {"class_name": "Ones", "config": {}}, "beta_regularizer": null, "gamma_regularizer": null, "beta_constraint": null, "gamma_constraint": null}, "inbound_nodes": [[["concat/1denseblock1", 0, 0, {}]]]}, {"name": "conv1/2denseblock1", "class_name": "Conv2D", "config": {"name": "conv1/2denseblock1", "trainable": true, "filters": 48, "kernel_size": [1, 1], "strides": [1, 1], "padding": "same", "data_format": "channels_last", "dilation_rate": [1, 1], "activation": "linear", "use_bias": true, "kernel_initializer": {"class_name": "VarianceScaling", "config": {"scale": 1.0, "mode": "fan_avg", "distribution": "uniform", "seed": null}}, "bias_initializer": {"class_name": "Zeros", "config": {}}, "kernel_regularizer": null, "bias_regularizer": null, "activity_regularizer": null, "kernel_constraint": null, "bias_constraint": null}, "inbound_nodes": [[["bn/2denseblock1", 0, 0, {}]]]}, {"name": "bn2/2denseblock1", "class_name": "BatchNormalization", "config": {"name": "bn2/2denseblock1", "trainable": true, "axis": -1, "momentum": 0.99, "epsilon": 0.001, "center": true, "scale": true, "beta_initializer": {"class_name": "Zeros", "config": {}}, "gamma_initializer": {"class_name": "Ones", "config": {}}, "moving_mean_initializer": {"class_name": "Zeros", "config": {}}, "moving_variance_initializer": {"class_name": "Ones", "config": {}}, "beta_regularizer": null, "gamma_regularizer": null, "beta_constraint": null, "gamma_constraint": null}, "inbound_nodes": [[["conv1/2denseblock1", 0, 0, {}]]]}, {"name": "conv2/2denseblock1", "class_name": "Conv2D", "config": {"name": "conv2/2denseblock1", "trainable": true, "filters": 48, "kernel_size": [3, 3], "strides": [1, 1], "padding": "same", "data_format": "channels_last", "dilation_rate": [1, 1], "activation": "linear", "use_bias": true, "kernel_initializer": {"class_name": "VarianceScaling", "config": {"scale": 1.0, "mode": "fan_avg", "distribution": "uniform", "seed": null}}, "bias_initializer": {"class_name": "Zeros", "config": {}}, "kernel_regularizer": null, "bias_regularizer": null, "activity_regularizer": null, "kernel_constraint": null, "bias_constraint": null}, "inbound_nodes": [[["bn2/2denseblock1", 0, 0, {}]]]}, {"name": "concat/2denseblock1", "class_name": "Concatenate", "config": {"name": "concat/2denseblock1", "trainable": true, "axis": -1}, "inbound_nodes": [[["concat/1denseblock1", 0, 0, {}], ["conv2/2denseblock1", 0, 0, {}]]]}, {"name": "bn/3denseblock1", "class_name": "BatchNormalization", "config": {"name": "bn/3denseblock1", "trainable": true, "axis": -1, "momentum": 0.99, "epsilon": 0.001, "center": true, "scale": true, "beta_initializer": {"class_name": "Zeros", "config": {}}, "gamma_initializer": {"class_name": "Ones", "config": {}}, "moving_mean_initializer": {"class_name": "Zeros", "config": {}}, "moving_variance_initializer": {"class_name": "Ones", "config": {}}, "beta_regularizer": null, "gamma_regularizer": null, "beta_constraint": null, "gamma_constraint": null}, "inbound_nodes": [[["concat/2denseblock1", 0, 0, {}]]]}, {"name": "conv1/3denseblock1", "class_name": "Conv2D", "config": {"name": "conv1/3denseblock1", "trainable": true, "filters": 48, "kernel_size": [1, 1], "strides": [1, 1], "padding": "same", "data_format": "channels_last", "dilation_rate": [1, 1], "activation": "linear", "use_bias": true, "kernel_initializer": {"class_name": "VarianceScaling", "config": {"scale": 1.0, "mode": "fan_avg", "distribution": "uniform", "seed": null}}, "bias_initializer": {"class_name": "Zeros", "config": {}}, "kernel_regularizer": null, "bias_regularizer": null, "activity_regularizer": null, "kernel_constraint": null, "bias_constraint": null}, "inbound_nodes": [[["bn/3denseblock1", 0, 0, {}]]]}, {"name": "bn2/3denseblock1", "class_name": "BatchNormalization", "config": {"name": "bn2/3denseblock1", "trainable": true, "axis": -1, "momentum": 0.99, "epsilon": 0.001, "center": true, "scale": true, "beta_initializer": {"class_name": "Zeros", "config": {}}, "gamma_initializer": {"class_name": "Ones", "config": {}}, "moving_mean_initializer": {"class_name": "Zeros", "config": {}}, "moving_variance_initializer": {"class_name": "Ones", "config": {}}, "beta_regularizer": null, "gamma_regularizer": null, "beta_constraint": null, "gamma_constraint": null}, "inbound_nodes": [[["conv1/3denseblock1", 0, 0, {}]]]}, {"name": "conv2/3denseblock1", "class_name": "Conv2D", "config": {"name": "conv2/3denseblock1", "trainable": true, "filters": 48, "kernel_size": [3, 3], "strides": [1, 1], "padding": "same", "data_format": "channels_last", "dilation_rate": [1, 1], "activation": "linear", "use_bias": true, "kernel_initializer": {"class_name": "VarianceScaling", "config": {"scale": 1.0, "mode": "fan_avg", "distribution": "uniform", "seed": null}}, "bias_initializer": {"class_name": "Zeros", "config": {}}, "kernel_regularizer": null, "bias_regularizer": null, "activity_regularizer": null, "kernel_constraint": null, "bias_constraint": null}, "inbound_nodes": [[["bn2/3denseblock1", 0, 0, {}]]]}, {"name": "concat/3denseblock1", "class_name": "Concatenate", "config": {"name": "concat/3denseblock1", "trainable": true, "axis": -1}, "inbound_nodes": [[["concat/2denseblock1", 0, 0, {}], ["conv2/3denseblock1", 0, 0, {}]]]}, {"name": "bn/4denseblock1", "class_name": "BatchNormalization", "config": {"name": "bn/4denseblock1", "trainable": true, "axis": -1, "momentum": 0.99, "epsilon": 0.001, "center": true, "scale": true, "beta_initializer": {"class_name": "Zeros", "config": {}}, "gamma_initializer": {"class_name": "Ones", "config": {}}, "moving_mean_initializer": {"class_name": "Zeros", "config": {}}, "moving_variance_initializer": {"class_name": "Ones", "config": {}}, "beta_regularizer": null, "gamma_regularizer": null, "beta_constraint": null, "gamma_constraint": null}, "inbound_nodes": [[["concat/3denseblock1", 0, 0, {}]]]}, {"name": "conv1/4denseblock1", "class_name": "Conv2D", "config": {"name": "conv1/4denseblock1", "trainable": true, "filters": 48, "kernel_size": [1, 1], "strides": [1, 1], "padding": "same", "data_format": "channels_last", "dilation_rate": [1, 1], "activation": "linear", "use_bias": true, "kernel_initializer": {"class_name": "VarianceScaling", "config": {"scale": 1.0, "mode": "fan_avg", "distribution": "uniform", "seed": null}}, "bias_initializer": {"class_name": "Zeros", "config": {}}, "kernel_regularizer": null, "bias_regularizer": null, "activity_regularizer": null, "kernel_constraint": null, "bias_constraint": null}, "inbound_nodes": [[["bn/4denseblock1", 0, 0, {}]]]}, {"name": "bn2/4denseblock1", "class_name": "BatchNormalization", "config": {"name": "bn2/4denseblock1", "trainable": true, "axis": -1, "momentum": 0.99, "epsilon": 0.001, "center": true, "scale": true, "beta_initializer": {"class_name": "Zeros", "config": {}}, "gamma_initializer": {"class_name": "Ones", "config": {}}, "moving_mean_initializer": {"class_name": "Zeros", "config": {}}, "moving_variance_initializer": {"class_name": "Ones", "config": {}}, "beta_regularizer": null, "gamma_regularizer": null, "beta_constraint": null, "gamma_constraint": null}, "inbound_nodes": [[["conv1/4denseblock1", 0, 0, {}]]]}, {"name": "conv2/4denseblock1", "class_name": "Conv2D", "config": {"name": "conv2/4denseblock1", "trainable": true, "filters": 48, "kernel_size": [3, 3], "strides": [1, 1], "padding": "same", "data_format": "channels_last", "dilation_rate": [1, 1], "activation": "linear", "use_bias": true, "kernel_initializer": {"class_name": "VarianceScaling", "config": {"scale": 1.0, "mode": "fan_avg", "distribution": "uniform", "seed": null}}, "bias_initializer": {"class_name": "Zeros", "config": {}}, "kernel_regularizer": null, "bias_regularizer": null, "activity_regularizer": null, "kernel_constraint": null, "bias_constraint": null}, "inbound_nodes": [[["bn2/4denseblock1", 0, 0, {}]]]}, {"name": "concat/4denseblock1", "class_name": "Concatenate", "config": {"name": "concat/4denseblock1", "trainable": true, "axis": -1}, "inbound_nodes": [[["concat/3denseblock1", 0, 0, {}], ["conv2/4denseblock1", 0, 0, {}]]]}, {"name": "bn/5denseblock1", "class_name": "BatchNormalization", "config": {"name": "bn/5denseblock1", "trainable": true, "axis": -1, "momentum": 0.99, "epsilon": 0.001, "center": true, "scale": true, "beta_initializer": {"class_name": "Zeros", "config": {}}, "gamma_initializer": {"class_name": "Ones", "config": {}}, "moving_mean_initializer": {"class_name": "Zeros", "config": {}}, "moving_variance_initializer": {"class_name": "Ones", "config": {}}, "beta_regularizer": null, "gamma_regularizer": null, "beta_constraint": null, "gamma_constraint": null}, "inbound_nodes": [[["concat/4denseblock1", 0, 0, {}]]]}, {"name": "conv1/5denseblock1", "class_name": "Conv2D", "config": {"name": "conv1/5denseblock1", "trainable": true, "filters": 48, "kernel_size": [1, 1], "strides": [1, 1], "padding": "same", "data_format": "channels_last", "dilation_rate": [1, 1], "activation": "linear", "use_bias": true, "kernel_initializer": {"class_name": "VarianceScaling", "config": {"scale": 1.0, "mode": "fan_avg", "distribution": "uniform", "seed": null}}, "bias_initializer": {"class_name": "Zeros", "config": {}}, "kernel_regularizer": null, "bias_regularizer": null, "activity_regularizer": null, "kernel_constraint": null, "bias_constraint": null}, "inbound_nodes": [[["bn/5denseblock1", 0, 0, {}]]]}, {"name": "bn2/5denseblock1", "class_name": "BatchNormalization", "config": {"name": "bn2/5denseblock1", "trainable": true, "axis": -1, "momentum": 0.99, "epsilon": 0.001, "center": true, "scale": true, "beta_initializer": {"class_name": "Zeros", "config": {}}, "gamma_initializer": {"class_name": "Ones", "config": {}}, "moving_mean_initializer": {"class_name": "Zeros", "config": {}}, "moving_variance_initializer": {"class_name": "Ones", "config": {}}, "beta_regularizer": null, "gamma_regularizer": null, "beta_constraint": null, "gamma_constraint": null}, "inbound_nodes": [[["conv1/5denseblock1", 0, 0, {}]]]}, {"name": "conv2/5denseblock1", "class_name": "Conv2D", "config": {"name": "conv2/5denseblock1", "trainable": true, "filters": 48, "kernel_size": [3, 3], "strides": [1, 1], "padding": "same", "data_format": "channels_last", "dilation_rate": [1, 1], "activation": "linear", "use_bias": true, "kernel_initializer": {"class_name": "VarianceScaling", "config": {"scale": 1.0, "mode": "fan_avg", "distribution": "uniform", "seed": null}}, "bias_initializer": {"class_name": "Zeros", "config": {}}, "kernel_regularizer": null, "bias_regularizer": null, "activity_regularizer": null, "kernel_constraint": null, "bias_constraint": null}, "inbound_nodes": [[["bn2/5denseblock1", 0, 0, {}]]]}, {"name": "concat/5denseblock1", "class_name": "Concatenate", "config": {"name": "concat/5denseblock1", "trainable": true, "axis": -1}, "inbound_nodes": [[["concat/4denseblock1", 0, 0, {}], ["conv2/5denseblock1", 0, 0, {}]]]}, {"name": "conv/trans1", "class_name": "Conv2D", "config": {"name": "conv/trans1", "trainable": true, "filters": 416, "kernel_size": [1, 1], "strides": [1, 1], "padding": "same", "data_format": "channels_last", "dilation_rate": [1, 1], "activation": "relu", "use_bias": true, "kernel_initializer": {"class_name": "VarianceScaling", "config": {"scale": 1.0, "mode": "fan_avg", "distribution": "uniform", "seed": null}}, "bias_initializer": {"class_name": "Zeros", "config": {}}, "kernel_regularizer": null, "bias_regularizer": null, "activity_regularizer": null, "kernel_constraint": null, "bias_constraint": null}, "inbound_nodes": [[["concat/5denseblock1", 0, 0, {}]]]}, {"name": "maxpool/trans1", "class_name": "MaxPooling2D", "config": {"name": "maxpool/trans1", "trainable": true, "pool_size": [2, 2], "padding": "valid", "strides": [2, 2], "data_format": "channels_last"}, "inbound_nodes": [[["conv/trans1", 0, 0, {}]]]}, {"name": "bn/0denseblock2", "class_name": "BatchNormalization", "config": {"name": "bn/0denseblock2", "trainable": true, "axis": -1, "momentum": 0.99, "epsilon": 0.001, "center": true, "scale": true, "beta_initializer": {"class_name": "Zeros", "config": {}}, "gamma_initializer": {"class_name": "Ones", "config": {}}, "moving_mean_initializer": {"class_name": "Zeros", "config": {}}, "moving_variance_initializer": {"class_name": "Ones", "config": {}}, "beta_regularizer": null, "gamma_regularizer": null, "beta_constraint": null, "gamma_constraint": null}, "inbound_nodes": [[["maxpool/trans1", 0, 0, {}]]]}, {"name": "conv1/0denseblock2", "class_name": "Conv2D", "config": {"name": "conv1/0denseblock2", "trainable": true, "filters": 48, "kernel_size": [1, 1], "strides": [1, 1], "padding": "same", "data_format": "channels_last", "dilation_rate": [1, 1], "activation": "linear", "use_bias": true, "kernel_initializer": {"class_name": "VarianceScaling", "config": {"scale": 1.0, "mode": "fan_avg", "distribution": "uniform", "seed": null}}, "bias_initializer": {"class_name": "Zeros", "config": {}}, "kernel_regularizer": null, "bias_regularizer": null, "activity_regularizer": null, "kernel_constraint": null, "bias_constraint": null}, "inbound_nodes": [[["bn/0denseblock2", 0, 0, {}]]]}, {"name": "bn2/0denseblock2", "class_name": "BatchNormalization", "config": {"name": "bn2/0denseblock2", "trainable": true, "axis": -1, "momentum": 0.99, "epsilon": 0.001, "center": true, "scale": true, "beta_initializer": {"class_name": "Zeros", "config": {}}, "gamma_initializer": {"class_name": "Ones", "config": {}}, "moving_mean_initializer": {"class_name": "Zeros", "config": {}}, "moving_variance_initializer": {"class_name": "Ones", "config": {}}, "beta_regularizer": null, "gamma_regularizer": null, "beta_constraint": null, "gamma_constraint": null}, "inbound_nodes": [[["conv1/0denseblock2", 0, 0, {}]]]}, {"name": "conv2/0denseblock2", "class_name": "Conv2D", "config": {"name": "conv2/0denseblock2", "trainable": true, "filters": 48, "kernel_size": [3, 3], "strides": [1, 1], "padding": "same", "data_format": "channels_last", "dilation_rate": [1, 1], "activation": "linear", "use_bias": true, "kernel_initializer": {"class_name": "VarianceScaling", "config": {"scale": 1.0, "mode": "fan_avg", "distribution": "uniform", "seed": null}}, "bias_initializer": {"class_name": "Zeros", "config": {}}, "kernel_regularizer": null, "bias_regularizer": null, "activity_regularizer": null, "kernel_constraint": null, "bias_constraint": null}, "inbound_nodes": [[["bn2/0denseblock2", 0, 0, {}]]]}, {"name": "concat/0denseblock2", "class_name": "Concatenate", "config": {"name": "concat/0denseblock2", "trainable": true, "axis": -1}, "inbound_nodes": [[["maxpool/trans1", 0, 0, {}], ["conv2/0denseblock2", 0, 0, {}]]]}, {"name": "bn/1denseblock2", "class_name": "BatchNormalization", "config": {"name": "bn/1denseblock2", "trainable": true, "axis": -1, "momentum": 0.99, "epsilon": 0.001, "center": true, "scale": true, "beta_initializer": {"class_name": "Zeros", "config": {}}, "gamma_initializer": {"class_name": "Ones", "config": {}}, "moving_mean_initializer": {"class_name": "Zeros", "config": {}}, "moving_variance_initializer": {"class_name": "Ones", "config": {}}, "beta_regularizer": null, "gamma_regularizer": null, "beta_constraint": null, "gamma_constraint": null}, "inbound_nodes": [[["concat/0denseblock2", 0, 0, {}]]]}, {"name": "conv1/1denseblock2", "class_name": "Conv2D", "config": {"name": "conv1/1denseblock2", "trainable": true, "filters": 48, "kernel_size": [1, 1], "strides": [1, 1], "padding": "same", "data_format": "channels_last", "dilation_rate": [1, 1], "activation": "linear", "use_bias": true, "kernel_initializer": {"class_name": "VarianceScaling", "config": {"scale": 1.0, "mode": "fan_avg", "distribution": "uniform", "seed": null}}, "bias_initializer": {"class_name": "Zeros", "config": {}}, "kernel_regularizer": null, "bias_regularizer": null, "activity_regularizer": null, "kernel_constraint": null, "bias_constraint": null}, "inbound_nodes": [[["bn/1denseblock2", 0, 0, {}]]]}, {"name": "bn2/1denseblock2", "class_name": "BatchNormalization", "config": {"name": "bn2/1denseblock2", "trainable": true, "axis": -1, "momentum": 0.99, "epsilon": 0.001, "center": true, "scale": true, "beta_initializer": {"class_name": "Zeros", "config": {}}, "gamma_initializer": {"class_name": "Ones", "config": {}}, "moving_mean_initializer": {"class_name": "Zeros", "config": {}}, "moving_variance_initializer": {"class_name": "Ones", "config": {}}, "beta_regularizer": null, "gamma_regularizer": null, "beta_constraint": null, "gamma_constraint": null}, "inbound_nodes": [[["conv1/1denseblock2", 0, 0, {}]]]}, {"name": "conv2/1denseblock2", "class_name": "Conv2D", "config": {"name": "conv2/1denseblock2", "trainable": true, "filters": 48, "kernel_size": [3, 3], "strides": [1, 1], "padding": "same", "data_format": "channels_last", "dilation_rate": [1, 1], "activation": "linear", "use_bias": true, "kernel_initializer": {"class_name": "VarianceScaling", "config": {"scale": 1.0, "mode": "fan_avg", "distribution": "uniform", "seed": null}}, "bias_initializer": {"class_name": "Zeros", "config": {}}, "kernel_regularizer": null, "bias_regularizer": null, "activity_regularizer": null, "kernel_constraint": null, "bias_constraint": null}, "inbound_nodes": [[["bn2/1denseblock2", 0, 0, {}]]]}, {"name": "concat/1denseblock2", "class_name": "Concatenate", "config": {"name": "concat/1denseblock2", "trainable": true, "axis": -1}, "inbound_nodes": [[["concat/0denseblock2", 0, 0, {}], ["conv2/1denseblock2", 0, 0, {}]]]}, {"name": "bn/2denseblock2", "class_name": "BatchNormalization", "config": {"name": "bn/2denseblock2", "trainable": true, "axis": -1, "momentum": 0.99, "epsilon": 0.001, "center": true, "scale": true, "beta_initializer": {"class_name": "Zeros", "config": {}}, "gamma_initializer": {"class_name": "Ones", "config": {}}, "moving_mean_initializer": {"class_name": "Zeros", "config": {}}, "moving_variance_initializer": {"class_name": "Ones", "config": {}}, "beta_regularizer": null, "gamma_regularizer": null, "beta_constraint": null, "gamma_constraint": null}, "inbound_nodes": [[["concat/1denseblock2", 0, 0, {}]]]}, {"name": "conv1/2denseblock2", "class_name": "Conv2D", "config": {"name": "conv1/2denseblock2", "trainable": true, "filters": 48, "kernel_size": [1, 1], "strides": [1, 1], "padding": "same", "data_format": "channels_last", "dilation_rate": [1, 1], "activation": "linear", "use_bias": true, "kernel_initializer": {"class_name": "VarianceScaling", "config": {"scale": 1.0, "mode": "fan_avg", "distribution": "uniform", "seed": null}}, "bias_initializer": {"class_name": "Zeros", "config": {}}, "kernel_regularizer": null, "bias_regularizer": null, "activity_regularizer": null, "kernel_constraint": null, "bias_constraint": null}, "inbound_nodes": [[["bn/2denseblock2", 0, 0, {}]]]}, {"name": "bn2/2denseblock2", "class_name": "BatchNormalization", "config": {"name": "bn2/2denseblock2", "trainable": true, "axis": -1, "momentum": 0.99, "epsilon": 0.001, "center": true, "scale": true, "beta_initializer": {"class_name": "Zeros", "config": {}}, "gamma_initializer": {"class_name": "Ones", "config": {}}, "moving_mean_initializer": {"class_name": "Zeros", "config": {}}, "moving_variance_initializer": {"class_name": "Ones", "config": {}}, "beta_regularizer": null, "gamma_regularizer": null, "beta_constraint": null, "gamma_constraint": null}, "inbound_nodes": [[["conv1/2denseblock2", 0, 0, {}]]]}, {"name": "conv2/2denseblock2", "class_name": "Conv2D", "config": {"name": "conv2/2denseblock2", "trainable": true, "filters": 48, "kernel_size": [3, 3], "strides": [1, 1], "padding": "same", "data_format": "channels_last", "dilation_rate": [1, 1], "activation": "linear", "use_bias": true, "kernel_initializer": {"class_name": "VarianceScaling", "config": {"scale": 1.0, "mode": "fan_avg", "distribution": "uniform", "seed": null}}, "bias_initializer": {"class_name": "Zeros", "config": {}}, "kernel_regularizer": null, "bias_regularizer": null, "activity_regularizer": null, "kernel_constraint": null, "bias_constraint": null}, "inbound_nodes": [[["bn2/2denseblock2", 0, 0, {}]]]}, {"name": "concat/2denseblock2", "class_name": "Concatenate", "config": {"name": "concat/2denseblock2", "trainable": true, "axis": -1}, "inbound_nodes": [[["concat/1denseblock2", 0, 0, {}], ["conv2/2denseblock2", 0, 0, {}]]]}, {"name": "bn/3denseblock2", "class_name": "BatchNormalization", "config": {"name": "bn/3denseblock2", "trainable": true, "axis": -1, "momentum": 0.99, "epsilon": 0.001, "center": true, "scale": true, "beta_initializer": {"class_name": "Zeros", "config": {}}, "gamma_initializer": {"class_name": "Ones", "config": {}}, "moving_mean_initializer": {"class_name": "Zeros", "config": {}}, "moving_variance_initializer": {"class_name": "Ones", "config": {}}, "beta_regularizer": null, "gamma_regularizer": null, "beta_constraint": null, "gamma_constraint": null}, "inbound_nodes": [[["concat/2denseblock2", 0, 0, {}]]]}, {"name": "conv1/3denseblock2", "class_name": "Conv2D", "config": {"name": "conv1/3denseblock2", "trainable": true, "filters": 48, "kernel_size": [1, 1], "strides": [1, 1], "padding": "same", "data_format": "channels_last", "dilation_rate": [1, 1], "activation": "linear", "use_bias": true, "kernel_initializer": {"class_name": "VarianceScaling", "config": {"scale": 1.0, "mode": "fan_avg", "distribution": "uniform", "seed": null}}, "bias_initializer": {"class_name": "Zeros", "config": {}}, "kernel_regularizer": null, "bias_regularizer": null, "activity_regularizer": null, "kernel_constraint": null, "bias_constraint": null}, "inbound_nodes": [[["bn/3denseblock2", 0, 0, {}]]]}, {"name": "bn2/3denseblock2", "class_name": "BatchNormalization", "config": {"name": "bn2/3denseblock2", "trainable": true, "axis": -1, "momentum": 0.99, "epsilon": 0.001, "center": true, "scale": true, "beta_initializer": {"class_name": "Zeros", "config": {}}, "gamma_initializer": {"class_name": "Ones", "config": {}}, "moving_mean_initializer": {"class_name": "Zeros", "config": {}}, "moving_variance_initializer": {"class_name": "Ones", "config": {}}, "beta_regularizer": null, "gamma_regularizer": null, "beta_constraint": null, "gamma_constraint": null}, "inbound_nodes": [[["conv1/3denseblock2", 0, 0, {}]]]}, {"name": "conv2/3denseblock2", "class_name": "Conv2D", "config": {"name": "conv2/3denseblock2", "trainable": true, "filters": 48, "kernel_size": [3, 3], "strides": [1, 1], "padding": "same", "data_format": "channels_last", "dilation_rate": [1, 1], "activation": "linear", "use_bias": true, "kernel_initializer": {"class_name": "VarianceScaling", "config": {"scale": 1.0, "mode": "fan_avg", "distribution": "uniform", "seed": null}}, "bias_initializer": {"class_name": "Zeros", "config": {}}, "kernel_regularizer": null, "bias_regularizer": null, "activity_regularizer": null, "kernel_constraint": null, "bias_constraint": null}, "inbound_nodes": [[["bn2/3denseblock2", 0, 0, {}]]]}, {"name": "concat/3denseblock2", "class_name": "Concatenate", "config": {"name": "concat/3denseblock2", "trainable": true, "axis": -1}, "inbound_nodes": [[["concat/2denseblock2", 0, 0, {}], ["conv2/3denseblock2", 0, 0, {}]]]}, {"name": "bn/4denseblock2", "class_name": "BatchNormalization", "config": {"name": "bn/4denseblock2", "trainable": true, "axis": -1, "momentum": 0.99, "epsilon": 0.001, "center": true, "scale": true, "beta_initializer": {"class_name": "Zeros", "config": {}}, "gamma_initializer": {"class_name": "Ones", "config": {}}, "moving_mean_initializer": {"class_name": "Zeros", "config": {}}, "moving_variance_initializer": {"class_name": "Ones", "config": {}}, "beta_regularizer": null, "gamma_regularizer": null, "beta_constraint": null, "gamma_constraint": null}, "inbound_nodes": [[["concat/3denseblock2", 0, 0, {}]]]}, {"name": "conv1/4denseblock2", "class_name": "Conv2D", "config": {"name": "conv1/4denseblock2", "trainable": true, "filters": 48, "kernel_size": [1, 1], "strides": [1, 1], "padding": "same", "data_format": "channels_last", "dilation_rate": [1, 1], "activation": "linear", "use_bias": true, "kernel_initializer": {"class_name": "VarianceScaling", "config": {"scale": 1.0, "mode": "fan_avg", "distribution": "uniform", "seed": null}}, "bias_initializer": {"class_name": "Zeros", "config": {}}, "kernel_regularizer": null, "bias_regularizer": null, "activity_regularizer": null, "kernel_constraint": null, "bias_constraint": null}, "inbound_nodes": [[["bn/4denseblock2", 0, 0, {}]]]}, {"name": "bn2/4denseblock2", "class_name": "BatchNormalization", "config": {"name": "bn2/4denseblock2", "trainable": true, "axis": -1, "momentum": 0.99, "epsilon": 0.001, "center": true, "scale": true, "beta_initializer": {"class_name": "Zeros", "config": {}}, "gamma_initializer": {"class_name": "Ones", "config": {}}, "moving_mean_initializer": {"class_name": "Zeros", "config": {}}, "moving_variance_initializer": {"class_name": "Ones", "config": {}}, "beta_regularizer": null, "gamma_regularizer": null, "beta_constraint": null, "gamma_constraint": null}, "inbound_nodes": [[["conv1/4denseblock2", 0, 0, {}]]]}, {"name": "conv2/4denseblock2", "class_name": "Conv2D", "config": {"name": "conv2/4denseblock2", "trainable": true, "filters": 48, "kernel_size": [3, 3], "strides": [1, 1], "padding": "same", "data_format": "channels_last", "dilation_rate": [1, 1], "activation": "linear", "use_bias": true, "kernel_initializer": {"class_name": "VarianceScaling", "config": {"scale": 1.0, "mode": "fan_avg", "distribution": "uniform", "seed": null}}, "bias_initializer": {"class_name": "Zeros", "config": {}}, "kernel_regularizer": null, "bias_regularizer": null, "activity_regularizer": null, "kernel_constraint": null, "bias_constraint": null}, "inbound_nodes": [[["bn2/4denseblock2", 0, 0, {}]]]}, {"name": "concat/4denseblock2", "class_name": "Concatenate", "config": {"name": "concat/4denseblock2", "trainable": true, "axis": -1}, "inbound_nodes": [[["concat/3denseblock2", 0, 0, {}], ["conv2/4denseblock2", 0, 0, {}]]]}, {"name": "bn/5denseblock2", "class_name": "BatchNormalization", "config": {"name": "bn/5denseblock2", "trainable": true, "axis": -1, "momentum": 0.99, "epsilon": 0.001, "center": true, "scale": true, "beta_initializer": {"class_name": "Zeros", "config": {}}, "gamma_initializer": {"class_name": "Ones", "config": {}}, "moving_mean_initializer": {"class_name": "Zeros", "config": {}}, "moving_variance_initializer": {"class_name": "Ones", "config": {}}, "beta_regularizer": null, "gamma_regularizer": null, "beta_constraint": null, "gamma_constraint": null}, "inbound_nodes": [[["concat/4denseblock2", 0, 0, {}]]]}, {"name": "conv1/5denseblock2", "class_name": "Conv2D", "config": {"name": "conv1/5denseblock2", "trainable": true, "filters": 48, "kernel_size": [1, 1], "strides": [1, 1], "padding": "same", "data_format": "channels_last", "dilation_rate": [1, 1], "activation": "linear", "use_bias": true, "kernel_initializer": {"class_name": "VarianceScaling", "config": {"scale": 1.0, "mode": "fan_avg", "distribution": "uniform", "seed": null}}, "bias_initializer": {"class_name": "Zeros", "config": {}}, "kernel_regularizer": null, "bias_regularizer": null, "activity_regularizer": null, "kernel_constraint": null, "bias_constraint": null}, "inbound_nodes": [[["bn/5denseblock2", 0, 0, {}]]]}, {"name": "bn2/5denseblock2", "class_name": "BatchNormalization", "config": {"name": "bn2/5denseblock2", "trainable": true, "axis": -1, "momentum": 0.99, "epsilon": 0.001, "center": true, "scale": true, "beta_initializer": {"class_name": "Zeros", "config": {}}, "gamma_initializer": {"class_name": "Ones", "config": {}}, "moving_mean_initializer": {"class_name": "Zeros", "config": {}}, "moving_variance_initializer": {"class_name": "Ones", "config": {}}, "beta_regularizer": null, "gamma_regularizer": null, "beta_constraint": null, "gamma_constraint": null}, "inbound_nodes": [[["conv1/5denseblock2", 0, 0, {}]]]}, {"name": "conv2/5denseblock2", "class_name": "Conv2D", "config": {"name": "conv2/5denseblock2", "trainable": true, "filters": 48, "kernel_size": [3, 3], "strides": [1, 1], "padding": "same", "data_format": "channels_last", "dilation_rate": [1, 1], "activation": "linear", "use_bias": true, "kernel_initializer": {"class_name": "VarianceScaling", "config": {"scale": 1.0, "mode": "fan_avg", "distribution": "uniform", "seed": null}}, "bias_initializer": {"class_name": "Zeros", "config": {}}, "kernel_regularizer": null, "bias_regularizer": null, "activity_regularizer": null, "kernel_constraint": null, "bias_constraint": null}, "inbound_nodes": [[["bn2/5denseblock2", 0, 0, {}]]]}, {"name": "concat/5denseblock2", "class_name": "Concatenate", "config": {"name": "concat/5denseblock2", "trainable": true, "axis": -1}, "inbound_nodes": [[["concat/4denseblock2", 0, 0, {}], ["conv2/5denseblock2", 0, 0, {}]]]}, {"name": "bn/6denseblock2", "class_name": "BatchNormalization", "config": {"name": "bn/6denseblock2", "trainable": true, "axis": -1, "momentum": 0.99, "epsilon": 0.001, "center": true, "scale": true, "beta_initializer": {"class_name": "Zeros", "config": {}}, "gamma_initializer": {"class_name": "Ones", "config": {}}, "moving_mean_initializer": {"class_name": "Zeros", "config": {}}, "moving_variance_initializer": {"class_name": "Ones", "config": {}}, "beta_regularizer": null, "gamma_regularizer": null, "beta_constraint": null, "gamma_constraint": null}, "inbound_nodes": [[["concat/5denseblock2", 0, 0, {}]]]}, {"name": "conv1/6denseblock2", "class_name": "Conv2D", "config": {"name": "conv1/6denseblock2", "trainable": true, "filters": 48, "kernel_size": [1, 1], "strides": [1, 1], "padding": "same", "data_format": "channels_last", "dilation_rate": [1, 1], "activation": "linear", "use_bias": true, "kernel_initializer": {"class_name": "VarianceScaling", "config": {"scale": 1.0, "mode": "fan_avg", "distribution": "uniform", "seed": null}}, "bias_initializer": {"class_name": "Zeros", "config": {}}, "kernel_regularizer": null, "bias_regularizer": null, "activity_regularizer": null, "kernel_constraint": null, "bias_constraint": null}, "inbound_nodes": [[["bn/6denseblock2", 0, 0, {}]]]}, {"name": "bn2/6denseblock2", "class_name": "BatchNormalization", "config": {"name": "bn2/6denseblock2", "trainable": true, "axis": -1, "momentum": 0.99, "epsilon": 0.001, "center": true, "scale": true, "beta_initializer": {"class_name": "Zeros", "config": {}}, "gamma_initializer": {"class_name": "Ones", "config": {}}, "moving_mean_initializer": {"class_name": "Zeros", "config": {}}, "moving_variance_initializer": {"class_name": "Ones", "config": {}}, "beta_regularizer": null, "gamma_regularizer": null, "beta_constraint": null, "gamma_constraint": null}, "inbound_nodes": [[["conv1/6denseblock2", 0, 0, {}]]]}, {"name": "conv2/6denseblock2", "class_name": "Conv2D", "config": {"name": "conv2/6denseblock2", "trainable": true, "filters": 48, "kernel_size": [3, 3], "strides": [1, 1], "padding": "same", "data_format": "channels_last", "dilation_rate": [1, 1], "activation": "linear", "use_bias": true, "kernel_initializer": {"class_name": "VarianceScaling", "config": {"scale": 1.0, "mode": "fan_avg", "distribution": "uniform", "seed": null}}, "bias_initializer": {"class_name": "Zeros", "config": {}}, "kernel_regularizer": null, "bias_regularizer": null, "activity_regularizer": null, "kernel_constraint": null, "bias_constraint": null}, "inbound_nodes": [[["bn2/6denseblock2", 0, 0, {}]]]}, {"name": "concat/6denseblock2", "class_name": "Concatenate", "config": {"name": "concat/6denseblock2", "trainable": true, "axis": -1}, "inbound_nodes": [[["concat/5denseblock2", 0, 0, {}], ["conv2/6denseblock2", 0, 0, {}]]]}, {"name": "bn/7denseblock2", "class_name": "BatchNormalization", "config": {"name": "bn/7denseblock2", "trainable": true, "axis": -1, "momentum": 0.99, "epsilon": 0.001, "center": true, "scale": true, "beta_initializer": {"class_name": "Zeros", "config": {}}, "gamma_initializer": {"class_name": "Ones", "config": {}}, "moving_mean_initializer": {"class_name": "Zeros", "config": {}}, "moving_variance_initializer": {"class_name": "Ones", "config": {}}, "beta_regularizer": null, "gamma_regularizer": null, "beta_constraint": null, "gamma_constraint": null}, "inbound_nodes": [[["concat/6denseblock2", 0, 0, {}]]]}, {"name": "conv1/7denseblock2", "class_name": "Conv2D", "config": {"name": "conv1/7denseblock2", "trainable": true, "filters": 48, "kernel_size": [1, 1], "strides": [1, 1], "padding": "same", "data_format": "channels_last", "dilation_rate": [1, 1], "activation": "linear", "use_bias": true, "kernel_initializer": {"class_name": "VarianceScaling", "config": {"scale": 1.0, "mode": "fan_avg", "distribution": "uniform", "seed": null}}, "bias_initializer": {"class_name": "Zeros", "config": {}}, "kernel_regularizer": null, "bias_regularizer": null, "activity_regularizer": null, "kernel_constraint": null, "bias_constraint": null}, "inbound_nodes": [[["bn/7denseblock2", 0, 0, {}]]]}, {"name": "bn2/7denseblock2", "class_name": "BatchNormalization", "config": {"name": "bn2/7denseblock2", "trainable": true, "axis": -1, "momentum": 0.99, "epsilon": 0.001, "center": true, "scale": true, "beta_initializer": {"class_name": "Zeros", "config": {}}, "gamma_initializer": {"class_name": "Ones", "config": {}}, "moving_mean_initializer": {"class_name": "Zeros", "config": {}}, "moving_variance_initializer": {"class_name": "Ones", "config": {}}, "beta_regularizer": null, "gamma_regularizer": null, "beta_constraint": null, "gamma_constraint": null}, "inbound_nodes": [[["conv1/7denseblock2", 0, 0, {}]]]}, {"name": "conv2/7denseblock2", "class_name": "Conv2D", "config": {"name": "conv2/7denseblock2", "trainable": true, "filters": 48, "kernel_size": [3, 3], "strides": [1, 1], "padding": "same", "data_format": "channels_last", "dilation_rate": [1, 1], "activation": "linear", "use_bias": true, "kernel_initializer": {"class_name": "VarianceScaling", "config": {"scale": 1.0, "mode": "fan_avg", "distribution": "uniform", "seed": null}}, "bias_initializer": {"class_name": "Zeros", "config": {}}, "kernel_regularizer": null, "bias_regularizer": null, "activity_regularizer": null, "kernel_constraint": null, "bias_constraint": null}, "inbound_nodes": [[["bn2/7denseblock2", 0, 0, {}]]]}, {"name": "concat/7denseblock2", "class_name": "Concatenate", "config": {"name": "concat/7denseblock2", "trainable": true, "axis": -1}, "inbound_nodes": [[["concat/6denseblock2", 0, 0, {}], ["conv2/7denseblock2", 0, 0, {}]]]}, {"name": "conv/trans2", "class_name": "Conv2D", "config": {"name": "conv/trans2", "trainable": true, "filters": 800, "kernel_size": [1, 1], "strides": [1, 1], "padding": "same", "data_format": "channels_last", "dilation_rate": [1, 1], "activation": "relu", "use_bias": true, "kernel_initializer": {"class_name": "VarianceScaling", "config": {"scale": 1.0, "mode": "fan_avg", "distribution": "uniform", "seed": null}}, "bias_initializer": {"class_name": "Zeros", "config": {}}, "kernel_regularizer": null, "bias_regularizer": null, "activity_regularizer": null, "kernel_constraint": null, "bias_constraint": null}, "inbound_nodes": [[["concat/7denseblock2", 0, 0, {}]]]}, {"name": "maxpool/trans2", "class_name": "MaxPooling2D", "config": {"name": "maxpool/trans2", "trainable": true, "pool_size": [2, 2], "padding": "valid", "strides": [2, 2], "data_format": "channels_last"}, "inbound_nodes": [[["conv/trans2", 0, 0, {}]]]}, {"name": "bn/0denseblock3", "class_name": "BatchNormalization", "config": {"name": "bn/0denseblock3", "trainable": true, "axis": -1, "momentum": 0.99, "epsilon": 0.001, "center": true, "scale": true, "beta_initializer": {"class_name": "Zeros", "config": {}}, "gamma_initializer": {"class_name": "Ones", "config": {}}, "moving_mean_initializer": {"class_name": "Zeros", "config": {}}, "moving_variance_initializer": {"class_name": "Ones", "config": {}}, "beta_regularizer": null, "gamma_regularizer": null, "beta_constraint": null, "gamma_constraint": null}, "inbound_nodes": [[["maxpool/trans2", 0, 0, {}]]]}, {"name": "conv1/0denseblock3", "class_name": "Conv2D", "config": {"name": "conv1/0denseblock3", "trainable": true, "filters": 48, "kernel_size": [1, 1], "strides": [1, 1], "padding": "same", "data_format": "channels_last", "dilation_rate": [1, 1], "activation": "linear", "use_bias": true, "kernel_initializer": {"class_name": "VarianceScaling", "config": {"scale": 1.0, "mode": "fan_avg", "distribution": "uniform", "seed": null}}, "bias_initializer": {"class_name": "Zeros", "config": {}}, "kernel_regularizer": null, "bias_regularizer": null, "activity_regularizer": null, "kernel_constraint": null, "bias_constraint": null}, "inbound_nodes": [[["bn/0denseblock3", 0, 0, {}]]]}, {"name": "bn2/0denseblock3", "class_name": "BatchNormalization", "config": {"name": "bn2/0denseblock3", "trainable": true, "axis": -1, "momentum": 0.99, "epsilon": 0.001, "center": true, "scale": true, "beta_initializer": {"class_name": "Zeros", "config": {}}, "gamma_initializer": {"class_name": "Ones", "config": {}}, "moving_mean_initializer": {"class_name": "Zeros", "config": {}}, "moving_variance_initializer": {"class_name": "Ones", "config": {}}, "beta_regularizer": null, "gamma_regularizer": null, "beta_constraint": null, "gamma_constraint": null}, "inbound_nodes": [[["conv1/0denseblock3", 0, 0, {}]]]}, {"name": "conv2/0denseblock3", "class_name": "Conv2D", "config": {"name": "conv2/0denseblock3", "trainable": true, "filters": 48, "kernel_size": [3, 3], "strides": [1, 1], "padding": "same", "data_format": "channels_last", "dilation_rate": [1, 1], "activation": "linear", "use_bias": true, "kernel_initializer": {"class_name": "VarianceScaling", "config": {"scale": 1.0, "mode": "fan_avg", "distribution": "uniform", "seed": null}}, "bias_initializer": {"class_name": "Zeros", "config": {}}, "kernel_regularizer": null, "bias_regularizer": null, "activity_regularizer": null, "kernel_constraint": null, "bias_constraint": null}, "inbound_nodes": [[["bn2/0denseblock3", 0, 0, {}]]]}, {"name": "concat/0denseblock3", "class_name": "Concatenate", "config": {"name": "concat/0denseblock3", "trainable": true, "axis": -1}, "inbound_nodes": [[["maxpool/trans2", 0, 0, {}], ["conv2/0denseblock3", 0, 0, {}]]]}, {"name": "bn/1denseblock3", "class_name": "BatchNormalization", "config": {"name": "bn/1denseblock3", "trainable": true, "axis": -1, "momentum": 0.99, "epsilon": 0.001, "center": true, "scale": true, "beta_initializer": {"class_name": "Zeros", "config": {}}, "gamma_initializer": {"class_name": "Ones", "config": {}}, "moving_mean_initializer": {"class_name": "Zeros", "config": {}}, "moving_variance_initializer": {"class_name": "Ones", "config": {}}, "beta_regularizer": null, "gamma_regularizer": null, "beta_constraint": null, "gamma_constraint": null}, "inbound_nodes": [[["concat/0denseblock3", 0, 0, {}]]]}, {"name": "conv1/1denseblock3", "class_name": "Conv2D", "config": {"name": "conv1/1denseblock3", "trainable": true, "filters": 48, "kernel_size": [1, 1], "strides": [1, 1], "padding": "same", "data_format": "channels_last", "dilation_rate": [1, 1], "activation": "linear", "use_bias": true, "kernel_initializer": {"class_name": "VarianceScaling", "config": {"scale": 1.0, "mode": "fan_avg", "distribution": "uniform", "seed": null}}, "bias_initializer": {"class_name": "Zeros", "config": {}}, "kernel_regularizer": null, "bias_regularizer": null, "activity_regularizer": null, "kernel_constraint": null, "bias_constraint": null}, "inbound_nodes": [[["bn/1denseblock3", 0, 0, {}]]]}, {"name": "bn2/1denseblock3", "class_name": "BatchNormalization", "config": {"name": "bn2/1denseblock3", "trainable": true, "axis": -1, "momentum": 0.99, "epsilon": 0.001, "center": true, "scale": true, "beta_initializer": {"class_name": "Zeros", "config": {}}, "gamma_initializer": {"class_name": "Ones", "config": {}}, "moving_mean_initializer": {"class_name": "Zeros", "config": {}}, "moving_variance_initializer": {"class_name": "Ones", "config": {}}, "beta_regularizer": null, "gamma_regularizer": null, "beta_constraint": null, "gamma_constraint": null}, "inbound_nodes": [[["conv1/1denseblock3", 0, 0, {}]]]}, {"name": "conv2/1denseblock3", "class_name": "Conv2D", "config": {"name": "conv2/1denseblock3", "trainable": true, "filters": 48, "kernel_size": [3, 3], "strides": [1, 1], "padding": "same", "data_format": "channels_last", "dilation_rate": [1, 1], "activation": "linear", "use_bias": true, "kernel_initializer": {"class_name": "VarianceScaling", "config": {"scale": 1.0, "mode": "fan_avg", "distribution": "uniform", "seed": null}}, "bias_initializer": {"class_name": "Zeros", "config": {}}, "kernel_regularizer": null, "bias_regularizer": null, "activity_regularizer": null, "kernel_constraint": null, "bias_constraint": null}, "inbound_nodes": [[["bn2/1denseblock3", 0, 0, {}]]]}, {"name": "concat/1denseblock3", "class_name": "Concatenate", "config": {"name": "concat/1denseblock3", "trainable": true, "axis": -1}, "inbound_nodes": [[["concat/0denseblock3", 0, 0, {}], ["conv2/1denseblock3", 0, 0, {}]]]}, {"name": "bn/2denseblock3", "class_name": "BatchNormalization", "config": {"name": "bn/2denseblock3", "trainable": true, "axis": -1, "momentum": 0.99, "epsilon": 0.001, "center": true, "scale": true, "beta_initializer": {"class_name": "Zeros", "config": {}}, "gamma_initializer": {"class_name": "Ones", "config": {}}, "moving_mean_initializer": {"class_name": "Zeros", "config": {}}, "moving_variance_initializer": {"class_name": "Ones", "config": {}}, "beta_regularizer": null, "gamma_regularizer": null, "beta_constraint": null, "gamma_constraint": null}, "inbound_nodes": [[["concat/1denseblock3", 0, 0, {}]]]}, {"name": "conv1/2denseblock3", "class_name": "Conv2D", "config": {"name": "conv1/2denseblock3", "trainable": true, "filters": 48, "kernel_size": [1, 1], "strides": [1, 1], "padding": "same", "data_format": "channels_last", "dilation_rate": [1, 1], "activation": "linear", "use_bias": true, "kernel_initializer": {"class_name": "VarianceScaling", "config": {"scale": 1.0, "mode": "fan_avg", "distribution": "uniform", "seed": null}}, "bias_initializer": {"class_name": "Zeros", "config": {}}, "kernel_regularizer": null, "bias_regularizer": null, "activity_regularizer": null, "kernel_constraint": null, "bias_constraint": null}, "inbound_nodes": [[["bn/2denseblock3", 0, 0, {}]]]}, {"name": "bn2/2denseblock3", "class_name": "BatchNormalization", "config": {"name": "bn2/2denseblock3", "trainable": true, "axis": -1, "momentum": 0.99, "epsilon": 0.001, "center": true, "scale": true, "beta_initializer": {"class_name": "Zeros", "config": {}}, "gamma_initializer": {"class_name": "Ones", "config": {}}, "moving_mean_initializer": {"class_name": "Zeros", "config": {}}, "moving_variance_initializer": {"class_name": "Ones", "config": {}}, "beta_regularizer": null, "gamma_regularizer": null, "beta_constraint": null, "gamma_constraint": null}, "inbound_nodes": [[["conv1/2denseblock3", 0, 0, {}]]]}, {"name": "conv2/2denseblock3", "class_name": "Conv2D", "config": {"name": "conv2/2denseblock3", "trainable": true, "filters": 48, "kernel_size": [3, 3], "strides": [1, 1], "padding": "same", "data_format": "channels_last", "dilation_rate": [1, 1], "activation": "linear", "use_bias": true, "kernel_initializer": {"class_name": "VarianceScaling", "config": {"scale": 1.0, "mode": "fan_avg", "distribution": "uniform", "seed": null}}, "bias_initializer": {"class_name": "Zeros", "config": {}}, "kernel_regularizer": null, "bias_regularizer": null, "activity_regularizer": null, "kernel_constraint": null, "bias_constraint": null}, "inbound_nodes": [[["bn2/2denseblock3", 0, 0, {}]]]}, {"name": "concat/2denseblock3", "class_name": "Concatenate", "config": {"name": "concat/2denseblock3", "trainable": true, "axis": -1}, "inbound_nodes": [[["concat/1denseblock3", 0, 0, {}], ["conv2/2denseblock3", 0, 0, {}]]]}, {"name": "bn/3denseblock3", "class_name": "BatchNormalization", "config": {"name": "bn/3denseblock3", "trainable": true, "axis": -1, "momentum": 0.99, "epsilon": 0.001, "center": true, "scale": true, "beta_initializer": {"class_name": "Zeros", "config": {}}, "gamma_initializer": {"class_name": "Ones", "config": {}}, "moving_mean_initializer": {"class_name": "Zeros", "config": {}}, "moving_variance_initializer": {"class_name": "Ones", "config": {}}, "beta_regularizer": null, "gamma_regularizer": null, "beta_constraint": null, "gamma_constraint": null}, "inbound_nodes": [[["concat/2denseblock3", 0, 0, {}]]]}, {"name": "conv1/3denseblock3", "class_name": "Conv2D", "config": {"name": "conv1/3denseblock3", "trainable": true, "filters": 48, "kernel_size": [1, 1], "strides": [1, 1], "padding": "same", "data_format": "channels_last", "dilation_rate": [1, 1], "activation": "linear", "use_bias": true, "kernel_initializer": {"class_name": "VarianceScaling", "config": {"scale": 1.0, "mode": "fan_avg", "distribution": "uniform", "seed": null}}, "bias_initializer": {"class_name": "Zeros", "config": {}}, "kernel_regularizer": null, "bias_regularizer": null, "activity_regularizer": null, "kernel_constraint": null, "bias_constraint": null}, "inbound_nodes": [[["bn/3denseblock3", 0, 0, {}]]]}, {"name": "bn2/3denseblock3", "class_name": "BatchNormalization", "config": {"name": "bn2/3denseblock3", "trainable": true, "axis": -1, "momentum": 0.99, "epsilon": 0.001, "center": true, "scale": true, "beta_initializer": {"class_name": "Zeros", "config": {}}, "gamma_initializer": {"class_name": "Ones", "config": {}}, "moving_mean_initializer": {"class_name": "Zeros", "config": {}}, "moving_variance_initializer": {"class_name": "Ones", "config": {}}, "beta_regularizer": null, "gamma_regularizer": null, "beta_constraint": null, "gamma_constraint": null}, "inbound_nodes": [[["conv1/3denseblock3", 0, 0, {}]]]}, {"name": "conv2/3denseblock3", "class_name": "Conv2D", "config": {"name": "conv2/3denseblock3", "trainable": true, "filters": 48, "kernel_size": [3, 3], "strides": [1, 1], "padding": "same", "data_format": "channels_last", "dilation_rate": [1, 1], "activation": "linear", "use_bias": true, "kernel_initializer": {"class_name": "VarianceScaling", "config": {"scale": 1.0, "mode": "fan_avg", "distribution": "uniform", "seed": null}}, "bias_initializer": {"class_name": "Zeros", "config": {}}, "kernel_regularizer": null, "bias_regularizer": null, "activity_regularizer": null, "kernel_constraint": null, "bias_constraint": null}, "inbound_nodes": [[["bn2/3denseblock3", 0, 0, {}]]]}, {"name": "concat/3denseblock3", "class_name": "Concatenate", "config": {"name": "concat/3denseblock3", "trainable": true, "axis": -1}, "inbound_nodes": [[["concat/2denseblock3", 0, 0, {}], ["conv2/3denseblock3", 0, 0, {}]]]}, {"name": "bn/4denseblock3", "class_name": "BatchNormalization", "config": {"name": "bn/4denseblock3", "trainable": true, "axis": -1, "momentum": 0.99, "epsilon": 0.001, "center": true, "scale": true, "beta_initializer": {"class_name": "Zeros", "config": {}}, "gamma_initializer": {"class_name": "Ones", "config": {}}, "moving_mean_initializer": {"class_name": "Zeros", "config": {}}, "moving_variance_initializer": {"class_name": "Ones", "config": {}}, "beta_regularizer": null, "gamma_regularizer": null, "beta_constraint": null, "gamma_constraint": null}, "inbound_nodes": [[["concat/3denseblock3", 0, 0, {}]]]}, {"name": "conv1/4denseblock3", "class_name": "Conv2D", "config": {"name": "conv1/4denseblock3", "trainable": true, "filters": 48, "kernel_size": [1, 1], "strides": [1, 1], "padding": "same", "data_format": "channels_last", "dilation_rate": [1, 1], "activation": "linear", "use_bias": true, "kernel_initializer": {"class_name": "VarianceScaling", "config": {"scale": 1.0, "mode": "fan_avg", "distribution": "uniform", "seed": null}}, "bias_initializer": {"class_name": "Zeros", "config": {}}, "kernel_regularizer": null, "bias_regularizer": null, "activity_regularizer": null, "kernel_constraint": null, "bias_constraint": null}, "inbound_nodes": [[["bn/4denseblock3", 0, 0, {}]]]}, {"name": "bn2/4denseblock3", "class_name": "BatchNormalization", "config": {"name": "bn2/4denseblock3", "trainable": true, "axis": -1, "momentum": 0.99, "epsilon": 0.001, "center": true, "scale": true, "beta_initializer": {"class_name": "Zeros", "config": {}}, "gamma_initializer": {"class_name": "Ones", "config": {}}, "moving_mean_initializer": {"class_name": "Zeros", "config": {}}, "moving_variance_initializer": {"class_name": "Ones", "config": {}}, "beta_regularizer": null, "gamma_regularizer": null, "beta_constraint": null, "gamma_constraint": null}, "inbound_nodes": [[["conv1/4denseblock3", 0, 0, {}]]]}, {"name": "conv2/4denseblock3", "class_name": "Conv2D", "config": {"name": "conv2/4denseblock3", "trainable": true, "filters": 48, "kernel_size": [3, 3], "strides": [1, 1], "padding": "same", "data_format": "channels_last", "dilation_rate": [1, 1], "activation": "linear", "use_bias": true, "kernel_initializer": {"class_name": "VarianceScaling", "config": {"scale": 1.0, "mode": "fan_avg", "distribution": "uniform", "seed": null}}, "bias_initializer": {"class_name": "Zeros", "config": {}}, "kernel_regularizer": null, "bias_regularizer": null, "activity_regularizer": null, "kernel_constraint": null, "bias_constraint": null}, "inbound_nodes": [[["bn2/4denseblock3", 0, 0, {}]]]}, {"name": "concat/4denseblock3", "class_name": "Concatenate", "config": {"name": "concat/4denseblock3", "trainable": true, "axis": -1}, "inbound_nodes": [[["concat/3denseblock3", 0, 0, {}], ["conv2/4denseblock3", 0, 0, {}]]]}, {"name": "bn/5denseblock3", "class_name": "BatchNormalization", "config": {"name": "bn/5denseblock3", "trainable": true, "axis": -1, "momentum": 0.99, "epsilon": 0.001, "center": true, "scale": true, "beta_initializer": {"class_name": "Zeros", "config": {}}, "gamma_initializer": {"class_name": "Ones", "config": {}}, "moving_mean_initializer": {"class_name": "Zeros", "config": {}}, "moving_variance_initializer": {"class_name": "Ones", "config": {}}, "beta_regularizer": null, "gamma_regularizer": null, "beta_constraint": null, "gamma_constraint": null}, "inbound_nodes": [[["concat/4denseblock3", 0, 0, {}]]]}, {"name": "conv1/5denseblock3", "class_name": "Conv2D", "config": {"name": "conv1/5denseblock3", "trainable": true, "filters": 48, "kernel_size": [1, 1], "strides": [1, 1], "padding": "same", "data_format": "channels_last", "dilation_rate": [1, 1], "activation": "linear", "use_bias": true, "kernel_initializer": {"class_name": "VarianceScaling", "config": {"scale": 1.0, "mode": "fan_avg", "distribution": "uniform", "seed": null}}, "bias_initializer": {"class_name": "Zeros", "config": {}}, "kernel_regularizer": null, "bias_regularizer": null, "activity_regularizer": null, "kernel_constraint": null, "bias_constraint": null}, "inbound_nodes": [[["bn/5denseblock3", 0, 0, {}]]]}, {"name": "bn2/5denseblock3", "class_name": "BatchNormalization", "config": {"name": "bn2/5denseblock3", "trainable": true, "axis": -1, "momentum": 0.99, "epsilon": 0.001, "center": true, "scale": true, "beta_initializer": {"class_name": "Zeros", "config": {}}, "gamma_initializer": {"class_name": "Ones", "config": {}}, "moving_mean_initializer": {"class_name": "Zeros", "config": {}}, "moving_variance_initializer": {"class_name": "Ones", "config": {}}, "beta_regularizer": null, "gamma_regularizer": null, "beta_constraint": null, "gamma_constraint": null}, "inbound_nodes": [[["conv1/5denseblock3", 0, 0, {}]]]}, {"name": "conv2/5denseblock3", "class_name": "Conv2D", "config": {"name": "conv2/5denseblock3", "trainable": true, "filters": 48, "kernel_size": [3, 3], "strides": [1, 1], "padding": "same", "data_format": "channels_last", "dilation_rate": [1, 1], "activation": "linear", "use_bias": true, "kernel_initializer": {"class_name": "VarianceScaling", "config": {"scale": 1.0, "mode": "fan_avg", "distribution": "uniform", "seed": null}}, "bias_initializer": {"class_name": "Zeros", "config": {}}, "kernel_regularizer": null, "bias_regularizer": null, "activity_regularizer": null, "kernel_constraint": null, "bias_constraint": null}, "inbound_nodes": [[["bn2/5denseblock3", 0, 0, {}]]]}, {"name": "concat/5denseblock3", "class_name": "Concatenate", "config": {"name": "concat/5denseblock3", "trainable": true, "axis": -1}, "inbound_nodes": [[["concat/4denseblock3", 0, 0, {}], ["conv2/5denseblock3", 0, 0, {}]]]}, {"name": "bn/6denseblock3", "class_name": "BatchNormalization", "config": {"name": "bn/6denseblock3", "trainable": true, "axis": -1, "momentum": 0.99, "epsilon": 0.001, "center": true, "scale": true, "beta_initializer": {"class_name": "Zeros", "config": {}}, "gamma_initializer": {"class_name": "Ones", "config": {}}, "moving_mean_initializer": {"class_name": "Zeros", "config": {}}, "moving_variance_initializer": {"class_name": "Ones", "config": {}}, "beta_regularizer": null, "gamma_regularizer": null, "beta_constraint": null, "gamma_constraint": null}, "inbound_nodes": [[["concat/5denseblock3", 0, 0, {}]]]}, {"name": "conv1/6denseblock3", "class_name": "Conv2D", "config": {"name": "conv1/6denseblock3", "trainable": true, "filters": 48, "kernel_size": [1, 1], "strides": [1, 1], "padding": "same", "data_format": "channels_last", "dilation_rate": [1, 1], "activation": "linear", "use_bias": true, "kernel_initializer": {"class_name": "VarianceScaling", "config": {"scale": 1.0, "mode": "fan_avg", "distribution": "uniform", "seed": null}}, "bias_initializer": {"class_name": "Zeros", "config": {}}, "kernel_regularizer": null, "bias_regularizer": null, "activity_regularizer": null, "kernel_constraint": null, "bias_constraint": null}, "inbound_nodes": [[["bn/6denseblock3", 0, 0, {}]]]}, {"name": "bn2/6denseblock3", "class_name": "BatchNormalization", "config": {"name": "bn2/6denseblock3", "trainable": true, "axis": -1, "momentum": 0.99, "epsilon": 0.001, "center": true, "scale": true, "beta_initializer": {"class_name": "Zeros", "config": {}}, "gamma_initializer": {"class_name": "Ones", "config": {}}, "moving_mean_initializer": {"class_name": "Zeros", "config": {}}, "moving_variance_initializer": {"class_name": "Ones", "config": {}}, "beta_regularizer": null, "gamma_regularizer": null, "beta_constraint": null, "gamma_constraint": null}, "inbound_nodes": [[["conv1/6denseblock3", 0, 0, {}]]]}, {"name": "conv2/6denseblock3", "class_name": "Conv2D", "config": {"name": "conv2/6denseblock3", "trainable": true, "filters": 48, "kernel_size": [3, 3], "strides": [1, 1], "padding": "same", "data_format": "channels_last", "dilation_rate": [1, 1], "activation": "linear", "use_bias": true, "kernel_initializer": {"class_name": "VarianceScaling", "config": {"scale": 1.0, "mode": "fan_avg", "distribution": "uniform", "seed": null}}, "bias_initializer": {"class_name": "Zeros", "config": {}}, "kernel_regularizer": null, "bias_regularizer": null, "activity_regularizer": null, "kernel_constraint": null, "bias_constraint": null}, "inbound_nodes": [[["bn2/6denseblock3", 0, 0, {}]]]}, {"name": "concat/6denseblock3", "class_name": "Concatenate", "config": {"name": "concat/6denseblock3", "trainable": true, "axis": -1}, "inbound_nodes": [[["concat/5denseblock3", 0, 0, {}], ["conv2/6denseblock3", 0, 0, {}]]]}, {"name": "bn/7denseblock3", "class_name": "BatchNormalization", "config": {"name": "bn/7denseblock3", "trainable": true, "axis": -1, "momentum": 0.99, "epsilon": 0.001, "center": true, "scale": true, "beta_initializer": {"class_name": "Zeros", "config": {}}, "gamma_initializer": {"class_name": "Ones", "config": {}}, "moving_mean_initializer": {"class_name": "Zeros", "config": {}}, "moving_variance_initializer": {"class_name": "Ones", "config": {}}, "beta_regularizer": null, "gamma_regularizer": null, "beta_constraint": null, "gamma_constraint": null}, "inbound_nodes": [[["concat/6denseblock3", 0, 0, {}]]]}, {"name": "conv1/7denseblock3", "class_name": "Conv2D", "config": {"name": "conv1/7denseblock3", "trainable": true, "filters": 48, "kernel_size": [1, 1], "strides": [1, 1], "padding": "same", "data_format": "channels_last", "dilation_rate": [1, 1], "activation": "linear", "use_bias": true, "kernel_initializer": {"class_name": "VarianceScaling", "config": {"scale": 1.0, "mode": "fan_avg", "distribution": "uniform", "seed": null}}, "bias_initializer": {"class_name": "Zeros", "config": {}}, "kernel_regularizer": null, "bias_regularizer": null, "activity_regularizer": null, "kernel_constraint": null, "bias_constraint": null}, "inbound_nodes": [[["bn/7denseblock3", 0, 0, {}]]]}, {"name": "bn2/7denseblock3", "class_name": "BatchNormalization", "config": {"name": "bn2/7denseblock3", "trainable": true, "axis": -1, "momentum": 0.99, "epsilon": 0.001, "center": true, "scale": true, "beta_initializer": {"class_name": "Zeros", "config": {}}, "gamma_initializer": {"class_name": "Ones", "config": {}}, "moving_mean_initializer": {"class_name": "Zeros", "config": {}}, "moving_variance_initializer": {"class_name": "Ones", "config": {}}, "beta_regularizer": null, "gamma_regularizer": null, "beta_constraint": null, "gamma_constraint": null}, "inbound_nodes": [[["conv1/7denseblock3", 0, 0, {}]]]}, {"name": "conv2/7denseblock3", "class_name": "Conv2D", "config": {"name": "conv2/7denseblock3", "trainable": true, "filters": 48, "kernel_size": [3, 3], "strides": [1, 1], "padding": "same", "data_format": "channels_last", "dilation_rate": [1, 1], "activation": "linear", "use_bias": true, "kernel_initializer": {"class_name": "VarianceScaling", "config": {"scale": 1.0, "mode": "fan_avg", "distribution": "uniform", "seed": null}}, "bias_initializer": {"class_name": "Zeros", "config": {}}, "kernel_regularizer": null, "bias_regularizer": null, "activity_regularizer": null, "kernel_constraint": null, "bias_constraint": null}, "inbound_nodes": [[["bn2/7denseblock3", 0, 0, {}]]]}, {"name": "concat/7denseblock3", "class_name": "Concatenate", "config": {"name": "concat/7denseblock3", "trainable": true, "axis": -1}, "inbound_nodes": [[["concat/6denseblock3", 0, 0, {}], ["conv2/7denseblock3", 0, 0, {}]]]}, {"name": "conv/trans3", "class_name": "Conv2D", "config": {"name": "conv/trans3", "trainable": true, "filters": 1184, "kernel_size": [1, 1], "strides": [1, 1], "padding": "same", "data_format": "channels_last", "dilation_rate": [1, 1], "activation": "relu", "use_bias": true, "kernel_initializer": {"class_name": "VarianceScaling", "config": {"scale": 1.0, "mode": "fan_avg", "distribution": "uniform", "seed": null}}, "bias_initializer": {"class_name": "Zeros", "config": {}}, "kernel_regularizer": null, "bias_regularizer": null, "activity_regularizer": null, "kernel_constraint": null, "bias_constraint": null}, "inbound_nodes": [[["concat/7denseblock3", 0, 0, {}]]]}, {"name": "maxpool/trans3", "class_name": "MaxPooling2D", "config": {"name": "maxpool/trans3", "trainable": true, "pool_size": [2, 2], "padding": "valid", "strides": [2, 2], "data_format": "channels_last"}, "inbound_nodes": [[["conv/trans3", 0, 0, {}]]]}, {"name": "bn/0denseblock4", "class_name": "BatchNormalization", "config": {"name": "bn/0denseblock4", "trainable": true, "axis": -1, "momentum": 0.99, "epsilon": 0.001, "center": true, "scale": true, "beta_initializer": {"class_name": "Zeros", "config": {}}, "gamma_initializer": {"class_name": "Ones", "config": {}}, "moving_mean_initializer": {"class_name": "Zeros", "config": {}}, "moving_variance_initializer": {"class_name": "Ones", "config": {}}, "beta_regularizer": null, "gamma_regularizer": null, "beta_constraint": null, "gamma_constraint": null}, "inbound_nodes": [[["maxpool/trans3", 0, 0, {}]]]}, {"name": "conv1/0denseblock4", "class_name": "Conv2D", "config": {"name": "conv1/0denseblock4", "trainable": true, "filters": 48, "kernel_size": [1, 1], "strides": [1, 1], "padding": "same", "data_format": "channels_last", "dilation_rate": [1, 1], "activation": "linear", "use_bias": true, "kernel_initializer": {"class_name": "VarianceScaling", "config": {"scale": 1.0, "mode": "fan_avg", "distribution": "uniform", "seed": null}}, "bias_initializer": {"class_name": "Zeros", "config": {}}, "kernel_regularizer": null, "bias_regularizer": null, "activity_regularizer": null, "kernel_constraint": null, "bias_constraint": null}, "inbound_nodes": [[["bn/0denseblock4", 0, 0, {}]]]}, {"name": "bn2/0denseblock4", "class_name": "BatchNormalization", "config": {"name": "bn2/0denseblock4", "trainable": true, "axis": -1, "momentum": 0.99, "epsilon": 0.001, "center": true, "scale": true, "beta_initializer": {"class_name": "Zeros", "config": {}}, "gamma_initializer": {"class_name": "Ones", "config": {}}, "moving_mean_initializer": {"class_name": "Zeros", "config": {}}, "moving_variance_initializer": {"class_name": "Ones", "config": {}}, "beta_regularizer": null, "gamma_regularizer": null, "beta_constraint": null, "gamma_constraint": null}, "inbound_nodes": [[["conv1/0denseblock4", 0, 0, {}]]]}, {"name": "conv2/0denseblock4", "class_name": "Conv2D", "config": {"name": "conv2/0denseblock4", "trainable": true, "filters": 48, "kernel_size": [3, 3], "strides": [1, 1], "padding": "same", "data_format": "channels_last", "dilation_rate": [1, 1], "activation": "linear", "use_bias": true, "kernel_initializer": {"class_name": "VarianceScaling", "config": {"scale": 1.0, "mode": "fan_avg", "distribution": "uniform", "seed": null}}, "bias_initializer": {"class_name": "Zeros", "config": {}}, "kernel_regularizer": null, "bias_regularizer": null, "activity_regularizer": null, "kernel_constraint": null, "bias_constraint": null}, "inbound_nodes": [[["bn2/0denseblock4", 0, 0, {}]]]}, {"name": "concat/0denseblock4", "class_name": "Concatenate", "config": {"name": "concat/0denseblock4", "trainable": true, "axis": -1}, "inbound_nodes": [[["maxpool/trans3", 0, 0, {}], ["conv2/0denseblock4", 0, 0, {}]]]}, {"name": "bn/1denseblock4", "class_name": "BatchNormalization", "config": {"name": "bn/1denseblock4", "trainable": true, "axis": -1, "momentum": 0.99, "epsilon": 0.001, "center": true, "scale": true, "beta_initializer": {"class_name": "Zeros", "config": {}}, "gamma_initializer": {"class_name": "Ones", "config": {}}, "moving_mean_initializer": {"class_name": "Zeros", "config": {}}, "moving_variance_initializer": {"class_name": "Ones", "config": {}}, "beta_regularizer": null, "gamma_regularizer": null, "beta_constraint": null, "gamma_constraint": null}, "inbound_nodes": [[["concat/0denseblock4", 0, 0, {}]]]}, {"name": "conv1/1denseblock4", "class_name": "Conv2D", "config": {"name": "conv1/1denseblock4", "trainable": true, "filters": 48, "kernel_size": [1, 1], "strides": [1, 1], "padding": "same", "data_format": "channels_last", "dilation_rate": [1, 1], "activation": "linear", "use_bias": true, "kernel_initializer": {"class_name": "VarianceScaling", "config": {"scale": 1.0, "mode": "fan_avg", "distribution": "uniform", "seed": null}}, "bias_initializer": {"class_name": "Zeros", "config": {}}, "kernel_regularizer": null, "bias_regularizer": null, "activity_regularizer": null, "kernel_constraint": null, "bias_constraint": null}, "inbound_nodes": [[["bn/1denseblock4", 0, 0, {}]]]}, {"name": "bn2/1denseblock4", "class_name": "BatchNormalization", "config": {"name": "bn2/1denseblock4", "trainable": true, "axis": -1, "momentum": 0.99, "epsilon": 0.001, "center": true, "scale": true, "beta_initializer": {"class_name": "Zeros", "config": {}}, "gamma_initializer": {"class_name": "Ones", "config": {}}, "moving_mean_initializer": {"class_name": "Zeros", "config": {}}, "moving_variance_initializer": {"class_name": "Ones", "config": {}}, "beta_regularizer": null, "gamma_regularizer": null, "beta_constraint": null, "gamma_constraint": null}, "inbound_nodes": [[["conv1/1denseblock4", 0, 0, {}]]]}, {"name": "conv2/1denseblock4", "class_name": "Conv2D", "config": {"name": "conv2/1denseblock4", "trainable": true, "filters": 48, "kernel_size": [3, 3], "strides": [1, 1], "padding": "same", "data_format": "channels_last", "dilation_rate": [1, 1], "activation": "linear", "use_bias": true, "kernel_initializer": {"class_name": "VarianceScaling", "config": {"scale": 1.0, "mode": "fan_avg", "distribution": "uniform", "seed": null}}, "bias_initializer": {"class_name": "Zeros", "config": {}}, "kernel_regularizer": null, "bias_regularizer": null, "activity_regularizer": null, "kernel_constraint": null, "bias_constraint": null}, "inbound_nodes": [[["bn2/1denseblock4", 0, 0, {}]]]}, {"name": "concat/1denseblock4", "class_name": "Concatenate", "config": {"name": "concat/1denseblock4", "trainable": true, "axis": -1}, "inbound_nodes": [[["concat/0denseblock4", 0, 0, {}], ["conv2/1denseblock4", 0, 0, {}]]]}, {"name": "bn/2denseblock4", "class_name": "BatchNormalization", "config": {"name": "bn/2denseblock4", "trainable": true, "axis": -1, "momentum": 0.99, "epsilon": 0.001, "center": true, "scale": true, "beta_initializer": {"class_name": "Zeros", "config": {}}, "gamma_initializer": {"class_name": "Ones", "config": {}}, "moving_mean_initializer": {"class_name": "Zeros", "config": {}}, "moving_variance_initializer": {"class_name": "Ones", "config": {}}, "beta_regularizer": null, "gamma_regularizer": null, "beta_constraint": null, "gamma_constraint": null}, "inbound_nodes": [[["concat/1denseblock4", 0, 0, {}]]]}, {"name": "conv1/2denseblock4", "class_name": "Conv2D", "config": {"name": "conv1/2denseblock4", "trainable": true, "filters": 48, "kernel_size": [1, 1], "strides": [1, 1], "padding": "same", "data_format": "channels_last", "dilation_rate": [1, 1], "activation": "linear", "use_bias": true, "kernel_initializer": {"class_name": "VarianceScaling", "config": {"scale": 1.0, "mode": "fan_avg", "distribution": "uniform", "seed": null}}, "bias_initializer": {"class_name": "Zeros", "config": {}}, "kernel_regularizer": null, "bias_regularizer": null, "activity_regularizer": null, "kernel_constraint": null, "bias_constraint": null}, "inbound_nodes": [[["bn/2denseblock4", 0, 0, {}]]]}, {"name": "bn2/2denseblock4", "class_name": "BatchNormalization", "config": {"name": "bn2/2denseblock4", "trainable": true, "axis": -1, "momentum": 0.99, "epsilon": 0.001, "center": true, "scale": true, "beta_initializer": {"class_name": "Zeros", "config": {}}, "gamma_initializer": {"class_name": "Ones", "config": {}}, "moving_mean_initializer": {"class_name": "Zeros", "config": {}}, "moving_variance_initializer": {"class_name": "Ones", "config": {}}, "beta_regularizer": null, "gamma_regularizer": null, "beta_constraint": null, "gamma_constraint": null}, "inbound_nodes": [[["conv1/2denseblock4", 0, 0, {}]]]}, {"name": "conv2/2denseblock4", "class_name": "Conv2D", "config": {"name": "conv2/2denseblock4", "trainable": true, "filters": 48, "kernel_size": [3, 3], "strides": [1, 1], "padding": "same", "data_format": "channels_last", "dilation_rate": [1, 1], "activation": "linear", "use_bias": true, "kernel_initializer": {"class_name": "VarianceScaling", "config": {"scale": 1.0, "mode": "fan_avg", "distribution": "uniform", "seed": null}}, "bias_initializer": {"class_name": "Zeros", "config": {}}, "kernel_regularizer": null, "bias_regularizer": null, "activity_regularizer": null, "kernel_constraint": null, "bias_constraint": null}, "inbound_nodes": [[["bn2/2denseblock4", 0, 0, {}]]]}, {"name": "concat/2denseblock4", "class_name": "Concatenate", "config": {"name": "concat/2denseblock4", "trainable": true, "axis": -1}, "inbound_nodes": [[["concat/1denseblock4", 0, 0, {}], ["conv2/2denseblock4", 0, 0, {}]]]}, {"name": "bn/3denseblock4", "class_name": "BatchNormalization", "config": {"name": "bn/3denseblock4", "trainable": true, "axis": -1, "momentum": 0.99, "epsilon": 0.001, "center": true, "scale": true, "beta_initializer": {"class_name": "Zeros", "config": {}}, "gamma_initializer": {"class_name": "Ones", "config": {}}, "moving_mean_initializer": {"class_name": "Zeros", "config": {}}, "moving_variance_initializer": {"class_name": "Ones", "config": {}}, "beta_regularizer": null, "gamma_regularizer": null, "beta_constraint": null, "gamma_constraint": null}, "inbound_nodes": [[["concat/2denseblock4", 0, 0, {}]]]}, {"name": "conv1/3denseblock4", "class_name": "Conv2D", "config": {"name": "conv1/3denseblock4", "trainable": true, "filters": 48, "kernel_size": [1, 1], "strides": [1, 1], "padding": "same", "data_format": "channels_last", "dilation_rate": [1, 1], "activation": "linear", "use_bias": true, "kernel_initializer": {"class_name": "VarianceScaling", "config": {"scale": 1.0, "mode": "fan_avg", "distribution": "uniform", "seed": null}}, "bias_initializer": {"class_name": "Zeros", "config": {}}, "kernel_regularizer": null, "bias_regularizer": null, "activity_regularizer": null, "kernel_constraint": null, "bias_constraint": null}, "inbound_nodes": [[["bn/3denseblock4", 0, 0, {}]]]}, {"name": "bn2/3denseblock4", "class_name": "BatchNormalization", "config": {"name": "bn2/3denseblock4", "trainable": true, "axis": -1, "momentum": 0.99, "epsilon": 0.001, "center": true, "scale": true, "beta_initializer": {"class_name": "Zeros", "config": {}}, "gamma_initializer": {"class_name": "Ones", "config": {}}, "moving_mean_initializer": {"class_name": "Zeros", "config": {}}, "moving_variance_initializer": {"class_name": "Ones", "config": {}}, "beta_regularizer": null, "gamma_regularizer": null, "beta_constraint": null, "gamma_constraint": null}, "inbound_nodes": [[["conv1/3denseblock4", 0, 0, {}]]]}, {"name": "conv2/3denseblock4", "class_name": "Conv2D", "config": {"name": "conv2/3denseblock4", "trainable": true, "filters": 48, "kernel_size": [3, 3], "strides": [1, 1], "padding": "same", "data_format": "channels_last", "dilation_rate": [1, 1], "activation": "linear", "use_bias": true, "kernel_initializer": {"class_name": "VarianceScaling", "config": {"scale": 1.0, "mode": "fan_avg", "distribution": "uniform", "seed": null}}, "bias_initializer": {"class_name": "Zeros", "config": {}}, "kernel_regularizer": null, "bias_regularizer": null, "activity_regularizer": null, "kernel_constraint": null, "bias_constraint": null}, "inbound_nodes": [[["bn2/3denseblock4", 0, 0, {}]]]}, {"name": "concat/3denseblock4", "class_name": "Concatenate", "config": {"name": "concat/3denseblock4", "trainable": true, "axis": -1}, "inbound_nodes": [[["concat/2denseblock4", 0, 0, {}], ["conv2/3denseblock4", 0, 0, {}]]]}, {"name": "bn/4denseblock4", "class_name": "BatchNormalization", "config": {"name": "bn/4denseblock4", "trainable": true, "axis": -1, "momentum": 0.99, "epsilon": 0.001, "center": true, "scale": true, "beta_initializer": {"class_name": "Zeros", "config": {}}, "gamma_initializer": {"class_name": "Ones", "config": {}}, "moving_mean_initializer": {"class_name": "Zeros", "config": {}}, "moving_variance_initializer": {"class_name": "Ones", "config": {}}, "beta_regularizer": null, "gamma_regularizer": null, "beta_constraint": null, "gamma_constraint": null}, "inbound_nodes": [[["concat/3denseblock4", 0, 0, {}]]]}, {"name": "conv1/4denseblock4", "class_name": "Conv2D", "config": {"name": "conv1/4denseblock4", "trainable": true, "filters": 48, "kernel_size": [1, 1], "strides": [1, 1], "padding": "same", "data_format": "channels_last", "dilation_rate": [1, 1], "activation": "linear", "use_bias": true, "kernel_initializer": {"class_name": "VarianceScaling", "config": {"scale": 1.0, "mode": "fan_avg", "distribution": "uniform", "seed": null}}, "bias_initializer": {"class_name": "Zeros", "config": {}}, "kernel_regularizer": null, "bias_regularizer": null, "activity_regularizer": null, "kernel_constraint": null, "bias_constraint": null}, "inbound_nodes": [[["bn/4denseblock4", 0, 0, {}]]]}, {"name": "bn2/4denseblock4", "class_name": "BatchNormalization", "config": {"name": "bn2/4denseblock4", "trainable": true, "axis": -1, "momentum": 0.99, "epsilon": 0.001, "center": true, "scale": true, "beta_initializer": {"class_name": "Zeros", "config": {}}, "gamma_initializer": {"class_name": "Ones", "config": {}}, "moving_mean_initializer": {"class_name": "Zeros", "config": {}}, "moving_variance_initializer": {"class_name": "Ones", "config": {}}, "beta_regularizer": null, "gamma_regularizer": null, "beta_constraint": null, "gamma_constraint": null}, "inbound_nodes": [[["conv1/4denseblock4", 0, 0, {}]]]}, {"name": "conv2/4denseblock4", "class_name": "Conv2D", "config": {"name": "conv2/4denseblock4", "trainable": true, "filters": 48, "kernel_size": [3, 3], "strides": [1, 1], "padding": "same", "data_format": "channels_last", "dilation_rate": [1, 1], "activation": "linear", "use_bias": true, "kernel_initializer": {"class_name": "VarianceScaling", "config": {"scale": 1.0, "mode": "fan_avg", "distribution": "uniform", "seed": null}}, "bias_initializer": {"class_name": "Zeros", "config": {}}, "kernel_regularizer": null, "bias_regularizer": null, "activity_regularizer": null, "kernel_constraint": null, "bias_constraint": null}, "inbound_nodes": [[["bn2/4denseblock4", 0, 0, {}]]]}, {"name": "concat/4denseblock4", "class_name": "Concatenate", "config": {"name": "concat/4denseblock4", "trainable": true, "axis": -1}, "inbound_nodes": [[["concat/3denseblock4", 0, 0, {}], ["conv2/4denseblock4", 0, 0, {}]]]}, {"name": "bn/5denseblock4", "class_name": "BatchNormalization", "config": {"name": "bn/5denseblock4", "trainable": true, "axis": -1, "momentum": 0.99, "epsilon": 0.001, "center": true, "scale": true, "beta_initializer": {"class_name": "Zeros", "config": {}}, "gamma_initializer": {"class_name": "Ones", "config": {}}, "moving_mean_initializer": {"class_name": "Zeros", "config": {}}, "moving_variance_initializer": {"class_name": "Ones", "config": {}}, "beta_regularizer": null, "gamma_regularizer": null, "beta_constraint": null, "gamma_constraint": null}, "inbound_nodes": [[["concat/4denseblock4", 0, 0, {}]]]}, {"name": "conv1/5denseblock4", "class_name": "Conv2D", "config": {"name": "conv1/5denseblock4", "trainable": true, "filters": 48, "kernel_size": [1, 1], "strides": [1, 1], "padding": "same", "data_format": "channels_last", "dilation_rate": [1, 1], "activation": "linear", "use_bias": true, "kernel_initializer": {"class_name": "VarianceScaling", "config": {"scale": 1.0, "mode": "fan_avg", "distribution": "uniform", "seed": null}}, "bias_initializer": {"class_name": "Zeros", "config": {}}, "kernel_regularizer": null, "bias_regularizer": null, "activity_regularizer": null, "kernel_constraint": null, "bias_constraint": null}, "inbound_nodes": [[["bn/5denseblock4", 0, 0, {}]]]}, {"name": "bn2/5denseblock4", "class_name": "BatchNormalization", "config": {"name": "bn2/5denseblock4", "trainable": true, "axis": -1, "momentum": 0.99, "epsilon": 0.001, "center": true, "scale": true, "beta_initializer": {"class_name": "Zeros", "config": {}}, "gamma_initializer": {"class_name": "Ones", "config": {}}, "moving_mean_initializer": {"class_name": "Zeros", "config": {}}, "moving_variance_initializer": {"class_name": "Ones", "config": {}}, "beta_regularizer": null, "gamma_regularizer": null, "beta_constraint": null, "gamma_constraint": null}, "inbound_nodes": [[["conv1/5denseblock4", 0, 0, {}]]]}, {"name": "conv2/5denseblock4", "class_name": "Conv2D", "config": {"name": "conv2/5denseblock4", "trainable": true, "filters": 48, "kernel_size": [3, 3], "strides": [1, 1], "padding": "same", "data_format": "channels_last", "dilation_rate": [1, 1], "activation": "linear", "use_bias": true, "kernel_initializer": {"class_name": "VarianceScaling", "config": {"scale": 1.0, "mode": "fan_avg", "distribution": "uniform", "seed": null}}, "bias_initializer": {"class_name": "Zeros", "config": {}}, "kernel_regularizer": null, "bias_regularizer": null, "activity_regularizer": null, "kernel_constraint": null, "bias_constraint": null}, "inbound_nodes": [[["bn2/5denseblock4", 0, 0, {}]]]}, {"name": "concat/5denseblock4", "class_name": "Concatenate", "config": {"name": "concat/5denseblock4", "trainable": true, "axis": -1}, "inbound_nodes": [[["concat/4denseblock4", 0, 0, {}], ["conv2/5denseblock4", 0, 0, {}]]]}, {"name": "bn/6denseblock4", "class_name": "BatchNormalization", "config": {"name": "bn/6denseblock4", "trainable": true, "axis": -1, "momentum": 0.99, "epsilon": 0.001, "center": true, "scale": true, "beta_initializer": {"class_name": "Zeros", "config": {}}, "gamma_initializer": {"class_name": "Ones", "config": {}}, "moving_mean_initializer": {"class_name": "Zeros", "config": {}}, "moving_variance_initializer": {"class_name": "Ones", "config": {}}, "beta_regularizer": null, "gamma_regularizer": null, "beta_constraint": null, "gamma_constraint": null}, "inbound_nodes": [[["concat/5denseblock4", 0, 0, {}]]]}, {"name": "conv1/6denseblock4", "class_name": "Conv2D", "config": {"name": "conv1/6denseblock4", "trainable": true, "filters": 48, "kernel_size": [1, 1], "strides": [1, 1], "padding": "same", "data_format": "channels_last", "dilation_rate": [1, 1], "activation": "linear", "use_bias": true, "kernel_initializer": {"class_name": "VarianceScaling", "config": {"scale": 1.0, "mode": "fan_avg", "distribution": "uniform", "seed": null}}, "bias_initializer": {"class_name": "Zeros", "config": {}}, "kernel_regularizer": null, "bias_regularizer": null, "activity_regularizer": null, "kernel_constraint": null, "bias_constraint": null}, "inbound_nodes": [[["bn/6denseblock4", 0, 0, {}]]]}, {"name": "bn2/6denseblock4", "class_name": "BatchNormalization", "config": {"name": "bn2/6denseblock4", "trainable": true, "axis": -1, "momentum": 0.99, "epsilon": 0.001, "center": true, "scale": true, "beta_initializer": {"class_name": "Zeros", "config": {}}, "gamma_initializer": {"class_name": "Ones", "config": {}}, "moving_mean_initializer": {"class_name": "Zeros", "config": {}}, "moving_variance_initializer": {"class_name": "Ones", "config": {}}, "beta_regularizer": null, "gamma_regularizer": null, "beta_constraint": null, "gamma_constraint": null}, "inbound_nodes": [[["conv1/6denseblock4", 0, 0, {}]]]}, {"name": "conv2/6denseblock4", "class_name": "Conv2D", "config": {"name": "conv2/6denseblock4", "trainable": true, "filters": 48, "kernel_size": [3, 3], "strides": [1, 1], "padding": "same", "data_format": "channels_last", "dilation_rate": [1, 1], "activation": "linear", "use_bias": true, "kernel_initializer": {"class_name": "VarianceScaling", "config": {"scale": 1.0, "mode": "fan_avg", "distribution": "uniform", "seed": null}}, "bias_initializer": {"class_name": "Zeros", "config": {}}, "kernel_regularizer": null, "bias_regularizer": null, "activity_regularizer": null, "kernel_constraint": null, "bias_constraint": null}, "inbound_nodes": [[["bn2/6denseblock4", 0, 0, {}]]]}, {"name": "concat/6denseblock4", "class_name": "Concatenate", "config": {"name": "concat/6denseblock4", "trainable": true, "axis": -1}, "inbound_nodes": [[["concat/5denseblock4", 0, 0, {}], ["conv2/6denseblock4", 0, 0, {}]]]}, {"name": "bn/7denseblock4", "class_name": "BatchNormalization", "config": {"name": "bn/7denseblock4", "trainable": true, "axis": -1, "momentum": 0.99, "epsilon": 0.001, "center": true, "scale": true, "beta_initializer": {"class_name": "Zeros", "config": {}}, "gamma_initializer": {"class_name": "Ones", "config": {}}, "moving_mean_initializer": {"class_name": "Zeros", "config": {}}, "moving_variance_initializer": {"class_name": "Ones", "config": {}}, "beta_regularizer": null, "gamma_regularizer": null, "beta_constraint": null, "gamma_constraint": null}, "inbound_nodes": [[["concat/6denseblock4", 0, 0, {}]]]}, {"name": "conv1/7denseblock4", "class_name": "Conv2D", "config": {"name": "conv1/7denseblock4", "trainable": true, "filters": 48, "kernel_size": [1, 1], "strides": [1, 1], "padding": "same", "data_format": "channels_last", "dilation_rate": [1, 1], "activation": "linear", "use_bias": true, "kernel_initializer": {"class_name": "VarianceScaling", "config": {"scale": 1.0, "mode": "fan_avg", "distribution": "uniform", "seed": null}}, "bias_initializer": {"class_name": "Zeros", "config": {}}, "kernel_regularizer": null, "bias_regularizer": null, "activity_regularizer": null, "kernel_constraint": null, "bias_constraint": null}, "inbound_nodes": [[["bn/7denseblock4", 0, 0, {}]]]}, {"name": "bn2/7denseblock4", "class_name": "BatchNormalization", "config": {"name": "bn2/7denseblock4", "trainable": true, "axis": -1, "momentum": 0.99, "epsilon": 0.001, "center": true, "scale": true, "beta_initializer": {"class_name": "Zeros", "config": {}}, "gamma_initializer": {"class_name": "Ones", "config": {}}, "moving_mean_initializer": {"class_name": "Zeros", "config": {}}, "moving_variance_initializer": {"class_name": "Ones", "config": {}}, "beta_regularizer": null, "gamma_regularizer": null, "beta_constraint": null, "gamma_constraint": null}, "inbound_nodes": [[["conv1/7denseblock4", 0, 0, {}]]]}, {"name": "conv2/7denseblock4", "class_name": "Conv2D", "config": {"name": "conv2/7denseblock4", "trainable": true, "filters": 48, "kernel_size": [3, 3], "strides": [1, 1], "padding": "same", "data_format": "channels_last", "dilation_rate": [1, 1], "activation": "linear", "use_bias": true, "kernel_initializer": {"class_name": "VarianceScaling", "config": {"scale": 1.0, "mode": "fan_avg", "distribution": "uniform", "seed": null}}, "bias_initializer": {"class_name": "Zeros", "config": {}}, "kernel_regularizer": null, "bias_regularizer": null, "activity_regularizer": null, "kernel_constraint": null, "bias_constraint": null}, "inbound_nodes": [[["bn2/7denseblock4", 0, 0, {}]]]}, {"name": "concat/7denseblock4", "class_name": "Concatenate", "config": {"name": "concat/7denseblock4", "trainable": true, "axis": -1}, "inbound_nodes": [[["concat/6denseblock4", 0, 0, {}], ["conv2/7denseblock4", 0, 0, {}]]]}, {"name": "conv2d_4", "class_name": "Conv2D", "config": {"name": "conv2d_4", "trainable": true, "filters": 1156, "kernel_size": [1, 1], "strides": [1, 1], "padding": "valid", "data_format": "channels_last", "dilation_rate": [1, 1], "activation": "relu", "use_bias": true, "kernel_initializer": {"class_name": "VarianceScaling", "config": {"scale": 1.0, "mode": "fan_avg", "distribution": "uniform", "seed": null}}, "bias_initializer": {"class_name": "Zeros", "config": {}}, "kernel_regularizer": null, "bias_regularizer": null, "activity_regularizer": null, "kernel_constraint": null, "bias_constraint": null}, "inbound_nodes": [[["concat/7denseblock4", 0, 0, {}]]]}, {"name": "conv2d_5", "class_name": "Conv2D", "config": {"name": "conv2d_5", "trainable": true, "filters": 100, "kernel_size": [3, 3], "strides": [1, 1], "padding": "valid", "data_format": "channels_last", "dilation_rate": [1, 1], "activation": "relu", "use_bias": true, "kernel_initializer": {"class_name": "VarianceScaling", "config": {"scale": 1.0, "mode": "fan_avg", "distribution": "uniform", "seed": null}}, "bias_initializer": {"class_name": "Zeros", "config": {}}, "kernel_regularizer": null, "bias_regularizer": null, "activity_regularizer": null, "kernel_constraint": null, "bias_constraint": null}, "inbound_nodes": [[["maxpool/trans1", 0, 0, {}]]]}, {"name": "conv2d_6", "class_name": "Conv2D", "config": {"name": "conv2d_6", "trainable": true, "filters": 150, "kernel_size": [3, 3], "strides": [1, 1], "padding": "valid", "data_format": "channels_last", "dilation_rate": [1, 1], "activation": "relu", "use_bias": true, "kernel_initializer": {"class_name": "VarianceScaling", "config": {"scale": 1.0, "mode": "fan_avg", "distribution": "uniform", "seed": null}}, "bias_initializer": {"class_name": "Zeros", "config": {}}, "kernel_regularizer": null, "bias_regularizer": null, "activity_regularizer": null, "kernel_constraint": null, "bias_constraint": null}, "inbound_nodes": [[["maxpool/trans2", 0, 0, {}]]]}, {"name": "conv2d_7", "class_name": "Conv2D", "config": {"name": "conv2d_7", "trainable": true, "filters": 150, "kernel_size": [3, 3], "strides": [1, 1], "padding": "valid", "data_format": "channels_last", "dilation_rate": [1, 1], "activation": "relu", "use_bias": true, "kernel_initializer": {"class_name": "VarianceScaling", "config": {"scale": 1.0, "mode": "fan_avg", "distribution": "uniform", "seed": null}}, "bias_initializer": {"class_name": "Zeros", "config": {}}, "kernel_regularizer": null, "bias_regularizer": null, "activity_regularizer": null, "kernel_constraint": null, "bias_constraint": null}, "inbound_nodes": [[["maxpool/trans3", 0, 0, {}]]]}, {"name": "conv2d_8", "class_name": "Conv2D", "config": {"name": "conv2d_8", "trainable": true, "filters": 100, "kernel_size": [3, 3], "strides": [1, 1], "padding": "valid", "data_format": "channels_last", "dilation_rate": [1, 1], "activation": "relu", "use_bias": true, "kernel_initializer": {"class_name": "VarianceScaling", "config": {"scale": 1.0, "mode": "fan_avg", "distribution": "uniform", "seed": null}}, "bias_initializer": {"class_name": "Zeros", "config": {}}, "kernel_regularizer": null, "bias_regularizer": null, "activity_regularizer": null, "kernel_constraint": null, "bias_constraint": null}, "inbound_nodes": [[["conv2d_4", 0, 0, {}]]]}, {"name": "reshape_1", "class_name": "Reshape", "config": {"name": "reshape_1", "trainable": true, "target_shape": [-1, 25]}, "inbound_nodes": [[["conv2d_5", 0, 0, {}]]]}, {"name": "reshape_2", "class_name": "Reshape", "config": {"name": "reshape_2", "trainable": true, "target_shape": [-1, 25]}, "inbound_nodes": [[["conv2d_6", 0, 0, {}]]]}, {"name": "reshape_3", "class_name": "Reshape", "config": {"name": "reshape_3", "trainable": true, "target_shape": [-1, 25]}, "inbound_nodes": [[["conv2d_7", 0, 0, {}]]]}, {"name": "reshape_4", "class_name": "Reshape", "config": {"name": "reshape_4", "trainable": true, "target_shape": [-1, 25]}, "inbound_nodes": [[["conv2d_8", 0, 0, {}]]]}, {"name": "concatenate_1", "class_name": "Concatenate", "config": {"name": "concatenate_1", "trainable": true, "axis": 1}, "inbound_nodes": [[["reshape_1", 0, 0, {}], ["reshape_2", 0, 0, {}], ["reshape_3", 0, 0, {}], ["reshape_4", 0, 0, {}]]]}], "input_layers": [["input_1", 0, 0]], "output_layers": [["concatenate_1", 0, 0]]}, "keras_version": "2.2.2", "backend": "tensorflow", "params": {"input_1": 0, "conv2d_1": 1792, "conv2d_2": 36928, "conv2d_3": 73856, "max_pooling2d_1": 0, "bn/0denseblock1": 512, "conv1/0denseblock1": 6192, "bn2/0denseblock1": 192, "conv2/0denseblock1": 20784, "concat/0denseblock1": 0, "bn/1denseblock1": 704, "conv1/1denseblock1": 8496, "bn2/1denseblock1": 192, "conv2/1denseblock1": 20784, "concat/1denseblock1": 0, "bn/2denseblock1": 896, "conv1/2denseblock1": 10800, "bn2/2denseblock1": 192, "conv2/2denseblock1": 20784, "concat/2denseblock1": 0, "bn/3denseblock1": 1088, "conv1/3denseblock1": 13104, "bn2/3denseblock1": 192, "conv2/3denseblock1": 20784, "concat/3denseblock1": 0, "bn/4denseblock1": 1280, "conv1/4denseblock1": 15408, "bn2/4denseblock1": 192, "conv2/4denseblock1": 20784, "concat/4denseblock1": 0, "bn/5denseblock1": 1472, "conv1/5denseblock1": 17712, "bn2/5denseblock1": 192, "conv2/5denseblock1": 20784, "concat/5denseblock1": 0, "conv/trans1": 173472, "maxpool/trans1": 0, "bn/0denseblock2": 1664, "conv1/0denseblock2": 20016, "bn2/0denseblock2": 192, "conv2/0denseblock2": 20784, "concat/0denseblock2": 0, "bn/1denseblock2": 1856, "conv1/1denseblock2": 22320, "bn2/1denseblock2": 192, "conv2/1denseblock2": 20784, "concat/1denseblock2": 0, "bn/2denseblock2": 2048, "conv1/2denseblock2": 24624, "bn2/2denseblock2": 192, "conv2/2denseblock2": 20784, "concat/2denseblock2": 0, "bn/3denseblock2": 2240, "conv1/3denseblock2": 26928, "bn2/3denseblock2": 192, "conv2/3denseblock2": 20784, "concat/3denseblock2": 0, "bn/4denseblock2": 2432, "conv1/4denseblock2": 29232, "bn2/4denseblock2": 192, "conv2/4denseblock2": 20784, "concat/4denseblock2": 0, "bn/5denseblock2": 2624, "conv1/5denseblock2": 31536, "bn2/5denseblock2": 192, "conv2/5denseblock2": 20784, "concat/5denseblock2": 0, "bn/6denseblock2": 2816, "conv1/6denseblock2": 33840, "bn2/6denseblock2": 192, "conv2/6denseblock2": 20784, "concat/6denseblock2": 0, "bn/7denseblock2": 3008, "conv1/7denseblock2": 36144, "bn2/7denseblock2": 192, "conv2/7denseblock2": 20784, "concat/7denseblock2": 0, "conv/trans2": 640800, "maxpool/trans2": 0, "bn/0denseblock3": 3200, "conv1/0denseblock3": 38448, "bn2/0denseblock3": 192, "conv2/0denseblock3": 20784, "concat/0denseblock3": 0, "bn/1denseblock3": 3392, "conv1/1denseblock3": 40752, "bn2/1denseblock3": 192, "conv2/1denseblock3": 20784, "concat/1denseblock3": 0, "bn/2denseblock3": 3584, "conv1/2denseblock3": 43056, "bn2/2denseblock3": 192, "conv2/2denseblock3": 20784, "concat/2denseblock3": 0, "bn/3denseblock3": 3776, "conv1/3denseblock3": 45360, "bn2/3denseblock3": 192, "conv2/3denseblock3": 20784, "concat/3denseblock3": 0, "bn/4denseblock3": 3968, "conv1/4denseblock3": 47664, "bn2/4denseblock3": 192, "conv2/4denseblock3": 20784, "concat/4denseblock3": 0, "bn/5denseblock3": 4160, "conv1/5denseblock3": 49968, "bn2/5denseblock3": 192, "conv2/5denseblock3": 20784, "concat/5denseblock3": 0, "bn/6denseblock3": 4352, "conv1/6denseblock3": 52272, "bn2/6denseblock3": 192, "conv2/6denseblock3": 20784, "concat/6denseblock3": 0, "bn/7denseblock3": 4544, "conv1/7denseblock3": 54576, "bn2/7denseblock3": 192, "conv2/7denseblock3": 20784, "concat/7denseblock3": 0, "conv/trans3": 1403040, "maxpool/trans3": 0, "bn/0denseblock4": 4736, "conv1/0denseblock4": 56880, "bn2/0denseblock4": 192, "conv2/0denseblock4": 20784, "concat/0denseblock4": 0, "bn/1denseblock4": 4928, "conv1/1denseblock4": 59184, "bn2/1denseblock4": 192, "conv2/1denseblock4": 20784, "concat/1denseblock4": 0, "bn/2denseblock4": 5120, "conv1/2denseblock4": 61488, "bn2/2denseblock4": 192, "conv2/2denseblock4": 20784, "concat/2denseblock4": 0, "bn/3denseblock4": 5312, "conv1/3denseblock4": 63792, "bn2/3denseblock4": 192, "conv2/3denseblock4": 20784, "concat/3denseblock4": 0, "bn/4denseblock4": 5504, "conv1/4denseblock4": 66096, "bn2/4denseblock4": 192, "conv2/4denseblock4": 20784, "concat/4denseblock4": 0, "bn/5denseblock4": 5696, "conv1/5denseblock4": 68400, "bn2/5denseblock4": 192, "conv2/5denseblock4": 20784, "concat/5denseblock4": 0, "bn/6denseblock4": 5888, "conv1/6denseblock4": 70704, "bn2/6denseblock4": 192, "conv2/6denseblock4": 20784, "concat/6denseblock4": 0, "bn/7denseblock4": 6080, "conv1/7denseblock4": 73008, "bn2/7denseblock4": 192, "conv2/7denseblock4": 20784, "concat/7denseblock4": 0, "conv2d_4": 1813764, "conv2d_5": 374500, "conv2d_6": 1080150, "conv2d_7": 1598550, "conv2d_8": 1040500, "reshape_1": 0, "reshape_2": 0, "reshape_3": 0, "reshape_4": 0, "concatenate_1": 0}}