{"params": {"conv_pad_6": 0, "conv_pw_6": 131072, "conv_dw_10_bn": 2048, "conv_dw_13_relu": 0, "conv_pw_9": 262144, "conv_pad_2": 0, "conv1": 864, "conv_pw_8_relu": 0, "conv_pw_5_bn": 1024, "conv_pw_2_bn": 512, "input_1": 0, "conv_pw_2_relu": 0, "conv_dw_2_bn": 256, "conv_pw_12": 524288, "conv_pw_1_relu": 0, "conv_dw_13": 9216, "conv_dw_4": 1152, "conv_pw_12_relu": 0, "conv_pad_12": 0, "conv_pw_3_bn": 512, "conv_pw_2": 8192, "conv_pw_6_relu": 0, "conv_dw_6": 2304, "conv_dw_10_relu": 0, "conv_pw_4": 32768, "conv_dw_13_bn": 4096, "conv_pw_6_bn": 2048, "conv_dw_1_relu": 0, "conv_dw_3": 1152, "conv_dw_1_bn": 128, "conv_pw_4_relu": 0, "conv_dw_2_relu": 0, "conv_dw_12_relu": 0, "conv_preds": 1025000, "reshape_2": 0, "conv_dw_2": 576, "act_softmax": 0, "global_average_pooling2d_1": 0, "conv_pw_12_bn": 4096, "conv_dw_4_relu": 0, "conv_pw_8": 262144, "conv_pw_7": 262144, "conv_dw_10": 4608, "conv_pw_7_relu": 0, "conv_dw_5_relu": 0, "conv_pw_1_bn": 256, "conv_dw_7_bn": 2048, "conv_pw_3": 16384, "conv_pw_11": 262144, "conv_pw_3_relu": 0, "conv_pw_7_bn": 2048, "conv_dw_8_bn": 2048, "conv_dw_12_bn": 2048, "conv_dw_11": 4608, "conv_dw_9_relu": 0, "conv_dw_9_bn": 2048, "conv_pw_13_bn": 4096, "conv_dw_9": 4608, "conv_dw_5_bn": 1024, "conv_dw_8_relu": 0, "conv_pw_1": 2048, "conv1_relu": 0, "conv_dw_3_relu": 0, "conv_dw_8": 4608, "conv_dw_1": 288, "conv_pw_11_relu": 0, "conv_dw_7_relu": 0, "conv_pad_4": 0, "conv1_bn": 128, "conv_pw_11_bn": 2048, "conv_pw_10_bn": 2048, "conv_dw_5": 2304, "conv_pw_13_relu": 0, "conv1_pad": 0, "conv_dw_6_bn": 1024, "conv_pw_4_bn": 1024, "conv_dw_6_relu": 0, "conv_pw_13": 1048576, "conv_dw_7": 4608, "reshape_1": 0, "conv_pw_8_bn": 2048, "conv_pw_10_relu": 0, "conv_dw_11_relu": 0, "conv_pw_9_bn": 2048, "conv_pw_5": 65536, "dropout": 0, "conv_dw_11_bn": 2048, "conv_dw_3_bn": 512, "conv_pw_10": 262144, "conv_pw_9_relu": 0, "conv_dw_4_bn": 512, "conv_pw_5_relu": 0, "conv_dw_12": 4608}, "backend": "tensorflow", "config": {"name": "mobilenet_1.00_224", "layers": [{"name": "input_1", "config": {"batch_input_shape": [null, 224, 224, 3], "name": "input_1", "sparse": false, "dtype": "float32"}, "class_name": "InputLayer", "inbound_nodes": []}, {"name": "conv1_pad", "config": {"name": "conv1_pad", "data_format": "channels_last", "trainable": true, "padding": [[0, 1], [0, 1]]}, "class_name": "ZeroPadding2D", "inbound_nodes": [[["input_1", 0, 0, {}]]]}, {"name": "conv1", "config": {"bias_constraint": null, "kernel_initializer": {"config": {"seed": null, "mode": "fan_avg", "scale": 1.0, "distribution": "uniform"}, "class_name": "VarianceScaling"}, "trainable": true, "kernel_regularizer": null, "kernel_constraint": null, "data_format": "channels_last", "dilation_rate": [1, 1], "activity_regularizer": null, "activation": "linear", "strides": [2, 2], "bias_initializer": {"config": {}, "class_name": "Zeros"}, "kernel_size": [3, 3], "filters": 32, "name": "conv1", "bias_regularizer": null, "use_bias": false, "padding": "valid"}, "class_name": "Conv2D", "inbound_nodes": [[["conv1_pad", 0, 0, {}]]]}, {"name": "conv1_bn", "config": {"axis": -1, "trainable": true, "gamma_initializer": {"config": {}, "class_name": "Ones"}, "moving_variance_initializer": {"config": {}, "class_name": "Ones"}, "beta_regularizer": null, "momentum": 0.99, "beta_constraint": null, "name": "conv1_bn", "epsilon": 0.001, "beta_initializer": {"config": {}, "class_name": "Zeros"}, "center": true, "moving_mean_initializer": {"config": {}, "class_name": "Zeros"}, "gamma_regularizer": null, "scale": true, "gamma_constraint": null}, "class_name": "BatchNormalization", "inbound_nodes": [[["conv1", 0, 0, {}]]]}, {"name": "conv1_relu", "config": {"name": "conv1_relu", "max_value": 6.0, "trainable": true}, "class_name": "ReLU", "inbound_nodes": [[["conv1_bn", 0, 0, {}]]]}, {"name": "conv_dw_1", "config": {"bias_constraint": null, "data_format": "channels_last", "depthwise_constraint": null, "depth_multiplier": 1, "depthwise_initializer": {"config": {"seed": null, "mode": "fan_avg", "scale": 1.0, "distribution": "uniform"}, "class_name": "VarianceScaling"}, "dilation_rate": [1, 1], "activity_regularizer": null, "activation": "linear", "strides": [1, 1], "bias_initializer": {"config": {}, "class_name": "Zeros"}, "kernel_size": [3, 3], "depthwise_regularizer": null, "name": "conv_dw_1", "bias_regularizer": null, "use_bias": false, "padding": "same", "trainable": true}, "class_name": "DepthwiseConv2D", "inbound_nodes": [[["conv1_relu", 0, 0, {}]]]}, {"name": "conv_dw_1_bn", "config": {"axis": -1, "trainable": true, "gamma_initializer": {"config": {}, "class_name": "Ones"}, "moving_variance_initializer": {"config": {}, "class_name": "Ones"}, "beta_regularizer": null, "momentum": 0.99, "beta_constraint": null, "name": "conv_dw_1_bn", "epsilon": 0.001, "beta_initializer": {"config": {}, "class_name": "Zeros"}, "center": true, "moving_mean_initializer": {"config": {}, "class_name": "Zeros"}, "gamma_regularizer": null, "scale": true, "gamma_constraint": null}, "class_name": "BatchNormalization", "inbound_nodes": [[["conv_dw_1", 0, 0, {}]]]}, {"name": "conv_dw_1_relu", "config": {"name": "conv_dw_1_relu", "max_value": 6.0, "trainable": true}, "class_name": "ReLU", "inbound_nodes": [[["conv_dw_1_bn", 0, 0, {}]]]}, {"name": "conv_pw_1", "config": {"bias_constraint": null, "kernel_initializer": {"config": {"seed": null, "mode": "fan_avg", "scale": 1.0, "distribution": "uniform"}, "class_name": "VarianceScaling"}, "trainable": true, "kernel_regularizer": null, "kernel_constraint": null, "data_format": "channels_last", "dilation_rate": [1, 1], "activity_regularizer": null, "activation": "linear", "strides": [1, 1], "bias_initializer": {"config": {}, "class_name": "Zeros"}, "kernel_size": [1, 1], "filters": 64, "name": "conv_pw_1", "bias_regularizer": null, "use_bias": false, "padding": "same"}, "class_name": "Conv2D", "inbound_nodes": [[["conv_dw_1_relu", 0, 0, {}]]]}, {"name": "conv_pw_1_bn", "config": {"axis": -1, "trainable": true, "gamma_initializer": {"config": {}, "class_name": "Ones"}, "moving_variance_initializer": {"config": {}, "class_name": "Ones"}, "beta_regularizer": null, "momentum": 0.99, "beta_constraint": null, "name": "conv_pw_1_bn", "epsilon": 0.001, "beta_initializer": {"config": {}, "class_name": "Zeros"}, "center": true, "moving_mean_initializer": {"config": {}, "class_name": "Zeros"}, "gamma_regularizer": null, "scale": true, "gamma_constraint": null}, "class_name": "BatchNormalization", "inbound_nodes": [[["conv_pw_1", 0, 0, {}]]]}, {"name": "conv_pw_1_relu", "config": {"name": "conv_pw_1_relu", "max_value": 6.0, "trainable": true}, "class_name": "ReLU", "inbound_nodes": [[["conv_pw_1_bn", 0, 0, {}]]]}, {"name": "conv_pad_2", "config": {"name": "conv_pad_2", "data_format": "channels_last", "trainable": true, "padding": [[0, 1], [0, 1]]}, "class_name": "ZeroPadding2D", "inbound_nodes": [[["conv_pw_1_relu", 0, 0, {}]]]}, {"name": "conv_dw_2", "config": {"bias_constraint": null, "data_format": "channels_last", "depthwise_constraint": null, "depth_multiplier": 1, "depthwise_initializer": {"config": {"seed": null, "mode": "fan_avg", "scale": 1.0, "distribution": "uniform"}, "class_name": "VarianceScaling"}, "dilation_rate": [1, 1], "activity_regularizer": null, "activation": "linear", "strides": [2, 2], "bias_initializer": {"config": {}, "class_name": "Zeros"}, "kernel_size": [3, 3], "depthwise_regularizer": null, "name": "conv_dw_2", "bias_regularizer": null, "use_bias": false, "padding": "valid", "trainable": true}, "class_name": "DepthwiseConv2D", "inbound_nodes": [[["conv_pad_2", 0, 0, {}]]]}, {"name": "conv_dw_2_bn", "config": {"axis": -1, "trainable": true, "gamma_initializer": {"config": {}, "class_name": "Ones"}, "moving_variance_initializer": {"config": {}, "class_name": "Ones"}, "beta_regularizer": null, "momentum": 0.99, "beta_constraint": null, "name": "conv_dw_2_bn", "epsilon": 0.001, "beta_initializer": {"config": {}, "class_name": "Zeros"}, "center": true, "moving_mean_initializer": {"config": {}, "class_name": "Zeros"}, "gamma_regularizer": null, "scale": true, "gamma_constraint": null}, "class_name": "BatchNormalization", "inbound_nodes": [[["conv_dw_2", 0, 0, {}]]]}, {"name": "conv_dw_2_relu", "config": {"name": "conv_dw_2_relu", "max_value": 6.0, "trainable": true}, "class_name": "ReLU", "inbound_nodes": [[["conv_dw_2_bn", 0, 0, {}]]]}, {"name": "conv_pw_2", "config": {"bias_constraint": null, "kernel_initializer": {"config": {"seed": null, "mode": "fan_avg", "scale": 1.0, "distribution": "uniform"}, "class_name": "VarianceScaling"}, "trainable": true, "kernel_regularizer": null, "kernel_constraint": null, "data_format": "channels_last", "dilation_rate": [1, 1], "activity_regularizer": null, "activation": "linear", "strides": [1, 1], "bias_initializer": {"config": {}, "class_name": "Zeros"}, "kernel_size": [1, 1], "filters": 128, "name": "conv_pw_2", "bias_regularizer": null, "use_bias": false, "padding": "same"}, "class_name": "Conv2D", "inbound_nodes": [[["conv_dw_2_relu", 0, 0, {}]]]}, {"name": "conv_pw_2_bn", "config": {"axis": -1, "trainable": true, "gamma_initializer": {"config": {}, "class_name": "Ones"}, "moving_variance_initializer": {"config": {}, "class_name": "Ones"}, "beta_regularizer": null, "momentum": 0.99, "beta_constraint": null, "name": "conv_pw_2_bn", "epsilon": 0.001, "beta_initializer": {"config": {}, "class_name": "Zeros"}, "center": true, "moving_mean_initializer": {"config": {}, "class_name": "Zeros"}, "gamma_regularizer": null, "scale": true, "gamma_constraint": null}, "class_name": "BatchNormalization", "inbound_nodes": [[["conv_pw_2", 0, 0, {}]]]}, {"name": "conv_pw_2_relu", "config": {"name": "conv_pw_2_relu", "max_value": 6.0, "trainable": true}, "class_name": "ReLU", "inbound_nodes": [[["conv_pw_2_bn", 0, 0, {}]]]}, {"name": "conv_dw_3", "config": {"bias_constraint": null, "data_format": "channels_last", "depthwise_constraint": null, "depth_multiplier": 1, "depthwise_initializer": {"config": {"seed": null, "mode": "fan_avg", "scale": 1.0, "distribution": "uniform"}, "class_name": "VarianceScaling"}, "dilation_rate": [1, 1], "activity_regularizer": null, "activation": "linear", "strides": [1, 1], "bias_initializer": {"config": {}, "class_name": "Zeros"}, "kernel_size": [3, 3], "depthwise_regularizer": null, "name": "conv_dw_3", "bias_regularizer": null, "use_bias": false, "padding": "same", "trainable": true}, "class_name": "DepthwiseConv2D", "inbound_nodes": [[["conv_pw_2_relu", 0, 0, {}]]]}, {"name": "conv_dw_3_bn", "config": {"axis": -1, "trainable": true, "gamma_initializer": {"config": {}, "class_name": "Ones"}, "moving_variance_initializer": {"config": {}, "class_name": "Ones"}, "beta_regularizer": null, "momentum": 0.99, "beta_constraint": null, "name": "conv_dw_3_bn", "epsilon": 0.001, "beta_initializer": {"config": {}, "class_name": "Zeros"}, "center": true, "moving_mean_initializer": {"config": {}, "class_name": "Zeros"}, "gamma_regularizer": null, "scale": true, "gamma_constraint": null}, "class_name": "BatchNormalization", "inbound_nodes": [[["conv_dw_3", 0, 0, {}]]]}, {"name": "conv_dw_3_relu", "config": {"name": "conv_dw_3_relu", "max_value": 6.0, "trainable": true}, "class_name": "ReLU", "inbound_nodes": [[["conv_dw_3_bn", 0, 0, {}]]]}, {"name": "conv_pw_3", "config": {"bias_constraint": null, "kernel_initializer": {"config": {"seed": null, "mode": "fan_avg", "scale": 1.0, "distribution": "uniform"}, "class_name": "VarianceScaling"}, "trainable": true, "kernel_regularizer": null, "kernel_constraint": null, "data_format": "channels_last", "dilation_rate": [1, 1], "activity_regularizer": null, "activation": "linear", "strides": [1, 1], "bias_initializer": {"config": {}, "class_name": "Zeros"}, "kernel_size": [1, 1], "filters": 128, "name": "conv_pw_3", "bias_regularizer": null, "use_bias": false, "padding": "same"}, "class_name": "Conv2D", "inbound_nodes": [[["conv_dw_3_relu", 0, 0, {}]]]}, {"name": "conv_pw_3_bn", "config": {"axis": -1, "trainable": true, "gamma_initializer": {"config": {}, "class_name": "Ones"}, "moving_variance_initializer": {"config": {}, "class_name": "Ones"}, "beta_regularizer": null, "momentum": 0.99, "beta_constraint": null, "name": "conv_pw_3_bn", "epsilon": 0.001, "beta_initializer": {"config": {}, "class_name": "Zeros"}, "center": true, "moving_mean_initializer": {"config": {}, "class_name": "Zeros"}, "gamma_regularizer": null, "scale": true, "gamma_constraint": null}, "class_name": "BatchNormalization", "inbound_nodes": [[["conv_pw_3", 0, 0, {}]]]}, {"name": "conv_pw_3_relu", "config": {"name": "conv_pw_3_relu", "max_value": 6.0, "trainable": true}, "class_name": "ReLU", "inbound_nodes": [[["conv_pw_3_bn", 0, 0, {}]]]}, {"name": "conv_pad_4", "config": {"name": "conv_pad_4", "data_format": "channels_last", "trainable": true, "padding": [[0, 1], [0, 1]]}, "class_name": "ZeroPadding2D", "inbound_nodes": [[["conv_pw_3_relu", 0, 0, {}]]]}, {"name": "conv_dw_4", "config": {"bias_constraint": null, "data_format": "channels_last", "depthwise_constraint": null, "depth_multiplier": 1, "depthwise_initializer": {"config": {"seed": null, "mode": "fan_avg", "scale": 1.0, "distribution": "uniform"}, "class_name": "VarianceScaling"}, "dilation_rate": [1, 1], "activity_regularizer": null, "activation": "linear", "strides": [2, 2], "bias_initializer": {"config": {}, "class_name": "Zeros"}, "kernel_size": [3, 3], "depthwise_regularizer": null, "name": "conv_dw_4", "bias_regularizer": null, "use_bias": false, "padding": "valid", "trainable": true}, "class_name": "DepthwiseConv2D", "inbound_nodes": [[["conv_pad_4", 0, 0, {}]]]}, {"name": "conv_dw_4_bn", "config": {"axis": -1, "trainable": true, "gamma_initializer": {"config": {}, "class_name": "Ones"}, "moving_variance_initializer": {"config": {}, "class_name": "Ones"}, "beta_regularizer": null, "momentum": 0.99, "beta_constraint": null, "name": "conv_dw_4_bn", "epsilon": 0.001, "beta_initializer": {"config": {}, "class_name": "Zeros"}, "center": true, "moving_mean_initializer": {"config": {}, "class_name": "Zeros"}, "gamma_regularizer": null, "scale": true, "gamma_constraint": null}, "class_name": "BatchNormalization", "inbound_nodes": [[["conv_dw_4", 0, 0, {}]]]}, {"name": "conv_dw_4_relu", "config": {"name": "conv_dw_4_relu", "max_value": 6.0, "trainable": true}, "class_name": "ReLU", "inbound_nodes": [[["conv_dw_4_bn", 0, 0, {}]]]}, {"name": "conv_pw_4", "config": {"bias_constraint": null, "kernel_initializer": {"config": {"seed": null, "mode": "fan_avg", "scale": 1.0, "distribution": "uniform"}, "class_name": "VarianceScaling"}, "trainable": true, "kernel_regularizer": null, "kernel_constraint": null, "data_format": "channels_last", "dilation_rate": [1, 1], "activity_regularizer": null, "activation": "linear", "strides": [1, 1], "bias_initializer": {"config": {}, "class_name": "Zeros"}, "kernel_size": [1, 1], "filters": 256, "name": "conv_pw_4", "bias_regularizer": null, "use_bias": false, "padding": "same"}, "class_name": "Conv2D", "inbound_nodes": [[["conv_dw_4_relu", 0, 0, {}]]]}, {"name": "conv_pw_4_bn", "config": {"axis": -1, "trainable": true, "gamma_initializer": {"config": {}, "class_name": "Ones"}, "moving_variance_initializer": {"config": {}, "class_name": "Ones"}, "beta_regularizer": null, "momentum": 0.99, "beta_constraint": null, "name": "conv_pw_4_bn", "epsilon": 0.001, "beta_initializer": {"config": {}, "class_name": "Zeros"}, "center": true, "moving_mean_initializer": {"config": {}, "class_name": "Zeros"}, "gamma_regularizer": null, "scale": true, "gamma_constraint": null}, "class_name": "BatchNormalization", "inbound_nodes": [[["conv_pw_4", 0, 0, {}]]]}, {"name": "conv_pw_4_relu", "config": {"name": "conv_pw_4_relu", "max_value": 6.0, "trainable": true}, "class_name": "ReLU", "inbound_nodes": [[["conv_pw_4_bn", 0, 0, {}]]]}, {"name": "conv_dw_5", "config": {"bias_constraint": null, "data_format": "channels_last", "depthwise_constraint": null, "depth_multiplier": 1, "depthwise_initializer": {"config": {"seed": null, "mode": "fan_avg", "scale": 1.0, "distribution": "uniform"}, "class_name": "VarianceScaling"}, "dilation_rate": [1, 1], "activity_regularizer": null, "activation": "linear", "strides": [1, 1], "bias_initializer": {"config": {}, "class_name": "Zeros"}, "kernel_size": [3, 3], "depthwise_regularizer": null, "name": "conv_dw_5", "bias_regularizer": null, "use_bias": false, "padding": "same", "trainable": true}, "class_name": "DepthwiseConv2D", "inbound_nodes": [[["conv_pw_4_relu", 0, 0, {}]]]}, {"name": "conv_dw_5_bn", "config": {"axis": -1, "trainable": true, "gamma_initializer": {"config": {}, "class_name": "Ones"}, "moving_variance_initializer": {"config": {}, "class_name": "Ones"}, "beta_regularizer": null, "momentum": 0.99, "beta_constraint": null, "name": "conv_dw_5_bn", "epsilon": 0.001, "beta_initializer": {"config": {}, "class_name": "Zeros"}, "center": true, "moving_mean_initializer": {"config": {}, "class_name": "Zeros"}, "gamma_regularizer": null, "scale": true, "gamma_constraint": null}, "class_name": "BatchNormalization", "inbound_nodes": [[["conv_dw_5", 0, 0, {}]]]}, {"name": "conv_dw_5_relu", "config": {"name": "conv_dw_5_relu", "max_value": 6.0, "trainable": true}, "class_name": "ReLU", "inbound_nodes": [[["conv_dw_5_bn", 0, 0, {}]]]}, {"name": "conv_pw_5", "config": {"bias_constraint": null, "kernel_initializer": {"config": {"seed": null, "mode": "fan_avg", "scale": 1.0, "distribution": "uniform"}, "class_name": "VarianceScaling"}, "trainable": true, "kernel_regularizer": null, "kernel_constraint": null, "data_format": "channels_last", "dilation_rate": [1, 1], "activity_regularizer": null, "activation": "linear", "strides": [1, 1], "bias_initializer": {"config": {}, "class_name": "Zeros"}, "kernel_size": [1, 1], "filters": 256, "name": "conv_pw_5", "bias_regularizer": null, "use_bias": false, "padding": "same"}, "class_name": "Conv2D", "inbound_nodes": [[["conv_dw_5_relu", 0, 0, {}]]]}, {"name": "conv_pw_5_bn", "config": {"axis": -1, "trainable": true, "gamma_initializer": {"config": {}, "class_name": "Ones"}, "moving_variance_initializer": {"config": {}, "class_name": "Ones"}, "beta_regularizer": null, "momentum": 0.99, "beta_constraint": null, "name": "conv_pw_5_bn", "epsilon": 0.001, "beta_initializer": {"config": {}, "class_name": "Zeros"}, "center": true, "moving_mean_initializer": {"config": {}, "class_name": "Zeros"}, "gamma_regularizer": null, "scale": true, "gamma_constraint": null}, "class_name": "BatchNormalization", "inbound_nodes": [[["conv_pw_5", 0, 0, {}]]]}, {"name": "conv_pw_5_relu", "config": {"name": "conv_pw_5_relu", "max_value": 6.0, "trainable": true}, "class_name": "ReLU", "inbound_nodes": [[["conv_pw_5_bn", 0, 0, {}]]]}, {"name": "conv_pad_6", "config": {"name": "conv_pad_6", "data_format": "channels_last", "trainable": true, "padding": [[0, 1], [0, 1]]}, "class_name": "ZeroPadding2D", "inbound_nodes": [[["conv_pw_5_relu", 0, 0, {}]]]}, {"name": "conv_dw_6", "config": {"bias_constraint": null, "data_format": "channels_last", "depthwise_constraint": null, "depth_multiplier": 1, "depthwise_initializer": {"config": {"seed": null, "mode": "fan_avg", "scale": 1.0, "distribution": "uniform"}, "class_name": "VarianceScaling"}, "dilation_rate": [1, 1], "activity_regularizer": null, "activation": "linear", "strides": [2, 2], "bias_initializer": {"config": {}, "class_name": "Zeros"}, "kernel_size": [3, 3], "depthwise_regularizer": null, "name": "conv_dw_6", "bias_regularizer": null, "use_bias": false, "padding": "valid", "trainable": true}, "class_name": "DepthwiseConv2D", "inbound_nodes": [[["conv_pad_6", 0, 0, {}]]]}, {"name": "conv_dw_6_bn", "config": {"axis": -1, "trainable": true, "gamma_initializer": {"config": {}, "class_name": "Ones"}, "moving_variance_initializer": {"config": {}, "class_name": "Ones"}, "beta_regularizer": null, "momentum": 0.99, "beta_constraint": null, "name": "conv_dw_6_bn", "epsilon": 0.001, "beta_initializer": {"config": {}, "class_name": "Zeros"}, "center": true, "moving_mean_initializer": {"config": {}, "class_name": "Zeros"}, "gamma_regularizer": null, "scale": true, "gamma_constraint": null}, "class_name": "BatchNormalization", "inbound_nodes": [[["conv_dw_6", 0, 0, {}]]]}, {"name": "conv_dw_6_relu", "config": {"name": "conv_dw_6_relu", "max_value": 6.0, "trainable": true}, "class_name": "ReLU", "inbound_nodes": [[["conv_dw_6_bn", 0, 0, {}]]]}, {"name": "conv_pw_6", "config": {"bias_constraint": null, "kernel_initializer": {"config": {"seed": null, "mode": "fan_avg", "scale": 1.0, "distribution": "uniform"}, "class_name": "VarianceScaling"}, "trainable": true, "kernel_regularizer": null, "kernel_constraint": null, "data_format": "channels_last", "dilation_rate": [1, 1], "activity_regularizer": null, "activation": "linear", "strides": [1, 1], "bias_initializer": {"config": {}, "class_name": "Zeros"}, "kernel_size": [1, 1], "filters": 512, "name": "conv_pw_6", "bias_regularizer": null, "use_bias": false, "padding": "same"}, "class_name": "Conv2D", "inbound_nodes": [[["conv_dw_6_relu", 0, 0, {}]]]}, {"name": "conv_pw_6_bn", "config": {"axis": -1, "trainable": true, "gamma_initializer": {"config": {}, "class_name": "Ones"}, "moving_variance_initializer": {"config": {}, "class_name": "Ones"}, "beta_regularizer": null, "momentum": 0.99, "beta_constraint": null, "name": "conv_pw_6_bn", "epsilon": 0.001, "beta_initializer": {"config": {}, "class_name": "Zeros"}, "center": true, "moving_mean_initializer": {"config": {}, "class_name": "Zeros"}, "gamma_regularizer": null, "scale": true, "gamma_constraint": null}, "class_name": "BatchNormalization", "inbound_nodes": [[["conv_pw_6", 0, 0, {}]]]}, {"name": "conv_pw_6_relu", "config": {"name": "conv_pw_6_relu", "max_value": 6.0, "trainable": true}, "class_name": "ReLU", "inbound_nodes": [[["conv_pw_6_bn", 0, 0, {}]]]}, {"name": "conv_dw_7", "config": {"bias_constraint": null, "data_format": "channels_last", "depthwise_constraint": null, "depth_multiplier": 1, "depthwise_initializer": {"config": {"seed": null, "mode": "fan_avg", "scale": 1.0, "distribution": "uniform"}, "class_name": "VarianceScaling"}, "dilation_rate": [1, 1], "activity_regularizer": null, "activation": "linear", "strides": [1, 1], "bias_initializer": {"config": {}, "class_name": "Zeros"}, "kernel_size": [3, 3], "depthwise_regularizer": null, "name": "conv_dw_7", "bias_regularizer": null, "use_bias": false, "padding": "same", "trainable": true}, "class_name": "DepthwiseConv2D", "inbound_nodes": [[["conv_pw_6_relu", 0, 0, {}]]]}, {"name": "conv_dw_7_bn", "config": {"axis": -1, "trainable": true, "gamma_initializer": {"config": {}, "class_name": "Ones"}, "moving_variance_initializer": {"config": {}, "class_name": "Ones"}, "beta_regularizer": null, "momentum": 0.99, "beta_constraint": null, "name": "conv_dw_7_bn", "epsilon": 0.001, "beta_initializer": {"config": {}, "class_name": "Zeros"}, "center": true, "moving_mean_initializer": {"config": {}, "class_name": "Zeros"}, "gamma_regularizer": null, "scale": true, "gamma_constraint": null}, "class_name": "BatchNormalization", "inbound_nodes": [[["conv_dw_7", 0, 0, {}]]]}, {"name": "conv_dw_7_relu", "config": {"name": "conv_dw_7_relu", "max_value": 6.0, "trainable": true}, "class_name": "ReLU", "inbound_nodes": [[["conv_dw_7_bn", 0, 0, {}]]]}, {"name": "conv_pw_7", "config": {"bias_constraint": null, "kernel_initializer": {"config": {"seed": null, "mode": "fan_avg", "scale": 1.0, "distribution": "uniform"}, "class_name": "VarianceScaling"}, "trainable": true, "kernel_regularizer": null, "kernel_constraint": null, "data_format": "channels_last", "dilation_rate": [1, 1], "activity_regularizer": null, "activation": "linear", "strides": [1, 1], "bias_initializer": {"config": {}, "class_name": "Zeros"}, "kernel_size": [1, 1], "filters": 512, "name": "conv_pw_7", "bias_regularizer": null, "use_bias": false, "padding": "same"}, "class_name": "Conv2D", "inbound_nodes": [[["conv_dw_7_relu", 0, 0, {}]]]}, {"name": "conv_pw_7_bn", "config": {"axis": -1, "trainable": true, "gamma_initializer": {"config": {}, "class_name": "Ones"}, "moving_variance_initializer": {"config": {}, "class_name": "Ones"}, "beta_regularizer": null, "momentum": 0.99, "beta_constraint": null, "name": "conv_pw_7_bn", "epsilon": 0.001, "beta_initializer": {"config": {}, "class_name": "Zeros"}, "center": true, "moving_mean_initializer": {"config": {}, "class_name": "Zeros"}, "gamma_regularizer": null, "scale": true, "gamma_constraint": null}, "class_name": "BatchNormalization", "inbound_nodes": [[["conv_pw_7", 0, 0, {}]]]}, {"name": "conv_pw_7_relu", "config": {"name": "conv_pw_7_relu", "max_value": 6.0, "trainable": true}, "class_name": "ReLU", "inbound_nodes": [[["conv_pw_7_bn", 0, 0, {}]]]}, {"name": "conv_dw_8", "config": {"bias_constraint": null, "data_format": "channels_last", "depthwise_constraint": null, "depth_multiplier": 1, "depthwise_initializer": {"config": {"seed": null, "mode": "fan_avg", "scale": 1.0, "distribution": "uniform"}, "class_name": "VarianceScaling"}, "dilation_rate": [1, 1], "activity_regularizer": null, "activation": "linear", "strides": [1, 1], "bias_initializer": {"config": {}, "class_name": "Zeros"}, "kernel_size": [3, 3], "depthwise_regularizer": null, "name": "conv_dw_8", "bias_regularizer": null, "use_bias": false, "padding": "same", "trainable": true}, "class_name": "DepthwiseConv2D", "inbound_nodes": [[["conv_pw_7_relu", 0, 0, {}]]]}, {"name": "conv_dw_8_bn", "config": {"axis": -1, "trainable": true, "gamma_initializer": {"config": {}, "class_name": "Ones"}, "moving_variance_initializer": {"config": {}, "class_name": "Ones"}, "beta_regularizer": null, "momentum": 0.99, "beta_constraint": null, "name": "conv_dw_8_bn", "epsilon": 0.001, "beta_initializer": {"config": {}, "class_name": "Zeros"}, "center": true, "moving_mean_initializer": {"config": {}, "class_name": "Zeros"}, "gamma_regularizer": null, "scale": true, "gamma_constraint": null}, "class_name": "BatchNormalization", "inbound_nodes": [[["conv_dw_8", 0, 0, {}]]]}, {"name": "conv_dw_8_relu", "config": {"name": "conv_dw_8_relu", "max_value": 6.0, "trainable": true}, "class_name": "ReLU", "inbound_nodes": [[["conv_dw_8_bn", 0, 0, {}]]]}, {"name": "conv_pw_8", "config": {"bias_constraint": null, "kernel_initializer": {"config": {"seed": null, "mode": "fan_avg", "scale": 1.0, "distribution": "uniform"}, "class_name": "VarianceScaling"}, "trainable": true, "kernel_regularizer": null, "kernel_constraint": null, "data_format": "channels_last", "dilation_rate": [1, 1], "activity_regularizer": null, "activation": "linear", "strides": [1, 1], "bias_initializer": {"config": {}, "class_name": "Zeros"}, "kernel_size": [1, 1], "filters": 512, "name": "conv_pw_8", "bias_regularizer": null, "use_bias": false, "padding": "same"}, "class_name": "Conv2D", "inbound_nodes": [[["conv_dw_8_relu", 0, 0, {}]]]}, {"name": "conv_pw_8_bn", "config": {"axis": -1, "trainable": true, "gamma_initializer": {"config": {}, "class_name": "Ones"}, "moving_variance_initializer": {"config": {}, "class_name": "Ones"}, "beta_regularizer": null, "momentum": 0.99, "beta_constraint": null, "name": "conv_pw_8_bn", "epsilon": 0.001, "beta_initializer": {"config": {}, "class_name": "Zeros"}, "center": true, "moving_mean_initializer": {"config": {}, "class_name": "Zeros"}, "gamma_regularizer": null, "scale": true, "gamma_constraint": null}, "class_name": "BatchNormalization", "inbound_nodes": [[["conv_pw_8", 0, 0, {}]]]}, {"name": "conv_pw_8_relu", "config": {"name": "conv_pw_8_relu", "max_value": 6.0, "trainable": true}, "class_name": "ReLU", "inbound_nodes": [[["conv_pw_8_bn", 0, 0, {}]]]}, {"name": "conv_dw_9", "config": {"bias_constraint": null, "data_format": "channels_last", "depthwise_constraint": null, "depth_multiplier": 1, "depthwise_initializer": {"config": {"seed": null, "mode": "fan_avg", "scale": 1.0, "distribution": "uniform"}, "class_name": "VarianceScaling"}, "dilation_rate": [1, 1], "activity_regularizer": null, "activation": "linear", "strides": [1, 1], "bias_initializer": {"config": {}, "class_name": "Zeros"}, "kernel_size": [3, 3], "depthwise_regularizer": null, "name": "conv_dw_9", "bias_regularizer": null, "use_bias": false, "padding": "same", "trainable": true}, "class_name": "DepthwiseConv2D", "inbound_nodes": [[["conv_pw_8_relu", 0, 0, {}]]]}, {"name": "conv_dw_9_bn", "config": {"axis": -1, "trainable": true, "gamma_initializer": {"config": {}, "class_name": "Ones"}, "moving_variance_initializer": {"config": {}, "class_name": "Ones"}, "beta_regularizer": null, "momentum": 0.99, "beta_constraint": null, "name": "conv_dw_9_bn", "epsilon": 0.001, "beta_initializer": {"config": {}, "class_name": "Zeros"}, "center": true, "moving_mean_initializer": {"config": {}, "class_name": "Zeros"}, "gamma_regularizer": null, "scale": true, "gamma_constraint": null}, "class_name": "BatchNormalization", "inbound_nodes": [[["conv_dw_9", 0, 0, {}]]]}, {"name": "conv_dw_9_relu", "config": {"name": "conv_dw_9_relu", "max_value": 6.0, "trainable": true}, "class_name": "ReLU", "inbound_nodes": [[["conv_dw_9_bn", 0, 0, {}]]]}, {"name": "conv_pw_9", "config": {"bias_constraint": null, "kernel_initializer": {"config": {"seed": null, "mode": "fan_avg", "scale": 1.0, "distribution": "uniform"}, "class_name": "VarianceScaling"}, "trainable": true, "kernel_regularizer": null, "kernel_constraint": null, "data_format": "channels_last", "dilation_rate": [1, 1], "activity_regularizer": null, "activation": "linear", "strides": [1, 1], "bias_initializer": {"config": {}, "class_name": "Zeros"}, "kernel_size": [1, 1], "filters": 512, "name": "conv_pw_9", "bias_regularizer": null, "use_bias": false, "padding": "same"}, "class_name": "Conv2D", "inbound_nodes": [[["conv_dw_9_relu", 0, 0, {}]]]}, {"name": "conv_pw_9_bn", "config": {"axis": -1, "trainable": true, "gamma_initializer": {"config": {}, "class_name": "Ones"}, "moving_variance_initializer": {"config": {}, "class_name": "Ones"}, "beta_regularizer": null, "momentum": 0.99, "beta_constraint": null, "name": "conv_pw_9_bn", "epsilon": 0.001, "beta_initializer": {"config": {}, "class_name": "Zeros"}, "center": true, "moving_mean_initializer": {"config": {}, "class_name": "Zeros"}, "gamma_regularizer": null, "scale": true, "gamma_constraint": null}, "class_name": "BatchNormalization", "inbound_nodes": [[["conv_pw_9", 0, 0, {}]]]}, {"name": "conv_pw_9_relu", "config": {"name": "conv_pw_9_relu", "max_value": 6.0, "trainable": true}, "class_name": "ReLU", "inbound_nodes": [[["conv_pw_9_bn", 0, 0, {}]]]}, {"name": "conv_dw_10", "config": {"bias_constraint": null, "data_format": "channels_last", "depthwise_constraint": null, "depth_multiplier": 1, "depthwise_initializer": {"config": {"seed": null, "mode": "fan_avg", "scale": 1.0, "distribution": "uniform"}, "class_name": "VarianceScaling"}, "dilation_rate": [1, 1], "activity_regularizer": null, "activation": "linear", "strides": [1, 1], "bias_initializer": {"config": {}, "class_name": "Zeros"}, "kernel_size": [3, 3], "depthwise_regularizer": null, "name": "conv_dw_10", "bias_regularizer": null, "use_bias": false, "padding": "same", "trainable": true}, "class_name": "DepthwiseConv2D", "inbound_nodes": [[["conv_pw_9_relu", 0, 0, {}]]]}, {"name": "conv_dw_10_bn", "config": {"axis": -1, "trainable": true, "gamma_initializer": {"config": {}, "class_name": "Ones"}, "moving_variance_initializer": {"config": {}, "class_name": "Ones"}, "beta_regularizer": null, "momentum": 0.99, "beta_constraint": null, "name": "conv_dw_10_bn", "epsilon": 0.001, "beta_initializer": {"config": {}, "class_name": "Zeros"}, "center": true, "moving_mean_initializer": {"config": {}, "class_name": "Zeros"}, "gamma_regularizer": null, "scale": true, "gamma_constraint": null}, "class_name": "BatchNormalization", "inbound_nodes": [[["conv_dw_10", 0, 0, {}]]]}, {"name": "conv_dw_10_relu", "config": {"name": "conv_dw_10_relu", "max_value": 6.0, "trainable": true}, "class_name": "ReLU", "inbound_nodes": [[["conv_dw_10_bn", 0, 0, {}]]]}, {"name": "conv_pw_10", "config": {"bias_constraint": null, "kernel_initializer": {"config": {"seed": null, "mode": "fan_avg", "scale": 1.0, "distribution": "uniform"}, "class_name": "VarianceScaling"}, "trainable": true, "kernel_regularizer": null, "kernel_constraint": null, "data_format": "channels_last", "dilation_rate": [1, 1], "activity_regularizer": null, "activation": "linear", "strides": [1, 1], "bias_initializer": {"config": {}, "class_name": "Zeros"}, "kernel_size": [1, 1], "filters": 512, "name": "conv_pw_10", "bias_regularizer": null, "use_bias": false, "padding": "same"}, "class_name": "Conv2D", "inbound_nodes": [[["conv_dw_10_relu", 0, 0, {}]]]}, {"name": "conv_pw_10_bn", "config": {"axis": -1, "trainable": true, "gamma_initializer": {"config": {}, "class_name": "Ones"}, "moving_variance_initializer": {"config": {}, "class_name": "Ones"}, "beta_regularizer": null, "momentum": 0.99, "beta_constraint": null, "name": "conv_pw_10_bn", "epsilon": 0.001, "beta_initializer": {"config": {}, "class_name": "Zeros"}, "center": true, "moving_mean_initializer": {"config": {}, "class_name": "Zeros"}, "gamma_regularizer": null, "scale": true, "gamma_constraint": null}, "class_name": "BatchNormalization", "inbound_nodes": [[["conv_pw_10", 0, 0, {}]]]}, {"name": "conv_pw_10_relu", "config": {"name": "conv_pw_10_relu", "max_value": 6.0, "trainable": true}, "class_name": "ReLU", "inbound_nodes": [[["conv_pw_10_bn", 0, 0, {}]]]}, {"name": "conv_dw_11", "config": {"bias_constraint": null, "data_format": "channels_last", "depthwise_constraint": null, "depth_multiplier": 1, "depthwise_initializer": {"config": {"seed": null, "mode": "fan_avg", "scale": 1.0, "distribution": "uniform"}, "class_name": "VarianceScaling"}, "dilation_rate": [1, 1], "activity_regularizer": null, "activation": "linear", "strides": [1, 1], "bias_initializer": {"config": {}, "class_name": "Zeros"}, "kernel_size": [3, 3], "depthwise_regularizer": null, "name": "conv_dw_11", "bias_regularizer": null, "use_bias": false, "padding": "same", "trainable": true}, "class_name": "DepthwiseConv2D", "inbound_nodes": [[["conv_pw_10_relu", 0, 0, {}]]]}, {"name": "conv_dw_11_bn", "config": {"axis": -1, "trainable": true, "gamma_initializer": {"config": {}, "class_name": "Ones"}, "moving_variance_initializer": {"config": {}, "class_name": "Ones"}, "beta_regularizer": null, "momentum": 0.99, "beta_constraint": null, "name": "conv_dw_11_bn", "epsilon": 0.001, "beta_initializer": {"config": {}, "class_name": "Zeros"}, "center": true, "moving_mean_initializer": {"config": {}, "class_name": "Zeros"}, "gamma_regularizer": null, "scale": true, "gamma_constraint": null}, "class_name": "BatchNormalization", "inbound_nodes": [[["conv_dw_11", 0, 0, {}]]]}, {"name": "conv_dw_11_relu", "config": {"name": "conv_dw_11_relu", "max_value": 6.0, "trainable": true}, "class_name": "ReLU", "inbound_nodes": [[["conv_dw_11_bn", 0, 0, {}]]]}, {"name": "conv_pw_11", "config": {"bias_constraint": null, "kernel_initializer": {"config": {"seed": null, "mode": "fan_avg", "scale": 1.0, "distribution": "uniform"}, "class_name": "VarianceScaling"}, "trainable": true, "kernel_regularizer": null, "kernel_constraint": null, "data_format": "channels_last", "dilation_rate": [1, 1], "activity_regularizer": null, "activation": "linear", "strides": [1, 1], "bias_initializer": {"config": {}, "class_name": "Zeros"}, "kernel_size": [1, 1], "filters": 512, "name": "conv_pw_11", "bias_regularizer": null, "use_bias": false, "padding": "same"}, "class_name": "Conv2D", "inbound_nodes": [[["conv_dw_11_relu", 0, 0, {}]]]}, {"name": "conv_pw_11_bn", "config": {"axis": -1, "trainable": true, "gamma_initializer": {"config": {}, "class_name": "Ones"}, "moving_variance_initializer": {"config": {}, "class_name": "Ones"}, "beta_regularizer": null, "momentum": 0.99, "beta_constraint": null, "name": "conv_pw_11_bn", "epsilon": 0.001, "beta_initializer": {"config": {}, "class_name": "Zeros"}, "center": true, "moving_mean_initializer": {"config": {}, "class_name": "Zeros"}, "gamma_regularizer": null, "scale": true, "gamma_constraint": null}, "class_name": "BatchNormalization", "inbound_nodes": [[["conv_pw_11", 0, 0, {}]]]}, {"name": "conv_pw_11_relu", "config": {"name": "conv_pw_11_relu", "max_value": 6.0, "trainable": true}, "class_name": "ReLU", "inbound_nodes": [[["conv_pw_11_bn", 0, 0, {}]]]}, {"name": "conv_pad_12", "config": {"name": "conv_pad_12", "data_format": "channels_last", "trainable": true, "padding": [[0, 1], [0, 1]]}, "class_name": "ZeroPadding2D", "inbound_nodes": [[["conv_pw_11_relu", 0, 0, {}]]]}, {"name": "conv_dw_12", "config": {"bias_constraint": null, "data_format": "channels_last", "depthwise_constraint": null, "depth_multiplier": 1, "depthwise_initializer": {"config": {"seed": null, "mode": "fan_avg", "scale": 1.0, "distribution": "uniform"}, "class_name": "VarianceScaling"}, "dilation_rate": [1, 1], "activity_regularizer": null, "activation": "linear", "strides": [2, 2], "bias_initializer": {"config": {}, "class_name": "Zeros"}, "kernel_size": [3, 3], "depthwise_regularizer": null, "name": "conv_dw_12", "bias_regularizer": null, "use_bias": false, "padding": "valid", "trainable": true}, "class_name": "DepthwiseConv2D", "inbound_nodes": [[["conv_pad_12", 0, 0, {}]]]}, {"name": "conv_dw_12_bn", "config": {"axis": -1, "trainable": true, "gamma_initializer": {"config": {}, "class_name": "Ones"}, "moving_variance_initializer": {"config": {}, "class_name": "Ones"}, "beta_regularizer": null, "momentum": 0.99, "beta_constraint": null, "name": "conv_dw_12_bn", "epsilon": 0.001, "beta_initializer": {"config": {}, "class_name": "Zeros"}, "center": true, "moving_mean_initializer": {"config": {}, "class_name": "Zeros"}, "gamma_regularizer": null, "scale": true, "gamma_constraint": null}, "class_name": "BatchNormalization", "inbound_nodes": [[["conv_dw_12", 0, 0, {}]]]}, {"name": "conv_dw_12_relu", "config": {"name": "conv_dw_12_relu", "max_value": 6.0, "trainable": true}, "class_name": "ReLU", "inbound_nodes": [[["conv_dw_12_bn", 0, 0, {}]]]}, {"name": "conv_pw_12", "config": {"bias_constraint": null, "kernel_initializer": {"config": {"seed": null, "mode": "fan_avg", "scale": 1.0, "distribution": "uniform"}, "class_name": "VarianceScaling"}, "trainable": true, "kernel_regularizer": null, "kernel_constraint": null, "data_format": "channels_last", "dilation_rate": [1, 1], "activity_regularizer": null, "activation": "linear", "strides": [1, 1], "bias_initializer": {"config": {}, "class_name": "Zeros"}, "kernel_size": [1, 1], "filters": 1024, "name": "conv_pw_12", "bias_regularizer": null, "use_bias": false, "padding": "same"}, "class_name": "Conv2D", "inbound_nodes": [[["conv_dw_12_relu", 0, 0, {}]]]}, {"name": "conv_pw_12_bn", "config": {"axis": -1, "trainable": true, "gamma_initializer": {"config": {}, "class_name": "Ones"}, "moving_variance_initializer": {"config": {}, "class_name": "Ones"}, "beta_regularizer": null, "momentum": 0.99, "beta_constraint": null, "name": "conv_pw_12_bn", "epsilon": 0.001, "beta_initializer": {"config": {}, "class_name": "Zeros"}, "center": true, "moving_mean_initializer": {"config": {}, "class_name": "Zeros"}, "gamma_regularizer": null, "scale": true, "gamma_constraint": null}, "class_name": "BatchNormalization", "inbound_nodes": [[["conv_pw_12", 0, 0, {}]]]}, {"name": "conv_pw_12_relu", "config": {"name": "conv_pw_12_relu", "max_value": 6.0, "trainable": true}, "class_name": "ReLU", "inbound_nodes": [[["conv_pw_12_bn", 0, 0, {}]]]}, {"name": "conv_dw_13", "config": {"bias_constraint": null, "data_format": "channels_last", "depthwise_constraint": null, "depth_multiplier": 1, "depthwise_initializer": {"config": {"seed": null, "mode": "fan_avg", "scale": 1.0, "distribution": "uniform"}, "class_name": "VarianceScaling"}, "dilation_rate": [1, 1], "activity_regularizer": null, "activation": "linear", "strides": [1, 1], "bias_initializer": {"config": {}, "class_name": "Zeros"}, "kernel_size": [3, 3], "depthwise_regularizer": null, "name": "conv_dw_13", "bias_regularizer": null, "use_bias": false, "padding": "same", "trainable": true}, "class_name": "DepthwiseConv2D", "inbound_nodes": [[["conv_pw_12_relu", 0, 0, {}]]]}, {"name": "conv_dw_13_bn", "config": {"axis": -1, "trainable": true, "gamma_initializer": {"config": {}, "class_name": "Ones"}, "moving_variance_initializer": {"config": {}, "class_name": "Ones"}, "beta_regularizer": null, "momentum": 0.99, "beta_constraint": null, "name": "conv_dw_13_bn", "epsilon": 0.001, "beta_initializer": {"config": {}, "class_name": "Zeros"}, "center": true, "moving_mean_initializer": {"config": {}, "class_name": "Zeros"}, "gamma_regularizer": null, "scale": true, "gamma_constraint": null}, "class_name": "BatchNormalization", "inbound_nodes": [[["conv_dw_13", 0, 0, {}]]]}, {"name": "conv_dw_13_relu", "config": {"name": "conv_dw_13_relu", "max_value": 6.0, "trainable": true}, "class_name": "ReLU", "inbound_nodes": [[["conv_dw_13_bn", 0, 0, {}]]]}, {"name": "conv_pw_13", "config": {"bias_constraint": null, "kernel_initializer": {"config": {"seed": null, "mode": "fan_avg", "scale": 1.0, "distribution": "uniform"}, "class_name": "VarianceScaling"}, "trainable": true, "kernel_regularizer": null, "kernel_constraint": null, "data_format": "channels_last", "dilation_rate": [1, 1], "activity_regularizer": null, "activation": "linear", "strides": [1, 1], "bias_initializer": {"config": {}, "class_name": "Zeros"}, "kernel_size": [1, 1], "filters": 1024, "name": "conv_pw_13", "bias_regularizer": null, "use_bias": false, "padding": "same"}, "class_name": "Conv2D", "inbound_nodes": [[["conv_dw_13_relu", 0, 0, {}]]]}, {"name": "conv_pw_13_bn", "config": {"axis": -1, "trainable": true, "gamma_initializer": {"config": {}, "class_name": "Ones"}, "moving_variance_initializer": {"config": {}, "class_name": "Ones"}, "beta_regularizer": null, "momentum": 0.99, "beta_constraint": null, "name": "conv_pw_13_bn", "epsilon": 0.001, "beta_initializer": {"config": {}, "class_name": "Zeros"}, "center": true, "moving_mean_initializer": {"config": {}, "class_name": "Zeros"}, "gamma_regularizer": null, "scale": true, "gamma_constraint": null}, "class_name": "BatchNormalization", "inbound_nodes": [[["conv_pw_13", 0, 0, {}]]]}, {"name": "conv_pw_13_relu", "config": {"name": "conv_pw_13_relu", "max_value": 6.0, "trainable": true}, "class_name": "ReLU", "inbound_nodes": [[["conv_pw_13_bn", 0, 0, {}]]]}, {"name": "global_average_pooling2d_1", "config": {"name": "global_average_pooling2d_1", "trainable": true, "data_format": "channels_last"}, "class_name": "GlobalAveragePooling2D", "inbound_nodes": [[["conv_pw_13_relu", 0, 0, {}]]]}, {"name": "reshape_1", "config": {"name": "reshape_1", "target_shape": [1, 1, 1024], "trainable": true}, "class_name": "Reshape", "inbound_nodes": [[["global_average_pooling2d_1", 0, 0, {}]]]}, {"name": "dropout", "config": {"name": "dropout", "seed": null, "trainable": true, "noise_shape": null, "rate": 0.001}, "class_name": "Dropout", "inbound_nodes": [[["reshape_1", 0, 0, {}]]]}, {"name": "conv_preds", "config": {"bias_constraint": null, "kernel_initializer": {"config": {"seed": null, "mode": "fan_avg", "scale": 1.0, "distribution": "uniform"}, "class_name": "VarianceScaling"}, "trainable": true, "kernel_regularizer": null, "kernel_constraint": null, "data_format": "channels_last", "dilation_rate": [1, 1], "activity_regularizer": null, "activation": "linear", "strides": [1, 1], "bias_initializer": {"config": {}, "class_name": "Zeros"}, "kernel_size": [1, 1], "filters": 1000, "name": "conv_preds", "bias_regularizer": null, "use_bias": true, "padding": "same"}, "class_name": "Conv2D", "inbound_nodes": [[["dropout", 0, 0, {}]]]}, {"name": "act_softmax", "config": {"name": "act_softmax", "activation": "softmax", "trainable": true}, "class_name": "Activation", "inbound_nodes": [[["conv_preds", 0, 0, {}]]]}, {"name": "reshape_2", "config": {"name": "reshape_2", "target_shape": [1000], "trainable": true}, "class_name": "Reshape", "inbound_nodes": [[["act_softmax", 0, 0, {}]]]}], "input_layers": [["input_1", 0, 0]], "output_layers": [["reshape_2", 0, 0]]}, "class_name": "Model", "keras_version": "2.2.2"}