{"config": {"output_layers": [["activation_51", 0, 0]], "input_layers": [["input_1", 0, 0]], "name": "model_1", "layers": [{"name": "input_1", "class_name": "InputLayer", "inbound_nodes": [], "config": {"name": "input_1", "sparse": false, "batch_input_shape": [null, 512, 512, 3], "dtype": "float32"}}, {"name": "conv1", "class_name": "Conv2D", "inbound_nodes": [[["input_1", 0, 0, {}]]], "config": {"use_bias": true, "bias_regularizer": null, "dilation_rate": [1, 1], "activity_regularizer": null, "kernel_size": [7, 7], "kernel_constraint": null, "kernel_regularizer": null, "data_format": "channels_last", "strides": [2, 2], "trainable": true, "padding": "same", "filters": 64, "activation": "linear", "name": "conv1", "bias_initializer": {"config": {}, "class_name": "Zeros"}, "bias_constraint": null, "kernel_initializer": {"config": {"seed": null, "mode": "fan_avg", "distribution": "uniform", "scale": 1.0}, "class_name": "VarianceScaling"}}}, {"name": "bn_conv1", "class_name": "BatchNormalization", "inbound_nodes": [[["conv1", 0, 0, {}]]], "config": {"momentum": 0.99, "moving_mean_initializer": {"config": {}, "class_name": "Zeros"}, "scale": true, "axis": 3, "gamma_regularizer": null, "gamma_constraint": null, "moving_variance_initializer": {"config": {}, "class_name": "Ones"}, "beta_constraint": null, "gamma_initializer": {"config": {}, "class_name": "Ones"}, "trainable": true, "name": "bn_conv1", "epsilon": 0.001, "center": true, "beta_regularizer": null, "beta_initializer": {"config": {}, "class_name": "Zeros"}}}, {"name": "activation_1", "class_name": "Activation", "inbound_nodes": [[["bn_conv1", 0, 0, {}]]], "config": {"activation": "relu", "name": "activation_1", "trainable": true}}, {"name": "max_pooling2d_1", "class_name": "MaxPooling2D", "inbound_nodes": [[["activation_1", 0, 0, {}]]], "config": {"data_format": "channels_last", "strides": [2, 2], "trainable": true, "padding": "valid", "name": "max_pooling2d_1", "pool_size": [3, 3]}}, {"name": "res2a_branch2a", "class_name": "Conv2D", "inbound_nodes": [[["max_pooling2d_1", 0, 0, {}]]], "config": {"use_bias": true, "bias_regularizer": null, "dilation_rate": [1, 1], "activity_regularizer": null, "kernel_size": [1, 1], "kernel_constraint": null, "kernel_regularizer": null, "data_format": "channels_last", "strides": [1, 1], "trainable": true, "padding": "valid", "filters": 64, "activation": "linear", "name": "res2a_branch2a", "bias_initializer": {"config": {}, "class_name": "Zeros"}, "bias_constraint": null, "kernel_initializer": {"config": {"seed": null, "mode": "fan_avg", "distribution": "uniform", "scale": 1.0}, "class_name": "VarianceScaling"}}}, {"name": "bn2a_branch2a", "class_name": "BatchNormalization", "inbound_nodes": [[["res2a_branch2a", 0, 0, {}]]], "config": {"momentum": 0.99, "moving_mean_initializer": {"config": {}, "class_name": "Zeros"}, "scale": true, "axis": 3, "gamma_regularizer": null, "gamma_constraint": null, "moving_variance_initializer": {"config": {}, "class_name": "Ones"}, "beta_constraint": null, "gamma_initializer": {"config": {}, "class_name": "Ones"}, "trainable": true, "name": "bn2a_branch2a", "epsilon": 0.001, "center": true, "beta_regularizer": null, "beta_initializer": {"config": {}, "class_name": "Zeros"}}}, {"name": "activation_2", "class_name": "Activation", "inbound_nodes": [[["bn2a_branch2a", 0, 0, {}]]], "config": {"activation": "relu", "name": "activation_2", "trainable": true}}, {"name": "res2a_branch2b", "class_name": "Conv2D", "inbound_nodes": [[["activation_2", 0, 0, {}]]], "config": {"use_bias": true, "bias_regularizer": null, "dilation_rate": [1, 1], "activity_regularizer": null, "kernel_size": [3, 3], "kernel_constraint": null, "kernel_regularizer": null, "data_format": "channels_last", "strides": [1, 1], "trainable": true, "padding": "same", "filters": 64, "activation": "linear", "name": "res2a_branch2b", "bias_initializer": {"config": {}, "class_name": "Zeros"}, "bias_constraint": null, "kernel_initializer": {"config": {"seed": null, "mode": "fan_avg", "distribution": "uniform", "scale": 1.0}, "class_name": "VarianceScaling"}}}, {"name": "bn2a_branch2b", "class_name": "BatchNormalization", "inbound_nodes": [[["res2a_branch2b", 0, 0, {}]]], "config": {"momentum": 0.99, "moving_mean_initializer": {"config": {}, "class_name": "Zeros"}, "scale": true, "axis": 3, "gamma_regularizer": null, "gamma_constraint": null, "moving_variance_initializer": {"config": {}, "class_name": "Ones"}, "beta_constraint": null, "gamma_initializer": {"config": {}, "class_name": "Ones"}, "trainable": true, "name": "bn2a_branch2b", "epsilon": 0.001, "center": true, "beta_regularizer": null, "beta_initializer": {"config": {}, "class_name": "Zeros"}}}, {"name": "activation_3", "class_name": "Activation", "inbound_nodes": [[["bn2a_branch2b", 0, 0, {}]]], "config": {"activation": "relu", "name": "activation_3", "trainable": true}}, {"name": "res2a_branch2c", "class_name": "Conv2D", "inbound_nodes": [[["activation_3", 0, 0, {}]]], "config": {"use_bias": true, "bias_regularizer": null, "dilation_rate": [1, 1], "activity_regularizer": null, "kernel_size": [1, 1], "kernel_constraint": null, "kernel_regularizer": null, "data_format": "channels_last", "strides": [1, 1], "trainable": true, "padding": "valid", "filters": 256, "activation": "linear", "name": "res2a_branch2c", "bias_initializer": {"config": {}, "class_name": "Zeros"}, "bias_constraint": null, "kernel_initializer": {"config": {"seed": null, "mode": "fan_avg", "distribution": "uniform", "scale": 1.0}, "class_name": "VarianceScaling"}}}, {"name": "bn2a_branch2c", "class_name": "BatchNormalization", "inbound_nodes": [[["res2a_branch2c", 0, 0, {}]]], "config": {"momentum": 0.99, "moving_mean_initializer": {"config": {}, "class_name": "Zeros"}, "scale": true, "axis": 3, "gamma_regularizer": null, "gamma_constraint": null, "moving_variance_initializer": {"config": {}, "class_name": "Ones"}, "beta_constraint": null, "gamma_initializer": {"config": {}, "class_name": "Ones"}, "trainable": true, "name": "bn2a_branch2c", "epsilon": 0.001, "center": true, "beta_regularizer": null, "beta_initializer": {"config": {}, "class_name": "Zeros"}}}, {"name": "global_average_pooling2d_1", "class_name": "GlobalAveragePooling2D", "inbound_nodes": [[["bn2a_branch2c", 0, 0, {}]]], "config": {"data_format": "channels_last", "name": "global_average_pooling2d_1", "trainable": true}}, {"name": "reshape_1", "class_name": "Reshape", "inbound_nodes": [[["global_average_pooling2d_1", 0, 0, {}]]], "config": {"name": "reshape_1", "trainable": true, "target_shape": [1, 1, 256]}}, {"name": "res2a_branch_se_fc1", "class_name": "Dense", "inbound_nodes": [[["reshape_1", 0, 0, {}]]], "config": {"use_bias": false, "activity_regularizer": null, "units": 16, "kernel_constraint": null, "kernel_regularizer": null, "bias_regularizer": null, "trainable": true, "activation": "relu", "name": "res2a_branch_se_fc1", "bias_initializer": {"config": {}, "class_name": "Zeros"}, "bias_constraint": null, "kernel_initializer": {"config": {"seed": null, "mode": "fan_in", "distribution": "normal", "scale": 2.0}, "class_name": "VarianceScaling"}}}, {"name": "res2a_branch_se_fc2", "class_name": "Dense", "inbound_nodes": [[["res2a_branch_se_fc1", 0, 0, {}]]], "config": {"use_bias": false, "activity_regularizer": null, "units": 256, "kernel_constraint": null, "kernel_regularizer": null, "bias_regularizer": null, "trainable": true, "activation": "sigmoid", "name": "res2a_branch_se_fc2", "bias_initializer": {"config": {}, "class_name": "Zeros"}, "bias_constraint": null, "kernel_initializer": {"config": {"seed": null, "mode": "fan_in", "distribution": "normal", "scale": 2.0}, "class_name": "VarianceScaling"}}}, {"name": "res2a_branch1", "class_name": "Conv2D", "inbound_nodes": [[["max_pooling2d_1", 0, 0, {}]]], "config": {"use_bias": true, "bias_regularizer": null, "dilation_rate": [1, 1], "activity_regularizer": null, "kernel_size": [1, 1], "kernel_constraint": null, "kernel_regularizer": null, "data_format": "channels_last", "strides": [1, 1], "trainable": true, "padding": "valid", "filters": 256, "activation": "linear", "name": "res2a_branch1", "bias_initializer": {"config": {}, "class_name": "Zeros"}, "bias_constraint": null, "kernel_initializer": {"config": {"seed": null, "mode": "fan_avg", "distribution": "uniform", "scale": 1.0}, "class_name": "VarianceScaling"}}}, {"name": "multiply_1", "class_name": "Multiply", "inbound_nodes": [[["bn2a_branch2c", 0, 0, {}], ["res2a_branch_se_fc2", 0, 0, {}]]], "config": {"name": "multiply_1", "trainable": true}}, {"name": "bn2a_branch1", "class_name": "BatchNormalization", "inbound_nodes": [[["res2a_branch1", 0, 0, {}]]], "config": {"momentum": 0.99, "moving_mean_initializer": {"config": {}, "class_name": "Zeros"}, "scale": true, "axis": 3, "gamma_regularizer": null, "gamma_constraint": null, "moving_variance_initializer": {"config": {}, "class_name": "Ones"}, "beta_constraint": null, "gamma_initializer": {"config": {}, "class_name": "Ones"}, "trainable": true, "name": "bn2a_branch1", "epsilon": 0.001, "center": true, "beta_regularizer": null, "beta_initializer": {"config": {}, "class_name": "Zeros"}}}, {"name": "add_1", "class_name": "Add", "inbound_nodes": [[["multiply_1", 0, 0, {}], ["bn2a_branch1", 0, 0, {}]]], "config": {"name": "add_1", "trainable": true}}, {"name": "activation_4", "class_name": "Activation", "inbound_nodes": [[["add_1", 0, 0, {}]]], "config": {"activation": "relu", "name": "activation_4", "trainable": true}}, {"name": "res2b_branch2a", "class_name": "Conv2D", "inbound_nodes": [[["activation_4", 0, 0, {}]]], "config": {"use_bias": true, "bias_regularizer": null, "dilation_rate": [1, 1], "activity_regularizer": null, "kernel_size": [1, 1], "kernel_constraint": null, "kernel_regularizer": null, "data_format": "channels_last", "strides": [1, 1], "trainable": true, "padding": "valid", "filters": 64, "activation": "linear", "name": "res2b_branch2a", "bias_initializer": {"config": {}, "class_name": "Zeros"}, "bias_constraint": null, "kernel_initializer": {"config": {"seed": null, "mode": "fan_avg", "distribution": "uniform", "scale": 1.0}, "class_name": "VarianceScaling"}}}, {"name": "bn2b_branch2a", "class_name": "BatchNormalization", "inbound_nodes": [[["res2b_branch2a", 0, 0, {}]]], "config": {"momentum": 0.99, "moving_mean_initializer": {"config": {}, "class_name": "Zeros"}, "scale": true, "axis": 3, "gamma_regularizer": null, "gamma_constraint": null, "moving_variance_initializer": {"config": {}, "class_name": "Ones"}, "beta_constraint": null, "gamma_initializer": {"config": {}, "class_name": "Ones"}, "trainable": true, "name": "bn2b_branch2a", "epsilon": 0.001, "center": true, "beta_regularizer": null, "beta_initializer": {"config": {}, "class_name": "Zeros"}}}, {"name": "activation_5", "class_name": "Activation", "inbound_nodes": [[["bn2b_branch2a", 0, 0, {}]]], "config": {"activation": "relu", "name": "activation_5", "trainable": true}}, {"name": "res2b_branch2b", "class_name": "Conv2D", "inbound_nodes": [[["activation_5", 0, 0, {}]]], "config": {"use_bias": true, "bias_regularizer": null, "dilation_rate": [1, 1], "activity_regularizer": null, "kernel_size": [3, 3], "kernel_constraint": null, "kernel_regularizer": null, "data_format": "channels_last", "strides": [1, 1], "trainable": true, "padding": "same", "filters": 64, "activation": "linear", "name": "res2b_branch2b", "bias_initializer": {"config": {}, "class_name": "Zeros"}, "bias_constraint": null, "kernel_initializer": {"config": {"seed": null, "mode": "fan_avg", "distribution": "uniform", "scale": 1.0}, "class_name": "VarianceScaling"}}}, {"name": "bn2b_branch2b", "class_name": "BatchNormalization", "inbound_nodes": [[["res2b_branch2b", 0, 0, {}]]], "config": {"momentum": 0.99, "moving_mean_initializer": {"config": {}, "class_name": "Zeros"}, "scale": true, "axis": 3, "gamma_regularizer": null, "gamma_constraint": null, "moving_variance_initializer": {"config": {}, "class_name": "Ones"}, "beta_constraint": null, "gamma_initializer": {"config": {}, "class_name": "Ones"}, "trainable": true, "name": "bn2b_branch2b", "epsilon": 0.001, "center": true, "beta_regularizer": null, "beta_initializer": {"config": {}, "class_name": "Zeros"}}}, {"name": "activation_6", "class_name": "Activation", "inbound_nodes": [[["bn2b_branch2b", 0, 0, {}]]], "config": {"activation": "relu", "name": "activation_6", "trainable": true}}, {"name": "res2b_branch2c", "class_name": "Conv2D", "inbound_nodes": [[["activation_6", 0, 0, {}]]], "config": {"use_bias": true, "bias_regularizer": null, "dilation_rate": [1, 1], "activity_regularizer": null, "kernel_size": [1, 1], "kernel_constraint": null, "kernel_regularizer": null, "data_format": "channels_last", "strides": [1, 1], "trainable": true, "padding": "valid", "filters": 256, "activation": "linear", "name": "res2b_branch2c", "bias_initializer": {"config": {}, "class_name": "Zeros"}, "bias_constraint": null, "kernel_initializer": {"config": {"seed": null, "mode": "fan_avg", "distribution": "uniform", "scale": 1.0}, "class_name": "VarianceScaling"}}}, {"name": "bn2b_branch2c", "class_name": "BatchNormalization", "inbound_nodes": [[["res2b_branch2c", 0, 0, {}]]], "config": {"momentum": 0.99, "moving_mean_initializer": {"config": {}, "class_name": "Zeros"}, "scale": true, "axis": 3, "gamma_regularizer": null, "gamma_constraint": null, "moving_variance_initializer": {"config": {}, "class_name": "Ones"}, "beta_constraint": null, "gamma_initializer": {"config": {}, "class_name": "Ones"}, "trainable": true, "name": "bn2b_branch2c", "epsilon": 0.001, "center": true, "beta_regularizer": null, "beta_initializer": {"config": {}, "class_name": "Zeros"}}}, {"name": "global_average_pooling2d_2", "class_name": "GlobalAveragePooling2D", "inbound_nodes": [[["bn2b_branch2c", 0, 0, {}]]], "config": {"data_format": "channels_last", "name": "global_average_pooling2d_2", "trainable": true}}, {"name": "reshape_2", "class_name": "Reshape", "inbound_nodes": [[["global_average_pooling2d_2", 0, 0, {}]]], "config": {"name": "reshape_2", "trainable": true, "target_shape": [1, 1, 256]}}, {"name": "res2b_branch_se_fc1", "class_name": "Dense", "inbound_nodes": [[["reshape_2", 0, 0, {}]]], "config": {"use_bias": false, "activity_regularizer": null, "units": 16, "kernel_constraint": null, "kernel_regularizer": null, "bias_regularizer": null, "trainable": true, "activation": "relu", "name": "res2b_branch_se_fc1", "bias_initializer": {"config": {}, "class_name": "Zeros"}, "bias_constraint": null, "kernel_initializer": {"config": {"seed": null, "mode": "fan_in", "distribution": "normal", "scale": 2.0}, "class_name": "VarianceScaling"}}}, {"name": "res2b_branch_se_fc2", "class_name": "Dense", "inbound_nodes": [[["res2b_branch_se_fc1", 0, 0, {}]]], "config": {"use_bias": false, "activity_regularizer": null, "units": 256, "kernel_constraint": null, "kernel_regularizer": null, "bias_regularizer": null, "trainable": true, "activation": "sigmoid", "name": "res2b_branch_se_fc2", "bias_initializer": {"config": {}, "class_name": "Zeros"}, "bias_constraint": null, "kernel_initializer": {"config": {"seed": null, "mode": "fan_in", "distribution": "normal", "scale": 2.0}, "class_name": "VarianceScaling"}}}, {"name": "multiply_2", "class_name": "Multiply", "inbound_nodes": [[["bn2b_branch2c", 0, 0, {}], ["res2b_branch_se_fc2", 0, 0, {}]]], "config": {"name": "multiply_2", "trainable": true}}, {"name": "add_2", "class_name": "Add", "inbound_nodes": [[["multiply_2", 0, 0, {}], ["activation_4", 0, 0, {}]]], "config": {"name": "add_2", "trainable": true}}, {"name": "activation_7", "class_name": "Activation", "inbound_nodes": [[["add_2", 0, 0, {}]]], "config": {"activation": "relu", "name": "activation_7", "trainable": true}}, {"name": "res2c_branch2a", "class_name": "Conv2D", "inbound_nodes": [[["activation_7", 0, 0, {}]]], "config": {"use_bias": true, "bias_regularizer": null, "dilation_rate": [1, 1], "activity_regularizer": null, "kernel_size": [1, 1], "kernel_constraint": null, "kernel_regularizer": null, "data_format": "channels_last", "strides": [1, 1], "trainable": true, "padding": "valid", "filters": 64, "activation": "linear", "name": "res2c_branch2a", "bias_initializer": {"config": {}, "class_name": "Zeros"}, "bias_constraint": null, "kernel_initializer": {"config": {"seed": null, "mode": "fan_avg", "distribution": "uniform", "scale": 1.0}, "class_name": "VarianceScaling"}}}, {"name": "bn2c_branch2a", "class_name": "BatchNormalization", "inbound_nodes": [[["res2c_branch2a", 0, 0, {}]]], "config": {"momentum": 0.99, "moving_mean_initializer": {"config": {}, "class_name": "Zeros"}, "scale": true, "axis": 3, "gamma_regularizer": null, "gamma_constraint": null, "moving_variance_initializer": {"config": {}, "class_name": "Ones"}, "beta_constraint": null, "gamma_initializer": {"config": {}, "class_name": "Ones"}, "trainable": true, "name": "bn2c_branch2a", "epsilon": 0.001, "center": true, "beta_regularizer": null, "beta_initializer": {"config": {}, "class_name": "Zeros"}}}, {"name": "activation_8", "class_name": "Activation", "inbound_nodes": [[["bn2c_branch2a", 0, 0, {}]]], "config": {"activation": "relu", "name": "activation_8", "trainable": true}}, {"name": "res2c_branch2b", "class_name": "Conv2D", "inbound_nodes": [[["activation_8", 0, 0, {}]]], "config": {"use_bias": true, "bias_regularizer": null, "dilation_rate": [1, 1], "activity_regularizer": null, "kernel_size": [3, 3], "kernel_constraint": null, "kernel_regularizer": null, "data_format": "channels_last", "strides": [1, 1], "trainable": true, "padding": "same", "filters": 64, "activation": "linear", "name": "res2c_branch2b", "bias_initializer": {"config": {}, "class_name": "Zeros"}, "bias_constraint": null, "kernel_initializer": {"config": {"seed": null, "mode": "fan_avg", "distribution": "uniform", "scale": 1.0}, "class_name": "VarianceScaling"}}}, {"name": "bn2c_branch2b", "class_name": "BatchNormalization", "inbound_nodes": [[["res2c_branch2b", 0, 0, {}]]], "config": {"momentum": 0.99, "moving_mean_initializer": {"config": {}, "class_name": "Zeros"}, "scale": true, "axis": 3, "gamma_regularizer": null, "gamma_constraint": null, "moving_variance_initializer": {"config": {}, "class_name": "Ones"}, "beta_constraint": null, "gamma_initializer": {"config": {}, "class_name": "Ones"}, "trainable": true, "name": "bn2c_branch2b", "epsilon": 0.001, "center": true, "beta_regularizer": null, "beta_initializer": {"config": {}, "class_name": "Zeros"}}}, {"name": "activation_9", "class_name": "Activation", "inbound_nodes": [[["bn2c_branch2b", 0, 0, {}]]], "config": {"activation": "relu", "name": "activation_9", "trainable": true}}, {"name": "res2c_branch2c", "class_name": "Conv2D", "inbound_nodes": [[["activation_9", 0, 0, {}]]], "config": {"use_bias": true, "bias_regularizer": null, "dilation_rate": [1, 1], "activity_regularizer": null, "kernel_size": [1, 1], "kernel_constraint": null, "kernel_regularizer": null, "data_format": "channels_last", "strides": [1, 1], "trainable": true, "padding": "valid", "filters": 256, "activation": "linear", "name": "res2c_branch2c", "bias_initializer": {"config": {}, "class_name": "Zeros"}, "bias_constraint": null, "kernel_initializer": {"config": {"seed": null, "mode": "fan_avg", "distribution": "uniform", "scale": 1.0}, "class_name": "VarianceScaling"}}}, {"name": "bn2c_branch2c", "class_name": "BatchNormalization", "inbound_nodes": [[["res2c_branch2c", 0, 0, {}]]], "config": {"momentum": 0.99, "moving_mean_initializer": {"config": {}, "class_name": "Zeros"}, "scale": true, "axis": 3, "gamma_regularizer": null, "gamma_constraint": null, "moving_variance_initializer": {"config": {}, "class_name": "Ones"}, "beta_constraint": null, "gamma_initializer": {"config": {}, "class_name": "Ones"}, "trainable": true, "name": "bn2c_branch2c", "epsilon": 0.001, "center": true, "beta_regularizer": null, "beta_initializer": {"config": {}, "class_name": "Zeros"}}}, {"name": "global_average_pooling2d_3", "class_name": "GlobalAveragePooling2D", "inbound_nodes": [[["bn2c_branch2c", 0, 0, {}]]], "config": {"data_format": "channels_last", "name": "global_average_pooling2d_3", "trainable": true}}, {"name": "reshape_3", "class_name": "Reshape", "inbound_nodes": [[["global_average_pooling2d_3", 0, 0, {}]]], "config": {"name": "reshape_3", "trainable": true, "target_shape": [1, 1, 256]}}, {"name": "res2c_branch_se_fc1", "class_name": "Dense", "inbound_nodes": [[["reshape_3", 0, 0, {}]]], "config": {"use_bias": false, "activity_regularizer": null, "units": 16, "kernel_constraint": null, "kernel_regularizer": null, "bias_regularizer": null, "trainable": true, "activation": "relu", "name": "res2c_branch_se_fc1", "bias_initializer": {"config": {}, "class_name": "Zeros"}, "bias_constraint": null, "kernel_initializer": {"config": {"seed": null, "mode": "fan_in", "distribution": "normal", "scale": 2.0}, "class_name": "VarianceScaling"}}}, {"name": "res2c_branch_se_fc2", "class_name": "Dense", "inbound_nodes": [[["res2c_branch_se_fc1", 0, 0, {}]]], "config": {"use_bias": false, "activity_regularizer": null, "units": 256, "kernel_constraint": null, "kernel_regularizer": null, "bias_regularizer": null, "trainable": true, "activation": "sigmoid", "name": "res2c_branch_se_fc2", "bias_initializer": {"config": {}, "class_name": "Zeros"}, "bias_constraint": null, "kernel_initializer": {"config": {"seed": null, "mode": "fan_in", "distribution": "normal", "scale": 2.0}, "class_name": "VarianceScaling"}}}, {"name": "multiply_3", "class_name": "Multiply", "inbound_nodes": [[["bn2c_branch2c", 0, 0, {}], ["res2c_branch_se_fc2", 0, 0, {}]]], "config": {"name": "multiply_3", "trainable": true}}, {"name": "add_3", "class_name": "Add", "inbound_nodes": [[["multiply_3", 0, 0, {}], ["activation_7", 0, 0, {}]]], "config": {"name": "add_3", "trainable": true}}, {"name": "activation_10", "class_name": "Activation", "inbound_nodes": [[["add_3", 0, 0, {}]]], "config": {"activation": "relu", "name": "activation_10", "trainable": true}}, {"name": "res3a_branch2a", "class_name": "Conv2D", "inbound_nodes": [[["activation_10", 0, 0, {}]]], "config": {"use_bias": true, "bias_regularizer": null, "dilation_rate": [1, 1], "activity_regularizer": null, "kernel_size": [1, 1], "kernel_constraint": null, "kernel_regularizer": null, "data_format": "channels_last", "strides": [2, 2], "trainable": true, "padding": "valid", "filters": 128, "activation": "linear", "name": "res3a_branch2a", "bias_initializer": {"config": {}, "class_name": "Zeros"}, "bias_constraint": null, "kernel_initializer": {"config": {"seed": null, "mode": "fan_avg", "distribution": "uniform", "scale": 1.0}, "class_name": "VarianceScaling"}}}, {"name": "bn3a_branch2a", "class_name": "BatchNormalization", "inbound_nodes": [[["res3a_branch2a", 0, 0, {}]]], "config": {"momentum": 0.99, "moving_mean_initializer": {"config": {}, "class_name": "Zeros"}, "scale": true, "axis": 3, "gamma_regularizer": null, "gamma_constraint": null, "moving_variance_initializer": {"config": {}, "class_name": "Ones"}, "beta_constraint": null, "gamma_initializer": {"config": {}, "class_name": "Ones"}, "trainable": true, "name": "bn3a_branch2a", "epsilon": 0.001, "center": true, "beta_regularizer": null, "beta_initializer": {"config": {}, "class_name": "Zeros"}}}, {"name": "activation_11", "class_name": "Activation", "inbound_nodes": [[["bn3a_branch2a", 0, 0, {}]]], "config": {"activation": "relu", "name": "activation_11", "trainable": true}}, {"name": "res3a_branch2b", "class_name": "Conv2D", "inbound_nodes": [[["activation_11", 0, 0, {}]]], "config": {"use_bias": true, "bias_regularizer": null, "dilation_rate": [1, 1], "activity_regularizer": null, "kernel_size": [3, 3], "kernel_constraint": null, "kernel_regularizer": null, "data_format": "channels_last", "strides": [1, 1], "trainable": true, "padding": "same", "filters": 128, "activation": "linear", "name": "res3a_branch2b", "bias_initializer": {"config": {}, "class_name": "Zeros"}, "bias_constraint": null, "kernel_initializer": {"config": {"seed": null, "mode": "fan_avg", "distribution": "uniform", "scale": 1.0}, "class_name": "VarianceScaling"}}}, {"name": "bn3a_branch2b", "class_name": "BatchNormalization", "inbound_nodes": [[["res3a_branch2b", 0, 0, {}]]], "config": {"momentum": 0.99, "moving_mean_initializer": {"config": {}, "class_name": "Zeros"}, "scale": true, "axis": 3, "gamma_regularizer": null, "gamma_constraint": null, "moving_variance_initializer": {"config": {}, "class_name": "Ones"}, "beta_constraint": null, "gamma_initializer": {"config": {}, "class_name": "Ones"}, "trainable": true, "name": "bn3a_branch2b", "epsilon": 0.001, "center": true, "beta_regularizer": null, "beta_initializer": {"config": {}, "class_name": "Zeros"}}}, {"name": "activation_12", "class_name": "Activation", "inbound_nodes": [[["bn3a_branch2b", 0, 0, {}]]], "config": {"activation": "relu", "name": "activation_12", "trainable": true}}, {"name": "res3a_branch2c", "class_name": "Conv2D", "inbound_nodes": [[["activation_12", 0, 0, {}]]], "config": {"use_bias": true, "bias_regularizer": null, "dilation_rate": [1, 1], "activity_regularizer": null, "kernel_size": [1, 1], "kernel_constraint": null, "kernel_regularizer": null, "data_format": "channels_last", "strides": [1, 1], "trainable": true, "padding": "valid", "filters": 512, "activation": "linear", "name": "res3a_branch2c", "bias_initializer": {"config": {}, "class_name": "Zeros"}, "bias_constraint": null, "kernel_initializer": {"config": {"seed": null, "mode": "fan_avg", "distribution": "uniform", "scale": 1.0}, "class_name": "VarianceScaling"}}}, {"name": "bn3a_branch2c", "class_name": "BatchNormalization", "inbound_nodes": [[["res3a_branch2c", 0, 0, {}]]], "config": {"momentum": 0.99, "moving_mean_initializer": {"config": {}, "class_name": "Zeros"}, "scale": true, "axis": 3, "gamma_regularizer": null, "gamma_constraint": null, "moving_variance_initializer": {"config": {}, "class_name": "Ones"}, "beta_constraint": null, "gamma_initializer": {"config": {}, "class_name": "Ones"}, "trainable": true, "name": "bn3a_branch2c", "epsilon": 0.001, "center": true, "beta_regularizer": null, "beta_initializer": {"config": {}, "class_name": "Zeros"}}}, {"name": "global_average_pooling2d_4", "class_name": "GlobalAveragePooling2D", "inbound_nodes": [[["bn3a_branch2c", 0, 0, {}]]], "config": {"data_format": "channels_last", "name": "global_average_pooling2d_4", "trainable": true}}, {"name": "reshape_4", "class_name": "Reshape", "inbound_nodes": [[["global_average_pooling2d_4", 0, 0, {}]]], "config": {"name": "reshape_4", "trainable": true, "target_shape": [1, 1, 512]}}, {"name": "res3a_branch_se_fc1", "class_name": "Dense", "inbound_nodes": [[["reshape_4", 0, 0, {}]]], "config": {"use_bias": false, "activity_regularizer": null, "units": 32, "kernel_constraint": null, "kernel_regularizer": null, "bias_regularizer": null, "trainable": true, "activation": "relu", "name": "res3a_branch_se_fc1", "bias_initializer": {"config": {}, "class_name": "Zeros"}, "bias_constraint": null, "kernel_initializer": {"config": {"seed": null, "mode": "fan_in", "distribution": "normal", "scale": 2.0}, "class_name": "VarianceScaling"}}}, {"name": "res3a_branch_se_fc2", "class_name": "Dense", "inbound_nodes": [[["res3a_branch_se_fc1", 0, 0, {}]]], "config": {"use_bias": false, "activity_regularizer": null, "units": 512, "kernel_constraint": null, "kernel_regularizer": null, "bias_regularizer": null, "trainable": true, "activation": "sigmoid", "name": "res3a_branch_se_fc2", "bias_initializer": {"config": {}, "class_name": "Zeros"}, "bias_constraint": null, "kernel_initializer": {"config": {"seed": null, "mode": "fan_in", "distribution": "normal", "scale": 2.0}, "class_name": "VarianceScaling"}}}, {"name": "res3a_branch1", "class_name": "Conv2D", "inbound_nodes": [[["activation_10", 0, 0, {}]]], "config": {"use_bias": true, "bias_regularizer": null, "dilation_rate": [1, 1], "activity_regularizer": null, "kernel_size": [1, 1], "kernel_constraint": null, "kernel_regularizer": null, "data_format": "channels_last", "strides": [2, 2], "trainable": true, "padding": "valid", "filters": 512, "activation": "linear", "name": "res3a_branch1", "bias_initializer": {"config": {}, "class_name": "Zeros"}, "bias_constraint": null, "kernel_initializer": {"config": {"seed": null, "mode": "fan_avg", "distribution": "uniform", "scale": 1.0}, "class_name": "VarianceScaling"}}}, {"name": "multiply_4", "class_name": "Multiply", "inbound_nodes": [[["bn3a_branch2c", 0, 0, {}], ["res3a_branch_se_fc2", 0, 0, {}]]], "config": {"name": "multiply_4", "trainable": true}}, {"name": "bn3a_branch1", "class_name": "BatchNormalization", "inbound_nodes": [[["res3a_branch1", 0, 0, {}]]], "config": {"momentum": 0.99, "moving_mean_initializer": {"config": {}, "class_name": "Zeros"}, "scale": true, "axis": 3, "gamma_regularizer": null, "gamma_constraint": null, "moving_variance_initializer": {"config": {}, "class_name": "Ones"}, "beta_constraint": null, "gamma_initializer": {"config": {}, "class_name": "Ones"}, "trainable": true, "name": "bn3a_branch1", "epsilon": 0.001, "center": true, "beta_regularizer": null, "beta_initializer": {"config": {}, "class_name": "Zeros"}}}, {"name": "add_4", "class_name": "Add", "inbound_nodes": [[["multiply_4", 0, 0, {}], ["bn3a_branch1", 0, 0, {}]]], "config": {"name": "add_4", "trainable": true}}, {"name": "activation_13", "class_name": "Activation", "inbound_nodes": [[["add_4", 0, 0, {}]]], "config": {"activation": "relu", "name": "activation_13", "trainable": true}}, {"name": "res3b_branch2a", "class_name": "Conv2D", "inbound_nodes": [[["activation_13", 0, 0, {}]]], "config": {"use_bias": true, "bias_regularizer": null, "dilation_rate": [1, 1], "activity_regularizer": null, "kernel_size": [1, 1], "kernel_constraint": null, "kernel_regularizer": null, "data_format": "channels_last", "strides": [1, 1], "trainable": true, "padding": "valid", "filters": 128, "activation": "linear", "name": "res3b_branch2a", "bias_initializer": {"config": {}, "class_name": "Zeros"}, "bias_constraint": null, "kernel_initializer": {"config": {"seed": null, "mode": "fan_avg", "distribution": "uniform", "scale": 1.0}, "class_name": "VarianceScaling"}}}, {"name": "bn3b_branch2a", "class_name": "BatchNormalization", "inbound_nodes": [[["res3b_branch2a", 0, 0, {}]]], "config": {"momentum": 0.99, "moving_mean_initializer": {"config": {}, "class_name": "Zeros"}, "scale": true, "axis": 3, "gamma_regularizer": null, "gamma_constraint": null, "moving_variance_initializer": {"config": {}, "class_name": "Ones"}, "beta_constraint": null, "gamma_initializer": {"config": {}, "class_name": "Ones"}, "trainable": true, "name": "bn3b_branch2a", "epsilon": 0.001, "center": true, "beta_regularizer": null, "beta_initializer": {"config": {}, "class_name": "Zeros"}}}, {"name": "activation_14", "class_name": "Activation", "inbound_nodes": [[["bn3b_branch2a", 0, 0, {}]]], "config": {"activation": "relu", "name": "activation_14", "trainable": true}}, {"name": "res3b_branch2b", "class_name": "Conv2D", "inbound_nodes": [[["activation_14", 0, 0, {}]]], "config": {"use_bias": true, "bias_regularizer": null, "dilation_rate": [1, 1], "activity_regularizer": null, "kernel_size": [3, 3], "kernel_constraint": null, "kernel_regularizer": null, "data_format": "channels_last", "strides": [1, 1], "trainable": true, "padding": "same", "filters": 128, "activation": "linear", "name": "res3b_branch2b", "bias_initializer": {"config": {}, "class_name": "Zeros"}, "bias_constraint": null, "kernel_initializer": {"config": {"seed": null, "mode": "fan_avg", "distribution": "uniform", "scale": 1.0}, "class_name": "VarianceScaling"}}}, {"name": "bn3b_branch2b", "class_name": "BatchNormalization", "inbound_nodes": [[["res3b_branch2b", 0, 0, {}]]], "config": {"momentum": 0.99, "moving_mean_initializer": {"config": {}, "class_name": "Zeros"}, "scale": true, "axis": 3, "gamma_regularizer": null, "gamma_constraint": null, "moving_variance_initializer": {"config": {}, "class_name": "Ones"}, "beta_constraint": null, "gamma_initializer": {"config": {}, "class_name": "Ones"}, "trainable": true, "name": "bn3b_branch2b", "epsilon": 0.001, "center": true, "beta_regularizer": null, "beta_initializer": {"config": {}, "class_name": "Zeros"}}}, {"name": "activation_15", "class_name": "Activation", "inbound_nodes": [[["bn3b_branch2b", 0, 0, {}]]], "config": {"activation": "relu", "name": "activation_15", "trainable": true}}, {"name": "res3b_branch2c", "class_name": "Conv2D", "inbound_nodes": [[["activation_15", 0, 0, {}]]], "config": {"use_bias": true, "bias_regularizer": null, "dilation_rate": [1, 1], "activity_regularizer": null, "kernel_size": [1, 1], "kernel_constraint": null, "kernel_regularizer": null, "data_format": "channels_last", "strides": [1, 1], "trainable": true, "padding": "valid", "filters": 512, "activation": "linear", "name": "res3b_branch2c", "bias_initializer": {"config": {}, "class_name": "Zeros"}, "bias_constraint": null, "kernel_initializer": {"config": {"seed": null, "mode": "fan_avg", "distribution": "uniform", "scale": 1.0}, "class_name": "VarianceScaling"}}}, {"name": "bn3b_branch2c", "class_name": "BatchNormalization", "inbound_nodes": [[["res3b_branch2c", 0, 0, {}]]], "config": {"momentum": 0.99, "moving_mean_initializer": {"config": {}, "class_name": "Zeros"}, "scale": true, "axis": 3, "gamma_regularizer": null, "gamma_constraint": null, "moving_variance_initializer": {"config": {}, "class_name": "Ones"}, "beta_constraint": null, "gamma_initializer": {"config": {}, "class_name": "Ones"}, "trainable": true, "name": "bn3b_branch2c", "epsilon": 0.001, "center": true, "beta_regularizer": null, "beta_initializer": {"config": {}, "class_name": "Zeros"}}}, {"name": "global_average_pooling2d_5", "class_name": "GlobalAveragePooling2D", "inbound_nodes": [[["bn3b_branch2c", 0, 0, {}]]], "config": {"data_format": "channels_last", "name": "global_average_pooling2d_5", "trainable": true}}, {"name": "reshape_5", "class_name": "Reshape", "inbound_nodes": [[["global_average_pooling2d_5", 0, 0, {}]]], "config": {"name": "reshape_5", "trainable": true, "target_shape": [1, 1, 512]}}, {"name": "res3b_branch_se_fc1", "class_name": "Dense", "inbound_nodes": [[["reshape_5", 0, 0, {}]]], "config": {"use_bias": false, "activity_regularizer": null, "units": 32, "kernel_constraint": null, "kernel_regularizer": null, "bias_regularizer": null, "trainable": true, "activation": "relu", "name": "res3b_branch_se_fc1", "bias_initializer": {"config": {}, "class_name": "Zeros"}, "bias_constraint": null, "kernel_initializer": {"config": {"seed": null, "mode": "fan_in", "distribution": "normal", "scale": 2.0}, "class_name": "VarianceScaling"}}}, {"name": "res3b_branch_se_fc2", "class_name": "Dense", "inbound_nodes": [[["res3b_branch_se_fc1", 0, 0, {}]]], "config": {"use_bias": false, "activity_regularizer": null, "units": 512, "kernel_constraint": null, "kernel_regularizer": null, "bias_regularizer": null, "trainable": true, "activation": "sigmoid", "name": "res3b_branch_se_fc2", "bias_initializer": {"config": {}, "class_name": "Zeros"}, "bias_constraint": null, "kernel_initializer": {"config": {"seed": null, "mode": "fan_in", "distribution": "normal", "scale": 2.0}, "class_name": "VarianceScaling"}}}, {"name": "multiply_5", "class_name": "Multiply", "inbound_nodes": [[["bn3b_branch2c", 0, 0, {}], ["res3b_branch_se_fc2", 0, 0, {}]]], "config": {"name": "multiply_5", "trainable": true}}, {"name": "add_5", "class_name": "Add", "inbound_nodes": [[["multiply_5", 0, 0, {}], ["activation_13", 0, 0, {}]]], "config": {"name": "add_5", "trainable": true}}, {"name": "activation_16", "class_name": "Activation", "inbound_nodes": [[["add_5", 0, 0, {}]]], "config": {"activation": "relu", "name": "activation_16", "trainable": true}}, {"name": "res3c_branch2a", "class_name": "Conv2D", "inbound_nodes": [[["activation_16", 0, 0, {}]]], "config": {"use_bias": true, "bias_regularizer": null, "dilation_rate": [1, 1], "activity_regularizer": null, "kernel_size": [1, 1], "kernel_constraint": null, "kernel_regularizer": null, "data_format": "channels_last", "strides": [1, 1], "trainable": true, "padding": "valid", "filters": 128, "activation": "linear", "name": "res3c_branch2a", "bias_initializer": {"config": {}, "class_name": "Zeros"}, "bias_constraint": null, "kernel_initializer": {"config": {"seed": null, "mode": "fan_avg", "distribution": "uniform", "scale": 1.0}, "class_name": "VarianceScaling"}}}, {"name": "bn3c_branch2a", "class_name": "BatchNormalization", "inbound_nodes": [[["res3c_branch2a", 0, 0, {}]]], "config": {"momentum": 0.99, "moving_mean_initializer": {"config": {}, "class_name": "Zeros"}, "scale": true, "axis": 3, "gamma_regularizer": null, "gamma_constraint": null, "moving_variance_initializer": {"config": {}, "class_name": "Ones"}, "beta_constraint": null, "gamma_initializer": {"config": {}, "class_name": "Ones"}, "trainable": true, "name": "bn3c_branch2a", "epsilon": 0.001, "center": true, "beta_regularizer": null, "beta_initializer": {"config": {}, "class_name": "Zeros"}}}, {"name": "activation_17", "class_name": "Activation", "inbound_nodes": [[["bn3c_branch2a", 0, 0, {}]]], "config": {"activation": "relu", "name": "activation_17", "trainable": true}}, {"name": "res3c_branch2b", "class_name": "Conv2D", "inbound_nodes": [[["activation_17", 0, 0, {}]]], "config": {"use_bias": true, "bias_regularizer": null, "dilation_rate": [1, 1], "activity_regularizer": null, "kernel_size": [3, 3], "kernel_constraint": null, "kernel_regularizer": null, "data_format": "channels_last", "strides": [1, 1], "trainable": true, "padding": "same", "filters": 128, "activation": "linear", "name": "res3c_branch2b", "bias_initializer": {"config": {}, "class_name": "Zeros"}, "bias_constraint": null, "kernel_initializer": {"config": {"seed": null, "mode": "fan_avg", "distribution": "uniform", "scale": 1.0}, "class_name": "VarianceScaling"}}}, {"name": "bn3c_branch2b", "class_name": "BatchNormalization", "inbound_nodes": [[["res3c_branch2b", 0, 0, {}]]], "config": {"momentum": 0.99, "moving_mean_initializer": {"config": {}, "class_name": "Zeros"}, "scale": true, "axis": 3, "gamma_regularizer": null, "gamma_constraint": null, "moving_variance_initializer": {"config": {}, "class_name": "Ones"}, "beta_constraint": null, "gamma_initializer": {"config": {}, "class_name": "Ones"}, "trainable": true, "name": "bn3c_branch2b", "epsilon": 0.001, "center": true, "beta_regularizer": null, "beta_initializer": {"config": {}, "class_name": "Zeros"}}}, {"name": "activation_18", "class_name": "Activation", "inbound_nodes": [[["bn3c_branch2b", 0, 0, {}]]], "config": {"activation": "relu", "name": "activation_18", "trainable": true}}, {"name": "res3c_branch2c", "class_name": "Conv2D", "inbound_nodes": [[["activation_18", 0, 0, {}]]], "config": {"use_bias": true, "bias_regularizer": null, "dilation_rate": [1, 1], "activity_regularizer": null, "kernel_size": [1, 1], "kernel_constraint": null, "kernel_regularizer": null, "data_format": "channels_last", "strides": [1, 1], "trainable": true, "padding": "valid", "filters": 512, "activation": "linear", "name": "res3c_branch2c", "bias_initializer": {"config": {}, "class_name": "Zeros"}, "bias_constraint": null, "kernel_initializer": {"config": {"seed": null, "mode": "fan_avg", "distribution": "uniform", "scale": 1.0}, "class_name": "VarianceScaling"}}}, {"name": "bn3c_branch2c", "class_name": "BatchNormalization", "inbound_nodes": [[["res3c_branch2c", 0, 0, {}]]], "config": {"momentum": 0.99, "moving_mean_initializer": {"config": {}, "class_name": "Zeros"}, "scale": true, "axis": 3, "gamma_regularizer": null, "gamma_constraint": null, "moving_variance_initializer": {"config": {}, "class_name": "Ones"}, "beta_constraint": null, "gamma_initializer": {"config": {}, "class_name": "Ones"}, "trainable": true, "name": "bn3c_branch2c", "epsilon": 0.001, "center": true, "beta_regularizer": null, "beta_initializer": {"config": {}, "class_name": "Zeros"}}}, {"name": "global_average_pooling2d_6", "class_name": "GlobalAveragePooling2D", "inbound_nodes": [[["bn3c_branch2c", 0, 0, {}]]], "config": {"data_format": "channels_last", "name": "global_average_pooling2d_6", "trainable": true}}, {"name": "reshape_6", "class_name": "Reshape", "inbound_nodes": [[["global_average_pooling2d_6", 0, 0, {}]]], "config": {"name": "reshape_6", "trainable": true, "target_shape": [1, 1, 512]}}, {"name": "res3c_branch_se_fc1", "class_name": "Dense", "inbound_nodes": [[["reshape_6", 0, 0, {}]]], "config": {"use_bias": false, "activity_regularizer": null, "units": 32, "kernel_constraint": null, "kernel_regularizer": null, "bias_regularizer": null, "trainable": true, "activation": "relu", "name": "res3c_branch_se_fc1", "bias_initializer": {"config": {}, "class_name": "Zeros"}, "bias_constraint": null, "kernel_initializer": {"config": {"seed": null, "mode": "fan_in", "distribution": "normal", "scale": 2.0}, "class_name": "VarianceScaling"}}}, {"name": "res3c_branch_se_fc2", "class_name": "Dense", "inbound_nodes": [[["res3c_branch_se_fc1", 0, 0, {}]]], "config": {"use_bias": false, "activity_regularizer": null, "units": 512, "kernel_constraint": null, "kernel_regularizer": null, "bias_regularizer": null, "trainable": true, "activation": "sigmoid", "name": "res3c_branch_se_fc2", "bias_initializer": {"config": {}, "class_name": "Zeros"}, "bias_constraint": null, "kernel_initializer": {"config": {"seed": null, "mode": "fan_in", "distribution": "normal", "scale": 2.0}, "class_name": "VarianceScaling"}}}, {"name": "multiply_6", "class_name": "Multiply", "inbound_nodes": [[["bn3c_branch2c", 0, 0, {}], ["res3c_branch_se_fc2", 0, 0, {}]]], "config": {"name": "multiply_6", "trainable": true}}, {"name": "add_6", "class_name": "Add", "inbound_nodes": [[["multiply_6", 0, 0, {}], ["activation_16", 0, 0, {}]]], "config": {"name": "add_6", "trainable": true}}, {"name": "activation_19", "class_name": "Activation", "inbound_nodes": [[["add_6", 0, 0, {}]]], "config": {"activation": "relu", "name": "activation_19", "trainable": true}}, {"name": "res3d_branch2a", "class_name": "Conv2D", "inbound_nodes": [[["activation_19", 0, 0, {}]]], "config": {"use_bias": true, "bias_regularizer": null, "dilation_rate": [1, 1], "activity_regularizer": null, "kernel_size": [1, 1], "kernel_constraint": null, "kernel_regularizer": null, "data_format": "channels_last", "strides": [1, 1], "trainable": true, "padding": "valid", "filters": 128, "activation": "linear", "name": "res3d_branch2a", "bias_initializer": {"config": {}, "class_name": "Zeros"}, "bias_constraint": null, "kernel_initializer": {"config": {"seed": null, "mode": "fan_avg", "distribution": "uniform", "scale": 1.0}, "class_name": "VarianceScaling"}}}, {"name": "bn3d_branch2a", "class_name": "BatchNormalization", "inbound_nodes": [[["res3d_branch2a", 0, 0, {}]]], "config": {"momentum": 0.99, "moving_mean_initializer": {"config": {}, "class_name": "Zeros"}, "scale": true, "axis": 3, "gamma_regularizer": null, "gamma_constraint": null, "moving_variance_initializer": {"config": {}, "class_name": "Ones"}, "beta_constraint": null, "gamma_initializer": {"config": {}, "class_name": "Ones"}, "trainable": true, "name": "bn3d_branch2a", "epsilon": 0.001, "center": true, "beta_regularizer": null, "beta_initializer": {"config": {}, "class_name": "Zeros"}}}, {"name": "activation_20", "class_name": "Activation", "inbound_nodes": [[["bn3d_branch2a", 0, 0, {}]]], "config": {"activation": "relu", "name": "activation_20", "trainable": true}}, {"name": "res3d_branch2b", "class_name": "Conv2D", "inbound_nodes": [[["activation_20", 0, 0, {}]]], "config": {"use_bias": true, "bias_regularizer": null, "dilation_rate": [1, 1], "activity_regularizer": null, "kernel_size": [3, 3], "kernel_constraint": null, "kernel_regularizer": null, "data_format": "channels_last", "strides": [1, 1], "trainable": true, "padding": "same", "filters": 128, "activation": "linear", "name": "res3d_branch2b", "bias_initializer": {"config": {}, "class_name": "Zeros"}, "bias_constraint": null, "kernel_initializer": {"config": {"seed": null, "mode": "fan_avg", "distribution": "uniform", "scale": 1.0}, "class_name": "VarianceScaling"}}}, {"name": "bn3d_branch2b", "class_name": "BatchNormalization", "inbound_nodes": [[["res3d_branch2b", 0, 0, {}]]], "config": {"momentum": 0.99, "moving_mean_initializer": {"config": {}, "class_name": "Zeros"}, "scale": true, "axis": 3, "gamma_regularizer": null, "gamma_constraint": null, "moving_variance_initializer": {"config": {}, "class_name": "Ones"}, "beta_constraint": null, "gamma_initializer": {"config": {}, "class_name": "Ones"}, "trainable": true, "name": "bn3d_branch2b", "epsilon": 0.001, "center": true, "beta_regularizer": null, "beta_initializer": {"config": {}, "class_name": "Zeros"}}}, {"name": "activation_21", "class_name": "Activation", "inbound_nodes": [[["bn3d_branch2b", 0, 0, {}]]], "config": {"activation": "relu", "name": "activation_21", "trainable": true}}, {"name": "res3d_branch2c", "class_name": "Conv2D", "inbound_nodes": [[["activation_21", 0, 0, {}]]], "config": {"use_bias": true, "bias_regularizer": null, "dilation_rate": [1, 1], "activity_regularizer": null, "kernel_size": [1, 1], "kernel_constraint": null, "kernel_regularizer": null, "data_format": "channels_last", "strides": [1, 1], "trainable": true, "padding": "valid", "filters": 512, "activation": "linear", "name": "res3d_branch2c", "bias_initializer": {"config": {}, "class_name": "Zeros"}, "bias_constraint": null, "kernel_initializer": {"config": {"seed": null, "mode": "fan_avg", "distribution": "uniform", "scale": 1.0}, "class_name": "VarianceScaling"}}}, {"name": "bn3d_branch2c", "class_name": "BatchNormalization", "inbound_nodes": [[["res3d_branch2c", 0, 0, {}]]], "config": {"momentum": 0.99, "moving_mean_initializer": {"config": {}, "class_name": "Zeros"}, "scale": true, "axis": 3, "gamma_regularizer": null, "gamma_constraint": null, "moving_variance_initializer": {"config": {}, "class_name": "Ones"}, "beta_constraint": null, "gamma_initializer": {"config": {}, "class_name": "Ones"}, "trainable": true, "name": "bn3d_branch2c", "epsilon": 0.001, "center": true, "beta_regularizer": null, "beta_initializer": {"config": {}, "class_name": "Zeros"}}}, {"name": "global_average_pooling2d_7", "class_name": "GlobalAveragePooling2D", "inbound_nodes": [[["bn3d_branch2c", 0, 0, {}]]], "config": {"data_format": "channels_last", "name": "global_average_pooling2d_7", "trainable": true}}, {"name": "reshape_7", "class_name": "Reshape", "inbound_nodes": [[["global_average_pooling2d_7", 0, 0, {}]]], "config": {"name": "reshape_7", "trainable": true, "target_shape": [1, 1, 512]}}, {"name": "res3d_branch_se_fc1", "class_name": "Dense", "inbound_nodes": [[["reshape_7", 0, 0, {}]]], "config": {"use_bias": false, "activity_regularizer": null, "units": 32, "kernel_constraint": null, "kernel_regularizer": null, "bias_regularizer": null, "trainable": true, "activation": "relu", "name": "res3d_branch_se_fc1", "bias_initializer": {"config": {}, "class_name": "Zeros"}, "bias_constraint": null, "kernel_initializer": {"config": {"seed": null, "mode": "fan_in", "distribution": "normal", "scale": 2.0}, "class_name": "VarianceScaling"}}}, {"name": "res3d_branch_se_fc2", "class_name": "Dense", "inbound_nodes": [[["res3d_branch_se_fc1", 0, 0, {}]]], "config": {"use_bias": false, "activity_regularizer": null, "units": 512, "kernel_constraint": null, "kernel_regularizer": null, "bias_regularizer": null, "trainable": true, "activation": "sigmoid", "name": "res3d_branch_se_fc2", "bias_initializer": {"config": {}, "class_name": "Zeros"}, "bias_constraint": null, "kernel_initializer": {"config": {"seed": null, "mode": "fan_in", "distribution": "normal", "scale": 2.0}, "class_name": "VarianceScaling"}}}, {"name": "multiply_7", "class_name": "Multiply", "inbound_nodes": [[["bn3d_branch2c", 0, 0, {}], ["res3d_branch_se_fc2", 0, 0, {}]]], "config": {"name": "multiply_7", "trainable": true}}, {"name": "add_7", "class_name": "Add", "inbound_nodes": [[["multiply_7", 0, 0, {}], ["activation_19", 0, 0, {}]]], "config": {"name": "add_7", "trainable": true}}, {"name": "activation_22", "class_name": "Activation", "inbound_nodes": [[["add_7", 0, 0, {}]]], "config": {"activation": "relu", "name": "activation_22", "trainable": true}}, {"name": "res4a_branch2a", "class_name": "Conv2D", "inbound_nodes": [[["activation_22", 0, 0, {}]]], "config": {"use_bias": true, "bias_regularizer": null, "dilation_rate": [1, 1], "activity_regularizer": null, "kernel_size": [1, 1], "kernel_constraint": null, "kernel_regularizer": null, "data_format": "channels_last", "strides": [2, 2], "trainable": true, "padding": "valid", "filters": 256, "activation": "linear", "name": "res4a_branch2a", "bias_initializer": {"config": {}, "class_name": "Zeros"}, "bias_constraint": null, "kernel_initializer": {"config": {"seed": null, "mode": "fan_avg", "distribution": "uniform", "scale": 1.0}, "class_name": "VarianceScaling"}}}, {"name": "bn4a_branch2a", "class_name": "BatchNormalization", "inbound_nodes": [[["res4a_branch2a", 0, 0, {}]]], "config": {"momentum": 0.99, "moving_mean_initializer": {"config": {}, "class_name": "Zeros"}, "scale": true, "axis": 3, "gamma_regularizer": null, "gamma_constraint": null, "moving_variance_initializer": {"config": {}, "class_name": "Ones"}, "beta_constraint": null, "gamma_initializer": {"config": {}, "class_name": "Ones"}, "trainable": true, "name": "bn4a_branch2a", "epsilon": 0.001, "center": true, "beta_regularizer": null, "beta_initializer": {"config": {}, "class_name": "Zeros"}}}, {"name": "activation_23", "class_name": "Activation", "inbound_nodes": [[["bn4a_branch2a", 0, 0, {}]]], "config": {"activation": "relu", "name": "activation_23", "trainable": true}}, {"name": "res4a_branch2b", "class_name": "Conv2D", "inbound_nodes": [[["activation_23", 0, 0, {}]]], "config": {"use_bias": true, "bias_regularizer": null, "dilation_rate": [1, 1], "activity_regularizer": null, "kernel_size": [3, 3], "kernel_constraint": null, "kernel_regularizer": null, "data_format": "channels_last", "strides": [1, 1], "trainable": true, "padding": "same", "filters": 256, "activation": "linear", "name": "res4a_branch2b", "bias_initializer": {"config": {}, "class_name": "Zeros"}, "bias_constraint": null, "kernel_initializer": {"config": {"seed": null, "mode": "fan_avg", "distribution": "uniform", "scale": 1.0}, "class_name": "VarianceScaling"}}}, {"name": "bn4a_branch2b", "class_name": "BatchNormalization", "inbound_nodes": [[["res4a_branch2b", 0, 0, {}]]], "config": {"momentum": 0.99, "moving_mean_initializer": {"config": {}, "class_name": "Zeros"}, "scale": true, "axis": 3, "gamma_regularizer": null, "gamma_constraint": null, "moving_variance_initializer": {"config": {}, "class_name": "Ones"}, "beta_constraint": null, "gamma_initializer": {"config": {}, "class_name": "Ones"}, "trainable": true, "name": "bn4a_branch2b", "epsilon": 0.001, "center": true, "beta_regularizer": null, "beta_initializer": {"config": {}, "class_name": "Zeros"}}}, {"name": "activation_24", "class_name": "Activation", "inbound_nodes": [[["bn4a_branch2b", 0, 0, {}]]], "config": {"activation": "relu", "name": "activation_24", "trainable": true}}, {"name": "res4a_branch2c", "class_name": "Conv2D", "inbound_nodes": [[["activation_24", 0, 0, {}]]], "config": {"use_bias": true, "bias_regularizer": null, "dilation_rate": [1, 1], "activity_regularizer": null, "kernel_size": [1, 1], "kernel_constraint": null, "kernel_regularizer": null, "data_format": "channels_last", "strides": [1, 1], "trainable": true, "padding": "valid", "filters": 1024, "activation": "linear", "name": "res4a_branch2c", "bias_initializer": {"config": {}, "class_name": "Zeros"}, "bias_constraint": null, "kernel_initializer": {"config": {"seed": null, "mode": "fan_avg", "distribution": "uniform", "scale": 1.0}, "class_name": "VarianceScaling"}}}, {"name": "bn4a_branch2c", "class_name": "BatchNormalization", "inbound_nodes": [[["res4a_branch2c", 0, 0, {}]]], "config": {"momentum": 0.99, "moving_mean_initializer": {"config": {}, "class_name": "Zeros"}, "scale": true, "axis": 3, "gamma_regularizer": null, "gamma_constraint": null, "moving_variance_initializer": {"config": {}, "class_name": "Ones"}, "beta_constraint": null, "gamma_initializer": {"config": {}, "class_name": "Ones"}, "trainable": true, "name": "bn4a_branch2c", "epsilon": 0.001, "center": true, "beta_regularizer": null, "beta_initializer": {"config": {}, "class_name": "Zeros"}}}, {"name": "global_average_pooling2d_8", "class_name": "GlobalAveragePooling2D", "inbound_nodes": [[["bn4a_branch2c", 0, 0, {}]]], "config": {"data_format": "channels_last", "name": "global_average_pooling2d_8", "trainable": true}}, {"name": "reshape_8", "class_name": "Reshape", "inbound_nodes": [[["global_average_pooling2d_8", 0, 0, {}]]], "config": {"name": "reshape_8", "trainable": true, "target_shape": [1, 1, 1024]}}, {"name": "res4a_branch_se_fc1", "class_name": "Dense", "inbound_nodes": [[["reshape_8", 0, 0, {}]]], "config": {"use_bias": false, "activity_regularizer": null, "units": 64, "kernel_constraint": null, "kernel_regularizer": null, "bias_regularizer": null, "trainable": true, "activation": "relu", "name": "res4a_branch_se_fc1", "bias_initializer": {"config": {}, "class_name": "Zeros"}, "bias_constraint": null, "kernel_initializer": {"config": {"seed": null, "mode": "fan_in", "distribution": "normal", "scale": 2.0}, "class_name": "VarianceScaling"}}}, {"name": "res4a_branch_se_fc2", "class_name": "Dense", "inbound_nodes": [[["res4a_branch_se_fc1", 0, 0, {}]]], "config": {"use_bias": false, "activity_regularizer": null, "units": 1024, "kernel_constraint": null, "kernel_regularizer": null, "bias_regularizer": null, "trainable": true, "activation": "sigmoid", "name": "res4a_branch_se_fc2", "bias_initializer": {"config": {}, "class_name": "Zeros"}, "bias_constraint": null, "kernel_initializer": {"config": {"seed": null, "mode": "fan_in", "distribution": "normal", "scale": 2.0}, "class_name": "VarianceScaling"}}}, {"name": "res4a_branch1", "class_name": "Conv2D", "inbound_nodes": [[["activation_22", 0, 0, {}]]], "config": {"use_bias": true, "bias_regularizer": null, "dilation_rate": [1, 1], "activity_regularizer": null, "kernel_size": [1, 1], "kernel_constraint": null, "kernel_regularizer": null, "data_format": "channels_last", "strides": [2, 2], "trainable": true, "padding": "valid", "filters": 1024, "activation": "linear", "name": "res4a_branch1", "bias_initializer": {"config": {}, "class_name": "Zeros"}, "bias_constraint": null, "kernel_initializer": {"config": {"seed": null, "mode": "fan_avg", "distribution": "uniform", "scale": 1.0}, "class_name": "VarianceScaling"}}}, {"name": "multiply_8", "class_name": "Multiply", "inbound_nodes": [[["bn4a_branch2c", 0, 0, {}], ["res4a_branch_se_fc2", 0, 0, {}]]], "config": {"name": "multiply_8", "trainable": true}}, {"name": "bn4a_branch1", "class_name": "BatchNormalization", "inbound_nodes": [[["res4a_branch1", 0, 0, {}]]], "config": {"momentum": 0.99, "moving_mean_initializer": {"config": {}, "class_name": "Zeros"}, "scale": true, "axis": 3, "gamma_regularizer": null, "gamma_constraint": null, "moving_variance_initializer": {"config": {}, "class_name": "Ones"}, "beta_constraint": null, "gamma_initializer": {"config": {}, "class_name": "Ones"}, "trainable": true, "name": "bn4a_branch1", "epsilon": 0.001, "center": true, "beta_regularizer": null, "beta_initializer": {"config": {}, "class_name": "Zeros"}}}, {"name": "add_8", "class_name": "Add", "inbound_nodes": [[["multiply_8", 0, 0, {}], ["bn4a_branch1", 0, 0, {}]]], "config": {"name": "add_8", "trainable": true}}, {"name": "activation_25", "class_name": "Activation", "inbound_nodes": [[["add_8", 0, 0, {}]]], "config": {"activation": "relu", "name": "activation_25", "trainable": true}}, {"name": "res4b_branch2a", "class_name": "Conv2D", "inbound_nodes": [[["activation_25", 0, 0, {}]]], "config": {"use_bias": true, "bias_regularizer": null, "dilation_rate": [1, 1], "activity_regularizer": null, "kernel_size": [1, 1], "kernel_constraint": null, "kernel_regularizer": null, "data_format": "channels_last", "strides": [1, 1], "trainable": true, "padding": "valid", "filters": 256, "activation": "linear", "name": "res4b_branch2a", "bias_initializer": {"config": {}, "class_name": "Zeros"}, "bias_constraint": null, "kernel_initializer": {"config": {"seed": null, "mode": "fan_avg", "distribution": "uniform", "scale": 1.0}, "class_name": "VarianceScaling"}}}, {"name": "bn4b_branch2a", "class_name": "BatchNormalization", "inbound_nodes": [[["res4b_branch2a", 0, 0, {}]]], "config": {"momentum": 0.99, "moving_mean_initializer": {"config": {}, "class_name": "Zeros"}, "scale": true, "axis": 3, "gamma_regularizer": null, "gamma_constraint": null, "moving_variance_initializer": {"config": {}, "class_name": "Ones"}, "beta_constraint": null, "gamma_initializer": {"config": {}, "class_name": "Ones"}, "trainable": true, "name": "bn4b_branch2a", "epsilon": 0.001, "center": true, "beta_regularizer": null, "beta_initializer": {"config": {}, "class_name": "Zeros"}}}, {"name": "activation_26", "class_name": "Activation", "inbound_nodes": [[["bn4b_branch2a", 0, 0, {}]]], "config": {"activation": "relu", "name": "activation_26", "trainable": true}}, {"name": "res4b_branch2b", "class_name": "Conv2D", "inbound_nodes": [[["activation_26", 0, 0, {}]]], "config": {"use_bias": true, "bias_regularizer": null, "dilation_rate": [1, 1], "activity_regularizer": null, "kernel_size": [3, 3], "kernel_constraint": null, "kernel_regularizer": null, "data_format": "channels_last", "strides": [1, 1], "trainable": true, "padding": "same", "filters": 256, "activation": "linear", "name": "res4b_branch2b", "bias_initializer": {"config": {}, "class_name": "Zeros"}, "bias_constraint": null, "kernel_initializer": {"config": {"seed": null, "mode": "fan_avg", "distribution": "uniform", "scale": 1.0}, "class_name": "VarianceScaling"}}}, {"name": "bn4b_branch2b", "class_name": "BatchNormalization", "inbound_nodes": [[["res4b_branch2b", 0, 0, {}]]], "config": {"momentum": 0.99, "moving_mean_initializer": {"config": {}, "class_name": "Zeros"}, "scale": true, "axis": 3, "gamma_regularizer": null, "gamma_constraint": null, "moving_variance_initializer": {"config": {}, "class_name": "Ones"}, "beta_constraint": null, "gamma_initializer": {"config": {}, "class_name": "Ones"}, "trainable": true, "name": "bn4b_branch2b", "epsilon": 0.001, "center": true, "beta_regularizer": null, "beta_initializer": {"config": {}, "class_name": "Zeros"}}}, {"name": "activation_27", "class_name": "Activation", "inbound_nodes": [[["bn4b_branch2b", 0, 0, {}]]], "config": {"activation": "relu", "name": "activation_27", "trainable": true}}, {"name": "res4b_branch2c", "class_name": "Conv2D", "inbound_nodes": [[["activation_27", 0, 0, {}]]], "config": {"use_bias": true, "bias_regularizer": null, "dilation_rate": [1, 1], "activity_regularizer": null, "kernel_size": [1, 1], "kernel_constraint": null, "kernel_regularizer": null, "data_format": "channels_last", "strides": [1, 1], "trainable": true, "padding": "valid", "filters": 1024, "activation": "linear", "name": "res4b_branch2c", "bias_initializer": {"config": {}, "class_name": "Zeros"}, "bias_constraint": null, "kernel_initializer": {"config": {"seed": null, "mode": "fan_avg", "distribution": "uniform", "scale": 1.0}, "class_name": "VarianceScaling"}}}, {"name": "bn4b_branch2c", "class_name": "BatchNormalization", "inbound_nodes": [[["res4b_branch2c", 0, 0, {}]]], "config": {"momentum": 0.99, "moving_mean_initializer": {"config": {}, "class_name": "Zeros"}, "scale": true, "axis": 3, "gamma_regularizer": null, "gamma_constraint": null, "moving_variance_initializer": {"config": {}, "class_name": "Ones"}, "beta_constraint": null, "gamma_initializer": {"config": {}, "class_name": "Ones"}, "trainable": true, "name": "bn4b_branch2c", "epsilon": 0.001, "center": true, "beta_regularizer": null, "beta_initializer": {"config": {}, "class_name": "Zeros"}}}, {"name": "global_average_pooling2d_9", "class_name": "GlobalAveragePooling2D", "inbound_nodes": [[["bn4b_branch2c", 0, 0, {}]]], "config": {"data_format": "channels_last", "name": "global_average_pooling2d_9", "trainable": true}}, {"name": "reshape_9", "class_name": "Reshape", "inbound_nodes": [[["global_average_pooling2d_9", 0, 0, {}]]], "config": {"name": "reshape_9", "trainable": true, "target_shape": [1, 1, 1024]}}, {"name": "res4b_branch_se_fc1", "class_name": "Dense", "inbound_nodes": [[["reshape_9", 0, 0, {}]]], "config": {"use_bias": false, "activity_regularizer": null, "units": 64, "kernel_constraint": null, "kernel_regularizer": null, "bias_regularizer": null, "trainable": true, "activation": "relu", "name": "res4b_branch_se_fc1", "bias_initializer": {"config": {}, "class_name": "Zeros"}, "bias_constraint": null, "kernel_initializer": {"config": {"seed": null, "mode": "fan_in", "distribution": "normal", "scale": 2.0}, "class_name": "VarianceScaling"}}}, {"name": "res4b_branch_se_fc2", "class_name": "Dense", "inbound_nodes": [[["res4b_branch_se_fc1", 0, 0, {}]]], "config": {"use_bias": false, "activity_regularizer": null, "units": 1024, "kernel_constraint": null, "kernel_regularizer": null, "bias_regularizer": null, "trainable": true, "activation": "sigmoid", "name": "res4b_branch_se_fc2", "bias_initializer": {"config": {}, "class_name": "Zeros"}, "bias_constraint": null, "kernel_initializer": {"config": {"seed": null, "mode": "fan_in", "distribution": "normal", "scale": 2.0}, "class_name": "VarianceScaling"}}}, {"name": "multiply_9", "class_name": "Multiply", "inbound_nodes": [[["bn4b_branch2c", 0, 0, {}], ["res4b_branch_se_fc2", 0, 0, {}]]], "config": {"name": "multiply_9", "trainable": true}}, {"name": "add_9", "class_name": "Add", "inbound_nodes": [[["multiply_9", 0, 0, {}], ["activation_25", 0, 0, {}]]], "config": {"name": "add_9", "trainable": true}}, {"name": "activation_28", "class_name": "Activation", "inbound_nodes": [[["add_9", 0, 0, {}]]], "config": {"activation": "relu", "name": "activation_28", "trainable": true}}, {"name": "res4c_branch2a", "class_name": "Conv2D", "inbound_nodes": [[["activation_28", 0, 0, {}]]], "config": {"use_bias": true, "bias_regularizer": null, "dilation_rate": [1, 1], "activity_regularizer": null, "kernel_size": [1, 1], "kernel_constraint": null, "kernel_regularizer": null, "data_format": "channels_last", "strides": [1, 1], "trainable": true, "padding": "valid", "filters": 256, "activation": "linear", "name": "res4c_branch2a", "bias_initializer": {"config": {}, "class_name": "Zeros"}, "bias_constraint": null, "kernel_initializer": {"config": {"seed": null, "mode": "fan_avg", "distribution": "uniform", "scale": 1.0}, "class_name": "VarianceScaling"}}}, {"name": "bn4c_branch2a", "class_name": "BatchNormalization", "inbound_nodes": [[["res4c_branch2a", 0, 0, {}]]], "config": {"momentum": 0.99, "moving_mean_initializer": {"config": {}, "class_name": "Zeros"}, "scale": true, "axis": 3, "gamma_regularizer": null, "gamma_constraint": null, "moving_variance_initializer": {"config": {}, "class_name": "Ones"}, "beta_constraint": null, "gamma_initializer": {"config": {}, "class_name": "Ones"}, "trainable": true, "name": "bn4c_branch2a", "epsilon": 0.001, "center": true, "beta_regularizer": null, "beta_initializer": {"config": {}, "class_name": "Zeros"}}}, {"name": "activation_29", "class_name": "Activation", "inbound_nodes": [[["bn4c_branch2a", 0, 0, {}]]], "config": {"activation": "relu", "name": "activation_29", "trainable": true}}, {"name": "res4c_branch2b", "class_name": "Conv2D", "inbound_nodes": [[["activation_29", 0, 0, {}]]], "config": {"use_bias": true, "bias_regularizer": null, "dilation_rate": [1, 1], "activity_regularizer": null, "kernel_size": [3, 3], "kernel_constraint": null, "kernel_regularizer": null, "data_format": "channels_last", "strides": [1, 1], "trainable": true, "padding": "same", "filters": 256, "activation": "linear", "name": "res4c_branch2b", "bias_initializer": {"config": {}, "class_name": "Zeros"}, "bias_constraint": null, "kernel_initializer": {"config": {"seed": null, "mode": "fan_avg", "distribution": "uniform", "scale": 1.0}, "class_name": "VarianceScaling"}}}, {"name": "bn4c_branch2b", "class_name": "BatchNormalization", "inbound_nodes": [[["res4c_branch2b", 0, 0, {}]]], "config": {"momentum": 0.99, "moving_mean_initializer": {"config": {}, "class_name": "Zeros"}, "scale": true, "axis": 3, "gamma_regularizer": null, "gamma_constraint": null, "moving_variance_initializer": {"config": {}, "class_name": "Ones"}, "beta_constraint": null, "gamma_initializer": {"config": {}, "class_name": "Ones"}, "trainable": true, "name": "bn4c_branch2b", "epsilon": 0.001, "center": true, "beta_regularizer": null, "beta_initializer": {"config": {}, "class_name": "Zeros"}}}, {"name": "activation_30", "class_name": "Activation", "inbound_nodes": [[["bn4c_branch2b", 0, 0, {}]]], "config": {"activation": "relu", "name": "activation_30", "trainable": true}}, {"name": "res4c_branch2c", "class_name": "Conv2D", "inbound_nodes": [[["activation_30", 0, 0, {}]]], "config": {"use_bias": true, "bias_regularizer": null, "dilation_rate": [1, 1], "activity_regularizer": null, "kernel_size": [1, 1], "kernel_constraint": null, "kernel_regularizer": null, "data_format": "channels_last", "strides": [1, 1], "trainable": true, "padding": "valid", "filters": 1024, "activation": "linear", "name": "res4c_branch2c", "bias_initializer": {"config": {}, "class_name": "Zeros"}, "bias_constraint": null, "kernel_initializer": {"config": {"seed": null, "mode": "fan_avg", "distribution": "uniform", "scale": 1.0}, "class_name": "VarianceScaling"}}}, {"name": "bn4c_branch2c", "class_name": "BatchNormalization", "inbound_nodes": [[["res4c_branch2c", 0, 0, {}]]], "config": {"momentum": 0.99, "moving_mean_initializer": {"config": {}, "class_name": "Zeros"}, "scale": true, "axis": 3, "gamma_regularizer": null, "gamma_constraint": null, "moving_variance_initializer": {"config": {}, "class_name": "Ones"}, "beta_constraint": null, "gamma_initializer": {"config": {}, "class_name": "Ones"}, "trainable": true, "name": "bn4c_branch2c", "epsilon": 0.001, "center": true, "beta_regularizer": null, "beta_initializer": {"config": {}, "class_name": "Zeros"}}}, {"name": "global_average_pooling2d_10", "class_name": "GlobalAveragePooling2D", "inbound_nodes": [[["bn4c_branch2c", 0, 0, {}]]], "config": {"data_format": "channels_last", "name": "global_average_pooling2d_10", "trainable": true}}, {"name": "reshape_10", "class_name": "Reshape", "inbound_nodes": [[["global_average_pooling2d_10", 0, 0, {}]]], "config": {"name": "reshape_10", "trainable": true, "target_shape": [1, 1, 1024]}}, {"name": "res4c_branch_se_fc1", "class_name": "Dense", "inbound_nodes": [[["reshape_10", 0, 0, {}]]], "config": {"use_bias": false, "activity_regularizer": null, "units": 64, "kernel_constraint": null, "kernel_regularizer": null, "bias_regularizer": null, "trainable": true, "activation": "relu", "name": "res4c_branch_se_fc1", "bias_initializer": {"config": {}, "class_name": "Zeros"}, "bias_constraint": null, "kernel_initializer": {"config": {"seed": null, "mode": "fan_in", "distribution": "normal", "scale": 2.0}, "class_name": "VarianceScaling"}}}, {"name": "res4c_branch_se_fc2", "class_name": "Dense", "inbound_nodes": [[["res4c_branch_se_fc1", 0, 0, {}]]], "config": {"use_bias": false, "activity_regularizer": null, "units": 1024, "kernel_constraint": null, "kernel_regularizer": null, "bias_regularizer": null, "trainable": true, "activation": "sigmoid", "name": "res4c_branch_se_fc2", "bias_initializer": {"config": {}, "class_name": "Zeros"}, "bias_constraint": null, "kernel_initializer": {"config": {"seed": null, "mode": "fan_in", "distribution": "normal", "scale": 2.0}, "class_name": "VarianceScaling"}}}, {"name": "multiply_10", "class_name": "Multiply", "inbound_nodes": [[["bn4c_branch2c", 0, 0, {}], ["res4c_branch_se_fc2", 0, 0, {}]]], "config": {"name": "multiply_10", "trainable": true}}, {"name": "add_10", "class_name": "Add", "inbound_nodes": [[["multiply_10", 0, 0, {}], ["activation_28", 0, 0, {}]]], "config": {"name": "add_10", "trainable": true}}, {"name": "activation_31", "class_name": "Activation", "inbound_nodes": [[["add_10", 0, 0, {}]]], "config": {"activation": "relu", "name": "activation_31", "trainable": true}}, {"name": "res4d_branch2a", "class_name": "Conv2D", "inbound_nodes": [[["activation_31", 0, 0, {}]]], "config": {"use_bias": true, "bias_regularizer": null, "dilation_rate": [1, 1], "activity_regularizer": null, "kernel_size": [1, 1], "kernel_constraint": null, "kernel_regularizer": null, "data_format": "channels_last", "strides": [1, 1], "trainable": true, "padding": "valid", "filters": 256, "activation": "linear", "name": "res4d_branch2a", "bias_initializer": {"config": {}, "class_name": "Zeros"}, "bias_constraint": null, "kernel_initializer": {"config": {"seed": null, "mode": "fan_avg", "distribution": "uniform", "scale": 1.0}, "class_name": "VarianceScaling"}}}, {"name": "bn4d_branch2a", "class_name": "BatchNormalization", "inbound_nodes": [[["res4d_branch2a", 0, 0, {}]]], "config": {"momentum": 0.99, "moving_mean_initializer": {"config": {}, "class_name": "Zeros"}, "scale": true, "axis": 3, "gamma_regularizer": null, "gamma_constraint": null, "moving_variance_initializer": {"config": {}, "class_name": "Ones"}, "beta_constraint": null, "gamma_initializer": {"config": {}, "class_name": "Ones"}, "trainable": true, "name": "bn4d_branch2a", "epsilon": 0.001, "center": true, "beta_regularizer": null, "beta_initializer": {"config": {}, "class_name": "Zeros"}}}, {"name": "activation_32", "class_name": "Activation", "inbound_nodes": [[["bn4d_branch2a", 0, 0, {}]]], "config": {"activation": "relu", "name": "activation_32", "trainable": true}}, {"name": "res4d_branch2b", "class_name": "Conv2D", "inbound_nodes": [[["activation_32", 0, 0, {}]]], "config": {"use_bias": true, "bias_regularizer": null, "dilation_rate": [1, 1], "activity_regularizer": null, "kernel_size": [3, 3], "kernel_constraint": null, "kernel_regularizer": null, "data_format": "channels_last", "strides": [1, 1], "trainable": true, "padding": "same", "filters": 256, "activation": "linear", "name": "res4d_branch2b", "bias_initializer": {"config": {}, "class_name": "Zeros"}, "bias_constraint": null, "kernel_initializer": {"config": {"seed": null, "mode": "fan_avg", "distribution": "uniform", "scale": 1.0}, "class_name": "VarianceScaling"}}}, {"name": "bn4d_branch2b", "class_name": "BatchNormalization", "inbound_nodes": [[["res4d_branch2b", 0, 0, {}]]], "config": {"momentum": 0.99, "moving_mean_initializer": {"config": {}, "class_name": "Zeros"}, "scale": true, "axis": 3, "gamma_regularizer": null, "gamma_constraint": null, "moving_variance_initializer": {"config": {}, "class_name": "Ones"}, "beta_constraint": null, "gamma_initializer": {"config": {}, "class_name": "Ones"}, "trainable": true, "name": "bn4d_branch2b", "epsilon": 0.001, "center": true, "beta_regularizer": null, "beta_initializer": {"config": {}, "class_name": "Zeros"}}}, {"name": "activation_33", "class_name": "Activation", "inbound_nodes": [[["bn4d_branch2b", 0, 0, {}]]], "config": {"activation": "relu", "name": "activation_33", "trainable": true}}, {"name": "res4d_branch2c", "class_name": "Conv2D", "inbound_nodes": [[["activation_33", 0, 0, {}]]], "config": {"use_bias": true, "bias_regularizer": null, "dilation_rate": [1, 1], "activity_regularizer": null, "kernel_size": [1, 1], "kernel_constraint": null, "kernel_regularizer": null, "data_format": "channels_last", "strides": [1, 1], "trainable": true, "padding": "valid", "filters": 1024, "activation": "linear", "name": "res4d_branch2c", "bias_initializer": {"config": {}, "class_name": "Zeros"}, "bias_constraint": null, "kernel_initializer": {"config": {"seed": null, "mode": "fan_avg", "distribution": "uniform", "scale": 1.0}, "class_name": "VarianceScaling"}}}, {"name": "bn4d_branch2c", "class_name": "BatchNormalization", "inbound_nodes": [[["res4d_branch2c", 0, 0, {}]]], "config": {"momentum": 0.99, "moving_mean_initializer": {"config": {}, "class_name": "Zeros"}, "scale": true, "axis": 3, "gamma_regularizer": null, "gamma_constraint": null, "moving_variance_initializer": {"config": {}, "class_name": "Ones"}, "beta_constraint": null, "gamma_initializer": {"config": {}, "class_name": "Ones"}, "trainable": true, "name": "bn4d_branch2c", "epsilon": 0.001, "center": true, "beta_regularizer": null, "beta_initializer": {"config": {}, "class_name": "Zeros"}}}, {"name": "global_average_pooling2d_11", "class_name": "GlobalAveragePooling2D", "inbound_nodes": [[["bn4d_branch2c", 0, 0, {}]]], "config": {"data_format": "channels_last", "name": "global_average_pooling2d_11", "trainable": true}}, {"name": "reshape_11", "class_name": "Reshape", "inbound_nodes": [[["global_average_pooling2d_11", 0, 0, {}]]], "config": {"name": "reshape_11", "trainable": true, "target_shape": [1, 1, 1024]}}, {"name": "res4d_branch_se_fc1", "class_name": "Dense", "inbound_nodes": [[["reshape_11", 0, 0, {}]]], "config": {"use_bias": false, "activity_regularizer": null, "units": 64, "kernel_constraint": null, "kernel_regularizer": null, "bias_regularizer": null, "trainable": true, "activation": "relu", "name": "res4d_branch_se_fc1", "bias_initializer": {"config": {}, "class_name": "Zeros"}, "bias_constraint": null, "kernel_initializer": {"config": {"seed": null, "mode": "fan_in", "distribution": "normal", "scale": 2.0}, "class_name": "VarianceScaling"}}}, {"name": "res4d_branch_se_fc2", "class_name": "Dense", "inbound_nodes": [[["res4d_branch_se_fc1", 0, 0, {}]]], "config": {"use_bias": false, "activity_regularizer": null, "units": 1024, "kernel_constraint": null, "kernel_regularizer": null, "bias_regularizer": null, "trainable": true, "activation": "sigmoid", "name": "res4d_branch_se_fc2", "bias_initializer": {"config": {}, "class_name": "Zeros"}, "bias_constraint": null, "kernel_initializer": {"config": {"seed": null, "mode": "fan_in", "distribution": "normal", "scale": 2.0}, "class_name": "VarianceScaling"}}}, {"name": "multiply_11", "class_name": "Multiply", "inbound_nodes": [[["bn4d_branch2c", 0, 0, {}], ["res4d_branch_se_fc2", 0, 0, {}]]], "config": {"name": "multiply_11", "trainable": true}}, {"name": "add_11", "class_name": "Add", "inbound_nodes": [[["multiply_11", 0, 0, {}], ["activation_31", 0, 0, {}]]], "config": {"name": "add_11", "trainable": true}}, {"name": "activation_34", "class_name": "Activation", "inbound_nodes": [[["add_11", 0, 0, {}]]], "config": {"activation": "relu", "name": "activation_34", "trainable": true}}, {"name": "res4e_branch2a", "class_name": "Conv2D", "inbound_nodes": [[["activation_34", 0, 0, {}]]], "config": {"use_bias": true, "bias_regularizer": null, "dilation_rate": [1, 1], "activity_regularizer": null, "kernel_size": [1, 1], "kernel_constraint": null, "kernel_regularizer": null, "data_format": "channels_last", "strides": [1, 1], "trainable": true, "padding": "valid", "filters": 256, "activation": "linear", "name": "res4e_branch2a", "bias_initializer": {"config": {}, "class_name": "Zeros"}, "bias_constraint": null, "kernel_initializer": {"config": {"seed": null, "mode": "fan_avg", "distribution": "uniform", "scale": 1.0}, "class_name": "VarianceScaling"}}}, {"name": "bn4e_branch2a", "class_name": "BatchNormalization", "inbound_nodes": [[["res4e_branch2a", 0, 0, {}]]], "config": {"momentum": 0.99, "moving_mean_initializer": {"config": {}, "class_name": "Zeros"}, "scale": true, "axis": 3, "gamma_regularizer": null, "gamma_constraint": null, "moving_variance_initializer": {"config": {}, "class_name": "Ones"}, "beta_constraint": null, "gamma_initializer": {"config": {}, "class_name": "Ones"}, "trainable": true, "name": "bn4e_branch2a", "epsilon": 0.001, "center": true, "beta_regularizer": null, "beta_initializer": {"config": {}, "class_name": "Zeros"}}}, {"name": "activation_35", "class_name": "Activation", "inbound_nodes": [[["bn4e_branch2a", 0, 0, {}]]], "config": {"activation": "relu", "name": "activation_35", "trainable": true}}, {"name": "res4e_branch2b", "class_name": "Conv2D", "inbound_nodes": [[["activation_35", 0, 0, {}]]], "config": {"use_bias": true, "bias_regularizer": null, "dilation_rate": [1, 1], "activity_regularizer": null, "kernel_size": [3, 3], "kernel_constraint": null, "kernel_regularizer": null, "data_format": "channels_last", "strides": [1, 1], "trainable": true, "padding": "same", "filters": 256, "activation": "linear", "name": "res4e_branch2b", "bias_initializer": {"config": {}, "class_name": "Zeros"}, "bias_constraint": null, "kernel_initializer": {"config": {"seed": null, "mode": "fan_avg", "distribution": "uniform", "scale": 1.0}, "class_name": "VarianceScaling"}}}, {"name": "bn4e_branch2b", "class_name": "BatchNormalization", "inbound_nodes": [[["res4e_branch2b", 0, 0, {}]]], "config": {"momentum": 0.99, "moving_mean_initializer": {"config": {}, "class_name": "Zeros"}, "scale": true, "axis": 3, "gamma_regularizer": null, "gamma_constraint": null, "moving_variance_initializer": {"config": {}, "class_name": "Ones"}, "beta_constraint": null, "gamma_initializer": {"config": {}, "class_name": "Ones"}, "trainable": true, "name": "bn4e_branch2b", "epsilon": 0.001, "center": true, "beta_regularizer": null, "beta_initializer": {"config": {}, "class_name": "Zeros"}}}, {"name": "activation_36", "class_name": "Activation", "inbound_nodes": [[["bn4e_branch2b", 0, 0, {}]]], "config": {"activation": "relu", "name": "activation_36", "trainable": true}}, {"name": "res4e_branch2c", "class_name": "Conv2D", "inbound_nodes": [[["activation_36", 0, 0, {}]]], "config": {"use_bias": true, "bias_regularizer": null, "dilation_rate": [1, 1], "activity_regularizer": null, "kernel_size": [1, 1], "kernel_constraint": null, "kernel_regularizer": null, "data_format": "channels_last", "strides": [1, 1], "trainable": true, "padding": "valid", "filters": 1024, "activation": "linear", "name": "res4e_branch2c", "bias_initializer": {"config": {}, "class_name": "Zeros"}, "bias_constraint": null, "kernel_initializer": {"config": {"seed": null, "mode": "fan_avg", "distribution": "uniform", "scale": 1.0}, "class_name": "VarianceScaling"}}}, {"name": "bn4e_branch2c", "class_name": "BatchNormalization", "inbound_nodes": [[["res4e_branch2c", 0, 0, {}]]], "config": {"momentum": 0.99, "moving_mean_initializer": {"config": {}, "class_name": "Zeros"}, "scale": true, "axis": 3, "gamma_regularizer": null, "gamma_constraint": null, "moving_variance_initializer": {"config": {}, "class_name": "Ones"}, "beta_constraint": null, "gamma_initializer": {"config": {}, "class_name": "Ones"}, "trainable": true, "name": "bn4e_branch2c", "epsilon": 0.001, "center": true, "beta_regularizer": null, "beta_initializer": {"config": {}, "class_name": "Zeros"}}}, {"name": "global_average_pooling2d_12", "class_name": "GlobalAveragePooling2D", "inbound_nodes": [[["bn4e_branch2c", 0, 0, {}]]], "config": {"data_format": "channels_last", "name": "global_average_pooling2d_12", "trainable": true}}, {"name": "reshape_12", "class_name": "Reshape", "inbound_nodes": [[["global_average_pooling2d_12", 0, 0, {}]]], "config": {"name": "reshape_12", "trainable": true, "target_shape": [1, 1, 1024]}}, {"name": "res4e_branch_se_fc1", "class_name": "Dense", "inbound_nodes": [[["reshape_12", 0, 0, {}]]], "config": {"use_bias": false, "activity_regularizer": null, "units": 64, "kernel_constraint": null, "kernel_regularizer": null, "bias_regularizer": null, "trainable": true, "activation": "relu", "name": "res4e_branch_se_fc1", "bias_initializer": {"config": {}, "class_name": "Zeros"}, "bias_constraint": null, "kernel_initializer": {"config": {"seed": null, "mode": "fan_in", "distribution": "normal", "scale": 2.0}, "class_name": "VarianceScaling"}}}, {"name": "res4e_branch_se_fc2", "class_name": "Dense", "inbound_nodes": [[["res4e_branch_se_fc1", 0, 0, {}]]], "config": {"use_bias": false, "activity_regularizer": null, "units": 1024, "kernel_constraint": null, "kernel_regularizer": null, "bias_regularizer": null, "trainable": true, "activation": "sigmoid", "name": "res4e_branch_se_fc2", "bias_initializer": {"config": {}, "class_name": "Zeros"}, "bias_constraint": null, "kernel_initializer": {"config": {"seed": null, "mode": "fan_in", "distribution": "normal", "scale": 2.0}, "class_name": "VarianceScaling"}}}, {"name": "multiply_12", "class_name": "Multiply", "inbound_nodes": [[["bn4e_branch2c", 0, 0, {}], ["res4e_branch_se_fc2", 0, 0, {}]]], "config": {"name": "multiply_12", "trainable": true}}, {"name": "add_12", "class_name": "Add", "inbound_nodes": [[["multiply_12", 0, 0, {}], ["activation_34", 0, 0, {}]]], "config": {"name": "add_12", "trainable": true}}, {"name": "activation_37", "class_name": "Activation", "inbound_nodes": [[["add_12", 0, 0, {}]]], "config": {"activation": "relu", "name": "activation_37", "trainable": true}}, {"name": "res4f_branch2a", "class_name": "Conv2D", "inbound_nodes": [[["activation_37", 0, 0, {}]]], "config": {"use_bias": true, "bias_regularizer": null, "dilation_rate": [1, 1], "activity_regularizer": null, "kernel_size": [1, 1], "kernel_constraint": null, "kernel_regularizer": null, "data_format": "channels_last", "strides": [1, 1], "trainable": true, "padding": "valid", "filters": 256, "activation": "linear", "name": "res4f_branch2a", "bias_initializer": {"config": {}, "class_name": "Zeros"}, "bias_constraint": null, "kernel_initializer": {"config": {"seed": null, "mode": "fan_avg", "distribution": "uniform", "scale": 1.0}, "class_name": "VarianceScaling"}}}, {"name": "bn4f_branch2a", "class_name": "BatchNormalization", "inbound_nodes": [[["res4f_branch2a", 0, 0, {}]]], "config": {"momentum": 0.99, "moving_mean_initializer": {"config": {}, "class_name": "Zeros"}, "scale": true, "axis": 3, "gamma_regularizer": null, "gamma_constraint": null, "moving_variance_initializer": {"config": {}, "class_name": "Ones"}, "beta_constraint": null, "gamma_initializer": {"config": {}, "class_name": "Ones"}, "trainable": true, "name": "bn4f_branch2a", "epsilon": 0.001, "center": true, "beta_regularizer": null, "beta_initializer": {"config": {}, "class_name": "Zeros"}}}, {"name": "activation_38", "class_name": "Activation", "inbound_nodes": [[["bn4f_branch2a", 0, 0, {}]]], "config": {"activation": "relu", "name": "activation_38", "trainable": true}}, {"name": "res4f_branch2b", "class_name": "Conv2D", "inbound_nodes": [[["activation_38", 0, 0, {}]]], "config": {"use_bias": true, "bias_regularizer": null, "dilation_rate": [1, 1], "activity_regularizer": null, "kernel_size": [3, 3], "kernel_constraint": null, "kernel_regularizer": null, "data_format": "channels_last", "strides": [1, 1], "trainable": true, "padding": "same", "filters": 256, "activation": "linear", "name": "res4f_branch2b", "bias_initializer": {"config": {}, "class_name": "Zeros"}, "bias_constraint": null, "kernel_initializer": {"config": {"seed": null, "mode": "fan_avg", "distribution": "uniform", "scale": 1.0}, "class_name": "VarianceScaling"}}}, {"name": "bn4f_branch2b", "class_name": "BatchNormalization", "inbound_nodes": [[["res4f_branch2b", 0, 0, {}]]], "config": {"momentum": 0.99, "moving_mean_initializer": {"config": {}, "class_name": "Zeros"}, "scale": true, "axis": 3, "gamma_regularizer": null, "gamma_constraint": null, "moving_variance_initializer": {"config": {}, "class_name": "Ones"}, "beta_constraint": null, "gamma_initializer": {"config": {}, "class_name": "Ones"}, "trainable": true, "name": "bn4f_branch2b", "epsilon": 0.001, "center": true, "beta_regularizer": null, "beta_initializer": {"config": {}, "class_name": "Zeros"}}}, {"name": "activation_39", "class_name": "Activation", "inbound_nodes": [[["bn4f_branch2b", 0, 0, {}]]], "config": {"activation": "relu", "name": "activation_39", "trainable": true}}, {"name": "res4f_branch2c", "class_name": "Conv2D", "inbound_nodes": [[["activation_39", 0, 0, {}]]], "config": {"use_bias": true, "bias_regularizer": null, "dilation_rate": [1, 1], "activity_regularizer": null, "kernel_size": [1, 1], "kernel_constraint": null, "kernel_regularizer": null, "data_format": "channels_last", "strides": [1, 1], "trainable": true, "padding": "valid", "filters": 1024, "activation": "linear", "name": "res4f_branch2c", "bias_initializer": {"config": {}, "class_name": "Zeros"}, "bias_constraint": null, "kernel_initializer": {"config": {"seed": null, "mode": "fan_avg", "distribution": "uniform", "scale": 1.0}, "class_name": "VarianceScaling"}}}, {"name": "bn4f_branch2c", "class_name": "BatchNormalization", "inbound_nodes": [[["res4f_branch2c", 0, 0, {}]]], "config": {"momentum": 0.99, "moving_mean_initializer": {"config": {}, "class_name": "Zeros"}, "scale": true, "axis": 3, "gamma_regularizer": null, "gamma_constraint": null, "moving_variance_initializer": {"config": {}, "class_name": "Ones"}, "beta_constraint": null, "gamma_initializer": {"config": {}, "class_name": "Ones"}, "trainable": true, "name": "bn4f_branch2c", "epsilon": 0.001, "center": true, "beta_regularizer": null, "beta_initializer": {"config": {}, "class_name": "Zeros"}}}, {"name": "global_average_pooling2d_13", "class_name": "GlobalAveragePooling2D", "inbound_nodes": [[["bn4f_branch2c", 0, 0, {}]]], "config": {"data_format": "channels_last", "name": "global_average_pooling2d_13", "trainable": true}}, {"name": "reshape_13", "class_name": "Reshape", "inbound_nodes": [[["global_average_pooling2d_13", 0, 0, {}]]], "config": {"name": "reshape_13", "trainable": true, "target_shape": [1, 1, 1024]}}, {"name": "res4f_branch_se_fc1", "class_name": "Dense", "inbound_nodes": [[["reshape_13", 0, 0, {}]]], "config": {"use_bias": false, "activity_regularizer": null, "units": 64, "kernel_constraint": null, "kernel_regularizer": null, "bias_regularizer": null, "trainable": true, "activation": "relu", "name": "res4f_branch_se_fc1", "bias_initializer": {"config": {}, "class_name": "Zeros"}, "bias_constraint": null, "kernel_initializer": {"config": {"seed": null, "mode": "fan_in", "distribution": "normal", "scale": 2.0}, "class_name": "VarianceScaling"}}}, {"name": "res4f_branch_se_fc2", "class_name": "Dense", "inbound_nodes": [[["res4f_branch_se_fc1", 0, 0, {}]]], "config": {"use_bias": false, "activity_regularizer": null, "units": 1024, "kernel_constraint": null, "kernel_regularizer": null, "bias_regularizer": null, "trainable": true, "activation": "sigmoid", "name": "res4f_branch_se_fc2", "bias_initializer": {"config": {}, "class_name": "Zeros"}, "bias_constraint": null, "kernel_initializer": {"config": {"seed": null, "mode": "fan_in", "distribution": "normal", "scale": 2.0}, "class_name": "VarianceScaling"}}}, {"name": "multiply_13", "class_name": "Multiply", "inbound_nodes": [[["bn4f_branch2c", 0, 0, {}], ["res4f_branch_se_fc2", 0, 0, {}]]], "config": {"name": "multiply_13", "trainable": true}}, {"name": "add_13", "class_name": "Add", "inbound_nodes": [[["multiply_13", 0, 0, {}], ["activation_37", 0, 0, {}]]], "config": {"name": "add_13", "trainable": true}}, {"name": "activation_40", "class_name": "Activation", "inbound_nodes": [[["add_13", 0, 0, {}]]], "config": {"activation": "relu", "name": "activation_40", "trainable": true}}, {"name": "res5a_branch2a", "class_name": "Conv2D", "inbound_nodes": [[["activation_40", 0, 0, {}]]], "config": {"use_bias": true, "bias_regularizer": null, "dilation_rate": [2, 2], "activity_regularizer": null, "kernel_size": [1, 1], "kernel_constraint": null, "kernel_regularizer": null, "data_format": "channels_last", "strides": [1, 1], "trainable": true, "padding": "valid", "filters": 512, "activation": "linear", "name": "res5a_branch2a", "bias_initializer": {"config": {}, "class_name": "Zeros"}, "bias_constraint": null, "kernel_initializer": {"config": {"seed": null, "mode": "fan_avg", "distribution": "uniform", "scale": 1.0}, "class_name": "VarianceScaling"}}}, {"name": "bn5a_branch2a", "class_name": "BatchNormalization", "inbound_nodes": [[["res5a_branch2a", 0, 0, {}]]], "config": {"momentum": 0.99, "moving_mean_initializer": {"config": {}, "class_name": "Zeros"}, "scale": true, "axis": 3, "gamma_regularizer": null, "gamma_constraint": null, "moving_variance_initializer": {"config": {}, "class_name": "Ones"}, "beta_constraint": null, "gamma_initializer": {"config": {}, "class_name": "Ones"}, "trainable": true, "name": "bn5a_branch2a", "epsilon": 0.001, "center": true, "beta_regularizer": null, "beta_initializer": {"config": {}, "class_name": "Zeros"}}}, {"name": "activation_41", "class_name": "Activation", "inbound_nodes": [[["bn5a_branch2a", 0, 0, {}]]], "config": {"activation": "relu", "name": "activation_41", "trainable": true}}, {"name": "res5a_branch2b", "class_name": "Conv2D", "inbound_nodes": [[["activation_41", 0, 0, {}]]], "config": {"use_bias": true, "bias_regularizer": null, "dilation_rate": [2, 2], "activity_regularizer": null, "kernel_size": [3, 3], "kernel_constraint": null, "kernel_regularizer": null, "data_format": "channels_last", "strides": [1, 1], "trainable": true, "padding": "same", "filters": 512, "activation": "linear", "name": "res5a_branch2b", "bias_initializer": {"config": {}, "class_name": "Zeros"}, "bias_constraint": null, "kernel_initializer": {"config": {"seed": null, "mode": "fan_avg", "distribution": "uniform", "scale": 1.0}, "class_name": "VarianceScaling"}}}, {"name": "bn5a_branch2b", "class_name": "BatchNormalization", "inbound_nodes": [[["res5a_branch2b", 0, 0, {}]]], "config": {"momentum": 0.99, "moving_mean_initializer": {"config": {}, "class_name": "Zeros"}, "scale": true, "axis": 3, "gamma_regularizer": null, "gamma_constraint": null, "moving_variance_initializer": {"config": {}, "class_name": "Ones"}, "beta_constraint": null, "gamma_initializer": {"config": {}, "class_name": "Ones"}, "trainable": true, "name": "bn5a_branch2b", "epsilon": 0.001, "center": true, "beta_regularizer": null, "beta_initializer": {"config": {}, "class_name": "Zeros"}}}, {"name": "activation_42", "class_name": "Activation", "inbound_nodes": [[["bn5a_branch2b", 0, 0, {}]]], "config": {"activation": "relu", "name": "activation_42", "trainable": true}}, {"name": "res5a_branch2c", "class_name": "Conv2D", "inbound_nodes": [[["activation_42", 0, 0, {}]]], "config": {"use_bias": true, "bias_regularizer": null, "dilation_rate": [2, 2], "activity_regularizer": null, "kernel_size": [1, 1], "kernel_constraint": null, "kernel_regularizer": null, "data_format": "channels_last", "strides": [1, 1], "trainable": true, "padding": "valid", "filters": 2048, "activation": "linear", "name": "res5a_branch2c", "bias_initializer": {"config": {}, "class_name": "Zeros"}, "bias_constraint": null, "kernel_initializer": {"config": {"seed": null, "mode": "fan_avg", "distribution": "uniform", "scale": 1.0}, "class_name": "VarianceScaling"}}}, {"name": "res5a_branch1", "class_name": "Conv2D", "inbound_nodes": [[["activation_40", 0, 0, {}]]], "config": {"use_bias": true, "bias_regularizer": null, "dilation_rate": [1, 1], "activity_regularizer": null, "kernel_size": [1, 1], "kernel_constraint": null, "kernel_regularizer": null, "data_format": "channels_last", "strides": [1, 1], "trainable": true, "padding": "valid", "filters": 2048, "activation": "linear", "name": "res5a_branch1", "bias_initializer": {"config": {}, "class_name": "Zeros"}, "bias_constraint": null, "kernel_initializer": {"config": {"seed": null, "mode": "fan_avg", "distribution": "uniform", "scale": 1.0}, "class_name": "VarianceScaling"}}}, {"name": "bn5a_branch2c", "class_name": "BatchNormalization", "inbound_nodes": [[["res5a_branch2c", 0, 0, {}]]], "config": {"momentum": 0.99, "moving_mean_initializer": {"config": {}, "class_name": "Zeros"}, "scale": true, "axis": 3, "gamma_regularizer": null, "gamma_constraint": null, "moving_variance_initializer": {"config": {}, "class_name": "Ones"}, "beta_constraint": null, "gamma_initializer": {"config": {}, "class_name": "Ones"}, "trainable": true, "name": "bn5a_branch2c", "epsilon": 0.001, "center": true, "beta_regularizer": null, "beta_initializer": {"config": {}, "class_name": "Zeros"}}}, {"name": "bn5a_branch1", "class_name": "BatchNormalization", "inbound_nodes": [[["res5a_branch1", 0, 0, {}]]], "config": {"momentum": 0.99, "moving_mean_initializer": {"config": {}, "class_name": "Zeros"}, "scale": true, "axis": 3, "gamma_regularizer": null, "gamma_constraint": null, "moving_variance_initializer": {"config": {}, "class_name": "Ones"}, "beta_constraint": null, "gamma_initializer": {"config": {}, "class_name": "Ones"}, "trainable": true, "name": "bn5a_branch1", "epsilon": 0.001, "center": true, "beta_regularizer": null, "beta_initializer": {"config": {}, "class_name": "Zeros"}}}, {"name": "add_14", "class_name": "Add", "inbound_nodes": [[["bn5a_branch2c", 0, 0, {}], ["bn5a_branch1", 0, 0, {}]]], "config": {"name": "add_14", "trainable": true}}, {"name": "activation_43", "class_name": "Activation", "inbound_nodes": [[["add_14", 0, 0, {}]]], "config": {"activation": "relu", "name": "activation_43", "trainable": true}}, {"name": "res5b_branch2a", "class_name": "Conv2D", "inbound_nodes": [[["activation_43", 0, 0, {}]]], "config": {"use_bias": true, "bias_regularizer": null, "dilation_rate": [2, 2], "activity_regularizer": null, "kernel_size": [1, 1], "kernel_constraint": null, "kernel_regularizer": null, "data_format": "channels_last", "strides": [1, 1], "trainable": true, "padding": "valid", "filters": 512, "activation": "linear", "name": "res5b_branch2a", "bias_initializer": {"config": {}, "class_name": "Zeros"}, "bias_constraint": null, "kernel_initializer": {"config": {"seed": null, "mode": "fan_avg", "distribution": "uniform", "scale": 1.0}, "class_name": "VarianceScaling"}}}, {"name": "bn5b_branch2a", "class_name": "BatchNormalization", "inbound_nodes": [[["res5b_branch2a", 0, 0, {}]]], "config": {"momentum": 0.99, "moving_mean_initializer": {"config": {}, "class_name": "Zeros"}, "scale": true, "axis": 3, "gamma_regularizer": null, "gamma_constraint": null, "moving_variance_initializer": {"config": {}, "class_name": "Ones"}, "beta_constraint": null, "gamma_initializer": {"config": {}, "class_name": "Ones"}, "trainable": true, "name": "bn5b_branch2a", "epsilon": 0.001, "center": true, "beta_regularizer": null, "beta_initializer": {"config": {}, "class_name": "Zeros"}}}, {"name": "activation_44", "class_name": "Activation", "inbound_nodes": [[["bn5b_branch2a", 0, 0, {}]]], "config": {"activation": "relu", "name": "activation_44", "trainable": true}}, {"name": "res5b_branch2b", "class_name": "Conv2D", "inbound_nodes": [[["activation_44", 0, 0, {}]]], "config": {"use_bias": true, "bias_regularizer": null, "dilation_rate": [2, 2], "activity_regularizer": null, "kernel_size": [3, 3], "kernel_constraint": null, "kernel_regularizer": null, "data_format": "channels_last", "strides": [1, 1], "trainable": true, "padding": "same", "filters": 512, "activation": "linear", "name": "res5b_branch2b", "bias_initializer": {"config": {}, "class_name": "Zeros"}, "bias_constraint": null, "kernel_initializer": {"config": {"seed": null, "mode": "fan_avg", "distribution": "uniform", "scale": 1.0}, "class_name": "VarianceScaling"}}}, {"name": "bn5b_branch2b", "class_name": "BatchNormalization", "inbound_nodes": [[["res5b_branch2b", 0, 0, {}]]], "config": {"momentum": 0.99, "moving_mean_initializer": {"config": {}, "class_name": "Zeros"}, "scale": true, "axis": 3, "gamma_regularizer": null, "gamma_constraint": null, "moving_variance_initializer": {"config": {}, "class_name": "Ones"}, "beta_constraint": null, "gamma_initializer": {"config": {}, "class_name": "Ones"}, "trainable": true, "name": "bn5b_branch2b", "epsilon": 0.001, "center": true, "beta_regularizer": null, "beta_initializer": {"config": {}, "class_name": "Zeros"}}}, {"name": "activation_45", "class_name": "Activation", "inbound_nodes": [[["bn5b_branch2b", 0, 0, {}]]], "config": {"activation": "relu", "name": "activation_45", "trainable": true}}, {"name": "res5b_branch2c", "class_name": "Conv2D", "inbound_nodes": [[["activation_45", 0, 0, {}]]], "config": {"use_bias": true, "bias_regularizer": null, "dilation_rate": [2, 2], "activity_regularizer": null, "kernel_size": [1, 1], "kernel_constraint": null, "kernel_regularizer": null, "data_format": "channels_last", "strides": [1, 1], "trainable": true, "padding": "valid", "filters": 2048, "activation": "linear", "name": "res5b_branch2c", "bias_initializer": {"config": {}, "class_name": "Zeros"}, "bias_constraint": null, "kernel_initializer": {"config": {"seed": null, "mode": "fan_avg", "distribution": "uniform", "scale": 1.0}, "class_name": "VarianceScaling"}}}, {"name": "bn5b_branch2c", "class_name": "BatchNormalization", "inbound_nodes": [[["res5b_branch2c", 0, 0, {}]]], "config": {"momentum": 0.99, "moving_mean_initializer": {"config": {}, "class_name": "Zeros"}, "scale": true, "axis": 3, "gamma_regularizer": null, "gamma_constraint": null, "moving_variance_initializer": {"config": {}, "class_name": "Ones"}, "beta_constraint": null, "gamma_initializer": {"config": {}, "class_name": "Ones"}, "trainable": true, "name": "bn5b_branch2c", "epsilon": 0.001, "center": true, "beta_regularizer": null, "beta_initializer": {"config": {}, "class_name": "Zeros"}}}, {"name": "add_15", "class_name": "Add", "inbound_nodes": [[["bn5b_branch2c", 0, 0, {}], ["activation_43", 0, 0, {}]]], "config": {"name": "add_15", "trainable": true}}, {"name": "activation_46", "class_name": "Activation", "inbound_nodes": [[["add_15", 0, 0, {}]]], "config": {"activation": "relu", "name": "activation_46", "trainable": true}}, {"name": "res5c_branch2a", "class_name": "Conv2D", "inbound_nodes": [[["activation_46", 0, 0, {}]]], "config": {"use_bias": true, "bias_regularizer": null, "dilation_rate": [2, 2], "activity_regularizer": null, "kernel_size": [1, 1], "kernel_constraint": null, "kernel_regularizer": null, "data_format": "channels_last", "strides": [1, 1], "trainable": true, "padding": "valid", "filters": 512, "activation": "linear", "name": "res5c_branch2a", "bias_initializer": {"config": {}, "class_name": "Zeros"}, "bias_constraint": null, "kernel_initializer": {"config": {"seed": null, "mode": "fan_avg", "distribution": "uniform", "scale": 1.0}, "class_name": "VarianceScaling"}}}, {"name": "bn5c_branch2a", "class_name": "BatchNormalization", "inbound_nodes": [[["res5c_branch2a", 0, 0, {}]]], "config": {"momentum": 0.99, "moving_mean_initializer": {"config": {}, "class_name": "Zeros"}, "scale": true, "axis": 3, "gamma_regularizer": null, "gamma_constraint": null, "moving_variance_initializer": {"config": {}, "class_name": "Ones"}, "beta_constraint": null, "gamma_initializer": {"config": {}, "class_name": "Ones"}, "trainable": true, "name": "bn5c_branch2a", "epsilon": 0.001, "center": true, "beta_regularizer": null, "beta_initializer": {"config": {}, "class_name": "Zeros"}}}, {"name": "activation_47", "class_name": "Activation", "inbound_nodes": [[["bn5c_branch2a", 0, 0, {}]]], "config": {"activation": "relu", "name": "activation_47", "trainable": true}}, {"name": "res5c_branch2b", "class_name": "Conv2D", "inbound_nodes": [[["activation_47", 0, 0, {}]]], "config": {"use_bias": true, "bias_regularizer": null, "dilation_rate": [2, 2], "activity_regularizer": null, "kernel_size": [3, 3], "kernel_constraint": null, "kernel_regularizer": null, "data_format": "channels_last", "strides": [1, 1], "trainable": true, "padding": "same", "filters": 512, "activation": "linear", "name": "res5c_branch2b", "bias_initializer": {"config": {}, "class_name": "Zeros"}, "bias_constraint": null, "kernel_initializer": {"config": {"seed": null, "mode": "fan_avg", "distribution": "uniform", "scale": 1.0}, "class_name": "VarianceScaling"}}}, {"name": "bn5c_branch2b", "class_name": "BatchNormalization", "inbound_nodes": [[["res5c_branch2b", 0, 0, {}]]], "config": {"momentum": 0.99, "moving_mean_initializer": {"config": {}, "class_name": "Zeros"}, "scale": true, "axis": 3, "gamma_regularizer": null, "gamma_constraint": null, "moving_variance_initializer": {"config": {}, "class_name": "Ones"}, "beta_constraint": null, "gamma_initializer": {"config": {}, "class_name": "Ones"}, "trainable": true, "name": "bn5c_branch2b", "epsilon": 0.001, "center": true, "beta_regularizer": null, "beta_initializer": {"config": {}, "class_name": "Zeros"}}}, {"name": "activation_48", "class_name": "Activation", "inbound_nodes": [[["bn5c_branch2b", 0, 0, {}]]], "config": {"activation": "relu", "name": "activation_48", "trainable": true}}, {"name": "res5c_branch2c", "class_name": "Conv2D", "inbound_nodes": [[["activation_48", 0, 0, {}]]], "config": {"use_bias": true, "bias_regularizer": null, "dilation_rate": [2, 2], "activity_regularizer": null, "kernel_size": [1, 1], "kernel_constraint": null, "kernel_regularizer": null, "data_format": "channels_last", "strides": [1, 1], "trainable": true, "padding": "valid", "filters": 2048, "activation": "linear", "name": "res5c_branch2c", "bias_initializer": {"config": {}, "class_name": "Zeros"}, "bias_constraint": null, "kernel_initializer": {"config": {"seed": null, "mode": "fan_avg", "distribution": "uniform", "scale": 1.0}, "class_name": "VarianceScaling"}}}, {"name": "bn5c_branch2c", "class_name": "BatchNormalization", "inbound_nodes": [[["res5c_branch2c", 0, 0, {}]]], "config": {"momentum": 0.99, "moving_mean_initializer": {"config": {}, "class_name": "Zeros"}, "scale": true, "axis": 3, "gamma_regularizer": null, "gamma_constraint": null, "moving_variance_initializer": {"config": {}, "class_name": "Ones"}, "beta_constraint": null, "gamma_initializer": {"config": {}, "class_name": "Ones"}, "trainable": true, "name": "bn5c_branch2c", "epsilon": 0.001, "center": true, "beta_regularizer": null, "beta_initializer": {"config": {}, "class_name": "Zeros"}}}, {"name": "add_16", "class_name": "Add", "inbound_nodes": [[["bn5c_branch2c", 0, 0, {}], ["activation_46", 0, 0, {}]]], "config": {"name": "add_16", "trainable": true}}, {"name": "activation_49", "class_name": "Activation", "inbound_nodes": [[["add_16", 0, 0, {}]]], "config": {"activation": "relu", "name": "activation_49", "trainable": true}}, {"name": "pool_level_6_16", "class_name": "AveragePooling2D", "inbound_nodes": [[["activation_49", 0, 0, {}]]], "config": {"data_format": "channels_last", "strides": [30, 30], "trainable": true, "padding": "valid", "name": "pool_level_6_16", "pool_size": [30, 30]}}, {"name": "pool_level_3_16", "class_name": "AveragePooling2D", "inbound_nodes": [[["activation_49", 0, 0, {}]]], "config": {"data_format": "channels_last", "strides": [15, 15], "trainable": true, "padding": "valid", "name": "pool_level_3_16", "pool_size": [15, 15]}}, {"name": "pool_level_2_16", "class_name": "AveragePooling2D", "inbound_nodes": [[["activation_49", 0, 0, {}]]], "config": {"data_format": "channels_last", "strides": [10, 10], "trainable": true, "padding": "valid", "name": "pool_level_2_16", "pool_size": [10, 10]}}, {"name": "pool_level_1_16", "class_name": "AveragePooling2D", "inbound_nodes": [[["activation_49", 0, 0, {}]]], "config": {"data_format": "channels_last", "strides": [5, 5], "trainable": true, "padding": "valid", "name": "pool_level_1_16", "pool_size": [5, 5]}}, {"name": "conv2d_1", "class_name": "Conv2D", "inbound_nodes": [[["pool_level_6_16", 0, 0, {}]]], "config": {"use_bias": true, "bias_regularizer": null, "dilation_rate": [1, 1], "activity_regularizer": null, "kernel_size": [1, 1], "kernel_constraint": null, "kernel_regularizer": null, "data_format": "channels_last", "strides": [1, 1], "trainable": true, "padding": "same", "filters": 512, "activation": "linear", "name": "conv2d_1", "bias_initializer": {"config": {}, "class_name": "Zeros"}, "bias_constraint": null, "kernel_initializer": {"config": {"seed": null, "mode": "fan_in", "distribution": "normal", "scale": 2.0}, "class_name": "VarianceScaling"}}}, {"name": "conv2d_2", "class_name": "Conv2D", "inbound_nodes": [[["pool_level_3_16", 0, 0, {}]]], "config": {"use_bias": true, "bias_regularizer": null, "dilation_rate": [1, 1], "activity_regularizer": null, "kernel_size": [1, 1], "kernel_constraint": null, "kernel_regularizer": null, "data_format": "channels_last", "strides": [1, 1], "trainable": true, "padding": "same", "filters": 512, "activation": "linear", "name": "conv2d_2", "bias_initializer": {"config": {}, "class_name": "Zeros"}, "bias_constraint": null, "kernel_initializer": {"config": {"seed": null, "mode": "fan_in", "distribution": "normal", "scale": 2.0}, "class_name": "VarianceScaling"}}}, {"name": "conv2d_3", "class_name": "Conv2D", "inbound_nodes": [[["pool_level_2_16", 0, 0, {}]]], "config": {"use_bias": true, "bias_regularizer": null, "dilation_rate": [1, 1], "activity_regularizer": null, "kernel_size": [1, 1], "kernel_constraint": null, "kernel_regularizer": null, "data_format": "channels_last", "strides": [1, 1], "trainable": true, "padding": "same", "filters": 512, "activation": "linear", "name": "conv2d_3", "bias_initializer": {"config": {}, "class_name": "Zeros"}, "bias_constraint": null, "kernel_initializer": {"config": {"seed": null, "mode": "fan_in", "distribution": "normal", "scale": 2.0}, "class_name": "VarianceScaling"}}}, {"name": "conv2d_4", "class_name": "Conv2D", "inbound_nodes": [[["pool_level_1_16", 0, 0, {}]]], "config": {"use_bias": true, "bias_regularizer": null, "dilation_rate": [1, 1], "activity_regularizer": null, "kernel_size": [1, 1], "kernel_constraint": null, "kernel_regularizer": null, "data_format": "channels_last", "strides": [1, 1], "trainable": true, "padding": "same", "filters": 512, "activation": "linear", "name": "conv2d_4", "bias_initializer": {"config": {}, "class_name": "Zeros"}, "bias_constraint": null, "kernel_initializer": {"config": {"seed": null, "mode": "fan_in", "distribution": "normal", "scale": 2.0}, "class_name": "VarianceScaling"}}}, {"name": "bn_level_6_16", "class_name": "BatchNormalization", "inbound_nodes": [[["conv2d_1", 0, 0, {}]]], "config": {"momentum": 0.99, "moving_mean_initializer": {"config": {}, "class_name": "Zeros"}, "scale": true, "axis": 3, "gamma_regularizer": null, "gamma_constraint": null, "moving_variance_initializer": {"config": {}, "class_name": "Ones"}, "beta_constraint": null, "gamma_initializer": {"config": {}, "class_name": "Ones"}, "trainable": true, "name": "bn_level_6_16", "epsilon": 0.001, "center": true, "beta_regularizer": null, "beta_initializer": {"config": {}, "class_name": "Zeros"}}}, {"name": "bn_level_3_16", "class_name": "BatchNormalization", "inbound_nodes": [[["conv2d_2", 0, 0, {}]]], "config": {"momentum": 0.99, "moving_mean_initializer": {"config": {}, "class_name": "Zeros"}, "scale": true, "axis": 3, "gamma_regularizer": null, "gamma_constraint": null, "moving_variance_initializer": {"config": {}, "class_name": "Ones"}, "beta_constraint": null, "gamma_initializer": {"config": {}, "class_name": "Ones"}, "trainable": true, "name": "bn_level_3_16", "epsilon": 0.001, "center": true, "beta_regularizer": null, "beta_initializer": {"config": {}, "class_name": "Zeros"}}}, {"name": "bn_level_2_16", "class_name": "BatchNormalization", "inbound_nodes": [[["conv2d_3", 0, 0, {}]]], "config": {"momentum": 0.99, "moving_mean_initializer": {"config": {}, "class_name": "Zeros"}, "scale": true, "axis": 3, "gamma_regularizer": null, "gamma_constraint": null, "moving_variance_initializer": {"config": {}, "class_name": "Ones"}, "beta_constraint": null, "gamma_initializer": {"config": {}, "class_name": "Ones"}, "trainable": true, "name": "bn_level_2_16", "epsilon": 0.001, "center": true, "beta_regularizer": null, "beta_initializer": {"config": {}, "class_name": "Zeros"}}}, {"name": "bn_level_1_16", "class_name": "BatchNormalization", "inbound_nodes": [[["conv2d_4", 0, 0, {}]]], "config": {"momentum": 0.99, "moving_mean_initializer": {"config": {}, "class_name": "Zeros"}, "scale": true, "axis": 3, "gamma_regularizer": null, "gamma_constraint": null, "moving_variance_initializer": {"config": {}, "class_name": "Ones"}, "beta_constraint": null, "gamma_initializer": {"config": {}, "class_name": "Ones"}, "trainable": true, "name": "bn_level_1_16", "epsilon": 0.001, "center": true, "beta_regularizer": null, "beta_initializer": {"config": {}, "class_name": "Zeros"}}}, {"name": "lambda_1", "class_name": "Lambda", "inbound_nodes": [[["bn_level_6_16", 0, 0, {}]]], "config": {"output_shape_type": "raw", "trainable": true, "function": ["4wIAAAAAAAAABgAAAAUAAABDAAAAc00AAABkAQBkAgBsAABtAQB9AgABfAEAXAIAfQMAfQQAfAIA\nagIAagMAfAAAdAQAfAMAgwEAdAQAfAQAgwEAZwIAZAMAZAQAgwIBfQUAfAUAUykF+g8gaW50ZXJw\nb2xhdGlvbiDpAAAAACkB2gJ0ZtoNYWxpZ25fY29ybmVyc1QpBdoNa2VyYXMuYmFja2VuZHIDAAAA\n2gVpbWFnZdoNcmVzaXplX2ltYWdlc9oDaW50KQbaAXjaBXNoYXBl2gNrdGbaCm5ld19oZWlnaHTa\nCW5ld193aWR0aNoHcmVzaXplZKkAcg8AAAD6CVBTUE5ldC5wedoGSW50ZXJwkQEAAHMOAAAAAAIQ\nAQwBCQEDARgBCQE=\n", null, null], "function_type": "lambda", "arguments": {"shape": [32.0, 32.0]}, "name": "lambda_1", "output_shape": null}}, {"name": "lambda_2", "class_name": "Lambda", "inbound_nodes": [[["bn_level_3_16", 0, 0, {}]]], "config": {"output_shape_type": "raw", "trainable": true, "function": ["4wIAAAAAAAAABgAAAAUAAABDAAAAc00AAABkAQBkAgBsAABtAQB9AgABfAEAXAIAfQMAfQQAfAIA\nagIAagMAfAAAdAQAfAMAgwEAdAQAfAQAgwEAZwIAZAMAZAQAgwIBfQUAfAUAUykF+g8gaW50ZXJw\nb2xhdGlvbiDpAAAAACkB2gJ0ZtoNYWxpZ25fY29ybmVyc1QpBdoNa2VyYXMuYmFja2VuZHIDAAAA\n2gVpbWFnZdoNcmVzaXplX2ltYWdlc9oDaW50KQbaAXjaBXNoYXBl2gNrdGbaCm5ld19oZWlnaHTa\nCW5ld193aWR0aNoHcmVzaXplZKkAcg8AAAD6CVBTUE5ldC5wedoGSW50ZXJwkQEAAHMOAAAAAAIQ\nAQwBCQEDARgBCQE=\n", null, null], "function_type": "lambda", "arguments": {"shape": [32.0, 32.0]}, "name": "lambda_2", "output_shape": null}}, {"name": "lambda_3", "class_name": "Lambda", "inbound_nodes": [[["bn_level_2_16", 0, 0, {}]]], "config": {"output_shape_type": "raw", "trainable": true, "function": ["4wIAAAAAAAAABgAAAAUAAABDAAAAc00AAABkAQBkAgBsAABtAQB9AgABfAEAXAIAfQMAfQQAfAIA\nagIAagMAfAAAdAQAfAMAgwEAdAQAfAQAgwEAZwIAZAMAZAQAgwIBfQUAfAUAUykF+g8gaW50ZXJw\nb2xhdGlvbiDpAAAAACkB2gJ0ZtoNYWxpZ25fY29ybmVyc1QpBdoNa2VyYXMuYmFja2VuZHIDAAAA\n2gVpbWFnZdoNcmVzaXplX2ltYWdlc9oDaW50KQbaAXjaBXNoYXBl2gNrdGbaCm5ld19oZWlnaHTa\nCW5ld193aWR0aNoHcmVzaXplZKkAcg8AAAD6CVBTUE5ldC5wedoGSW50ZXJwkQEAAHMOAAAAAAIQ\nAQwBCQEDARgBCQE=\n", null, null], "function_type": "lambda", "arguments": {"shape": [32.0, 32.0]}, "name": "lambda_3", "output_shape": null}}, {"name": "lambda_4", "class_name": "Lambda", "inbound_nodes": [[["bn_level_1_16", 0, 0, {}]]], "config": {"output_shape_type": "raw", "trainable": true, "function": ["4wIAAAAAAAAABgAAAAUAAABDAAAAc00AAABkAQBkAgBsAABtAQB9AgABfAEAXAIAfQMAfQQAfAIA\nagIAagMAfAAAdAQAfAMAgwEAdAQAfAQAgwEAZwIAZAMAZAQAgwIBfQUAfAUAUykF+g8gaW50ZXJw\nb2xhdGlvbiDpAAAAACkB2gJ0ZtoNYWxpZ25fY29ybmVyc1QpBdoNa2VyYXMuYmFja2VuZHIDAAAA\n2gVpbWFnZdoNcmVzaXplX2ltYWdlc9oDaW50KQbaAXjaBXNoYXBl2gNrdGbaCm5ld19oZWlnaHTa\nCW5ld193aWR0aNoHcmVzaXplZKkAcg8AAAD6CVBTUE5ldC5wedoGSW50ZXJwkQEAAHMOAAAAAAIQ\nAQwBCQEDARgBCQE=\n", null, null], "function_type": "lambda", "arguments": {"shape": [32.0, 32.0]}, "name": "lambda_4", "output_shape": null}}, {"name": "concatenate_1", "class_name": "Concatenate", "inbound_nodes": [[["activation_49", 0, 0, {}], ["lambda_1", 0, 0, {}], ["lambda_2", 0, 0, {}], ["lambda_3", 0, 0, {}], ["lambda_4", 0, 0, {}]]], "config": {"axis": -1, "name": "concatenate_1", "trainable": true}}, {"name": "conv2d_5", "class_name": "Conv2D", "inbound_nodes": [[["concatenate_1", 0, 0, {}]]], "config": {"use_bias": true, "bias_regularizer": null, "dilation_rate": [1, 1], "activity_regularizer": null, "kernel_size": [3, 3], "kernel_constraint": null, "kernel_regularizer": null, "data_format": "channels_last", "strides": [1, 1], "trainable": true, "padding": "same", "filters": 512, "activation": "linear", "name": "conv2d_5", "bias_initializer": {"config": {}, "class_name": "Zeros"}, "bias_constraint": null, "kernel_initializer": {"config": {"seed": null, "mode": "fan_in", "distribution": "normal", "scale": 2.0}, "class_name": "VarianceScaling"}}}, {"name": "bn_pyramid_out_16", "class_name": "BatchNormalization", "inbound_nodes": [[["conv2d_5", 0, 0, {}]]], "config": {"momentum": 0.99, "moving_mean_initializer": {"config": {}, "class_name": "Zeros"}, "scale": true, "axis": 3, "gamma_regularizer": null, "gamma_constraint": null, "moving_variance_initializer": {"config": {}, "class_name": "Ones"}, "beta_constraint": null, "gamma_initializer": {"config": {}, "class_name": "Ones"}, "trainable": true, "name": "bn_pyramid_out_16", "epsilon": 0.001, "center": true, "beta_regularizer": null, "beta_initializer": {"config": {}, "class_name": "Zeros"}}}, {"name": "activation_50", "class_name": "Activation", "inbound_nodes": [[["bn_pyramid_out_16", 0, 0, {}]]], "config": {"activation": "relu", "name": "activation_50", "trainable": true}}, {"name": "upscore_out", "class_name": "Conv2DTranspose", "inbound_nodes": [[["activation_50", 0, 0, {}]]], "config": {"use_bias": false, "data_format": "channels_last", "activity_regularizer": null, "kernel_size": [32, 32], "kernel_constraint": null, "strides": [16, 16], "kernel_regularizer": null, "bias_regularizer": null, "output_padding": null, "trainable": true, "padding": "same", "filters": 20, "activation": "linear", "name": "upscore_out", "bias_initializer": {"config": {}, "class_name": "Zeros"}, "bias_constraint": null, "kernel_initializer": {"config": {"seed": null, "mode": "fan_in", "distribution": "normal", "scale": 2.0}, "class_name": "VarianceScaling"}}}, {"name": "reshape_14", "class_name": "Reshape", "inbound_nodes": [[["upscore_out", 0, 0, {}]]], "config": {"name": "reshape_14", "trainable": true, "target_shape": [262144, 20], "batch_input_shape": [null, 512, 512, 20], "dtype": "float32"}}, {"name": "activation_51", "class_name": "Activation", "inbound_nodes": [[["reshape_14", 0, 0, {}]]], "config": {"activation": "softmax", "name": "activation_51", "trainable": true}}]}, "class_name": "Model", "params": {"add_3": 0, "bn4a_branch2a": 1024, "conv2d_2": 1049088, "reshape_4": 0, "multiply_12": 0, "activation_40": 0, "res3b_branch_se_fc2": 16384, "lambda_4": 0, "concatenate_1": 0, "res3a_branch2b": 147584, "bn5b_branch2a": 2048, "activation_12": 0, "bn_pyramid_out_16": 2048, "res2c_branch_se_fc1": 4096, "global_average_pooling2d_11": 0, "res3b_branch2b": 147584, "reshape_5": 0, "res2b_branch2c": 16640, "res4b_branch2a": 262400, "bn3a_branch2b": 512, "activation_3": 0, "activation_23": 0, "activation_20": 0, "res4d_branch2c": 263168, "bn3b_branch2c": 2048, "bn3a_branch1": 2048, "res4f_branch2a": 262400, "res2b_branch2a": 16448, "activation_47": 0, "multiply_7": 0, "lambda_1": 0, "global_average_pooling2d_10": 0, "conv2d_4": 1049088, "reshape_6": 0, "activation_8": 0, "res5a_branch2b": 2359808, "res2a_branch2b": 36928, "reshape_12": 0, "add_12": 0, "res5b_branch2b": 2359808, "res2b_branch2b": 36928, "global_average_pooling2d_6": 0, "add_7": 0, "activation_35": 0, "multiply_10": 0, "activation_33": 0, "res4a_branch1": 525312, "reshape_13": 0, "res5a_branch2a": 524800, "bn4e_branch2a": 1024, "res4d_branch_se_fc1": 65536, "res4c_branch_se_fc2": 65536, "activation_27": 0, "add_6": 0, "bn4d_branch2a": 1024, "add_10": 0, "bn5b_branch2c": 8192, "lambda_2": 0, "multiply_1": 0, "bn4c_branch2a": 1024, "activation_43": 0, "res5c_branch2a": 1049088, "activation_1": 0, "res3a_branch2a": 32896, "res4e_branch_se_fc2": 65536, "res4c_branch_se_fc1": 65536, "conv2d_1": 1049088, "bn3a_branch2c": 2048, "activation_22": 0, "activation_18": 0, "add_16": 0, "bn4f_branch2b": 1024, "add_2": 0, "bn3a_branch2a": 512, "res4e_branch2b": 590080, "activation_15": 0, "bn5c_branch2c": 8192, "bn2c_branch2b": 256, "bn3c_branch2b": 512, "res2c_branch_se_fc2": 4096, "res3a_branch1": 131584, "add_13": 0, "res4e_branch2c": 263168, "res3a_branch_se_fc1": 16384, "reshape_7": 0, "multiply_8": 0, "res5a_branch2c": 1050624, "res4a_branch_se_fc1": 65536, "reshape_10": 0, "global_average_pooling2d_5": 0, "activation_11": 0, "res3d_branch2b": 147584, "bn4b_branch2c": 4096, "activation_7": 0, "global_average_pooling2d_3": 0, "res4a_branch2c": 263168, "bn2a_branch1": 1024, "bn5a_branch2b": 2048, "res4f_branch2c": 263168, "res5b_branch2c": 1050624, "res4f_branch_se_fc2": 65536, "bn3d_branch2a": 512, "conv2d_3": 1049088, "global_average_pooling2d_8": 0, "bn4f_branch2a": 1024, "reshape_2": 0, "res5b_branch2a": 1049088, "res3c_branch_se_fc2": 16384, "res3d_branch_se_fc1": 16384, "activation_28": 0, "bn4e_branch2c": 4096, "activation_36": 0, "add_8": 0, "activation_29": 0, "bn5a_branch2c": 8192, "activation_48": 0, "res3b_branch_se_fc1": 16384, "activation_9": 0, "bn4d_branch2c": 4096, "bn3d_branch2b": 512, "bn4a_branch2c": 4096, "activation_4": 0, "activation_13": 0, "res4a_branch2b": 590080, "activation_14": 0, "activation_25": 0, "bn_level_6_16": 2048, "res4b_branch_se_fc1": 65536, "bn3c_branch2c": 2048, "activation_45": 0, "multiply_4": 0, "bn3b_branch2a": 512, "activation_31": 0, "activation_16": 0, "pool_level_1_16": 0, "bn4e_branch2b": 1024, "res4e_branch_se_fc1": 65536, "global_average_pooling2d_7": 0, "res4b_branch2b": 590080, "max_pooling2d_1": 0, "bn4b_branch2b": 1024, "multiply_6": 0, "bn3d_branch2c": 2048, "res3d_branch_se_fc2": 16384, "bn4f_branch2c": 4096, "global_average_pooling2d_2": 0, "res2a_branch_se_fc1": 4096, "bn3b_branch2b": 512, "bn2a_branch2b": 256, "bn2a_branch2c": 1024, "res3b_branch2a": 65664, "reshape_3": 0, "res3c_branch2c": 66048, "bn4a_branch1": 4096, "res3c_branch_se_fc1": 16384, "activation_37": 0, "global_average_pooling2d_4": 0, "activation_24": 0, "add_9": 0, "res4f_branch_se_fc1": 65536, "add_1": 0, "global_average_pooling2d_9": 0, "bn_level_2_16": 2048, "add_5": 0, "activation_34": 0, "res2a_branch1": 16640, "bn_conv1": 256, "bn4d_branch2b": 1024, "bn2b_branch2a": 256, "reshape_11": 0, "res2a_branch_se_fc2": 4096, "input_1": 0, "res5c_branch2b": 2359808, "add_15": 0, "activation_50": 0, "activation_2": 0, "conv2d_5": 18874880, "res3c_branch2b": 147584, "activation_6": 0, "conv1": 9472, "multiply_13": 0, "bn5a_branch2a": 2048, "res4a_branch_se_fc2": 65536, "res3c_branch2a": 65664, "global_average_pooling2d_13": 0, "reshape_14": 0, "res2a_branch2c": 16640, "res3a_branch_se_fc2": 16384, "res2c_branch2b": 36928, "activation_21": 0, "pool_level_3_16": 0, "bn5a_branch1": 8192, "bn2c_branch2a": 256, "activation_42": 0, "activation_30": 0, "global_average_pooling2d_1": 0, "res2c_branch2a": 16448, "bn2b_branch2b": 256, "activation_26": 0, "res2a_branch2a": 4160, "res4d_branch2b": 590080, "bn4c_branch2b": 1024, "bn4b_branch2a": 1024, "multiply_11": 0, "bn2a_branch2a": 256, "add_11": 0, "activation_38": 0, "bn5b_branch2b": 2048, "bn2c_branch2c": 1024, "activation_49": 0, "res5c_branch2c": 1050624, "bn2b_branch2c": 1024, "res3d_branch2a": 65664, "activation_46": 0, "bn_level_1_16": 2048, "bn5c_branch2a": 2048, "lambda_3": 0, "res4d_branch_se_fc2": 65536, "activation_32": 0, "res5a_branch1": 2099200, "global_average_pooling2d_12": 0, "res4c_branch2a": 262400, "res4b_branch2c": 263168, "res4e_branch2a": 262400, "add_4": 0, "multiply_5": 0, "activation_51": 0, "reshape_9": 0, "activation_41": 0, "res3a_branch2c": 66048, "res3b_branch2c": 66048, "res4c_branch2c": 263168, "add_14": 0, "reshape_1": 0, "pool_level_2_16": 0, "bn4c_branch2c": 4096, "activation_10": 0, "res4b_branch_se_fc2": 65536, "bn3c_branch2a": 512, "bn4a_branch2b": 1024, "res2c_branch2c": 16640, "res4f_branch2b": 590080, "res3d_branch2c": 66048, "res4c_branch2b": 590080, "activation_19": 0, "activation_44": 0, "res4d_branch2a": 262400, "pool_level_6_16": 0, "bn_level_3_16": 2048, "upscore_out": 10485760, "res4a_branch2a": 131328, "res2b_branch_se_fc1": 4096, "reshape_8": 0, "activation_5": 0, "activation_17": 0, "bn5c_branch2b": 2048, "res2b_branch_se_fc2": 4096, "activation_39": 0, "multiply_9": 0, "multiply_3": 0, "multiply_2": 0}, "backend": "tensorflow", "keras_version": "2.2.2"}