{"class_name": "Model", "config": {"output_layers": [["fc1000", 0, 0]], "layers": [{"name": "input_1", "class_name": "InputLayer", "inbound_nodes": [], "config": {"dtype": "float32", "name": "input_1", "batch_input_shape": [null, 224, 224, 3], "sparse": false}}, {"name": "conv1", "class_name": "Conv2D", "inbound_nodes": [[["input_1", 0, 0, {}]]], "config": {"data_format": "channels_last", "kernel_regularizer": null, "kernel_size": [7, 7], "filters": 64, "bias_initializer": {"config": {}, "class_name": "Zeros"}, "name": "conv1", "dilation_rate": [1, 1], "use_bias": true, "activity_regularizer": null, "kernel_initializer": {"config": {"distribution": "uniform", "seed": null, "scale": 1.0, "mode": "fan_avg"}, "class_name": "VarianceScaling"}, "padding": "same", "strides": [2, 2], "trainable": true, "activation": "linear", "bias_regularizer": null, "bias_constraint": null, "kernel_constraint": null}}, {"name": "bn_conv1", "class_name": "BatchNormalization", "inbound_nodes": [[["conv1", 0, 0, {}]]], "config": {"axis": 3, "gamma_initializer": {"config": {}, "class_name": "Ones"}, "epsilon": 0.001, "name": "bn_conv1", "beta_regularizer": null, "moving_variance_initializer": {"config": {}, "class_name": "Ones"}, "beta_constraint": null, "beta_initializer": {"config": {}, "class_name": "Zeros"}, "gamma_constraint": null, "momentum": 0.99, "trainable": true, "gamma_regularizer": null, "scale": true, "moving_mean_initializer": {"config": {}, "class_name": "Zeros"}, "center": true}}, {"name": "activation_1", "class_name": "Activation", "inbound_nodes": [[["bn_conv1", 0, 0, {}]]], "config": {"trainable": true, "activation": "relu", "name": "activation_1"}}, {"name": "max_pooling2d_1", "class_name": "MaxPooling2D", "inbound_nodes": [[["activation_1", 0, 0, {}]]], "config": {"data_format": "channels_last", "padding": "valid", "pool_size": [3, 3], "trainable": true, "strides": [2, 2], "name": "max_pooling2d_1"}}, {"name": "res2a_branch2a", "class_name": "Conv2D", "inbound_nodes": [[["max_pooling2d_1", 0, 0, {}]]], "config": {"data_format": "channels_last", "kernel_regularizer": null, "kernel_size": [1, 1], "filters": 64, "bias_initializer": {"config": {}, "class_name": "Zeros"}, "name": "res2a_branch2a", "dilation_rate": [1, 1], "use_bias": true, "activity_regularizer": null, "kernel_initializer": {"config": {"distribution": "uniform", "seed": null, "scale": 1.0, "mode": "fan_avg"}, "class_name": "VarianceScaling"}, "padding": "valid", "strides": [1, 1], "trainable": true, "activation": "linear", "bias_regularizer": null, "bias_constraint": null, "kernel_constraint": null}}, {"name": "bn2a_branch2a", "class_name": "BatchNormalization", "inbound_nodes": [[["res2a_branch2a", 0, 0, {}]]], "config": {"axis": 3, "gamma_initializer": {"config": {}, "class_name": "Ones"}, "epsilon": 0.001, "name": "bn2a_branch2a", "beta_regularizer": null, "moving_variance_initializer": {"config": {}, "class_name": "Ones"}, "beta_constraint": null, "beta_initializer": {"config": {}, "class_name": "Zeros"}, "gamma_constraint": null, "momentum": 0.99, "trainable": true, "gamma_regularizer": null, "scale": true, "moving_mean_initializer": {"config": {}, "class_name": "Zeros"}, "center": true}}, {"name": "activation_2", "class_name": "Activation", "inbound_nodes": [[["bn2a_branch2a", 0, 0, {}]]], "config": {"trainable": true, "activation": "relu", "name": "activation_2"}}, {"name": "res2a_branch2b", "class_name": "Conv2D", "inbound_nodes": [[["activation_2", 0, 0, {}]]], "config": {"data_format": "channels_last", "kernel_regularizer": null, "kernel_size": [3, 3], "filters": 64, "bias_initializer": {"config": {}, "class_name": "Zeros"}, "name": "res2a_branch2b", "dilation_rate": [1, 1], "use_bias": true, "activity_regularizer": null, "kernel_initializer": {"config": {"distribution": "uniform", "seed": null, "scale": 1.0, "mode": "fan_avg"}, "class_name": "VarianceScaling"}, "padding": "same", "strides": [1, 1], "trainable": true, "activation": "linear", "bias_regularizer": null, "bias_constraint": null, "kernel_constraint": null}}, {"name": "bn2a_branch2b", "class_name": "BatchNormalization", "inbound_nodes": [[["res2a_branch2b", 0, 0, {}]]], "config": {"axis": 3, "gamma_initializer": {"config": {}, "class_name": "Ones"}, "epsilon": 0.001, "name": "bn2a_branch2b", "beta_regularizer": null, "moving_variance_initializer": {"config": {}, "class_name": "Ones"}, "beta_constraint": null, "beta_initializer": {"config": {}, "class_name": "Zeros"}, "gamma_constraint": null, "momentum": 0.99, "trainable": true, "gamma_regularizer": null, "scale": true, "moving_mean_initializer": {"config": {}, "class_name": "Zeros"}, "center": true}}, {"name": "activation_3", "class_name": "Activation", "inbound_nodes": [[["bn2a_branch2b", 0, 0, {}]]], "config": {"trainable": true, "activation": "relu", "name": "activation_3"}}, {"name": "res2a_branch2c", "class_name": "Conv2D", "inbound_nodes": [[["activation_3", 0, 0, {}]]], "config": {"data_format": "channels_last", "kernel_regularizer": null, "kernel_size": [1, 1], "filters": 256, "bias_initializer": {"config": {}, "class_name": "Zeros"}, "name": "res2a_branch2c", "dilation_rate": [1, 1], "use_bias": true, "activity_regularizer": null, "kernel_initializer": {"config": {"distribution": "uniform", "seed": null, "scale": 1.0, "mode": "fan_avg"}, "class_name": "VarianceScaling"}, "padding": "valid", "strides": [1, 1], "trainable": true, "activation": "linear", "bias_regularizer": null, "bias_constraint": null, "kernel_constraint": null}}, {"name": "res2a_branch1", "class_name": "Conv2D", "inbound_nodes": [[["max_pooling2d_1", 0, 0, {}]]], "config": {"data_format": "channels_last", "kernel_regularizer": null, "kernel_size": [1, 1], "filters": 256, "bias_initializer": {"config": {}, "class_name": "Zeros"}, "name": "res2a_branch1", "dilation_rate": [1, 1], "use_bias": true, "activity_regularizer": null, "kernel_initializer": {"config": {"distribution": "uniform", "seed": null, "scale": 1.0, "mode": "fan_avg"}, "class_name": "VarianceScaling"}, "padding": "valid", "strides": [1, 1], "trainable": true, "activation": "linear", "bias_regularizer": null, "bias_constraint": null, "kernel_constraint": null}}, {"name": "bn2a_branch2c", "class_name": "BatchNormalization", "inbound_nodes": [[["res2a_branch2c", 0, 0, {}]]], "config": {"axis": 3, "gamma_initializer": {"config": {}, "class_name": "Ones"}, "epsilon": 0.001, "name": "bn2a_branch2c", "beta_regularizer": null, "moving_variance_initializer": {"config": {}, "class_name": "Ones"}, "beta_constraint": null, "beta_initializer": {"config": {}, "class_name": "Zeros"}, "gamma_constraint": null, "momentum": 0.99, "trainable": true, "gamma_regularizer": null, "scale": true, "moving_mean_initializer": {"config": {}, "class_name": "Zeros"}, "center": true}}, {"name": "bn2a_branch1", "class_name": "BatchNormalization", "inbound_nodes": [[["res2a_branch1", 0, 0, {}]]], "config": {"axis": 3, "gamma_initializer": {"config": {}, "class_name": "Ones"}, "epsilon": 0.001, "name": "bn2a_branch1", "beta_regularizer": null, "moving_variance_initializer": {"config": {}, "class_name": "Ones"}, "beta_constraint": null, "beta_initializer": {"config": {}, "class_name": "Zeros"}, "gamma_constraint": null, "momentum": 0.99, "trainable": true, "gamma_regularizer": null, "scale": true, "moving_mean_initializer": {"config": {}, "class_name": "Zeros"}, "center": true}}, {"name": "add_1", "class_name": "Add", "inbound_nodes": [[["bn2a_branch2c", 0, 0, {}], ["bn2a_branch1", 0, 0, {}]]], "config": {"trainable": true, "name": "add_1"}}, {"name": "activation_4", "class_name": "Activation", "inbound_nodes": [[["add_1", 0, 0, {}]]], "config": {"trainable": true, "activation": "relu", "name": "activation_4"}}, {"name": "res2b_branch2a", "class_name": "Conv2D", "inbound_nodes": [[["activation_4", 0, 0, {}]]], "config": {"data_format": "channels_last", "kernel_regularizer": null, "kernel_size": [1, 1], "filters": 64, "bias_initializer": {"config": {}, "class_name": "Zeros"}, "name": "res2b_branch2a", "dilation_rate": [1, 1], "use_bias": true, "activity_regularizer": null, "kernel_initializer": {"config": {"distribution": "uniform", "seed": null, "scale": 1.0, "mode": "fan_avg"}, "class_name": "VarianceScaling"}, "padding": "valid", "strides": [1, 1], "trainable": true, "activation": "linear", "bias_regularizer": null, "bias_constraint": null, "kernel_constraint": null}}, {"name": "bn2b_branch2a", "class_name": "BatchNormalization", "inbound_nodes": [[["res2b_branch2a", 0, 0, {}]]], "config": {"axis": 3, "gamma_initializer": {"config": {}, "class_name": "Ones"}, "epsilon": 0.001, "name": "bn2b_branch2a", "beta_regularizer": null, "moving_variance_initializer": {"config": {}, "class_name": "Ones"}, "beta_constraint": null, "beta_initializer": {"config": {}, "class_name": "Zeros"}, "gamma_constraint": null, "momentum": 0.99, "trainable": true, "gamma_regularizer": null, "scale": true, "moving_mean_initializer": {"config": {}, "class_name": "Zeros"}, "center": true}}, {"name": "activation_5", "class_name": "Activation", "inbound_nodes": [[["bn2b_branch2a", 0, 0, {}]]], "config": {"trainable": true, "activation": "relu", "name": "activation_5"}}, {"name": "res2b_branch2b", "class_name": "Conv2D", "inbound_nodes": [[["activation_5", 0, 0, {}]]], "config": {"data_format": "channels_last", "kernel_regularizer": null, "kernel_size": [3, 3], "filters": 64, "bias_initializer": {"config": {}, "class_name": "Zeros"}, "name": "res2b_branch2b", "dilation_rate": [1, 1], "use_bias": true, "activity_regularizer": null, "kernel_initializer": {"config": {"distribution": "uniform", "seed": null, "scale": 1.0, "mode": "fan_avg"}, "class_name": "VarianceScaling"}, "padding": "same", "strides": [1, 1], "trainable": true, "activation": "linear", "bias_regularizer": null, "bias_constraint": null, "kernel_constraint": null}}, {"name": "bn2b_branch2b", "class_name": "BatchNormalization", "inbound_nodes": [[["res2b_branch2b", 0, 0, {}]]], "config": {"axis": 3, "gamma_initializer": {"config": {}, "class_name": "Ones"}, "epsilon": 0.001, "name": "bn2b_branch2b", "beta_regularizer": null, "moving_variance_initializer": {"config": {}, "class_name": "Ones"}, "beta_constraint": null, "beta_initializer": {"config": {}, "class_name": "Zeros"}, "gamma_constraint": null, "momentum": 0.99, "trainable": true, "gamma_regularizer": null, "scale": true, "moving_mean_initializer": {"config": {}, "class_name": "Zeros"}, "center": true}}, {"name": "activation_6", "class_name": "Activation", "inbound_nodes": [[["bn2b_branch2b", 0, 0, {}]]], "config": {"trainable": true, "activation": "relu", "name": "activation_6"}}, {"name": "res2b_branch2c", "class_name": "Conv2D", "inbound_nodes": [[["activation_6", 0, 0, {}]]], "config": {"data_format": "channels_last", "kernel_regularizer": null, "kernel_size": [1, 1], "filters": 256, "bias_initializer": {"config": {}, "class_name": "Zeros"}, "name": "res2b_branch2c", "dilation_rate": [1, 1], "use_bias": true, "activity_regularizer": null, "kernel_initializer": {"config": {"distribution": "uniform", "seed": null, "scale": 1.0, "mode": "fan_avg"}, "class_name": "VarianceScaling"}, "padding": "valid", "strides": [1, 1], "trainable": true, "activation": "linear", "bias_regularizer": null, "bias_constraint": null, "kernel_constraint": null}}, {"name": "bn2b_branch2c", "class_name": "BatchNormalization", "inbound_nodes": [[["res2b_branch2c", 0, 0, {}]]], "config": {"axis": 3, "gamma_initializer": {"config": {}, "class_name": "Ones"}, "epsilon": 0.001, "name": "bn2b_branch2c", "beta_regularizer": null, "moving_variance_initializer": {"config": {}, "class_name": "Ones"}, "beta_constraint": null, "beta_initializer": {"config": {}, "class_name": "Zeros"}, "gamma_constraint": null, "momentum": 0.99, "trainable": true, "gamma_regularizer": null, "scale": true, "moving_mean_initializer": {"config": {}, "class_name": "Zeros"}, "center": true}}, {"name": "add_2", "class_name": "Add", "inbound_nodes": [[["bn2b_branch2c", 0, 0, {}], ["activation_4", 0, 0, {}]]], "config": {"trainable": true, "name": "add_2"}}, {"name": "activation_7", "class_name": "Activation", "inbound_nodes": [[["add_2", 0, 0, {}]]], "config": {"trainable": true, "activation": "relu", "name": "activation_7"}}, {"name": "res2c_branch2a", "class_name": "Conv2D", "inbound_nodes": [[["activation_7", 0, 0, {}]]], "config": {"data_format": "channels_last", "kernel_regularizer": null, "kernel_size": [1, 1], "filters": 64, "bias_initializer": {"config": {}, "class_name": "Zeros"}, "name": "res2c_branch2a", "dilation_rate": [1, 1], "use_bias": true, "activity_regularizer": null, "kernel_initializer": {"config": {"distribution": "uniform", "seed": null, "scale": 1.0, "mode": "fan_avg"}, "class_name": "VarianceScaling"}, "padding": "valid", "strides": [1, 1], "trainable": true, "activation": "linear", "bias_regularizer": null, "bias_constraint": null, "kernel_constraint": null}}, {"name": "bn2c_branch2a", "class_name": "BatchNormalization", "inbound_nodes": [[["res2c_branch2a", 0, 0, {}]]], "config": {"axis": 3, "gamma_initializer": {"config": {}, "class_name": "Ones"}, "epsilon": 0.001, "name": "bn2c_branch2a", "beta_regularizer": null, "moving_variance_initializer": {"config": {}, "class_name": "Ones"}, "beta_constraint": null, "beta_initializer": {"config": {}, "class_name": "Zeros"}, "gamma_constraint": null, "momentum": 0.99, "trainable": true, "gamma_regularizer": null, "scale": true, "moving_mean_initializer": {"config": {}, "class_name": "Zeros"}, "center": true}}, {"name": "activation_8", "class_name": "Activation", "inbound_nodes": [[["bn2c_branch2a", 0, 0, {}]]], "config": {"trainable": true, "activation": "relu", "name": "activation_8"}}, {"name": "res2c_branch2b", "class_name": "Conv2D", "inbound_nodes": [[["activation_8", 0, 0, {}]]], "config": {"data_format": "channels_last", "kernel_regularizer": null, "kernel_size": [3, 3], "filters": 64, "bias_initializer": {"config": {}, "class_name": "Zeros"}, "name": "res2c_branch2b", "dilation_rate": [1, 1], "use_bias": true, "activity_regularizer": null, "kernel_initializer": {"config": {"distribution": "uniform", "seed": null, "scale": 1.0, "mode": "fan_avg"}, "class_name": "VarianceScaling"}, "padding": "same", "strides": [1, 1], "trainable": true, "activation": "linear", "bias_regularizer": null, "bias_constraint": null, "kernel_constraint": null}}, {"name": "bn2c_branch2b", "class_name": "BatchNormalization", "inbound_nodes": [[["res2c_branch2b", 0, 0, {}]]], "config": {"axis": 3, "gamma_initializer": {"config": {}, "class_name": "Ones"}, "epsilon": 0.001, "name": "bn2c_branch2b", "beta_regularizer": null, "moving_variance_initializer": {"config": {}, "class_name": "Ones"}, "beta_constraint": null, "beta_initializer": {"config": {}, "class_name": "Zeros"}, "gamma_constraint": null, "momentum": 0.99, "trainable": true, "gamma_regularizer": null, "scale": true, "moving_mean_initializer": {"config": {}, "class_name": "Zeros"}, "center": true}}, {"name": "activation_9", "class_name": "Activation", "inbound_nodes": [[["bn2c_branch2b", 0, 0, {}]]], "config": {"trainable": true, "activation": "relu", "name": "activation_9"}}, {"name": "res2c_branch2c", "class_name": "Conv2D", "inbound_nodes": [[["activation_9", 0, 0, {}]]], "config": {"data_format": "channels_last", "kernel_regularizer": null, "kernel_size": [1, 1], "filters": 256, "bias_initializer": {"config": {}, "class_name": "Zeros"}, "name": "res2c_branch2c", "dilation_rate": [1, 1], "use_bias": true, "activity_regularizer": null, "kernel_initializer": {"config": {"distribution": "uniform", "seed": null, "scale": 1.0, "mode": "fan_avg"}, "class_name": "VarianceScaling"}, "padding": "valid", "strides": [1, 1], "trainable": true, "activation": "linear", "bias_regularizer": null, "bias_constraint": null, "kernel_constraint": null}}, {"name": "bn2c_branch2c", "class_name": "BatchNormalization", "inbound_nodes": [[["res2c_branch2c", 0, 0, {}]]], "config": {"axis": 3, "gamma_initializer": {"config": {}, "class_name": "Ones"}, "epsilon": 0.001, "name": "bn2c_branch2c", "beta_regularizer": null, "moving_variance_initializer": {"config": {}, "class_name": "Ones"}, "beta_constraint": null, "beta_initializer": {"config": {}, "class_name": "Zeros"}, "gamma_constraint": null, "momentum": 0.99, "trainable": true, "gamma_regularizer": null, "scale": true, "moving_mean_initializer": {"config": {}, "class_name": "Zeros"}, "center": true}}, {"name": "add_3", "class_name": "Add", "inbound_nodes": [[["bn2c_branch2c", 0, 0, {}], ["activation_7", 0, 0, {}]]], "config": {"trainable": true, "name": "add_3"}}, {"name": "activation_10", "class_name": "Activation", "inbound_nodes": [[["add_3", 0, 0, {}]]], "config": {"trainable": true, "activation": "relu", "name": "activation_10"}}, {"name": "res30_branch2a", "class_name": "Conv2D", "inbound_nodes": [[["activation_10", 0, 0, {}]]], "config": {"data_format": "channels_last", "kernel_regularizer": null, "kernel_size": [1, 1], "filters": 128, "bias_initializer": {"config": {}, "class_name": "Zeros"}, "name": "res30_branch2a", "dilation_rate": [1, 1], "use_bias": true, "activity_regularizer": null, "kernel_initializer": {"config": {"distribution": "uniform", "seed": null, "scale": 1.0, "mode": "fan_avg"}, "class_name": "VarianceScaling"}, "padding": "valid", "strides": [2, 2], "trainable": true, "activation": "linear", "bias_regularizer": null, "bias_constraint": null, "kernel_constraint": null}}, {"name": "bn30_branch2a", "class_name": "BatchNormalization", "inbound_nodes": [[["res30_branch2a", 0, 0, {}]]], "config": {"axis": 3, "gamma_initializer": {"config": {}, "class_name": "Ones"}, "epsilon": 0.001, "name": "bn30_branch2a", "beta_regularizer": null, "moving_variance_initializer": {"config": {}, "class_name": "Ones"}, "beta_constraint": null, "beta_initializer": {"config": {}, "class_name": "Zeros"}, "gamma_constraint": null, "momentum": 0.99, "trainable": true, "gamma_regularizer": null, "scale": true, "moving_mean_initializer": {"config": {}, "class_name": "Zeros"}, "center": true}}, {"name": "activation_11", "class_name": "Activation", "inbound_nodes": [[["bn30_branch2a", 0, 0, {}]]], "config": {"trainable": true, "activation": "relu", "name": "activation_11"}}, {"name": "res30_branch2b", "class_name": "Conv2D", "inbound_nodes": [[["activation_11", 0, 0, {}]]], "config": {"data_format": "channels_last", "kernel_regularizer": null, "kernel_size": [3, 3], "filters": 128, "bias_initializer": {"config": {}, "class_name": "Zeros"}, "name": "res30_branch2b", "dilation_rate": [1, 1], "use_bias": true, "activity_regularizer": null, "kernel_initializer": {"config": {"distribution": "uniform", "seed": null, "scale": 1.0, "mode": "fan_avg"}, "class_name": "VarianceScaling"}, "padding": "same", "strides": [1, 1], "trainable": true, "activation": "linear", "bias_regularizer": null, "bias_constraint": null, "kernel_constraint": null}}, {"name": "bn30_branch2b", "class_name": "BatchNormalization", "inbound_nodes": [[["res30_branch2b", 0, 0, {}]]], "config": {"axis": 3, "gamma_initializer": {"config": {}, "class_name": "Ones"}, "epsilon": 0.001, "name": "bn30_branch2b", "beta_regularizer": null, "moving_variance_initializer": {"config": {}, "class_name": "Ones"}, "beta_constraint": null, "beta_initializer": {"config": {}, "class_name": "Zeros"}, "gamma_constraint": null, "momentum": 0.99, "trainable": true, "gamma_regularizer": null, "scale": true, "moving_mean_initializer": {"config": {}, "class_name": "Zeros"}, "center": true}}, {"name": "activation_12", "class_name": "Activation", "inbound_nodes": [[["bn30_branch2b", 0, 0, {}]]], "config": {"trainable": true, "activation": "relu", "name": "activation_12"}}, {"name": "res30_branch2c", "class_name": "Conv2D", "inbound_nodes": [[["activation_12", 0, 0, {}]]], "config": {"data_format": "channels_last", "kernel_regularizer": null, "kernel_size": [1, 1], "filters": 512, "bias_initializer": {"config": {}, "class_name": "Zeros"}, "name": "res30_branch2c", "dilation_rate": [1, 1], "use_bias": true, "activity_regularizer": null, "kernel_initializer": {"config": {"distribution": "uniform", "seed": null, "scale": 1.0, "mode": "fan_avg"}, "class_name": "VarianceScaling"}, "padding": "valid", "strides": [1, 1], "trainable": true, "activation": "linear", "bias_regularizer": null, "bias_constraint": null, "kernel_constraint": null}}, {"name": "res30_branch1", "class_name": "Conv2D", "inbound_nodes": [[["activation_10", 0, 0, {}]]], "config": {"data_format": "channels_last", "kernel_regularizer": null, "kernel_size": [1, 1], "filters": 512, "bias_initializer": {"config": {}, "class_name": "Zeros"}, "name": "res30_branch1", "dilation_rate": [1, 1], "use_bias": true, "activity_regularizer": null, "kernel_initializer": {"config": {"distribution": "uniform", "seed": null, "scale": 1.0, "mode": "fan_avg"}, "class_name": "VarianceScaling"}, "padding": "valid", "strides": [2, 2], "trainable": true, "activation": "linear", "bias_regularizer": null, "bias_constraint": null, "kernel_constraint": null}}, {"name": "bn30_branch2c", "class_name": "BatchNormalization", "inbound_nodes": [[["res30_branch2c", 0, 0, {}]]], "config": {"axis": 3, "gamma_initializer": {"config": {}, "class_name": "Ones"}, "epsilon": 0.001, "name": "bn30_branch2c", "beta_regularizer": null, "moving_variance_initializer": {"config": {}, "class_name": "Ones"}, "beta_constraint": null, "beta_initializer": {"config": {}, "class_name": "Zeros"}, "gamma_constraint": null, "momentum": 0.99, "trainable": true, "gamma_regularizer": null, "scale": true, "moving_mean_initializer": {"config": {}, "class_name": "Zeros"}, "center": true}}, {"name": "bn30_branch1", "class_name": "BatchNormalization", "inbound_nodes": [[["res30_branch1", 0, 0, {}]]], "config": {"axis": 3, "gamma_initializer": {"config": {}, "class_name": "Ones"}, "epsilon": 0.001, "name": "bn30_branch1", "beta_regularizer": null, "moving_variance_initializer": {"config": {}, "class_name": "Ones"}, "beta_constraint": null, "beta_initializer": {"config": {}, "class_name": "Zeros"}, "gamma_constraint": null, "momentum": 0.99, "trainable": true, "gamma_regularizer": null, "scale": true, "moving_mean_initializer": {"config": {}, "class_name": "Zeros"}, "center": true}}, {"name": "add_4", "class_name": "Add", "inbound_nodes": [[["bn30_branch2c", 0, 0, {}], ["bn30_branch1", 0, 0, {}]]], "config": {"trainable": true, "name": "add_4"}}, {"name": "activation_13", "class_name": "Activation", "inbound_nodes": [[["add_4", 0, 0, {}]]], "config": {"trainable": true, "activation": "relu", "name": "activation_13"}}, {"name": "res31_branch2a", "class_name": "Conv2D", "inbound_nodes": [[["activation_13", 0, 0, {}]]], "config": {"data_format": "channels_last", "kernel_regularizer": null, "kernel_size": [1, 1], "filters": 128, "bias_initializer": {"config": {}, "class_name": "Zeros"}, "name": "res31_branch2a", "dilation_rate": [1, 1], "use_bias": true, "activity_regularizer": null, "kernel_initializer": {"config": {"distribution": "uniform", "seed": null, "scale": 1.0, "mode": "fan_avg"}, "class_name": "VarianceScaling"}, "padding": "valid", "strides": [1, 1], "trainable": true, "activation": "linear", "bias_regularizer": null, "bias_constraint": null, "kernel_constraint": null}}, {"name": "bn31_branch2a", "class_name": "BatchNormalization", "inbound_nodes": [[["res31_branch2a", 0, 0, {}]]], "config": {"axis": 3, "gamma_initializer": {"config": {}, "class_name": "Ones"}, "epsilon": 0.001, "name": "bn31_branch2a", "beta_regularizer": null, "moving_variance_initializer": {"config": {}, "class_name": "Ones"}, "beta_constraint": null, "beta_initializer": {"config": {}, "class_name": "Zeros"}, "gamma_constraint": null, "momentum": 0.99, "trainable": true, "gamma_regularizer": null, "scale": true, "moving_mean_initializer": {"config": {}, "class_name": "Zeros"}, "center": true}}, {"name": "activation_14", "class_name": "Activation", "inbound_nodes": [[["bn31_branch2a", 0, 0, {}]]], "config": {"trainable": true, "activation": "relu", "name": "activation_14"}}, {"name": "res31_branch2b", "class_name": "Conv2D", "inbound_nodes": [[["activation_14", 0, 0, {}]]], "config": {"data_format": "channels_last", "kernel_regularizer": null, "kernel_size": [3, 3], "filters": 128, "bias_initializer": {"config": {}, "class_name": "Zeros"}, "name": "res31_branch2b", "dilation_rate": [1, 1], "use_bias": true, "activity_regularizer": null, "kernel_initializer": {"config": {"distribution": "uniform", "seed": null, "scale": 1.0, "mode": "fan_avg"}, "class_name": "VarianceScaling"}, "padding": "same", "strides": [1, 1], "trainable": true, "activation": "linear", "bias_regularizer": null, "bias_constraint": null, "kernel_constraint": null}}, {"name": "bn31_branch2b", "class_name": "BatchNormalization", "inbound_nodes": [[["res31_branch2b", 0, 0, {}]]], "config": {"axis": 3, "gamma_initializer": {"config": {}, "class_name": "Ones"}, "epsilon": 0.001, "name": "bn31_branch2b", "beta_regularizer": null, "moving_variance_initializer": {"config": {}, "class_name": "Ones"}, "beta_constraint": null, "beta_initializer": {"config": {}, "class_name": "Zeros"}, "gamma_constraint": null, "momentum": 0.99, "trainable": true, "gamma_regularizer": null, "scale": true, "moving_mean_initializer": {"config": {}, "class_name": "Zeros"}, "center": true}}, {"name": "activation_15", "class_name": "Activation", "inbound_nodes": [[["bn31_branch2b", 0, 0, {}]]], "config": {"trainable": true, "activation": "relu", "name": "activation_15"}}, {"name": "res31_branch2c", "class_name": "Conv2D", "inbound_nodes": [[["activation_15", 0, 0, {}]]], "config": {"data_format": "channels_last", "kernel_regularizer": null, "kernel_size": [1, 1], "filters": 512, "bias_initializer": {"config": {}, "class_name": "Zeros"}, "name": "res31_branch2c", "dilation_rate": [1, 1], "use_bias": true, "activity_regularizer": null, "kernel_initializer": {"config": {"distribution": "uniform", "seed": null, "scale": 1.0, "mode": "fan_avg"}, "class_name": "VarianceScaling"}, "padding": "valid", "strides": [1, 1], "trainable": true, "activation": "linear", "bias_regularizer": null, "bias_constraint": null, "kernel_constraint": null}}, {"name": "bn31_branch2c", "class_name": "BatchNormalization", "inbound_nodes": [[["res31_branch2c", 0, 0, {}]]], "config": {"axis": 3, "gamma_initializer": {"config": {}, "class_name": "Ones"}, "epsilon": 0.001, "name": "bn31_branch2c", "beta_regularizer": null, "moving_variance_initializer": {"config": {}, "class_name": "Ones"}, "beta_constraint": null, "beta_initializer": {"config": {}, "class_name": "Zeros"}, "gamma_constraint": null, "momentum": 0.99, "trainable": true, "gamma_regularizer": null, "scale": true, "moving_mean_initializer": {"config": {}, "class_name": "Zeros"}, "center": true}}, {"name": "add_5", "class_name": "Add", "inbound_nodes": [[["bn31_branch2c", 0, 0, {}], ["activation_13", 0, 0, {}]]], "config": {"trainable": true, "name": "add_5"}}, {"name": "activation_16", "class_name": "Activation", "inbound_nodes": [[["add_5", 0, 0, {}]]], "config": {"trainable": true, "activation": "relu", "name": "activation_16"}}, {"name": "res32_branch2a", "class_name": "Conv2D", "inbound_nodes": [[["activation_16", 0, 0, {}]]], "config": {"data_format": "channels_last", "kernel_regularizer": null, "kernel_size": [1, 1], "filters": 128, "bias_initializer": {"config": {}, "class_name": "Zeros"}, "name": "res32_branch2a", "dilation_rate": [1, 1], "use_bias": true, "activity_regularizer": null, "kernel_initializer": {"config": {"distribution": "uniform", "seed": null, "scale": 1.0, "mode": "fan_avg"}, "class_name": "VarianceScaling"}, "padding": "valid", "strides": [1, 1], "trainable": true, "activation": "linear", "bias_regularizer": null, "bias_constraint": null, "kernel_constraint": null}}, {"name": "bn32_branch2a", "class_name": "BatchNormalization", "inbound_nodes": [[["res32_branch2a", 0, 0, {}]]], "config": {"axis": 3, "gamma_initializer": {"config": {}, "class_name": "Ones"}, "epsilon": 0.001, "name": "bn32_branch2a", "beta_regularizer": null, "moving_variance_initializer": {"config": {}, "class_name": "Ones"}, "beta_constraint": null, "beta_initializer": {"config": {}, "class_name": "Zeros"}, "gamma_constraint": null, "momentum": 0.99, "trainable": true, "gamma_regularizer": null, "scale": true, "moving_mean_initializer": {"config": {}, "class_name": "Zeros"}, "center": true}}, {"name": "activation_17", "class_name": "Activation", "inbound_nodes": [[["bn32_branch2a", 0, 0, {}]]], "config": {"trainable": true, "activation": "relu", "name": "activation_17"}}, {"name": "res32_branch2b", "class_name": "Conv2D", "inbound_nodes": [[["activation_17", 0, 0, {}]]], "config": {"data_format": "channels_last", "kernel_regularizer": null, "kernel_size": [3, 3], "filters": 128, "bias_initializer": {"config": {}, "class_name": "Zeros"}, "name": "res32_branch2b", "dilation_rate": [1, 1], "use_bias": true, "activity_regularizer": null, "kernel_initializer": {"config": {"distribution": "uniform", "seed": null, "scale": 1.0, "mode": "fan_avg"}, "class_name": "VarianceScaling"}, "padding": "same", "strides": [1, 1], "trainable": true, "activation": "linear", "bias_regularizer": null, "bias_constraint": null, "kernel_constraint": null}}, {"name": "bn32_branch2b", "class_name": "BatchNormalization", "inbound_nodes": [[["res32_branch2b", 0, 0, {}]]], "config": {"axis": 3, "gamma_initializer": {"config": {}, "class_name": "Ones"}, "epsilon": 0.001, "name": "bn32_branch2b", "beta_regularizer": null, "moving_variance_initializer": {"config": {}, "class_name": "Ones"}, "beta_constraint": null, "beta_initializer": {"config": {}, "class_name": "Zeros"}, "gamma_constraint": null, "momentum": 0.99, "trainable": true, "gamma_regularizer": null, "scale": true, "moving_mean_initializer": {"config": {}, "class_name": "Zeros"}, "center": true}}, {"name": "activation_18", "class_name": "Activation", "inbound_nodes": [[["bn32_branch2b", 0, 0, {}]]], "config": {"trainable": true, "activation": "relu", "name": "activation_18"}}, {"name": "res32_branch2c", "class_name": "Conv2D", "inbound_nodes": [[["activation_18", 0, 0, {}]]], "config": {"data_format": "channels_last", "kernel_regularizer": null, "kernel_size": [1, 1], "filters": 512, "bias_initializer": {"config": {}, "class_name": "Zeros"}, "name": "res32_branch2c", "dilation_rate": [1, 1], "use_bias": true, "activity_regularizer": null, "kernel_initializer": {"config": {"distribution": "uniform", "seed": null, "scale": 1.0, "mode": "fan_avg"}, "class_name": "VarianceScaling"}, "padding": "valid", "strides": [1, 1], "trainable": true, "activation": "linear", "bias_regularizer": null, "bias_constraint": null, "kernel_constraint": null}}, {"name": "bn32_branch2c", "class_name": "BatchNormalization", "inbound_nodes": [[["res32_branch2c", 0, 0, {}]]], "config": {"axis": 3, "gamma_initializer": {"config": {}, "class_name": "Ones"}, "epsilon": 0.001, "name": "bn32_branch2c", "beta_regularizer": null, "moving_variance_initializer": {"config": {}, "class_name": "Ones"}, "beta_constraint": null, "beta_initializer": {"config": {}, "class_name": "Zeros"}, "gamma_constraint": null, "momentum": 0.99, "trainable": true, "gamma_regularizer": null, "scale": true, "moving_mean_initializer": {"config": {}, "class_name": "Zeros"}, "center": true}}, {"name": "add_6", "class_name": "Add", "inbound_nodes": [[["bn32_branch2c", 0, 0, {}], ["activation_16", 0, 0, {}]]], "config": {"trainable": true, "name": "add_6"}}, {"name": "activation_19", "class_name": "Activation", "inbound_nodes": [[["add_6", 0, 0, {}]]], "config": {"trainable": true, "activation": "relu", "name": "activation_19"}}, {"name": "res33_branch2a", "class_name": "Conv2D", "inbound_nodes": [[["activation_19", 0, 0, {}]]], "config": {"data_format": "channels_last", "kernel_regularizer": null, "kernel_size": [1, 1], "filters": 128, "bias_initializer": {"config": {}, "class_name": "Zeros"}, "name": "res33_branch2a", "dilation_rate": [1, 1], "use_bias": true, "activity_regularizer": null, "kernel_initializer": {"config": {"distribution": "uniform", "seed": null, "scale": 1.0, "mode": "fan_avg"}, "class_name": "VarianceScaling"}, "padding": "valid", "strides": [1, 1], "trainable": true, "activation": "linear", "bias_regularizer": null, "bias_constraint": null, "kernel_constraint": null}}, {"name": "bn33_branch2a", "class_name": "BatchNormalization", "inbound_nodes": [[["res33_branch2a", 0, 0, {}]]], "config": {"axis": 3, "gamma_initializer": {"config": {}, "class_name": "Ones"}, "epsilon": 0.001, "name": "bn33_branch2a", "beta_regularizer": null, "moving_variance_initializer": {"config": {}, "class_name": "Ones"}, "beta_constraint": null, "beta_initializer": {"config": {}, "class_name": "Zeros"}, "gamma_constraint": null, "momentum": 0.99, "trainable": true, "gamma_regularizer": null, "scale": true, "moving_mean_initializer": {"config": {}, "class_name": "Zeros"}, "center": true}}, {"name": "activation_20", "class_name": "Activation", "inbound_nodes": [[["bn33_branch2a", 0, 0, {}]]], "config": {"trainable": true, "activation": "relu", "name": "activation_20"}}, {"name": "res33_branch2b", "class_name": "Conv2D", "inbound_nodes": [[["activation_20", 0, 0, {}]]], "config": {"data_format": "channels_last", "kernel_regularizer": null, "kernel_size": [3, 3], "filters": 128, "bias_initializer": {"config": {}, "class_name": "Zeros"}, "name": "res33_branch2b", "dilation_rate": [1, 1], "use_bias": true, "activity_regularizer": null, "kernel_initializer": {"config": {"distribution": "uniform", "seed": null, "scale": 1.0, "mode": "fan_avg"}, "class_name": "VarianceScaling"}, "padding": "same", "strides": [1, 1], "trainable": true, "activation": "linear", "bias_regularizer": null, "bias_constraint": null, "kernel_constraint": null}}, {"name": "bn33_branch2b", "class_name": "BatchNormalization", "inbound_nodes": [[["res33_branch2b", 0, 0, {}]]], "config": {"axis": 3, "gamma_initializer": {"config": {}, "class_name": "Ones"}, "epsilon": 0.001, "name": "bn33_branch2b", "beta_regularizer": null, "moving_variance_initializer": {"config": {}, "class_name": "Ones"}, "beta_constraint": null, "beta_initializer": {"config": {}, "class_name": "Zeros"}, "gamma_constraint": null, "momentum": 0.99, "trainable": true, "gamma_regularizer": null, "scale": true, "moving_mean_initializer": {"config": {}, "class_name": "Zeros"}, "center": true}}, {"name": "activation_21", "class_name": "Activation", "inbound_nodes": [[["bn33_branch2b", 0, 0, {}]]], "config": {"trainable": true, "activation": "relu", "name": "activation_21"}}, {"name": "res33_branch2c", "class_name": "Conv2D", "inbound_nodes": [[["activation_21", 0, 0, {}]]], "config": {"data_format": "channels_last", "kernel_regularizer": null, "kernel_size": [1, 1], "filters": 512, "bias_initializer": {"config": {}, "class_name": "Zeros"}, "name": "res33_branch2c", "dilation_rate": [1, 1], "use_bias": true, "activity_regularizer": null, "kernel_initializer": {"config": {"distribution": "uniform", "seed": null, "scale": 1.0, "mode": "fan_avg"}, "class_name": "VarianceScaling"}, "padding": "valid", "strides": [1, 1], "trainable": true, "activation": "linear", "bias_regularizer": null, "bias_constraint": null, "kernel_constraint": null}}, {"name": "bn33_branch2c", "class_name": "BatchNormalization", "inbound_nodes": [[["res33_branch2c", 0, 0, {}]]], "config": {"axis": 3, "gamma_initializer": {"config": {}, "class_name": "Ones"}, "epsilon": 0.001, "name": "bn33_branch2c", "beta_regularizer": null, "moving_variance_initializer": {"config": {}, "class_name": "Ones"}, "beta_constraint": null, "beta_initializer": {"config": {}, "class_name": "Zeros"}, "gamma_constraint": null, "momentum": 0.99, "trainable": true, "gamma_regularizer": null, "scale": true, "moving_mean_initializer": {"config": {}, "class_name": "Zeros"}, "center": true}}, {"name": "add_7", "class_name": "Add", "inbound_nodes": [[["bn33_branch2c", 0, 0, {}], ["activation_19", 0, 0, {}]]], "config": {"trainable": true, "name": "add_7"}}, {"name": "activation_22", "class_name": "Activation", "inbound_nodes": [[["add_7", 0, 0, {}]]], "config": {"trainable": true, "activation": "relu", "name": "activation_22"}}, {"name": "res34_branch2a", "class_name": "Conv2D", "inbound_nodes": [[["activation_22", 0, 0, {}]]], "config": {"data_format": "channels_last", "kernel_regularizer": null, "kernel_size": [1, 1], "filters": 128, "bias_initializer": {"config": {}, "class_name": "Zeros"}, "name": "res34_branch2a", "dilation_rate": [1, 1], "use_bias": true, "activity_regularizer": null, "kernel_initializer": {"config": {"distribution": "uniform", "seed": null, "scale": 1.0, "mode": "fan_avg"}, "class_name": "VarianceScaling"}, "padding": "valid", "strides": [1, 1], "trainable": true, "activation": "linear", "bias_regularizer": null, "bias_constraint": null, "kernel_constraint": null}}, {"name": "bn34_branch2a", "class_name": "BatchNormalization", "inbound_nodes": [[["res34_branch2a", 0, 0, {}]]], "config": {"axis": 3, "gamma_initializer": {"config": {}, "class_name": "Ones"}, "epsilon": 0.001, "name": "bn34_branch2a", "beta_regularizer": null, "moving_variance_initializer": {"config": {}, "class_name": "Ones"}, "beta_constraint": null, "beta_initializer": {"config": {}, "class_name": "Zeros"}, "gamma_constraint": null, "momentum": 0.99, "trainable": true, "gamma_regularizer": null, "scale": true, "moving_mean_initializer": {"config": {}, "class_name": "Zeros"}, "center": true}}, {"name": "activation_23", "class_name": "Activation", "inbound_nodes": [[["bn34_branch2a", 0, 0, {}]]], "config": {"trainable": true, "activation": "relu", "name": "activation_23"}}, {"name": "res34_branch2b", "class_name": "Conv2D", "inbound_nodes": [[["activation_23", 0, 0, {}]]], "config": {"data_format": "channels_last", "kernel_regularizer": null, "kernel_size": [3, 3], "filters": 128, "bias_initializer": {"config": {}, "class_name": "Zeros"}, "name": "res34_branch2b", "dilation_rate": [1, 1], "use_bias": true, "activity_regularizer": null, "kernel_initializer": {"config": {"distribution": "uniform", "seed": null, "scale": 1.0, "mode": "fan_avg"}, "class_name": "VarianceScaling"}, "padding": "same", "strides": [1, 1], "trainable": true, "activation": "linear", "bias_regularizer": null, "bias_constraint": null, "kernel_constraint": null}}, {"name": "bn34_branch2b", "class_name": "BatchNormalization", "inbound_nodes": [[["res34_branch2b", 0, 0, {}]]], "config": {"axis": 3, "gamma_initializer": {"config": {}, "class_name": "Ones"}, "epsilon": 0.001, "name": "bn34_branch2b", "beta_regularizer": null, "moving_variance_initializer": {"config": {}, "class_name": "Ones"}, "beta_constraint": null, "beta_initializer": {"config": {}, "class_name": "Zeros"}, "gamma_constraint": null, "momentum": 0.99, "trainable": true, "gamma_regularizer": null, "scale": true, "moving_mean_initializer": {"config": {}, "class_name": "Zeros"}, "center": true}}, {"name": "activation_24", "class_name": "Activation", "inbound_nodes": [[["bn34_branch2b", 0, 0, {}]]], "config": {"trainable": true, "activation": "relu", "name": "activation_24"}}, {"name": "res34_branch2c", "class_name": "Conv2D", "inbound_nodes": [[["activation_24", 0, 0, {}]]], "config": {"data_format": "channels_last", "kernel_regularizer": null, "kernel_size": [1, 1], "filters": 512, "bias_initializer": {"config": {}, "class_name": "Zeros"}, "name": "res34_branch2c", "dilation_rate": [1, 1], "use_bias": true, "activity_regularizer": null, "kernel_initializer": {"config": {"distribution": "uniform", "seed": null, "scale": 1.0, "mode": "fan_avg"}, "class_name": "VarianceScaling"}, "padding": "valid", "strides": [1, 1], "trainable": true, "activation": "linear", "bias_regularizer": null, "bias_constraint": null, "kernel_constraint": null}}, {"name": "bn34_branch2c", "class_name": "BatchNormalization", "inbound_nodes": [[["res34_branch2c", 0, 0, {}]]], "config": {"axis": 3, "gamma_initializer": {"config": {}, "class_name": "Ones"}, "epsilon": 0.001, "name": "bn34_branch2c", "beta_regularizer": null, "moving_variance_initializer": {"config": {}, "class_name": "Ones"}, "beta_constraint": null, "beta_initializer": {"config": {}, "class_name": "Zeros"}, "gamma_constraint": null, "momentum": 0.99, "trainable": true, "gamma_regularizer": null, "scale": true, "moving_mean_initializer": {"config": {}, "class_name": "Zeros"}, "center": true}}, {"name": "add_8", "class_name": "Add", "inbound_nodes": [[["bn34_branch2c", 0, 0, {}], ["activation_22", 0, 0, {}]]], "config": {"trainable": true, "name": "add_8"}}, {"name": "activation_25", "class_name": "Activation", "inbound_nodes": [[["add_8", 0, 0, {}]]], "config": {"trainable": true, "activation": "relu", "name": "activation_25"}}, {"name": "res35_branch2a", "class_name": "Conv2D", "inbound_nodes": [[["activation_25", 0, 0, {}]]], "config": {"data_format": "channels_last", "kernel_regularizer": null, "kernel_size": [1, 1], "filters": 128, "bias_initializer": {"config": {}, "class_name": "Zeros"}, "name": "res35_branch2a", "dilation_rate": [1, 1], "use_bias": true, "activity_regularizer": null, "kernel_initializer": {"config": {"distribution": "uniform", "seed": null, "scale": 1.0, "mode": "fan_avg"}, "class_name": "VarianceScaling"}, "padding": "valid", "strides": [1, 1], "trainable": true, "activation": "linear", "bias_regularizer": null, "bias_constraint": null, "kernel_constraint": null}}, {"name": "bn35_branch2a", "class_name": "BatchNormalization", "inbound_nodes": [[["res35_branch2a", 0, 0, {}]]], "config": {"axis": 3, "gamma_initializer": {"config": {}, "class_name": "Ones"}, "epsilon": 0.001, "name": "bn35_branch2a", "beta_regularizer": null, "moving_variance_initializer": {"config": {}, "class_name": "Ones"}, "beta_constraint": null, "beta_initializer": {"config": {}, "class_name": "Zeros"}, "gamma_constraint": null, "momentum": 0.99, "trainable": true, "gamma_regularizer": null, "scale": true, "moving_mean_initializer": {"config": {}, "class_name": "Zeros"}, "center": true}}, {"name": "activation_26", "class_name": "Activation", "inbound_nodes": [[["bn35_branch2a", 0, 0, {}]]], "config": {"trainable": true, "activation": "relu", "name": "activation_26"}}, {"name": "res35_branch2b", "class_name": "Conv2D", "inbound_nodes": [[["activation_26", 0, 0, {}]]], "config": {"data_format": "channels_last", "kernel_regularizer": null, "kernel_size": [3, 3], "filters": 128, "bias_initializer": {"config": {}, "class_name": "Zeros"}, "name": "res35_branch2b", "dilation_rate": [1, 1], "use_bias": true, "activity_regularizer": null, "kernel_initializer": {"config": {"distribution": "uniform", "seed": null, "scale": 1.0, "mode": "fan_avg"}, "class_name": "VarianceScaling"}, "padding": "same", "strides": [1, 1], "trainable": true, "activation": "linear", "bias_regularizer": null, "bias_constraint": null, "kernel_constraint": null}}, {"name": "bn35_branch2b", "class_name": "BatchNormalization", "inbound_nodes": [[["res35_branch2b", 0, 0, {}]]], "config": {"axis": 3, "gamma_initializer": {"config": {}, "class_name": "Ones"}, "epsilon": 0.001, "name": "bn35_branch2b", "beta_regularizer": null, "moving_variance_initializer": {"config": {}, "class_name": "Ones"}, "beta_constraint": null, "beta_initializer": {"config": {}, "class_name": "Zeros"}, "gamma_constraint": null, "momentum": 0.99, "trainable": true, "gamma_regularizer": null, "scale": true, "moving_mean_initializer": {"config": {}, "class_name": "Zeros"}, "center": true}}, {"name": "activation_27", "class_name": "Activation", "inbound_nodes": [[["bn35_branch2b", 0, 0, {}]]], "config": {"trainable": true, "activation": "relu", "name": "activation_27"}}, {"name": "res35_branch2c", "class_name": "Conv2D", "inbound_nodes": [[["activation_27", 0, 0, {}]]], "config": {"data_format": "channels_last", "kernel_regularizer": null, "kernel_size": [1, 1], "filters": 512, "bias_initializer": {"config": {}, "class_name": "Zeros"}, "name": "res35_branch2c", "dilation_rate": [1, 1], "use_bias": true, "activity_regularizer": null, "kernel_initializer": {"config": {"distribution": "uniform", "seed": null, "scale": 1.0, "mode": "fan_avg"}, "class_name": "VarianceScaling"}, "padding": "valid", "strides": [1, 1], "trainable": true, "activation": "linear", "bias_regularizer": null, "bias_constraint": null, "kernel_constraint": null}}, {"name": "bn35_branch2c", "class_name": "BatchNormalization", "inbound_nodes": [[["res35_branch2c", 0, 0, {}]]], "config": {"axis": 3, "gamma_initializer": {"config": {}, "class_name": "Ones"}, "epsilon": 0.001, "name": "bn35_branch2c", "beta_regularizer": null, "moving_variance_initializer": {"config": {}, "class_name": "Ones"}, "beta_constraint": null, "beta_initializer": {"config": {}, "class_name": "Zeros"}, "gamma_constraint": null, "momentum": 0.99, "trainable": true, "gamma_regularizer": null, "scale": true, "moving_mean_initializer": {"config": {}, "class_name": "Zeros"}, "center": true}}, {"name": "add_9", "class_name": "Add", "inbound_nodes": [[["bn35_branch2c", 0, 0, {}], ["activation_25", 0, 0, {}]]], "config": {"trainable": true, "name": "add_9"}}, {"name": "activation_28", "class_name": "Activation", "inbound_nodes": [[["add_9", 0, 0, {}]]], "config": {"trainable": true, "activation": "relu", "name": "activation_28"}}, {"name": "res36_branch2a", "class_name": "Conv2D", "inbound_nodes": [[["activation_28", 0, 0, {}]]], "config": {"data_format": "channels_last", "kernel_regularizer": null, "kernel_size": [1, 1], "filters": 128, "bias_initializer": {"config": {}, "class_name": "Zeros"}, "name": "res36_branch2a", "dilation_rate": [1, 1], "use_bias": true, "activity_regularizer": null, "kernel_initializer": {"config": {"distribution": "uniform", "seed": null, "scale": 1.0, "mode": "fan_avg"}, "class_name": "VarianceScaling"}, "padding": "valid", "strides": [1, 1], "trainable": true, "activation": "linear", "bias_regularizer": null, "bias_constraint": null, "kernel_constraint": null}}, {"name": "bn36_branch2a", "class_name": "BatchNormalization", "inbound_nodes": [[["res36_branch2a", 0, 0, {}]]], "config": {"axis": 3, "gamma_initializer": {"config": {}, "class_name": "Ones"}, "epsilon": 0.001, "name": "bn36_branch2a", "beta_regularizer": null, "moving_variance_initializer": {"config": {}, "class_name": "Ones"}, "beta_constraint": null, "beta_initializer": {"config": {}, "class_name": "Zeros"}, "gamma_constraint": null, "momentum": 0.99, "trainable": true, "gamma_regularizer": null, "scale": true, "moving_mean_initializer": {"config": {}, "class_name": "Zeros"}, "center": true}}, {"name": "activation_29", "class_name": "Activation", "inbound_nodes": [[["bn36_branch2a", 0, 0, {}]]], "config": {"trainable": true, "activation": "relu", "name": "activation_29"}}, {"name": "res36_branch2b", "class_name": "Conv2D", "inbound_nodes": [[["activation_29", 0, 0, {}]]], "config": {"data_format": "channels_last", "kernel_regularizer": null, "kernel_size": [3, 3], "filters": 128, "bias_initializer": {"config": {}, "class_name": "Zeros"}, "name": "res36_branch2b", "dilation_rate": [1, 1], "use_bias": true, "activity_regularizer": null, "kernel_initializer": {"config": {"distribution": "uniform", "seed": null, "scale": 1.0, "mode": "fan_avg"}, "class_name": "VarianceScaling"}, "padding": "same", "strides": [1, 1], "trainable": true, "activation": "linear", "bias_regularizer": null, "bias_constraint": null, "kernel_constraint": null}}, {"name": "bn36_branch2b", "class_name": "BatchNormalization", "inbound_nodes": [[["res36_branch2b", 0, 0, {}]]], "config": {"axis": 3, "gamma_initializer": {"config": {}, "class_name": "Ones"}, "epsilon": 0.001, "name": "bn36_branch2b", "beta_regularizer": null, "moving_variance_initializer": {"config": {}, "class_name": "Ones"}, "beta_constraint": null, "beta_initializer": {"config": {}, "class_name": "Zeros"}, "gamma_constraint": null, "momentum": 0.99, "trainable": true, "gamma_regularizer": null, "scale": true, "moving_mean_initializer": {"config": {}, "class_name": "Zeros"}, "center": true}}, {"name": "activation_30", "class_name": "Activation", "inbound_nodes": [[["bn36_branch2b", 0, 0, {}]]], "config": {"trainable": true, "activation": "relu", "name": "activation_30"}}, {"name": "res36_branch2c", "class_name": "Conv2D", "inbound_nodes": [[["activation_30", 0, 0, {}]]], "config": {"data_format": "channels_last", "kernel_regularizer": null, "kernel_size": [1, 1], "filters": 512, "bias_initializer": {"config": {}, "class_name": "Zeros"}, "name": "res36_branch2c", "dilation_rate": [1, 1], "use_bias": true, "activity_regularizer": null, "kernel_initializer": {"config": {"distribution": "uniform", "seed": null, "scale": 1.0, "mode": "fan_avg"}, "class_name": "VarianceScaling"}, "padding": "valid", "strides": [1, 1], "trainable": true, "activation": "linear", "bias_regularizer": null, "bias_constraint": null, "kernel_constraint": null}}, {"name": "bn36_branch2c", "class_name": "BatchNormalization", "inbound_nodes": [[["res36_branch2c", 0, 0, {}]]], "config": {"axis": 3, "gamma_initializer": {"config": {}, "class_name": "Ones"}, "epsilon": 0.001, "name": "bn36_branch2c", "beta_regularizer": null, "moving_variance_initializer": {"config": {}, "class_name": "Ones"}, "beta_constraint": null, "beta_initializer": {"config": {}, "class_name": "Zeros"}, "gamma_constraint": null, "momentum": 0.99, "trainable": true, "gamma_regularizer": null, "scale": true, "moving_mean_initializer": {"config": {}, "class_name": "Zeros"}, "center": true}}, {"name": "add_10", "class_name": "Add", "inbound_nodes": [[["bn36_branch2c", 0, 0, {}], ["activation_28", 0, 0, {}]]], "config": {"trainable": true, "name": "add_10"}}, {"name": "activation_31", "class_name": "Activation", "inbound_nodes": [[["add_10", 0, 0, {}]]], "config": {"trainable": true, "activation": "relu", "name": "activation_31"}}, {"name": "res37_branch2a", "class_name": "Conv2D", "inbound_nodes": [[["activation_31", 0, 0, {}]]], "config": {"data_format": "channels_last", "kernel_regularizer": null, "kernel_size": [1, 1], "filters": 128, "bias_initializer": {"config": {}, "class_name": "Zeros"}, "name": "res37_branch2a", "dilation_rate": [1, 1], "use_bias": true, "activity_regularizer": null, "kernel_initializer": {"config": {"distribution": "uniform", "seed": null, "scale": 1.0, "mode": "fan_avg"}, "class_name": "VarianceScaling"}, "padding": "valid", "strides": [1, 1], "trainable": true, "activation": "linear", "bias_regularizer": null, "bias_constraint": null, "kernel_constraint": null}}, {"name": "bn37_branch2a", "class_name": "BatchNormalization", "inbound_nodes": [[["res37_branch2a", 0, 0, {}]]], "config": {"axis": 3, "gamma_initializer": {"config": {}, "class_name": "Ones"}, "epsilon": 0.001, "name": "bn37_branch2a", "beta_regularizer": null, "moving_variance_initializer": {"config": {}, "class_name": "Ones"}, "beta_constraint": null, "beta_initializer": {"config": {}, "class_name": "Zeros"}, "gamma_constraint": null, "momentum": 0.99, "trainable": true, "gamma_regularizer": null, "scale": true, "moving_mean_initializer": {"config": {}, "class_name": "Zeros"}, "center": true}}, {"name": "activation_32", "class_name": "Activation", "inbound_nodes": [[["bn37_branch2a", 0, 0, {}]]], "config": {"trainable": true, "activation": "relu", "name": "activation_32"}}, {"name": "res37_branch2b", "class_name": "Conv2D", "inbound_nodes": [[["activation_32", 0, 0, {}]]], "config": {"data_format": "channels_last", "kernel_regularizer": null, "kernel_size": [3, 3], "filters": 128, "bias_initializer": {"config": {}, "class_name": "Zeros"}, "name": "res37_branch2b", "dilation_rate": [1, 1], "use_bias": true, "activity_regularizer": null, "kernel_initializer": {"config": {"distribution": "uniform", "seed": null, "scale": 1.0, "mode": "fan_avg"}, "class_name": "VarianceScaling"}, "padding": "same", "strides": [1, 1], "trainable": true, "activation": "linear", "bias_regularizer": null, "bias_constraint": null, "kernel_constraint": null}}, {"name": "bn37_branch2b", "class_name": "BatchNormalization", "inbound_nodes": [[["res37_branch2b", 0, 0, {}]]], "config": {"axis": 3, "gamma_initializer": {"config": {}, "class_name": "Ones"}, "epsilon": 0.001, "name": "bn37_branch2b", "beta_regularizer": null, "moving_variance_initializer": {"config": {}, "class_name": "Ones"}, "beta_constraint": null, "beta_initializer": {"config": {}, "class_name": "Zeros"}, "gamma_constraint": null, "momentum": 0.99, "trainable": true, "gamma_regularizer": null, "scale": true, "moving_mean_initializer": {"config": {}, "class_name": "Zeros"}, "center": true}}, {"name": "activation_33", "class_name": "Activation", "inbound_nodes": [[["bn37_branch2b", 0, 0, {}]]], "config": {"trainable": true, "activation": "relu", "name": "activation_33"}}, {"name": "res37_branch2c", "class_name": "Conv2D", "inbound_nodes": [[["activation_33", 0, 0, {}]]], "config": {"data_format": "channels_last", "kernel_regularizer": null, "kernel_size": [1, 1], "filters": 512, "bias_initializer": {"config": {}, "class_name": "Zeros"}, "name": "res37_branch2c", "dilation_rate": [1, 1], "use_bias": true, "activity_regularizer": null, "kernel_initializer": {"config": {"distribution": "uniform", "seed": null, "scale": 1.0, "mode": "fan_avg"}, "class_name": "VarianceScaling"}, "padding": "valid", "strides": [1, 1], "trainable": true, "activation": "linear", "bias_regularizer": null, "bias_constraint": null, "kernel_constraint": null}}, {"name": "bn37_branch2c", "class_name": "BatchNormalization", "inbound_nodes": [[["res37_branch2c", 0, 0, {}]]], "config": {"axis": 3, "gamma_initializer": {"config": {}, "class_name": "Ones"}, "epsilon": 0.001, "name": "bn37_branch2c", "beta_regularizer": null, "moving_variance_initializer": {"config": {}, "class_name": "Ones"}, "beta_constraint": null, "beta_initializer": {"config": {}, "class_name": "Zeros"}, "gamma_constraint": null, "momentum": 0.99, "trainable": true, "gamma_regularizer": null, "scale": true, "moving_mean_initializer": {"config": {}, "class_name": "Zeros"}, "center": true}}, {"name": "add_11", "class_name": "Add", "inbound_nodes": [[["bn37_branch2c", 0, 0, {}], ["activation_31", 0, 0, {}]]], "config": {"trainable": true, "name": "add_11"}}, {"name": "activation_34", "class_name": "Activation", "inbound_nodes": [[["add_11", 0, 0, {}]]], "config": {"trainable": true, "activation": "relu", "name": "activation_34"}}, {"name": "res40_branch2a", "class_name": "Conv2D", "inbound_nodes": [[["activation_34", 0, 0, {}]]], "config": {"data_format": "channels_last", "kernel_regularizer": null, "kernel_size": [1, 1], "filters": 256, "bias_initializer": {"config": {}, "class_name": "Zeros"}, "name": "res40_branch2a", "dilation_rate": [1, 1], "use_bias": true, "activity_regularizer": null, "kernel_initializer": {"config": {"distribution": "uniform", "seed": null, "scale": 1.0, "mode": "fan_avg"}, "class_name": "VarianceScaling"}, "padding": "valid", "strides": [2, 2], "trainable": true, "activation": "linear", "bias_regularizer": null, "bias_constraint": null, "kernel_constraint": null}}, {"name": "bn40_branch2a", "class_name": "BatchNormalization", "inbound_nodes": [[["res40_branch2a", 0, 0, {}]]], "config": {"axis": 3, "gamma_initializer": {"config": {}, "class_name": "Ones"}, "epsilon": 0.001, "name": "bn40_branch2a", "beta_regularizer": null, "moving_variance_initializer": {"config": {}, "class_name": "Ones"}, "beta_constraint": null, "beta_initializer": {"config": {}, "class_name": "Zeros"}, "gamma_constraint": null, "momentum": 0.99, "trainable": true, "gamma_regularizer": null, "scale": true, "moving_mean_initializer": {"config": {}, "class_name": "Zeros"}, "center": true}}, {"name": "activation_35", "class_name": "Activation", "inbound_nodes": [[["bn40_branch2a", 0, 0, {}]]], "config": {"trainable": true, "activation": "relu", "name": "activation_35"}}, {"name": "res40_branch2b", "class_name": "Conv2D", "inbound_nodes": [[["activation_35", 0, 0, {}]]], "config": {"data_format": "channels_last", "kernel_regularizer": null, "kernel_size": [3, 3], "filters": 256, "bias_initializer": {"config": {}, "class_name": "Zeros"}, "name": "res40_branch2b", "dilation_rate": [1, 1], "use_bias": true, "activity_regularizer": null, "kernel_initializer": {"config": {"distribution": "uniform", "seed": null, "scale": 1.0, "mode": "fan_avg"}, "class_name": "VarianceScaling"}, "padding": "same", "strides": [1, 1], "trainable": true, "activation": "linear", "bias_regularizer": null, "bias_constraint": null, "kernel_constraint": null}}, {"name": "bn40_branch2b", "class_name": "BatchNormalization", "inbound_nodes": [[["res40_branch2b", 0, 0, {}]]], "config": {"axis": 3, "gamma_initializer": {"config": {}, "class_name": "Ones"}, "epsilon": 0.001, "name": "bn40_branch2b", "beta_regularizer": null, "moving_variance_initializer": {"config": {}, "class_name": "Ones"}, "beta_constraint": null, "beta_initializer": {"config": {}, "class_name": "Zeros"}, "gamma_constraint": null, "momentum": 0.99, "trainable": true, "gamma_regularizer": null, "scale": true, "moving_mean_initializer": {"config": {}, "class_name": "Zeros"}, "center": true}}, {"name": "activation_36", "class_name": "Activation", "inbound_nodes": [[["bn40_branch2b", 0, 0, {}]]], "config": {"trainable": true, "activation": "relu", "name": "activation_36"}}, {"name": "res40_branch2c", "class_name": "Conv2D", "inbound_nodes": [[["activation_36", 0, 0, {}]]], "config": {"data_format": "channels_last", "kernel_regularizer": null, "kernel_size": [1, 1], "filters": 1024, "bias_initializer": {"config": {}, "class_name": "Zeros"}, "name": "res40_branch2c", "dilation_rate": [1, 1], "use_bias": true, "activity_regularizer": null, "kernel_initializer": {"config": {"distribution": "uniform", "seed": null, "scale": 1.0, "mode": "fan_avg"}, "class_name": "VarianceScaling"}, "padding": "valid", "strides": [1, 1], "trainable": true, "activation": "linear", "bias_regularizer": null, "bias_constraint": null, "kernel_constraint": null}}, {"name": "res40_branch1", "class_name": "Conv2D", "inbound_nodes": [[["activation_34", 0, 0, {}]]], "config": {"data_format": "channels_last", "kernel_regularizer": null, "kernel_size": [1, 1], "filters": 1024, "bias_initializer": {"config": {}, "class_name": "Zeros"}, "name": "res40_branch1", "dilation_rate": [1, 1], "use_bias": true, "activity_regularizer": null, "kernel_initializer": {"config": {"distribution": "uniform", "seed": null, "scale": 1.0, "mode": "fan_avg"}, "class_name": "VarianceScaling"}, "padding": "valid", "strides": [2, 2], "trainable": true, "activation": "linear", "bias_regularizer": null, "bias_constraint": null, "kernel_constraint": null}}, {"name": "bn40_branch2c", "class_name": "BatchNormalization", "inbound_nodes": [[["res40_branch2c", 0, 0, {}]]], "config": {"axis": 3, "gamma_initializer": {"config": {}, "class_name": "Ones"}, "epsilon": 0.001, "name": "bn40_branch2c", "beta_regularizer": null, "moving_variance_initializer": {"config": {}, "class_name": "Ones"}, "beta_constraint": null, "beta_initializer": {"config": {}, "class_name": "Zeros"}, "gamma_constraint": null, "momentum": 0.99, "trainable": true, "gamma_regularizer": null, "scale": true, "moving_mean_initializer": {"config": {}, "class_name": "Zeros"}, "center": true}}, {"name": "bn40_branch1", "class_name": "BatchNormalization", "inbound_nodes": [[["res40_branch1", 0, 0, {}]]], "config": {"axis": 3, "gamma_initializer": {"config": {}, "class_name": "Ones"}, "epsilon": 0.001, "name": "bn40_branch1", "beta_regularizer": null, "moving_variance_initializer": {"config": {}, "class_name": "Ones"}, "beta_constraint": null, "beta_initializer": {"config": {}, "class_name": "Zeros"}, "gamma_constraint": null, "momentum": 0.99, "trainable": true, "gamma_regularizer": null, "scale": true, "moving_mean_initializer": {"config": {}, "class_name": "Zeros"}, "center": true}}, {"name": "add_12", "class_name": "Add", "inbound_nodes": [[["bn40_branch2c", 0, 0, {}], ["bn40_branch1", 0, 0, {}]]], "config": {"trainable": true, "name": "add_12"}}, {"name": "activation_37", "class_name": "Activation", "inbound_nodes": [[["add_12", 0, 0, {}]]], "config": {"trainable": true, "activation": "relu", "name": "activation_37"}}, {"name": "res41_branch2a", "class_name": "Conv2D", "inbound_nodes": [[["activation_37", 0, 0, {}]]], "config": {"data_format": "channels_last", "kernel_regularizer": null, "kernel_size": [1, 1], "filters": 256, "bias_initializer": {"config": {}, "class_name": "Zeros"}, "name": "res41_branch2a", "dilation_rate": [1, 1], "use_bias": true, "activity_regularizer": null, "kernel_initializer": {"config": {"distribution": "uniform", "seed": null, "scale": 1.0, "mode": "fan_avg"}, "class_name": "VarianceScaling"}, "padding": "valid", "strides": [1, 1], "trainable": true, "activation": "linear", "bias_regularizer": null, "bias_constraint": null, "kernel_constraint": null}}, {"name": "bn41_branch2a", "class_name": "BatchNormalization", "inbound_nodes": [[["res41_branch2a", 0, 0, {}]]], "config": {"axis": 3, "gamma_initializer": {"config": {}, "class_name": "Ones"}, "epsilon": 0.001, "name": "bn41_branch2a", "beta_regularizer": null, "moving_variance_initializer": {"config": {}, "class_name": "Ones"}, "beta_constraint": null, "beta_initializer": {"config": {}, "class_name": "Zeros"}, "gamma_constraint": null, "momentum": 0.99, "trainable": true, "gamma_regularizer": null, "scale": true, "moving_mean_initializer": {"config": {}, "class_name": "Zeros"}, "center": true}}, {"name": "activation_38", "class_name": "Activation", "inbound_nodes": [[["bn41_branch2a", 0, 0, {}]]], "config": {"trainable": true, "activation": "relu", "name": "activation_38"}}, {"name": "res41_branch2b", "class_name": "Conv2D", "inbound_nodes": [[["activation_38", 0, 0, {}]]], "config": {"data_format": "channels_last", "kernel_regularizer": null, "kernel_size": [3, 3], "filters": 256, "bias_initializer": {"config": {}, "class_name": "Zeros"}, "name": "res41_branch2b", "dilation_rate": [1, 1], "use_bias": true, "activity_regularizer": null, "kernel_initializer": {"config": {"distribution": "uniform", "seed": null, "scale": 1.0, "mode": "fan_avg"}, "class_name": "VarianceScaling"}, "padding": "same", "strides": [1, 1], "trainable": true, "activation": "linear", "bias_regularizer": null, "bias_constraint": null, "kernel_constraint": null}}, {"name": "bn41_branch2b", "class_name": "BatchNormalization", "inbound_nodes": [[["res41_branch2b", 0, 0, {}]]], "config": {"axis": 3, "gamma_initializer": {"config": {}, "class_name": "Ones"}, "epsilon": 0.001, "name": "bn41_branch2b", "beta_regularizer": null, "moving_variance_initializer": {"config": {}, "class_name": "Ones"}, "beta_constraint": null, "beta_initializer": {"config": {}, "class_name": "Zeros"}, "gamma_constraint": null, "momentum": 0.99, "trainable": true, "gamma_regularizer": null, "scale": true, "moving_mean_initializer": {"config": {}, "class_name": "Zeros"}, "center": true}}, {"name": "activation_39", "class_name": "Activation", "inbound_nodes": [[["bn41_branch2b", 0, 0, {}]]], "config": {"trainable": true, "activation": "relu", "name": "activation_39"}}, {"name": "res41_branch2c", "class_name": "Conv2D", "inbound_nodes": [[["activation_39", 0, 0, {}]]], "config": {"data_format": "channels_last", "kernel_regularizer": null, "kernel_size": [1, 1], "filters": 1024, "bias_initializer": {"config": {}, "class_name": "Zeros"}, "name": "res41_branch2c", "dilation_rate": [1, 1], "use_bias": true, "activity_regularizer": null, "kernel_initializer": {"config": {"distribution": "uniform", "seed": null, "scale": 1.0, "mode": "fan_avg"}, "class_name": "VarianceScaling"}, "padding": "valid", "strides": [1, 1], "trainable": true, "activation": "linear", "bias_regularizer": null, "bias_constraint": null, "kernel_constraint": null}}, {"name": "bn41_branch2c", "class_name": "BatchNormalization", "inbound_nodes": [[["res41_branch2c", 0, 0, {}]]], "config": {"axis": 3, "gamma_initializer": {"config": {}, "class_name": "Ones"}, "epsilon": 0.001, "name": "bn41_branch2c", "beta_regularizer": null, "moving_variance_initializer": {"config": {}, "class_name": "Ones"}, "beta_constraint": null, "beta_initializer": {"config": {}, "class_name": "Zeros"}, "gamma_constraint": null, "momentum": 0.99, "trainable": true, "gamma_regularizer": null, "scale": true, "moving_mean_initializer": {"config": {}, "class_name": "Zeros"}, "center": true}}, {"name": "add_13", "class_name": "Add", "inbound_nodes": [[["bn41_branch2c", 0, 0, {}], ["activation_37", 0, 0, {}]]], "config": {"trainable": true, "name": "add_13"}}, {"name": "activation_40", "class_name": "Activation", "inbound_nodes": [[["add_13", 0, 0, {}]]], "config": {"trainable": true, "activation": "relu", "name": "activation_40"}}, {"name": "res42_branch2a", "class_name": "Conv2D", "inbound_nodes": [[["activation_40", 0, 0, {}]]], "config": {"data_format": "channels_last", "kernel_regularizer": null, "kernel_size": [1, 1], "filters": 256, "bias_initializer": {"config": {}, "class_name": "Zeros"}, "name": "res42_branch2a", "dilation_rate": [1, 1], "use_bias": true, "activity_regularizer": null, "kernel_initializer": {"config": {"distribution": "uniform", "seed": null, "scale": 1.0, "mode": "fan_avg"}, "class_name": "VarianceScaling"}, "padding": "valid", "strides": [1, 1], "trainable": true, "activation": "linear", "bias_regularizer": null, "bias_constraint": null, "kernel_constraint": null}}, {"name": "bn42_branch2a", "class_name": "BatchNormalization", "inbound_nodes": [[["res42_branch2a", 0, 0, {}]]], "config": {"axis": 3, "gamma_initializer": {"config": {}, "class_name": "Ones"}, "epsilon": 0.001, "name": "bn42_branch2a", "beta_regularizer": null, "moving_variance_initializer": {"config": {}, "class_name": "Ones"}, "beta_constraint": null, "beta_initializer": {"config": {}, "class_name": "Zeros"}, "gamma_constraint": null, "momentum": 0.99, "trainable": true, "gamma_regularizer": null, "scale": true, "moving_mean_initializer": {"config": {}, "class_name": "Zeros"}, "center": true}}, {"name": "activation_41", "class_name": "Activation", "inbound_nodes": [[["bn42_branch2a", 0, 0, {}]]], "config": {"trainable": true, "activation": "relu", "name": "activation_41"}}, {"name": "res42_branch2b", "class_name": "Conv2D", "inbound_nodes": [[["activation_41", 0, 0, {}]]], "config": {"data_format": "channels_last", "kernel_regularizer": null, "kernel_size": [3, 3], "filters": 256, "bias_initializer": {"config": {}, "class_name": "Zeros"}, "name": "res42_branch2b", "dilation_rate": [1, 1], "use_bias": true, "activity_regularizer": null, "kernel_initializer": {"config": {"distribution": "uniform", "seed": null, "scale": 1.0, "mode": "fan_avg"}, "class_name": "VarianceScaling"}, "padding": "same", "strides": [1, 1], "trainable": true, "activation": "linear", "bias_regularizer": null, "bias_constraint": null, "kernel_constraint": null}}, {"name": "bn42_branch2b", "class_name": "BatchNormalization", "inbound_nodes": [[["res42_branch2b", 0, 0, {}]]], "config": {"axis": 3, "gamma_initializer": {"config": {}, "class_name": "Ones"}, "epsilon": 0.001, "name": "bn42_branch2b", "beta_regularizer": null, "moving_variance_initializer": {"config": {}, "class_name": "Ones"}, "beta_constraint": null, "beta_initializer": {"config": {}, "class_name": "Zeros"}, "gamma_constraint": null, "momentum": 0.99, "trainable": true, "gamma_regularizer": null, "scale": true, "moving_mean_initializer": {"config": {}, "class_name": "Zeros"}, "center": true}}, {"name": "activation_42", "class_name": "Activation", "inbound_nodes": [[["bn42_branch2b", 0, 0, {}]]], "config": {"trainable": true, "activation": "relu", "name": "activation_42"}}, {"name": "res42_branch2c", "class_name": "Conv2D", "inbound_nodes": [[["activation_42", 0, 0, {}]]], "config": {"data_format": "channels_last", "kernel_regularizer": null, "kernel_size": [1, 1], "filters": 1024, "bias_initializer": {"config": {}, "class_name": "Zeros"}, "name": "res42_branch2c", "dilation_rate": [1, 1], "use_bias": true, "activity_regularizer": null, "kernel_initializer": {"config": {"distribution": "uniform", "seed": null, "scale": 1.0, "mode": "fan_avg"}, "class_name": "VarianceScaling"}, "padding": "valid", "strides": [1, 1], "trainable": true, "activation": "linear", "bias_regularizer": null, "bias_constraint": null, "kernel_constraint": null}}, {"name": "bn42_branch2c", "class_name": "BatchNormalization", "inbound_nodes": [[["res42_branch2c", 0, 0, {}]]], "config": {"axis": 3, "gamma_initializer": {"config": {}, "class_name": "Ones"}, "epsilon": 0.001, "name": "bn42_branch2c", "beta_regularizer": null, "moving_variance_initializer": {"config": {}, "class_name": "Ones"}, "beta_constraint": null, "beta_initializer": {"config": {}, "class_name": "Zeros"}, "gamma_constraint": null, "momentum": 0.99, "trainable": true, "gamma_regularizer": null, "scale": true, "moving_mean_initializer": {"config": {}, "class_name": "Zeros"}, "center": true}}, {"name": "add_14", "class_name": "Add", "inbound_nodes": [[["bn42_branch2c", 0, 0, {}], ["activation_40", 0, 0, {}]]], "config": {"trainable": true, "name": "add_14"}}, {"name": "activation_43", "class_name": "Activation", "inbound_nodes": [[["add_14", 0, 0, {}]]], "config": {"trainable": true, "activation": "relu", "name": "activation_43"}}, {"name": "res43_branch2a", "class_name": "Conv2D", "inbound_nodes": [[["activation_43", 0, 0, {}]]], "config": {"data_format": "channels_last", "kernel_regularizer": null, "kernel_size": [1, 1], "filters": 256, "bias_initializer": {"config": {}, "class_name": "Zeros"}, "name": "res43_branch2a", "dilation_rate": [1, 1], "use_bias": true, "activity_regularizer": null, "kernel_initializer": {"config": {"distribution": "uniform", "seed": null, "scale": 1.0, "mode": "fan_avg"}, "class_name": "VarianceScaling"}, "padding": "valid", "strides": [1, 1], "trainable": true, "activation": "linear", "bias_regularizer": null, "bias_constraint": null, "kernel_constraint": null}}, {"name": "bn43_branch2a", "class_name": "BatchNormalization", "inbound_nodes": [[["res43_branch2a", 0, 0, {}]]], "config": {"axis": 3, "gamma_initializer": {"config": {}, "class_name": "Ones"}, "epsilon": 0.001, "name": "bn43_branch2a", "beta_regularizer": null, "moving_variance_initializer": {"config": {}, "class_name": "Ones"}, "beta_constraint": null, "beta_initializer": {"config": {}, "class_name": "Zeros"}, "gamma_constraint": null, "momentum": 0.99, "trainable": true, "gamma_regularizer": null, "scale": true, "moving_mean_initializer": {"config": {}, "class_name": "Zeros"}, "center": true}}, {"name": "activation_44", "class_name": "Activation", "inbound_nodes": [[["bn43_branch2a", 0, 0, {}]]], "config": {"trainable": true, "activation": "relu", "name": "activation_44"}}, {"name": "res43_branch2b", "class_name": "Conv2D", "inbound_nodes": [[["activation_44", 0, 0, {}]]], "config": {"data_format": "channels_last", "kernel_regularizer": null, "kernel_size": [3, 3], "filters": 256, "bias_initializer": {"config": {}, "class_name": "Zeros"}, "name": "res43_branch2b", "dilation_rate": [1, 1], "use_bias": true, "activity_regularizer": null, "kernel_initializer": {"config": {"distribution": "uniform", "seed": null, "scale": 1.0, "mode": "fan_avg"}, "class_name": "VarianceScaling"}, "padding": "same", "strides": [1, 1], "trainable": true, "activation": "linear", "bias_regularizer": null, "bias_constraint": null, "kernel_constraint": null}}, {"name": "bn43_branch2b", "class_name": "BatchNormalization", "inbound_nodes": [[["res43_branch2b", 0, 0, {}]]], "config": {"axis": 3, "gamma_initializer": {"config": {}, "class_name": "Ones"}, "epsilon": 0.001, "name": "bn43_branch2b", "beta_regularizer": null, "moving_variance_initializer": {"config": {}, "class_name": "Ones"}, "beta_constraint": null, "beta_initializer": {"config": {}, "class_name": "Zeros"}, "gamma_constraint": null, "momentum": 0.99, "trainable": true, "gamma_regularizer": null, "scale": true, "moving_mean_initializer": {"config": {}, "class_name": "Zeros"}, "center": true}}, {"name": "activation_45", "class_name": "Activation", "inbound_nodes": [[["bn43_branch2b", 0, 0, {}]]], "config": {"trainable": true, "activation": "relu", "name": "activation_45"}}, {"name": "res43_branch2c", "class_name": "Conv2D", "inbound_nodes": [[["activation_45", 0, 0, {}]]], "config": {"data_format": "channels_last", "kernel_regularizer": null, "kernel_size": [1, 1], "filters": 1024, "bias_initializer": {"config": {}, "class_name": "Zeros"}, "name": "res43_branch2c", "dilation_rate": [1, 1], "use_bias": true, "activity_regularizer": null, "kernel_initializer": {"config": {"distribution": "uniform", "seed": null, "scale": 1.0, "mode": "fan_avg"}, "class_name": "VarianceScaling"}, "padding": "valid", "strides": [1, 1], "trainable": true, "activation": "linear", "bias_regularizer": null, "bias_constraint": null, "kernel_constraint": null}}, {"name": "bn43_branch2c", "class_name": "BatchNormalization", "inbound_nodes": [[["res43_branch2c", 0, 0, {}]]], "config": {"axis": 3, "gamma_initializer": {"config": {}, "class_name": "Ones"}, "epsilon": 0.001, "name": "bn43_branch2c", "beta_regularizer": null, "moving_variance_initializer": {"config": {}, "class_name": "Ones"}, "beta_constraint": null, "beta_initializer": {"config": {}, "class_name": "Zeros"}, "gamma_constraint": null, "momentum": 0.99, "trainable": true, "gamma_regularizer": null, "scale": true, "moving_mean_initializer": {"config": {}, "class_name": "Zeros"}, "center": true}}, {"name": "add_15", "class_name": "Add", "inbound_nodes": [[["bn43_branch2c", 0, 0, {}], ["activation_43", 0, 0, {}]]], "config": {"trainable": true, "name": "add_15"}}, {"name": "activation_46", "class_name": "Activation", "inbound_nodes": [[["add_15", 0, 0, {}]]], "config": {"trainable": true, "activation": "relu", "name": "activation_46"}}, {"name": "res44_branch2a", "class_name": "Conv2D", "inbound_nodes": [[["activation_46", 0, 0, {}]]], "config": {"data_format": "channels_last", "kernel_regularizer": null, "kernel_size": [1, 1], "filters": 256, "bias_initializer": {"config": {}, "class_name": "Zeros"}, "name": "res44_branch2a", "dilation_rate": [1, 1], "use_bias": true, "activity_regularizer": null, "kernel_initializer": {"config": {"distribution": "uniform", "seed": null, "scale": 1.0, "mode": "fan_avg"}, "class_name": "VarianceScaling"}, "padding": "valid", "strides": [1, 1], "trainable": true, "activation": "linear", "bias_regularizer": null, "bias_constraint": null, "kernel_constraint": null}}, {"name": "bn44_branch2a", "class_name": "BatchNormalization", "inbound_nodes": [[["res44_branch2a", 0, 0, {}]]], "config": {"axis": 3, "gamma_initializer": {"config": {}, "class_name": "Ones"}, "epsilon": 0.001, "name": "bn44_branch2a", "beta_regularizer": null, "moving_variance_initializer": {"config": {}, "class_name": "Ones"}, "beta_constraint": null, "beta_initializer": {"config": {}, "class_name": "Zeros"}, "gamma_constraint": null, "momentum": 0.99, "trainable": true, "gamma_regularizer": null, "scale": true, "moving_mean_initializer": {"config": {}, "class_name": "Zeros"}, "center": true}}, {"name": "activation_47", "class_name": "Activation", "inbound_nodes": [[["bn44_branch2a", 0, 0, {}]]], "config": {"trainable": true, "activation": "relu", "name": "activation_47"}}, {"name": "res44_branch2b", "class_name": "Conv2D", "inbound_nodes": [[["activation_47", 0, 0, {}]]], "config": {"data_format": "channels_last", "kernel_regularizer": null, "kernel_size": [3, 3], "filters": 256, "bias_initializer": {"config": {}, "class_name": "Zeros"}, "name": "res44_branch2b", "dilation_rate": [1, 1], "use_bias": true, "activity_regularizer": null, "kernel_initializer": {"config": {"distribution": "uniform", "seed": null, "scale": 1.0, "mode": "fan_avg"}, "class_name": "VarianceScaling"}, "padding": "same", "strides": [1, 1], "trainable": true, "activation": "linear", "bias_regularizer": null, "bias_constraint": null, "kernel_constraint": null}}, {"name": "bn44_branch2b", "class_name": "BatchNormalization", "inbound_nodes": [[["res44_branch2b", 0, 0, {}]]], "config": {"axis": 3, "gamma_initializer": {"config": {}, "class_name": "Ones"}, "epsilon": 0.001, "name": "bn44_branch2b", "beta_regularizer": null, "moving_variance_initializer": {"config": {}, "class_name": "Ones"}, "beta_constraint": null, "beta_initializer": {"config": {}, "class_name": "Zeros"}, "gamma_constraint": null, "momentum": 0.99, "trainable": true, "gamma_regularizer": null, "scale": true, "moving_mean_initializer": {"config": {}, "class_name": "Zeros"}, "center": true}}, {"name": "activation_48", "class_name": "Activation", "inbound_nodes": [[["bn44_branch2b", 0, 0, {}]]], "config": {"trainable": true, "activation": "relu", "name": "activation_48"}}, {"name": "res44_branch2c", "class_name": "Conv2D", "inbound_nodes": [[["activation_48", 0, 0, {}]]], "config": {"data_format": "channels_last", "kernel_regularizer": null, "kernel_size": [1, 1], "filters": 1024, "bias_initializer": {"config": {}, "class_name": "Zeros"}, "name": "res44_branch2c", "dilation_rate": [1, 1], "use_bias": true, "activity_regularizer": null, "kernel_initializer": {"config": {"distribution": "uniform", "seed": null, "scale": 1.0, "mode": "fan_avg"}, "class_name": "VarianceScaling"}, "padding": "valid", "strides": [1, 1], "trainable": true, "activation": "linear", "bias_regularizer": null, "bias_constraint": null, "kernel_constraint": null}}, {"name": "bn44_branch2c", "class_name": "BatchNormalization", "inbound_nodes": [[["res44_branch2c", 0, 0, {}]]], "config": {"axis": 3, "gamma_initializer": {"config": {}, "class_name": "Ones"}, "epsilon": 0.001, "name": "bn44_branch2c", "beta_regularizer": null, "moving_variance_initializer": {"config": {}, "class_name": "Ones"}, "beta_constraint": null, "beta_initializer": {"config": {}, "class_name": "Zeros"}, "gamma_constraint": null, "momentum": 0.99, "trainable": true, "gamma_regularizer": null, "scale": true, "moving_mean_initializer": {"config": {}, "class_name": "Zeros"}, "center": true}}, {"name": "add_16", "class_name": "Add", "inbound_nodes": [[["bn44_branch2c", 0, 0, {}], ["activation_46", 0, 0, {}]]], "config": {"trainable": true, "name": "add_16"}}, {"name": "activation_49", "class_name": "Activation", "inbound_nodes": [[["add_16", 0, 0, {}]]], "config": {"trainable": true, "activation": "relu", "name": "activation_49"}}, {"name": "res45_branch2a", "class_name": "Conv2D", "inbound_nodes": [[["activation_49", 0, 0, {}]]], "config": {"data_format": "channels_last", "kernel_regularizer": null, "kernel_size": [1, 1], "filters": 256, "bias_initializer": {"config": {}, "class_name": "Zeros"}, "name": "res45_branch2a", "dilation_rate": [1, 1], "use_bias": true, "activity_regularizer": null, "kernel_initializer": {"config": {"distribution": "uniform", "seed": null, "scale": 1.0, "mode": "fan_avg"}, "class_name": "VarianceScaling"}, "padding": "valid", "strides": [1, 1], "trainable": true, "activation": "linear", "bias_regularizer": null, "bias_constraint": null, "kernel_constraint": null}}, {"name": "bn45_branch2a", "class_name": "BatchNormalization", "inbound_nodes": [[["res45_branch2a", 0, 0, {}]]], "config": {"axis": 3, "gamma_initializer": {"config": {}, "class_name": "Ones"}, "epsilon": 0.001, "name": "bn45_branch2a", "beta_regularizer": null, "moving_variance_initializer": {"config": {}, "class_name": "Ones"}, "beta_constraint": null, "beta_initializer": {"config": {}, "class_name": "Zeros"}, "gamma_constraint": null, "momentum": 0.99, "trainable": true, "gamma_regularizer": null, "scale": true, "moving_mean_initializer": {"config": {}, "class_name": "Zeros"}, "center": true}}, {"name": "activation_50", "class_name": "Activation", "inbound_nodes": [[["bn45_branch2a", 0, 0, {}]]], "config": {"trainable": true, "activation": "relu", "name": "activation_50"}}, {"name": "res45_branch2b", "class_name": "Conv2D", "inbound_nodes": [[["activation_50", 0, 0, {}]]], "config": {"data_format": "channels_last", "kernel_regularizer": null, "kernel_size": [3, 3], "filters": 256, "bias_initializer": {"config": {}, "class_name": "Zeros"}, "name": "res45_branch2b", "dilation_rate": [1, 1], "use_bias": true, "activity_regularizer": null, "kernel_initializer": {"config": {"distribution": "uniform", "seed": null, "scale": 1.0, "mode": "fan_avg"}, "class_name": "VarianceScaling"}, "padding": "same", "strides": [1, 1], "trainable": true, "activation": "linear", "bias_regularizer": null, "bias_constraint": null, "kernel_constraint": null}}, {"name": "bn45_branch2b", "class_name": "BatchNormalization", "inbound_nodes": [[["res45_branch2b", 0, 0, {}]]], "config": {"axis": 3, "gamma_initializer": {"config": {}, "class_name": "Ones"}, "epsilon": 0.001, "name": "bn45_branch2b", "beta_regularizer": null, "moving_variance_initializer": {"config": {}, "class_name": "Ones"}, "beta_constraint": null, "beta_initializer": {"config": {}, "class_name": "Zeros"}, "gamma_constraint": null, "momentum": 0.99, "trainable": true, "gamma_regularizer": null, "scale": true, "moving_mean_initializer": {"config": {}, "class_name": "Zeros"}, "center": true}}, {"name": "activation_51", "class_name": "Activation", "inbound_nodes": [[["bn45_branch2b", 0, 0, {}]]], "config": {"trainable": true, "activation": "relu", "name": "activation_51"}}, {"name": "res45_branch2c", "class_name": "Conv2D", "inbound_nodes": [[["activation_51", 0, 0, {}]]], "config": {"data_format": "channels_last", "kernel_regularizer": null, "kernel_size": [1, 1], "filters": 1024, "bias_initializer": {"config": {}, "class_name": "Zeros"}, "name": "res45_branch2c", "dilation_rate": [1, 1], "use_bias": true, "activity_regularizer": null, "kernel_initializer": {"config": {"distribution": "uniform", "seed": null, "scale": 1.0, "mode": "fan_avg"}, "class_name": "VarianceScaling"}, "padding": "valid", "strides": [1, 1], "trainable": true, "activation": "linear", "bias_regularizer": null, "bias_constraint": null, "kernel_constraint": null}}, {"name": "bn45_branch2c", "class_name": "BatchNormalization", "inbound_nodes": [[["res45_branch2c", 0, 0, {}]]], "config": {"axis": 3, "gamma_initializer": {"config": {}, "class_name": "Ones"}, "epsilon": 0.001, "name": "bn45_branch2c", "beta_regularizer": null, "moving_variance_initializer": {"config": {}, "class_name": "Ones"}, "beta_constraint": null, "beta_initializer": {"config": {}, "class_name": "Zeros"}, "gamma_constraint": null, "momentum": 0.99, "trainable": true, "gamma_regularizer": null, "scale": true, "moving_mean_initializer": {"config": {}, "class_name": "Zeros"}, "center": true}}, {"name": "add_17", "class_name": "Add", "inbound_nodes": [[["bn45_branch2c", 0, 0, {}], ["activation_49", 0, 0, {}]]], "config": {"trainable": true, "name": "add_17"}}, {"name": "activation_52", "class_name": "Activation", "inbound_nodes": [[["add_17", 0, 0, {}]]], "config": {"trainable": true, "activation": "relu", "name": "activation_52"}}, {"name": "res46_branch2a", "class_name": "Conv2D", "inbound_nodes": [[["activation_52", 0, 0, {}]]], "config": {"data_format": "channels_last", "kernel_regularizer": null, "kernel_size": [1, 1], "filters": 256, "bias_initializer": {"config": {}, "class_name": "Zeros"}, "name": "res46_branch2a", "dilation_rate": [1, 1], "use_bias": true, "activity_regularizer": null, "kernel_initializer": {"config": {"distribution": "uniform", "seed": null, "scale": 1.0, "mode": "fan_avg"}, "class_name": "VarianceScaling"}, "padding": "valid", "strides": [1, 1], "trainable": true, "activation": "linear", "bias_regularizer": null, "bias_constraint": null, "kernel_constraint": null}}, {"name": "bn46_branch2a", "class_name": "BatchNormalization", "inbound_nodes": [[["res46_branch2a", 0, 0, {}]]], "config": {"axis": 3, "gamma_initializer": {"config": {}, "class_name": "Ones"}, "epsilon": 0.001, "name": "bn46_branch2a", "beta_regularizer": null, "moving_variance_initializer": {"config": {}, "class_name": "Ones"}, "beta_constraint": null, "beta_initializer": {"config": {}, "class_name": "Zeros"}, "gamma_constraint": null, "momentum": 0.99, "trainable": true, "gamma_regularizer": null, "scale": true, "moving_mean_initializer": {"config": {}, "class_name": "Zeros"}, "center": true}}, {"name": "activation_53", "class_name": "Activation", "inbound_nodes": [[["bn46_branch2a", 0, 0, {}]]], "config": {"trainable": true, "activation": "relu", "name": "activation_53"}}, {"name": "res46_branch2b", "class_name": "Conv2D", "inbound_nodes": [[["activation_53", 0, 0, {}]]], "config": {"data_format": "channels_last", "kernel_regularizer": null, "kernel_size": [3, 3], "filters": 256, "bias_initializer": {"config": {}, "class_name": "Zeros"}, "name": "res46_branch2b", "dilation_rate": [1, 1], "use_bias": true, "activity_regularizer": null, "kernel_initializer": {"config": {"distribution": "uniform", "seed": null, "scale": 1.0, "mode": "fan_avg"}, "class_name": "VarianceScaling"}, "padding": "same", "strides": [1, 1], "trainable": true, "activation": "linear", "bias_regularizer": null, "bias_constraint": null, "kernel_constraint": null}}, {"name": "bn46_branch2b", "class_name": "BatchNormalization", "inbound_nodes": [[["res46_branch2b", 0, 0, {}]]], "config": {"axis": 3, "gamma_initializer": {"config": {}, "class_name": "Ones"}, "epsilon": 0.001, "name": "bn46_branch2b", "beta_regularizer": null, "moving_variance_initializer": {"config": {}, "class_name": "Ones"}, "beta_constraint": null, "beta_initializer": {"config": {}, "class_name": "Zeros"}, "gamma_constraint": null, "momentum": 0.99, "trainable": true, "gamma_regularizer": null, "scale": true, "moving_mean_initializer": {"config": {}, "class_name": "Zeros"}, "center": true}}, {"name": "activation_54", "class_name": "Activation", "inbound_nodes": [[["bn46_branch2b", 0, 0, {}]]], "config": {"trainable": true, "activation": "relu", "name": "activation_54"}}, {"name": "res46_branch2c", "class_name": "Conv2D", "inbound_nodes": [[["activation_54", 0, 0, {}]]], "config": {"data_format": "channels_last", "kernel_regularizer": null, "kernel_size": [1, 1], "filters": 1024, "bias_initializer": {"config": {}, "class_name": "Zeros"}, "name": "res46_branch2c", "dilation_rate": [1, 1], "use_bias": true, "activity_regularizer": null, "kernel_initializer": {"config": {"distribution": "uniform", "seed": null, "scale": 1.0, "mode": "fan_avg"}, "class_name": "VarianceScaling"}, "padding": "valid", "strides": [1, 1], "trainable": true, "activation": "linear", "bias_regularizer": null, "bias_constraint": null, "kernel_constraint": null}}, {"name": "bn46_branch2c", "class_name": "BatchNormalization", "inbound_nodes": [[["res46_branch2c", 0, 0, {}]]], "config": {"axis": 3, "gamma_initializer": {"config": {}, "class_name": "Ones"}, "epsilon": 0.001, "name": "bn46_branch2c", "beta_regularizer": null, "moving_variance_initializer": {"config": {}, "class_name": "Ones"}, "beta_constraint": null, "beta_initializer": {"config": {}, "class_name": "Zeros"}, "gamma_constraint": null, "momentum": 0.99, "trainable": true, "gamma_regularizer": null, "scale": true, "moving_mean_initializer": {"config": {}, "class_name": "Zeros"}, "center": true}}, {"name": "add_18", "class_name": "Add", "inbound_nodes": [[["bn46_branch2c", 0, 0, {}], ["activation_52", 0, 0, {}]]], "config": {"trainable": true, "name": "add_18"}}, {"name": "activation_55", "class_name": "Activation", "inbound_nodes": [[["add_18", 0, 0, {}]]], "config": {"trainable": true, "activation": "relu", "name": "activation_55"}}, {"name": "res47_branch2a", "class_name": "Conv2D", "inbound_nodes": [[["activation_55", 0, 0, {}]]], "config": {"data_format": "channels_last", "kernel_regularizer": null, "kernel_size": [1, 1], "filters": 256, "bias_initializer": {"config": {}, "class_name": "Zeros"}, "name": "res47_branch2a", "dilation_rate": [1, 1], "use_bias": true, "activity_regularizer": null, "kernel_initializer": {"config": {"distribution": "uniform", "seed": null, "scale": 1.0, "mode": "fan_avg"}, "class_name": "VarianceScaling"}, "padding": "valid", "strides": [1, 1], "trainable": true, "activation": "linear", "bias_regularizer": null, "bias_constraint": null, "kernel_constraint": null}}, {"name": "bn47_branch2a", "class_name": "BatchNormalization", "inbound_nodes": [[["res47_branch2a", 0, 0, {}]]], "config": {"axis": 3, "gamma_initializer": {"config": {}, "class_name": "Ones"}, "epsilon": 0.001, "name": "bn47_branch2a", "beta_regularizer": null, "moving_variance_initializer": {"config": {}, "class_name": "Ones"}, "beta_constraint": null, "beta_initializer": {"config": {}, "class_name": "Zeros"}, "gamma_constraint": null, "momentum": 0.99, "trainable": true, "gamma_regularizer": null, "scale": true, "moving_mean_initializer": {"config": {}, "class_name": "Zeros"}, "center": true}}, {"name": "activation_56", "class_name": "Activation", "inbound_nodes": [[["bn47_branch2a", 0, 0, {}]]], "config": {"trainable": true, "activation": "relu", "name": "activation_56"}}, {"name": "res47_branch2b", "class_name": "Conv2D", "inbound_nodes": [[["activation_56", 0, 0, {}]]], "config": {"data_format": "channels_last", "kernel_regularizer": null, "kernel_size": [3, 3], "filters": 256, "bias_initializer": {"config": {}, "class_name": "Zeros"}, "name": "res47_branch2b", "dilation_rate": [1, 1], "use_bias": true, "activity_regularizer": null, "kernel_initializer": {"config": {"distribution": "uniform", "seed": null, "scale": 1.0, "mode": "fan_avg"}, "class_name": "VarianceScaling"}, "padding": "same", "strides": [1, 1], "trainable": true, "activation": "linear", "bias_regularizer": null, "bias_constraint": null, "kernel_constraint": null}}, {"name": "bn47_branch2b", "class_name": "BatchNormalization", "inbound_nodes": [[["res47_branch2b", 0, 0, {}]]], "config": {"axis": 3, "gamma_initializer": {"config": {}, "class_name": "Ones"}, "epsilon": 0.001, "name": "bn47_branch2b", "beta_regularizer": null, "moving_variance_initializer": {"config": {}, "class_name": "Ones"}, "beta_constraint": null, "beta_initializer": {"config": {}, "class_name": "Zeros"}, "gamma_constraint": null, "momentum": 0.99, "trainable": true, "gamma_regularizer": null, "scale": true, "moving_mean_initializer": {"config": {}, "class_name": "Zeros"}, "center": true}}, {"name": "activation_57", "class_name": "Activation", "inbound_nodes": [[["bn47_branch2b", 0, 0, {}]]], "config": {"trainable": true, "activation": "relu", "name": "activation_57"}}, {"name": "res47_branch2c", "class_name": "Conv2D", "inbound_nodes": [[["activation_57", 0, 0, {}]]], "config": {"data_format": "channels_last", "kernel_regularizer": null, "kernel_size": [1, 1], "filters": 1024, "bias_initializer": {"config": {}, "class_name": "Zeros"}, "name": "res47_branch2c", "dilation_rate": [1, 1], "use_bias": true, "activity_regularizer": null, "kernel_initializer": {"config": {"distribution": "uniform", "seed": null, "scale": 1.0, "mode": "fan_avg"}, "class_name": "VarianceScaling"}, "padding": "valid", "strides": [1, 1], "trainable": true, "activation": "linear", "bias_regularizer": null, "bias_constraint": null, "kernel_constraint": null}}, {"name": "bn47_branch2c", "class_name": "BatchNormalization", "inbound_nodes": [[["res47_branch2c", 0, 0, {}]]], "config": {"axis": 3, "gamma_initializer": {"config": {}, "class_name": "Ones"}, "epsilon": 0.001, "name": "bn47_branch2c", "beta_regularizer": null, "moving_variance_initializer": {"config": {}, "class_name": "Ones"}, "beta_constraint": null, "beta_initializer": {"config": {}, "class_name": "Zeros"}, "gamma_constraint": null, "momentum": 0.99, "trainable": true, "gamma_regularizer": null, "scale": true, "moving_mean_initializer": {"config": {}, "class_name": "Zeros"}, "center": true}}, {"name": "add_19", "class_name": "Add", "inbound_nodes": [[["bn47_branch2c", 0, 0, {}], ["activation_55", 0, 0, {}]]], "config": {"trainable": true, "name": "add_19"}}, {"name": "activation_58", "class_name": "Activation", "inbound_nodes": [[["add_19", 0, 0, {}]]], "config": {"trainable": true, "activation": "relu", "name": "activation_58"}}, {"name": "res48_branch2a", "class_name": "Conv2D", "inbound_nodes": [[["activation_58", 0, 0, {}]]], "config": {"data_format": "channels_last", "kernel_regularizer": null, "kernel_size": [1, 1], "filters": 256, "bias_initializer": {"config": {}, "class_name": "Zeros"}, "name": "res48_branch2a", "dilation_rate": [1, 1], "use_bias": true, "activity_regularizer": null, "kernel_initializer": {"config": {"distribution": "uniform", "seed": null, "scale": 1.0, "mode": "fan_avg"}, "class_name": "VarianceScaling"}, "padding": "valid", "strides": [1, 1], "trainable": true, "activation": "linear", "bias_regularizer": null, "bias_constraint": null, "kernel_constraint": null}}, {"name": "bn48_branch2a", "class_name": "BatchNormalization", "inbound_nodes": [[["res48_branch2a", 0, 0, {}]]], "config": {"axis": 3, "gamma_initializer": {"config": {}, "class_name": "Ones"}, "epsilon": 0.001, "name": "bn48_branch2a", "beta_regularizer": null, "moving_variance_initializer": {"config": {}, "class_name": "Ones"}, "beta_constraint": null, "beta_initializer": {"config": {}, "class_name": "Zeros"}, "gamma_constraint": null, "momentum": 0.99, "trainable": true, "gamma_regularizer": null, "scale": true, "moving_mean_initializer": {"config": {}, "class_name": "Zeros"}, "center": true}}, {"name": "activation_59", "class_name": "Activation", "inbound_nodes": [[["bn48_branch2a", 0, 0, {}]]], "config": {"trainable": true, "activation": "relu", "name": "activation_59"}}, {"name": "res48_branch2b", "class_name": "Conv2D", "inbound_nodes": [[["activation_59", 0, 0, {}]]], "config": {"data_format": "channels_last", "kernel_regularizer": null, "kernel_size": [3, 3], "filters": 256, "bias_initializer": {"config": {}, "class_name": "Zeros"}, "name": "res48_branch2b", "dilation_rate": [1, 1], "use_bias": true, "activity_regularizer": null, "kernel_initializer": {"config": {"distribution": "uniform", "seed": null, "scale": 1.0, "mode": "fan_avg"}, "class_name": "VarianceScaling"}, "padding": "same", "strides": [1, 1], "trainable": true, "activation": "linear", "bias_regularizer": null, "bias_constraint": null, "kernel_constraint": null}}, {"name": "bn48_branch2b", "class_name": "BatchNormalization", "inbound_nodes": [[["res48_branch2b", 0, 0, {}]]], "config": {"axis": 3, "gamma_initializer": {"config": {}, "class_name": "Ones"}, "epsilon": 0.001, "name": "bn48_branch2b", "beta_regularizer": null, "moving_variance_initializer": {"config": {}, "class_name": "Ones"}, "beta_constraint": null, "beta_initializer": {"config": {}, "class_name": "Zeros"}, "gamma_constraint": null, "momentum": 0.99, "trainable": true, "gamma_regularizer": null, "scale": true, "moving_mean_initializer": {"config": {}, "class_name": "Zeros"}, "center": true}}, {"name": "activation_60", "class_name": "Activation", "inbound_nodes": [[["bn48_branch2b", 0, 0, {}]]], "config": {"trainable": true, "activation": "relu", "name": "activation_60"}}, {"name": "res48_branch2c", "class_name": "Conv2D", "inbound_nodes": [[["activation_60", 0, 0, {}]]], "config": {"data_format": "channels_last", "kernel_regularizer": null, "kernel_size": [1, 1], "filters": 1024, "bias_initializer": {"config": {}, "class_name": "Zeros"}, "name": "res48_branch2c", "dilation_rate": [1, 1], "use_bias": true, "activity_regularizer": null, "kernel_initializer": {"config": {"distribution": "uniform", "seed": null, "scale": 1.0, "mode": "fan_avg"}, "class_name": "VarianceScaling"}, "padding": "valid", "strides": [1, 1], "trainable": true, "activation": "linear", "bias_regularizer": null, "bias_constraint": null, "kernel_constraint": null}}, {"name": "bn48_branch2c", "class_name": "BatchNormalization", "inbound_nodes": [[["res48_branch2c", 0, 0, {}]]], "config": {"axis": 3, "gamma_initializer": {"config": {}, "class_name": "Ones"}, "epsilon": 0.001, "name": "bn48_branch2c", "beta_regularizer": null, "moving_variance_initializer": {"config": {}, "class_name": "Ones"}, "beta_constraint": null, "beta_initializer": {"config": {}, "class_name": "Zeros"}, "gamma_constraint": null, "momentum": 0.99, "trainable": true, "gamma_regularizer": null, "scale": true, "moving_mean_initializer": {"config": {}, "class_name": "Zeros"}, "center": true}}, {"name": "add_20", "class_name": "Add", "inbound_nodes": [[["bn48_branch2c", 0, 0, {}], ["activation_58", 0, 0, {}]]], "config": {"trainable": true, "name": "add_20"}}, {"name": "activation_61", "class_name": "Activation", "inbound_nodes": [[["add_20", 0, 0, {}]]], "config": {"trainable": true, "activation": "relu", "name": "activation_61"}}, {"name": "res49_branch2a", "class_name": "Conv2D", "inbound_nodes": [[["activation_61", 0, 0, {}]]], "config": {"data_format": "channels_last", "kernel_regularizer": null, "kernel_size": [1, 1], "filters": 256, "bias_initializer": {"config": {}, "class_name": "Zeros"}, "name": "res49_branch2a", "dilation_rate": [1, 1], "use_bias": true, "activity_regularizer": null, "kernel_initializer": {"config": {"distribution": "uniform", "seed": null, "scale": 1.0, "mode": "fan_avg"}, "class_name": "VarianceScaling"}, "padding": "valid", "strides": [1, 1], "trainable": true, "activation": "linear", "bias_regularizer": null, "bias_constraint": null, "kernel_constraint": null}}, {"name": "bn49_branch2a", "class_name": "BatchNormalization", "inbound_nodes": [[["res49_branch2a", 0, 0, {}]]], "config": {"axis": 3, "gamma_initializer": {"config": {}, "class_name": "Ones"}, "epsilon": 0.001, "name": "bn49_branch2a", "beta_regularizer": null, "moving_variance_initializer": {"config": {}, "class_name": "Ones"}, "beta_constraint": null, "beta_initializer": {"config": {}, "class_name": "Zeros"}, "gamma_constraint": null, "momentum": 0.99, "trainable": true, "gamma_regularizer": null, "scale": true, "moving_mean_initializer": {"config": {}, "class_name": "Zeros"}, "center": true}}, {"name": "activation_62", "class_name": "Activation", "inbound_nodes": [[["bn49_branch2a", 0, 0, {}]]], "config": {"trainable": true, "activation": "relu", "name": "activation_62"}}, {"name": "res49_branch2b", "class_name": "Conv2D", "inbound_nodes": [[["activation_62", 0, 0, {}]]], "config": {"data_format": "channels_last", "kernel_regularizer": null, "kernel_size": [3, 3], "filters": 256, "bias_initializer": {"config": {}, "class_name": "Zeros"}, "name": "res49_branch2b", "dilation_rate": [1, 1], "use_bias": true, "activity_regularizer": null, "kernel_initializer": {"config": {"distribution": "uniform", "seed": null, "scale": 1.0, "mode": "fan_avg"}, "class_name": "VarianceScaling"}, "padding": "same", "strides": [1, 1], "trainable": true, "activation": "linear", "bias_regularizer": null, "bias_constraint": null, "kernel_constraint": null}}, {"name": "bn49_branch2b", "class_name": "BatchNormalization", "inbound_nodes": [[["res49_branch2b", 0, 0, {}]]], "config": {"axis": 3, "gamma_initializer": {"config": {}, "class_name": "Ones"}, "epsilon": 0.001, "name": "bn49_branch2b", "beta_regularizer": null, "moving_variance_initializer": {"config": {}, "class_name": "Ones"}, "beta_constraint": null, "beta_initializer": {"config": {}, "class_name": "Zeros"}, "gamma_constraint": null, "momentum": 0.99, "trainable": true, "gamma_regularizer": null, "scale": true, "moving_mean_initializer": {"config": {}, "class_name": "Zeros"}, "center": true}}, {"name": "activation_63", "class_name": "Activation", "inbound_nodes": [[["bn49_branch2b", 0, 0, {}]]], "config": {"trainable": true, "activation": "relu", "name": "activation_63"}}, {"name": "res49_branch2c", "class_name": "Conv2D", "inbound_nodes": [[["activation_63", 0, 0, {}]]], "config": {"data_format": "channels_last", "kernel_regularizer": null, "kernel_size": [1, 1], "filters": 1024, "bias_initializer": {"config": {}, "class_name": "Zeros"}, "name": "res49_branch2c", "dilation_rate": [1, 1], "use_bias": true, "activity_regularizer": null, "kernel_initializer": {"config": {"distribution": "uniform", "seed": null, "scale": 1.0, "mode": "fan_avg"}, "class_name": "VarianceScaling"}, "padding": "valid", "strides": [1, 1], "trainable": true, "activation": "linear", "bias_regularizer": null, "bias_constraint": null, "kernel_constraint": null}}, {"name": "bn49_branch2c", "class_name": "BatchNormalization", "inbound_nodes": [[["res49_branch2c", 0, 0, {}]]], "config": {"axis": 3, "gamma_initializer": {"config": {}, "class_name": "Ones"}, "epsilon": 0.001, "name": "bn49_branch2c", "beta_regularizer": null, "moving_variance_initializer": {"config": {}, "class_name": "Ones"}, "beta_constraint": null, "beta_initializer": {"config": {}, "class_name": "Zeros"}, "gamma_constraint": null, "momentum": 0.99, "trainable": true, "gamma_regularizer": null, "scale": true, "moving_mean_initializer": {"config": {}, "class_name": "Zeros"}, "center": true}}, {"name": "add_21", "class_name": "Add", "inbound_nodes": [[["bn49_branch2c", 0, 0, {}], ["activation_61", 0, 0, {}]]], "config": {"trainable": true, "name": "add_21"}}, {"name": "activation_64", "class_name": "Activation", "inbound_nodes": [[["add_21", 0, 0, {}]]], "config": {"trainable": true, "activation": "relu", "name": "activation_64"}}, {"name": "res410_branch2a", "class_name": "Conv2D", "inbound_nodes": [[["activation_64", 0, 0, {}]]], "config": {"data_format": "channels_last", "kernel_regularizer": null, "kernel_size": [1, 1], "filters": 256, "bias_initializer": {"config": {}, "class_name": "Zeros"}, "name": "res410_branch2a", "dilation_rate": [1, 1], "use_bias": true, "activity_regularizer": null, "kernel_initializer": {"config": {"distribution": "uniform", "seed": null, "scale": 1.0, "mode": "fan_avg"}, "class_name": "VarianceScaling"}, "padding": "valid", "strides": [1, 1], "trainable": true, "activation": "linear", "bias_regularizer": null, "bias_constraint": null, "kernel_constraint": null}}, {"name": "bn410_branch2a", "class_name": "BatchNormalization", "inbound_nodes": [[["res410_branch2a", 0, 0, {}]]], "config": {"axis": 3, "gamma_initializer": {"config": {}, "class_name": "Ones"}, "epsilon": 0.001, "name": "bn410_branch2a", "beta_regularizer": null, "moving_variance_initializer": {"config": {}, "class_name": "Ones"}, "beta_constraint": null, "beta_initializer": {"config": {}, "class_name": "Zeros"}, "gamma_constraint": null, "momentum": 0.99, "trainable": true, "gamma_regularizer": null, "scale": true, "moving_mean_initializer": {"config": {}, "class_name": "Zeros"}, "center": true}}, {"name": "activation_65", "class_name": "Activation", "inbound_nodes": [[["bn410_branch2a", 0, 0, {}]]], "config": {"trainable": true, "activation": "relu", "name": "activation_65"}}, {"name": "res410_branch2b", "class_name": "Conv2D", "inbound_nodes": [[["activation_65", 0, 0, {}]]], "config": {"data_format": "channels_last", "kernel_regularizer": null, "kernel_size": [3, 3], "filters": 256, "bias_initializer": {"config": {}, "class_name": "Zeros"}, "name": "res410_branch2b", "dilation_rate": [1, 1], "use_bias": true, "activity_regularizer": null, "kernel_initializer": {"config": {"distribution": "uniform", "seed": null, "scale": 1.0, "mode": "fan_avg"}, "class_name": "VarianceScaling"}, "padding": "same", "strides": [1, 1], "trainable": true, "activation": "linear", "bias_regularizer": null, "bias_constraint": null, "kernel_constraint": null}}, {"name": "bn410_branch2b", "class_name": "BatchNormalization", "inbound_nodes": [[["res410_branch2b", 0, 0, {}]]], "config": {"axis": 3, "gamma_initializer": {"config": {}, "class_name": "Ones"}, "epsilon": 0.001, "name": "bn410_branch2b", "beta_regularizer": null, "moving_variance_initializer": {"config": {}, "class_name": "Ones"}, "beta_constraint": null, "beta_initializer": {"config": {}, "class_name": "Zeros"}, "gamma_constraint": null, "momentum": 0.99, "trainable": true, "gamma_regularizer": null, "scale": true, "moving_mean_initializer": {"config": {}, "class_name": "Zeros"}, "center": true}}, {"name": "activation_66", "class_name": "Activation", "inbound_nodes": [[["bn410_branch2b", 0, 0, {}]]], "config": {"trainable": true, "activation": "relu", "name": "activation_66"}}, {"name": "res410_branch2c", "class_name": "Conv2D", "inbound_nodes": [[["activation_66", 0, 0, {}]]], "config": {"data_format": "channels_last", "kernel_regularizer": null, "kernel_size": [1, 1], "filters": 1024, "bias_initializer": {"config": {}, "class_name": "Zeros"}, "name": "res410_branch2c", "dilation_rate": [1, 1], "use_bias": true, "activity_regularizer": null, "kernel_initializer": {"config": {"distribution": "uniform", "seed": null, "scale": 1.0, "mode": "fan_avg"}, "class_name": "VarianceScaling"}, "padding": "valid", "strides": [1, 1], "trainable": true, "activation": "linear", "bias_regularizer": null, "bias_constraint": null, "kernel_constraint": null}}, {"name": "bn410_branch2c", "class_name": "BatchNormalization", "inbound_nodes": [[["res410_branch2c", 0, 0, {}]]], "config": {"axis": 3, "gamma_initializer": {"config": {}, "class_name": "Ones"}, "epsilon": 0.001, "name": "bn410_branch2c", "beta_regularizer": null, "moving_variance_initializer": {"config": {}, "class_name": "Ones"}, "beta_constraint": null, "beta_initializer": {"config": {}, "class_name": "Zeros"}, "gamma_constraint": null, "momentum": 0.99, "trainable": true, "gamma_regularizer": null, "scale": true, "moving_mean_initializer": {"config": {}, "class_name": "Zeros"}, "center": true}}, {"name": "add_22", "class_name": "Add", "inbound_nodes": [[["bn410_branch2c", 0, 0, {}], ["activation_64", 0, 0, {}]]], "config": {"trainable": true, "name": "add_22"}}, {"name": "activation_67", "class_name": "Activation", "inbound_nodes": [[["add_22", 0, 0, {}]]], "config": {"trainable": true, "activation": "relu", "name": "activation_67"}}, {"name": "res411_branch2a", "class_name": "Conv2D", "inbound_nodes": [[["activation_67", 0, 0, {}]]], "config": {"data_format": "channels_last", "kernel_regularizer": null, "kernel_size": [1, 1], "filters": 256, "bias_initializer": {"config": {}, "class_name": "Zeros"}, "name": "res411_branch2a", "dilation_rate": [1, 1], "use_bias": true, "activity_regularizer": null, "kernel_initializer": {"config": {"distribution": "uniform", "seed": null, "scale": 1.0, "mode": "fan_avg"}, "class_name": "VarianceScaling"}, "padding": "valid", "strides": [1, 1], "trainable": true, "activation": "linear", "bias_regularizer": null, "bias_constraint": null, "kernel_constraint": null}}, {"name": "bn411_branch2a", "class_name": "BatchNormalization", "inbound_nodes": [[["res411_branch2a", 0, 0, {}]]], "config": {"axis": 3, "gamma_initializer": {"config": {}, "class_name": "Ones"}, "epsilon": 0.001, "name": "bn411_branch2a", "beta_regularizer": null, "moving_variance_initializer": {"config": {}, "class_name": "Ones"}, "beta_constraint": null, "beta_initializer": {"config": {}, "class_name": "Zeros"}, "gamma_constraint": null, "momentum": 0.99, "trainable": true, "gamma_regularizer": null, "scale": true, "moving_mean_initializer": {"config": {}, "class_name": "Zeros"}, "center": true}}, {"name": "activation_68", "class_name": "Activation", "inbound_nodes": [[["bn411_branch2a", 0, 0, {}]]], "config": {"trainable": true, "activation": "relu", "name": "activation_68"}}, {"name": "res411_branch2b", "class_name": "Conv2D", "inbound_nodes": [[["activation_68", 0, 0, {}]]], "config": {"data_format": "channels_last", "kernel_regularizer": null, "kernel_size": [3, 3], "filters": 256, "bias_initializer": {"config": {}, "class_name": "Zeros"}, "name": "res411_branch2b", "dilation_rate": [1, 1], "use_bias": true, "activity_regularizer": null, "kernel_initializer": {"config": {"distribution": "uniform", "seed": null, "scale": 1.0, "mode": "fan_avg"}, "class_name": "VarianceScaling"}, "padding": "same", "strides": [1, 1], "trainable": true, "activation": "linear", "bias_regularizer": null, "bias_constraint": null, "kernel_constraint": null}}, {"name": "bn411_branch2b", "class_name": "BatchNormalization", "inbound_nodes": [[["res411_branch2b", 0, 0, {}]]], "config": {"axis": 3, "gamma_initializer": {"config": {}, "class_name": "Ones"}, "epsilon": 0.001, "name": "bn411_branch2b", "beta_regularizer": null, "moving_variance_initializer": {"config": {}, "class_name": "Ones"}, "beta_constraint": null, "beta_initializer": {"config": {}, "class_name": "Zeros"}, "gamma_constraint": null, "momentum": 0.99, "trainable": true, "gamma_regularizer": null, "scale": true, "moving_mean_initializer": {"config": {}, "class_name": "Zeros"}, "center": true}}, {"name": "activation_69", "class_name": "Activation", "inbound_nodes": [[["bn411_branch2b", 0, 0, {}]]], "config": {"trainable": true, "activation": "relu", "name": "activation_69"}}, {"name": "res411_branch2c", "class_name": "Conv2D", "inbound_nodes": [[["activation_69", 0, 0, {}]]], "config": {"data_format": "channels_last", "kernel_regularizer": null, "kernel_size": [1, 1], "filters": 1024, "bias_initializer": {"config": {}, "class_name": "Zeros"}, "name": "res411_branch2c", "dilation_rate": [1, 1], "use_bias": true, "activity_regularizer": null, "kernel_initializer": {"config": {"distribution": "uniform", "seed": null, "scale": 1.0, "mode": "fan_avg"}, "class_name": "VarianceScaling"}, "padding": "valid", "strides": [1, 1], "trainable": true, "activation": "linear", "bias_regularizer": null, "bias_constraint": null, "kernel_constraint": null}}, {"name": "bn411_branch2c", "class_name": "BatchNormalization", "inbound_nodes": [[["res411_branch2c", 0, 0, {}]]], "config": {"axis": 3, "gamma_initializer": {"config": {}, "class_name": "Ones"}, "epsilon": 0.001, "name": "bn411_branch2c", "beta_regularizer": null, "moving_variance_initializer": {"config": {}, "class_name": "Ones"}, "beta_constraint": null, "beta_initializer": {"config": {}, "class_name": "Zeros"}, "gamma_constraint": null, "momentum": 0.99, "trainable": true, "gamma_regularizer": null, "scale": true, "moving_mean_initializer": {"config": {}, "class_name": "Zeros"}, "center": true}}, {"name": "add_23", "class_name": "Add", "inbound_nodes": [[["bn411_branch2c", 0, 0, {}], ["activation_67", 0, 0, {}]]], "config": {"trainable": true, "name": "add_23"}}, {"name": "activation_70", "class_name": "Activation", "inbound_nodes": [[["add_23", 0, 0, {}]]], "config": {"trainable": true, "activation": "relu", "name": "activation_70"}}, {"name": "res412_branch2a", "class_name": "Conv2D", "inbound_nodes": [[["activation_70", 0, 0, {}]]], "config": {"data_format": "channels_last", "kernel_regularizer": null, "kernel_size": [1, 1], "filters": 256, "bias_initializer": {"config": {}, "class_name": "Zeros"}, "name": "res412_branch2a", "dilation_rate": [1, 1], "use_bias": true, "activity_regularizer": null, "kernel_initializer": {"config": {"distribution": "uniform", "seed": null, "scale": 1.0, "mode": "fan_avg"}, "class_name": "VarianceScaling"}, "padding": "valid", "strides": [1, 1], "trainable": true, "activation": "linear", "bias_regularizer": null, "bias_constraint": null, "kernel_constraint": null}}, {"name": "bn412_branch2a", "class_name": "BatchNormalization", "inbound_nodes": [[["res412_branch2a", 0, 0, {}]]], "config": {"axis": 3, "gamma_initializer": {"config": {}, "class_name": "Ones"}, "epsilon": 0.001, "name": "bn412_branch2a", "beta_regularizer": null, "moving_variance_initializer": {"config": {}, "class_name": "Ones"}, "beta_constraint": null, "beta_initializer": {"config": {}, "class_name": "Zeros"}, "gamma_constraint": null, "momentum": 0.99, "trainable": true, "gamma_regularizer": null, "scale": true, "moving_mean_initializer": {"config": {}, "class_name": "Zeros"}, "center": true}}, {"name": "activation_71", "class_name": "Activation", "inbound_nodes": [[["bn412_branch2a", 0, 0, {}]]], "config": {"trainable": true, "activation": "relu", "name": "activation_71"}}, {"name": "res412_branch2b", "class_name": "Conv2D", "inbound_nodes": [[["activation_71", 0, 0, {}]]], "config": {"data_format": "channels_last", "kernel_regularizer": null, "kernel_size": [3, 3], "filters": 256, "bias_initializer": {"config": {}, "class_name": "Zeros"}, "name": "res412_branch2b", "dilation_rate": [1, 1], "use_bias": true, "activity_regularizer": null, "kernel_initializer": {"config": {"distribution": "uniform", "seed": null, "scale": 1.0, "mode": "fan_avg"}, "class_name": "VarianceScaling"}, "padding": "same", "strides": [1, 1], "trainable": true, "activation": "linear", "bias_regularizer": null, "bias_constraint": null, "kernel_constraint": null}}, {"name": "bn412_branch2b", "class_name": "BatchNormalization", "inbound_nodes": [[["res412_branch2b", 0, 0, {}]]], "config": {"axis": 3, "gamma_initializer": {"config": {}, "class_name": "Ones"}, "epsilon": 0.001, "name": "bn412_branch2b", "beta_regularizer": null, "moving_variance_initializer": {"config": {}, "class_name": "Ones"}, "beta_constraint": null, "beta_initializer": {"config": {}, "class_name": "Zeros"}, "gamma_constraint": null, "momentum": 0.99, "trainable": true, "gamma_regularizer": null, "scale": true, "moving_mean_initializer": {"config": {}, "class_name": "Zeros"}, "center": true}}, {"name": "activation_72", "class_name": "Activation", "inbound_nodes": [[["bn412_branch2b", 0, 0, {}]]], "config": {"trainable": true, "activation": "relu", "name": "activation_72"}}, {"name": "res412_branch2c", "class_name": "Conv2D", "inbound_nodes": [[["activation_72", 0, 0, {}]]], "config": {"data_format": "channels_last", "kernel_regularizer": null, "kernel_size": [1, 1], "filters": 1024, "bias_initializer": {"config": {}, "class_name": "Zeros"}, "name": "res412_branch2c", "dilation_rate": [1, 1], "use_bias": true, "activity_regularizer": null, "kernel_initializer": {"config": {"distribution": "uniform", "seed": null, "scale": 1.0, "mode": "fan_avg"}, "class_name": "VarianceScaling"}, "padding": "valid", "strides": [1, 1], "trainable": true, "activation": "linear", "bias_regularizer": null, "bias_constraint": null, "kernel_constraint": null}}, {"name": "bn412_branch2c", "class_name": "BatchNormalization", "inbound_nodes": [[["res412_branch2c", 0, 0, {}]]], "config": {"axis": 3, "gamma_initializer": {"config": {}, "class_name": "Ones"}, "epsilon": 0.001, "name": "bn412_branch2c", "beta_regularizer": null, "moving_variance_initializer": {"config": {}, "class_name": "Ones"}, "beta_constraint": null, "beta_initializer": {"config": {}, "class_name": "Zeros"}, "gamma_constraint": null, "momentum": 0.99, "trainable": true, "gamma_regularizer": null, "scale": true, "moving_mean_initializer": {"config": {}, "class_name": "Zeros"}, "center": true}}, {"name": "add_24", "class_name": "Add", "inbound_nodes": [[["bn412_branch2c", 0, 0, {}], ["activation_70", 0, 0, {}]]], "config": {"trainable": true, "name": "add_24"}}, {"name": "activation_73", "class_name": "Activation", "inbound_nodes": [[["add_24", 0, 0, {}]]], "config": {"trainable": true, "activation": "relu", "name": "activation_73"}}, {"name": "res413_branch2a", "class_name": "Conv2D", "inbound_nodes": [[["activation_73", 0, 0, {}]]], "config": {"data_format": "channels_last", "kernel_regularizer": null, "kernel_size": [1, 1], "filters": 256, "bias_initializer": {"config": {}, "class_name": "Zeros"}, "name": "res413_branch2a", "dilation_rate": [1, 1], "use_bias": true, "activity_regularizer": null, "kernel_initializer": {"config": {"distribution": "uniform", "seed": null, "scale": 1.0, "mode": "fan_avg"}, "class_name": "VarianceScaling"}, "padding": "valid", "strides": [1, 1], "trainable": true, "activation": "linear", "bias_regularizer": null, "bias_constraint": null, "kernel_constraint": null}}, {"name": "bn413_branch2a", "class_name": "BatchNormalization", "inbound_nodes": [[["res413_branch2a", 0, 0, {}]]], "config": {"axis": 3, "gamma_initializer": {"config": {}, "class_name": "Ones"}, "epsilon": 0.001, "name": "bn413_branch2a", "beta_regularizer": null, "moving_variance_initializer": {"config": {}, "class_name": "Ones"}, "beta_constraint": null, "beta_initializer": {"config": {}, "class_name": "Zeros"}, "gamma_constraint": null, "momentum": 0.99, "trainable": true, "gamma_regularizer": null, "scale": true, "moving_mean_initializer": {"config": {}, "class_name": "Zeros"}, "center": true}}, {"name": "activation_74", "class_name": "Activation", "inbound_nodes": [[["bn413_branch2a", 0, 0, {}]]], "config": {"trainable": true, "activation": "relu", "name": "activation_74"}}, {"name": "res413_branch2b", "class_name": "Conv2D", "inbound_nodes": [[["activation_74", 0, 0, {}]]], "config": {"data_format": "channels_last", "kernel_regularizer": null, "kernel_size": [3, 3], "filters": 256, "bias_initializer": {"config": {}, "class_name": "Zeros"}, "name": "res413_branch2b", "dilation_rate": [1, 1], "use_bias": true, "activity_regularizer": null, "kernel_initializer": {"config": {"distribution": "uniform", "seed": null, "scale": 1.0, "mode": "fan_avg"}, "class_name": "VarianceScaling"}, "padding": "same", "strides": [1, 1], "trainable": true, "activation": "linear", "bias_regularizer": null, "bias_constraint": null, "kernel_constraint": null}}, {"name": "bn413_branch2b", "class_name": "BatchNormalization", "inbound_nodes": [[["res413_branch2b", 0, 0, {}]]], "config": {"axis": 3, "gamma_initializer": {"config": {}, "class_name": "Ones"}, "epsilon": 0.001, "name": "bn413_branch2b", "beta_regularizer": null, "moving_variance_initializer": {"config": {}, "class_name": "Ones"}, "beta_constraint": null, "beta_initializer": {"config": {}, "class_name": "Zeros"}, "gamma_constraint": null, "momentum": 0.99, "trainable": true, "gamma_regularizer": null, "scale": true, "moving_mean_initializer": {"config": {}, "class_name": "Zeros"}, "center": true}}, {"name": "activation_75", "class_name": "Activation", "inbound_nodes": [[["bn413_branch2b", 0, 0, {}]]], "config": {"trainable": true, "activation": "relu", "name": "activation_75"}}, {"name": "res413_branch2c", "class_name": "Conv2D", "inbound_nodes": [[["activation_75", 0, 0, {}]]], "config": {"data_format": "channels_last", "kernel_regularizer": null, "kernel_size": [1, 1], "filters": 1024, "bias_initializer": {"config": {}, "class_name": "Zeros"}, "name": "res413_branch2c", "dilation_rate": [1, 1], "use_bias": true, "activity_regularizer": null, "kernel_initializer": {"config": {"distribution": "uniform", "seed": null, "scale": 1.0, "mode": "fan_avg"}, "class_name": "VarianceScaling"}, "padding": "valid", "strides": [1, 1], "trainable": true, "activation": "linear", "bias_regularizer": null, "bias_constraint": null, "kernel_constraint": null}}, {"name": "bn413_branch2c", "class_name": "BatchNormalization", "inbound_nodes": [[["res413_branch2c", 0, 0, {}]]], "config": {"axis": 3, "gamma_initializer": {"config": {}, "class_name": "Ones"}, "epsilon": 0.001, "name": "bn413_branch2c", "beta_regularizer": null, "moving_variance_initializer": {"config": {}, "class_name": "Ones"}, "beta_constraint": null, "beta_initializer": {"config": {}, "class_name": "Zeros"}, "gamma_constraint": null, "momentum": 0.99, "trainable": true, "gamma_regularizer": null, "scale": true, "moving_mean_initializer": {"config": {}, "class_name": "Zeros"}, "center": true}}, {"name": "add_25", "class_name": "Add", "inbound_nodes": [[["bn413_branch2c", 0, 0, {}], ["activation_73", 0, 0, {}]]], "config": {"trainable": true, "name": "add_25"}}, {"name": "activation_76", "class_name": "Activation", "inbound_nodes": [[["add_25", 0, 0, {}]]], "config": {"trainable": true, "activation": "relu", "name": "activation_76"}}, {"name": "res414_branch2a", "class_name": "Conv2D", "inbound_nodes": [[["activation_76", 0, 0, {}]]], "config": {"data_format": "channels_last", "kernel_regularizer": null, "kernel_size": [1, 1], "filters": 256, "bias_initializer": {"config": {}, "class_name": "Zeros"}, "name": "res414_branch2a", "dilation_rate": [1, 1], "use_bias": true, "activity_regularizer": null, "kernel_initializer": {"config": {"distribution": "uniform", "seed": null, "scale": 1.0, "mode": "fan_avg"}, "class_name": "VarianceScaling"}, "padding": "valid", "strides": [1, 1], "trainable": true, "activation": "linear", "bias_regularizer": null, "bias_constraint": null, "kernel_constraint": null}}, {"name": "bn414_branch2a", "class_name": "BatchNormalization", "inbound_nodes": [[["res414_branch2a", 0, 0, {}]]], "config": {"axis": 3, "gamma_initializer": {"config": {}, "class_name": "Ones"}, "epsilon": 0.001, "name": "bn414_branch2a", "beta_regularizer": null, "moving_variance_initializer": {"config": {}, "class_name": "Ones"}, "beta_constraint": null, "beta_initializer": {"config": {}, "class_name": "Zeros"}, "gamma_constraint": null, "momentum": 0.99, "trainable": true, "gamma_regularizer": null, "scale": true, "moving_mean_initializer": {"config": {}, "class_name": "Zeros"}, "center": true}}, {"name": "activation_77", "class_name": "Activation", "inbound_nodes": [[["bn414_branch2a", 0, 0, {}]]], "config": {"trainable": true, "activation": "relu", "name": "activation_77"}}, {"name": "res414_branch2b", "class_name": "Conv2D", "inbound_nodes": [[["activation_77", 0, 0, {}]]], "config": {"data_format": "channels_last", "kernel_regularizer": null, "kernel_size": [3, 3], "filters": 256, "bias_initializer": {"config": {}, "class_name": "Zeros"}, "name": "res414_branch2b", "dilation_rate": [1, 1], "use_bias": true, "activity_regularizer": null, "kernel_initializer": {"config": {"distribution": "uniform", "seed": null, "scale": 1.0, "mode": "fan_avg"}, "class_name": "VarianceScaling"}, "padding": "same", "strides": [1, 1], "trainable": true, "activation": "linear", "bias_regularizer": null, "bias_constraint": null, "kernel_constraint": null}}, {"name": "bn414_branch2b", "class_name": "BatchNormalization", "inbound_nodes": [[["res414_branch2b", 0, 0, {}]]], "config": {"axis": 3, "gamma_initializer": {"config": {}, "class_name": "Ones"}, "epsilon": 0.001, "name": "bn414_branch2b", "beta_regularizer": null, "moving_variance_initializer": {"config": {}, "class_name": "Ones"}, "beta_constraint": null, "beta_initializer": {"config": {}, "class_name": "Zeros"}, "gamma_constraint": null, "momentum": 0.99, "trainable": true, "gamma_regularizer": null, "scale": true, "moving_mean_initializer": {"config": {}, "class_name": "Zeros"}, "center": true}}, {"name": "activation_78", "class_name": "Activation", "inbound_nodes": [[["bn414_branch2b", 0, 0, {}]]], "config": {"trainable": true, "activation": "relu", "name": "activation_78"}}, {"name": "res414_branch2c", "class_name": "Conv2D", "inbound_nodes": [[["activation_78", 0, 0, {}]]], "config": {"data_format": "channels_last", "kernel_regularizer": null, "kernel_size": [1, 1], "filters": 1024, "bias_initializer": {"config": {}, "class_name": "Zeros"}, "name": "res414_branch2c", "dilation_rate": [1, 1], "use_bias": true, "activity_regularizer": null, "kernel_initializer": {"config": {"distribution": "uniform", "seed": null, "scale": 1.0, "mode": "fan_avg"}, "class_name": "VarianceScaling"}, "padding": "valid", "strides": [1, 1], "trainable": true, "activation": "linear", "bias_regularizer": null, "bias_constraint": null, "kernel_constraint": null}}, {"name": "bn414_branch2c", "class_name": "BatchNormalization", "inbound_nodes": [[["res414_branch2c", 0, 0, {}]]], "config": {"axis": 3, "gamma_initializer": {"config": {}, "class_name": "Ones"}, "epsilon": 0.001, "name": "bn414_branch2c", "beta_regularizer": null, "moving_variance_initializer": {"config": {}, "class_name": "Ones"}, "beta_constraint": null, "beta_initializer": {"config": {}, "class_name": "Zeros"}, "gamma_constraint": null, "momentum": 0.99, "trainable": true, "gamma_regularizer": null, "scale": true, "moving_mean_initializer": {"config": {}, "class_name": "Zeros"}, "center": true}}, {"name": "add_26", "class_name": "Add", "inbound_nodes": [[["bn414_branch2c", 0, 0, {}], ["activation_76", 0, 0, {}]]], "config": {"trainable": true, "name": "add_26"}}, {"name": "activation_79", "class_name": "Activation", "inbound_nodes": [[["add_26", 0, 0, {}]]], "config": {"trainable": true, "activation": "relu", "name": "activation_79"}}, {"name": "res415_branch2a", "class_name": "Conv2D", "inbound_nodes": [[["activation_79", 0, 0, {}]]], "config": {"data_format": "channels_last", "kernel_regularizer": null, "kernel_size": [1, 1], "filters": 256, "bias_initializer": {"config": {}, "class_name": "Zeros"}, "name": "res415_branch2a", "dilation_rate": [1, 1], "use_bias": true, "activity_regularizer": null, "kernel_initializer": {"config": {"distribution": "uniform", "seed": null, "scale": 1.0, "mode": "fan_avg"}, "class_name": "VarianceScaling"}, "padding": "valid", "strides": [1, 1], "trainable": true, "activation": "linear", "bias_regularizer": null, "bias_constraint": null, "kernel_constraint": null}}, {"name": "bn415_branch2a", "class_name": "BatchNormalization", "inbound_nodes": [[["res415_branch2a", 0, 0, {}]]], "config": {"axis": 3, "gamma_initializer": {"config": {}, "class_name": "Ones"}, "epsilon": 0.001, "name": "bn415_branch2a", "beta_regularizer": null, "moving_variance_initializer": {"config": {}, "class_name": "Ones"}, "beta_constraint": null, "beta_initializer": {"config": {}, "class_name": "Zeros"}, "gamma_constraint": null, "momentum": 0.99, "trainable": true, "gamma_regularizer": null, "scale": true, "moving_mean_initializer": {"config": {}, "class_name": "Zeros"}, "center": true}}, {"name": "activation_80", "class_name": "Activation", "inbound_nodes": [[["bn415_branch2a", 0, 0, {}]]], "config": {"trainable": true, "activation": "relu", "name": "activation_80"}}, {"name": "res415_branch2b", "class_name": "Conv2D", "inbound_nodes": [[["activation_80", 0, 0, {}]]], "config": {"data_format": "channels_last", "kernel_regularizer": null, "kernel_size": [3, 3], "filters": 256, "bias_initializer": {"config": {}, "class_name": "Zeros"}, "name": "res415_branch2b", "dilation_rate": [1, 1], "use_bias": true, "activity_regularizer": null, "kernel_initializer": {"config": {"distribution": "uniform", "seed": null, "scale": 1.0, "mode": "fan_avg"}, "class_name": "VarianceScaling"}, "padding": "same", "strides": [1, 1], "trainable": true, "activation": "linear", "bias_regularizer": null, "bias_constraint": null, "kernel_constraint": null}}, {"name": "bn415_branch2b", "class_name": "BatchNormalization", "inbound_nodes": [[["res415_branch2b", 0, 0, {}]]], "config": {"axis": 3, "gamma_initializer": {"config": {}, "class_name": "Ones"}, "epsilon": 0.001, "name": "bn415_branch2b", "beta_regularizer": null, "moving_variance_initializer": {"config": {}, "class_name": "Ones"}, "beta_constraint": null, "beta_initializer": {"config": {}, "class_name": "Zeros"}, "gamma_constraint": null, "momentum": 0.99, "trainable": true, "gamma_regularizer": null, "scale": true, "moving_mean_initializer": {"config": {}, "class_name": "Zeros"}, "center": true}}, {"name": "activation_81", "class_name": "Activation", "inbound_nodes": [[["bn415_branch2b", 0, 0, {}]]], "config": {"trainable": true, "activation": "relu", "name": "activation_81"}}, {"name": "res415_branch2c", "class_name": "Conv2D", "inbound_nodes": [[["activation_81", 0, 0, {}]]], "config": {"data_format": "channels_last", "kernel_regularizer": null, "kernel_size": [1, 1], "filters": 1024, "bias_initializer": {"config": {}, "class_name": "Zeros"}, "name": "res415_branch2c", "dilation_rate": [1, 1], "use_bias": true, "activity_regularizer": null, "kernel_initializer": {"config": {"distribution": "uniform", "seed": null, "scale": 1.0, "mode": "fan_avg"}, "class_name": "VarianceScaling"}, "padding": "valid", "strides": [1, 1], "trainable": true, "activation": "linear", "bias_regularizer": null, "bias_constraint": null, "kernel_constraint": null}}, {"name": "bn415_branch2c", "class_name": "BatchNormalization", "inbound_nodes": [[["res415_branch2c", 0, 0, {}]]], "config": {"axis": 3, "gamma_initializer": {"config": {}, "class_name": "Ones"}, "epsilon": 0.001, "name": "bn415_branch2c", "beta_regularizer": null, "moving_variance_initializer": {"config": {}, "class_name": "Ones"}, "beta_constraint": null, "beta_initializer": {"config": {}, "class_name": "Zeros"}, "gamma_constraint": null, "momentum": 0.99, "trainable": true, "gamma_regularizer": null, "scale": true, "moving_mean_initializer": {"config": {}, "class_name": "Zeros"}, "center": true}}, {"name": "add_27", "class_name": "Add", "inbound_nodes": [[["bn415_branch2c", 0, 0, {}], ["activation_79", 0, 0, {}]]], "config": {"trainable": true, "name": "add_27"}}, {"name": "activation_82", "class_name": "Activation", "inbound_nodes": [[["add_27", 0, 0, {}]]], "config": {"trainable": true, "activation": "relu", "name": "activation_82"}}, {"name": "res416_branch2a", "class_name": "Conv2D", "inbound_nodes": [[["activation_82", 0, 0, {}]]], "config": {"data_format": "channels_last", "kernel_regularizer": null, "kernel_size": [1, 1], "filters": 256, "bias_initializer": {"config": {}, "class_name": "Zeros"}, "name": "res416_branch2a", "dilation_rate": [1, 1], "use_bias": true, "activity_regularizer": null, "kernel_initializer": {"config": {"distribution": "uniform", "seed": null, "scale": 1.0, "mode": "fan_avg"}, "class_name": "VarianceScaling"}, "padding": "valid", "strides": [1, 1], "trainable": true, "activation": "linear", "bias_regularizer": null, "bias_constraint": null, "kernel_constraint": null}}, {"name": "bn416_branch2a", "class_name": "BatchNormalization", "inbound_nodes": [[["res416_branch2a", 0, 0, {}]]], "config": {"axis": 3, "gamma_initializer": {"config": {}, "class_name": "Ones"}, "epsilon": 0.001, "name": "bn416_branch2a", "beta_regularizer": null, "moving_variance_initializer": {"config": {}, "class_name": "Ones"}, "beta_constraint": null, "beta_initializer": {"config": {}, "class_name": "Zeros"}, "gamma_constraint": null, "momentum": 0.99, "trainable": true, "gamma_regularizer": null, "scale": true, "moving_mean_initializer": {"config": {}, "class_name": "Zeros"}, "center": true}}, {"name": "activation_83", "class_name": "Activation", "inbound_nodes": [[["bn416_branch2a", 0, 0, {}]]], "config": {"trainable": true, "activation": "relu", "name": "activation_83"}}, {"name": "res416_branch2b", "class_name": "Conv2D", "inbound_nodes": [[["activation_83", 0, 0, {}]]], "config": {"data_format": "channels_last", "kernel_regularizer": null, "kernel_size": [3, 3], "filters": 256, "bias_initializer": {"config": {}, "class_name": "Zeros"}, "name": "res416_branch2b", "dilation_rate": [1, 1], "use_bias": true, "activity_regularizer": null, "kernel_initializer": {"config": {"distribution": "uniform", "seed": null, "scale": 1.0, "mode": "fan_avg"}, "class_name": "VarianceScaling"}, "padding": "same", "strides": [1, 1], "trainable": true, "activation": "linear", "bias_regularizer": null, "bias_constraint": null, "kernel_constraint": null}}, {"name": "bn416_branch2b", "class_name": "BatchNormalization", "inbound_nodes": [[["res416_branch2b", 0, 0, {}]]], "config": {"axis": 3, "gamma_initializer": {"config": {}, "class_name": "Ones"}, "epsilon": 0.001, "name": "bn416_branch2b", "beta_regularizer": null, "moving_variance_initializer": {"config": {}, "class_name": "Ones"}, "beta_constraint": null, "beta_initializer": {"config": {}, "class_name": "Zeros"}, "gamma_constraint": null, "momentum": 0.99, "trainable": true, "gamma_regularizer": null, "scale": true, "moving_mean_initializer": {"config": {}, "class_name": "Zeros"}, "center": true}}, {"name": "activation_84", "class_name": "Activation", "inbound_nodes": [[["bn416_branch2b", 0, 0, {}]]], "config": {"trainable": true, "activation": "relu", "name": "activation_84"}}, {"name": "res416_branch2c", "class_name": "Conv2D", "inbound_nodes": [[["activation_84", 0, 0, {}]]], "config": {"data_format": "channels_last", "kernel_regularizer": null, "kernel_size": [1, 1], "filters": 1024, "bias_initializer": {"config": {}, "class_name": "Zeros"}, "name": "res416_branch2c", "dilation_rate": [1, 1], "use_bias": true, "activity_regularizer": null, "kernel_initializer": {"config": {"distribution": "uniform", "seed": null, "scale": 1.0, "mode": "fan_avg"}, "class_name": "VarianceScaling"}, "padding": "valid", "strides": [1, 1], "trainable": true, "activation": "linear", "bias_regularizer": null, "bias_constraint": null, "kernel_constraint": null}}, {"name": "bn416_branch2c", "class_name": "BatchNormalization", "inbound_nodes": [[["res416_branch2c", 0, 0, {}]]], "config": {"axis": 3, "gamma_initializer": {"config": {}, "class_name": "Ones"}, "epsilon": 0.001, "name": "bn416_branch2c", "beta_regularizer": null, "moving_variance_initializer": {"config": {}, "class_name": "Ones"}, "beta_constraint": null, "beta_initializer": {"config": {}, "class_name": "Zeros"}, "gamma_constraint": null, "momentum": 0.99, "trainable": true, "gamma_regularizer": null, "scale": true, "moving_mean_initializer": {"config": {}, "class_name": "Zeros"}, "center": true}}, {"name": "add_28", "class_name": "Add", "inbound_nodes": [[["bn416_branch2c", 0, 0, {}], ["activation_82", 0, 0, {}]]], "config": {"trainable": true, "name": "add_28"}}, {"name": "activation_85", "class_name": "Activation", "inbound_nodes": [[["add_28", 0, 0, {}]]], "config": {"trainable": true, "activation": "relu", "name": "activation_85"}}, {"name": "res417_branch2a", "class_name": "Conv2D", "inbound_nodes": [[["activation_85", 0, 0, {}]]], "config": {"data_format": "channels_last", "kernel_regularizer": null, "kernel_size": [1, 1], "filters": 256, "bias_initializer": {"config": {}, "class_name": "Zeros"}, "name": "res417_branch2a", "dilation_rate": [1, 1], "use_bias": true, "activity_regularizer": null, "kernel_initializer": {"config": {"distribution": "uniform", "seed": null, "scale": 1.0, "mode": "fan_avg"}, "class_name": "VarianceScaling"}, "padding": "valid", "strides": [1, 1], "trainable": true, "activation": "linear", "bias_regularizer": null, "bias_constraint": null, "kernel_constraint": null}}, {"name": "bn417_branch2a", "class_name": "BatchNormalization", "inbound_nodes": [[["res417_branch2a", 0, 0, {}]]], "config": {"axis": 3, "gamma_initializer": {"config": {}, "class_name": "Ones"}, "epsilon": 0.001, "name": "bn417_branch2a", "beta_regularizer": null, "moving_variance_initializer": {"config": {}, "class_name": "Ones"}, "beta_constraint": null, "beta_initializer": {"config": {}, "class_name": "Zeros"}, "gamma_constraint": null, "momentum": 0.99, "trainable": true, "gamma_regularizer": null, "scale": true, "moving_mean_initializer": {"config": {}, "class_name": "Zeros"}, "center": true}}, {"name": "activation_86", "class_name": "Activation", "inbound_nodes": [[["bn417_branch2a", 0, 0, {}]]], "config": {"trainable": true, "activation": "relu", "name": "activation_86"}}, {"name": "res417_branch2b", "class_name": "Conv2D", "inbound_nodes": [[["activation_86", 0, 0, {}]]], "config": {"data_format": "channels_last", "kernel_regularizer": null, "kernel_size": [3, 3], "filters": 256, "bias_initializer": {"config": {}, "class_name": "Zeros"}, "name": "res417_branch2b", "dilation_rate": [1, 1], "use_bias": true, "activity_regularizer": null, "kernel_initializer": {"config": {"distribution": "uniform", "seed": null, "scale": 1.0, "mode": "fan_avg"}, "class_name": "VarianceScaling"}, "padding": "same", "strides": [1, 1], "trainable": true, "activation": "linear", "bias_regularizer": null, "bias_constraint": null, "kernel_constraint": null}}, {"name": "bn417_branch2b", "class_name": "BatchNormalization", "inbound_nodes": [[["res417_branch2b", 0, 0, {}]]], "config": {"axis": 3, "gamma_initializer": {"config": {}, "class_name": "Ones"}, "epsilon": 0.001, "name": "bn417_branch2b", "beta_regularizer": null, "moving_variance_initializer": {"config": {}, "class_name": "Ones"}, "beta_constraint": null, "beta_initializer": {"config": {}, "class_name": "Zeros"}, "gamma_constraint": null, "momentum": 0.99, "trainable": true, "gamma_regularizer": null, "scale": true, "moving_mean_initializer": {"config": {}, "class_name": "Zeros"}, "center": true}}, {"name": "activation_87", "class_name": "Activation", "inbound_nodes": [[["bn417_branch2b", 0, 0, {}]]], "config": {"trainable": true, "activation": "relu", "name": "activation_87"}}, {"name": "res417_branch2c", "class_name": "Conv2D", "inbound_nodes": [[["activation_87", 0, 0, {}]]], "config": {"data_format": "channels_last", "kernel_regularizer": null, "kernel_size": [1, 1], "filters": 1024, "bias_initializer": {"config": {}, "class_name": "Zeros"}, "name": "res417_branch2c", "dilation_rate": [1, 1], "use_bias": true, "activity_regularizer": null, "kernel_initializer": {"config": {"distribution": "uniform", "seed": null, "scale": 1.0, "mode": "fan_avg"}, "class_name": "VarianceScaling"}, "padding": "valid", "strides": [1, 1], "trainable": true, "activation": "linear", "bias_regularizer": null, "bias_constraint": null, "kernel_constraint": null}}, {"name": "bn417_branch2c", "class_name": "BatchNormalization", "inbound_nodes": [[["res417_branch2c", 0, 0, {}]]], "config": {"axis": 3, "gamma_initializer": {"config": {}, "class_name": "Ones"}, "epsilon": 0.001, "name": "bn417_branch2c", "beta_regularizer": null, "moving_variance_initializer": {"config": {}, "class_name": "Ones"}, "beta_constraint": null, "beta_initializer": {"config": {}, "class_name": "Zeros"}, "gamma_constraint": null, "momentum": 0.99, "trainable": true, "gamma_regularizer": null, "scale": true, "moving_mean_initializer": {"config": {}, "class_name": "Zeros"}, "center": true}}, {"name": "add_29", "class_name": "Add", "inbound_nodes": [[["bn417_branch2c", 0, 0, {}], ["activation_85", 0, 0, {}]]], "config": {"trainable": true, "name": "add_29"}}, {"name": "activation_88", "class_name": "Activation", "inbound_nodes": [[["add_29", 0, 0, {}]]], "config": {"trainable": true, "activation": "relu", "name": "activation_88"}}, {"name": "res418_branch2a", "class_name": "Conv2D", "inbound_nodes": [[["activation_88", 0, 0, {}]]], "config": {"data_format": "channels_last", "kernel_regularizer": null, "kernel_size": [1, 1], "filters": 256, "bias_initializer": {"config": {}, "class_name": "Zeros"}, "name": "res418_branch2a", "dilation_rate": [1, 1], "use_bias": true, "activity_regularizer": null, "kernel_initializer": {"config": {"distribution": "uniform", "seed": null, "scale": 1.0, "mode": "fan_avg"}, "class_name": "VarianceScaling"}, "padding": "valid", "strides": [1, 1], "trainable": true, "activation": "linear", "bias_regularizer": null, "bias_constraint": null, "kernel_constraint": null}}, {"name": "bn418_branch2a", "class_name": "BatchNormalization", "inbound_nodes": [[["res418_branch2a", 0, 0, {}]]], "config": {"axis": 3, "gamma_initializer": {"config": {}, "class_name": "Ones"}, "epsilon": 0.001, "name": "bn418_branch2a", "beta_regularizer": null, "moving_variance_initializer": {"config": {}, "class_name": "Ones"}, "beta_constraint": null, "beta_initializer": {"config": {}, "class_name": "Zeros"}, "gamma_constraint": null, "momentum": 0.99, "trainable": true, "gamma_regularizer": null, "scale": true, "moving_mean_initializer": {"config": {}, "class_name": "Zeros"}, "center": true}}, {"name": "activation_89", "class_name": "Activation", "inbound_nodes": [[["bn418_branch2a", 0, 0, {}]]], "config": {"trainable": true, "activation": "relu", "name": "activation_89"}}, {"name": "res418_branch2b", "class_name": "Conv2D", "inbound_nodes": [[["activation_89", 0, 0, {}]]], "config": {"data_format": "channels_last", "kernel_regularizer": null, "kernel_size": [3, 3], "filters": 256, "bias_initializer": {"config": {}, "class_name": "Zeros"}, "name": "res418_branch2b", "dilation_rate": [1, 1], "use_bias": true, "activity_regularizer": null, "kernel_initializer": {"config": {"distribution": "uniform", "seed": null, "scale": 1.0, "mode": "fan_avg"}, "class_name": "VarianceScaling"}, "padding": "same", "strides": [1, 1], "trainable": true, "activation": "linear", "bias_regularizer": null, "bias_constraint": null, "kernel_constraint": null}}, {"name": "bn418_branch2b", "class_name": "BatchNormalization", "inbound_nodes": [[["res418_branch2b", 0, 0, {}]]], "config": {"axis": 3, "gamma_initializer": {"config": {}, "class_name": "Ones"}, "epsilon": 0.001, "name": "bn418_branch2b", "beta_regularizer": null, "moving_variance_initializer": {"config": {}, "class_name": "Ones"}, "beta_constraint": null, "beta_initializer": {"config": {}, "class_name": "Zeros"}, "gamma_constraint": null, "momentum": 0.99, "trainable": true, "gamma_regularizer": null, "scale": true, "moving_mean_initializer": {"config": {}, "class_name": "Zeros"}, "center": true}}, {"name": "activation_90", "class_name": "Activation", "inbound_nodes": [[["bn418_branch2b", 0, 0, {}]]], "config": {"trainable": true, "activation": "relu", "name": "activation_90"}}, {"name": "res418_branch2c", "class_name": "Conv2D", "inbound_nodes": [[["activation_90", 0, 0, {}]]], "config": {"data_format": "channels_last", "kernel_regularizer": null, "kernel_size": [1, 1], "filters": 1024, "bias_initializer": {"config": {}, "class_name": "Zeros"}, "name": "res418_branch2c", "dilation_rate": [1, 1], "use_bias": true, "activity_regularizer": null, "kernel_initializer": {"config": {"distribution": "uniform", "seed": null, "scale": 1.0, "mode": "fan_avg"}, "class_name": "VarianceScaling"}, "padding": "valid", "strides": [1, 1], "trainable": true, "activation": "linear", "bias_regularizer": null, "bias_constraint": null, "kernel_constraint": null}}, {"name": "bn418_branch2c", "class_name": "BatchNormalization", "inbound_nodes": [[["res418_branch2c", 0, 0, {}]]], "config": {"axis": 3, "gamma_initializer": {"config": {}, "class_name": "Ones"}, "epsilon": 0.001, "name": "bn418_branch2c", "beta_regularizer": null, "moving_variance_initializer": {"config": {}, "class_name": "Ones"}, "beta_constraint": null, "beta_initializer": {"config": {}, "class_name": "Zeros"}, "gamma_constraint": null, "momentum": 0.99, "trainable": true, "gamma_regularizer": null, "scale": true, "moving_mean_initializer": {"config": {}, "class_name": "Zeros"}, "center": true}}, {"name": "add_30", "class_name": "Add", "inbound_nodes": [[["bn418_branch2c", 0, 0, {}], ["activation_88", 0, 0, {}]]], "config": {"trainable": true, "name": "add_30"}}, {"name": "activation_91", "class_name": "Activation", "inbound_nodes": [[["add_30", 0, 0, {}]]], "config": {"trainable": true, "activation": "relu", "name": "activation_91"}}, {"name": "res419_branch2a", "class_name": "Conv2D", "inbound_nodes": [[["activation_91", 0, 0, {}]]], "config": {"data_format": "channels_last", "kernel_regularizer": null, "kernel_size": [1, 1], "filters": 256, "bias_initializer": {"config": {}, "class_name": "Zeros"}, "name": "res419_branch2a", "dilation_rate": [1, 1], "use_bias": true, "activity_regularizer": null, "kernel_initializer": {"config": {"distribution": "uniform", "seed": null, "scale": 1.0, "mode": "fan_avg"}, "class_name": "VarianceScaling"}, "padding": "valid", "strides": [1, 1], "trainable": true, "activation": "linear", "bias_regularizer": null, "bias_constraint": null, "kernel_constraint": null}}, {"name": "bn419_branch2a", "class_name": "BatchNormalization", "inbound_nodes": [[["res419_branch2a", 0, 0, {}]]], "config": {"axis": 3, "gamma_initializer": {"config": {}, "class_name": "Ones"}, "epsilon": 0.001, "name": "bn419_branch2a", "beta_regularizer": null, "moving_variance_initializer": {"config": {}, "class_name": "Ones"}, "beta_constraint": null, "beta_initializer": {"config": {}, "class_name": "Zeros"}, "gamma_constraint": null, "momentum": 0.99, "trainable": true, "gamma_regularizer": null, "scale": true, "moving_mean_initializer": {"config": {}, "class_name": "Zeros"}, "center": true}}, {"name": "activation_92", "class_name": "Activation", "inbound_nodes": [[["bn419_branch2a", 0, 0, {}]]], "config": {"trainable": true, "activation": "relu", "name": "activation_92"}}, {"name": "res419_branch2b", "class_name": "Conv2D", "inbound_nodes": [[["activation_92", 0, 0, {}]]], "config": {"data_format": "channels_last", "kernel_regularizer": null, "kernel_size": [3, 3], "filters": 256, "bias_initializer": {"config": {}, "class_name": "Zeros"}, "name": "res419_branch2b", "dilation_rate": [1, 1], "use_bias": true, "activity_regularizer": null, "kernel_initializer": {"config": {"distribution": "uniform", "seed": null, "scale": 1.0, "mode": "fan_avg"}, "class_name": "VarianceScaling"}, "padding": "same", "strides": [1, 1], "trainable": true, "activation": "linear", "bias_regularizer": null, "bias_constraint": null, "kernel_constraint": null}}, {"name": "bn419_branch2b", "class_name": "BatchNormalization", "inbound_nodes": [[["res419_branch2b", 0, 0, {}]]], "config": {"axis": 3, "gamma_initializer": {"config": {}, "class_name": "Ones"}, "epsilon": 0.001, "name": "bn419_branch2b", "beta_regularizer": null, "moving_variance_initializer": {"config": {}, "class_name": "Ones"}, "beta_constraint": null, "beta_initializer": {"config": {}, "class_name": "Zeros"}, "gamma_constraint": null, "momentum": 0.99, "trainable": true, "gamma_regularizer": null, "scale": true, "moving_mean_initializer": {"config": {}, "class_name": "Zeros"}, "center": true}}, {"name": "activation_93", "class_name": "Activation", "inbound_nodes": [[["bn419_branch2b", 0, 0, {}]]], "config": {"trainable": true, "activation": "relu", "name": "activation_93"}}, {"name": "res419_branch2c", "class_name": "Conv2D", "inbound_nodes": [[["activation_93", 0, 0, {}]]], "config": {"data_format": "channels_last", "kernel_regularizer": null, "kernel_size": [1, 1], "filters": 1024, "bias_initializer": {"config": {}, "class_name": "Zeros"}, "name": "res419_branch2c", "dilation_rate": [1, 1], "use_bias": true, "activity_regularizer": null, "kernel_initializer": {"config": {"distribution": "uniform", "seed": null, "scale": 1.0, "mode": "fan_avg"}, "class_name": "VarianceScaling"}, "padding": "valid", "strides": [1, 1], "trainable": true, "activation": "linear", "bias_regularizer": null, "bias_constraint": null, "kernel_constraint": null}}, {"name": "bn419_branch2c", "class_name": "BatchNormalization", "inbound_nodes": [[["res419_branch2c", 0, 0, {}]]], "config": {"axis": 3, "gamma_initializer": {"config": {}, "class_name": "Ones"}, "epsilon": 0.001, "name": "bn419_branch2c", "beta_regularizer": null, "moving_variance_initializer": {"config": {}, "class_name": "Ones"}, "beta_constraint": null, "beta_initializer": {"config": {}, "class_name": "Zeros"}, "gamma_constraint": null, "momentum": 0.99, "trainable": true, "gamma_regularizer": null, "scale": true, "moving_mean_initializer": {"config": {}, "class_name": "Zeros"}, "center": true}}, {"name": "add_31", "class_name": "Add", "inbound_nodes": [[["bn419_branch2c", 0, 0, {}], ["activation_91", 0, 0, {}]]], "config": {"trainable": true, "name": "add_31"}}, {"name": "activation_94", "class_name": "Activation", "inbound_nodes": [[["add_31", 0, 0, {}]]], "config": {"trainable": true, "activation": "relu", "name": "activation_94"}}, {"name": "res420_branch2a", "class_name": "Conv2D", "inbound_nodes": [[["activation_94", 0, 0, {}]]], "config": {"data_format": "channels_last", "kernel_regularizer": null, "kernel_size": [1, 1], "filters": 256, "bias_initializer": {"config": {}, "class_name": "Zeros"}, "name": "res420_branch2a", "dilation_rate": [1, 1], "use_bias": true, "activity_regularizer": null, "kernel_initializer": {"config": {"distribution": "uniform", "seed": null, "scale": 1.0, "mode": "fan_avg"}, "class_name": "VarianceScaling"}, "padding": "valid", "strides": [1, 1], "trainable": true, "activation": "linear", "bias_regularizer": null, "bias_constraint": null, "kernel_constraint": null}}, {"name": "bn420_branch2a", "class_name": "BatchNormalization", "inbound_nodes": [[["res420_branch2a", 0, 0, {}]]], "config": {"axis": 3, "gamma_initializer": {"config": {}, "class_name": "Ones"}, "epsilon": 0.001, "name": "bn420_branch2a", "beta_regularizer": null, "moving_variance_initializer": {"config": {}, "class_name": "Ones"}, "beta_constraint": null, "beta_initializer": {"config": {}, "class_name": "Zeros"}, "gamma_constraint": null, "momentum": 0.99, "trainable": true, "gamma_regularizer": null, "scale": true, "moving_mean_initializer": {"config": {}, "class_name": "Zeros"}, "center": true}}, {"name": "activation_95", "class_name": "Activation", "inbound_nodes": [[["bn420_branch2a", 0, 0, {}]]], "config": {"trainable": true, "activation": "relu", "name": "activation_95"}}, {"name": "res420_branch2b", "class_name": "Conv2D", "inbound_nodes": [[["activation_95", 0, 0, {}]]], "config": {"data_format": "channels_last", "kernel_regularizer": null, "kernel_size": [3, 3], "filters": 256, "bias_initializer": {"config": {}, "class_name": "Zeros"}, "name": "res420_branch2b", "dilation_rate": [1, 1], "use_bias": true, "activity_regularizer": null, "kernel_initializer": {"config": {"distribution": "uniform", "seed": null, "scale": 1.0, "mode": "fan_avg"}, "class_name": "VarianceScaling"}, "padding": "same", "strides": [1, 1], "trainable": true, "activation": "linear", "bias_regularizer": null, "bias_constraint": null, "kernel_constraint": null}}, {"name": "bn420_branch2b", "class_name": "BatchNormalization", "inbound_nodes": [[["res420_branch2b", 0, 0, {}]]], "config": {"axis": 3, "gamma_initializer": {"config": {}, "class_name": "Ones"}, "epsilon": 0.001, "name": "bn420_branch2b", "beta_regularizer": null, "moving_variance_initializer": {"config": {}, "class_name": "Ones"}, "beta_constraint": null, "beta_initializer": {"config": {}, "class_name": "Zeros"}, "gamma_constraint": null, "momentum": 0.99, "trainable": true, "gamma_regularizer": null, "scale": true, "moving_mean_initializer": {"config": {}, "class_name": "Zeros"}, "center": true}}, {"name": "activation_96", "class_name": "Activation", "inbound_nodes": [[["bn420_branch2b", 0, 0, {}]]], "config": {"trainable": true, "activation": "relu", "name": "activation_96"}}, {"name": "res420_branch2c", "class_name": "Conv2D", "inbound_nodes": [[["activation_96", 0, 0, {}]]], "config": {"data_format": "channels_last", "kernel_regularizer": null, "kernel_size": [1, 1], "filters": 1024,…
ularizer": null, "kernel_initializer": {"config": {"distribution": "uniform", "seed": null, "scale": 1.0, "mode": "fan_avg"}, "class_name": "VarianceScaling"}, "padding": "valid", "strides": [1, 1], "trainable": true, "activation": "linear", "bias_regularizer": null, "bias_constraint": null, "kernel_constraint": null}}, {"name": "bn431_branch2a", "class_name": "BatchNormalization", "inbound_nodes": [[["res431_branch2a", 0, 0, {}]]], "config": {"axis": 3, "gamma_initializer": {"config": {}, "class_name": "Ones"}, "epsilon": 0.001, "name": "bn431_branch2a", "beta_regularizer": null, "moving_variance_initializer": {"config": {}, "class_name": "Ones"}, "beta_constraint": null, "beta_initializer": {"config": {}, "class_name": "Zeros"}, "gamma_constraint": null, "momentum": 0.99, "trainable": true, "gamma_regularizer": null, "scale": true, "moving_mean_initializer": {"config": {}, "class_name": "Zeros"}, "center": true}}, {"name": "activation_128", "class_name": "Activation", "inbound_nodes": [[["bn431_branch2a", 0, 0, {}]]], "config": {"trainable": true, "activation": "relu", "name": "activation_128"}}, {"name": "res431_branch2b", "class_name": "Conv2D", "inbound_nodes": [[["activation_128", 0, 0, {}]]], "config": {"data_format": "channels_last", "kernel_regularizer": null, "kernel_size": [3, 3], "filters": 256, "bias_initializer": {"config": {}, "class_name": "Zeros"}, "name": "res431_branch2b", "dilation_rate": [1, 1], "use_bias": true, "activity_regularizer": null, "kernel_initializer": {"config": {"distribution": "uniform", "seed": null, "scale": 1.0, "mode": "fan_avg"}, "class_name": "VarianceScaling"}, "padding": "same", "strides": [1, 1], "trainable": true, "activation": "linear", "bias_regularizer": null, "bias_constraint": null, "kernel_constraint": null}}, {"name": "bn431_branch2b", "class_name": "BatchNormalization", "inbound_nodes": [[["res431_branch2b", 0, 0, {}]]], "config": {"axis": 3, "gamma_initializer": {"config": {}, "class_name": "Ones"}, "epsilon": 0.001, "name": "bn431_branch2b", "beta_regularizer": null, "moving_variance_initializer": {"config": {}, "class_name": "Ones"}, "beta_constraint": null, "beta_initializer": {"config": {}, "class_name": "Zeros"}, "gamma_constraint": null, "momentum": 0.99, "trainable": true, "gamma_regularizer": null, "scale": true, "moving_mean_initializer": {"config": {}, "class_name": "Zeros"}, "center": true}}, {"name": "activation_129", "class_name": "Activation", "inbound_nodes": [[["bn431_branch2b", 0, 0, {}]]], "config": {"trainable": true, "activation": "relu", "name": "activation_129"}}, {"name": "res431_branch2c", "class_name": "Conv2D", "inbound_nodes": [[["activation_129", 0, 0, {}]]], "config": {"data_format": "channels_last", "kernel_regularizer": null, "kernel_size": [1, 1], "filters": 1024, "bias_initializer": {"config": {}, "class_name": "Zeros"}, "name": "res431_branch2c", "dilation_rate": [1, 1], "use_bias": true, "activity_regularizer": null, "kernel_initializer": {"config": {"distribution": "uniform", "seed": null, "scale": 1.0, "mode": "fan_avg"}, "class_name": "VarianceScaling"}, "padding": "valid", "strides": [1, 1], "trainable": true, "activation": "linear", "bias_regularizer": null, "bias_constraint": null, "kernel_constraint": null}}, {"name": "bn431_branch2c", "class_name": "BatchNormalization", "inbound_nodes": [[["res431_branch2c", 0, 0, {}]]], "config": {"axis": 3, "gamma_initializer": {"config": {}, "class_name": "Ones"}, "epsilon": 0.001, "name": "bn431_branch2c", "beta_regularizer": null, "moving_variance_initializer": {"config": {}, "class_name": "Ones"}, "beta_constraint": null, "beta_initializer": {"config": {}, "class_name": "Zeros"}, "gamma_constraint": null, "momentum": 0.99, "trainable": true, "gamma_regularizer": null, "scale": true, "moving_mean_initializer": {"config": {}, "class_name": "Zeros"}, "center": true}}, {"name": "add_43", "class_name": "Add", "inbound_nodes": [[["bn431_branch2c", 0, 0, {}], ["activation_127", 0, 0, {}]]], "config": {"trainable": true, "name": "add_43"}}, {"name": "activation_130", "class_name": "Activation", "inbound_nodes": [[["add_43", 0, 0, {}]]], "config": {"trainable": true, "activation": "relu", "name": "activation_130"}}, {"name": "res432_branch2a", "class_name": "Conv2D", "inbound_nodes": [[["activation_130", 0, 0, {}]]], "config": {"data_format": "channels_last", "kernel_regularizer": null, "kernel_size": [1, 1], "filters": 256, "bias_initializer": {"config": {}, "class_name": "Zeros"}, "name": "res432_branch2a", "dilation_rate": [1, 1], "use_bias": true, "activity_regularizer": null, "kernel_initializer": {"config": {"distribution": "uniform", "seed": null, "scale": 1.0, "mode": "fan_avg"}, "class_name": "VarianceScaling"}, "padding": "valid", "strides": [1, 1], "trainable": true, "activation": "linear", "bias_regularizer": null, "bias_constraint": null, "kernel_constraint": null}}, {"name": "bn432_branch2a", "class_name": "BatchNormalization", "inbound_nodes": [[["res432_branch2a", 0, 0, {}]]], "config": {"axis": 3, "gamma_initializer": {"config": {}, "class_name": "Ones"}, "epsilon": 0.001, "name": "bn432_branch2a", "beta_regularizer": null, "moving_variance_initializer": {"config": {}, "class_name": "Ones"}, "beta_constraint": null, "beta_initializer": {"config": {}, "class_name": "Zeros"}, "gamma_constraint": null, "momentum": 0.99, "trainable": true, "gamma_regularizer": null, "scale": true, "moving_mean_initializer": {"config": {}, "class_name": "Zeros"}, "center": true}}, {"name": "activation_131", "class_name": "Activation", "inbound_nodes": [[["bn432_branch2a", 0, 0, {}]]], "config": {"trainable": true, "activation": "relu", "name": "activation_131"}}, {"name": "res432_branch2b", "class_name": "Conv2D", "inbound_nodes": [[["activation_131", 0, 0, {}]]], "config": {"data_format": "channels_last", "kernel_regularizer": null, "kernel_size": [3, 3], "filters": 256, "bias_initializer": {"config": {}, "class_name": "Zeros"}, "name": "res432_branch2b", "dilation_rate": [1, 1], "use_bias": true, "activity_regularizer": null, "kernel_initializer": {"config": {"distribution": "uniform", "seed": null, "scale": 1.0, "mode": "fan_avg"}, "class_name": "VarianceScaling"}, "padding": "same", "strides": [1, 1], "trainable": true, "activation": "linear", "bias_regularizer": null, "bias_constraint": null, "kernel_constraint": null}}, {"name": "bn432_branch2b", "class_name": "BatchNormalization", "inbound_nodes": [[["res432_branch2b", 0, 0, {}]]], "config": {"axis": 3, "gamma_initializer": {"config": {}, "class_name": "Ones"}, "epsilon": 0.001, "name": "bn432_branch2b", "beta_regularizer": null, "moving_variance_initializer": {"config": {}, "class_name": "Ones"}, "beta_constraint": null, "beta_initializer": {"config": {}, "class_name": "Zeros"}, "gamma_constraint": null, "momentum": 0.99, "trainable": true, "gamma_regularizer": null, "scale": true, "moving_mean_initializer": {"config": {}, "class_name": "Zeros"}, "center": true}}, {"name": "activation_132", "class_name": "Activation", "inbound_nodes": [[["bn432_branch2b", 0, 0, {}]]], "config": {"trainable": true, "activation": "relu", "name": "activation_132"}}, {"name": "res432_branch2c", "class_name": "Conv2D", "inbound_nodes": [[["activation_132", 0, 0, {}]]], "config": {"data_format": "channels_last", "kernel_regularizer": null, "kernel_size": [1, 1], "filters": 1024, "bias_initializer": {"config": {}, "class_name": "Zeros"}, "name": "res432_branch2c", "dilation_rate": [1, 1], "use_bias": true, "activity_regularizer": null, "kernel_initializer": {"config": {"distribution": "uniform", "seed": null, "scale": 1.0, "mode": "fan_avg"}, "class_name": "VarianceScaling"}, "padding": "valid", "strides": [1, 1], "trainable": true, "activation": "linear", "bias_regularizer": null, "bias_constraint": null, "kernel_constraint": null}}, {"name": "bn432_branch2c", "class_name": "BatchNormalization", "inbound_nodes": [[["res432_branch2c", 0, 0, {}]]], "config": {"axis": 3, "gamma_initializer": {"config": {}, "class_name": "Ones"}, "epsilon": 0.001, "name": "bn432_branch2c", "beta_regularizer": null, "moving_variance_initializer": {"config": {}, "class_name": "Ones"}, "beta_constraint": null, "beta_initializer": {"config": {}, "class_name": "Zeros"}, "gamma_constraint": null, "momentum": 0.99, "trainable": true, "gamma_regularizer": null, "scale": true, "moving_mean_initializer": {"config": {}, "class_name": "Zeros"}, "center": true}}, {"name": "add_44", "class_name": "Add", "inbound_nodes": [[["bn432_branch2c", 0, 0, {}], ["activation_130", 0, 0, {}]]], "config": {"trainable": true, "name": "add_44"}}, {"name": "activation_133", "class_name": "Activation", "inbound_nodes": [[["add_44", 0, 0, {}]]], "config": {"trainable": true, "activation": "relu", "name": "activation_133"}}, {"name": "res433_branch2a", "class_name": "Conv2D", "inbound_nodes": [[["activation_133", 0, 0, {}]]], "config": {"data_format": "channels_last", "kernel_regularizer": null, "kernel_size": [1, 1], "filters": 256, "bias_initializer": {"config": {}, "class_name": "Zeros"}, "name": "res433_branch2a", "dilation_rate": [1, 1], "use_bias": true, "activity_regularizer": null, "kernel_initializer": {"config": {"distribution": "uniform", "seed": null, "scale": 1.0, "mode": "fan_avg"}, "class_name": "VarianceScaling"}, "padding": "valid", "strides": [1, 1], "trainable": true, "activation": "linear", "bias_regularizer": null, "bias_constraint": null, "kernel_constraint": null}}, {"name": "bn433_branch2a", "class_name": "BatchNormalization", "inbound_nodes": [[["res433_branch2a", 0, 0, {}]]], "config": {"axis": 3, "gamma_initializer": {"config": {}, "class_name": "Ones"}, "epsilon": 0.001, "name": "bn433_branch2a", "beta_regularizer": null, "moving_variance_initializer": {"config": {}, "class_name": "Ones"}, "beta_constraint": null, "beta_initializer": {"config": {}, "class_name": "Zeros"}, "gamma_constraint": null, "momentum": 0.99, "trainable": true, "gamma_regularizer": null, "scale": true, "moving_mean_initializer": {"config": {}, "class_name": "Zeros"}, "center": true}}, {"name": "activation_134", "class_name": "Activation", "inbound_nodes": [[["bn433_branch2a", 0, 0, {}]]], "config": {"trainable": true, "activation": "relu", "name": "activation_134"}}, {"name": "res433_branch2b", "class_name": "Conv2D", "inbound_nodes": [[["activation_134", 0, 0, {}]]], "config": {"data_format": "channels_last", "kernel_regularizer": null, "kernel_size": [3, 3], "filters": 256, "bias_initializer": {"config": {}, "class_name": "Zeros"}, "name": "res433_branch2b", "dilation_rate": [1, 1], "use_bias": true, "activity_regularizer": null, "kernel_initializer": {"config": {"distribution": "uniform", "seed": null, "scale": 1.0, "mode": "fan_avg"}, "class_name": "VarianceScaling"}, "padding": "same", "strides": [1, 1], "trainable": true, "activation": "linear", "bias_regularizer": null, "bias_constraint": null, "kernel_constraint": null}}, {"name": "bn433_branch2b", "class_name": "BatchNormalization", "inbound_nodes": [[["res433_branch2b", 0, 0, {}]]], "config": {"axis": 3, "gamma_initializer": {"config": {}, "class_name": "Ones"}, "epsilon": 0.001, "name": "bn433_branch2b", "beta_regularizer": null, "moving_variance_initializer": {"config": {}, "class_name": "Ones"}, "beta_constraint": null, "beta_initializer": {"config": {}, "class_name": "Zeros"}, "gamma_constraint": null, "momentum": 0.99, "trainable": true, "gamma_regularizer": null, "scale": true, "moving_mean_initializer": {"config": {}, "class_name": "Zeros"}, "center": true}}, {"name": "activation_135", "class_name": "Activation", "inbound_nodes": [[["bn433_branch2b", 0, 0, {}]]], "config": {"trainable": true, "activation": "relu", "name": "activation_135"}}, {"name": "res433_branch2c", "class_name": "Conv2D", "inbound_nodes": [[["activation_135", 0, 0, {}]]], "config": {"data_format": "channels_last", "kernel_regularizer": null, "kernel_size": [1, 1], "filters": 1024, "bias_initializer": {"config": {}, "class_name": "Zeros"}, "name": "res433_branch2c", "dilation_rate": [1, 1], "use_bias": true, "activity_regularizer": null, "kernel_initializer": {"config": {"distribution": "uniform", "seed": null, "scale": 1.0, "mode": "fan_avg"}, "class_name": "VarianceScaling"}, "padding": "valid", "strides": [1, 1], "trainable": true, "activation": "linear", "bias_regularizer": null, "bias_constraint": null, "kernel_constraint": null}}, {"name": "bn433_branch2c", "class_name": "BatchNormalization", "inbound_nodes": [[["res433_branch2c", 0, 0, {}]]], "config": {"axis": 3, "gamma_initializer": {"config": {}, "class_name": "Ones"}, "epsilon": 0.001, "name": "bn433_branch2c", "beta_regularizer": null, "moving_variance_initializer": {"config": {}, "class_name": "Ones"}, "beta_constraint": null, "beta_initializer": {"config": {}, "class_name": "Zeros"}, "gamma_constraint": null, "momentum": 0.99, "trainable": true, "gamma_regularizer": null, "scale": true, "moving_mean_initializer": {"config": {}, "class_name": "Zeros"}, "center": true}}, {"name": "add_45", "class_name": "Add", "inbound_nodes": [[["bn433_branch2c", 0, 0, {}], ["activation_133", 0, 0, {}]]], "config": {"trainable": true, "name": "add_45"}}, {"name": "activation_136", "class_name": "Activation", "inbound_nodes": [[["add_45", 0, 0, {}]]], "config": {"trainable": true, "activation": "relu", "name": "activation_136"}}, {"name": "res434_branch2a", "class_name": "Conv2D", "inbound_nodes": [[["activation_136", 0, 0, {}]]], "config": {"data_format": "channels_last", "kernel_regularizer": null, "kernel_size": [1, 1], "filters": 256, "bias_initializer": {"config": {}, "class_name": "Zeros"}, "name": "res434_branch2a", "dilation_rate": [1, 1], "use_bias": true, "activity_regularizer": null, "kernel_initializer": {"config": {"distribution": "uniform", "seed": null, "scale": 1.0, "mode": "fan_avg"}, "class_name": "VarianceScaling"}, "padding": "valid", "strides": [1, 1], "trainable": true, "activation": "linear", "bias_regularizer": null, "bias_constraint": null, "kernel_constraint": null}}, {"name": "bn434_branch2a", "class_name": "BatchNormalization", "inbound_nodes": [[["res434_branch2a", 0, 0, {}]]], "config": {"axis": 3, "gamma_initializer": {"config": {}, "class_name": "Ones"}, "epsilon": 0.001, "name": "bn434_branch2a", "beta_regularizer": null, "moving_variance_initializer": {"config": {}, "class_name": "Ones"}, "beta_constraint": null, "beta_initializer": {"config": {}, "class_name": "Zeros"}, "gamma_constraint": null, "momentum": 0.99, "trainable": true, "gamma_regularizer": null, "scale": true, "moving_mean_initializer": {"config": {}, "class_name": "Zeros"}, "center": true}}, {"name": "activation_137", "class_name": "Activation", "inbound_nodes": [[["bn434_branch2a", 0, 0, {}]]], "config": {"trainable": true, "activation": "relu", "name": "activation_137"}}, {"name": "res434_branch2b", "class_name": "Conv2D", "inbound_nodes": [[["activation_137", 0, 0, {}]]], "config": {"data_format": "channels_last", "kernel_regularizer": null, "kernel_size": [3, 3], "filters": 256, "bias_initializer": {"config": {}, "class_name": "Zeros"}, "name": "res434_branch2b", "dilation_rate": [1, 1], "use_bias": true, "activity_regularizer": null, "kernel_initializer": {"config": {"distribution": "uniform", "seed": null, "scale": 1.0, "mode": "fan_avg"}, "class_name": "VarianceScaling"}, "padding": "same", "strides": [1, 1], "trainable": true, "activation": "linear", "bias_regularizer": null, "bias_constraint": null, "kernel_constraint": null}}, {"name": "bn434_branch2b", "class_name": "BatchNormalization", "inbound_nodes": [[["res434_branch2b", 0, 0, {}]]], "config": {"axis": 3, "gamma_initializer": {"config": {}, "class_name": "Ones"}, "epsilon": 0.001, "name": "bn434_branch2b", "beta_regularizer": null, "moving_variance_initializer": {"config": {}, "class_name": "Ones"}, "beta_constraint": null, "beta_initializer": {"config": {}, "class_name": "Zeros"}, "gamma_constraint": null, "momentum": 0.99, "trainable": true, "gamma_regularizer": null, "scale": true, "moving_mean_initializer": {"config": {}, "class_name": "Zeros"}, "center": true}}, {"name": "activation_138", "class_name": "Activation", "inbound_nodes": [[["bn434_branch2b", 0, 0, {}]]], "config": {"trainable": true, "activation": "relu", "name": "activation_138"}}, {"name": "res434_branch2c", "class_name": "Conv2D", "inbound_nodes": [[["activation_138", 0, 0, {}]]], "config": {"data_format": "channels_last", "kernel_regularizer": null, "kernel_size": [1, 1], "filters": 1024, "bias_initializer": {"config": {}, "class_name": "Zeros"}, "name": "res434_branch2c", "dilation_rate": [1, 1], "use_bias": true, "activity_regularizer": null, "kernel_initializer": {"config": {"distribution": "uniform", "seed": null, "scale": 1.0, "mode": "fan_avg"}, "class_name": "VarianceScaling"}, "padding": "valid", "strides": [1, 1], "trainable": true, "activation": "linear", "bias_regularizer": null, "bias_constraint": null, "kernel_constraint": null}}, {"name": "bn434_branch2c", "class_name": "BatchNormalization", "inbound_nodes": [[["res434_branch2c", 0, 0, {}]]], "config": {"axis": 3, "gamma_initializer": {"config": {}, "class_name": "Ones"}, "epsilon": 0.001, "name": "bn434_branch2c", "beta_regularizer": null, "moving_variance_initializer": {"config": {}, "class_name": "Ones"}, "beta_constraint": null, "beta_initializer": {"config": {}, "class_name": "Zeros"}, "gamma_constraint": null, "momentum": 0.99, "trainable": true, "gamma_regularizer": null, "scale": true, "moving_mean_initializer": {"config": {}, "class_name": "Zeros"}, "center": true}}, {"name": "add_46", "class_name": "Add", "inbound_nodes": [[["bn434_branch2c", 0, 0, {}], ["activation_136", 0, 0, {}]]], "config": {"trainable": true, "name": "add_46"}}, {"name": "activation_139", "class_name": "Activation", "inbound_nodes": [[["add_46", 0, 0, {}]]], "config": {"trainable": true, "activation": "relu", "name": "activation_139"}}, {"name": "res435_branch2a", "class_name": "Conv2D", "inbound_nodes": [[["activation_139", 0, 0, {}]]], "config": {"data_format": "channels_last", "kernel_regularizer": null, "kernel_size": [1, 1], "filters": 256, "bias_initializer": {"config": {}, "class_name": "Zeros"}, "name": "res435_branch2a", "dilation_rate": [1, 1], "use_bias": true, "activity_regularizer": null, "kernel_initializer": {"config": {"distribution": "uniform", "seed": null, "scale": 1.0, "mode": "fan_avg"}, "class_name": "VarianceScaling"}, "padding": "valid", "strides": [1, 1], "trainable": true, "activation": "linear", "bias_regularizer": null, "bias_constraint": null, "kernel_constraint": null}}, {"name": "bn435_branch2a", "class_name": "BatchNormalization", "inbound_nodes": [[["res435_branch2a", 0, 0, {}]]], "config": {"axis": 3, "gamma_initializer": {"config": {}, "class_name": "Ones"}, "epsilon": 0.001, "name": "bn435_branch2a", "beta_regularizer": null, "moving_variance_initializer": {"config": {}, "class_name": "Ones"}, "beta_constraint": null, "beta_initializer": {"config": {}, "class_name": "Zeros"}, "gamma_constraint": null, "momentum": 0.99, "trainable": true, "gamma_regularizer": null, "scale": true, "moving_mean_initializer": {"config": {}, "class_name": "Zeros"}, "center": true}}, {"name": "activation_140", "class_name": "Activation", "inbound_nodes": [[["bn435_branch2a", 0, 0, {}]]], "config": {"trainable": true, "activation": "relu", "name": "activation_140"}}, {"name": "res435_branch2b", "class_name": "Conv2D", "inbound_nodes": [[["activation_140", 0, 0, {}]]], "config": {"data_format": "channels_last", "kernel_regularizer": null, "kernel_size": [3, 3], "filters": 256, "bias_initializer": {"config": {}, "class_name": "Zeros"}, "name": "res435_branch2b", "dilation_rate": [1, 1], "use_bias": true, "activity_regularizer": null, "kernel_initializer": {"config": {"distribution": "uniform", "seed": null, "scale": 1.0, "mode": "fan_avg"}, "class_name": "VarianceScaling"}, "padding": "same", "strides": [1, 1], "trainable": true, "activation": "linear", "bias_regularizer": null, "bias_constraint": null, "kernel_constraint": null}}, {"name": "bn435_branch2b", "class_name": "BatchNormalization", "inbound_nodes": [[["res435_branch2b", 0, 0, {}]]], "config": {"axis": 3, "gamma_initializer": {"config": {}, "class_name": "Ones"}, "epsilon": 0.001, "name": "bn435_branch2b", "beta_regularizer": null, "moving_variance_initializer": {"config": {}, "class_name": "Ones"}, "beta_constraint": null, "beta_initializer": {"config": {}, "class_name": "Zeros"}, "gamma_constraint": null, "momentum": 0.99, "trainable": true, "gamma_regularizer": null, "scale": true, "moving_mean_initializer": {"config": {}, "class_name": "Zeros"}, "center": true}}, {"name": "activation_141", "class_name": "Activation", "inbound_nodes": [[["bn435_branch2b", 0, 0, {}]]], "config": {"trainable": true, "activation": "relu", "name": "activation_141"}}, {"name": "res435_branch2c", "class_name": "Conv2D", "inbound_nodes": [[["activation_141", 0, 0, {}]]], "config": {"data_format": "channels_last", "kernel_regularizer": null, "kernel_size": [1, 1], "filters": 1024, "bias_initializer": {"config": {}, "class_name": "Zeros"}, "name": "res435_branch2c", "dilation_rate": [1, 1], "use_bias": true, "activity_regularizer": null, "kernel_initializer": {"config": {"distribution": "uniform", "seed": null, "scale": 1.0, "mode": "fan_avg"}, "class_name": "VarianceScaling"}, "padding": "valid", "strides": [1, 1], "trainable": true, "activation": "linear", "bias_regularizer": null, "bias_constraint": null, "kernel_constraint": null}}, {"name": "bn435_branch2c", "class_name": "BatchNormalization", "inbound_nodes": [[["res435_branch2c", 0, 0, {}]]], "config": {"axis": 3, "gamma_initializer": {"config": {}, "class_name": "Ones"}, "epsilon": 0.001, "name": "bn435_branch2c", "beta_regularizer": null, "moving_variance_initializer": {"config": {}, "class_name": "Ones"}, "beta_constraint": null, "beta_initializer": {"config": {}, "class_name": "Zeros"}, "gamma_constraint": null, "momentum": 0.99, "trainable": true, "gamma_regularizer": null, "scale": true, "moving_mean_initializer": {"config": {}, "class_name": "Zeros"}, "center": true}}, {"name": "add_47", "class_name": "Add", "inbound_nodes": [[["bn435_branch2c", 0, 0, {}], ["activation_139", 0, 0, {}]]], "config": {"trainable": true, "name": "add_47"}}, {"name": "activation_142", "class_name": "Activation", "inbound_nodes": [[["add_47", 0, 0, {}]]], "config": {"trainable": true, "activation": "relu", "name": "activation_142"}}, {"name": "res5a_branch2a", "class_name": "Conv2D", "inbound_nodes": [[["activation_142", 0, 0, {}]]], "config": {"data_format": "channels_last", "kernel_regularizer": null, "kernel_size": [1, 1], "filters": 512, "bias_initializer": {"config": {}, "class_name": "Zeros"}, "name": "res5a_branch2a", "dilation_rate": [1, 1], "use_bias": true, "activity_regularizer": null, "kernel_initializer": {"config": {"distribution": "uniform", "seed": null, "scale": 1.0, "mode": "fan_avg"}, "class_name": "VarianceScaling"}, "padding": "valid", "strides": [2, 2], "trainable": true, "activation": "linear", "bias_regularizer": null, "bias_constraint": null, "kernel_constraint": null}}, {"name": "bn5a_branch2a", "class_name": "BatchNormalization", "inbound_nodes": [[["res5a_branch2a", 0, 0, {}]]], "config": {"axis": 3, "gamma_initializer": {"config": {}, "class_name": "Ones"}, "epsilon": 0.001, "name": "bn5a_branch2a", "beta_regularizer": null, "moving_variance_initializer": {"config": {}, "class_name": "Ones"}, "beta_constraint": null, "beta_initializer": {"config": {}, "class_name": "Zeros"}, "gamma_constraint": null, "momentum": 0.99, "trainable": true, "gamma_regularizer": null, "scale": true, "moving_mean_initializer": {"config": {}, "class_name": "Zeros"}, "center": true}}, {"name": "activation_143", "class_name": "Activation", "inbound_nodes": [[["bn5a_branch2a", 0, 0, {}]]], "config": {"trainable": true, "activation": "relu", "name": "activation_143"}}, {"name": "res5a_branch2b", "class_name": "Conv2D", "inbound_nodes": [[["activation_143", 0, 0, {}]]], "config": {"data_format": "channels_last", "kernel_regularizer": null, "kernel_size": [3, 3], "filters": 512, "bias_initializer": {"config": {}, "class_name": "Zeros"}, "name": "res5a_branch2b", "dilation_rate": [1, 1], "use_bias": true, "activity_regularizer": null, "kernel_initializer": {"config": {"distribution": "uniform", "seed": null, "scale": 1.0, "mode": "fan_avg"}, "class_name": "VarianceScaling"}, "padding": "same", "strides": [1, 1], "trainable": true, "activation": "linear", "bias_regularizer": null, "bias_constraint": null, "kernel_constraint": null}}, {"name": "bn5a_branch2b", "class_name": "BatchNormalization", "inbound_nodes": [[["res5a_branch2b", 0, 0, {}]]], "config": {"axis": 3, "gamma_initializer": {"config": {}, "class_name": "Ones"}, "epsilon": 0.001, "name": "bn5a_branch2b", "beta_regularizer": null, "moving_variance_initializer": {"config": {}, "class_name": "Ones"}, "beta_constraint": null, "beta_initializer": {"config": {}, "class_name": "Zeros"}, "gamma_constraint": null, "momentum": 0.99, "trainable": true, "gamma_regularizer": null, "scale": true, "moving_mean_initializer": {"config": {}, "class_name": "Zeros"}, "center": true}}, {"name": "activation_144", "class_name": "Activation", "inbound_nodes": [[["bn5a_branch2b", 0, 0, {}]]], "config": {"trainable": true, "activation": "relu", "name": "activation_144"}}, {"name": "res5a_branch2c", "class_name": "Conv2D", "inbound_nodes": [[["activation_144", 0, 0, {}]]], "config": {"data_format": "channels_last", "kernel_regularizer": null, "kernel_size": [1, 1], "filters": 2048, "bias_initializer": {"config": {}, "class_name": "Zeros"}, "name": "res5a_branch2c", "dilation_rate": [1, 1], "use_bias": true, "activity_regularizer": null, "kernel_initializer": {"config": {"distribution": "uniform", "seed": null, "scale": 1.0, "mode": "fan_avg"}, "class_name": "VarianceScaling"}, "padding": "valid", "strides": [1, 1], "trainable": true, "activation": "linear", "bias_regularizer": null, "bias_constraint": null, "kernel_constraint": null}}, {"name": "res5a_branch1", "class_name": "Conv2D", "inbound_nodes": [[["activation_142", 0, 0, {}]]], "config": {"data_format": "channels_last", "kernel_regularizer": null, "kernel_size": [1, 1], "filters": 2048, "bias_initializer": {"config": {}, "class_name": "Zeros"}, "name": "res5a_branch1", "dilation_rate": [1, 1], "use_bias": true, "activity_regularizer": null, "kernel_initializer": {"config": {"distribution": "uniform", "seed": null, "scale": 1.0, "mode": "fan_avg"}, "class_name": "VarianceScaling"}, "padding": "valid", "strides": [2, 2], "trainable": true, "activation": "linear", "bias_regularizer": null, "bias_constraint": null, "kernel_constraint": null}}, {"name": "bn5a_branch2c", "class_name": "BatchNormalization", "inbound_nodes": [[["res5a_branch2c", 0, 0, {}]]], "config": {"axis": 3, "gamma_initializer": {"config": {}, "class_name": "Ones"}, "epsilon": 0.001, "name": "bn5a_branch2c", "beta_regularizer": null, "moving_variance_initializer": {"config": {}, "class_name": "Ones"}, "beta_constraint": null, "beta_initializer": {"config": {}, "class_name": "Zeros"}, "gamma_constraint": null, "momentum": 0.99, "trainable": true, "gamma_regularizer": null, "scale": true, "moving_mean_initializer": {"config": {}, "class_name": "Zeros"}, "center": true}}, {"name": "bn5a_branch1", "class_name": "BatchNormalization", "inbound_nodes": [[["res5a_branch1", 0, 0, {}]]], "config": {"axis": 3, "gamma_initializer": {"config": {}, "class_name": "Ones"}, "epsilon": 0.001, "name": "bn5a_branch1", "beta_regularizer": null, "moving_variance_initializer": {"config": {}, "class_name": "Ones"}, "beta_constraint": null, "beta_initializer": {"config": {}, "class_name": "Zeros"}, "gamma_constraint": null, "momentum": 0.99, "trainable": true, "gamma_regularizer": null, "scale": true, "moving_mean_initializer": {"config": {}, "class_name": "Zeros"}, "center": true}}, {"name": "add_48", "class_name": "Add", "inbound_nodes": [[["bn5a_branch2c", 0, 0, {}], ["bn5a_branch1", 0, 0, {}]]], "config": {"trainable": true, "name": "add_48"}}, {"name": "activation_145", "class_name": "Activation", "inbound_nodes": [[["add_48", 0, 0, {}]]], "config": {"trainable": true, "activation": "relu", "name": "activation_145"}}, {"name": "res5b_branch2a", "class_name": "Conv2D", "inbound_nodes": [[["activation_145", 0, 0, {}]]], "config": {"data_format": "channels_last", "kernel_regularizer": null, "kernel_size": [1, 1], "filters": 512, "bias_initializer": {"config": {}, "class_name": "Zeros"}, "name": "res5b_branch2a", "dilation_rate": [1, 1], "use_bias": true, "activity_regularizer": null, "kernel_initializer": {"config": {"distribution": "uniform", "seed": null, "scale": 1.0, "mode": "fan_avg"}, "class_name": "VarianceScaling"}, "padding": "valid", "strides": [1, 1], "trainable": true, "activation": "linear", "bias_regularizer": null, "bias_constraint": null, "kernel_constraint": null}}, {"name": "bn5b_branch2a", "class_name": "BatchNormalization", "inbound_nodes": [[["res5b_branch2a", 0, 0, {}]]], "config": {"axis": 3, "gamma_initializer": {"config": {}, "class_name": "Ones"}, "epsilon": 0.001, "name": "bn5b_branch2a", "beta_regularizer": null, "moving_variance_initializer": {"config": {}, "class_name": "Ones"}, "beta_constraint": null, "beta_initializer": {"config": {}, "class_name": "Zeros"}, "gamma_constraint": null, "momentum": 0.99, "trainable": true, "gamma_regularizer": null, "scale": true, "moving_mean_initializer": {"config": {}, "class_name": "Zeros"}, "center": true}}, {"name": "activation_146", "class_name": "Activation", "inbound_nodes": [[["bn5b_branch2a", 0, 0, {}]]], "config": {"trainable": true, "activation": "relu", "name": "activation_146"}}, {"name": "res5b_branch2b", "class_name": "Conv2D", "inbound_nodes": [[["activation_146", 0, 0, {}]]], "config": {"data_format": "channels_last", "kernel_regularizer": null, "kernel_size": [3, 3], "filters": 512, "bias_initializer": {"config": {}, "class_name": "Zeros"}, "name": "res5b_branch2b", "dilation_rate": [1, 1], "use_bias": true, "activity_regularizer": null, "kernel_initializer": {"config": {"distribution": "uniform", "seed": null, "scale": 1.0, "mode": "fan_avg"}, "class_name": "VarianceScaling"}, "padding": "same", "strides": [1, 1], "trainable": true, "activation": "linear", "bias_regularizer": null, "bias_constraint": null, "kernel_constraint": null}}, {"name": "bn5b_branch2b", "class_name": "BatchNormalization", "inbound_nodes": [[["res5b_branch2b", 0, 0, {}]]], "config": {"axis": 3, "gamma_initializer": {"config": {}, "class_name": "Ones"}, "epsilon": 0.001, "name": "bn5b_branch2b", "beta_regularizer": null, "moving_variance_initializer": {"config": {}, "class_name": "Ones"}, "beta_constraint": null, "beta_initializer": {"config": {}, "class_name": "Zeros"}, "gamma_constraint": null, "momentum": 0.99, "trainable": true, "gamma_regularizer": null, "scale": true, "moving_mean_initializer": {"config": {}, "class_name": "Zeros"}, "center": true}}, {"name": "activation_147", "class_name": "Activation", "inbound_nodes": [[["bn5b_branch2b", 0, 0, {}]]], "config": {"trainable": true, "activation": "relu", "name": "activation_147"}}, {"name": "res5b_branch2c", "class_name": "Conv2D", "inbound_nodes": [[["activation_147", 0, 0, {}]]], "config": {"data_format": "channels_last", "kernel_regularizer": null, "kernel_size": [1, 1], "filters": 2048, "bias_initializer": {"config": {}, "class_name": "Zeros"}, "name": "res5b_branch2c", "dilation_rate": [1, 1], "use_bias": true, "activity_regularizer": null, "kernel_initializer": {"config": {"distribution": "uniform", "seed": null, "scale": 1.0, "mode": "fan_avg"}, "class_name": "VarianceScaling"}, "padding": "valid", "strides": [1, 1], "trainable": true, "activation": "linear", "bias_regularizer": null, "bias_constraint": null, "kernel_constraint": null}}, {"name": "bn5b_branch2c", "class_name": "BatchNormalization", "inbound_nodes": [[["res5b_branch2c", 0, 0, {}]]], "config": {"axis": 3, "gamma_initializer": {"config": {}, "class_name": "Ones"}, "epsilon": 0.001, "name": "bn5b_branch2c", "beta_regularizer": null, "moving_variance_initializer": {"config": {}, "class_name": "Ones"}, "beta_constraint": null, "beta_initializer": {"config": {}, "class_name": "Zeros"}, "gamma_constraint": null, "momentum": 0.99, "trainable": true, "gamma_regularizer": null, "scale": true, "moving_mean_initializer": {"config": {}, "class_name": "Zeros"}, "center": true}}, {"name": "add_49", "class_name": "Add", "inbound_nodes": [[["bn5b_branch2c", 0, 0, {}], ["activation_145", 0, 0, {}]]], "config": {"trainable": true, "name": "add_49"}}, {"name": "activation_148", "class_name": "Activation", "inbound_nodes": [[["add_49", 0, 0, {}]]], "config": {"trainable": true, "activation": "relu", "name": "activation_148"}}, {"name": "res5c_branch2a", "class_name": "Conv2D", "inbound_nodes": [[["activation_148", 0, 0, {}]]], "config": {"data_format": "channels_last", "kernel_regularizer": null, "kernel_size": [1, 1], "filters": 512, "bias_initializer": {"config": {}, "class_name": "Zeros"}, "name": "res5c_branch2a", "dilation_rate": [1, 1], "use_bias": true, "activity_regularizer": null, "kernel_initializer": {"config": {"distribution": "uniform", "seed": null, "scale": 1.0, "mode": "fan_avg"}, "class_name": "VarianceScaling"}, "padding": "valid", "strides": [1, 1], "trainable": true, "activation": "linear", "bias_regularizer": null, "bias_constraint": null, "kernel_constraint": null}}, {"name": "bn5c_branch2a", "class_name": "BatchNormalization", "inbound_nodes": [[["res5c_branch2a", 0, 0, {}]]], "config": {"axis": 3, "gamma_initializer": {"config": {}, "class_name": "Ones"}, "epsilon": 0.001, "name": "bn5c_branch2a", "beta_regularizer": null, "moving_variance_initializer": {"config": {}, "class_name": "Ones"}, "beta_constraint": null, "beta_initializer": {"config": {}, "class_name": "Zeros"}, "gamma_constraint": null, "momentum": 0.99, "trainable": true, "gamma_regularizer": null, "scale": true, "moving_mean_initializer": {"config": {}, "class_name": "Zeros"}, "center": true}}, {"name": "activation_149", "class_name": "Activation", "inbound_nodes": [[["bn5c_branch2a", 0, 0, {}]]], "config": {"trainable": true, "activation": "relu", "name": "activation_149"}}, {"name": "res5c_branch2b", "class_name": "Conv2D", "inbound_nodes": [[["activation_149", 0, 0, {}]]], "config": {"data_format": "channels_last", "kernel_regularizer": null, "kernel_size": [3, 3], "filters": 512, "bias_initializer": {"config": {}, "class_name": "Zeros"}, "name": "res5c_branch2b", "dilation_rate": [1, 1], "use_bias": true, "activity_regularizer": null, "kernel_initializer": {"config": {"distribution": "uniform", "seed": null, "scale": 1.0, "mode": "fan_avg"}, "class_name": "VarianceScaling"}, "padding": "same", "strides": [1, 1], "trainable": true, "activation": "linear", "bias_regularizer": null, "bias_constraint": null, "kernel_constraint": null}}, {"name": "bn5c_branch2b", "class_name": "BatchNormalization", "inbound_nodes": [[["res5c_branch2b", 0, 0, {}]]], "config": {"axis": 3, "gamma_initializer": {"config": {}, "class_name": "Ones"}, "epsilon": 0.001, "name": "bn5c_branch2b", "beta_regularizer": null, "moving_variance_initializer": {"config": {}, "class_name": "Ones"}, "beta_constraint": null, "beta_initializer": {"config": {}, "class_name": "Zeros"}, "gamma_constraint": null, "momentum": 0.99, "trainable": true, "gamma_regularizer": null, "scale": true, "moving_mean_initializer": {"config": {}, "class_name": "Zeros"}, "center": true}}, {"name": "activation_150", "class_name": "Activation", "inbound_nodes": [[["bn5c_branch2b", 0, 0, {}]]], "config": {"trainable": true, "activation": "relu", "name": "activation_150"}}, {"name": "res5c_branch2c", "class_name": "Conv2D", "inbound_nodes": [[["activation_150", 0, 0, {}]]], "config": {"data_format": "channels_last", "kernel_regularizer": null, "kernel_size": [1, 1], "filters": 2048, "bias_initializer": {"config": {}, "class_name": "Zeros"}, "name": "res5c_branch2c", "dilation_rate": [1, 1], "use_bias": true, "activity_regularizer": null, "kernel_initializer": {"config": {"distribution": "uniform", "seed": null, "scale": 1.0, "mode": "fan_avg"}, "class_name": "VarianceScaling"}, "padding": "valid", "strides": [1, 1], "trainable": true, "activation": "linear", "bias_regularizer": null, "bias_constraint": null, "kernel_constraint": null}}, {"name": "bn5c_branch2c", "class_name": "BatchNormalization", "inbound_nodes": [[["res5c_branch2c", 0, 0, {}]]], "config": {"axis": 3, "gamma_initializer": {"config": {}, "class_name": "Ones"}, "epsilon": 0.001, "name": "bn5c_branch2c", "beta_regularizer": null, "moving_variance_initializer": {"config": {}, "class_name": "Ones"}, "beta_constraint": null, "beta_initializer": {"config": {}, "class_name": "Zeros"}, "gamma_constraint": null, "momentum": 0.99, "trainable": true, "gamma_regularizer": null, "scale": true, "moving_mean_initializer": {"config": {}, "class_name": "Zeros"}, "center": true}}, {"name": "add_50", "class_name": "Add", "inbound_nodes": [[["bn5c_branch2c", 0, 0, {}], ["activation_148", 0, 0, {}]]], "config": {"trainable": true, "name": "add_50"}}, {"name": "activation_151", "class_name": "Activation", "inbound_nodes": [[["add_50", 0, 0, {}]]], "config": {"trainable": true, "activation": "relu", "name": "activation_151"}}, {"name": "avg_pool", "class_name": "AveragePooling2D", "inbound_nodes": [[["activation_151", 0, 0, {}]]], "config": {"data_format": "channels_last", "padding": "valid", "pool_size": [7, 7], "trainable": true, "strides": [7, 7], "name": "avg_pool"}}, {"name": "flatten_1", "class_name": "Flatten", "inbound_nodes": [[["avg_pool", 0, 0, {}]]], "config": {"trainable": true, "name": "flatten_1"}}, {"name": "fc1000", "class_name": "Dense", "inbound_nodes": [[["flatten_1", 0, 0, {}]]], "config": {"kernel_regularizer": null, "bias_regularizer": null, "units": 1000, "bias_initializer": {"config": {}, "class_name": "Zeros"}, "name": "fc1000", "use_bias": true, "activity_regularizer": null, "kernel_initializer": {"config": {"distribution": "uniform", "seed": null, "scale": 1.0, "mode": "fan_avg"}, "class_name": "VarianceScaling"}, "trainable": true, "activation": "softmax", "bias_constraint": null, "kernel_constraint": null}}], "name": "resnet152", "input_layers": [["input_1", 0, 0]]}, "backend": "tensorflow", "keras_version": "2.1.2", "params": {"res5b_branch2b": 2359808, "bn430_branch2b": 1024, "add_43": 0, "bn40_branch2a": 1024, "activation_115": 0, "res48_branch2b": 590080, "activation_139": 0, "bn43_branch2a": 1024, "res49_branch2c": 263168, "activation_30": 0, "activation_82": 0, "activation_85": 0, "res434_branch2a": 262400, "bn435_branch2a": 1024, "res45_branch2b": 590080, "add_30": 0, "bn2a_branch2c": 1024, "bn35_branch2b": 512, "res30_branch2b": 147584, "add_5": 0, "bn422_branch2b": 1024, "activation_56": 0, "activation_75": 0, "activation_121": 0, "res44_branch2c": 263168, "bn35_branch2a": 512, "activation_94": 0, "add_9": 0, "bn44_branch2c": 4096, "res2a_branch2b": 36928, "activation_126": 0, "bn423_branch2c": 4096, "res417_branch2a": 262400, "bn415_branch2a": 1024, "fc1000": 2049000, "bn5b_branch2b": 2048, "bn427_branch2b": 1024, "res428_branch2b": 590080, "bn2c_branch2a": 256, "add_17": 0, "activation_32": 0, "bn37_branch2a": 512, "bn421_branch2c": 4096, "activation_119": 0, "add_47": 0, "activation_109": 0, "bn429_branch2b": 1024, "res2a_branch1": 16640, "res44_branch2a": 262400, "res40_branch2a": 131328, "bn420_branch2c": 4096, "activation_39": 0, "activation_6": 0, "bn31_branch2c": 2048, "add_48": 0, "activation_91": 0, "res416_branch2c": 263168, "res424_branch2a": 262400, "bn36_branch2b": 512, "add_4": 0, "bn426_branch2a": 1024, "add_37": 0, "res35_branch2b": 147584, "res416_branch2b": 590080, "bn44_branch2a": 1024, "bn419_branch2c": 4096, "bn414_branch2a": 1024, "res431_branch2a": 262400, "bn35_branch2c": 2048, "bn46_branch2b": 1024, "activation_64": 0, "bn5c_branch2a": 2048, "bn428_branch2a": 1024, "res49_branch2a": 262400, "res45_branch2c": 263168, "res427_branch2a": 262400, "activation_89": 0, "bn46_branch2a": 1024, "add_6": 0, "res415_branch2a": 262400, "bn5c_branch2b": 2048, "bn5b_branch2c": 8192, "res5b_branch2c": 1050624, "bn30_branch2b": 512, "activation_124": 0, "res431_branch2b": 590080, "bn45_branch2c": 4096, "bn421_branch2b": 1024, "bn34_branch2c": 2048, "res410_branch2a": 262400, "activation_3": 0, "res413_branch2a": 262400, "bn433_branch2a": 1024, "res424_branch2b": 590080, "activation_67": 0, "activation_87": 0, "bn433_branch2c": 4096, "bn435_branch2c": 4096, "res36_branch2b": 147584, "bn423_branch2b": 1024, "activation_141": 0, "activation_130": 0, "res40_branch1": 525312, "res43_branch2b": 590080, "bn414_branch2c": 4096, "bn424_branch2c": 4096, "add_3": 0, "activation_15": 0, "res411_branch2a": 262400, "bn435_branch2b": 1024, "bn36_branch2a": 512, "activation_58": 0, "bn434_branch2b": 1024, "bn_conv1": 256, "activation_8": 0, "bn428_branch2c": 4096, "activation_18": 0, "activation_129": 0, "activation_92": 0, "bn417_branch2c": 4096, "res5a_branch1": 2099200, "res41_branch2b": 590080, "bn49_branch2b": 1024, "bn425_branch2b": 1024, "activation_21": 0, "res418_branch2a": 262400, "bn431_branch2a": 1024, "activation_150": 0, "activation_111": 0, "res40_branch2b": 590080, "activation_73": 0, "res411_branch2c": 263168, "bn48_branch2c": 4096, "activation_53": 0, "activation_77": 0, "activation_142": 0, "activation_120": 0, "activation_90": 0, "add_44": 0, "add_10": 0, "res34_branch2b": 147584, "activation_22": 0, "flatten_1": 0, "bn41_branch2a": 1024, "activation_19": 0, "activation_97": 0, "bn431_branch2c": 4096, "bn423_branch2a": 1024, "res33_branch2a": 65664, "res426_branch2b": 590080, "res2b_branch2c": 16640, "activation_49": 0, "bn411_branch2c": 4096, "res49_branch2b": 590080, "add_15": 0, "res425_branch2c": 263168, "bn2b_branch2c": 1024, "res412_branch2b": 590080, "bn420_branch2a": 1024, "res423_branch2b": 590080, "bn40_branch2b": 1024, "bn425_branch2a": 1024, "add_46": 0, "res434_branch2b": 590080, "res30_branch2c": 66048, "activation_34": 0, "activation_128": 0, "bn412_branch2b": 1024, "res42_branch2b": 590080, "activation_144": 0, "bn416_branch2a": 1024, "activation_31": 0, "res47_branch2a": 262400, "activation_143": 0, "activation_105": 0, "res47_branch2b": 590080, "add_14": 0, "bn413_branch2b": 1024, "add_32": 0, "bn43_branch2c": 4096, "activation_103": 0, "res48_branch2c": 263168, "res432_branch2a": 262400, "bn49_branch2c": 4096, "res421_branch2b": 590080, "res2a_branch2c": 16640, "bn37_branch2c": 2048, "bn32_branch2c": 2048, "res432_branch2b": 590080, "res31_branch2c": 66048, "res412_branch2c": 263168, "activation_117": 0, "res47_branch2c": 263168, "add_22": 0, "res2c_branch2c": 16640, "res429_branch2c": 263168, "res421_branch2a": 262400, "bn47_branch2a": 1024, "res432_branch2c": 263168, "activation_108": 0, "res415_branch2b": 590080, "bn430_branch2c": 4096, "input_1": 0, "bn2b_branch2a": 256, "activation_28": 0, "activation_70": 0, "res32_branch2b": 147584, "activation_46": 0, "bn31_branch2a": 512, "bn2a_branch1": 1024, "activation_107": 0, "bn40_branch1": 4096, "bn412_branch2c": 4096, "bn48_branch2b": 1024, "activation_146": 0, "res40_branch2c": 263168, "res43_branch2c": 263168, "activation_47": 0, "add_12": 0, "bn431_branch2b": 1024, "bn48_branch2a": 1024, "activation_16": 0, "res411_branch2b": 590080, "activation_4": 0, "activation_134": 0, "add_29": 0, "activation_74": 0, "bn417_branch2a": 1024, "activation_62": 0, "activation_123": 0, "activation_52": 0, "res46_branch2b": 590080, "bn36_branch2c": 2048, "res37_branch2c": 66048, "bn47_branch2b": 1024, "add_27": 0, "res419_branch2a": 262400, "bn416_branch2b": 1024, "res37_branch2b": 147584, "bn411_branch2b": 1024, "activation_63": 0, "bn45_branch2a": 1024, "activation_57": 0, "res418_branch2b": 590080, "bn45_branch2b": 1024, "bn418_branch2a": 1024, "add_20": 0, "bn432_branch2a": 1024, "activation_50": 0, "res414_branch2a": 262400, "activation_12": 0, "bn41_branch2b": 1024, "activation_25": 0, "activation_100": 0, "add_24": 0, "res430_branch2a": 262400, "bn418_branch2c": 4096, "bn432_branch2c": 4096, "activation_66": 0, "res422_branch2b": 590080, "bn410_branch2b": 1024, "activation_42": 0, "res32_branch2a": 65664, "bn415_branch2c": 4096, "res422_branch2a": 262400, "add_21": 0, "activation_148": 0, "max_pooling2d_1": 0, "activation_60": 0, "activation_131": 0, "bn2b_branch2b": 256, "res36_branch2a": 65664, "add_36": 0, "res44_branch2b": 590080, "res33_branch2b": 147584, "activation_118": 0, "res46_branch2c": 263168, "activation_81": 0, "res424_branch2c": 263168, "add_13": 0, "activation_86": 0, "activation_101": 0, "activation_51": 0, "activation_122": 0, "bn34_branch2b": 512, "res419_branch2c": 263168, "res35_branch2a": 65664, "bn428_branch2b": 1024, "res433_branch2a": 262400, "res35_branch2c": 66048, "activation_114": 0, "activation_44": 0, "activation_29": 0, "bn412_branch2a": 1024, "bn30_branch2a": 512, "bn5a_branch2a": 2048, "bn429_branch2a": 1024, "activation_71": 0, "res2c_branch2a": 16448, "res31_branch2b": 147584, "add_8": 0, "bn49_branch2a": 1024, "add_39": 0, "activation_13": 0, "bn434_branch2a": 1024, "activation_137": 0, "activation_83": 0, "res45_branch2a": 262400, "activation_76": 0, "activation_151": 0, "res48_branch2a": 262400, "res433_branch2c": 263168, "res417_branch2c": 263168, "activation_84": 0, "res42_branch2a": 262400, "res427_branch2b": 590080, "bn2a_branch2b": 256, "bn415_branch2b": 1024, "activation_78": 0, "add_23": 0, "activation_99": 0, "activation_48": 0, "bn410_branch2a": 1024, "add_25": 0, "activation_93": 0, "activation_38": 0, "res41_branch2a": 262400, "activation_98": 0, "res423_branch2a": 262400, "add_11": 0, "bn40_branch2c": 4096, "bn42_branch2a": 1024, "res43_branch2a": 262400, "bn5c_branch2c": 8192, "bn426_branch2b": 1024, "bn424_branch2b": 1024, "res434_branch2c": 263168, "bn424_branch2a": 1024, "activation_140": 0, "activation_14": 0, "activation_11": 0, "bn2a_branch2a": 256, "res5c_branch2a": 1049088, "bn41_branch2c": 4096, "bn427_branch2c": 4096, "activation_2": 0, "bn418_branch2b": 1024, "bn433_branch2b": 1024, "res420_branch2a": 262400, "activation_116": 0, "res430_branch2b": 590080, "add_26": 0, "res421_branch2c": 263168, "res30_branch1": 131584, "activation_54": 0, "activation_40": 0, "bn417_branch2b": 1024, "bn410_branch2c": 4096, "avg_pool": 0, "bn2c_branch2b": 256, "bn5a_branch2b": 2048, "add_7": 0, "res5c_branch2b": 2359808, "activation_9": 0, "res413_branch2c": 263168, "res430_branch2c": 263168, "bn32_branch2b": 512, "add_40": 0, "activation_69": 0, "bn46_branch2c": 4096, "res428_branch2c": 263168, "bn34_branch2a": 512, "res5a_branch2b": 2359808, "add_33": 0, "res2b_branch2a": 16448, "bn43_branch2b": 1024, "res417_branch2b": 590080, "res31_branch2a": 65664, "res413_branch2b": 590080, "res423_branch2c": 263168, "bn33_branch2b": 512, "activation_113": 0, "bn420_branch2b": 1024, "bn31_branch2b": 512, "activation_33": 0, "res33_branch2c": 66048, "activation_61": 0, "bn434_branch2c": 4096, "res435_branch2c": 263168, "bn422_branch2a": 1024, "res42_branch2c": 263168, "activation_27": 0, "activation_37": 0, "activation_149": 0, "bn33_branch2a": 512, "res435_branch2b": 590080, "bn42_branch2b": 1024, "add_35": 0, "activation_135": 0, "res419_branch2b": 590080, "activation_43": 0, "activation_95": 0, "activation_136": 0, "res435_branch2a": 262400, "add_50": 0, "activation_68": 0, "bn421_branch2a": 1024, "res420_branch2b": 590080, "res422_branch2c": 263168, "res431_branch2c": 263168, "activation_41": 0, "bn414_branch2b": 1024, "res410_branch2b": 590080, "bn42_branch2c": 4096, "add_16": 0, "bn425_branch2c": 4096, "add_31": 0, "add_49": 0, "res428_branch2a": 262400, "bn2c_branch2c": 1024, "res426_branch2a": 262400, "res426_branch2c": 263168, "activation_26": 0, "activation_133": 0, "bn427_branch2a": 1024, "res36_branch2c": 66048, "bn422_branch2c": 4096, "res418_branch2c": 263168, "bn5b_branch2a": 2048, "res5a_branch2c": 1050624, "activation_104": 0, "bn416_branch2c": 4096, "add_18": 0, "activation_36": 0, "res420_branch2c": 263168, "add_28": 0, "add_19": 0, "activation_45": 0, "bn413_branch2a": 1024, "add_42": 0, "res32_branch2c": 66048, "res34_branch2a": 65664, "bn430_branch2a": 1024, "res410_branch2c": 263168, "bn33_branch2c": 2048, "res37_branch2a": 65664, "activation_102": 0, "res425_branch2a": 262400, "res414_branch2b": 590080, "bn413_branch2c": 4096, "res427_branch2c": 263168, "activation_112": 0, "bn432_branch2b": 1024, "res415_branch2c": 263168, "res2b_branch2b": 36928, "add_34": 0, "activation_17": 0, "activation_125": 0, "add_1": 0, "activation_80": 0, "activation_127": 0, "activation_110": 0, "res2a_branch2a": 4160, "add_2": 0, "bn37_branch2b": 512, "res5a_branch2a": 524800, "activation_145": 0, "res30_branch2a": 32896, "activation_23": 0, "res34_branch2c": 66048, "activation_59": 0, "activation_88": 0, "res46_branch2a": 262400, "activation_132": 0, "activation_55": 0, "activation_24": 0, "res5c_branch2c": 1050624, "res41_branch2c": 263168, "bn30_branch1": 2048, "bn5a_branch2c": 8192, "conv1": 9472, "activation_79": 0, "res414_branch2c": 263168, "res5b_branch2a": 1049088, "res416_branch2a": 262400, "bn426_branch2c": 4096, "bn30_branch2c": 2048, "activation_72": 0, "res425_branch2b": 590080, "res433_branch2b": 590080, "activation_7": 0, "activation_65": 0, "bn5a_branch1": 8192, "activation_106": 0, "activation_5": 0, "res429_branch2a": 262400, "add_38": 0, "bn44_branch2b": 1024, "bn411_branch2a": 1024, "res412_branch2a": 262400, "activation_138": 0, "bn419_branch2b": 1024, "bn47_branch2c": 4096, "activation_96": 0, "add_41": 0, "bn419_branch2a": 1024, "res429_branch2b": 590080, "bn429_branch2c": 4096, "res2c_branch2b": 36928, "activation_147": 0, "activation_35": 0, "bn32_branch2a": 512, "add_45": 0, "activation_1": 0, "activation_10": 0, "activation_20": 0}}