{"config": {"layers": [{"inbound_nodes": [], "name": "input_1", "class_name": "InputLayer", "config": {"dtype": "float32", "sparse": false, "batch_input_shape": [null, 224, 224, 3], "name": "input_1"}}, {"inbound_nodes": [[["input_1", 0, 0, {}]]], "name": "conv1", "class_name": "Conv2D", "config": {"trainable": true, "use_bias": true, "data_format": "channels_last", "activation": "linear", "dilation_rate": [1, 1], "kernel_regularizer": null, "kernel_size": [7, 7], "bias_initializer": {"class_name": "Zeros", "config": {}}, "kernel_initializer": {"class_name": "VarianceScaling", "config": {"distribution": "uniform", "scale": 1.0, "seed": null, "mode": "fan_avg"}}, "bias_regularizer": null, "bias_constraint": null, "kernel_constraint": null, "strides": [2, 2], "name": "conv1", "activity_regularizer": null, "padding": "same", "filters": 64}}, {"inbound_nodes": [[["conv1", 0, 0, {}]]], "name": "bn_conv1", "class_name": "BatchNormalization", "config": {"trainable": true, "moving_mean_initializer": {"class_name": "Zeros", "config": {}}, "beta_regularizer": null, "moving_variance_initializer": {"class_name": "Ones", "config": {}}, "gamma_regularizer": null, "epsilon": 0.001, "scale": true, "beta_constraint": null, "axis": 3, "center": true, "momentum": 0.99, "beta_initializer": {"class_name": "Zeros", "config": {}}, "name": "bn_conv1", "gamma_initializer": {"class_name": "Ones", "config": {}}, "gamma_constraint": null}}, {"inbound_nodes": [[["bn_conv1", 0, 0, {}]]], "name": "activation_1", "class_name": "Activation", "config": {"trainable": true, "name": "activation_1", "activation": "relu"}}, {"inbound_nodes": [[["activation_1", 0, 0, {}]]], "name": "max_pooling2d_1", "class_name": "MaxPooling2D", "config": {"trainable": true, "pool_size": [3, 3], "data_format": "channels_last", "strides": [2, 2], "name": "max_pooling2d_1", "padding": "valid"}}, {"inbound_nodes": [[["max_pooling2d_1", 0, 0, {}]]], "name": "res2a_branch2a", "class_name": "Conv2D", "config": {"trainable": true, "use_bias": true, "data_format": "channels_last", "activation": "linear", "dilation_rate": [1, 1], "kernel_regularizer": null, "kernel_size": [1, 1], "bias_initializer": {"class_name": "Zeros", "config": {}}, "kernel_initializer": {"class_name": "VarianceScaling", "config": {"distribution": "uniform", "scale": 1.0, "seed": null, "mode": "fan_avg"}}, "bias_regularizer": null, "bias_constraint": null, "kernel_constraint": null, "strides": [1, 1], "name": "res2a_branch2a", "activity_regularizer": null, "padding": "valid", "filters": 64}}, {"inbound_nodes": [[["res2a_branch2a", 0, 0, {}]]], "name": "bn2a_branch2a", "class_name": "BatchNormalization", "config": {"trainable": true, "moving_mean_initializer": {"class_name": "Zeros", "config": {}}, "beta_regularizer": null, "moving_variance_initializer": {"class_name": "Ones", "config": {}}, "gamma_regularizer": null, "epsilon": 0.001, "scale": true, "beta_constraint": null, "axis": 3, "center": true, "momentum": 0.99, "beta_initializer": {"class_name": "Zeros", "config": {}}, "name": "bn2a_branch2a", "gamma_initializer": {"class_name": "Ones", "config": {}}, "gamma_constraint": null}}, {"inbound_nodes": [[["bn2a_branch2a", 0, 0, {}]]], "name": "activation_2", "class_name": "Activation", "config": {"trainable": true, "name": "activation_2", "activation": "relu"}}, {"inbound_nodes": [[["activation_2", 0, 0, {}]]], "name": "res2a_branch2b", "class_name": "Conv2D", "config": {"trainable": true, "use_bias": true, "data_format": "channels_last", "activation": "linear", "dilation_rate": [1, 1], "kernel_regularizer": null, "kernel_size": [3, 3], "bias_initializer": {"class_name": "Zeros", "config": {}}, "kernel_initializer": {"class_name": "VarianceScaling", "config": {"distribution": "uniform", "scale": 1.0, "seed": null, "mode": "fan_avg"}}, "bias_regularizer": null, "bias_constraint": null, "kernel_constraint": null, "strides": [1, 1], "name": "res2a_branch2b", "activity_regularizer": null, "padding": "same", "filters": 64}}, {"inbound_nodes": [[["res2a_branch2b", 0, 0, {}]]], "name": "bn2a_branch2b", "class_name": "BatchNormalization", "config": {"trainable": true, "moving_mean_initializer": {"class_name": "Zeros", "config": {}}, "beta_regularizer": null, "moving_variance_initializer": {"class_name": "Ones", "config": {}}, "gamma_regularizer": null, "epsilon": 0.001, "scale": true, "beta_constraint": null, "axis": 3, "center": true, "momentum": 0.99, "beta_initializer": {"class_name": "Zeros", "config": {}}, "name": "bn2a_branch2b", "gamma_initializer": {"class_name": "Ones", "config": {}}, "gamma_constraint": null}}, {"inbound_nodes": [[["bn2a_branch2b", 0, 0, {}]]], "name": "activation_3", "class_name": "Activation", "config": {"trainable": true, "name": "activation_3", "activation": "relu"}}, {"inbound_nodes": [[["activation_3", 0, 0, {}]]], "name": "res2a_branch2c", "class_name": "Conv2D", "config": {"trainable": true, "use_bias": true, "data_format": "channels_last", "activation": "linear", "dilation_rate": [1, 1], "kernel_regularizer": null, "kernel_size": [1, 1], "bias_initializer": {"class_name": "Zeros", "config": {}}, "kernel_initializer": {"class_name": "VarianceScaling", "config": {"distribution": "uniform", "scale": 1.0, "seed": null, "mode": "fan_avg"}}, "bias_regularizer": null, "bias_constraint": null, "kernel_constraint": null, "strides": [1, 1], "name": "res2a_branch2c", "activity_regularizer": null, "padding": "valid", "filters": 256}}, {"inbound_nodes": [[["max_pooling2d_1", 0, 0, {}]]], "name": "res2a_branch1", "class_name": "Conv2D", "config": {"trainable": true, "use_bias": true, "data_format": "channels_last", "activation": "linear", "dilation_rate": [1, 1], "kernel_regularizer": null, "kernel_size": [1, 1], "bias_initializer": {"class_name": "Zeros", "config": {}}, "kernel_initializer": {"class_name": "VarianceScaling", "config": {"distribution": "uniform", "scale": 1.0, "seed": null, "mode": "fan_avg"}}, "bias_regularizer": null, "bias_constraint": null, "kernel_constraint": null, "strides": [1, 1], "name": "res2a_branch1", "activity_regularizer": null, "padding": "valid", "filters": 256}}, {"inbound_nodes": [[["res2a_branch2c", 0, 0, {}]]], "name": "bn2a_branch2c", "class_name": "BatchNormalization", "config": {"trainable": true, "moving_mean_initializer": {"class_name": "Zeros", "config": {}}, "beta_regularizer": null, "moving_variance_initializer": {"class_name": "Ones", "config": {}}, "gamma_regularizer": null, "epsilon": 0.001, "scale": true, "beta_constraint": null, "axis": 3, "center": true, "momentum": 0.99, "beta_initializer": {"class_name": "Zeros", "config": {}}, "name": "bn2a_branch2c", "gamma_initializer": {"class_name": "Ones", "config": {}}, "gamma_constraint": null}}, {"inbound_nodes": [[["res2a_branch1", 0, 0, {}]]], "name": "bn2a_branch1", "class_name": "BatchNormalization", "config": {"trainable": true, "moving_mean_initializer": {"class_name": "Zeros", "config": {}}, "beta_regularizer": null, "moving_variance_initializer": {"class_name": "Ones", "config": {}}, "gamma_regularizer": null, "epsilon": 0.001, "scale": true, "beta_constraint": null, "axis": 3, "center": true, "momentum": 0.99, "beta_initializer": {"class_name": "Zeros", "config": {}}, "name": "bn2a_branch1", "gamma_initializer": {"class_name": "Ones", "config": {}}, "gamma_constraint": null}}, {"inbound_nodes": [[["bn2a_branch2c", 0, 0, {}], ["bn2a_branch1", 0, 0, {}]]], "name": "add_1", "class_name": "Add", "config": {"trainable": true, "name": "add_1"}}, {"inbound_nodes": [[["add_1", 0, 0, {}]]], "name": "activation_4", "class_name": "Activation", "config": {"trainable": true, "name": "activation_4", "activation": "relu"}}, {"inbound_nodes": [[["activation_4", 0, 0, {}]]], "name": "res2b_branch2a", "class_name": "Conv2D", "config": {"trainable": true, "use_bias": true, "data_format": "channels_last", "activation": "linear", "dilation_rate": [1, 1], "kernel_regularizer": null, "kernel_size": [1, 1], "bias_initializer": {"class_name": "Zeros", "config": {}}, "kernel_initializer": {"class_name": "VarianceScaling", "config": {"distribution": "uniform", "scale": 1.0, "seed": null, "mode": "fan_avg"}}, "bias_regularizer": null, "bias_constraint": null, "kernel_constraint": null, "strides": [1, 1], "name": "res2b_branch2a", "activity_regularizer": null, "padding": "valid", "filters": 64}}, {"inbound_nodes": [[["res2b_branch2a", 0, 0, {}]]], "name": "bn2b_branch2a", "class_name": "BatchNormalization", "config": {"trainable": true, "moving_mean_initializer": {"class_name": "Zeros", "config": {}}, "beta_regularizer": null, "moving_variance_initializer": {"class_name": "Ones", "config": {}}, "gamma_regularizer": null, "epsilon": 0.001, "scale": true, "beta_constraint": null, "axis": 3, "center": true, "momentum": 0.99, "beta_initializer": {"class_name": "Zeros", "config": {}}, "name": "bn2b_branch2a", "gamma_initializer": {"class_name": "Ones", "config": {}}, "gamma_constraint": null}}, {"inbound_nodes": [[["bn2b_branch2a", 0, 0, {}]]], "name": "activation_5", "class_name": "Activation", "config": {"trainable": true, "name": "activation_5", "activation": "relu"}}, {"inbound_nodes": [[["activation_5", 0, 0, {}]]], "name": "res2b_branch2b", "class_name": "Conv2D", "config": {"trainable": true, "use_bias": true, "data_format": "channels_last", "activation": "linear", "dilation_rate": [1, 1], "kernel_regularizer": null, "kernel_size": [3, 3], "bias_initializer": {"class_name": "Zeros", "config": {}}, "kernel_initializer": {"class_name": "VarianceScaling", "config": {"distribution": "uniform", "scale": 1.0, "seed": null, "mode": "fan_avg"}}, "bias_regularizer": null, "bias_constraint": null, "kernel_constraint": null, "strides": [1, 1], "name": "res2b_branch2b", "activity_regularizer": null, "padding": "same", "filters": 64}}, {"inbound_nodes": [[["res2b_branch2b", 0, 0, {}]]], "name": "bn2b_branch2b", "class_name": "BatchNormalization", "config": {"trainable": true, "moving_mean_initializer": {"class_name": "Zeros", "config": {}}, "beta_regularizer": null, "moving_variance_initializer": {"class_name": "Ones", "config": {}}, "gamma_regularizer": null, "epsilon": 0.001, "scale": true, "beta_constraint": null, "axis": 3, "center": true, "momentum": 0.99, "beta_initializer": {"class_name": "Zeros", "config": {}}, "name": "bn2b_branch2b", "gamma_initializer": {"class_name": "Ones", "config": {}}, "gamma_constraint": null}}, {"inbound_nodes": [[["bn2b_branch2b", 0, 0, {}]]], "name": "activation_6", "class_name": "Activation", "config": {"trainable": true, "name": "activation_6", "activation": "relu"}}, {"inbound_nodes": [[["activation_6", 0, 0, {}]]], "name": "res2b_branch2c", "class_name": "Conv2D", "config": {"trainable": true, "use_bias": true, "data_format": "channels_last", "activation": "linear", "dilation_rate": [1, 1], "kernel_regularizer": null, "kernel_size": [1, 1], "bias_initializer": {"class_name": "Zeros", "config": {}}, "kernel_initializer": {"class_name": "VarianceScaling", "config": {"distribution": "uniform", "scale": 1.0, "seed": null, "mode": "fan_avg"}}, "bias_regularizer": null, "bias_constraint": null, "kernel_constraint": null, "strides": [1, 1], "name": "res2b_branch2c", "activity_regularizer": null, "padding": "valid", "filters": 256}}, {"inbound_nodes": [[["res2b_branch2c", 0, 0, {}]]], "name": "bn2b_branch2c", "class_name": "BatchNormalization", "config": {"trainable": true, "moving_mean_initializer": {"class_name": "Zeros", "config": {}}, "beta_regularizer": null, "moving_variance_initializer": {"class_name": "Ones", "config": {}}, "gamma_regularizer": null, "epsilon": 0.001, "scale": true, "beta_constraint": null, "axis": 3, "center": true, "momentum": 0.99, "beta_initializer": {"class_name": "Zeros", "config": {}}, "name": "bn2b_branch2c", "gamma_initializer": {"class_name": "Ones", "config": {}}, "gamma_constraint": null}}, {"inbound_nodes": [[["bn2b_branch2c", 0, 0, {}], ["activation_4", 0, 0, {}]]], "name": "add_2", "class_name": "Add", "config": {"trainable": true, "name": "add_2"}}, {"inbound_nodes": [[["add_2", 0, 0, {}]]], "name": "activation_7", "class_name": "Activation", "config": {"trainable": true, "name": "activation_7", "activation": "relu"}}, {"inbound_nodes": [[["activation_7", 0, 0, {}]]], "name": "res2c_branch2a", "class_name": "Conv2D", "config": {"trainable": true, "use_bias": true, "data_format": "channels_last", "activation": "linear", "dilation_rate": [1, 1], "kernel_regularizer": null, "kernel_size": [1, 1], "bias_initializer": {"class_name": "Zeros", "config": {}}, "kernel_initializer": {"class_name": "VarianceScaling", "config": {"distribution": "uniform", "scale": 1.0, "seed": null, "mode": "fan_avg"}}, "bias_regularizer": null, "bias_constraint": null, "kernel_constraint": null, "strides": [1, 1], "name": "res2c_branch2a", "activity_regularizer": null, "padding": "valid", "filters": 64}}, {"inbound_nodes": [[["res2c_branch2a", 0, 0, {}]]], "name": "bn2c_branch2a", "class_name": "BatchNormalization", "config": {"trainable": true, "moving_mean_initializer": {"class_name": "Zeros", "config": {}}, "beta_regularizer": null, "moving_variance_initializer": {"class_name": "Ones", "config": {}}, "gamma_regularizer": null, "epsilon": 0.001, "scale": true, "beta_constraint": null, "axis": 3, "center": true, "momentum": 0.99, "beta_initializer": {"class_name": "Zeros", "config": {}}, "name": "bn2c_branch2a", "gamma_initializer": {"class_name": "Ones", "config": {}}, "gamma_constraint": null}}, {"inbound_nodes": [[["bn2c_branch2a", 0, 0, {}]]], "name": "activation_8", "class_name": "Activation", "config": {"trainable": true, "name": "activation_8", "activation": "relu"}}, {"inbound_nodes": [[["activation_8", 0, 0, {}]]], "name": "res2c_branch2b", "class_name": "Conv2D", "config": {"trainable": true, "use_bias": true, "data_format": "channels_last", "activation": "linear", "dilation_rate": [1, 1], "kernel_regularizer": null, "kernel_size": [3, 3], "bias_initializer": {"class_name": "Zeros", "config": {}}, "kernel_initializer": {"class_name": "VarianceScaling", "config": {"distribution": "uniform", "scale": 1.0, "seed": null, "mode": "fan_avg"}}, "bias_regularizer": null, "bias_constraint": null, "kernel_constraint": null, "strides": [1, 1], "name": "res2c_branch2b", "activity_regularizer": null, "padding": "same", "filters": 64}}, {"inbound_nodes": [[["res2c_branch2b", 0, 0, {}]]], "name": "bn2c_branch2b", "class_name": "BatchNormalization", "config": {"trainable": true, "moving_mean_initializer": {"class_name": "Zeros", "config": {}}, "beta_regularizer": null, "moving_variance_initializer": {"class_name": "Ones", "config": {}}, "gamma_regularizer": null, "epsilon": 0.001, "scale": true, "beta_constraint": null, "axis": 3, "center": true, "momentum": 0.99, "beta_initializer": {"class_name": "Zeros", "config": {}}, "name": "bn2c_branch2b", "gamma_initializer": {"class_name": "Ones", "config": {}}, "gamma_constraint": null}}, {"inbound_nodes": [[["bn2c_branch2b", 0, 0, {}]]], "name": "activation_9", "class_name": "Activation", "config": {"trainable": true, "name": "activation_9", "activation": "relu"}}, {"inbound_nodes": [[["activation_9", 0, 0, {}]]], "name": "res2c_branch2c", "class_name": "Conv2D", "config": {"trainable": true, "use_bias": true, "data_format": "channels_last", "activation": "linear", "dilation_rate": [1, 1], "kernel_regularizer": null, "kernel_size": [1, 1], "bias_initializer": {"class_name": "Zeros", "config": {}}, "kernel_initializer": {"class_name": "VarianceScaling", "config": {"distribution": "uniform", "scale": 1.0, "seed": null, "mode": "fan_avg"}}, "bias_regularizer": null, "bias_constraint": null, "kernel_constraint": null, "strides": [1, 1], "name": "res2c_branch2c", "activity_regularizer": null, "padding": "valid", "filters": 256}}, {"inbound_nodes": [[["res2c_branch2c", 0, 0, {}]]], "name": "bn2c_branch2c", "class_name": "BatchNormalization", "config": {"trainable": true, "moving_mean_initializer": {"class_name": "Zeros", "config": {}}, "beta_regularizer": null, "moving_variance_initializer": {"class_name": "Ones", "config": {}}, "gamma_regularizer": null, "epsilon": 0.001, "scale": true, "beta_constraint": null, "axis": 3, "center": true, "momentum": 0.99, "beta_initializer": {"class_name": "Zeros", "config": {}}, "name": "bn2c_branch2c", "gamma_initializer": {"class_name": "Ones", "config": {}}, "gamma_constraint": null}}, {"inbound_nodes": [[["bn2c_branch2c", 0, 0, {}], ["activation_7", 0, 0, {}]]], "name": "add_3", "class_name": "Add", "config": {"trainable": true, "name": "add_3"}}, {"inbound_nodes": [[["add_3", 0, 0, {}]]], "name": "activation_10", "class_name": "Activation", "config": {"trainable": true, "name": "activation_10", "activation": "relu"}}, {"inbound_nodes": [[["activation_10", 0, 0, {}]]], "name": "res3a_branch2a", "class_name": "Conv2D", "config": {"trainable": true, "use_bias": true, "data_format": "channels_last", "activation": "linear", "dilation_rate": [1, 1], "kernel_regularizer": null, "kernel_size": [1, 1], "bias_initializer": {"class_name": "Zeros", "config": {}}, "kernel_initializer": {"class_name": "VarianceScaling", "config": {"distribution": "uniform", "scale": 1.0, "seed": null, "mode": "fan_avg"}}, "bias_regularizer": null, "bias_constraint": null, "kernel_constraint": null, "strides": [2, 2], "name": "res3a_branch2a", "activity_regularizer": null, "padding": "valid", "filters": 128}}, {"inbound_nodes": [[["res3a_branch2a", 0, 0, {}]]], "name": "bn3a_branch2a", "class_name": "BatchNormalization", "config": {"trainable": true, "moving_mean_initializer": {"class_name": "Zeros", "config": {}}, "beta_regularizer": null, "moving_variance_initializer": {"class_name": "Ones", "config": {}}, "gamma_regularizer": null, "epsilon": 0.001, "scale": true, "beta_constraint": null, "axis": 3, "center": true, "momentum": 0.99, "beta_initializer": {"class_name": "Zeros", "config": {}}, "name": "bn3a_branch2a", "gamma_initializer": {"class_name": "Ones", "config": {}}, "gamma_constraint": null}}, {"inbound_nodes": [[["bn3a_branch2a", 0, 0, {}]]], "name": "activation_11", "class_name": "Activation", "config": {"trainable": true, "name": "activation_11", "activation": "relu"}}, {"inbound_nodes": [[["activation_11", 0, 0, {}]]], "name": "res3a_branch2b", "class_name": "Conv2D", "config": {"trainable": true, "use_bias": true, "data_format": "channels_last", "activation": "linear", "dilation_rate": [1, 1], "kernel_regularizer": null, "kernel_size": [3, 3], "bias_initializer": {"class_name": "Zeros", "config": {}}, "kernel_initializer": {"class_name": "VarianceScaling", "config": {"distribution": "uniform", "scale": 1.0, "seed": null, "mode": "fan_avg"}}, "bias_regularizer": null, "bias_constraint": null, "kernel_constraint": null, "strides": [1, 1], "name": "res3a_branch2b", "activity_regularizer": null, "padding": "same", "filters": 128}}, {"inbound_nodes": [[["res3a_branch2b", 0, 0, {}]]], "name": "bn3a_branch2b", "class_name": "BatchNormalization", "config": {"trainable": true, "moving_mean_initializer": {"class_name": "Zeros", "config": {}}, "beta_regularizer": null, "moving_variance_initializer": {"class_name": "Ones", "config": {}}, "gamma_regularizer": null, "epsilon": 0.001, "scale": true, "beta_constraint": null, "axis": 3, "center": true, "momentum": 0.99, "beta_initializer": {"class_name": "Zeros", "config": {}}, "name": "bn3a_branch2b", "gamma_initializer": {"class_name": "Ones", "config": {}}, "gamma_constraint": null}}, {"inbound_nodes": [[["bn3a_branch2b", 0, 0, {}]]], "name": "activation_12", "class_name": "Activation", "config": {"trainable": true, "name": "activation_12", "activation": "relu"}}, {"inbound_nodes": [[["activation_12", 0, 0, {}]]], "name": "res3a_branch2c", "class_name": "Conv2D", "config": {"trainable": true, "use_bias": true, "data_format": "channels_last", "activation": "linear", "dilation_rate": [1, 1], "kernel_regularizer": null, "kernel_size": [1, 1], "bias_initializer": {"class_name": "Zeros", "config": {}}, "kernel_initializer": {"class_name": "VarianceScaling", "config": {"distribution": "uniform", "scale": 1.0, "seed": null, "mode": "fan_avg"}}, "bias_regularizer": null, "bias_constraint": null, "kernel_constraint": null, "strides": [1, 1], "name": "res3a_branch2c", "activity_regularizer": null, "padding": "valid", "filters": 512}}, {"inbound_nodes": [[["activation_10", 0, 0, {}]]], "name": "res3a_branch1", "class_name": "Conv2D", "config": {"trainable": true, "use_bias": true, "data_format": "channels_last", "activation": "linear", "dilation_rate": [1, 1], "kernel_regularizer": null, "kernel_size": [1, 1], "bias_initializer": {"class_name": "Zeros", "config": {}}, "kernel_initializer": {"class_name": "VarianceScaling", "config": {"distribution": "uniform", "scale": 1.0, "seed": null, "mode": "fan_avg"}}, "bias_regularizer": null, "bias_constraint": null, "kernel_constraint": null, "strides": [2, 2], "name": "res3a_branch1", "activity_regularizer": null, "padding": "valid", "filters": 512}}, {"inbound_nodes": [[["res3a_branch2c", 0, 0, {}]]], "name": "bn3a_branch2c", "class_name": "BatchNormalization", "config": {"trainable": true, "moving_mean_initializer": {"class_name": "Zeros", "config": {}}, "beta_regularizer": null, "moving_variance_initializer": {"class_name": "Ones", "config": {}}, "gamma_regularizer": null, "epsilon": 0.001, "scale": true, "beta_constraint": null, "axis": 3, "center": true, "momentum": 0.99, "beta_initializer": {"class_name": "Zeros", "config": {}}, "name": "bn3a_branch2c", "gamma_initializer": {"class_name": "Ones", "config": {}}, "gamma_constraint": null}}, {"inbound_nodes": [[["res3a_branch1", 0, 0, {}]]], "name": "bn3a_branch1", "class_name": "BatchNormalization", "config": {"trainable": true, "moving_mean_initializer": {"class_name": "Zeros", "config": {}}, "beta_regularizer": null, "moving_variance_initializer": {"class_name": "Ones", "config": {}}, "gamma_regularizer": null, "epsilon": 0.001, "scale": true, "beta_constraint": null, "axis": 3, "center": true, "momentum": 0.99, "beta_initializer": {"class_name": "Zeros", "config": {}}, "name": "bn3a_branch1", "gamma_initializer": {"class_name": "Ones", "config": {}}, "gamma_constraint": null}}, {"inbound_nodes": [[["bn3a_branch2c", 0, 0, {}], ["bn3a_branch1", 0, 0, {}]]], "name": "add_4", "class_name": "Add", "config": {"trainable": true, "name": "add_4"}}, {"inbound_nodes": [[["add_4", 0, 0, {}]]], "name": "activation_13", "class_name": "Activation", "config": {"trainable": true, "name": "activation_13", "activation": "relu"}}, {"inbound_nodes": [[["activation_13", 0, 0, {}]]], "name": "res3b_branch2a", "class_name": "Conv2D", "config": {"trainable": true, "use_bias": true, "data_format": "channels_last", "activation": "linear", "dilation_rate": [1, 1], "kernel_regularizer": null, "kernel_size": [1, 1], "bias_initializer": {"class_name": "Zeros", "config": {}}, "kernel_initializer": {"class_name": "VarianceScaling", "config": {"distribution": "uniform", "scale": 1.0, "seed": null, "mode": "fan_avg"}}, "bias_regularizer": null, "bias_constraint": null, "kernel_constraint": null, "strides": [1, 1], "name": "res3b_branch2a", "activity_regularizer": null, "padding": "valid", "filters": 128}}, {"inbound_nodes": [[["res3b_branch2a", 0, 0, {}]]], "name": "bn3b_branch2a", "class_name": "BatchNormalization", "config": {"trainable": true, "moving_mean_initializer": {"class_name": "Zeros", "config": {}}, "beta_regularizer": null, "moving_variance_initializer": {"class_name": "Ones", "config": {}}, "gamma_regularizer": null, "epsilon": 0.001, "scale": true, "beta_constraint": null, "axis": 3, "center": true, "momentum": 0.99, "beta_initializer": {"class_name": "Zeros", "config": {}}, "name": "bn3b_branch2a", "gamma_initializer": {"class_name": "Ones", "config": {}}, "gamma_constraint": null}}, {"inbound_nodes": [[["bn3b_branch2a", 0, 0, {}]]], "name": "activation_14", "class_name": "Activation", "config": {"trainable": true, "name": "activation_14", "activation": "relu"}}, {"inbound_nodes": [[["activation_14", 0, 0, {}]]], "name": "res3b_branch2b", "class_name": "Conv2D", "config": {"trainable": true, "use_bias": true, "data_format": "channels_last", "activation": "linear", "dilation_rate": [1, 1], "kernel_regularizer": null, "kernel_size": [3, 3], "bias_initializer": {"class_name": "Zeros", "config": {}}, "kernel_initializer": {"class_name": "VarianceScaling", "config": {"distribution": "uniform", "scale": 1.0, "seed": null, "mode": "fan_avg"}}, "bias_regularizer": null, "bias_constraint": null, "kernel_constraint": null, "strides": [1, 1], "name": "res3b_branch2b", "activity_regularizer": null, "padding": "same", "filters": 128}}, {"inbound_nodes": [[["res3b_branch2b", 0, 0, {}]]], "name": "bn3b_branch2b", "class_name": "BatchNormalization", "config": {"trainable": true, "moving_mean_initializer": {"class_name": "Zeros", "config": {}}, "beta_regularizer": null, "moving_variance_initializer": {"class_name": "Ones", "config": {}}, "gamma_regularizer": null, "epsilon": 0.001, "scale": true, "beta_constraint": null, "axis": 3, "center": true, "momentum": 0.99, "beta_initializer": {"class_name": "Zeros", "config": {}}, "name": "bn3b_branch2b", "gamma_initializer": {"class_name": "Ones", "config": {}}, "gamma_constraint": null}}, {"inbound_nodes": [[["bn3b_branch2b", 0, 0, {}]]], "name": "activation_15", "class_name": "Activation", "config": {"trainable": true, "name": "activation_15", "activation": "relu"}}, {"inbound_nodes": [[["activation_15", 0, 0, {}]]], "name": "res3b_branch2c", "class_name": "Conv2D", "config": {"trainable": true, "use_bias": true, "data_format": "channels_last", "activation": "linear", "dilation_rate": [1, 1], "kernel_regularizer": null, "kernel_size": [1, 1], "bias_initializer": {"class_name": "Zeros", "config": {}}, "kernel_initializer": {"class_name": "VarianceScaling", "config": {"distribution": "uniform", "scale": 1.0, "seed": null, "mode": "fan_avg"}}, "bias_regularizer": null, "bias_constraint": null, "kernel_constraint": null, "strides": [1, 1], "name": "res3b_branch2c", "activity_regularizer": null, "padding": "valid", "filters": 512}}, {"inbound_nodes": [[["res3b_branch2c", 0, 0, {}]]], "name": "bn3b_branch2c", "class_name": "BatchNormalization", "config": {"trainable": true, "moving_mean_initializer": {"class_name": "Zeros", "config": {}}, "beta_regularizer": null, "moving_variance_initializer": {"class_name": "Ones", "config": {}}, "gamma_regularizer": null, "epsilon": 0.001, "scale": true, "beta_constraint": null, "axis": 3, "center": true, "momentum": 0.99, "beta_initializer": {"class_name": "Zeros", "config": {}}, "name": "bn3b_branch2c", "gamma_initializer": {"class_name": "Ones", "config": {}}, "gamma_constraint": null}}, {"inbound_nodes": [[["bn3b_branch2c", 0, 0, {}], ["activation_13", 0, 0, {}]]], "name": "add_5", "class_name": "Add", "config": {"trainable": true, "name": "add_5"}}, {"inbound_nodes": [[["add_5", 0, 0, {}]]], "name": "activation_16", "class_name": "Activation", "config": {"trainable": true, "name": "activation_16", "activation": "relu"}}, {"inbound_nodes": [[["activation_16", 0, 0, {}]]], "name": "res3c_branch2a", "class_name": "Conv2D", "config": {"trainable": true, "use_bias": true, "data_format": "channels_last", "activation": "linear", "dilation_rate": [1, 1], "kernel_regularizer": null, "kernel_size": [1, 1], "bias_initializer": {"class_name": "Zeros", "config": {}}, "kernel_initializer": {"class_name": "VarianceScaling", "config": {"distribution": "uniform", "scale": 1.0, "seed": null, "mode": "fan_avg"}}, "bias_regularizer": null, "bias_constraint": null, "kernel_constraint": null, "strides": [1, 1], "name": "res3c_branch2a", "activity_regularizer": null, "padding": "valid", "filters": 128}}, {"inbound_nodes": [[["res3c_branch2a", 0, 0, {}]]], "name": "bn3c_branch2a", "class_name": "BatchNormalization", "config": {"trainable": true, "moving_mean_initializer": {"class_name": "Zeros", "config": {}}, "beta_regularizer": null, "moving_variance_initializer": {"class_name": "Ones", "config": {}}, "gamma_regularizer": null, "epsilon": 0.001, "scale": true, "beta_constraint": null, "axis": 3, "center": true, "momentum": 0.99, "beta_initializer": {"class_name": "Zeros", "config": {}}, "name": "bn3c_branch2a", "gamma_initializer": {"class_name": "Ones", "config": {}}, "gamma_constraint": null}}, {"inbound_nodes": [[["bn3c_branch2a", 0, 0, {}]]], "name": "activation_17", "class_name": "Activation", "config": {"trainable": true, "name": "activation_17", "activation": "relu"}}, {"inbound_nodes": [[["activation_17", 0, 0, {}]]], "name": "res3c_branch2b", "class_name": "Conv2D", "config": {"trainable": true, "use_bias": true, "data_format": "channels_last", "activation": "linear", "dilation_rate": [1, 1], "kernel_regularizer": null, "kernel_size": [3, 3], "bias_initializer": {"class_name": "Zeros", "config": {}}, "kernel_initializer": {"class_name": "VarianceScaling", "config": {"distribution": "uniform", "scale": 1.0, "seed": null, "mode": "fan_avg"}}, "bias_regularizer": null, "bias_constraint": null, "kernel_constraint": null, "strides": [1, 1], "name": "res3c_branch2b", "activity_regularizer": null, "padding": "same", "filters": 128}}, {"inbound_nodes": [[["res3c_branch2b", 0, 0, {}]]], "name": "bn3c_branch2b", "class_name": "BatchNormalization", "config": {"trainable": true, "moving_mean_initializer": {"class_name": "Zeros", "config": {}}, "beta_regularizer": null, "moving_variance_initializer": {"class_name": "Ones", "config": {}}, "gamma_regularizer": null, "epsilon": 0.001, "scale": true, "beta_constraint": null, "axis": 3, "center": true, "momentum": 0.99, "beta_initializer": {"class_name": "Zeros", "config": {}}, "name": "bn3c_branch2b", "gamma_initializer": {"class_name": "Ones", "config": {}}, "gamma_constraint": null}}, {"inbound_nodes": [[["bn3c_branch2b", 0, 0, {}]]], "name": "activation_18", "class_name": "Activation", "config": {"trainable": true, "name": "activation_18", "activation": "relu"}}, {"inbound_nodes": [[["activation_18", 0, 0, {}]]], "name": "res3c_branch2c", "class_name": "Conv2D", "config": {"trainable": true, "use_bias": true, "data_format": "channels_last", "activation": "linear", "dilation_rate": [1, 1], "kernel_regularizer": null, "kernel_size": [1, 1], "bias_initializer": {"class_name": "Zeros", "config": {}}, "kernel_initializer": {"class_name": "VarianceScaling", "config": {"distribution": "uniform", "scale": 1.0, "seed": null, "mode": "fan_avg"}}, "bias_regularizer": null, "bias_constraint": null, "kernel_constraint": null, "strides": [1, 1], "name": "res3c_branch2c", "activity_regularizer": null, "padding": "valid", "filters": 512}}, {"inbound_nodes": [[["res3c_branch2c", 0, 0, {}]]], "name": "bn3c_branch2c", "class_name": "BatchNormalization", "config": {"trainable": true, "moving_mean_initializer": {"class_name": "Zeros", "config": {}}, "beta_regularizer": null, "moving_variance_initializer": {"class_name": "Ones", "config": {}}, "gamma_regularizer": null, "epsilon": 0.001, "scale": true, "beta_constraint": null, "axis": 3, "center": true, "momentum": 0.99, "beta_initializer": {"class_name": "Zeros", "config": {}}, "name": "bn3c_branch2c", "gamma_initializer": {"class_name": "Ones", "config": {}}, "gamma_constraint": null}}, {"inbound_nodes": [[["bn3c_branch2c", 0, 0, {}], ["activation_16", 0, 0, {}]]], "name": "add_6", "class_name": "Add", "config": {"trainable": true, "name": "add_6"}}, {"inbound_nodes": [[["add_6", 0, 0, {}]]], "name": "activation_19", "class_name": "Activation", "config": {"trainable": true, "name": "activation_19", "activation": "relu"}}, {"inbound_nodes": [[["activation_19", 0, 0, {}]]], "name": "res3d_branch2a", "class_name": "Conv2D", "config": {"trainable": true, "use_bias": true, "data_format": "channels_last", "activation": "linear", "dilation_rate": [1, 1], "kernel_regularizer": null, "kernel_size": [1, 1], "bias_initializer": {"class_name": "Zeros", "config": {}}, "kernel_initializer": {"class_name": "VarianceScaling", "config": {"distribution": "uniform", "scale": 1.0, "seed": null, "mode": "fan_avg"}}, "bias_regularizer": null, "bias_constraint": null, "kernel_constraint": null, "strides": [1, 1], "name": "res3d_branch2a", "activity_regularizer": null, "padding": "valid", "filters": 128}}, {"inbound_nodes": [[["res3d_branch2a", 0, 0, {}]]], "name": "bn3d_branch2a", "class_name": "BatchNormalization", "config": {"trainable": true, "moving_mean_initializer": {"class_name": "Zeros", "config": {}}, "beta_regularizer": null, "moving_variance_initializer": {"class_name": "Ones", "config": {}}, "gamma_regularizer": null, "epsilon": 0.001, "scale": true, "beta_constraint": null, "axis": 3, "center": true, "momentum": 0.99, "beta_initializer": {"class_name": "Zeros", "config": {}}, "name": "bn3d_branch2a", "gamma_initializer": {"class_name": "Ones", "config": {}}, "gamma_constraint": null}}, {"inbound_nodes": [[["bn3d_branch2a", 0, 0, {}]]], "name": "activation_20", "class_name": "Activation", "config": {"trainable": true, "name": "activation_20", "activation": "relu"}}, {"inbound_nodes": [[["activation_20", 0, 0, {}]]], "name": "res3d_branch2b", "class_name": "Conv2D", "config": {"trainable": true, "use_bias": true, "data_format": "channels_last", "activation": "linear", "dilation_rate": [1, 1], "kernel_regularizer": null, "kernel_size": [3, 3], "bias_initializer": {"class_name": "Zeros", "config": {}}, "kernel_initializer": {"class_name": "VarianceScaling", "config": {"distribution": "uniform", "scale": 1.0, "seed": null, "mode": "fan_avg"}}, "bias_regularizer": null, "bias_constraint": null, "kernel_constraint": null, "strides": [1, 1], "name": "res3d_branch2b", "activity_regularizer": null, "padding": "same", "filters": 128}}, {"inbound_nodes": [[["res3d_branch2b", 0, 0, {}]]], "name": "bn3d_branch2b", "class_name": "BatchNormalization", "config": {"trainable": true, "moving_mean_initializer": {"class_name": "Zeros", "config": {}}, "beta_regularizer": null, "moving_variance_initializer": {"class_name": "Ones", "config": {}}, "gamma_regularizer": null, "epsilon": 0.001, "scale": true, "beta_constraint": null, "axis": 3, "center": true, "momentum": 0.99, "beta_initializer": {"class_name": "Zeros", "config": {}}, "name": "bn3d_branch2b", "gamma_initializer": {"class_name": "Ones", "config": {}}, "gamma_constraint": null}}, {"inbound_nodes": [[["bn3d_branch2b", 0, 0, {}]]], "name": "activation_21", "class_name": "Activation", "config": {"trainable": true, "name": "activation_21", "activation": "relu"}}, {"inbound_nodes": [[["activation_21", 0, 0, {}]]], "name": "res3d_branch2c", "class_name": "Conv2D", "config": {"trainable": true, "use_bias": true, "data_format": "channels_last", "activation": "linear", "dilation_rate": [1, 1], "kernel_regularizer": null, "kernel_size": [1, 1], "bias_initializer": {"class_name": "Zeros", "config": {}}, "kernel_initializer": {"class_name": "VarianceScaling", "config": {"distribution": "uniform", "scale": 1.0, "seed": null, "mode": "fan_avg"}}, "bias_regularizer": null, "bias_constraint": null, "kernel_constraint": null, "strides": [1, 1], "name": "res3d_branch2c", "activity_regularizer": null, "padding": "valid", "filters": 512}}, {"inbound_nodes": [[["res3d_branch2c", 0, 0, {}]]], "name": "bn3d_branch2c", "class_name": "BatchNormalization", "config": {"trainable": true, "moving_mean_initializer": {"class_name": "Zeros", "config": {}}, "beta_regularizer": null, "moving_variance_initializer": {"class_name": "Ones", "config": {}}, "gamma_regularizer": null, "epsilon": 0.001, "scale": true, "beta_constraint": null, "axis": 3, "center": true, "momentum": 0.99, "beta_initializer": {"class_name": "Zeros", "config": {}}, "name": "bn3d_branch2c", "gamma_initializer": {"class_name": "Ones", "config": {}}, "gamma_constraint": null}}, {"inbound_nodes": [[["bn3d_branch2c", 0, 0, {}], ["activation_19", 0, 0, {}]]], "name": "add_7", "class_name": "Add", "config": {"trainable": true, "name": "add_7"}}, {"inbound_nodes": [[["add_7", 0, 0, {}]]], "name": "activation_22", "class_name": "Activation", "config": {"trainable": true, "name": "activation_22", "activation": "relu"}}, {"inbound_nodes": [[["activation_22", 0, 0, {}]]], "name": "res4a_branch2a", "class_name": "Conv2D", "config": {"trainable": true, "use_bias": true, "data_format": "channels_last", "activation": "linear", "dilation_rate": [1, 1], "kernel_regularizer": null, "kernel_size": [1, 1], "bias_initializer": {"class_name": "Zeros", "config": {}}, "kernel_initializer": {"class_name": "VarianceScaling", "config": {"distribution": "uniform", "scale": 1.0, "seed": null, "mode": "fan_avg"}}, "bias_regularizer": null, "bias_constraint": null, "kernel_constraint": null, "strides": [2, 2], "name": "res4a_branch2a", "activity_regularizer": null, "padding": "valid", "filters": 256}}, {"inbound_nodes": [[["res4a_branch2a", 0, 0, {}]]], "name": "bn4a_branch2a", "class_name": "BatchNormalization", "config": {"trainable": true, "moving_mean_initializer": {"class_name": "Zeros", "config": {}}, "beta_regularizer": null, "moving_variance_initializer": {"class_name": "Ones", "config": {}}, "gamma_regularizer": null, "epsilon": 0.001, "scale": true, "beta_constraint": null, "axis": 3, "center": true, "momentum": 0.99, "beta_initializer": {"class_name": "Zeros", "config": {}}, "name": "bn4a_branch2a", "gamma_initializer": {"class_name": "Ones", "config": {}}, "gamma_constraint": null}}, {"inbound_nodes": [[["bn4a_branch2a", 0, 0, {}]]], "name": "activation_23", "class_name": "Activation", "config": {"trainable": true, "name": "activation_23", "activation": "relu"}}, {"inbound_nodes": [[["activation_23", 0, 0, {}]]], "name": "res4a_branch2b", "class_name": "Conv2D", "config": {"trainable": true, "use_bias": true, "data_format": "channels_last", "activation": "linear", "dilation_rate": [1, 1], "kernel_regularizer": null, "kernel_size": [3, 3], "bias_initializer": {"class_name": "Zeros", "config": {}}, "kernel_initializer": {"class_name": "VarianceScaling", "config": {"distribution": "uniform", "scale": 1.0, "seed": null, "mode": "fan_avg"}}, "bias_regularizer": null, "bias_constraint": null, "kernel_constraint": null, "strides": [1, 1], "name": "res4a_branch2b", "activity_regularizer": null, "padding": "same", "filters": 256}}, {"inbound_nodes": [[["res4a_branch2b", 0, 0, {}]]], "name": "bn4a_branch2b", "class_name": "BatchNormalization", "config": {"trainable": true, "moving_mean_initializer": {"class_name": "Zeros", "config": {}}, "beta_regularizer": null, "moving_variance_initializer": {"class_name": "Ones", "config": {}}, "gamma_regularizer": null, "epsilon": 0.001, "scale": true, "beta_constraint": null, "axis": 3, "center": true, "momentum": 0.99, "beta_initializer": {"class_name": "Zeros", "config": {}}, "name": "bn4a_branch2b", "gamma_initializer": {"class_name": "Ones", "config": {}}, "gamma_constraint": null}}, {"inbound_nodes": [[["bn4a_branch2b", 0, 0, {}]]], "name": "activation_24", "class_name": "Activation", "config": {"trainable": true, "name": "activation_24", "activation": "relu"}}, {"inbound_nodes": [[["activation_24", 0, 0, {}]]], "name": "res4a_branch2c", "class_name": "Conv2D", "config": {"trainable": true, "use_bias": true, "data_format": "channels_last", "activation": "linear", "dilation_rate": [1, 1], "kernel_regularizer": null, "kernel_size": [1, 1], "bias_initializer": {"class_name": "Zeros", "config": {}}, "kernel_initializer": {"class_name": "VarianceScaling", "config": {"distribution": "uniform", "scale": 1.0, "seed": null, "mode": "fan_avg"}}, "bias_regularizer": null, "bias_constraint": null, "kernel_constraint": null, "strides": [1, 1], "name": "res4a_branch2c", "activity_regularizer": null, "padding": "valid", "filters": 1024}}, {"inbound_nodes": [[["activation_22", 0, 0, {}]]], "name": "res4a_branch1", "class_name": "Conv2D", "config": {"trainable": true, "use_bias": true, "data_format": "channels_last", "activation": "linear", "dilation_rate": [1, 1], "kernel_regularizer": null, "kernel_size": [1, 1], "bias_initializer": {"class_name": "Zeros", "config": {}}, "kernel_initializer": {"class_name": "VarianceScaling", "config": {"distribution": "uniform", "scale": 1.0, "seed": null, "mode": "fan_avg"}}, "bias_regularizer": null, "bias_constraint": null, "kernel_constraint": null, "strides": [2, 2], "name": "res4a_branch1", "activity_regularizer": null, "padding": "valid", "filters": 1024}}, {"inbound_nodes": [[["res4a_branch2c", 0, 0, {}]]], "name": "bn4a_branch2c", "class_name": "BatchNormalization", "config": {"trainable": true, "moving_mean_initializer": {"class_name": "Zeros", "config": {}}, "beta_regularizer": null, "moving_variance_initializer": {"class_name": "Ones", "config": {}}, "gamma_regularizer": null, "epsilon": 0.001, "scale": true, "beta_constraint": null, "axis": 3, "center": true, "momentum": 0.99, "beta_initializer": {"class_name": "Zeros", "config": {}}, "name": "bn4a_branch2c", "gamma_initializer": {"class_name": "Ones", "config": {}}, "gamma_constraint": null}}, {"inbound_nodes": [[["res4a_branch1", 0, 0, {}]]], "name": "bn4a_branch1", "class_name": "BatchNormalization", "config": {"trainable": true, "moving_mean_initializer": {"class_name": "Zeros", "config": {}}, "beta_regularizer": null, "moving_variance_initializer": {"class_name": "Ones", "config": {}}, "gamma_regularizer": null, "epsilon": 0.001, "scale": true, "beta_constraint": null, "axis": 3, "center": true, "momentum": 0.99, "beta_initializer": {"class_name": "Zeros", "config": {}}, "name": "bn4a_branch1", "gamma_initializer": {"class_name": "Ones", "config": {}}, "gamma_constraint": null}}, {"inbound_nodes": [[["bn4a_branch2c", 0, 0, {}], ["bn4a_branch1", 0, 0, {}]]], "name": "add_8", "class_name": "Add", "config": {"trainable": true, "name": "add_8"}}, {"inbound_nodes": [[["add_8", 0, 0, {}]]], "name": "activation_25", "class_name": "Activation", "config": {"trainable": true, "name": "activation_25", "activation": "relu"}}, {"inbound_nodes": [[["activation_25", 0, 0, {}]]], "name": "res4b_branch2a", "class_name": "Conv2D", "config": {"trainable": true, "use_bias": true, "data_format": "channels_last", "activation": "linear", "dilation_rate": [1, 1], "kernel_regularizer": null, "kernel_size": [1, 1], "bias_initializer": {"class_name": "Zeros", "config": {}}, "kernel_initializer": {"class_name": "VarianceScaling", "config": {"distribution": "uniform", "scale": 1.0, "seed": null, "mode": "fan_avg"}}, "bias_regularizer": null, "bias_constraint": null, "kernel_constraint": null, "strides": [1, 1], "name": "res4b_branch2a", "activity_regularizer": null, "padding": "valid", "filters": 256}}, {"inbound_nodes": [[["res4b_branch2a", 0, 0, {}]]], "name": "bn4b_branch2a", "class_name": "BatchNormalization", "config": {"trainable": true, "moving_mean_initializer": {"class_name": "Zeros", "config": {}}, "beta_regularizer": null, "moving_variance_initializer": {"class_name": "Ones", "config": {}}, "gamma_regularizer": null, "epsilon": 0.001, "scale": true, "beta_constraint": null, "axis": 3, "center": true, "momentum": 0.99, "beta_initializer": {"class_name": "Zeros", "config": {}}, "name": "bn4b_branch2a", "gamma_initializer": {"class_name": "Ones", "config": {}}, "gamma_constraint": null}}, {"inbound_nodes": [[["bn4b_branch2a", 0, 0, {}]]], "name": "activation_26", "class_name": "Activation", "config": {"trainable": true, "name": "activation_26", "activation": "relu"}}, {"inbound_nodes": [[["activation_26", 0, 0, {}]]], "name": "res4b_branch2b", "class_name": "Conv2D", "config": {"trainable": true, "use_bias": true, "data_format": "channels_last", "activation": "linear", "dilation_rate": [1, 1], "kernel_regularizer": null, "kernel_size": [3, 3], "bias_initializer": {"class_name": "Zeros", "config": {}}, "kernel_initializer": {"class_name": "VarianceScaling", "config": {"distribution": "uniform", "scale": 1.0, "seed": null, "mode": "fan_avg"}}, "bias_regularizer": null, "bias_constraint": null, "kernel_constraint": null, "strides": [1, 1], "name": "res4b_branch2b", "activity_regularizer": null, "padding": "same", "filters": 256}}, {"inbound_nodes": [[["res4b_branch2b", 0, 0, {}]]], "name": "bn4b_branch2b", "class_name": "BatchNormalization", "config": {"trainable": true, "moving_mean_initializer": {"class_name": "Zeros", "config": {}}, "beta_regularizer": null, "moving_variance_initializer": {"class_name": "Ones", "config": {}}, "gamma_regularizer": null, "epsilon": 0.001, "scale": true, "beta_constraint": null, "axis": 3, "center": true, "momentum": 0.99, "beta_initializer": {"class_name": "Zeros", "config": {}}, "name": "bn4b_branch2b", "gamma_initializer": {"class_name": "Ones", "config": {}}, "gamma_constraint": null}}, {"inbound_nodes": [[["bn4b_branch2b", 0, 0, {}]]], "name": "activation_27", "class_name": "Activation", "config": {"trainable": true, "name": "activation_27", "activation": "relu"}}, {"inbound_nodes": [[["activation_27", 0, 0, {}]]], "name": "res4b_branch2c", "class_name": "Conv2D", "config": {"trainable": true, "use_bias": true, "data_format": "channels_last", "activation": "linear", "dilation_rate": [1, 1], "kernel_regularizer": null, "kernel_size": [1, 1], "bias_initializer": {"class_name": "Zeros", "config": {}}, "kernel_initializer": {"class_name": "VarianceScaling", "config": {"distribution": "uniform", "scale": 1.0, "seed": null, "mode": "fan_avg"}}, "bias_regularizer": null, "bias_constraint": null, "kernel_constraint": null, "strides": [1, 1], "name": "res4b_branch2c", "activity_regularizer": null, "padding": "valid", "filters": 1024}}, {"inbound_nodes": [[["res4b_branch2c", 0, 0, {}]]], "name": "bn4b_branch2c", "class_name": "BatchNormalization", "config": {"trainable": true, "moving_mean_initializer": {"class_name": "Zeros", "config": {}}, "beta_regularizer": null, "moving_variance_initializer": {"class_name": "Ones", "config": {}}, "gamma_regularizer": null, "epsilon": 0.001, "scale": true, "beta_constraint": null, "axis": 3, "center": true, "momentum": 0.99, "beta_initializer": {"class_name": "Zeros", "config": {}}, "name": "bn4b_branch2c", "gamma_initializer": {"class_name": "Ones", "config": {}}, "gamma_constraint": null}}, {"inbound_nodes": [[["bn4b_branch2c", 0, 0, {}], ["activation_25", 0, 0, {}]]], "name": "add_9", "class_name": "Add", "config": {"trainable": true, "name": "add_9"}}, {"inbound_nodes": [[["add_9", 0, 0, {}]]], "name": "activation_28", "class_name": "Activation", "config": {"trainable": true, "name": "activation_28", "activation": "relu"}}, {"inbound_nodes": [[["activation_28", 0, 0, {}]]], "name": "res4c_branch2a", "class_name": "Conv2D", "config": {"trainable": true, "use_bias": true, "data_format": "channels_last", "activation": "linear", "dilation_rate": [1, 1], "kernel_regularizer": null, "kernel_size": [1, 1], "bias_initializer": {"class_name": "Zeros", "config": {}}, "kernel_initializer": {"class_name": "VarianceScaling", "config": {"distribution": "uniform", "scale": 1.0, "seed": null, "mode": "fan_avg"}}, "bias_regularizer": null, "bias_constraint": null, "kernel_constraint": null, "strides": [1, 1], "name": "res4c_branch2a", "activity_regularizer": null, "padding": "valid", "filters": 256}}, {"inbound_nodes": [[["res4c_branch2a", 0, 0, {}]]], "name": "bn4c_branch2a", "class_name": "BatchNormalization", "config": {"trainable": true, "moving_mean_initializer": {"class_name": "Zeros", "config": {}}, "beta_regularizer": null, "moving_variance_initializer": {"class_name": "Ones", "config": {}}, "gamma_regularizer": null, "epsilon": 0.001, "scale": true, "beta_constraint": null, "axis": 3, "center": true, "momentum": 0.99, "beta_initializer": {"class_name": "Zeros", "config": {}}, "name": "bn4c_branch2a", "gamma_initializer": {"class_name": "Ones", "config": {}}, "gamma_constraint": null}}, {"inbound_nodes": [[["bn4c_branch2a", 0, 0, {}]]], "name": "activation_29", "class_name": "Activation", "config": {"trainable": true, "name": "activation_29", "activation": "relu"}}, {"inbound_nodes": [[["activation_29", 0, 0, {}]]], "name": "res4c_branch2b", "class_name": "Conv2D", "config": {"trainable": true, "use_bias": true, "data_format": "channels_last", "activation": "linear", "dilation_rate": [1, 1], "kernel_regularizer": null, "kernel_size": [3, 3], "bias_initializer": {"class_name": "Zeros", "config": {}}, "kernel_initializer": {"class_name": "VarianceScaling", "config": {"distribution": "uniform", "scale": 1.0, "seed": null, "mode": "fan_avg"}}, "bias_regularizer": null, "bias_constraint": null, "kernel_constraint": null, "strides": [1, 1], "name": "res4c_branch2b", "activity_regularizer": null, "padding": "same", "filters": 256}}, {"inbound_nodes": [[["res4c_branch2b", 0, 0, {}]]], "name": "bn4c_branch2b", "class_name": "BatchNormalization", "config": {"trainable": true, "moving_mean_initializer": {"class_name": "Zeros", "config": {}}, "beta_regularizer": null, "moving_variance_initializer": {"class_name": "Ones", "config": {}}, "gamma_regularizer": null, "epsilon": 0.001, "scale": true, "beta_constraint": null, "axis": 3, "center": true, "momentum": 0.99, "beta_initializer": {"class_name": "Zeros", "config": {}}, "name": "bn4c_branch2b", "gamma_initializer": {"class_name": "Ones", "config": {}}, "gamma_constraint": null}}, {"inbound_nodes": [[["bn4c_branch2b", 0, 0, {}]]], "name": "activation_30", "class_name": "Activation", "config": {"trainable": true, "name": "activation_30", "activation": "relu"}}, {"inbound_nodes": [[["activation_30", 0, 0, {}]]], "name": "res4c_branch2c", "class_name": "Conv2D", "config": {"trainable": true, "use_bias": true, "data_format": "channels_last", "activation": "linear", "dilation_rate": [1, 1], "kernel_regularizer": null, "kernel_size": [1, 1], "bias_initializer": {"class_name": "Zeros", "config": {}}, "kernel_initializer": {"class_name": "VarianceScaling", "config": {"distribution": "uniform", "scale": 1.0, "seed": null, "mode": "fan_avg"}}, "bias_regularizer": null, "bias_constraint": null, "kernel_constraint": null, "strides": [1, 1], "name": "res4c_branch2c", "activity_regularizer": null, "padding": "valid", "filters": 1024}}, {"inbound_nodes": [[["res4c_branch2c", 0, 0, {}]]], "name": "bn4c_branch2c", "class_name": "BatchNormalization", "config": {"trainable": true, "moving_mean_initializer": {"class_name": "Zeros", "config": {}}, "beta_regularizer": null, "moving_variance_initializer": {"class_name": "Ones", "config": {}}, "gamma_regularizer": null, "epsilon": 0.001, "scale": true, "beta_constraint": null, "axis": 3, "center": true, "momentum": 0.99, "beta_initializer": {"class_name": "Zeros", "config": {}}, "name": "bn4c_branch2c", "gamma_initializer": {"class_name": "Ones", "config": {}}, "gamma_constraint": null}}, {"inbound_nodes": [[["bn4c_branch2c", 0, 0, {}], ["activation_28", 0, 0, {}]]], "name": "add_10", "class_name": "Add", "config": {"trainable": true, "name": "add_10"}}, {"inbound_nodes": [[["add_10", 0, 0, {}]]], "name": "activation_31", "class_name": "Activation", "config": {"trainable": true, "name": "activation_31", "activation": "relu"}}, {"inbound_nodes": [[["activation_31", 0, 0, {}]]], "name": "res4d_branch2a", "class_name": "Conv2D", "config": {"trainable": true, "use_bias": true, "data_format": "channels_last", "activation": "linear", "dilation_rate": [1, 1], "kernel_regularizer": null, "kernel_size": [1, 1], "bias_initializer": {"class_name": "Zeros", "config": {}}, "kernel_initializer": {"class_name": "VarianceScaling", "config": {"distribution": "uniform", "scale": 1.0, "seed": null, "mode": "fan_avg"}}, "bias_regularizer": null, "bias_constraint": null, "kernel_constraint": null, "strides": [1, 1], "name": "res4d_branch2a", "activity_regularizer": null, "padding": "valid", "filters": 256}}, {"inbound_nodes": [[["res4d_branch2a", 0, 0, {}]]], "name": "bn4d_branch2a", "class_name": "BatchNormalization", "config": {"trainable": true, "moving_mean_initializer": {"class_name": "Zeros", "config": {}}, "beta_regularizer": null, "moving_variance_initializer": {"class_name": "Ones", "config": {}}, "gamma_regularizer": null, "epsilon": 0.001, "scale": true, "beta_constraint": null, "axis": 3, "center": true, "momentum": 0.99, "beta_initializer": {"class_name": "Zeros", "config": {}}, "name": "bn4d_branch2a", "gamma_initializer": {"class_name": "Ones", "config": {}}, "gamma_constraint": null}}, {"inbound_nodes": [[["bn4d_branch2a", 0, 0, {}]]], "name": "activation_32", "class_name": "Activation", "config": {"trainable": true, "name": "activation_32", "activation": "relu"}}, {"inbound_nodes": [[["activation_32", 0, 0, {}]]], "name": "res4d_branch2b", "class_name": "Conv2D", "config": {"trainable": true, "use_bias": true, "data_format": "channels_last", "activation": "linear", "dilation_rate": [1, 1], "kernel_regularizer": null, "kernel_size": [3, 3], "bias_initializer": {"class_name": "Zeros", "config": {}}, "kernel_initializer": {"class_name": "VarianceScaling", "config": {"distribution": "uniform", "scale": 1.0, "seed": null, "mode": "fan_avg"}}, "bias_regularizer": null, "bias_constraint": null, "kernel_constraint": null, "strides": [1, 1], "name": "res4d_branch2b", "activity_regularizer": null, "padding": "same", "filters": 256}}, {"inbound_nodes": [[["res4d_branch2b", 0, 0, {}]]], "name": "bn4d_branch2b", "class_name": "BatchNormalization", "config": {"trainable": true, "moving_mean_initializer": {"class_name": "Zeros", "config": {}}, "beta_regularizer": null, "moving_variance_initializer": {"class_name": "Ones", "config": {}}, "gamma_regularizer": null, "epsilon": 0.001, "scale": true, "beta_constraint": null, "axis": 3, "center": true, "momentum": 0.99, "beta_initializer": {"class_name": "Zeros", "config": {}}, "name": "bn4d_branch2b", "gamma_initializer": {"class_name": "Ones", "config": {}}, "gamma_constraint": null}}, {"inbound_nodes": [[["bn4d_branch2b", 0, 0, {}]]], "name": "activation_33", "class_name": "Activation", "config": {"trainable": true, "name": "activation_33", "activation": "relu"}}, {"inbound_nodes": [[["activation_33", 0, 0, {}]]], "name": "res4d_branch2c", "class_name": "Conv2D", "config": {"trainable": true, "use_bias": true, "data_format": "channels_last", "activation": "linear", "dilation_rate": [1, 1], "kernel_regularizer": null, "kernel_size": [1, 1], "bias_initializer": {"class_name": "Zeros", "config": {}}, "kernel_initializer": {"class_name": "VarianceScaling", "config": {"distribution": "uniform", "scale": 1.0, "seed": null, "mode": "fan_avg"}}, "bias_regularizer": null, "bias_constraint": null, "kernel_constraint": null, "strides": [1, 1], "name": "res4d_branch2c", "activity_regularizer": null, "padding": "valid", "filters": 1024}}, {"inbound_nodes": [[["res4d_branch2c", 0, 0, {}]]], "name": "bn4d_branch2c", "class_name": "BatchNormalization", "config": {"trainable": true, "moving_mean_initializer": {"class_name": "Zeros", "config": {}}, "beta_regularizer": null, "moving_variance_initializer": {"class_name": "Ones", "config": {}}, "gamma_regularizer": null, "epsilon": 0.001, "scale": true, "beta_constraint": null, "axis": 3, "center": true, "momentum": 0.99, "beta_initializer": {"class_name": "Zeros", "config": {}}, "name": "bn4d_branch2c", "gamma_initializer": {"class_name": "Ones", "config": {}}, "gamma_constraint": null}}, {"inbound_nodes": [[["bn4d_branch2c", 0, 0, {}], ["activation_31", 0, 0, {}]]], "name": "add_11", "class_name": "Add", "config": {"trainable": true, "name": "add_11"}}, {"inbound_nodes": [[["add_11", 0, 0, {}]]], "name": "activation_34", "class_name": "Activation", "config": {"trainable": true, "name": "activation_34", "activation": "relu"}}, {"inbound_nodes": [[["activation_34", 0, 0, {}]]], "name": "res4e_branch2a", "class_name": "Conv2D", "config": {"trainable": true, "use_bias": true, "data_format": "channels_last", "activation": "linear", "dilation_rate": [1, 1], "kernel_regularizer": null, "kernel_size": [1, 1], "bias_initializer": {"class_name": "Zeros", "config": {}}, "kernel_initializer": {"class_name": "VarianceScaling", "config": {"distribution": "uniform", "scale": 1.0, "seed": null, "mode": "fan_avg"}}, "bias_regularizer": null, "bias_constraint": null, "kernel_constraint": null, "strides": [1, 1], "name": "res4e_branch2a", "activity_regularizer": null, "padding": "valid", "filters": 256}}, {"inbound_nodes": [[["res4e_branch2a", 0, 0, {}]]], "name": "bn4e_branch2a", "class_name": "BatchNormalization", "config": {"trainable": true, "moving_mean_initializer": {"class_name": "Zeros", "config": {}}, "beta_regularizer": null, "moving_variance_initializer": {"class_name": "Ones", "config": {}}, "gamma_regularizer": null, "epsilon": 0.001, "scale": true, "beta_constraint": null, "axis": 3, "center": true, "momentum": 0.99, "beta_initializer": {"class_name": "Zeros", "config": {}}, "name": "bn4e_branch2a", "gamma_initializer": {"class_name": "Ones", "config": {}}, "gamma_constraint": null}}, {"inbound_nodes": [[["bn4e_branch2a", 0, 0, {}]]], "name": "activation_35", "class_name": "Activation", "config": {"trainable": true, "name": "activation_35", "activation": "relu"}}, {"inbound_nodes": [[["activation_35", 0, 0, {}]]], "name": "res4e_branch2b", "class_name": "Conv2D", "config": {"trainable": true, "use_bias": true, "data_format": "channels_last", "activation": "linear", "dilation_rate": [1, 1], "kernel_regularizer": null, "kernel_size": [3, 3], "bias_initializer": {"class_name": "Zeros", "config": {}}, "kernel_initializer": {"class_name": "VarianceScaling", "config": {"distribution": "uniform", "scale": 1.0, "seed": null, "mode": "fan_avg"}}, "bias_regularizer": null, "bias_constraint": null, "kernel_constraint": null, "strides": [1, 1], "name": "res4e_branch2b", "activity_regularizer": null, "padding": "same", "filters": 256}}, {"inbound_nodes": [[["res4e_branch2b", 0, 0, {}]]], "name": "bn4e_branch2b", "class_name": "BatchNormalization", "config": {"trainable": true, "moving_mean_initializer": {"class_name": "Zeros", "config": {}}, "beta_regularizer": null, "moving_variance_initializer": {"class_name": "Ones", "config": {}}, "gamma_regularizer": null, "epsilon": 0.001, "scale": true, "beta_constraint": null, "axis": 3, "center": true, "momentum": 0.99, "beta_initializer": {"class_name": "Zeros", "config": {}}, "name": "bn4e_branch2b", "gamma_initializer": {"class_name": "Ones", "config": {}}, "gamma_constraint": null}}, {"inbound_nodes": [[["bn4e_branch2b", 0, 0, {}]]], "name": "activation_36", "class_name": "Activation", "config": {"trainable": true, "name": "activation_36", "activation": "relu"}}, {"inbound_nodes": [[["activation_36", 0, 0, {}]]], "name": "res4e_branch2c", "class_name": "Conv2D", "config": {"trainable": true, "use_bias": true, "data_format": "channels_last", "activation": "linear", "dilation_rate": [1, 1], "kernel_regularizer": null, "kernel_size": [1, 1], "bias_initializer": {"class_name": "Zeros", "config": {}}, "kernel_initializer": {"class_name": "VarianceScaling", "config": {"distribution": "uniform", "scale": 1.0, "seed": null, "mode": "fan_avg"}}, "bias_regularizer": null, "bias_constraint": null, "kernel_constraint": null, "strides": [1, 1], "name": "res4e_branch2c", "activity_regularizer": null, "padding": "valid", "filters": 1024}}, {"inbound_nodes": [[["res4e_branch2c", 0, 0, {}]]], "name": "bn4e_branch2c", "class_name": "BatchNormalization", "config": {"trainable": true, "moving_mean_initializer": {"class_name": "Zeros", "config": {}}, "beta_regularizer": null, "moving_variance_initializer": {"class_name": "Ones", "config": {}}, "gamma_regularizer": null, "epsilon": 0.001, "scale": true, "beta_constraint": null, "axis": 3, "center": true, "momentum": 0.99, "beta_initializer": {"class_name": "Zeros", "config": {}}, "name": "bn4e_branch2c", "gamma_initializer": {"class_name": "Ones", "config": {}}, "gamma_constraint": null}}, {"inbound_nodes": [[["bn4e_branch2c", 0, 0, {}], ["activation_34", 0, 0, {}]]], "name": "add_12", "class_name": "Add", "config": {"trainable": true, "name": "add_12"}}, {"inbound_nodes": [[["add_12", 0, 0, {}]]], "name": "activation_37", "class_name": "Activation", "config": {"trainable": true, "name": "activation_37", "activation": "relu"}}, {"inbound_nodes": [[["activation_37", 0, 0, {}]]], "name": "res4f_branch2a", "class_name": "Conv2D", "config": {"trainable": true, "use_bias": true, "data_format": "channels_last", "activation": "linear", "dilation_rate": [1, 1], "kernel_regularizer": null, "kernel_size": [1, 1], "bias_initializer": {"class_name": "Zeros", "config": {}}, "kernel_initializer": {"class_name": "VarianceScaling", "config": {"distribution": "uniform", "scale": 1.0, "seed": null, "mode": "fan_avg"}}, "bias_regularizer": null, "bias_constraint": null, "kernel_constraint": null, "strides": [1, 1], "name": "res4f_branch2a", "activity_regularizer": null, "padding": "valid", "filters": 256}}, {"inbound_nodes": [[["res4f_branch2a", 0, 0, {}]]], "name": "bn4f_branch2a", "class_name": "BatchNormalization", "config": {"trainable": true, "moving_mean_initializer": {"class_name": "Zeros", "config": {}}, "beta_regularizer": null, "moving_variance_initializer": {"class_name": "Ones", "config": {}}, "gamma_regularizer": null, "epsilon": 0.001, "scale": true, "beta_constraint": null, "axis": 3, "center": true, "momentum": 0.99, "beta_initializer": {"class_name": "Zeros", "config": {}}, "name": "bn4f_branch2a", "gamma_initializer": {"class_name": "Ones", "config": {}}, "gamma_constraint": null}}, {"inbound_nodes": [[["bn4f_branch2a", 0, 0, {}]]], "name": "activation_38", "class_name": "Activation", "config": {"trainable": true, "name": "activation_38", "activation": "relu"}}, {"inbound_nodes": [[["activation_38", 0, 0, {}]]], "name": "res4f_branch2b", "class_name": "Conv2D", "config": {"trainable": true, "use_bias": true, "data_format": "channels_last", "activation": "linear", "dilation_rate": [1, 1], "kernel_regularizer": null, "kernel_size": [3, 3], "bias_initializer": {"class_name": "Zeros", "config": {}}, "kernel_initializer": {"class_name": "VarianceScaling", "config": {"distribution": "uniform", "scale": 1.0, "seed": null, "mode": "fan_avg"}}, "bias_regularizer": null, "bias_constraint": null, "kernel_constraint": null, "strides": [1, 1], "name": "res4f_branch2b", "activity_regularizer": null, "padding": "same", "filters": 256}}, {"inbound_nodes": [[["res4f_branch2b", 0, 0, {}]]], "name": "bn4f_branch2b", "class_name": "BatchNormalization", "config": {"trainable": true, "moving_mean_initializer": {"class_name": "Zeros", "config": {}}, "beta_regularizer": null, "moving_variance_initializer": {"class_name": "Ones", "config": {}}, "gamma_regularizer": null, "epsilon": 0.001, "scale": true, "beta_constraint": null, "axis": 3, "center": true, "momentum": 0.99, "beta_initializer": {"class_name": "Zeros", "config": {}}, "name": "bn4f_branch2b", "gamma_initializer": {"class_name": "Ones", "config": {}}, "gamma_constraint": null}}, {"inbound_nodes": [[["bn4f_branch2b", 0, 0, {}]]], "name": "activation_39", "class_name": "Activation", "config": {"trainable": true, "name": "activation_39", "activation": "relu"}}, {"inbound_nodes": [[["activation_39", 0, 0, {}]]], "name": "res4f_branch2c", "class_name": "Conv2D", "config": {"trainable": true, "use_bias": true, "data_format": "channels_last", "activation": "linear", "dilation_rate": [1, 1], "kernel_regularizer": null, "kernel_size": [1, 1], "bias_initializer": {"class_name": "Zeros", "config": {}}, "kernel_initializer": {"class_name": "VarianceScaling", "config": {"distribution": "uniform", "scale": 1.0, "seed": null, "mode": "fan_avg"}}, "bias_regularizer": null, "bias_constraint": null, "kernel_constraint": null, "strides": [1, 1], "name": "res4f_branch2c", "activity_regularizer": null, "padding": "valid", "filters": 1024}}, {"inbound_nodes": [[["res4f_branch2c", 0, 0, {}]]], "name": "bn4f_branch2c", "class_name": "BatchNormalization", "config": {"trainable": true, "moving_mean_initializer": {"class_name": "Zeros", "config": {}}, "beta_regularizer": null, "moving_variance_initializer": {"class_name": "Ones", "config": {}}, "gamma_regularizer": null, "epsilon": 0.001, "scale": true, "beta_constraint": null, "axis": 3, "center": true, "momentum": 0.99, "beta_initializer": {"class_name": "Zeros", "config": {}}, "name": "bn4f_branch2c", "gamma_initializer": {"class_name": "Ones", "config": {}}, "gamma_constraint": null}}, {"inbound_nodes": [[["bn4f_branch2c", 0, 0, {}], ["activation_37", 0, 0, {}]]], "name": "add_13", "class_name": "Add", "config": {"trainable": true, "name": "add_13"}}, {"inbound_nodes": [[["add_13", 0, 0, {}]]], "name": "activation_40", "class_name": "Activation", "config": {"trainable": true, "name": "activation_40", "activation": "relu"}}, {"inbound_nodes": [[["activation_40", 0, 0, {}]]], "name": "res5a_branch2a", "class_name": "Conv2D", "config": {"trainable": true, "use_bias": true, "data_format": "channels_last", "activation": "linear", "dilation_rate": [1, 1], "kernel_regularizer": null, "kernel_size": [1, 1], "bias_initializer": {"class_name": "Zeros", "config": {}}, "kernel_initializer": {"class_name": "VarianceScaling", "config": {"distribution": "uniform", "scale": 1.0, "seed": null, "mode": "fan_avg"}}, "bias_regularizer": null, "bias_constraint": null, "kernel_constraint": null, "strides": [2, 2], "name": "res5a_branch2a", "activity_regularizer": null, "padding": "valid", "filters": 512}}, {"inbound_nodes": [[["res5a_branch2a", 0, 0, {}]]], "name": "bn5a_branch2a", "class_name": "BatchNormalization", "config": {"trainable": true, "moving_mean_initializer": {"class_name": "Zeros", "config": {}}, "beta_regularizer": null, "moving_variance_initializer": {"class_name": "Ones", "config": {}}, "gamma_regularizer": null, "epsilon": 0.001, "scale": true, "beta_constraint": null, "axis": 3, "center": true, "momentum": 0.99, "beta_initializer": {"class_name": "Zeros", "config": {}}, "name": "bn5a_branch2a", "gamma_initializer": {"class_name": "Ones", "config": {}}, "gamma_constraint": null}}, {"inbound_nodes": [[["bn5a_branch2a", 0, 0, {}]]], "name": "activation_41", "class_name": "Activation", "config": {"trainable": true, "name": "activation_41", "activation": "relu"}}, {"inbound_nodes": [[["activation_41", 0, 0, {}]]], "name": "res5a_branch2b", "class_name": "Conv2D", "config": {"trainable": true, "use_bias": true, "data_format": "channels_last", "activation": "linear", "dilation_rate": [1, 1], "kernel_regularizer": null, "kernel_size": [3, 3], "bias_initializer": {"class_name": "Zeros", "config": {}}, "kernel_initializer": {"class_name": "VarianceScaling", "config": {"distribution": "uniform", "scale": 1.0, "seed": null, "mode": "fan_avg"}}, "bias_regularizer": null, "bias_constraint": null, "kernel_constraint": null, "strides": [1, 1], "name": "res5a_branch2b", "activity_regularizer": null, "padding": "same", "filters": 512}}, {"inbound_nodes": [[["res5a_branch2b", 0, 0, {}]]], "name": "bn5a_branch2b", "class_name": "BatchNormalization", "config": {"trainable": true, "moving_mean_initializer": {"class_name": "Zeros", "config": {}}, "beta_regularizer": null, "moving_variance_initializer": {"class_name": "Ones", "config": {}}, "gamma_regularizer": null, "epsilon": 0.001, "scale": true, "beta_constraint": null, "axis": 3, "center": true, "momentum": 0.99, "beta_initializer": {"class_name": "Zeros", "config": {}}, "name": "bn5a_branch2b", "gamma_initializer": {"class_name": "Ones", "config": {}}, "gamma_constraint": null}}, {"inbound_nodes": [[["bn5a_branch2b", 0, 0, {}]]], "name": "activation_42", "class_name": "Activation", "config": {"trainable": true, "name": "activation_42", "activation": "relu"}}, {"inbound_nodes": [[["activation_42", 0, 0, {}]]], "name": "res5a_branch2c", "class_name": "Conv2D", "config": {"trainable": true, "use_bias": true, "data_format": "channels_last", "activation": "linear", "dilation_rate": [1, 1], "kernel_regularizer": null, "kernel_size": [1, 1], "bias_initializer": {"class_name": "Zeros", "config": {}}, "kernel_initializer": {"class_name": "VarianceScaling", "config": {"distribution": "uniform", "scale": 1.0, "seed": null, "mode": "fan_avg"}}, "bias_regularizer": null, "bias_constraint": null, "kernel_constraint": null, "strides": [1, 1], "name": "res5a_branch2c", "activity_regularizer": null, "padding": "valid", "filters": 2048}}, {"inbound_nodes": [[["activation_40", 0, 0, {}]]], "name": "res5a_branch1", "class_name": "Conv2D", "config": {"trainable": true, "use_bias": true, "data_format": "channels_last", "activation": "linear", "dilation_rate": [1, 1], "kernel_regularizer": null, "kernel_size": [1, 1], "bias_initializer": {"class_name": "Zeros", "config": {}}, "kernel_initializer": {"class_name": "VarianceScaling", "config": {"distribution": "uniform", "scale": 1.0, "seed": null, "mode": "fan_avg"}}, "bias_regularizer": null, "bias_constraint": null, "kernel_constraint": null, "strides": [2, 2], "name": "res5a_branch1", "activity_regularizer": null, "padding": "valid", "filters": 2048}}, {"inbound_nodes": [[["res5a_branch2c", 0, 0, {}]]], "name": "bn5a_branch2c", "class_name": "BatchNormalization", "config": {"trainable": true, "moving_mean_initializer": {"class_name": "Zeros", "config": {}}, "beta_regularizer": null, "moving_variance_initializer": {"class_name": "Ones", "config": {}}, "gamma_regularizer": null, "epsilon": 0.001, "scale": true, "beta_constraint": null, "axis": 3, "center": true, "momentum": 0.99, "beta_initializer": {"class_name": "Zeros", "config": {}}, "name": "bn5a_branch2c", "gamma_initializer": {"class_name": "Ones", "config": {}}, "gamma_constraint": null}}, {"inbound_nodes": [[["res5a_branch1", 0, 0, {}]]], "name": "bn5a_branch1", "class_name": "BatchNormalization", "config": {"trainable": true, "moving_mean_initializer": {"class_name": "Zeros", "config": {}}, "beta_regularizer": null, "moving_variance_initializer": {"class_name": "Ones", "config": {}}, "gamma_regularizer": null, "epsilon": 0.001, "scale": true, "beta_constraint": null, "axis": 3, "center": true, "momentum": 0.99, "beta_initializer": {"class_name": "Zeros", "config": {}}, "name": "bn5a_branch1", "gamma_initializer": {"class_name": "Ones", "config": {}}, "gamma_constraint": null}}, {"inbound_nodes": [[["bn5a_branch2c", 0, 0, {}], ["bn5a_branch1", 0, 0, {}]]], "name": "add_14", "class_name": "Add", "config": {"trainable": true, "name": "add_14"}}, {"inbound_nodes": [[["add_14", 0, 0, {}]]], "name": "activation_43", "class_name": "Activation", "config": {"trainable": true, "name": "activation_43", "activation": "relu"}}, {"inbound_nodes": [[["activation_43", 0, 0, {}]]], "name": "res5b_branch2a", "class_name": "Conv2D", "config": {"trainable": true, "use_bias": true, "data_format": "channels_last", "activation": "linear", "dilation_rate": [1, 1], "kernel_regularizer": null, "kernel_size": [1, 1], "bias_initializer": {"class_name": "Zeros", "config": {}}, "kernel_initializer": {"class_name": "VarianceScaling", "config": {"distribution": "uniform", "scale": 1.0, "seed": null, "mode": "fan_avg"}}, "bias_regularizer": null, "bias_constraint": null, "kernel_constraint": null, "strides": [1, 1], "name": "res5b_branch2a", "activity_regularizer": null, "padding": "valid", "filters": 512}}, {"inbound_nodes": [[["res5b_branch2a", 0, 0, {}]]], "name": "bn5b_branch2a", "class_name": "BatchNormalization", "config": {"trainable": true, "moving_mean_initializer": {"class_name": "Zeros", "config": {}}, "beta_regularizer": null, "moving_variance_initializer": {"class_name": "Ones", "config": {}}, "gamma_regularizer": null, "epsilon": 0.001, "scale": true, "beta_constraint": null, "axis": 3, "center": true, "momentum": 0.99, "beta_initializer": {"class_name": "Zeros", "config": {}}, "name": "bn5b_branch2a", "gamma_initializer": {"class_name": "Ones", "config": {}}, "gamma_constraint": null}}, {"inbound_nodes": [[["bn5b_branch2a", 0, 0, {}]]], "name": "activation_44", "class_name": "Activation", "config": {"trainable": true, "name": "activation_44", "activation": "relu"}}, {"inbound_nodes": [[["activation_44", 0, 0, {}]]], "name": "res5b_branch2b", "class_name": "Conv2D", "config": {"trainable": true, "use_bias": true, "data_format": "channels_last", "activation": "linear", "dilation_rate": [1, 1], "kernel_regularizer": null, "kernel_size": [3, 3], "bias_initializer": {"class_name": "Zeros", "config": {}}, "kernel_initializer": {"class_name": "VarianceScaling", "config": {"distribution": "uniform", "scale": 1.0, "seed": null, "mode": "fan_avg"}}, "bias_regularizer": null, "bias_constraint": null, "kernel_constraint": null, "strides": [1, 1], "name": "res5b_branch2b", "activity_regularizer": null, "padding": "same", "filters": 512}}, {"inbound_nodes": [[["res5b_branch2b", 0, 0, {}]]], "name": "bn5b_branch2b", "class_name": "BatchNormalization", "config": {"trainable": true, "moving_mean_initializer": {"class_name": "Zeros", "config": {}}, "beta_regularizer": null, "moving_variance_initializer": {"class_name": "Ones", "config": {}}, "gamma_regularizer": null, "epsilon": 0.001, "scale": true, "beta_constraint": null, "axis": 3, "center": true, "momentum": 0.99, "beta_initializer": {"class_name": "Zeros", "config": {}}, "name": "bn5b_branch2b", "gamma_initializer": {"class_name": "Ones", "config": {}}, "gamma_constraint": null}}, {"inbound_nodes": [[["bn5b_branch2b", 0, 0, {}]]], "name": "activation_45", "class_name": "Activation", "config": {"trainable": true, "name": "activation_45", "activation": "relu"}}, {"inbound_nodes": [[["activation_45", 0, 0, {}]]], "name": "res5b_branch2c", "class_name": "Conv2D", "config": {"trainable": true, "use_bias": true, "data_format": "channels_last", "activation": "linear", "dilation_rate": [1, 1], "kernel_regularizer": null, "kernel_size": [1, 1], "bias_initializer": {"class_name": "Zeros", "config": {}}, "kernel_initializer": {"class_name": "VarianceScaling", "config": {"distribution": "uniform", "scale": 1.0, "seed": null, "mode": "fan_avg"}}, "bias_regularizer": null, "bias_constraint": null, "kernel_constraint": null, "strides": [1, 1], "name": "res5b_branch2c", "activity_regularizer": null, "padding": "valid", "filters": 2048}}, {"inbound_nodes": [[["res5b_branch2c", 0, 0, {}]]], "name": "bn5b_branch2c", "class_name": "BatchNormalization", "config": {"trainable": true, "moving_mean_initializer": {"class_name": "Zeros", "config": {}}, "beta_regularizer": null, "moving_variance_initializer": {"class_name": "Ones", "config": {}}, "gamma_regularizer": null, "epsilon": 0.001, "scale": true, "beta_constraint": null, "axis": 3, "center": true, "momentum": 0.99, "beta_initializer": {"class_name": "Zeros", "config": {}}, "name": "bn5b_branch2c", "gamma_initializer": {"class_name": "Ones", "config": {}}, "gamma_constraint": null}}, {"inbound_nodes": [[["bn5b_branch2c", 0, 0, {}], ["activation_43", 0, 0, {}]]], "name": "add_15", "class_name": "Add", "config": {"trainable": true, "name": "add_15"}}, {"inbound_nodes": [[["add_15", 0, 0, {}]]], "name": "activation_46", "class_name": "Activation", "config": {"trainable": true, "name": "activation_46", "activation": "relu"}}, {"inbound_nodes": [[["activation_46", 0, 0, {}]]], "name": "res5c_branch2a", "class_name": "Conv2D", "config": {"trainable": true, "use_bias": true, "data_format": "channels_last", "activation": "linear", "dilation_rate": [1, 1], "kernel_regularizer": null, "kernel_size": [1, 1], "bias_initializer": {"class_name": "Zeros", "config": {}}, "kernel_initializer": {"class_name": "VarianceScaling", "config": {"distribution": "uniform", "scale": 1.0, "seed": null, "mode": "fan_avg"}}, "bias_regularizer": null, "bias_constraint": null, "kernel_constraint": null, "strides": [1, 1], "name": "res5c_branch2a", "activity_regularizer": null, "padding": "valid", "filters": 512}}, {"inbound_nodes": [[["res5c_branch2a", 0, 0, {}]]], "name": "bn5c_branch2a", "class_name": "BatchNormalization", "config": {"trainable": true, "moving_mean_initializer": {"class_name": "Zeros", "config": {}}, "beta_regularizer": null, "moving_variance_initializer": {"class_name": "Ones", "config": {}}, "gamma_regularizer": null, "epsilon": 0.001, "scale": true, "beta_constraint": null, "axis": 3, "center": true, "momentum": 0.99, "beta_initializer": {"class_name": "Zeros", "config": {}}, "name": "bn5c_branch2a", "gamma_initializer": {"class_name": "Ones", "config": {}}, "gamma_constraint": null}}, {"inbound_nodes": [[["bn5c_branch2a", 0, 0, {}]]], "name": "activation_47", "class_name": "Activation", "config": {"trainable": true, "name": "activation_47", "activation": "relu"}}, {"inbound_nodes": [[["activation_47", 0, 0, {}]]], "name": "res5c_branch2b", "class_name": "Conv2D", "config": {"trainable": true, "use_bias": true, "data_format": "channels_last", "activation": "linear", "dilation_rate": [1, 1], "kernel_regularizer": null, "kernel_size": [3, 3], "bias_initializer": {"class_name": "Zeros", "config": {}}, "kernel_initializer": {"class_name": "VarianceScaling", "config": {"distribution": "uniform", "scale": 1.0, "seed": null, "mode": "fan_avg"}}, "bias_regularizer": null, "bias_constraint": null, "kernel_constraint": null, "strides": [1, 1], "name": "res5c_branch2b", "activity_regularizer": null, "padding": "same", "filters": 512}}, {"inbound_nodes": [[["res5c_branch2b", 0, 0, {}]]], "name": "bn5c_branch2b", "class_name": "BatchNormalization", "config": {"trainable": true, "moving_mean_initializer": {"class_name": "Zeros", "config": {}}, "beta_regularizer": null, "moving_variance_initializer": {"class_name": "Ones", "config": {}}, "gamma_regularizer": null, "epsilon": 0.001, "scale": true, "beta_constraint": null, "axis": 3, "center": true, "momentum": 0.99, "beta_initializer": {"class_name": "Zeros", "config": {}}, "name": "bn5c_branch2b", "gamma_initializer": {"class_name": "Ones", "config": {}}, "gamma_constraint": null}}, {"inbound_nodes": [[["bn5c_branch2b", 0, 0, {}]]], "name": "activation_48", "class_name": "Activation", "config": {"trainable": true, "name": "activation_48", "activation": "relu"}}, {"inbound_nodes": [[["activation_48", 0, 0, {}]]], "name": "res5c_branch2c", "class_name": "Conv2D", "config": {"trainable": true, "use_bias": true, "data_format": "channels_last", "activation": "linear", "dilation_rate": [1, 1], "kernel_regularizer": null, "kernel_size": [1, 1], "bias_initializer": {"class_name": "Zeros", "config": {}}, "kernel_initializer": {"class_name": "VarianceScaling", "config": {"distribution": "uniform", "scale": 1.0, "seed": null, "mode": "fan_avg"}}, "bias_regularizer": null, "bias_constraint": null, "kernel_constraint": null, "strides": [1, 1], "name": "res5c_branch2c", "activity_regularizer": null, "padding": "valid", "filters": 2048}}, {"inbound_nodes": [[["res5c_branch2c", 0, 0, {}]]], "name": "bn5c_branch2c", "class_name": "BatchNormalization", "config": {"trainable": true, "moving_mean_initializer": {"class_name": "Zeros", "config": {}}, "beta_regularizer": null, "moving_variance_initializer": {"class_name": "Ones", "config": {}}, "gamma_regularizer": null, "epsilon": 0.001, "scale": true, "beta_constraint": null, "axis": 3, "center": true, "momentum": 0.99, "beta_initializer": {"class_name": "Zeros", "config": {}}, "name": "bn5c_branch2c", "gamma_initializer": {"class_name": "Ones", "config": {}}, "gamma_constraint": null}}, {"inbound_nodes": [[["bn5c_branch2c", 0, 0, {}], ["activation_46", 0, 0, {}]]], "name": "add_16", "class_name": "Add", "config": {"trainable": true, "name": "add_16"}}, {"inbound_nodes": [[["add_16", 0, 0, {}]]], "name": "activation_49", "class_name": "Activation", "config": {"trainable": true, "name": "activation_49", "activation": "relu"}}, {"inbound_nodes": [[["activation_49", 0, 0, {}]]], "name": "avg_pool", "class_name": "AveragePooling2D", "config": {"trainable": true, "pool_size": [7, 7], "data_format": "channels_last", "strides": [7, 7], "name": "avg_pool", "padding": "valid"}}, {"inbound_nodes": [[["avg_pool", 0, 0, {}]]], "name": "flatten_1", "class_name": "Flatten", "config": {"trainable": true, "name": "flatten_1"}}, {"inbound_nodes": [[["flatten_1", 0, 0, {}]]], "name": "fc1000", "class_name": "Dense", "config": {"trainable": true, "use_bias": true, "kernel_constraint": null, "units": 1000, "kernel_regularizer": null, "bias_initializer": {"class_name": "Zeros", "config": {}}, "kernel_initializer": {"class_name": "VarianceScaling", "config": {"distribution": "uniform", "scale": 1.0, "seed": null, "mode": "fan_avg"}}, "bias_regularizer": null, "bias_constraint": null, "activation": "softmax", "name": "fc1000", "activity_regularizer": null}}], "name": "resnet50", "output_layers": [["fc1000", 0, 0]], "input_layers": [["input_1", 0, 0]]}, "keras_version": "2.1.2", "class_name": "Model", "backend": "tensorflow", "params": {"activation_34": 0, "bn5b_branch2b": 2048, "activation_3": 0, "bn2a_branch2b": 256, "activation_30": 0, "activation_40": 0, "bn2a_branch1": 1024, "activation_37": 0, "bn3a_branch2a": 512, "bn4a_branch2a": 1024, "activation_46": 0, "add_5": 0, "activation_43": 0, "res3a_branch2b": 147584, "bn5b_branch2c": 8192, "activation_13": 0, "bn4a_branch1": 4096, "res2c_branch2c": 16640, "bn2c_branch2c": 1024, "activation_35": 0, "bn4b_branch2b": 1024, "res5a_branch1": 2099200, "res4d_branch2c": 263168, "add_9": 0, "res2c_branch2a": 16448, "res4a_branch2a": 131328, "bn4b_branch2c": 4096, "bn3c_branch2a": 512, "conv1": 9472, "activation_33": 0, "res3b_branch2a": 65664, "bn4e_branch2b": 1024, "flatten_1": 0, "res3a_branch1": 131584, "bn2a_branch2a": 256, "activation_32": 0, "res3a_branch2a": 32896, "bn5a_branch1": 8192, "activation_12": 0, "res4b_branch2a": 262400, "activation_10": 0, "bn4d_branch2c": 4096, "res4d_branch2a": 262400, "activation_9": 0, "add_6": 0, "activation_48": 0, "res4a_branch1": 525312, "activation_17": 0, "bn3a_branch1": 2048, "activation_29": 0, "activation_31": 0, "res3c_branch2c": 66048, "bn5b_branch2a": 2048, "add_12": 0, "activation_11": 0, "activation_44": 0, "res5c_branch2a": 1049088, "activation_14": 0, "bn4c_branch2b": 1024, "res5b_branch2b": 2359808, "activation_28": 0, "bn3b_branch2b": 512, "res5a_branch2a": 524800, "add_7": 0, "add_13": 0, "res5a_branch2b": 2359808, "bn3d_branch2b": 512, "bn5a_branch2a": 2048, "bn5c_branch2c": 8192, "res5b_branch2c": 1050624, "bn4a_branch2b": 1024, "res4c_branch2c": 263168, "res5c_branch2b": 2359808, "res2c_branch2b": 36928, "bn3d_branch2c": 2048, "activation_7": 0, "bn5a_branch2b": 2048, "bn4d_branch2b": 1024, "res2a_branch1": 16640, "res2b_branch2a": 16448, "bn2c_branch2b": 256, "res4f_branch2c": 263168, "res3b_branch2b": 147584, "res3d_branch2b": 147584, "add_3": 0, "res4e_branch2b": 590080, "add_1": 0, "res4f_branch2b": 590080, "res4e_branch2c": 263168, "bn4e_branch2a": 1024, "bn4d_branch2a": 1024, "res4a_branch2c": 263168, "bn3c_branch2b": 512, "bn2b_branch2b": 256, "res2a_branch2c": 16640, "activation_22": 0, "bn4b_branch2a": 1024, "bn5c_branch2b": 2048, "activation_41": 0, "activation_1": 0, "input_1": 0, "activation_4": 0, "bn4c_branch2a": 1024, "add_15": 0, "bn3d_branch2a": 512, "bn4f_branch2a": 1024, "activation_24": 0, "res2b_branch2c": 16640, "res5b_branch2a": 1049088, "bn3a_branch2c": 2048, "avg_pool": 0, "bn3c_branch2c": 2048, "res2a_branch2b": 36928, "activation_23": 0, "res5a_branch2c": 1050624, "bn5c_branch2a": 2048, "res4d_branch2b": 590080, "res4c_branch2b": 590080, "bn4f_branch2b": 1024, "res4b_branch2b": 590080, "fc1000": 2049000, "bn4f_branch2c": 4096, "bn2c_branch2a": 256, "bn3b_branch2c": 2048, "activation_49": 0, "activation_6": 0, "activation_36": 0, "bn4e_branch2c": 4096, "activation_25": 0, "bn2a_branch2c": 1024, "bn5a_branch2c": 8192, "add_11": 0, "activation_21": 0, "activation_20": 0, "activation_18": 0, "res3d_branch2c": 66048, "activation_5": 0, "bn4a_branch2c": 4096, "activation_15": 0, "res4f_branch2a": 262400, "activation_39": 0, "bn2b_branch2c": 1024, "res3b_branch2c": 66048, "activation_45": 0, "add_2": 0, "res4a_branch2b": 590080, "activation_2": 0, "activation_19": 0, "add_14": 0, "activation_27": 0, "activation_47": 0, "add_10": 0, "res2a_branch2a": 4160, "bn4c_branch2c": 4096, "res4e_branch2a": 262400, "add_16": 0, "activation_8": 0, "activation_42": 0, "add_8": 0, "res3d_branch2a": 65664, "res3a_branch2c": 66048, "activation_16": 0, "add_4": 0, "res3c_branch2b": 147584, "res2b_branch2b": 36928, "res4b_branch2c": 263168, "bn3b_branch2a": 512, "activation_26": 0, "bn_conv1": 256, "res4c_branch2a": 262400, "max_pooling2d_1": 0, "bn3a_branch2b": 512, "bn2b_branch2a": 256, "res3c_branch2a": 65664, "activation_38": 0, "res5c_branch2c": 1050624}}