{"params": {"activation_5": 0, "batch_normalization_16": 2048, "activation_21": 0, "conv2d_11": 2359808, "conv2d_13": 2359808, "conv2d_18": 2359808, "batch_normalization_14": 2048, "batch_normalization_2": 256, "max_unpooling2d_1": 0, "conv2d_25": 36928, "batch_normalization_23": 512, "activation_1": 0, "conv2d_9": 2359808, "max_pooling_with_argmax2d_4": 0, "activation_3": 0, "batch_normalization_12": 2048, "activation_19": 0, "activation_8": 0, "activation_15": 0, "batch_normalization_19": 1024, "conv2d_3": 73856, "conv2d_14": 2359808, "max_pooling_with_argmax2d_2": 0, "conv2d_6": 590080, "batch_normalization_5": 1024, "activation_6": 0, "conv2d_19": 1179904, "input_1": 0, "conv2d_22": 295040, "activation_22": 0, "batch_normalization_10": 2048, "max_unpooling2d_4": 0, "batch_normalization_3": 512, "activation_14": 0, "conv2d_17": 2359808, "activation_20": 0, "batch_normalization_20": 1024, "batch_normalization_22": 512, "batch_normalization_25": 256, "conv2d_7": 590080, "batch_normalization_21": 1024, "batch_normalization_1": 256, "conv2d_12": 2359808, "activation_10": 0, "conv2d_24": 73792, "activation_2": 0, "batch_normalization_17": 2048, "batch_normalization_4": 512, "activation_12": 0, "conv2d_5": 295168, "activation_13": 0, "max_pooling_with_argmax2d_5": 0, "max_pooling_with_argmax2d_1": 0, "conv2d_20": 590080, "conv2d_26": 1300, "activation_16": 0, "batch_normalization_11": 2048, "batch_normalization_8": 2048, "batch_normalization_7": 1024, "conv2d_21": 590080, "batch_normalization_24": 256, "activation_7": 0, "activation_25": 0, "activation_4": 0, "batch_normalization_13": 2048, "batch_normalization_15": 2048, "batch_normalization_9": 2048, "activation_9": 0, "batch_normalization_26": 80, "max_unpooling2d_5": 0, "max_pooling_with_argmax2d_3": 0, "conv2d_23": 147584, "conv2d_4": 147584, "max_unpooling2d_3": 0, "activation_17": 0, "activation_24": 0, "conv2d_2": 36928, "batch_normalization_6": 1024, "activation_23": 0, "conv2d_1": 1792, "reshape_1": 0, "conv2d_8": 1180160, "max_unpooling2d_2": 0, "conv2d_10": 2359808, "activation_11": 0, "activation_18": 0, "conv2d_16": 2359808, "conv2d_15": 2359808, "batch_normalization_18": 2048, "activation_26": 0}, "backend": "tensorflow", "keras_version": "2.2.2", "config": {"name": "SegNet", "layers": [{"name": "input_1", "inbound_nodes": [], "config": {"batch_input_shape": [null, 224, 224, 3], "name": "input_1", "dtype": "float32", "sparse": false}, "class_name": "InputLayer"}, {"name": "conv2d_1", "inbound_nodes": [[["input_1", 0, 0, {}]]], "config": {"filters": 64, "kernel_initializer": {"config": {"scale": 1.0, "mode": "fan_avg", "seed": null, "distribution": "uniform"}, "class_name": "VarianceScaling"}, "data_format": "channels_last", "name": "conv2d_1", "bias_constraint": null, "kernel_size": [3, 3], "strides": [1, 1], "bias_regularizer": null, "bias_initializer": {"config": {}, "class_name": "Zeros"}, "activity_regularizer": null, "trainable": true, "dilation_rate": [1, 1], "kernel_regularizer": null, "kernel_constraint": null, "padding": "same", "activation": "linear", "use_bias": true}, "class_name": "Conv2D"}, {"name": "batch_normalization_1", "inbound_nodes": [[["conv2d_1", 0, 0, {}]]], "config": {"beta_regularizer": null, "name": "batch_normalization_1", "momentum": 0.99, "gamma_initializer": {"config": {}, "class_name": "Ones"}, "moving_mean_initializer": {"config": {}, "class_name": "Zeros"}, "beta_constraint": null, "moving_variance_initializer": {"config": {}, "class_name": "Ones"}, "trainable": true, "beta_initializer": {"config": {}, "class_name": "Zeros"}, "gamma_constraint": null, "scale": true, "epsilon": 0.001, "axis": -1, "gamma_regularizer": null, "center": true}, "class_name": "BatchNormalization"}, {"name": "activation_1", "inbound_nodes": [[["batch_normalization_1", 0, 0, {}]]], "config": {"name": "activation_1", "activation": "relu", "trainable": true}, "class_name": "Activation"}, {"name": "conv2d_2", "inbound_nodes": [[["activation_1", 0, 0, {}]]], "config": {"filters": 64, "kernel_initializer": {"config": {"scale": 1.0, "mode": "fan_avg", "seed": null, "distribution": "uniform"}, "class_name": "VarianceScaling"}, "data_format": "channels_last", "name": "conv2d_2", "bias_constraint": null, "kernel_size": [3, 3], "strides": [1, 1], "bias_regularizer": null, "bias_initializer": {"config": {}, "class_name": "Zeros"}, "activity_regularizer": null, "trainable": true, "dilation_rate": [1, 1], "kernel_regularizer": null, "kernel_constraint": null, "padding": "same", "activation": "linear", "use_bias": true}, "class_name": "Conv2D"}, {"name": "batch_normalization_2", "inbound_nodes": [[["conv2d_2", 0, 0, {}]]], "config": {"beta_regularizer": null, "name": "batch_normalization_2", "momentum": 0.99, "gamma_initializer": {"config": {}, "class_name": "Ones"}, "moving_mean_initializer": {"config": {}, "class_name": "Zeros"}, "beta_constraint": null, "moving_variance_initializer": {"config": {}, "class_name": "Ones"}, "trainable": true, "beta_initializer": {"config": {}, "class_name": "Zeros"}, "gamma_constraint": null, "scale": true, "epsilon": 0.001, "axis": -1, "gamma_regularizer": null, "center": true}, "class_name": "BatchNormalization"}, {"name": "activation_2", "inbound_nodes": [[["batch_normalization_2", 0, 0, {}]]], "config": {"name": "activation_2", "activation": "relu", "trainable": true}, "class_name": "Activation"}, {"name": "max_pooling_with_argmax2d_1", "inbound_nodes": [[["activation_2", 0, 0, {}]]], "config": {"name": "max_pooling_with_argmax2d_1", "trainable": true}, "class_name": "MaxPoolingWithArgmax2D"}, {"name": "conv2d_3", "inbound_nodes": [[["max_pooling_with_argmax2d_1", 0, 0, {}]]], "config": {"filters": 128, "kernel_initializer": {"config": {"scale": 1.0, "mode": "fan_avg", "seed": null, "distribution": "uniform"}, "class_name": "VarianceScaling"}, "data_format": "channels_last", "name": "conv2d_3", "bias_constraint": null, "kernel_size": [3, 3], "strides": [1, 1], "bias_regularizer": null, "bias_initializer": {"config": {}, "class_name": "Zeros"}, "activity_regularizer": null, "trainable": true, "dilation_rate": [1, 1], "kernel_regularizer": null, "kernel_constraint": null, "padding": "same", "activation": "linear", "use_bias": true}, "class_name": "Conv2D"}, {"name": "batch_normalization_3", "inbound_nodes": [[["conv2d_3", 0, 0, {}]]], "config": {"beta_regularizer": null, "name": "batch_normalization_3", "momentum": 0.99, "gamma_initializer": {"config": {}, "class_name": "Ones"}, "moving_mean_initializer": {"config": {}, "class_name": "Zeros"}, "beta_constraint": null, "moving_variance_initializer": {"config": {}, "class_name": "Ones"}, "trainable": true, "beta_initializer": {"config": {}, "class_name": "Zeros"}, "gamma_constraint": null, "scale": true, "epsilon": 0.001, "axis": -1, "gamma_regularizer": null, "center": true}, "class_name": "BatchNormalization"}, {"name": "activation_3", "inbound_nodes": [[["batch_normalization_3", 0, 0, {}]]], "config": {"name": "activation_3", "activation": "relu", "trainable": true}, "class_name": "Activation"}, {"name": "conv2d_4", "inbound_nodes": [[["activation_3", 0, 0, {}]]], "config": {"filters": 128, "kernel_initializer": {"config": {"scale": 1.0, "mode": "fan_avg", "seed": null, "distribution": "uniform"}, "class_name": "VarianceScaling"}, "data_format": "channels_last", "name": "conv2d_4", "bias_constraint": null, "kernel_size": [3, 3], "strides": [1, 1], "bias_regularizer": null, "bias_initializer": {"config": {}, "class_name": "Zeros"}, "activity_regularizer": null, "trainable": true, "dilation_rate": [1, 1], "kernel_regularizer": null, "kernel_constraint": null, "padding": "same", "activation": "linear", "use_bias": true}, "class_name": "Conv2D"}, {"name": "batch_normalization_4", "inbound_nodes": [[["conv2d_4", 0, 0, {}]]], "config": {"beta_regularizer": null, "name": "batch_normalization_4", "momentum": 0.99, "gamma_initializer": {"config": {}, "class_name": "Ones"}, "moving_mean_initializer": {"config": {}, "class_name": "Zeros"}, "beta_constraint": null, "moving_variance_initializer": {"config": {}, "class_name": "Ones"}, "trainable": true, "beta_initializer": {"config": {}, "class_name": "Zeros"}, "gamma_constraint": null, "scale": true, "epsilon": 0.001, "axis": -1, "gamma_regularizer": null, "center": true}, "class_name": "BatchNormalization"}, {"name": "activation_4", "inbound_nodes": [[["batch_normalization_4", 0, 0, {}]]], "config": {"name": "activation_4", "activation": "relu", "trainable": true}, "class_name": "Activation"}, {"name": "max_pooling_with_argmax2d_2", "inbound_nodes": [[["activation_4", 0, 0, {}]]], "config": {"name": "max_pooling_with_argmax2d_2", "trainable": true}, "class_name": "MaxPoolingWithArgmax2D"}, {"name": "conv2d_5", "inbound_nodes": [[["max_pooling_with_argmax2d_2", 0, 0, {}]]], "config": {"filters": 256, "kernel_initializer": {"config": {"scale": 1.0, "mode": "fan_avg", "seed": null, "distribution": "uniform"}, "class_name": "VarianceScaling"}, "data_format": "channels_last", "name": "conv2d_5", "bias_constraint": null, "kernel_size": [3, 3], "strides": [1, 1], "bias_regularizer": null, "bias_initializer": {"config": {}, "class_name": "Zeros"}, "activity_regularizer": null, "trainable": true, "dilation_rate": [1, 1], "kernel_regularizer": null, "kernel_constraint": null, "padding": "same", "activation": "linear", "use_bias": true}, "class_name": "Conv2D"}, {"name": "batch_normalization_5", "inbound_nodes": [[["conv2d_5", 0, 0, {}]]], "config": {"beta_regularizer": null, "name": "batch_normalization_5", "momentum": 0.99, "gamma_initializer": {"config": {}, "class_name": "Ones"}, "moving_mean_initializer": {"config": {}, "class_name": "Zeros"}, "beta_constraint": null, "moving_variance_initializer": {"config": {}, "class_name": "Ones"}, "trainable": true, "beta_initializer": {"config": {}, "class_name": "Zeros"}, "gamma_constraint": null, "scale": true, "epsilon": 0.001, "axis": -1, "gamma_regularizer": null, "center": true}, "class_name": "BatchNormalization"}, {"name": "activation_5", "inbound_nodes": [[["batch_normalization_5", 0, 0, {}]]], "config": {"name": "activation_5", "activation": "relu", "trainable": true}, "class_name": "Activation"}, {"name": "conv2d_6", "inbound_nodes": [[["activation_5", 0, 0, {}]]], "config": {"filters": 256, "kernel_initializer": {"config": {"scale": 1.0, "mode": "fan_avg", "seed": null, "distribution": "uniform"}, "class_name": "VarianceScaling"}, "data_format": "channels_last", "name": "conv2d_6", "bias_constraint": null, "kernel_size": [3, 3], "strides": [1, 1], "bias_regularizer": null, "bias_initializer": {"config": {}, "class_name": "Zeros"}, "activity_regularizer": null, "trainable": true, "dilation_rate": [1, 1], "kernel_regularizer": null, "kernel_constraint": null, "padding": "same", "activation": "linear", "use_bias": true}, "class_name": "Conv2D"}, {"name": "batch_normalization_6", "inbound_nodes": [[["conv2d_6", 0, 0, {}]]], "config": {"beta_regularizer": null, "name": "batch_normalization_6", "momentum": 0.99, "gamma_initializer": {"config": {}, "class_name": "Ones"}, "moving_mean_initializer": {"config": {}, "class_name": "Zeros"}, "beta_constraint": null, "moving_variance_initializer": {"config": {}, "class_name": "Ones"}, "trainable": true, "beta_initializer": {"config": {}, "class_name": "Zeros"}, "gamma_constraint": null, "scale": true, "epsilon": 0.001, "axis": -1, "gamma_regularizer": null, "center": true}, "class_name": "BatchNormalization"}, {"name": "activation_6", "inbound_nodes": [[["batch_normalization_6", 0, 0, {}]]], "config": {"name": "activation_6", "activation": "relu", "trainable": true}, "class_name": "Activation"}, {"name": "conv2d_7", "inbound_nodes": [[["activation_6", 0, 0, {}]]], "config": {"filters": 256, "kernel_initializer": {"config": {"scale": 1.0, "mode": "fan_avg", "seed": null, "distribution": "uniform"}, "class_name": "VarianceScaling"}, "data_format": "channels_last", "name": "conv2d_7", "bias_constraint": null, "kernel_size": [3, 3], "strides": [1, 1], "bias_regularizer": null, "bias_initializer": {"config": {}, "class_name": "Zeros"}, "activity_regularizer": null, "trainable": true, "dilation_rate": [1, 1], "kernel_regularizer": null, "kernel_constraint": null, "padding": "same", "activation": "linear", "use_bias": true}, "class_name": "Conv2D"}, {"name": "batch_normalization_7", "inbound_nodes": [[["conv2d_7", 0, 0, {}]]], "config": {"beta_regularizer": null, "name": "batch_normalization_7", "momentum": 0.99, "gamma_initializer": {"config": {}, "class_name": "Ones"}, "moving_mean_initializer": {"config": {}, "class_name": "Zeros"}, "beta_constraint": null, "moving_variance_initializer": {"config": {}, "class_name": "Ones"}, "trainable": true, "beta_initializer": {"config": {}, "class_name": "Zeros"}, "gamma_constraint": null, "scale": true, "epsilon": 0.001, "axis": -1, "gamma_regularizer": null, "center": true}, "class_name": "BatchNormalization"}, {"name": "activation_7", "inbound_nodes": [[["batch_normalization_7", 0, 0, {}]]], "config": {"name": "activation_7", "activation": "relu", "trainable": true}, "class_name": "Activation"}, {"name": "max_pooling_with_argmax2d_3", "inbound_nodes": [[["activation_7", 0, 0, {}]]], "config": {"name": "max_pooling_with_argmax2d_3", "trainable": true}, "class_name": "MaxPoolingWithArgmax2D"}, {"name": "conv2d_8", "inbound_nodes": [[["max_pooling_with_argmax2d_3", 0, 0, {}]]], "config": {"filters": 512, "kernel_initializer": {"config": {"scale": 1.0, "mode": "fan_avg", "seed": null, "distribution": "uniform"}, "class_name": "VarianceScaling"}, "data_format": "channels_last", "name": "conv2d_8", "bias_constraint": null, "kernel_size": [3, 3], "strides": [1, 1], "bias_regularizer": null, "bias_initializer": {"config": {}, "class_name": "Zeros"}, "activity_regularizer": null, "trainable": true, "dilation_rate": [1, 1], "kernel_regularizer": null, "kernel_constraint": null, "padding": "same", "activation": "linear", "use_bias": true}, "class_name": "Conv2D"}, {"name": "batch_normalization_8", "inbound_nodes": [[["conv2d_8", 0, 0, {}]]], "config": {"beta_regularizer": null, "name": "batch_normalization_8", "momentum": 0.99, "gamma_initializer": {"config": {}, "class_name": "Ones"}, "moving_mean_initializer": {"config": {}, "class_name": "Zeros"}, "beta_constraint": null, "moving_variance_initializer": {"config": {}, "class_name": "Ones"}, "trainable": true, "beta_initializer": {"config": {}, "class_name": "Zeros"}, "gamma_constraint": null, "scale": true, "epsilon": 0.001, "axis": -1, "gamma_regularizer": null, "center": true}, "class_name": "BatchNormalization"}, {"name": "activation_8", "inbound_nodes": [[["batch_normalization_8", 0, 0, {}]]], "config": {"name": "activation_8", "activation": "relu", "trainable": true}, "class_name": "Activation"}, {"name": "conv2d_9", "inbound_nodes": [[["activation_8", 0, 0, {}]]], "config": {"filters": 512, "kernel_initializer": {"config": {"scale": 1.0, "mode": "fan_avg", "seed": null, "distribution": "uniform"}, "class_name": "VarianceScaling"}, "data_format": "channels_last", "name": "conv2d_9", "bias_constraint": null, "kernel_size": [3, 3], "strides": [1, 1], "bias_regularizer": null, "bias_initializer": {"config": {}, "class_name": "Zeros"}, "activity_regularizer": null, "trainable": true, "dilation_rate": [1, 1], "kernel_regularizer": null, "kernel_constraint": null, "padding": "same", "activation": "linear", "use_bias": true}, "class_name": "Conv2D"}, {"name": "batch_normalization_9", "inbound_nodes": [[["conv2d_9", 0, 0, {}]]], "config": {"beta_regularizer": null, "name": "batch_normalization_9", "momentum": 0.99, "gamma_initializer": {"config": {}, "class_name": "Ones"}, "moving_mean_initializer": {"config": {}, "class_name": "Zeros"}, "beta_constraint": null, "moving_variance_initializer": {"config": {}, "class_name": "Ones"}, "trainable": true, "beta_initializer": {"config": {}, "class_name": "Zeros"}, "gamma_constraint": null, "scale": true, "epsilon": 0.001, "axis": -1, "gamma_regularizer": null, "center": true}, "class_name": "BatchNormalization"}, {"name": "activation_9", "inbound_nodes": [[["batch_normalization_9", 0, 0, {}]]], "config": {"name": "activation_9", "activation": "relu", "trainable": true}, "class_name": "Activation"}, {"name": "conv2d_10", "inbound_nodes": [[["activation_9", 0, 0, {}]]], "config": {"filters": 512, "kernel_initializer": {"config": {"scale": 1.0, "mode": "fan_avg", "seed": null, "distribution": "uniform"}, "class_name": "VarianceScaling"}, "data_format": "channels_last", "name": "conv2d_10", "bias_constraint": null, "kernel_size": [3, 3], "strides": [1, 1], "bias_regularizer": null, "bias_initializer": {"config": {}, "class_name": "Zeros"}, "activity_regularizer": null, "trainable": true, "dilation_rate": [1, 1], "kernel_regularizer": null, "kernel_constraint": null, "padding": "same", "activation": "linear", "use_bias": true}, "class_name": "Conv2D"}, {"name": "batch_normalization_10", "inbound_nodes": [[["conv2d_10", 0, 0, {}]]], "config": {"beta_regularizer": null, "name": "batch_normalization_10", "momentum": 0.99, "gamma_initializer": {"config": {}, "class_name": "Ones"}, "moving_mean_initializer": {"config": {}, "class_name": "Zeros"}, "beta_constraint": null, "moving_variance_initializer": {"config": {}, "class_name": "Ones"}, "trainable": true, "beta_initializer": {"config": {}, "class_name": "Zeros"}, "gamma_constraint": null, "scale": true, "epsilon": 0.001, "axis": -1, "gamma_regularizer": null, "center": true}, "class_name": "BatchNormalization"}, {"name": "activation_10", "inbound_nodes": [[["batch_normalization_10", 0, 0, {}]]], "config": {"name": "activation_10", "activation": "relu", "trainable": true}, "class_name": "Activation"}, {"name": "max_pooling_with_argmax2d_4", "inbound_nodes": [[["activation_10", 0, 0, {}]]], "config": {"name": "max_pooling_with_argmax2d_4", "trainable": true}, "class_name": "MaxPoolingWithArgmax2D"}, {"name": "conv2d_11", "inbound_nodes": [[["max_pooling_with_argmax2d_4", 0, 0, {}]]], "config": {"filters": 512, "kernel_initializer": {"config": {"scale": 1.0, "mode": "fan_avg", "seed": null, "distribution": "uniform"}, "class_name": "VarianceScaling"}, "data_format": "channels_last", "name": "conv2d_11", "bias_constraint": null, "kernel_size": [3, 3], "strides": [1, 1], "bias_regularizer": null, "bias_initializer": {"config": {}, "class_name": "Zeros"}, "activity_regularizer": null, "trainable": true, "dilation_rate": [1, 1], "kernel_regularizer": null, "kernel_constraint": null, "padding": "same", "activation": "linear", "use_bias": true}, "class_name": "Conv2D"}, {"name": "batch_normalization_11", "inbound_nodes": [[["conv2d_11", 0, 0, {}]]], "config": {"beta_regularizer": null, "name": "batch_normalization_11", "momentum": 0.99, "gamma_initializer": {"config": {}, "class_name": "Ones"}, "moving_mean_initializer": {"config": {}, "class_name": "Zeros"}, "beta_constraint": null, "moving_variance_initializer": {"config": {}, "class_name": "Ones"}, "trainable": true, "beta_initializer": {"config": {}, "class_name": "Zeros"}, "gamma_constraint": null, "scale": true, "epsilon": 0.001, "axis": -1, "gamma_regularizer": null, "center": true}, "class_name": "BatchNormalization"}, {"name": "activation_11", "inbound_nodes": [[["batch_normalization_11", 0, 0, {}]]], "config": {"name": "activation_11", "activation": "relu", "trainable": true}, "class_name": "Activation"}, {"name": "conv2d_12", "inbound_nodes": [[["activation_11", 0, 0, {}]]], "config": {"filters": 512, "kernel_initializer": {"config": {"scale": 1.0, "mode": "fan_avg", "seed": null, "distribution": "uniform"}, "class_name": "VarianceScaling"}, "data_format": "channels_last", "name": "conv2d_12", "bias_constraint": null, "kernel_size": [3, 3], "strides": [1, 1], "bias_regularizer": null, "bias_initializer": {"config": {}, "class_name": "Zeros"}, "activity_regularizer": null, "trainable": true, "dilation_rate": [1, 1], "kernel_regularizer": null, "kernel_constraint": null, "padding": "same", "activation": "linear", "use_bias": true}, "class_name": "Conv2D"}, {"name": "batch_normalization_12", "inbound_nodes": [[["conv2d_12", 0, 0, {}]]], "config": {"beta_regularizer": null, "name": "batch_normalization_12", "momentum": 0.99, "gamma_initializer": {"config": {}, "class_name": "Ones"}, "moving_mean_initializer": {"config": {}, "class_name": "Zeros"}, "beta_constraint": null, "moving_variance_initializer": {"config": {}, "class_name": "Ones"}, "trainable": true, "beta_initializer": {"config": {}, "class_name": "Zeros"}, "gamma_constraint": null, "scale": true, "epsilon": 0.001, "axis": -1, "gamma_regularizer": null, "center": true}, "class_name": "BatchNormalization"}, {"name": "activation_12", "inbound_nodes": [[["batch_normalization_12", 0, 0, {}]]], "config": {"name": "activation_12", "activation": "relu", "trainable": true}, "class_name": "Activation"}, {"name": "conv2d_13", "inbound_nodes": [[["activation_12", 0, 0, {}]]], "config": {"filters": 512, "kernel_initializer": {"config": {"scale": 1.0, "mode": "fan_avg", "seed": null, "distribution": "uniform"}, "class_name": "VarianceScaling"}, "data_format": "channels_last", "name": "conv2d_13", "bias_constraint": null, "kernel_size": [3, 3], "strides": [1, 1], "bias_regularizer": null, "bias_initializer": {"config": {}, "class_name": "Zeros"}, "activity_regularizer": null, "trainable": true, "dilation_rate": [1, 1], "kernel_regularizer": null, "kernel_constraint": null, "padding": "same", "activation": "linear", "use_bias": true}, "class_name": "Conv2D"}, {"name": "batch_normalization_13", "inbound_nodes": [[["conv2d_13", 0, 0, {}]]], "config": {"beta_regularizer": null, "name": "batch_normalization_13", "momentum": 0.99, "gamma_initializer": {"config": {}, "class_name": "Ones"}, "moving_mean_initializer": {"config": {}, "class_name": "Zeros"}, "beta_constraint": null, "moving_variance_initializer": {"config": {}, "class_name": "Ones"}, "trainable": true, "beta_initializer": {"config": {}, "class_name": "Zeros"}, "gamma_constraint": null, "scale": true, "epsilon": 0.001, "axis": -1, "gamma_regularizer": null, "center": true}, "class_name": "BatchNormalization"}, {"name": "activation_13", "inbound_nodes": [[["batch_normalization_13", 0, 0, {}]]], "config": {"name": "activation_13", "activation": "relu", "trainable": true}, "class_name": "Activation"}, {"name": "max_pooling_with_argmax2d_5", "inbound_nodes": [[["activation_13", 0, 0, {}]]], "config": {"name": "max_pooling_with_argmax2d_5", "trainable": true}, "class_name": "MaxPoolingWithArgmax2D"}, {"name": "max_unpooling2d_1", "inbound_nodes": [[["max_pooling_with_argmax2d_5", 0, 0, {}], ["max_pooling_with_argmax2d_5", 0, 1, {}]]], "config": {"name": "max_unpooling2d_1", "trainable": true}, "class_name": "MaxUnpooling2D"}, {"name": "conv2d_14", "inbound_nodes": [[["max_unpooling2d_1", 0, 0, {}]]], "config": {"filters": 512, "kernel_initializer": {"config": {"scale": 1.0, "mode": "fan_avg", "seed": null, "distribution": "uniform"}, "class_name": "VarianceScaling"}, "data_format": "channels_last", "name": "conv2d_14", "bias_constraint": null, "kernel_size": [3, 3], "strides": [1, 1], "bias_regularizer": null, "bias_initializer": {"config": {}, "class_name": "Zeros"}, "activity_regularizer": null, "trainable": true, "dilation_rate": [1, 1], "kernel_regularizer": null, "kernel_constraint": null, "padding": "same", "activation": "linear", "use_bias": true}, "class_name": "Conv2D"}, {"name": "batch_normalization_14", "inbound_nodes": [[["conv2d_14", 0, 0, {}]]], "config": {"beta_regularizer": null, "name": "batch_normalization_14", "momentum": 0.99, "gamma_initializer": {"config": {}, "class_name": "Ones"}, "moving_mean_initializer": {"config": {}, "class_name": "Zeros"}, "beta_constraint": null, "moving_variance_initializer": {"config": {}, "class_name": "Ones"}, "trainable": true, "beta_initializer": {"config": {}, "class_name": "Zeros"}, "gamma_constraint": null, "scale": true, "epsilon": 0.001, "axis": -1, "gamma_regularizer": null, "center": true}, "class_name": "BatchNormalization"}, {"name": "activation_14", "inbound_nodes": [[["batch_normalization_14", 0, 0, {}]]], "config": {"name": "activation_14", "activation": "relu", "trainable": true}, "class_name": "Activation"}, {"name": "conv2d_15", "inbound_nodes": [[["activation_14", 0, 0, {}]]], "config": {"filters": 512, "kernel_initializer": {"config": {"scale": 1.0, "mode": "fan_avg", "seed": null, "distribution": "uniform"}, "class_name": "VarianceScaling"}, "data_format": "channels_last", "name": "conv2d_15", "bias_constraint": null, "kernel_size": [3, 3], "strides": [1, 1], "bias_regularizer": null, "bias_initializer": {"config": {}, "class_name": "Zeros"}, "activity_regularizer": null, "trainable": true, "dilation_rate": [1, 1], "kernel_regularizer": null, "kernel_constraint": null, "padding": "same", "activation": "linear", "use_bias": true}, "class_name": "Conv2D"}, {"name": "batch_normalization_15", "inbound_nodes": [[["conv2d_15", 0, 0, {}]]], "config": {"beta_regularizer": null, "name": "batch_normalization_15", "momentum": 0.99, "gamma_initializer": {"config": {}, "class_name": "Ones"}, "moving_mean_initializer": {"config": {}, "class_name": "Zeros"}, "beta_constraint": null, "moving_variance_initializer": {"config": {}, "class_name": "Ones"}, "trainable": true, "beta_initializer": {"config": {}, "class_name": "Zeros"}, "gamma_constraint": null, "scale": true, "epsilon": 0.001, "axis": -1, "gamma_regularizer": null, "center": true}, "class_name": "BatchNormalization"}, {"name": "activation_15", "inbound_nodes": [[["batch_normalization_15", 0, 0, {}]]], "config": {"name": "activation_15", "activation": "relu", "trainable": true}, "class_name": "Activation"}, {"name": "conv2d_16", "inbound_nodes": [[["activation_15", 0, 0, {}]]], "config": {"filters": 512, "kernel_initializer": {"config": {"scale": 1.0, "mode": "fan_avg", "seed": null, "distribution": "uniform"}, "class_name": "VarianceScaling"}, "data_format": "channels_last", "name": "conv2d_16", "bias_constraint": null, "kernel_size": [3, 3], "strides": [1, 1], "bias_regularizer": null, "bias_initializer": {"config": {}, "class_name": "Zeros"}, "activity_regularizer": null, "trainable": true, "dilation_rate": [1, 1], "kernel_regularizer": null, "kernel_constraint": null, "padding": "same", "activation": "linear", "use_bias": true}, "class_name": "Conv2D"}, {"name": "batch_normalization_16", "inbound_nodes": [[["conv2d_16", 0, 0, {}]]], "config": {"beta_regularizer": null, "name": "batch_normalization_16", "momentum": 0.99, "gamma_initializer": {"config": {}, "class_name": "Ones"}, "moving_mean_initializer": {"config": {}, "class_name": "Zeros"}, "beta_constraint": null, "moving_variance_initializer": {"config": {}, "class_name": "Ones"}, "trainable": true, "beta_initializer": {"config": {}, "class_name": "Zeros"}, "gamma_constraint": null, "scale": true, "epsilon": 0.001, "axis": -1, "gamma_regularizer": null, "center": true}, "class_name": "BatchNormalization"}, {"name": "activation_16", "inbound_nodes": [[["batch_normalization_16", 0, 0, {}]]], "config": {"name": "activation_16", "activation": "relu", "trainable": true}, "class_name": "Activation"}, {"name": "max_unpooling2d_2", "inbound_nodes": [[["activation_16", 0, 0, {}], ["max_pooling_with_argmax2d_4", 0, 1, {}]]], "config": {"name": "max_unpooling2d_2", "trainable": true}, "class_name": "MaxUnpooling2D"}, {"name": "conv2d_17", "inbound_nodes": [[["max_unpooling2d_2", 0, 0, {}]]], "config": {"filters": 512, "kernel_initializer": {"config": {"scale": 1.0, "mode": "fan_avg", "seed": null, "distribution": "uniform"}, "class_name": "VarianceScaling"}, "data_format": "channels_last", "name": "conv2d_17", "bias_constraint": null, "kernel_size": [3, 3], "strides": [1, 1], "bias_regularizer": null, "bias_initializer": {"config": {}, "class_name": "Zeros"}, "activity_regularizer": null, "trainable": true, "dilation_rate": [1, 1], "kernel_regularizer": null, "kernel_constraint": null, "padding": "same", "activation": "linear", "use_bias": true}, "class_name": "Conv2D"}, {"name": "batch_normalization_17", "inbound_nodes": [[["conv2d_17", 0, 0, {}]]], "config": {"beta_regularizer": null, "name": "batch_normalization_17", "momentum": 0.99, "gamma_initializer": {"config": {}, "class_name": "Ones"}, "moving_mean_initializer": {"config": {}, "class_name": "Zeros"}, "beta_constraint": null, "moving_variance_initializer": {"config": {}, "class_name": "Ones"}, "trainable": true, "beta_initializer": {"config": {}, "class_name": "Zeros"}, "gamma_constraint": null, "scale": true, "epsilon": 0.001, "axis": -1, "gamma_regularizer": null, "center": true}, "class_name": "BatchNormalization"}, {"name": "activation_17", "inbound_nodes": [[["batch_normalization_17", 0, 0, {}]]], "config": {"name": "activation_17", "activation": "relu", "trainable": true}, "class_name": "Activation"}, {"name": "conv2d_18", "inbound_nodes": [[["activation_17", 0, 0, {}]]], "config": {"filters": 512, "kernel_initializer": {"config": {"scale": 1.0, "mode": "fan_avg", "seed": null, "distribution": "uniform"}, "class_name": "VarianceScaling"}, "data_format": "channels_last", "name": "conv2d_18", "bias_constraint": null, "kernel_size": [3, 3], "strides": [1, 1], "bias_regularizer": null, "bias_initializer": {"config": {}, "class_name": "Zeros"}, "activity_regularizer": null, "trainable": true, "dilation_rate": [1, 1], "kernel_regularizer": null, "kernel_constraint": null, "padding": "same", "activation": "linear", "use_bias": true}, "class_name": "Conv2D"}, {"name": "batch_normalization_18", "inbound_nodes": [[["conv2d_18", 0, 0, {}]]], "config": {"beta_regularizer": null, "name": "batch_normalization_18", "momentum": 0.99, "gamma_initializer": {"config": {}, "class_name": "Ones"}, "moving_mean_initializer": {"config": {}, "class_name": "Zeros"}, "beta_constraint": null, "moving_variance_initializer": {"config": {}, "class_name": "Ones"}, "trainable": true, "beta_initializer": {"config": {}, "class_name": "Zeros"}, "gamma_constraint": null, "scale": true, "epsilon": 0.001, "axis": -1, "gamma_regularizer": null, "center": true}, "class_name": "BatchNormalization"}, {"name": "activation_18", "inbound_nodes": [[["batch_normalization_18", 0, 0, {}]]], "config": {"name": "activation_18", "activation": "relu", "trainable": true}, "class_name": "Activation"}, {"name": "conv2d_19", "inbound_nodes": [[["activation_18", 0, 0, {}]]], "config": {"filters": 256, "kernel_initializer": {"config": {"scale": 1.0, "mode": "fan_avg", "seed": null, "distribution": "uniform"}, "class_name": "VarianceScaling"}, "data_format": "channels_last", "name": "conv2d_19", "bias_constraint": null, "kernel_size": [3, 3], "strides": [1, 1], "bias_regularizer": null, "bias_initializer": {"config": {}, "class_name": "Zeros"}, "activity_regularizer": null, "trainable": true, "dilation_rate": [1, 1], "kernel_regularizer": null, "kernel_constraint": null, "padding": "same", "activation": "linear", "use_bias": true}, "class_name": "Conv2D"}, {"name": "batch_normalization_19", "inbound_nodes": [[["conv2d_19", 0, 0, {}]]], "config": {"beta_regularizer": null, "name": "batch_normalization_19", "momentum": 0.99, "gamma_initializer": {"config": {}, "class_name": "Ones"}, "moving_mean_initializer": {"config": {}, "class_name": "Zeros"}, "beta_constraint": null, "moving_variance_initializer": {"config": {}, "class_name": "Ones"}, "trainable": true, "beta_initializer": {"config": {}, "class_name": "Zeros"}, "gamma_constraint": null, "scale": true, "epsilon": 0.001, "axis": -1, "gamma_regularizer": null, "center": true}, "class_name": "BatchNormalization"}, {"name": "activation_19", "inbound_nodes": [[["batch_normalization_19", 0, 0, {}]]], "config": {"name": "activation_19", "activation": "relu", "trainable": true}, "class_name": "Activation"}, {"name": "max_unpooling2d_3", "inbound_nodes": [[["activation_19", 0, 0, {}], ["max_pooling_with_argmax2d_3", 0, 1, {}]]], "config": {"name": "max_unpooling2d_3", "trainable": true}, "class_name": "MaxUnpooling2D"}, {"name": "conv2d_20", "inbound_nodes": [[["max_unpooling2d_3", 0, 0, {}]]], "config": {"filters": 256, "kernel_initializer": {"config": {"scale": 1.0, "mode": "fan_avg", "seed": null, "distribution": "uniform"}, "class_name": "VarianceScaling"}, "data_format": "channels_last", "name": "conv2d_20", "bias_constraint": null, "kernel_size": [3, 3], "strides": [1, 1], "bias_regularizer": null, "bias_initializer": {"config": {}, "class_name": "Zeros"}, "activity_regularizer": null, "trainable": true, "dilation_rate": [1, 1], "kernel_regularizer": null, "kernel_constraint": null, "padding": "same", "activation": "linear", "use_bias": true}, "class_name": "Conv2D"}, {"name": "batch_normalization_20", "inbound_nodes": [[["conv2d_20", 0, 0, {}]]], "config": {"beta_regularizer": null, "name": "batch_normalization_20", "momentum": 0.99, "gamma_initializer": {"config": {}, "class_name": "Ones"}, "moving_mean_initializer": {"config": {}, "class_name": "Zeros"}, "beta_constraint": null, "moving_variance_initializer": {"config": {}, "class_name": "Ones"}, "trainable": true, "beta_initializer": {"config": {}, "class_name": "Zeros"}, "gamma_constraint": null, "scale": true, "epsilon": 0.001, "axis": -1, "gamma_regularizer": null, "center": true}, "class_name": "BatchNormalization"}, {"name": "activation_20", "inbound_nodes": [[["batch_normalization_20", 0, 0, {}]]], "config": {"name": "activation_20", "activation": "relu", "trainable": true}, "class_name": "Activation"}, {"name": "conv2d_21", "inbound_nodes": [[["activation_20", 0, 0, {}]]], "config": {"filters": 256, "kernel_initializer": {"config": {"scale": 1.0, "mode": "fan_avg", "seed": null, "distribution": "uniform"}, "class_name": "VarianceScaling"}, "data_format": "channels_last", "name": "conv2d_21", "bias_constraint": null, "kernel_size": [3, 3], "strides": [1, 1], "bias_regularizer": null, "bias_initializer": {"config": {}, "class_name": "Zeros"}, "activity_regularizer": null, "trainable": true, "dilation_rate": [1, 1], "kernel_regularizer": null, "kernel_constraint": null, "padding": "same", "activation": "linear", "use_bias": true}, "class_name": "Conv2D"}, {"name": "batch_normalization_21", "inbound_nodes": [[["conv2d_21", 0, 0, {}]]], "config": {"beta_regularizer": null, "name": "batch_normalization_21", "momentum": 0.99, "gamma_initializer": {"config": {}, "class_name": "Ones"}, "moving_mean_initializer": {"config": {}, "class_name": "Zeros"}, "beta_constraint": null, "moving_variance_initializer": {"config": {}, "class_name": "Ones"}, "trainable": true, "beta_initializer": {"config": {}, "class_name": "Zeros"}, "gamma_constraint": null, "scale": true, "epsilon": 0.001, "axis": -1, "gamma_regularizer": null, "center": true}, "class_name": "BatchNormalization"}, {"name": "activation_21", "inbound_nodes": [[["batch_normalization_21", 0, 0, {}]]], "config": {"name": "activation_21", "activation": "relu", "trainable": true}, "class_name": "Activation"}, {"name": "conv2d_22", "inbound_nodes": [[["activation_21", 0, 0, {}]]], "config": {"filters": 128, "kernel_initializer": {"config": {"scale": 1.0, "mode": "fan_avg", "seed": null, "distribution": "uniform"}, "class_name": "VarianceScaling"}, "data_format": "channels_last", "name": "conv2d_22", "bias_constraint": null, "kernel_size": [3, 3], "strides": [1, 1], "bias_regularizer": null, "bias_initializer": {"config": {}, "class_name": "Zeros"}, "activity_regularizer": null, "trainable": true, "dilation_rate": [1, 1], "kernel_regularizer": null, "kernel_constraint": null, "padding": "same", "activation": "linear", "use_bias": true}, "class_name": "Conv2D"}, {"name": "batch_normalization_22", "inbound_nodes": [[["conv2d_22", 0, 0, {}]]], "config": {"beta_regularizer": null, "name": "batch_normalization_22", "momentum": 0.99, "gamma_initializer": {"config": {}, "class_name": "Ones"}, "moving_mean_initializer": {"config": {}, "class_name": "Zeros"}, "beta_constraint": null, "moving_variance_initializer": {"config": {}, "class_name": "Ones"}, "trainable": true, "beta_initializer": {"config": {}, "class_name": "Zeros"}, "gamma_constraint": null, "scale": true, "epsilon": 0.001, "axis": -1, "gamma_regularizer": null, "center": true}, "class_name": "BatchNormalization"}, {"name": "activation_22", "inbound_nodes": [[["batch_normalization_22", 0, 0, {}]]], "config": {"name": "activation_22", "activation": "relu", "trainable": true}, "class_name": "Activation"}, {"name": "max_unpooling2d_4", "inbound_nodes": [[["activation_22", 0, 0, {}], ["max_pooling_with_argmax2d_2", 0, 1, {}]]], "config": {"name": "max_unpooling2d_4", "trainable": true}, "class_name": "MaxUnpooling2D"}, {"name": "conv2d_23", "inbound_nodes": [[["max_unpooling2d_4", 0, 0, {}]]], "config": {"filters": 128, "kernel_initializer": {"config": {"scale": 1.0, "mode": "fan_avg", "seed": null, "distribution": "uniform"}, "class_name": "VarianceScaling"}, "data_format": "channels_last", "name": "conv2d_23", "bias_constraint": null, "kernel_size": [3, 3], "strides": [1, 1], "bias_regularizer": null, "bias_initializer": {"config": {}, "class_name": "Zeros"}, "activity_regularizer": null, "trainable": true, "dilation_rate": [1, 1], "kernel_regularizer": null, "kernel_constraint": null, "padding": "same", "activation": "linear", "use_bias": true}, "class_name": "Conv2D"}, {"name": "batch_normalization_23", "inbound_nodes": [[["conv2d_23", 0, 0, {}]]], "config": {"beta_regularizer": null, "name": "batch_normalization_23", "momentum": 0.99, "gamma_initializer": {"config": {}, "class_name": "Ones"}, "moving_mean_initializer": {"config": {}, "class_name": "Zeros"}, "beta_constraint": null, "moving_variance_initializer": {"config": {}, "class_name": "Ones"}, "trainable": true, "beta_initializer": {"config": {}, "class_name": "Zeros"}, "gamma_constraint": null, "scale": true, "epsilon": 0.001, "axis": -1, "gamma_regularizer": null, "center": true}, "class_name": "BatchNormalization"}, {"name": "activation_23", "inbound_nodes": [[["batch_normalization_23", 0, 0, {}]]], "config": {"name": "activation_23", "activation": "relu", "trainable": true}, "class_name": "Activation"}, {"name": "conv2d_24", "inbound_nodes": [[["activation_23", 0, 0, {}]]], "config": {"filters": 64, "kernel_initializer": {"config": {"scale": 1.0, "mode": "fan_avg", "seed": null, "distribution": "uniform"}, "class_name": "VarianceScaling"}, "data_format": "channels_last", "name": "conv2d_24", "bias_constraint": null, "kernel_size": [3, 3], "strides": [1, 1], "bias_regularizer": null, "bias_initializer": {"config": {}, "class_name": "Zeros"}, "activity_regularizer": null, "trainable": true, "dilation_rate": [1, 1], "kernel_regularizer": null, "kernel_constraint": null, "padding": "same", "activation": "linear", "use_bias": true}, "class_name": "Conv2D"}, {"name": "batch_normalization_24", "inbound_nodes": [[["conv2d_24", 0, 0, {}]]], "config": {"beta_regularizer": null, "name": "batch_normalization_24", "momentum": 0.99, "gamma_initializer": {"config": {}, "class_name": "Ones"}, "moving_mean_initializer": {"config": {}, "class_name": "Zeros"}, "beta_constraint": null, "moving_variance_initializer": {"config": {}, "class_name": "Ones"}, "trainable": true, "beta_initializer": {"config": {}, "class_name": "Zeros"}, "gamma_constraint": null, "scale": true, "epsilon": 0.001, "axis": -1, "gamma_regularizer": null, "center": true}, "class_name": "BatchNormalization"}, {"name": "activation_24", "inbound_nodes": [[["batch_normalization_24", 0, 0, {}]]], "config": {"name": "activation_24", "activation": "relu", "trainable": true}, "class_name": "Activation"}, {"name": "max_unpooling2d_5", "inbound_nodes": [[["activation_24", 0, 0, {}], ["max_pooling_with_argmax2d_1", 0, 1, {}]]], "config": {"name": "max_unpooling2d_5", "trainable": true}, "class_name": "MaxUnpooling2D"}, {"name": "conv2d_25", "inbound_nodes": [[["max_unpooling2d_5", 0, 0, {}]]], "config": {"filters": 64, "kernel_initializer": {"config": {"scale": 1.0, "mode": "fan_avg", "seed": null, "distribution": "uniform"}, "class_name": "VarianceScaling"}, "data_format": "channels_last", "name": "conv2d_25", "bias_constraint": null, "kernel_size": [3, 3], "strides": [1, 1], "bias_regularizer": null, "bias_initializer": {"config": {}, "class_name": "Zeros"}, "activity_regularizer": null, "trainable": true, "dilation_rate": [1, 1], "kernel_regularizer": null, "kernel_constraint": null, "padding": "same", "activation": "linear", "use_bias": true}, "class_name": "Conv2D"}, {"name": "batch_normalization_25", "inbound_nodes": [[["conv2d_25", 0, 0, {}]]], "config": {"beta_regularizer": null, "name": "batch_normalization_25", "momentum": 0.99, "gamma_initializer": {"config": {}, "class_name": "Ones"}, "moving_mean_initializer": {"config": {}, "class_name": "Zeros"}, "beta_constraint": null, "moving_variance_initializer": {"config": {}, "class_name": "Ones"}, "trainable": true, "beta_initializer": {"config": {}, "class_name": "Zeros"}, "gamma_constraint": null, "scale": true, "epsilon": 0.001, "axis": -1, "gamma_regularizer": null, "center": true}, "class_name": "BatchNormalization"}, {"name": "activation_25", "inbound_nodes": [[["batch_normalization_25", 0, 0, {}]]], "config": {"name": "activation_25", "activation": "relu", "trainable": true}, "class_name": "Activation"}, {"name": "conv2d_26", "inbound_nodes": [[["activation_25", 0, 0, {}]]], "config": {"filters": 20, "kernel_initializer": {"config": {"scale": 1.0, "mode": "fan_avg", "seed": null, "distribution": "uniform"}, "class_name": "VarianceScaling"}, "data_format": "channels_last", "name": "conv2d_26", "bias_constraint": null, "kernel_size": [1, 1], "strides": [1, 1], "bias_regularizer": null, "bias_initializer": {"config": {}, "class_name": "Zeros"}, "activity_regularizer": null, "trainable": true, "dilation_rate": [1, 1], "kernel_regularizer": null, "kernel_constraint": null, "padding": "valid", "activation": "linear", "use_bias": true}, "class_name": "Conv2D"}, {"name": "batch_normalization_26", "inbound_nodes": [[["conv2d_26", 0, 0, {}]]], "config": {"beta_regularizer": null, "name": "batch_normalization_26", "momentum": 0.99, "gamma_initializer": {"config": {}, "class_name": "Ones"}, "moving_mean_initializer": {"config": {}, "class_name": "Zeros"}, "beta_constraint": null, "moving_variance_initializer": {"config": {}, "class_name": "Ones"}, "trainable": true, "beta_initializer": {"config": {}, "class_name": "Zeros"}, "gamma_constraint": null, "scale": true, "epsilon": 0.001, "axis": -1, "gamma_regularizer": null, "center": true}, "class_name": "BatchNormalization"}, {"name": "reshape_1", "inbound_nodes": [[["batch_normalization_26", 0, 0, {}]]], "config": {"batch_input_shape": [null, 224, 224, 20], "name": "reshape_1", "dtype": "float32", "target_shape": [50176, 20], "trainable": true}, "class_name": "Reshape"}, {"name": "activation_26", "inbound_nodes": [[["reshape_1", 0, 0, {}]]], "config": {"name": "activation_26", "activation": "softmax", "trainable": true}, "class_name": "Activation"}], "output_layers": [["activation_26", 0, 0]], "input_layers": [["input_1", 0, 0]]}, "class_name": "Model"}