{"class_name": "Model", "config": {"name": "model_1", "layers": [{"name": "input_1", "class_name": "InputLayer", "config": {"batch_input_shape": [null, 300, 300, 3], "dtype": "float32", "sparse": false, "name": "input_1"}, "inbound_nodes": []}, {"name": "identity_layer", "class_name": "Lambda", "config": {"name": "identity_layer", "trainable": true, "function": ["4wEAAAAAAAAAAQAAAAEAAABTAAAAcwQAAAB8AFMAKQFOqQApAdoGdGVuc29ycgEAAAByAQAAAPpG\nL1VzZXJzL3dhbmdxaWFud2VuL0RvY3VtZW50cy9naXRfcmVwby9zc2Rfa2VyYXMvbW9kZWxzL2tl\ncmFzX3NzZDMwMC5wedoOaWRlbnRpdHlfbGF5ZXL0AAAAcwIAAAAAAQ==\n", null, null], "function_type": "lambda", "output_shape": [300, 300, 3], "output_shape_type": "raw", "arguments": {}}, "inbound_nodes": [[["input_1", 0, 0, {}]]]}, {"name": "input_mean_normalization", "class_name": "Lambda", "config": {"name": "input_mean_normalization", "trainable": true, "function": ["4wEAAAAAAAAAAQAAAAMAAAATAAAAcw4AAAB8AHQAagGIAIMBGABTACkBTikC2gJucNoFYXJyYXkp\nAdoGdGVuc29yKQHaDXN1YnRyYWN0X21lYW6pAPpGL1VzZXJzL3dhbmdxaWFud2VuL0RvY3VtZW50\ncy9naXRfcmVwby9zc2Rfa2VyYXMvbW9kZWxzL2tlcmFzX3NzZDMwMC5wedoYaW5wdXRfbWVhbl9u\nb3JtYWxpemF0aW9u9wAAAHMCAAAAAAE=\n", null, [[123, 117, 104]]], "function_type": "lambda", "output_shape": [300, 300, 3], "output_shape_type": "raw", "arguments": {}}, "inbound_nodes": [[["identity_layer", 0, 0, {}]]]}, {"name": "input_channel_swap", "class_name": "Lambda", "config": {"name": "input_channel_swap", "trainable": true, "function": ["4wEAAAAAAAAAAQAAAAgAAAATAAAAc5oAAAB0AIgAgwFkAWsCckR0AWoCfABkAogAZAMZAGYCGQB8\nAGQCiABkBBkAZgIZAHwAZAKIAGQFGQBmAhkAZwNkCGQGjQJTAHQAiACDAWQHawJylnQBagJ8AGQC\niABkAxkAZgIZAHwAZAKIAGQEGQBmAhkAfABkAogAZAUZAGYCGQB8AGQCiABkARkAZgIZAGcEZAlk\nBo0CUwBkAFMAKQpO6QMAAAAu6QAAAADpAQAAAOkCAAAAKQHaBGF4aXPpBAAAAOn/////cgcAAAAp\nA9oDbGVu2gFL2gVzdGFjaykB2gZ0ZW5zb3IpAdoNc3dhcF9jaGFubmVsc6kA+kYvVXNlcnMvd2Fu\nZ3FpYW53ZW4vRG9jdW1lbnRzL2dpdF9yZXBvL3NzZF9rZXJhcy9tb2RlbHMva2VyYXNfc3NkMzAw\nLnB52hJpbnB1dF9jaGFubmVsX3N3YXD9AAAAcwgAAAAAAQwBOAEMAQ==\n", null, [[2, 1, 0]]], "function_type": "lambda", "output_shape": [300, 300, 3], "output_shape_type": "raw", "arguments": {}}, "inbound_nodes": [[["input_mean_normalization", 0, 0, {}]]]}, {"name": "conv1_1", "class_name": "Conv2D", "config": {"name": "conv1_1", "trainable": true, "filters": 64, "kernel_size": [3, 3], "strides": [1, 1], "padding": "same", "data_format": "channels_last", "dilation_rate": [1, 1], "activation": "relu", "use_bias": true, "kernel_initializer": {"class_name": "VarianceScaling", "config": {"scale": 2.0, "mode": "fan_in", "distribution": "normal", "seed": null}}, "bias_initializer": {"class_name": "Zeros", "config": {}}, "kernel_regularizer": {"class_name": "L1L2", "config": {"l1": 0.0, "l2": 0.0005000000237487257}}, "bias_regularizer": null, "activity_regularizer": null, "kernel_constraint": null, "bias_constraint": null}, "inbound_nodes": [[["input_channel_swap", 0, 0, {}]]]}, {"name": "conv1_2", "class_name": "Conv2D", "config": {"name": "conv1_2", "trainable": true, "filters": 64, "kernel_size": [3, 3], "strides": [1, 1], "padding": "same", "data_format": "channels_last", "dilation_rate": [1, 1], "activation": "relu", "use_bias": true, "kernel_initializer": {"class_name": "VarianceScaling", "config": {"scale": 2.0, "mode": "fan_in", "distribution": "normal", "seed": null}}, "bias_initializer": {"class_name": "Zeros", "config": {}}, "kernel_regularizer": {"class_name": "L1L2", "config": {"l1": 0.0, "l2": 0.0005000000237487257}}, "bias_regularizer": null, "activity_regularizer": null, "kernel_constraint": null, "bias_constraint": null}, "inbound_nodes": [[["conv1_1", 0, 0, {}]]]}, {"name": "pool1", "class_name": "MaxPooling2D", "config": {"name": "pool1", "trainable": true, "pool_size": [2, 2], "padding": "same", "strides": [2, 2], "data_format": "channels_last"}, "inbound_nodes": [[["conv1_2", 0, 0, {}]]]}, {"name": "conv2_1", "class_name": "Conv2D", "config": {"name": "conv2_1", "trainable": true, "filters": 128, "kernel_size": [3, 3], "strides": [1, 1], "padding": "same", "data_format": "channels_last", "dilation_rate": [1, 1], "activation": "relu", "use_bias": true, "kernel_initializer": {"class_name": "VarianceScaling", "config": {"scale": 2.0, "mode": "fan_in", "distribution": "normal", "seed": null}}, "bias_initializer": {"class_name": "Zeros", "config": {}}, "kernel_regularizer": {"class_name": "L1L2", "config": {"l1": 0.0, "l2": 0.0005000000237487257}}, "bias_regularizer": null, "activity_regularizer": null, "kernel_constraint": null, "bias_constraint": null}, "inbound_nodes": [[["pool1", 0, 0, {}]]]}, {"name": "conv2_2", "class_name": "Conv2D", "config": {"name": "conv2_2", "trainable": true, "filters": 128, "kernel_size": [3, 3], "strides": [1, 1], "padding": "same", "data_format": "channels_last", "dilation_rate": [1, 1], "activation": "relu", "use_bias": true, "kernel_initializer": {"class_name": "VarianceScaling", "config": {"scale": 2.0, "mode": "fan_in", "distribution": "normal", "seed": null}}, "bias_initializer": {"class_name": "Zeros", "config": {}}, "kernel_regularizer": {"class_name": "L1L2", "config": {"l1": 0.0, "l2": 0.0005000000237487257}}, "bias_regularizer": null, "activity_regularizer": null, "kernel_constraint": null, "bias_constraint": null}, "inbound_nodes": [[["conv2_1", 0, 0, {}]]]}, {"name": "pool2", "class_name": "MaxPooling2D", "config": {"name": "pool2", "trainable": true, "pool_size": [2, 2], "padding": "same", "strides": [2, 2], "data_format": "channels_last"}, "inbound_nodes": [[["conv2_2", 0, 0, {}]]]}, {"name": "conv3_1", "class_name": "Conv2D", "config": {"name": "conv3_1", "trainable": true, "filters": 256, "kernel_size": [3, 3], "strides": [1, 1], "padding": "same", "data_format": "channels_last", "dilation_rate": [1, 1], "activation": "relu", "use_bias": true, "kernel_initializer": {"class_name": "VarianceScaling", "config": {"scale": 2.0, "mode": "fan_in", "distribution": "normal", "seed": null}}, "bias_initializer": {"class_name": "Zeros", "config": {}}, "kernel_regularizer": {"class_name": "L1L2", "config": {"l1": 0.0, "l2": 0.0005000000237487257}}, "bias_regularizer": null, "activity_regularizer": null, "kernel_constraint": null, "bias_constraint": null}, "inbound_nodes": [[["pool2", 0, 0, {}]]]}, {"name": "conv3_2", "class_name": "Conv2D", "config": {"name": "conv3_2", "trainable": true, "filters": 256, "kernel_size": [3, 3], "strides": [1, 1], "padding": "same", "data_format": "channels_last", "dilation_rate": [1, 1], "activation": "relu", "use_bias": true, "kernel_initializer": {"class_name": "VarianceScaling", "config": {"scale": 2.0, "mode": "fan_in", "distribution": "normal", "seed": null}}, "bias_initializer": {"class_name": "Zeros", "config": {}}, "kernel_regularizer": {"class_name": "L1L2", "config": {"l1": 0.0, "l2": 0.0005000000237487257}}, "bias_regularizer": null, "activity_regularizer": null, "kernel_constraint": null, "bias_constraint": null}, "inbound_nodes": [[["conv3_1", 0, 0, {}]]]}, {"name": "conv3_3", "class_name": "Conv2D", "config": {"name": "conv3_3", "trainable": true, "filters": 256, "kernel_size": [3, 3], "strides": [1, 1], "padding": "same", "data_format": "channels_last", "dilation_rate": [1, 1], "activation": "relu", "use_bias": true, "kernel_initializer": {"class_name": "VarianceScaling", "config": {"scale": 2.0, "mode": "fan_in", "distribution": "normal", "seed": null}}, "bias_initializer": {"class_name": "Zeros", "config": {}}, "kernel_regularizer": {"class_name": "L1L2", "config": {"l1": 0.0, "l2": 0.0005000000237487257}}, "bias_regularizer": null, "activity_regularizer": null, "kernel_constraint": null, "bias_constraint": null}, "inbound_nodes": [[["conv3_2", 0, 0, {}]]]}, {"name": "pool3", "class_name": "MaxPooling2D", "config": {"name": "pool3", "trainable": true, "pool_size": [2, 2], "padding": "same", "strides": [2, 2], "data_format": "channels_last"}, "inbound_nodes": [[["conv3_3", 0, 0, {}]]]}, {"name": "conv4_1", "class_name": "Conv2D", "config": {"name": "conv4_1", "trainable": true, "filters": 512, "kernel_size": [3, 3], "strides": [1, 1], "padding": "same", "data_format": "channels_last", "dilation_rate": [1, 1], "activation": "relu", "use_bias": true, "kernel_initializer": {"class_name": "VarianceScaling", "config": {"scale": 2.0, "mode": "fan_in", "distribution": "normal", "seed": null}}, "bias_initializer": {"class_name": "Zeros", "config": {}}, "kernel_regularizer": {"class_name": "L1L2", "config": {"l1": 0.0, "l2": 0.0005000000237487257}}, "bias_regularizer": null, "activity_regularizer": null, "kernel_constraint": null, "bias_constraint": null}, "inbound_nodes": [[["pool3", 0, 0, {}]]]}, {"name": "conv4_2", "class_name": "Conv2D", "config": {"name": "conv4_2", "trainable": true, "filters": 512, "kernel_size": [3, 3], "strides": [1, 1], "padding": "same", "data_format": "channels_last", "dilation_rate": [1, 1], "activation": "relu", "use_bias": true, "kernel_initializer": {"class_name": "VarianceScaling", "config": {"scale": 2.0, "mode": "fan_in", "distribution": "normal", "seed": null}}, "bias_initializer": {"class_name": "Zeros", "config": {}}, "kernel_regularizer": {"class_name": "L1L2", "config": {"l1": 0.0, "l2": 0.0005000000237487257}}, "bias_regularizer": null, "activity_regularizer": null, "kernel_constraint": null, "bias_constraint": null}, "inbound_nodes": [[["conv4_1", 0, 0, {}]]]}, {"name": "conv4_3", "class_name": "Conv2D", "config": {"name": "conv4_3", "trainable": true, "filters": 512, "kernel_size": [3, 3], "strides": [1, 1], "padding": "same", "data_format": "channels_last", "dilation_rate": [1, 1], "activation": "relu", "use_bias": true, "kernel_initializer": {"class_name": "VarianceScaling", "config": {"scale": 2.0, "mode": "fan_in", "distribution": "normal", "seed": null}}, "bias_initializer": {"class_name": "Zeros", "config": {}}, "kernel_regularizer": {"class_name": "L1L2", "config": {"l1": 0.0, "l2": 0.0005000000237487257}}, "bias_regularizer": null, "activity_regularizer": null, "kernel_constraint": null, "bias_constraint": null}, "inbound_nodes": [[["conv4_2", 0, 0, {}]]]}, {"name": "pool4", "class_name": "MaxPooling2D", "config": {"name": "pool4", "trainable": true, "pool_size": [2, 2], "padding": "same", "strides": [2, 2], "data_format": "channels_last"}, "inbound_nodes": [[["conv4_3", 0, 0, {}]]]}, {"name": "conv5_1", "class_name": "Conv2D", "config": {"name": "conv5_1", "trainable": true, "filters": 512, "kernel_size": [3, 3], "strides": [1, 1], "padding": "same", "data_format": "channels_last", "dilation_rate": [1, 1], "activation": "relu", "use_bias": true, "kernel_initializer": {"class_name": "VarianceScaling", "config": {"scale": 2.0, "mode": "fan_in", "distribution": "normal", "seed": null}}, "bias_initializer": {"class_name": "Zeros", "config": {}}, "kernel_regularizer": {"class_name": "L1L2", "config": {"l1": 0.0, "l2": 0.0005000000237487257}}, "bias_regularizer": null, "activity_regularizer": null, "kernel_constraint": null, "bias_constraint": null}, "inbound_nodes": [[["pool4", 0, 0, {}]]]}, {"name": "conv5_2", "class_name": "Conv2D", "config": {"name": "conv5_2", "trainable": true, "filters": 512, "kernel_size": [3, 3], "strides": [1, 1], "padding": "same", "data_format": "channels_last", "dilation_rate": [1, 1], "activation": "relu", "use_bias": true, "kernel_initializer": {"class_name": "VarianceScaling", "config": {"scale": 2.0, "mode": "fan_in", "distribution": "normal", "seed": null}}, "bias_initializer": {"class_name": "Zeros", "config": {}}, "kernel_regularizer": {"class_name": "L1L2", "config": {"l1": 0.0, "l2": 0.0005000000237487257}}, "bias_regularizer": null, "activity_regularizer": null, "kernel_constraint": null, "bias_constraint": null}, "inbound_nodes": [[["conv5_1", 0, 0, {}]]]}, {"name": "conv5_3", "class_name": "Conv2D", "config": {"name": "conv5_3", "trainable": true, "filters": 512, "kernel_size": [3, 3], "strides": [1, 1], "padding": "same", "data_format": "channels_last", "dilation_rate": [1, 1], "activation": "relu", "use_bias": true, "kernel_initializer": {"class_name": "VarianceScaling", "config": {"scale": 2.0, "mode": "fan_in", "distribution": "normal", "seed": null}}, "bias_initializer": {"class_name": "Zeros", "config": {}}, "kernel_regularizer": {"class_name": "L1L2", "config": {"l1": 0.0, "l2": 0.0005000000237487257}}, "bias_regularizer": null, "activity_regularizer": null, "kernel_constraint": null, "bias_constraint": null}, "inbound_nodes": [[["conv5_2", 0, 0, {}]]]}, {"name": "pool5", "class_name": "MaxPooling2D", "config": {"name": "pool5", "trainable": true, "pool_size": [3, 3], "padding": "same", "strides": [1, 1], "data_format": "channels_last"}, "inbound_nodes": [[["conv5_3", 0, 0, {}]]]}, {"name": "fc6", "class_name": "Conv2D", "config": {"name": "fc6", "trainable": true, "filters": 1024, "kernel_size": [3, 3], "strides": [1, 1], "padding": "same", "data_format": "channels_last", "dilation_rate": [6, 6], "activation": "relu", "use_bias": true, "kernel_initializer": {"class_name": "VarianceScaling", "config": {"scale": 2.0, "mode": "fan_in", "distribution": "normal", "seed": null}}, "bias_initializer": {"class_name": "Zeros", "config": {}}, "kernel_regularizer": {"class_name": "L1L2", "config": {"l1": 0.0, "l2": 0.0005000000237487257}}, "bias_regularizer": null, "activity_regularizer": null, "kernel_constraint": null, "bias_constraint": null}, "inbound_nodes": [[["pool5", 0, 0, {}]]]}, {"name": "fc7", "class_name": "Conv2D", "config": {"name": "fc7", "trainable": true, "filters": 1024, "kernel_size": [1, 1], "strides": [1, 1], "padding": "same", "data_format": "channels_last", "dilation_rate": [1, 1], "activation": "relu", "use_bias": true, "kernel_initializer": {"class_name": "VarianceScaling", "config": {"scale": 2.0, "mode": "fan_in", "distribution": "normal", "seed": null}}, "bias_initializer": {"class_name": "Zeros", "config": {}}, "kernel_regularizer": {"class_name": "L1L2", "config": {"l1": 0.0, "l2": 0.0005000000237487257}}, "bias_regularizer": null, "activity_regularizer": null, "kernel_constraint": null, "bias_constraint": null}, "inbound_nodes": [[["fc6", 0, 0, {}]]]}, {"name": "conv6_1", "class_name": "Conv2D", "config": {"name": "conv6_1", "trainable": true, "filters": 256, "kernel_size": [1, 1], "strides": [1, 1], "padding": "same", "data_format": "channels_last", "dilation_rate": [1, 1], "activation": "relu", "use_bias": true, "kernel_initializer": {"class_name": "VarianceScaling", "config": {"scale": 2.0, "mode": "fan_in", "distribution": "normal", "seed": null}}, "bias_initializer": {"class_name": "Zeros", "config": {}}, "kernel_regularizer": {"class_name": "L1L2", "config": {"l1": 0.0, "l2": 0.0005000000237487257}}, "bias_regularizer": null, "activity_regularizer": null, "kernel_constraint": null, "bias_constraint": null}, "inbound_nodes": [[["fc7", 0, 0, {}]]]}, {"name": "conv6_padding", "class_name": "ZeroPadding2D", "config": {"name": "conv6_padding", "trainable": true, "padding": [[1, 1], [1, 1]], "data_format": "channels_last"}, "inbound_nodes": [[["conv6_1", 0, 0, {}]]]}, {"name": "conv6_2", "class_name": "Conv2D", "config": {"name": "conv6_2", "trainable": true, "filters": 512, "kernel_size": [3, 3], "strides": [2, 2], "padding": "valid", "data_format": "channels_last", "dilation_rate": [1, 1], "activation": "relu", "use_bias": true, "kernel_initializer": {"class_name": "VarianceScaling", "config": {"scale": 2.0, "mode": "fan_in", "distribution": "normal", "seed": null}}, "bias_initializer": {"class_name": "Zeros", "config": {}}, "kernel_regularizer": {"class_name": "L1L2", "config": {"l1": 0.0, "l2": 0.0005000000237487257}}, "bias_regularizer": null, "activity_regularizer": null, "kernel_constraint": null, "bias_constraint": null}, "inbound_nodes": [[["conv6_padding", 0, 0, {}]]]}, {"name": "conv7_1", "class_name": "Conv2D", "config": {"name": "conv7_1", "trainable": true, "filters": 128, "kernel_size": [1, 1], "strides": [1, 1], "padding": "same", "data_format": "channels_last", "dilation_rate": [1, 1], "activation": "relu", "use_bias": true, "kernel_initializer": {"class_name": "VarianceScaling", "config": {"scale": 2.0, "mode": "fan_in", "distribution": "normal", "seed": null}}, "bias_initializer": {"class_name": "Zeros", "config": {}}, "kernel_regularizer": {"class_name": "L1L2", "config": {"l1": 0.0, "l2": 0.0005000000237487257}}, "bias_regularizer": null, "activity_regularizer": null, "kernel_constraint": null, "bias_constraint": null}, "inbound_nodes": [[["conv6_2", 0, 0, {}]]]}, {"name": "conv7_padding", "class_name": "ZeroPadding2D", "config": {"name": "conv7_padding", "trainable": true, "padding": [[1, 1], [1, 1]], "data_format": "channels_last"}, "inbound_nodes": [[["conv7_1", 0, 0, {}]]]}, {"name": "conv7_2", "class_name": "Conv2D", "config": {"name": "conv7_2", "trainable": true, "filters": 256, "kernel_size": [3, 3], "strides": [2, 2], "padding": "valid", "data_format": "channels_last", "dilation_rate": [1, 1], "activation": "relu", "use_bias": true, "kernel_initializer": {"class_name": "VarianceScaling", "config": {"scale": 2.0, "mode": "fan_in", "distribution": "normal", "seed": null}}, "bias_initializer": {"class_name": "Zeros", "config": {}}, "kernel_regularizer": {"class_name": "L1L2", "config": {"l1": 0.0, "l2": 0.0005000000237487257}}, "bias_regularizer": null, "activity_regularizer": null, "kernel_constraint": null, "bias_constraint": null}, "inbound_nodes": [[["conv7_padding", 0, 0, {}]]]}, {"name": "conv8_1", "class_name": "Conv2D", "config": {"name": "conv8_1", "trainable": true, "filters": 128, "kernel_size": [1, 1], "strides": [1, 1], "padding": "same", "data_format": "channels_last", "dilation_rate": [1, 1], "activation": "relu", "use_bias": true, "kernel_initializer": {"class_name": "VarianceScaling", "config": {"scale": 2.0, "mode": "fan_in", "distribution": "normal", "seed": null}}, "bias_initializer": {"class_name": "Zeros", "config": {}}, "kernel_regularizer": {"class_name": "L1L2", "config": {"l1": 0.0, "l2": 0.0005000000237487257}}, "bias_regularizer": null, "activity_regularizer": null, "kernel_constraint": null, "bias_constraint": null}, "inbound_nodes": [[["conv7_2", 0, 0, {}]]]}, {"name": "conv8_2", "class_name": "Conv2D", "config": {"name": "conv8_2", "trainable": true, "filters": 256, "kernel_size": [3, 3], "strides": [1, 1], "padding": "valid", "data_format": "channels_last", "dilation_rate": [1, 1], "activation": "relu", "use_bias": true, "kernel_initializer": {"class_name": "VarianceScaling", "config": {"scale": 2.0, "mode": "fan_in", "distribution": "normal", "seed": null}}, "bias_initializer": {"class_name": "Zeros", "config": {}}, "kernel_regularizer": {"class_name": "L1L2", "config": {"l1": 0.0, "l2": 0.0005000000237487257}}, "bias_regularizer": null, "activity_regularizer": null, "kernel_constraint": null, "bias_constraint": null}, "inbound_nodes": [[["conv8_1", 0, 0, {}]]]}, {"name": "conv9_1", "class_name": "Conv2D", "config": {"name": "conv9_1", "trainable": true, "filters": 128, "kernel_size": [1, 1], "strides": [1, 1], "padding": "same", "data_format": "channels_last", "dilation_rate": [1, 1], "activation": "relu", "use_bias": true, "kernel_initializer": {"class_name": "VarianceScaling", "config": {"scale": 2.0, "mode": "fan_in", "distribution": "normal", "seed": null}}, "bias_initializer": {"class_name": "Zeros", "config": {}}, "kernel_regularizer": {"class_name": "L1L2", "config": {"l1": 0.0, "l2": 0.0005000000237487257}}, "bias_regularizer": null, "activity_regularizer": null, "kernel_constraint": null, "bias_constraint": null}, "inbound_nodes": [[["conv8_2", 0, 0, {}]]]}, {"name": "conv4_3_norm", "class_name": "L2Normalization", "config": {"name": "conv4_3_norm", "trainable": true, "gamma_init": 20}, "inbound_nodes": [[["conv4_3", 0, 0, {}]]]}, {"name": "conv9_2", "class_name": "Conv2D", "config": {"name": "conv9_2", "trainable": true, "filters": 256, "kernel_size": [3, 3], "strides": [1, 1], "padding": "valid", "data_format": "channels_last", "dilation_rate": [1, 1], "activation": "relu", "use_bias": true, "kernel_initializer": {"class_name": "VarianceScaling", "config": {"scale": 2.0, "mode": "fan_in", "distribution": "normal", "seed": null}}, "bias_initializer": {"class_name": "Zeros", "config": {}}, "kernel_regularizer": {"class_name": "L1L2", "config": {"l1": 0.0, "l2": 0.0005000000237487257}}, "bias_regularizer": null, "activity_regularizer": null, "kernel_constraint": null, "bias_constraint": null}, "inbound_nodes": [[["conv9_1", 0, 0, {}]]]}, {"name": "conv4_3_norm_mbox_conf", "class_name": "Conv2D", "config": {"name": "conv4_3_norm_mbox_conf", "trainable": true, "filters": 84, "kernel_size": [3, 3], "strides": [1, 1], "padding": "same", "data_format": "channels_last", "dilation_rate": [1, 1], "activation": "linear", "use_bias": true, "kernel_initializer": {"class_name": "VarianceScaling", "config": {"scale": 2.0, "mode": "fan_in", "distribution": "normal", "seed": null}}, "bias_initializer": {"class_name": "Zeros", "config": {}}, "kernel_regularizer": {"class_name": "L1L2", "config": {"l1": 0.0, "l2": 0.0005000000237487257}}, "bias_regularizer": null, "activity_regularizer": null, "kernel_constraint": null, "bias_constraint": null}, "inbound_nodes": [[["conv4_3_norm", 0, 0, {}]]]}, {"name": "fc7_mbox_conf", "class_name": "Conv2D", "config": {"name": "fc7_mbox_conf", "trainable": true, "filters": 126, "kernel_size": [3, 3], "strides": [1, 1], "padding": "same", "data_format": "channels_last", "dilation_rate": [1, 1], "activation": "linear", "use_bias": true, "kernel_initializer": {"class_name": "VarianceScaling", "config": {"scale": 2.0, "mode": "fan_in", "distribution": "normal", "seed": null}}, "bias_initializer": {"class_name": "Zeros", "config": {}}, "kernel_regularizer": {"class_name": "L1L2", "config": {"l1": 0.0, "l2": 0.0005000000237487257}}, "bias_regularizer": null, "activity_regularizer": null, "kernel_constraint": null, "bias_constraint": null}, "inbound_nodes": [[["fc7", 0, 0, {}]]]}, {"name": "conv6_2_mbox_conf", "class_name": "Conv2D", "config": {"name": "conv6_2_mbox_conf", "trainable": true, "filters": 126, "kernel_size": [3, 3], "strides": [1, 1], "padding": "same", "data_format": "channels_last", "dilation_rate": [1, 1], "activation": "linear", "use_bias": true, "kernel_initializer": {"class_name": "VarianceScaling", "config": {"scale": 2.0, "mode": "fan_in", "distribution": "normal", "seed": null}}, "bias_initializer": {"class_name": "Zeros", "config": {}}, "kernel_regularizer": {"class_name": "L1L2", "config": {"l1": 0.0, "l2": 0.0005000000237487257}}, "bias_regularizer": null, "activity_regularizer": null, "kernel_constraint": null, "bias_constraint": null}, "inbound_nodes": [[["conv6_2", 0, 0, {}]]]}, {"name": "conv7_2_mbox_conf", "class_name": "Conv2D", "config": {"name": "conv7_2_mbox_conf", "trainable": true, "filters": 126, "kernel_size": [3, 3], "strides": [1, 1], "padding": "same", "data_format": "channels_last", "dilation_rate": [1, 1], "activation": "linear", "use_bias": true, "kernel_initializer": {"class_name": "VarianceScaling", "config": {"scale": 2.0, "mode": "fan_in", "distribution": "normal", "seed": null}}, "bias_initializer": {"class_name": "Zeros", "config": {}}, "kernel_regularizer": {"class_name": "L1L2", "config": {"l1": 0.0, "l2": 0.0005000000237487257}}, "bias_regularizer": null, "activity_regularizer": null, "kernel_constraint": null, "bias_constraint": null}, "inbound_nodes": [[["conv7_2", 0, 0, {}]]]}, {"name": "conv8_2_mbox_conf", "class_name": "Conv2D", "config": {"name": "conv8_2_mbox_conf", "trainable": true, "filters": 84, "kernel_size": [3, 3], "strides": [1, 1], "padding": "same", "data_format": "channels_last", "dilation_rate": [1, 1], "activation": "linear", "use_bias": true, "kernel_initializer": {"class_name": "VarianceScaling", "config": {"scale": 2.0, "mode": "fan_in", "distribution": "normal", "seed": null}}, "bias_initializer": {"class_name": "Zeros", "config": {}}, "kernel_regularizer": {"class_name": "L1L2", "config": {"l1": 0.0, "l2": 0.0005000000237487257}}, "bias_regularizer": null, "activity_regularizer": null, "kernel_constraint": null, "bias_constraint": null}, "inbound_nodes": [[["conv8_2", 0, 0, {}]]]}, {"name": "conv9_2_mbox_conf", "class_name": "Conv2D", "config": {"name": "conv9_2_mbox_conf", "trainable": true, "filters": 84, "kernel_size": [3, 3], "strides": [1, 1], "padding": "same", "data_format": "channels_last", "dilation_rate": [1, 1], "activation": "linear", "use_bias": true, "kernel_initializer": {"class_name": "VarianceScaling", "config": {"scale": 2.0, "mode": "fan_in", "distribution": "normal", "seed": null}}, "bias_initializer": {"class_name": "Zeros", "config": {}}, "kernel_regularizer": {"class_name": "L1L2", "config": {"l1": 0.0, "l2": 0.0005000000237487257}}, "bias_regularizer": null, "activity_regularizer": null, "kernel_constraint": null, "bias_constraint": null}, "inbound_nodes": [[["conv9_2", 0, 0, {}]]]}, {"name": "conv4_3_norm_mbox_loc", "class_name": "Conv2D", "config": {"name": "conv4_3_norm_mbox_loc", "trainable": true, "filters": 16, "kernel_size": [3, 3], "strides": [1, 1], "padding": "same", "data_format": "channels_last", "dilation_rate": [1, 1], "activation": "linear", "use_bias": true, "kernel_initializer": {"class_name": "VarianceScaling", "config": {"scale": 2.0, "mode": "fan_in", "distribution": "normal", "seed": null}}, "bias_initializer": {"class_name": "Zeros", "config": {}}, "kernel_regularizer": {"class_name": "L1L2", "config": {"l1": 0.0, "l2": 0.0005000000237487257}}, "bias_regularizer": null, "activity_regularizer": null, "kernel_constraint": null, "bias_constraint": null}, "inbound_nodes": [[["conv4_3_norm", 0, 0, {}]]]}, {"name": "fc7_mbox_loc", "class_name": "Conv2D", "config": {"name": "fc7_mbox_loc", "trainable": true, "filters": 24, "kernel_size": [3, 3], "strides": [1, 1], "padding": "same", "data_format": "channels_last", "dilation_rate": [1, 1], "activation": "linear", "use_bias": true, "kernel_initializer": {"class_name": "VarianceScaling", "config": {"scale": 2.0, "mode": "fan_in", "distribution": "normal", "seed": null}}, "bias_initializer": {"class_name": "Zeros", "config": {}}, "kernel_regularizer": {"class_name": "L1L2", "config": {"l1": 0.0, "l2": 0.0005000000237487257}}, "bias_regularizer": null, "activity_regularizer": null, "kernel_constraint": null, "bias_constraint": null}, "inbound_nodes": [[["fc7", 0, 0, {}]]]}, {"name": "conv6_2_mbox_loc", "class_name": "Conv2D", "config": {"name": "conv6_2_mbox_loc", "trainable": true, "filters": 24, "kernel_size": [3, 3], "strides": [1, 1], "padding": "same", "data_format": "channels_last", "dilation_rate": [1, 1], "activation": "linear", "use_bias": true, "kernel_initializer": {"class_name": "VarianceScaling", "config": {"scale": 2.0, "mode": "fan_in", "distribution": "normal", "seed": null}}, "bias_initializer": {"class_name": "Zeros", "config": {}}, "kernel_regularizer": {"class_name": "L1L2", "config": {"l1": 0.0, "l2": 0.0005000000237487257}}, "bias_regularizer": null, "activity_regularizer": null, "kernel_constraint": null, "bias_constraint": null}, "inbound_nodes": [[["conv6_2", 0, 0, {}]]]}, {"name": "conv7_2_mbox_loc", "class_name": "Conv2D", "config": {"name": "conv7_2_mbox_loc", "trainable": true, "filters": 24, "kernel_size": [3, 3], "strides": [1, 1], "padding": "same", "data_format": "channels_last", "dilation_rate": [1, 1], "activation": "linear", "use_bias": true, "kernel_initializer": {"class_name": "VarianceScaling", "config": {"scale": 2.0, "mode": "fan_in", "distribution": "normal", "seed": null}}, "bias_initializer": {"class_name": "Zeros", "config": {}}, "kernel_regularizer": {"class_name": "L1L2", "config": {"l1": 0.0, "l2": 0.0005000000237487257}}, "bias_regularizer": null, "activity_regularizer": null, "kernel_constraint": null, "bias_constraint": null}, "inbound_nodes": [[["conv7_2", 0, 0, {}]]]}, {"name": "conv8_2_mbox_loc", "class_name": "Conv2D", "config": {"name": "conv8_2_mbox_loc", "trainable": true, "filters": 16, "kernel_size": [3, 3], "strides": [1, 1], "padding": "same", "data_format": "channels_last", "dilation_rate": [1, 1], "activation": "linear", "use_bias": true, "kernel_initializer": {"class_name": "VarianceScaling", "config": {"scale": 2.0, "mode": "fan_in", "distribution": "normal", "seed": null}}, "bias_initializer": {"class_name": "Zeros", "config": {}}, "kernel_regularizer": {"class_name": "L1L2", "config": {"l1": 0.0, "l2": 0.0005000000237487257}}, "bias_regularizer": null, "activity_regularizer": null, "kernel_constraint": null, "bias_constraint": null}, "inbound_nodes": [[["conv8_2", 0, 0, {}]]]}, {"name": "conv9_2_mbox_loc", "class_name": "Conv2D", "config": {"name": "conv9_2_mbox_loc", "trainable": true, "filters": 16, "kernel_size": [3, 3], "strides": [1, 1], "padding": "same", "data_format": "channels_last", "dilation_rate": [1, 1], "activation": "linear", "use_bias": true, "kernel_initializer": {"class_name": "VarianceScaling", "config": {"scale": 2.0, "mode": "fan_in", "distribution": "normal", "seed": null}}, "bias_initializer": {"class_name": "Zeros", "config": {}}, "kernel_regularizer": {"class_name": "L1L2", "config": {"l1": 0.0, "l2": 0.0005000000237487257}}, "bias_regularizer": null, "activity_regularizer": null, "kernel_constraint": null, "bias_constraint": null}, "inbound_nodes": [[["conv9_2", 0, 0, {}]]]}, {"name": "conv4_3_norm_mbox_conf_reshape", "class_name": "Reshape", "config": {"name": "conv4_3_norm_mbox_conf_reshape", "trainable": true, "target_shape": [-1, 21]}, "inbound_nodes": [[["conv4_3_norm_mbox_conf", 0, 0, {}]]]}, {"name": "fc7_mbox_conf_reshape", "class_name": "Reshape", "config": {"name": "fc7_mbox_conf_reshape", "trainable": true, "target_shape": [-1, 21]}, "inbound_nodes": [[["fc7_mbox_conf", 0, 0, {}]]]}, {"name": "conv6_2_mbox_conf_reshape", "class_name": "Reshape", "config": {"name": "conv6_2_mbox_conf_reshape", "trainable": true, "target_shape": [-1, 21]}, "inbound_nodes": [[["conv6_2_mbox_conf", 0, 0, {}]]]}, {"name": "conv7_2_mbox_conf_reshape", "class_name": "Reshape", "config": {"name": "conv7_2_mbox_conf_reshape", "trainable": true, "target_shape": [-1, 21]}, "inbound_nodes": [[["conv7_2_mbox_conf", 0, 0, {}]]]}, {"name": "conv8_2_mbox_conf_reshape", "class_name": "Reshape", "config": {"name": "conv8_2_mbox_conf_reshape", "trainable": true, "target_shape": [-1, 21]}, "inbound_nodes": [[["conv8_2_mbox_conf", 0, 0, {}]]]}, {"name": "conv9_2_mbox_conf_reshape", "class_name": "Reshape", "config": {"name": "conv9_2_mbox_conf_reshape", "trainable": true, "target_shape": [-1, 21]}, "inbound_nodes": [[["conv9_2_mbox_conf", 0, 0, {}]]]}, {"name": "conv4_3_norm_mbox_priorbox", "class_name": "AnchorBoxes", "config": {"name": "conv4_3_norm_mbox_priorbox", "trainable": true, "img_height": 300, "img_width": 300, "this_scale": 0.1, "next_scale": 0.2, "aspect_ratios": [1.0, 2.0, 0.5], "two_boxes_for_ar1": true, "clip_boxes": false, "variances": [0.1, 0.1, 0.2, 0.2], "coords": "centroids", "normalize_coords": true}, "inbound_nodes": [[["conv4_3_norm_mbox_loc", 0, 0, {}]]]}, {"name": "fc7_mbox_priorbox", "class_name": "AnchorBoxes", "config": {"name": "fc7_mbox_priorbox", "trainable": true, "img_height": 300, "img_width": 300, "this_scale": 0.2, "next_scale": 0.37, "aspect_ratios": [1.0, 2.0, 0.5, 3.0, 0.3333333333333333], "two_boxes_for_ar1": true, "clip_boxes": false, "variances": [0.1, 0.1, 0.2, 0.2], "coords": "centroids", "normalize_coords": true}, "inbound_nodes": [[["fc7_mbox_loc", 0, 0, {}]]]}, {"name": "conv6_2_mbox_priorbox", "class_name": "AnchorBoxes", "config": {"name": "conv6_2_mbox_priorbox", "trainable": true, "img_height": 300, "img_width": 300, "this_scale": 0.37, "next_scale": 0.54, "aspect_ratios": [1.0, 2.0, 0.5, 3.0, 0.3333333333333333], "two_boxes_for_ar1": true, "clip_boxes": false, "variances": [0.1, 0.1, 0.2, 0.2], "coords": "centroids", "normalize_coords": true}, "inbound_nodes": [[["conv6_2_mbox_loc", 0, 0, {}]]]}, {"name": "conv7_2_mbox_priorbox", "class_name": "AnchorBoxes", "config": {"name": "conv7_2_mbox_priorbox", "trainable": true, "img_height": 300, "img_width": 300, "this_scale": 0.54, "next_scale": 0.71, "aspect_ratios": [1.0, 2.0, 0.5, 3.0, 0.3333333333333333], "two_boxes_for_ar1": true, "clip_boxes": false, "variances": [0.1, 0.1, 0.2, 0.2], "coords": "centroids", "normalize_coords": true}, "inbound_nodes": [[["conv7_2_mbox_loc", 0, 0, {}]]]}, {"name": "conv8_2_mbox_priorbox", "class_name": "AnchorBoxes", "config": {"name": "conv8_2_mbox_priorbox", "trainable": true, "img_height": 300, "img_width": 300, "this_scale": 0.71, "next_scale": 0.88, "aspect_ratios": [1.0, 2.0, 0.5], "two_boxes_for_ar1": true, "clip_boxes": false, "variances": [0.1, 0.1, 0.2, 0.2], "coords": "centroids", "normalize_coords": true}, "inbound_nodes": [[["conv8_2_mbox_loc", 0, 0, {}]]]}, {"name": "conv9_2_mbox_priorbox", "class_name": "AnchorBoxes", "config": {"name": "conv9_2_mbox_priorbox", "trainable": true, "img_height": 300, "img_width": 300, "this_scale": 0.88, "next_scale": 1.05, "aspect_ratios": [1.0, 2.0, 0.5], "two_boxes_for_ar1": true, "clip_boxes": false, "variances": [0.1, 0.1, 0.2, 0.2], "coords": "centroids", "normalize_coords": true}, "inbound_nodes": [[["conv9_2_mbox_loc", 0, 0, {}]]]}, {"name": "mbox_conf", "class_name": "Concatenate", "config": {"name": "mbox_conf", "trainable": true, "axis": 1}, "inbound_nodes": [[["conv4_3_norm_mbox_conf_reshape", 0, 0, {}], ["fc7_mbox_conf_reshape", 0, 0, {}], ["conv6_2_mbox_conf_reshape", 0, 0, {}], ["conv7_2_mbox_conf_reshape", 0, 0, {}], ["conv8_2_mbox_conf_reshape", 0, 0, {}], ["conv9_2_mbox_conf_reshape", 0, 0, {}]]]}, {"name": "conv4_3_norm_mbox_loc_reshape", "class_name": "Reshape", "config": {"name": "conv4_3_norm_mbox_loc_reshape", "trainable": true, "target_shape": [-1, 4]}, "inbound_nodes": [[["conv4_3_norm_mbox_loc", 0, 0, {}]]]}, {"name": "fc7_mbox_loc_reshape", "class_name": "Reshape", "config": {"name": "fc7_mbox_loc_reshape", "trainable": true, "target_shape": [-1, 4]}, "inbound_nodes": [[["fc7_mbox_loc", 0, 0, {}]]]}, {"name": "conv6_2_mbox_loc_reshape", "class_name": "Reshape", "config": {"name": "conv6_2_mbox_loc_reshape", "trainable": true, "target_shape": [-1, 4]}, "inbound_nodes": [[["conv6_2_mbox_loc", 0, 0, {}]]]}, {"name": "conv7_2_mbox_loc_reshape", "class_name": "Reshape", "config": {"name": "conv7_2_mbox_loc_reshape", "trainable": true, "target_shape": [-1, 4]}, "inbound_nodes": [[["conv7_2_mbox_loc", 0, 0, {}]]]}, {"name": "conv8_2_mbox_loc_reshape", "class_name": "Reshape", "config": {"name": "conv8_2_mbox_loc_reshape", "trainable": true, "target_shape": [-1, 4]}, "inbound_nodes": [[["conv8_2_mbox_loc", 0, 0, {}]]]}, {"name": "conv9_2_mbox_loc_reshape", "class_name": "Reshape", "config": {"name": "conv9_2_mbox_loc_reshape", "trainable": true, "target_shape": [-1, 4]}, "inbound_nodes": [[["conv9_2_mbox_loc", 0, 0, {}]]]}, {"name": "conv4_3_norm_mbox_priorbox_reshape", "class_name": "Reshape", "config": {"name": "conv4_3_norm_mbox_priorbox_reshape", "trainable": true, "target_shape": [-1, 8]}, "inbound_nodes": [[["conv4_3_norm_mbox_priorbox", 0, 0, {}]]]}, {"name": "fc7_mbox_priorbox_reshape", "class_name": "Reshape", "config": {"name": "fc7_mbox_priorbox_reshape", "trainable": true, "target_shape": [-1, 8]}, "inbound_nodes": [[["fc7_mbox_priorbox", 0, 0, {}]]]}, {"name": "conv6_2_mbox_priorbox_reshape", "class_name": "Reshape", "config": {"name": "conv6_2_mbox_priorbox_reshape", "trainable": true, "target_shape": [-1, 8]}, "inbound_nodes": [[["conv6_2_mbox_priorbox", 0, 0, {}]]]}, {"name": "conv7_2_mbox_priorbox_reshape", "class_name": "Reshape", "config": {"name": "conv7_2_mbox_priorbox_reshape", "trainable": true, "target_shape": [-1, 8]}, "inbound_nodes": [[["conv7_2_mbox_priorbox", 0, 0, {}]]]}, {"name": "conv8_2_mbox_priorbox_reshape", "class_name": "Reshape", "config": {"name": "conv8_2_mbox_priorbox_reshape", "trainable": true, "target_shape": [-1, 8]}, "inbound_nodes": [[["conv8_2_mbox_priorbox", 0, 0, {}]]]}, {"name": "conv9_2_mbox_priorbox_reshape", "class_name": "Reshape", "config": {"name": "conv9_2_mbox_priorbox_reshape", "trainable": true, "target_shape": [-1, 8]}, "inbound_nodes": [[["conv9_2_mbox_priorbox", 0, 0, {}]]]}, {"name": "mbox_conf_softmax", "class_name": "Activation", "config": {"name": "mbox_conf_softmax", "trainable": true, "activation": "softmax"}, "inbound_nodes": [[["mbox_conf", 0, 0, {}]]]}, {"name": "mbox_loc", "class_name": "Concatenate", "config": {"name": "mbox_loc", "trainable": true, "axis": 1}, "inbound_nodes": [[["conv4_3_norm_mbox_loc_reshape", 0, 0, {}], ["fc7_mbox_loc_reshape", 0, 0, {}], ["conv6_2_mbox_loc_reshape", 0, 0, {}], ["conv7_2_mbox_loc_reshape", 0, 0, {}], ["conv8_2_mbox_loc_reshape", 0, 0, {}], ["conv9_2_mbox_loc_reshape", 0, 0, {}]]]}, {"name": "mbox_priorbox", "class_name": "Concatenate", "config": {"name": "mbox_priorbox", "trainable": true, "axis": 1}, "inbound_nodes": [[["conv4_3_norm_mbox_priorbox_reshape", 0, 0, {}], ["fc7_mbox_priorbox_reshape", 0, 0, {}], ["conv6_2_mbox_priorbox_reshape", 0, 0, {}], ["conv7_2_mbox_priorbox_reshape", 0, 0, {}], ["conv8_2_mbox_priorbox_reshape", 0, 0, {}], ["conv9_2_mbox_priorbox_reshape", 0, 0, {}]]]}, {"name": "predictions", "class_name": "Concatenate", "config": {"name": "predictions", "trainable": true, "axis": 2}, "inbound_nodes": [[["mbox_conf_softmax", 0, 0, {}], ["mbox_loc", 0, 0, {}], ["mbox_priorbox", 0, 0, {}]]]}], "input_layers": [["input_1", 0, 0]], "output_layers": [["predictions", 0, 0]]}, "keras_version": "2.2.2", "backend": "tensorflow", "params": {"input_1": 0, "identity_layer": 0, "input_mean_normalization": 0, "input_channel_swap": 0, "conv1_1": 1792, "conv1_2": 36928, "pool1": 0, "conv2_1": 73856, "conv2_2": 147584, "pool2": 0, "conv3_1": 295168, "conv3_2": 590080, "conv3_3": 590080, "pool3": 0, "conv4_1": 1180160, "conv4_2": 2359808, "conv4_3": 2359808, "pool4": 0, "conv5_1": 2359808, "conv5_2": 2359808, "conv5_3": 2359808, "pool5": 0, "fc6": 4719616, "fc7": 1049600, "conv6_1": 262400, "conv6_padding": 0, "conv6_2": 1180160, "conv7_1": 65664, "conv7_padding": 0, "conv7_2": 295168, "conv8_1": 32896, "conv8_2": 295168, "conv9_1": 32896, "conv4_3_norm": 512, "conv9_2": 295168, "conv4_3_norm_mbox_conf": 387156, "fc7_mbox_conf": 1161342, "conv6_2_mbox_conf": 580734, "conv7_2_mbox_conf": 290430, "conv8_2_mbox_conf": 193620, "conv9_2_mbox_conf": 193620, "conv4_3_norm_mbox_loc": 73744, "fc7_mbox_loc": 221208, "conv6_2_mbox_loc": 110616, "conv7_2_mbox_loc": 55320, "conv8_2_mbox_loc": 36880, "conv9_2_mbox_loc": 36880, "conv4_3_norm_mbox_conf_reshape": 0, "fc7_mbox_conf_reshape": 0, "conv6_2_mbox_conf_reshape": 0, "conv7_2_mbox_conf_reshape": 0, "conv8_2_mbox_conf_reshape": 0, "conv9_2_mbox_conf_reshape": 0, "conv4_3_norm_mbox_priorbox": 0, "fc7_mbox_priorbox": 0, "conv6_2_mbox_priorbox": 0, "conv7_2_mbox_priorbox": 0, "conv8_2_mbox_priorbox": 0, "conv9_2_mbox_priorbox": 0, "mbox_conf": 0, "conv4_3_norm_mbox_loc_reshape": 0, "fc7_mbox_loc_reshape": 0, "conv6_2_mbox_loc_reshape": 0, "conv7_2_mbox_loc_reshape": 0, "conv8_2_mbox_loc_reshape": 0, "conv9_2_mbox_loc_reshape": 0, "conv4_3_norm_mbox_priorbox_reshape": 0, "fc7_mbox_priorbox_reshape": 0, "conv6_2_mbox_priorbox_reshape": 0, "conv7_2_mbox_priorbox_reshape": 0, "conv8_2_mbox_priorbox_reshape": 0, "conv9_2_mbox_priorbox_reshape": 0, "mbox_conf_softmax": 0, "mbox_loc": 0, "mbox_priorbox": 0, "predictions": 0}}