{"class_name": "Model", "config": {"name": "model_1", "layers": [{"name": "input_1", "class_name": "InputLayer", "config": {"batch_input_shape": [null, 300, 480, 3], "dtype": "float32", "sparse": false, "name": "input_1"}, "inbound_nodes": []}, {"name": "identity_layer", "class_name": "Lambda", "config": {"name": "identity_layer", "trainable": true, "function": ["4wEAAAAAAAAAAQAAAAEAAABTAAAAcwQAAAB8AFMAKQFOqQApAdoGdGVuc29ycgEAAAByAQAAAPpE\nL1VzZXJzL3dhbmdxaWFud2VuL0RvY3VtZW50cy9naXRfcmVwby9zc2Rfa2VyYXMvbW9kZWxzL2tl\ncmFzX3NzZDcucHnaDmlkZW50aXR5X2xheWVy9wAAAHMCAAAAAAE=\n", null, null], "function_type": "lambda", "output_shape": [300, 480, 3], "output_shape_type": "raw", "arguments": {}}, "inbound_nodes": [[["input_1", 0, 0, {}]]]}, {"name": "input_mean_normalization", "class_name": "Lambda", "config": {"name": "input_mean_normalization", "trainable": true, "function": ["4wEAAAAAAAAAAQAAAAMAAAATAAAAcw4AAAB8AHQAagGIAIMBGABTACkBTikC2gJucNoFYXJyYXkp\nAdoGdGVuc29yKQHaDXN1YnRyYWN0X21lYW6pAPpEL1VzZXJzL3dhbmdxaWFud2VuL0RvY3VtZW50\ncy9naXRfcmVwby9zc2Rfa2VyYXMvbW9kZWxzL2tlcmFzX3NzZDcucHnaGGlucHV0X21lYW5fbm9y\nbWFsaXphdGlvbvoAAABzAgAAAAAB\n", null, [127.5]], "function_type": "lambda", "output_shape": [300, 480, 3], "output_shape_type": "raw", "arguments": {}}, "inbound_nodes": [[["identity_layer", 0, 0, {}]]]}, {"name": "input_stddev_normalization", "class_name": "Lambda", "config": {"name": "input_stddev_normalization", "trainable": true, "function": ["4wEAAAAAAAAAAQAAAAMAAAATAAAAcw4AAAB8AHQAagGIAIMBGwBTACkBTikC2gJucNoFYXJyYXkp\nAdoGdGVuc29yKQHaEGRpdmlkZV9ieV9zdGRkZXapAPpEL1VzZXJzL3dhbmdxaWFud2VuL0RvY3Vt\nZW50cy9naXRfcmVwby9zc2Rfa2VyYXMvbW9kZWxzL2tlcmFzX3NzZDcucHnaGmlucHV0X3N0ZGRl\ndl9ub3JtYWxpemF0aW9u/QAAAHMCAAAAAAE=\n", null, [127.5]], "function_type": "lambda", "output_shape": [300, 480, 3], "output_shape_type": "raw", "arguments": {}}, "inbound_nodes": [[["input_mean_normalization", 0, 0, {}]]]}, {"name": "conv1", "class_name": "Conv2D", "config": {"name": "conv1", "trainable": true, "filters": 32, "kernel_size": [5, 5], "strides": [1, 1], "padding": "same", "data_format": "channels_last", "dilation_rate": [1, 1], "activation": "linear", "use_bias": true, "kernel_initializer": {"class_name": "VarianceScaling", "config": {"scale": 2.0, "mode": "fan_in", "distribution": "normal", "seed": null}}, "bias_initializer": {"class_name": "Zeros", "config": {}}, "kernel_regularizer": {"class_name": "L1L2", "config": {"l1": 0.0, "l2": 0.0005000000237487257}}, "bias_regularizer": null, "activity_regularizer": null, "kernel_constraint": null, "bias_constraint": null}, "inbound_nodes": [[["input_stddev_normalization", 0, 0, {}]]]}, {"name": "bn1", "class_name": "BatchNormalization", "config": {"name": "bn1", "trainable": true, "axis": 3, "momentum": 0.99, "epsilon": 0.001, "center": true, "scale": true, "beta_initializer": {"class_name": "Zeros", "config": {}}, "gamma_initializer": {"class_name": "Ones", "config": {}}, "moving_mean_initializer": {"class_name": "Zeros", "config": {}}, "moving_variance_initializer": {"class_name": "Ones", "config": {}}, "beta_regularizer": null, "gamma_regularizer": null, "beta_constraint": null, "gamma_constraint": null}, "inbound_nodes": [[["conv1", 0, 0, {}]]]}, {"name": "elu1", "class_name": "ELU", "config": {"name": "elu1", "trainable": true, "alpha": 1.0}, "inbound_nodes": [[["bn1", 0, 0, {}]]]}, {"name": "pool1", "class_name": "MaxPooling2D", "config": {"name": "pool1", "trainable": true, "pool_size": [2, 2], "padding": "valid", "strides": [2, 2], "data_format": "channels_last"}, "inbound_nodes": [[["elu1", 0, 0, {}]]]}, {"name": "conv2", "class_name": "Conv2D", "config": {"name": "conv2", "trainable": true, "filters": 48, "kernel_size": [3, 3], "strides": [1, 1], "padding": "same", "data_format": "channels_last", "dilation_rate": [1, 1], "activation": "linear", "use_bias": true, "kernel_initializer": {"class_name": "VarianceScaling", "config": {"scale": 2.0, "mode": "fan_in", "distribution": "normal", "seed": null}}, "bias_initializer": {"class_name": "Zeros", "config": {}}, "kernel_regularizer": {"class_name": "L1L2", "config": {"l1": 0.0, "l2": 0.0005000000237487257}}, "bias_regularizer": null, "activity_regularizer": null, "kernel_constraint": null, "bias_constraint": null}, "inbound_nodes": [[["pool1", 0, 0, {}]]]}, {"name": "bn2", "class_name": "BatchNormalization", "config": {"name": "bn2", "trainable": true, "axis": 3, "momentum": 0.99, "epsilon": 0.001, "center": true, "scale": true, "beta_initializer": {"class_name": "Zeros", "config": {}}, "gamma_initializer": {"class_name": "Ones", "config": {}}, "moving_mean_initializer": {"class_name": "Zeros", "config": {}}, "moving_variance_initializer": {"class_name": "Ones", "config": {}}, "beta_regularizer": null, "gamma_regularizer": null, "beta_constraint": null, "gamma_constraint": null}, "inbound_nodes": [[["conv2", 0, 0, {}]]]}, {"name": "elu2", "class_name": "ELU", "config": {"name": "elu2", "trainable": true, "alpha": 1.0}, "inbound_nodes": [[["bn2", 0, 0, {}]]]}, {"name": "pool2", "class_name": "MaxPooling2D", "config": {"name": "pool2", "trainable": true, "pool_size": [2, 2], "padding": "valid", "strides": [2, 2], "data_format": "channels_last"}, "inbound_nodes": [[["elu2", 0, 0, {}]]]}, {"name": "conv3", "class_name": "Conv2D", "config": {"name": "conv3", "trainable": true, "filters": 64, "kernel_size": [3, 3], "strides": [1, 1], "padding": "same", "data_format": "channels_last", "dilation_rate": [1, 1], "activation": "linear", "use_bias": true, "kernel_initializer": {"class_name": "VarianceScaling", "config": {"scale": 2.0, "mode": "fan_in", "distribution": "normal", "seed": null}}, "bias_initializer": {"class_name": "Zeros", "config": {}}, "kernel_regularizer": {"class_name": "L1L2", "config": {"l1": 0.0, "l2": 0.0005000000237487257}}, "bias_regularizer": null, "activity_regularizer": null, "kernel_constraint": null, "bias_constraint": null}, "inbound_nodes": [[["pool2", 0, 0, {}]]]}, {"name": "bn3", "class_name": "BatchNormalization", "config": {"name": "bn3", "trainable": true, "axis": 3, "momentum": 0.99, "epsilon": 0.001, "center": true, "scale": true, "beta_initializer": {"class_name": "Zeros", "config": {}}, "gamma_initializer": {"class_name": "Ones", "config": {}}, "moving_mean_initializer": {"class_name": "Zeros", "config": {}}, "moving_variance_initializer": {"class_name": "Ones", "config": {}}, "beta_regularizer": null, "gamma_regularizer": null, "beta_constraint": null, "gamma_constraint": null}, "inbound_nodes": [[["conv3", 0, 0, {}]]]}, {"name": "elu3", "class_name": "ELU", "config": {"name": "elu3", "trainable": true, "alpha": 1.0}, "inbound_nodes": [[["bn3", 0, 0, {}]]]}, {"name": "pool3", "class_name": "MaxPooling2D", "config": {"name": "pool3", "trainable": true, "pool_size": [2, 2], "padding": "valid", "strides": [2, 2], "data_format": "channels_last"}, "inbound_nodes": [[["elu3", 0, 0, {}]]]}, {"name": "conv4", "class_name": "Conv2D", "config": {"name": "conv4", "trainable": true, "filters": 64, "kernel_size": [3, 3], "strides": [1, 1], "padding": "same", "data_format": "channels_last", "dilation_rate": [1, 1], "activation": "linear", "use_bias": true, "kernel_initializer": {"class_name": "VarianceScaling", "config": {"scale": 2.0, "mode": "fan_in", "distribution": "normal", "seed": null}}, "bias_initializer": {"class_name": "Zeros", "config": {}}, "kernel_regularizer": {"class_name": "L1L2", "config": {"l1": 0.0, "l2": 0.0005000000237487257}}, "bias_regularizer": null, "activity_regularizer": null, "kernel_constraint": null, "bias_constraint": null}, "inbound_nodes": [[["pool3", 0, 0, {}]]]}, {"name": "bn4", "class_name": "BatchNormalization", "config": {"name": "bn4", "trainable": true, "axis": 3, "momentum": 0.99, "epsilon": 0.001, "center": true, "scale": true, "beta_initializer": {"class_name": "Zeros", "config": {}}, "gamma_initializer": {"class_name": "Ones", "config": {}}, "moving_mean_initializer": {"class_name": "Zeros", "config": {}}, "moving_variance_initializer": {"class_name": "Ones", "config": {}}, "beta_regularizer": null, "gamma_regularizer": null, "beta_constraint": null, "gamma_constraint": null}, "inbound_nodes": [[["conv4", 0, 0, {}]]]}, {"name": "elu4", "class_name": "ELU", "config": {"name": "elu4", "trainable": true, "alpha": 1.0}, "inbound_nodes": [[["bn4", 0, 0, {}]]]}, {"name": "pool4", "class_name": "MaxPooling2D", "config": {"name": "pool4", "trainable": true, "pool_size": [2, 2], "padding": "valid", "strides": [2, 2], "data_format": "channels_last"}, "inbound_nodes": [[["elu4", 0, 0, {}]]]}, {"name": "conv5", "class_name": "Conv2D", "config": {"name": "conv5", "trainable": true, "filters": 48, "kernel_size": [3, 3], "strides": [1, 1], "padding": "same", "data_format": "channels_last", "dilation_rate": [1, 1], "activation": "linear", "use_bias": true, "kernel_initializer": {"class_name": "VarianceScaling", "config": {"scale": 2.0, "mode": "fan_in", "distribution": "normal", "seed": null}}, "bias_initializer": {"class_name": "Zeros", "config": {}}, "kernel_regularizer": {"class_name": "L1L2", "config": {"l1": 0.0, "l2": 0.0005000000237487257}}, "bias_regularizer": null, "activity_regularizer": null, "kernel_constraint": null, "bias_constraint": null}, "inbound_nodes": [[["pool4", 0, 0, {}]]]}, {"name": "bn5", "class_name": "BatchNormalization", "config": {"name": "bn5", "trainable": true, "axis": 3, "momentum": 0.99, "epsilon": 0.001, "center": true, "scale": true, "beta_initializer": {"class_name": "Zeros", "config": {}}, "gamma_initializer": {"class_name": "Ones", "config": {}}, "moving_mean_initializer": {"class_name": "Zeros", "config": {}}, "moving_variance_initializer": {"class_name": "Ones", "config": {}}, "beta_regularizer": null, "gamma_regularizer": null, "beta_constraint": null, "gamma_constraint": null}, "inbound_nodes": [[["conv5", 0, 0, {}]]]}, {"name": "elu5", "class_name": "ELU", "config": {"name": "elu5", "trainable": true, "alpha": 1.0}, "inbound_nodes": [[["bn5", 0, 0, {}]]]}, {"name": "pool5", "class_name": "MaxPooling2D", "config": {"name": "pool5", "trainable": true, "pool_size": [2, 2], "padding": "valid", "strides": [2, 2], "data_format": "channels_last"}, "inbound_nodes": [[["elu5", 0, 0, {}]]]}, {"name": "conv6", "class_name": "Conv2D", "config": {"name": "conv6", "trainable": true, "filters": 48, "kernel_size": [3, 3], "strides": [1, 1], "padding": "same", "data_format": "channels_last", "dilation_rate": [1, 1], "activation": "linear", "use_bias": true, "kernel_initializer": {"class_name": "VarianceScaling", "config": {"scale": 2.0, "mode": "fan_in", "distribution": "normal", "seed": null}}, "bias_initializer": {"class_name": "Zeros", "config": {}}, "kernel_regularizer": {"class_name": "L1L2", "config": {"l1": 0.0, "l2": 0.0005000000237487257}}, "bias_regularizer": null, "activity_regularizer": null, "kernel_constraint": null, "bias_constraint": null}, "inbound_nodes": [[["pool5", 0, 0, {}]]]}, {"name": "bn6", "class_name": "BatchNormalization", "config": {"name": "bn6", "trainable": true, "axis": 3, "momentum": 0.99, "epsilon": 0.001, "center": true, "scale": true, "beta_initializer": {"class_name": "Zeros", "config": {}}, "gamma_initializer": {"class_name": "Ones", "config": {}}, "moving_mean_initializer": {"class_name": "Zeros", "config": {}}, "moving_variance_initializer": {"class_name": "Ones", "config": {}}, "beta_regularizer": null, "gamma_regularizer": null, "beta_constraint": null, "gamma_constraint": null}, "inbound_nodes": [[["conv6", 0, 0, {}]]]}, {"name": "elu6", "class_name": "ELU", "config": {"name": "elu6", "trainable": true, "alpha": 1.0}, "inbound_nodes": [[["bn6", 0, 0, {}]]]}, {"name": "pool6", "class_name": "MaxPooling2D", "config": {"name": "pool6", "trainable": true, "pool_size": [2, 2], "padding": "valid", "strides": [2, 2], "data_format": "channels_last"}, "inbound_nodes": [[["elu6", 0, 0, {}]]]}, {"name": "conv7", "class_name": "Conv2D", "config": {"name": "conv7", "trainable": true, "filters": 32, "kernel_size": [3, 3], "strides": [1, 1], "padding": "same", "data_format": "channels_last", "dilation_rate": [1, 1], "activation": "linear", "use_bias": true, "kernel_initializer": {"class_name": "VarianceScaling", "config": {"scale": 2.0, "mode": "fan_in", "distribution": "normal", "seed": null}}, "bias_initializer": {"class_name": "Zeros", "config": {}}, "kernel_regularizer": {"class_name": "L1L2", "config": {"l1": 0.0, "l2": 0.0005000000237487257}}, "bias_regularizer": null, "activity_regularizer": null, "kernel_constraint": null, "bias_constraint": null}, "inbound_nodes": [[["pool6", 0, 0, {}]]]}, {"name": "bn7", "class_name": "BatchNormalization", "config": {"name": "bn7", "trainable": true, "axis": 3, "momentum": 0.99, "epsilon": 0.001, "center": true, "scale": true, "beta_initializer": {"class_name": "Zeros", "config": {}}, "gamma_initializer": {"class_name": "Ones", "config": {}}, "moving_mean_initializer": {"class_name": "Zeros", "config": {}}, "moving_variance_initializer": {"class_name": "Ones", "config": {}}, "beta_regularizer": null, "gamma_regularizer": null, "beta_constraint": null, "gamma_constraint": null}, "inbound_nodes": [[["conv7", 0, 0, {}]]]}, {"name": "elu7", "class_name": "ELU", "config": {"name": "elu7", "trainable": true, "alpha": 1.0}, "inbound_nodes": [[["bn7", 0, 0, {}]]]}, {"name": "classes4", "class_name": "Conv2D", "config": {"name": "classes4", "trainable": true, "filters": 24, "kernel_size": [3, 3], "strides": [1, 1], "padding": "same", "data_format": "channels_last", "dilation_rate": [1, 1], "activation": "linear", "use_bias": true, "kernel_initializer": {"class_name": "VarianceScaling", "config": {"scale": 2.0, "mode": "fan_in", "distribution": "normal", "seed": null}}, "bias_initializer": {"class_name": "Zeros", "config": {}}, "kernel_regularizer": {"class_name": "L1L2", "config": {"l1": 0.0, "l2": 0.0005000000237487257}}, "bias_regularizer": null, "activity_regularizer": null, "kernel_constraint": null, "bias_constraint": null}, "inbound_nodes": [[["elu4", 0, 0, {}]]]}, {"name": "classes5", "class_name": "Conv2D", "config": {"name": "classes5", "trainable": true, "filters": 24, "kernel_size": [3, 3], "strides": [1, 1], "padding": "same", "data_format": "channels_last", "dilation_rate": [1, 1], "activation": "linear", "use_bias": true, "kernel_initializer": {"class_name": "VarianceScaling", "config": {"scale": 2.0, "mode": "fan_in", "distribution": "normal", "seed": null}}, "bias_initializer": {"class_name": "Zeros", "config": {}}, "kernel_regularizer": {"class_name": "L1L2", "config": {"l1": 0.0, "l2": 0.0005000000237487257}}, "bias_regularizer": null, "activity_regularizer": null, "kernel_constraint": null, "bias_constraint": null}, "inbound_nodes": [[["elu5", 0, 0, {}]]]}, {"name": "classes6", "class_name": "Conv2D", "config": {"name": "classes6", "trainable": true, "filters": 24, "kernel_size": [3, 3], "strides": [1, 1], "padding": "same", "data_format": "channels_last", "dilation_rate": [1, 1], "activation": "linear", "use_bias": true, "kernel_initializer": {"class_name": "VarianceScaling", "config": {"scale": 2.0, "mode": "fan_in", "distribution": "normal", "seed": null}}, "bias_initializer": {"class_name": "Zeros", "config": {}}, "kernel_regularizer": {"class_name": "L1L2", "config": {"l1": 0.0, "l2": 0.0005000000237487257}}, "bias_regularizer": null, "activity_regularizer": null, "kernel_constraint": null, "bias_constraint": null}, "inbound_nodes": [[["elu6", 0, 0, {}]]]}, {"name": "classes7", "class_name": "Conv2D", "config": {"name": "classes7", "trainable": true, "filters": 24, "kernel_size": [3, 3], "strides": [1, 1], "padding": "same", "data_format": "channels_last", "dilation_rate": [1, 1], "activation": "linear", "use_bias": true, "kernel_initializer": {"class_name": "VarianceScaling", "config": {"scale": 2.0, "mode": "fan_in", "distribution": "normal", "seed": null}}, "bias_initializer": {"class_name": "Zeros", "config": {}}, "kernel_regularizer": {"class_name": "L1L2", "config": {"l1": 0.0, "l2": 0.0005000000237487257}}, "bias_regularizer": null, "activity_regularizer": null, "kernel_constraint": null, "bias_constraint": null}, "inbound_nodes": [[["elu7", 0, 0, {}]]]}, {"name": "boxes4", "class_name": "Conv2D", "config": {"name": "boxes4", "trainable": true, "filters": 16, "kernel_size": [3, 3], "strides": [1, 1], "padding": "same", "data_format": "channels_last", "dilation_rate": [1, 1], "activation": "linear", "use_bias": true, "kernel_initializer": {"class_name": "VarianceScaling", "config": {"scale": 2.0, "mode": "fan_in", "distribution": "normal", "seed": null}}, "bias_initializer": {"class_name": "Zeros", "config": {}}, "kernel_regularizer": {"class_name": "L1L2", "config": {"l1": 0.0, "l2": 0.0005000000237487257}}, "bias_regularizer": null, "activity_regularizer": null, "kernel_constraint": null, "bias_constraint": null}, "inbound_nodes": [[["elu4", 0, 0, {}]]]}, {"name": "boxes5", "class_name": "Conv2D", "config": {"name": "boxes5", "trainable": true, "filters": 16, "kernel_size": [3, 3], "strides": [1, 1], "padding": "same", "data_format": "channels_last", "dilation_rate": [1, 1], "activation": "linear", "use_bias": true, "kernel_initializer": {"class_name": "VarianceScaling", "config": {"scale": 2.0, "mode": "fan_in", "distribution": "normal", "seed": null}}, "bias_initializer": {"class_name": "Zeros", "config": {}}, "kernel_regularizer": {"class_name": "L1L2", "config": {"l1": 0.0, "l2": 0.0005000000237487257}}, "bias_regularizer": null, "activity_regularizer": null, "kernel_constraint": null, "bias_constraint": null}, "inbound_nodes": [[["elu5", 0, 0, {}]]]}, {"name": "boxes6", "class_name": "Conv2D", "config": {"name": "boxes6", "trainable": true, "filters": 16, "kernel_size": [3, 3], "strides": [1, 1], "padding": "same", "data_format": "channels_last", "dilation_rate": [1, 1], "activation": "linear", "use_bias": true, "kernel_initializer": {"class_name": "VarianceScaling", "config": {"scale": 2.0, "mode": "fan_in", "distribution": "normal", "seed": null}}, "bias_initializer": {"class_name": "Zeros", "config": {}}, "kernel_regularizer": {"class_name": "L1L2", "config": {"l1": 0.0, "l2": 0.0005000000237487257}}, "bias_regularizer": null, "activity_regularizer": null, "kernel_constraint": null, "bias_constraint": null}, "inbound_nodes": [[["elu6", 0, 0, {}]]]}, {"name": "boxes7", "class_name": "Conv2D", "config": {"name": "boxes7", "trainable": true, "filters": 16, "kernel_size": [3, 3], "strides": [1, 1], "padding": "same", "data_format": "channels_last", "dilation_rate": [1, 1], "activation": "linear", "use_bias": true, "kernel_initializer": {"class_name": "VarianceScaling", "config": {"scale": 2.0, "mode": "fan_in", "distribution": "normal", "seed": null}}, "bias_initializer": {"class_name": "Zeros", "config": {}}, "kernel_regularizer": {"class_name": "L1L2", "config": {"l1": 0.0, "l2": 0.0005000000237487257}}, "bias_regularizer": null, "activity_regularizer": null, "kernel_constraint": null, "bias_constraint": null}, "inbound_nodes": [[["elu7", 0, 0, {}]]]}, {"name": "classes4_reshape", "class_name": "Reshape", "config": {"name": "classes4_reshape", "trainable": true, "target_shape": [-1, 6]}, "inbound_nodes": [[["classes4", 0, 0, {}]]]}, {"name": "classes5_reshape", "class_name": "Reshape", "config": {"name": "classes5_reshape", "trainable": true, "target_shape": [-1, 6]}, "inbound_nodes": [[["classes5", 0, 0, {}]]]}, {"name": "classes6_reshape", "class_name": "Reshape", "config": {"name": "classes6_reshape", "trainable": true, "target_shape": [-1, 6]}, "inbound_nodes": [[["classes6", 0, 0, {}]]]}, {"name": "classes7_reshape", "class_name": "Reshape", "config": {"name": "classes7_reshape", "trainable": true, "target_shape": [-1, 6]}, "inbound_nodes": [[["classes7", 0, 0, {}]]]}, {"name": "anchors4", "class_name": "AnchorBoxes", "config": {"name": "anchors4", "trainable": true, "img_height": 300, "img_width": 480, "this_scale": 0.08, "next_scale": 0.16, "aspect_ratios": [0.5, 1.0, 2.0], "two_boxes_for_ar1": true, "clip_boxes": false, "variances": [1.0, 1.0, 1.0, 1.0], "coords": "centroids", "normalize_coords": true}, "inbound_nodes": [[["boxes4", 0, 0, {}]]]}, {"name": "anchors5", "class_name": "AnchorBoxes", "config": {"name": "anchors5", "trainable": true, "img_height": 300, "img_width": 480, "this_scale": 0.16, "next_scale": 0.32, "aspect_ratios": [0.5, 1.0, 2.0], "two_boxes_for_ar1": true, "clip_boxes": false, "variances": [1.0, 1.0, 1.0, 1.0], "coords": "centroids", "normalize_coords": true}, "inbound_nodes": [[["boxes5", 0, 0, {}]]]}, {"name": "anchors6", "class_name": "AnchorBoxes", "config": {"name": "anchors6", "trainable": true, "img_height": 300, "img_width": 480, "this_scale": 0.32, "next_scale": 0.64, "aspect_ratios": [0.5, 1.0, 2.0], "two_boxes_for_ar1": true, "clip_boxes": false, "variances": [1.0, 1.0, 1.0, 1.0], "coords": "centroids", "normalize_coords": true}, "inbound_nodes": [[["boxes6", 0, 0, {}]]]}, {"name": "anchors7", "class_name": "AnchorBoxes", "config": {"name": "anchors7", "trainable": true, "img_height": 300, "img_width": 480, "this_scale": 0.64, "next_scale": 0.96, "aspect_ratios": [0.5, 1.0, 2.0], "two_boxes_for_ar1": true, "clip_boxes": false, "variances": [1.0, 1.0, 1.0, 1.0], "coords": "centroids", "normalize_coords": true}, "inbound_nodes": [[["boxes7", 0, 0, {}]]]}, {"name": "classes_concat", "class_name": "Concatenate", "config": {"name": "classes_concat", "trainable": true, "axis": 1}, "inbound_nodes": [[["classes4_reshape", 0, 0, {}], ["classes5_reshape", 0, 0, {}], ["classes6_reshape", 0, 0, {}], ["classes7_reshape", 0, 0, {}]]]}, {"name": "boxes4_reshape", "class_name": "Reshape", "config": {"name": "boxes4_reshape", "trainable": true, "target_shape": [-1, 4]}, "inbound_nodes": [[["boxes4", 0, 0, {}]]]}, {"name": "boxes5_reshape", "class_name": "Reshape", "config": {"name": "boxes5_reshape", "trainable": true, "target_shape": [-1, 4]}, "inbound_nodes": [[["boxes5", 0, 0, {}]]]}, {"name": "boxes6_reshape", "class_name": "Reshape", "config": {"name": "boxes6_reshape", "trainable": true, "target_shape": [-1, 4]}, "inbound_nodes": [[["boxes6", 0, 0, {}]]]}, {"name": "boxes7_reshape", "class_name": "Reshape", "config": {"name": "boxes7_reshape", "trainable": true, "target_shape": [-1, 4]}, "inbound_nodes": [[["boxes7", 0, 0, {}]]]}, {"name": "anchors4_reshape", "class_name": "Reshape", "config": {"name": "anchors4_reshape", "trainable": true, "target_shape": [-1, 8]}, "inbound_nodes": [[["anchors4", 0, 0, {}]]]}, {"name": "anchors5_reshape", "class_name": "Reshape", "config": {"name": "anchors5_reshape", "trainable": true, "target_shape": [-1, 8]}, "inbound_nodes": [[["anchors5", 0, 0, {}]]]}, {"name": "anchors6_reshape", "class_name": "Reshape", "config": {"name": "anchors6_reshape", "trainable": true, "target_shape": [-1, 8]}, "inbound_nodes": [[["anchors6", 0, 0, {}]]]}, {"name": "anchors7_reshape", "class_name": "Reshape", "config": {"name": "anchors7_reshape", "trainable": true, "target_shape": [-1, 8]}, "inbound_nodes": [[["anchors7", 0, 0, {}]]]}, {"name": "classes_softmax", "class_name": "Activation", "config": {"name": "classes_softmax", "trainable": true, "activation": "softmax"}, "inbound_nodes": [[["classes_concat", 0, 0, {}]]]}, {"name": "boxes_concat", "class_name": "Concatenate", "config": {"name": "boxes_concat", "trainable": true, "axis": 1}, "inbound_nodes": [[["boxes4_reshape", 0, 0, {}], ["boxes5_reshape", 0, 0, {}], ["boxes6_reshape", 0, 0, {}], ["boxes7_reshape", 0, 0, {}]]]}, {"name": "anchors_concat", "class_name": "Concatenate", "config": {"name": "anchors_concat", "trainable": true, "axis": 1}, "inbound_nodes": [[["anchors4_reshape", 0, 0, {}], ["anchors5_reshape", 0, 0, {}], ["anchors6_reshape", 0, 0, {}], ["anchors7_reshape", 0, 0, {}]]]}, {"name": "predictions", "class_name": "Concatenate", "config": {"name": "predictions", "trainable": true, "axis": 2}, "inbound_nodes": [[["classes_softmax", 0, 0, {}], ["boxes_concat", 0, 0, {}], ["anchors_concat", 0, 0, {}]]]}], "input_layers": [["input_1", 0, 0]], "output_layers": [["predictions", 0, 0]]}, "keras_version": "2.2.2", "backend": "tensorflow", "params": {"input_1": 0, "identity_layer": 0, "input_mean_normalization": 0, "input_stddev_normalization": 0, "conv1": 2432, "bn1": 128, "elu1": 0, "pool1": 0, "conv2": 13872, "bn2": 192, "elu2": 0, "pool2": 0, "conv3": 27712, "bn3": 256, "elu3": 0, "pool3": 0, "conv4": 36928, "bn4": 256, "elu4": 0, "pool4": 0, "conv5": 27696, "bn5": 192, "elu5": 0, "pool5": 0, "conv6": 20784, "bn6": 192, "elu6": 0, "pool6": 0, "conv7": 13856, "bn7": 128, "elu7": 0, "classes4": 13848, "classes5": 10392, "classes6": 10392, "classes7": 6936, "boxes4": 9232, "boxes5": 6928, "boxes6": 6928, "boxes7": 4624, "classes4_reshape": 0, "classes5_reshape": 0, "classes6_reshape": 0, "classes7_reshape": 0, "anchors4": 0, "anchors5": 0, "anchors6": 0, "anchors7": 0, "classes_concat": 0, "boxes4_reshape": 0, "boxes5_reshape": 0, "boxes6_reshape": 0, "boxes7_reshape": 0, "anchors4_reshape": 0, "anchors5_reshape": 0, "anchors6_reshape": 0, "anchors7_reshape": 0, "classes_softmax": 0, "boxes_concat": 0, "anchors_concat": 0, "predictions": 0}}