{"config": {"input_layers": [["input_1", 0, 0]], "output_layers": [["predictions", 0, 0]], "layers": [{"inbound_nodes": [], "config": {"sparse": false, "dtype": "float32", "batch_input_shape": [null, null, null, 3], "name": "input_1"}, "class_name": "InputLayer", "name": "input_1"}, {"inbound_nodes": [[["input_1", 0, 0, {}]]], "config": {"padding": "valid", "use_bias": false, "bias_regularizer": null, "activity_regularizer": null, "name": "block1_conv1", "bias_constraint": null, "kernel_size": [3, 3], "activation": "linear", "trainable": true, "kernel_regularizer": null, "strides": [2, 2], "data_format": "channels_last", "kernel_constraint": null, "kernel_initializer": {"config": {"mode": "fan_avg", "seed": null, "distribution": "uniform", "scale": 1.0}, "class_name": "VarianceScaling"}, "filters": 32, "dilation_rate": [1, 1], "bias_initializer": {"config": {}, "class_name": "Zeros"}}, "class_name": "Conv2D", "name": "block1_conv1"}, {"inbound_nodes": [[["block1_conv1", 0, 0, {}]]], "config": {"axis": -1, "moving_variance_initializer": {"config": {}, "class_name": "Ones"}, "momentum": 0.99, "name": "block1_conv1_bn", "gamma_regularizer": null, "gamma_constraint": null, "scale": true, "trainable": true, "beta_regularizer": null, "epsilon": 0.001, "beta_initializer": {"config": {}, "class_name": "Zeros"}, "gamma_initializer": {"config": {}, "class_name": "Ones"}, "moving_mean_initializer": {"config": {}, "class_name": "Zeros"}, "beta_constraint": null, "center": true}, "class_name": "BatchNormalization", "name": "block1_conv1_bn"}, {"inbound_nodes": [[["block1_conv1_bn", 0, 0, {}]]], "config": {"activation": "relu", "trainable": true, "name": "block1_conv1_act"}, "class_name": "Activation", "name": "block1_conv1_act"}, {"inbound_nodes": [[["block1_conv1_act", 0, 0, {}]]], "config": {"padding": "valid", "use_bias": false, "bias_regularizer": null, "activity_regularizer": null, "name": "block1_conv2", "bias_constraint": null, "kernel_size": [3, 3], "activation": "linear", "trainable": true, "kernel_regularizer": null, "strides": [1, 1], "data_format": "channels_last", "kernel_constraint": null, "kernel_initializer": {"config": {"mode": "fan_avg", "seed": null, "distribution": "uniform", "scale": 1.0}, "class_name": "VarianceScaling"}, "filters": 64, "dilation_rate": [1, 1], "bias_initializer": {"config": {}, "class_name": "Zeros"}}, "class_name": "Conv2D", "name": "block1_conv2"}, {"inbound_nodes": [[["block1_conv2", 0, 0, {}]]], "config": {"axis": -1, "moving_variance_initializer": {"config": {}, "class_name": "Ones"}, "momentum": 0.99, "name": "block1_conv2_bn", "gamma_regularizer": null, "gamma_constraint": null, "scale": true, "trainable": true, "beta_regularizer": null, "epsilon": 0.001, "beta_initializer": {"config": {}, "class_name": "Zeros"}, "gamma_initializer": {"config": {}, "class_name": "Ones"}, "moving_mean_initializer": {"config": {}, "class_name": "Zeros"}, "beta_constraint": null, "center": true}, "class_name": "BatchNormalization", "name": "block1_conv2_bn"}, {"inbound_nodes": [[["block1_conv2_bn", 0, 0, {}]]], "config": {"activation": "relu", "trainable": true, "name": "block1_conv2_act"}, "class_name": "Activation", "name": "block1_conv2_act"}, {"inbound_nodes": [[["block1_conv2_act", 0, 0, {}]]], "config": {"padding": "same", "use_bias": false, "bias_regularizer": null, "activity_regularizer": null, "depthwise_constraint": null, "bias_constraint": null, "kernel_size": [3, 3], "depth_multiplier": 1, "name": "block2_sepconv1", "pointwise_regularizer": null, "data_format": "channels_last", "pointwise_initializer": {"config": {"mode": "fan_avg", "seed": null, "distribution": "uniform", "scale": 1.0}, "class_name": "VarianceScaling"}, "activation": "linear", "trainable": true, "strides": [1, 1], "pointwise_constraint": null, "depthwise_initializer": {"config": {"mode": "fan_avg", "seed": null, "distribution": "uniform", "scale": 1.0}, "class_name": "VarianceScaling"}, "filters": 128, "depthwise_regularizer": null, "dilation_rate": [1, 1], "bias_initializer": {"config": {}, "class_name": "Zeros"}}, "class_name": "SeparableConv2D", "name": "block2_sepconv1"}, {"inbound_nodes": [[["block2_sepconv1", 0, 0, {}]]], "config": {"axis": -1, "moving_variance_initializer": {"config": {}, "class_name": "Ones"}, "momentum": 0.99, "name": "block2_sepconv1_bn", "gamma_regularizer": null, "gamma_constraint": null, "scale": true, "trainable": true, "beta_regularizer": null, "epsilon": 0.001, "beta_initializer": {"config": {}, "class_name": "Zeros"}, "gamma_initializer": {"config": {}, "class_name": "Ones"}, "moving_mean_initializer": {"config": {}, "class_name": "Zeros"}, "beta_constraint": null, "center": true}, "class_name": "BatchNormalization", "name": "block2_sepconv1_bn"}, {"inbound_nodes": [[["block2_sepconv1_bn", 0, 0, {}]]], "config": {"activation": "relu", "trainable": true, "name": "block2_sepconv2_act"}, "class_name": "Activation", "name": "block2_sepconv2_act"}, {"inbound_nodes": [[["block2_sepconv2_act", 0, 0, {}]]], "config": {"padding": "same", "use_bias": false, "bias_regularizer": null, "activity_regularizer": null, "depthwise_constraint": null, "bias_constraint": null, "kernel_size": [3, 3], "depth_multiplier": 1, "name": "block2_sepconv2", "pointwise_regularizer": null, "data_format": "channels_last", "pointwise_initializer": {"config": {"mode": "fan_avg", "seed": null, "distribution": "uniform", "scale": 1.0}, "class_name": "VarianceScaling"}, "activation": "linear", "trainable": true, "strides": [1, 1], "pointwise_constraint": null, "depthwise_initializer": {"config": {"mode": "fan_avg", "seed": null, "distribution": "uniform", "scale": 1.0}, "class_name": "VarianceScaling"}, "filters": 128, "depthwise_regularizer": null, "dilation_rate": [1, 1], "bias_initializer": {"config": {}, "class_name": "Zeros"}}, "class_name": "SeparableConv2D", "name": "block2_sepconv2"}, {"inbound_nodes": [[["block2_sepconv2", 0, 0, {}]]], "config": {"axis": -1, "moving_variance_initializer": {"config": {}, "class_name": "Ones"}, "momentum": 0.99, "name": "block2_sepconv2_bn", "gamma_regularizer": null, "gamma_constraint": null, "scale": true, "trainable": true, "beta_regularizer": null, "epsilon": 0.001, "beta_initializer": {"config": {}, "class_name": "Zeros"}, "gamma_initializer": {"config": {}, "class_name": "Ones"}, "moving_mean_initializer": {"config": {}, "class_name": "Zeros"}, "beta_constraint": null, "center": true}, "class_name": "BatchNormalization", "name": "block2_sepconv2_bn"}, {"inbound_nodes": [[["block1_conv2_act", 0, 0, {}]]], "config": {"padding": "same", "use_bias": false, "bias_regularizer": null, "activity_regularizer": null, "name": "conv2d_1", "bias_constraint": null, "kernel_size": [1, 1], "activation": "linear", "trainable": true, "kernel_regularizer": null, "strides": [2, 2], "data_format": "channels_last", "kernel_constraint": null, "kernel_initializer": {"config": {"mode": "fan_avg", "seed": null, "distribution": "uniform", "scale": 1.0}, "class_name": "VarianceScaling"}, "filters": 128, "dilation_rate": [1, 1], "bias_initializer": {"config": {}, "class_name": "Zeros"}}, "class_name": "Conv2D", "name": "conv2d_1"}, {"inbound_nodes": [[["block2_sepconv2_bn", 0, 0, {}]]], "config": {"padding": "same", "trainable": true, "strides": [2, 2], "name": "block2_pool", "pool_size": [3, 3], "data_format": "channels_last"}, "class_name": "MaxPooling2D", "name": "block2_pool"}, {"inbound_nodes": [[["conv2d_1", 0, 0, {}]]], "config": {"axis": -1, "moving_variance_initializer": {"config": {}, "class_name": "Ones"}, "momentum": 0.99, "name": "batch_normalization_1", "gamma_regularizer": null, "gamma_constraint": null, "scale": true, "trainable": true, "beta_regularizer": null, "epsilon": 0.001, "beta_initializer": {"config": {}, "class_name": "Zeros"}, "gamma_initializer": {"config": {}, "class_name": "Ones"}, "moving_mean_initializer": {"config": {}, "class_name": "Zeros"}, "beta_constraint": null, "center": true}, "class_name": "BatchNormalization", "name": "batch_normalization_1"}, {"inbound_nodes": [[["block2_pool", 0, 0, {}], ["batch_normalization_1", 0, 0, {}]]], "config": {"trainable": true, "name": "add_1"}, "class_name": "Add", "name": "add_1"}, {"inbound_nodes": [[["add_1", 0, 0, {}]]], "config": {"activation": "relu", "trainable": true, "name": "block3_sepconv1_act"}, "class_name": "Activation", "name": "block3_sepconv1_act"}, {"inbound_nodes": [[["block3_sepconv1_act", 0, 0, {}]]], "config": {"padding": "same", "use_bias": false, "bias_regularizer": null, "activity_regularizer": null, "depthwise_constraint": null, "bias_constraint": null, "kernel_size": [3, 3], "depth_multiplier": 1, "name": "block3_sepconv1", "pointwise_regularizer": null, "data_format": "channels_last", "pointwise_initializer": {"config": {"mode": "fan_avg", "seed": null, "distribution": "uniform", "scale": 1.0}, "class_name": "VarianceScaling"}, "activation": "linear", "trainable": true, "strides": [1, 1], "pointwise_constraint": null, "depthwise_initializer": {"config": {"mode": "fan_avg", "seed": null, "distribution": "uniform", "scale": 1.0}, "class_name": "VarianceScaling"}, "filters": 256, "depthwise_regularizer": null, "dilation_rate": [1, 1], "bias_initializer": {"config": {}, "class_name": "Zeros"}}, "class_name": "SeparableConv2D", "name": "block3_sepconv1"}, {"inbound_nodes": [[["block3_sepconv1", 0, 0, {}]]], "config": {"axis": -1, "moving_variance_initializer": {"config": {}, "class_name": "Ones"}, "momentum": 0.99, "name": "block3_sepconv1_bn", "gamma_regularizer": null, "gamma_constraint": null, "scale": true, "trainable": true, "beta_regularizer": null, "epsilon": 0.001, "beta_initializer": {"config": {}, "class_name": "Zeros"}, "gamma_initializer": {"config": {}, "class_name": "Ones"}, "moving_mean_initializer": {"config": {}, "class_name": "Zeros"}, "beta_constraint": null, "center": true}, "class_name": "BatchNormalization", "name": "block3_sepconv1_bn"}, {"inbound_nodes": [[["block3_sepconv1_bn", 0, 0, {}]]], "config": {"activation": "relu", "trainable": true, "name": "block3_sepconv2_act"}, "class_name": "Activation", "name": "block3_sepconv2_act"}, {"inbound_nodes": [[["block3_sepconv2_act", 0, 0, {}]]], "config": {"padding": "same", "use_bias": false, "bias_regularizer": null, "activity_regularizer": null, "depthwise_constraint": null, "bias_constraint": null, "kernel_size": [3, 3], "depth_multiplier": 1, "name": "block3_sepconv2", "pointwise_regularizer": null, "data_format": "channels_last", "pointwise_initializer": {"config": {"mode": "fan_avg", "seed": null, "distribution": "uniform", "scale": 1.0}, "class_name": "VarianceScaling"}, "activation": "linear", "trainable": true, "strides": [1, 1], "pointwise_constraint": null, "depthwise_initializer": {"config": {"mode": "fan_avg", "seed": null, "distribution": "uniform", "scale": 1.0}, "class_name": "VarianceScaling"}, "filters": 256, "depthwise_regularizer": null, "dilation_rate": [1, 1], "bias_initializer": {"config": {}, "class_name": "Zeros"}}, "class_name": "SeparableConv2D", "name": "block3_sepconv2"}, {"inbound_nodes": [[["block3_sepconv2", 0, 0, {}]]], "config": {"axis": -1, "moving_variance_initializer": {"config": {}, "class_name": "Ones"}, "momentum": 0.99, "name": "block3_sepconv2_bn", "gamma_regularizer": null, "gamma_constraint": null, "scale": true, "trainable": true, "beta_regularizer": null, "epsilon": 0.001, "beta_initializer": {"config": {}, "class_name": "Zeros"}, "gamma_initializer": {"config": {}, "class_name": "Ones"}, "moving_mean_initializer": {"config": {}, "class_name": "Zeros"}, "beta_constraint": null, "center": true}, "class_name": "BatchNormalization", "name": "block3_sepconv2_bn"}, {"inbound_nodes": [[["add_1", 0, 0, {}]]], "config": {"padding": "same", "use_bias": false, "bias_regularizer": null, "activity_regularizer": null, "name": "conv2d_2", "bias_constraint": null, "kernel_size": [1, 1], "activation": "linear", "trainable": true, "kernel_regularizer": null, "strides": [2, 2], "data_format": "channels_last", "kernel_constraint": null, "kernel_initializer": {"config": {"mode": "fan_avg", "seed": null, "distribution": "uniform", "scale": 1.0}, "class_name": "VarianceScaling"}, "filters": 256, "dilation_rate": [1, 1], "bias_initializer": {"config": {}, "class_name": "Zeros"}}, "class_name": "Conv2D", "name": "conv2d_2"}, {"inbound_nodes": [[["block3_sepconv2_bn", 0, 0, {}]]], "config": {"padding": "same", "trainable": true, "strides": [2, 2], "name": "block3_pool", "pool_size": [3, 3], "data_format": "channels_last"}, "class_name": "MaxPooling2D", "name": "block3_pool"}, {"inbound_nodes": [[["conv2d_2", 0, 0, {}]]], "config": {"axis": -1, "moving_variance_initializer": {"config": {}, "class_name": "Ones"}, "momentum": 0.99, "name": "batch_normalization_2", "gamma_regularizer": null, "gamma_constraint": null, "scale": true, "trainable": true, "beta_regularizer": null, "epsilon": 0.001, "beta_initializer": {"config": {}, "class_name": "Zeros"}, "gamma_initializer": {"config": {}, "class_name": "Ones"}, "moving_mean_initializer": {"config": {}, "class_name": "Zeros"}, "beta_constraint": null, "center": true}, "class_name": "BatchNormalization", "name": "batch_normalization_2"}, {"inbound_nodes": [[["block3_pool", 0, 0, {}], ["batch_normalization_2", 0, 0, {}]]], "config": {"trainable": true, "name": "add_2"}, "class_name": "Add", "name": "add_2"}, {"inbound_nodes": [[["add_2", 0, 0, {}]]], "config": {"activation": "relu", "trainable": true, "name": "block4_sepconv1_act"}, "class_name": "Activation", "name": "block4_sepconv1_act"}, {"inbound_nodes": [[["block4_sepconv1_act", 0, 0, {}]]], "config": {"padding": "same", "use_bias": false, "bias_regularizer": null, "activity_regularizer": null, "depthwise_constraint": null, "bias_constraint": null, "kernel_size": [3, 3], "depth_multiplier": 1, "name": "block4_sepconv1", "pointwise_regularizer": null, "data_format": "channels_last", "pointwise_initializer": {"config": {"mode": "fan_avg", "seed": null, "distribution": "uniform", "scale": 1.0}, "class_name": "VarianceScaling"}, "activation": "linear", "trainable": true, "strides": [1, 1], "pointwise_constraint": null, "depthwise_initializer": {"config": {"mode": "fan_avg", "seed": null, "distribution": "uniform", "scale": 1.0}, "class_name": "VarianceScaling"}, "filters": 728, "depthwise_regularizer": null, "dilation_rate": [1, 1], "bias_initializer": {"config": {}, "class_name": "Zeros"}}, "class_name": "SeparableConv2D", "name": "block4_sepconv1"}, {"inbound_nodes": [[["block4_sepconv1", 0, 0, {}]]], "config": {"axis": -1, "moving_variance_initializer": {"config": {}, "class_name": "Ones"}, "momentum": 0.99, "name": "block4_sepconv1_bn", "gamma_regularizer": null, "gamma_constraint": null, "scale": true, "trainable": true, "beta_regularizer": null, "epsilon": 0.001, "beta_initializer": {"config": {}, "class_name": "Zeros"}, "gamma_initializer": {"config": {}, "class_name": "Ones"}, "moving_mean_initializer": {"config": {}, "class_name": "Zeros"}, "beta_constraint": null, "center": true}, "class_name": "BatchNormalization", "name": "block4_sepconv1_bn"}, {"inbound_nodes": [[["block4_sepconv1_bn", 0, 0, {}]]], "config": {"activation": "relu", "trainable": true, "name": "block4_sepconv2_act"}, "class_name": "Activation", "name": "block4_sepconv2_act"}, {"inbound_nodes": [[["block4_sepconv2_act", 0, 0, {}]]], "config": {"padding": "same", "use_bias": false, "bias_regularizer": null, "activity_regularizer": null, "depthwise_constraint": null, "bias_constraint": null, "kernel_size": [3, 3], "depth_multiplier": 1, "name": "block4_sepconv2", "pointwise_regularizer": null, "data_format": "channels_last", "pointwise_initializer": {"config": {"mode": "fan_avg", "seed": null, "distribution": "uniform", "scale": 1.0}, "class_name": "VarianceScaling"}, "activation": "linear", "trainable": true, "strides": [1, 1], "pointwise_constraint": null, "depthwise_initializer": {"config": {"mode": "fan_avg", "seed": null, "distribution": "uniform", "scale": 1.0}, "class_name": "VarianceScaling"}, "filters": 728, "depthwise_regularizer": null, "dilation_rate": [1, 1], "bias_initializer": {"config": {}, "class_name": "Zeros"}}, "class_name": "SeparableConv2D", "name": "block4_sepconv2"}, {"inbound_nodes": [[["block4_sepconv2", 0, 0, {}]]], "config": {"axis": -1, "moving_variance_initializer": {"config": {}, "class_name": "Ones"}, "momentum": 0.99, "name": "block4_sepconv2_bn", "gamma_regularizer": null, "gamma_constraint": null, "scale": true, "trainable": true, "beta_regularizer": null, "epsilon": 0.001, "beta_initializer": {"config": {}, "class_name": "Zeros"}, "gamma_initializer": {"config": {}, "class_name": "Ones"}, "moving_mean_initializer": {"config": {}, "class_name": "Zeros"}, "beta_constraint": null, "center": true}, "class_name": "BatchNormalization", "name": "block4_sepconv2_bn"}, {"inbound_nodes": [[["add_2", 0, 0, {}]]], "config": {"padding": "same", "use_bias": false, "bias_regularizer": null, "activity_regularizer": null, "name": "conv2d_3", "bias_constraint": null, "kernel_size": [1, 1], "activation": "linear", "trainable": true, "kernel_regularizer": null, "strides": [2, 2], "data_format": "channels_last", "kernel_constraint": null, "kernel_initializer": {"config": {"mode": "fan_avg", "seed": null, "distribution": "uniform", "scale": 1.0}, "class_name": "VarianceScaling"}, "filters": 728, "dilation_rate": [1, 1], "bias_initializer": {"config": {}, "class_name": "Zeros"}}, "class_name": "Conv2D", "name": "conv2d_3"}, {"inbound_nodes": [[["block4_sepconv2_bn", 0, 0, {}]]], "config": {"padding": "same", "trainable": true, "strides": [2, 2], "name": "block4_pool", "pool_size": [3, 3], "data_format": "channels_last"}, "class_name": "MaxPooling2D", "name": "block4_pool"}, {"inbound_nodes": [[["conv2d_3", 0, 0, {}]]], "config": {"axis": -1, "moving_variance_initializer": {"config": {}, "class_name": "Ones"}, "momentum": 0.99, "name": "batch_normalization_3", "gamma_regularizer": null, "gamma_constraint": null, "scale": true, "trainable": true, "beta_regularizer": null, "epsilon": 0.001, "beta_initializer": {"config": {}, "class_name": "Zeros"}, "gamma_initializer": {"config": {}, "class_name": "Ones"}, "moving_mean_initializer": {"config": {}, "class_name": "Zeros"}, "beta_constraint": null, "center": true}, "class_name": "BatchNormalization", "name": "batch_normalization_3"}, {"inbound_nodes": [[["block4_pool", 0, 0, {}], ["batch_normalization_3", 0, 0, {}]]], "config": {"trainable": true, "name": "add_3"}, "class_name": "Add", "name": "add_3"}, {"inbound_nodes": [[["add_3", 0, 0, {}]]], "config": {"activation": "relu", "trainable": true, "name": "block5_sepconv1_act"}, "class_name": "Activation", "name": "block5_sepconv1_act"}, {"inbound_nodes": [[["block5_sepconv1_act", 0, 0, {}]]], "config": {"padding": "same", "use_bias": false, "bias_regularizer": null, "activity_regularizer": null, "depthwise_constraint": null, "bias_constraint": null, "kernel_size": [3, 3], "depth_multiplier": 1, "name": "block5_sepconv1", "pointwise_regularizer": null, "data_format": "channels_last", "pointwise_initializer": {"config": {"mode": "fan_avg", "seed": null, "distribution": "uniform", "scale": 1.0}, "class_name": "VarianceScaling"}, "activation": "linear", "trainable": true, "strides": [1, 1], "pointwise_constraint": null, "depthwise_initializer": {"config": {"mode": "fan_avg", "seed": null, "distribution": "uniform", "scale": 1.0}, "class_name": "VarianceScaling"}, "filters": 728, "depthwise_regularizer": null, "dilation_rate": [1, 1], "bias_initializer": {"config": {}, "class_name": "Zeros"}}, "class_name": "SeparableConv2D", "name": "block5_sepconv1"}, {"inbound_nodes": [[["block5_sepconv1", 0, 0, {}]]], "config": {"axis": -1, "moving_variance_initializer": {"config": {}, "class_name": "Ones"}, "momentum": 0.99, "name": "block5_sepconv1_bn", "gamma_regularizer": null, "gamma_constraint": null, "scale": true, "trainable": true, "beta_regularizer": null, "epsilon": 0.001, "beta_initializer": {"config": {}, "class_name": "Zeros"}, "gamma_initializer": {"config": {}, "class_name": "Ones"}, "moving_mean_initializer": {"config": {}, "class_name": "Zeros"}, "beta_constraint": null, "center": true}, "class_name": "BatchNormalization", "name": "block5_sepconv1_bn"}, {"inbound_nodes": [[["block5_sepconv1_bn", 0, 0, {}]]], "config": {"activation": "relu", "trainable": true, "name": "block5_sepconv2_act"}, "class_name": "Activation", "name": "block5_sepconv2_act"}, {"inbound_nodes": [[["block5_sepconv2_act", 0, 0, {}]]], "config": {"padding": "same", "use_bias": false, "bias_regularizer": null, "activity_regularizer": null, "depthwise_constraint": null, "bias_constraint": null, "kernel_size": [3, 3], "depth_multiplier": 1, "name": "block5_sepconv2", "pointwise_regularizer": null, "data_format": "channels_last", "pointwise_initializer": {"config": {"mode": "fan_avg", "seed": null, "distribution": "uniform", "scale": 1.0}, "class_name": "VarianceScaling"}, "activation": "linear", "trainable": true, "strides": [1, 1], "pointwise_constraint": null, "depthwise_initializer": {"config": {"mode": "fan_avg", "seed": null, "distribution": "uniform", "scale": 1.0}, "class_name": "VarianceScaling"}, "filters": 728, "depthwise_regularizer": null, "dilation_rate": [1, 1], "bias_initializer": {"config": {}, "class_name": "Zeros"}}, "class_name": "SeparableConv2D", "name": "block5_sepconv2"}, {"inbound_nodes": [[["block5_sepconv2", 0, 0, {}]]], "config": {"axis": -1, "moving_variance_initializer": {"config": {}, "class_name": "Ones"}, "momentum": 0.99, "name": "block5_sepconv2_bn", "gamma_regularizer": null, "gamma_constraint": null, "scale": true, "trainable": true, "beta_regularizer": null, "epsilon": 0.001, "beta_initializer": {"config": {}, "class_name": "Zeros"}, "gamma_initializer": {"config": {}, "class_name": "Ones"}, "moving_mean_initializer": {"config": {}, "class_name": "Zeros"}, "beta_constraint": null, "center": true}, "class_name": "BatchNormalization", "name": "block5_sepconv2_bn"}, {"inbound_nodes": [[["block5_sepconv2_bn", 0, 0, {}]]], "config": {"activation": "relu", "trainable": true, "name": "block5_sepconv3_act"}, "class_name": "Activation", "name": "block5_sepconv3_act"}, {"inbound_nodes": [[["block5_sepconv3_act", 0, 0, {}]]], "config": {"padding": "same", "use_bias": false, "bias_regularizer": null, "activity_regularizer": null, "depthwise_constraint": null, "bias_constraint": null, "kernel_size": [3, 3], "depth_multiplier": 1, "name": "block5_sepconv3", "pointwise_regularizer": null, "data_format": "channels_last", "pointwise_initializer": {"config": {"mode": "fan_avg", "seed": null, "distribution": "uniform", "scale": 1.0}, "class_name": "VarianceScaling"}, "activation": "linear", "trainable": true, "strides": [1, 1], "pointwise_constraint": null, "depthwise_initializer": {"config": {"mode": "fan_avg", "seed": null, "distribution": "uniform", "scale": 1.0}, "class_name": "VarianceScaling"}, "filters": 728, "depthwise_regularizer": null, "dilation_rate": [1, 1], "bias_initializer": {"config": {}, "class_name": "Zeros"}}, "class_name": "SeparableConv2D", "name": "block5_sepconv3"}, {"inbound_nodes": [[["block5_sepconv3", 0, 0, {}]]], "config": {"axis": -1, "moving_variance_initializer": {"config": {}, "class_name": "Ones"}, "momentum": 0.99, "name": "block5_sepconv3_bn", "gamma_regularizer": null, "gamma_constraint": null, "scale": true, "trainable": true, "beta_regularizer": null, "epsilon": 0.001, "beta_initializer": {"config": {}, "class_name": "Zeros"}, "gamma_initializer": {"config": {}, "class_name": "Ones"}, "moving_mean_initializer": {"config": {}, "class_name": "Zeros"}, "beta_constraint": null, "center": true}, "class_name": "BatchNormalization", "name": "block5_sepconv3_bn"}, {"inbound_nodes": [[["block5_sepconv3_bn", 0, 0, {}], ["add_3", 0, 0, {}]]], "config": {"trainable": true, "name": "add_4"}, "class_name": "Add", "name": "add_4"}, {"inbound_nodes": [[["add_4", 0, 0, {}]]], "config": {"activation": "relu", "trainable": true, "name": "block6_sepconv1_act"}, "class_name": "Activation", "name": "block6_sepconv1_act"}, {"inbound_nodes": [[["block6_sepconv1_act", 0, 0, {}]]], "config": {"padding": "same", "use_bias": false, "bias_regularizer": null, "activity_regularizer": null, "depthwise_constraint": null, "bias_constraint": null, "kernel_size": [3, 3], "depth_multiplier": 1, "name": "block6_sepconv1", "pointwise_regularizer": null, "data_format": "channels_last", "pointwise_initializer": {"config": {"mode": "fan_avg", "seed": null, "distribution": "uniform", "scale": 1.0}, "class_name": "VarianceScaling"}, "activation": "linear", "trainable": true, "strides": [1, 1], "pointwise_constraint": null, "depthwise_initializer": {"config": {"mode": "fan_avg", "seed": null, "distribution": "uniform", "scale": 1.0}, "class_name": "VarianceScaling"}, "filters": 728, "depthwise_regularizer": null, "dilation_rate": [1, 1], "bias_initializer": {"config": {}, "class_name": "Zeros"}}, "class_name": "SeparableConv2D", "name": "block6_sepconv1"}, {"inbound_nodes": [[["block6_sepconv1", 0, 0, {}]]], "config": {"axis": -1, "moving_variance_initializer": {"config": {}, "class_name": "Ones"}, "momentum": 0.99, "name": "block6_sepconv1_bn", "gamma_regularizer": null, "gamma_constraint": null, "scale": true, "trainable": true, "beta_regularizer": null, "epsilon": 0.001, "beta_initializer": {"config": {}, "class_name": "Zeros"}, "gamma_initializer": {"config": {}, "class_name": "Ones"}, "moving_mean_initializer": {"config": {}, "class_name": "Zeros"}, "beta_constraint": null, "center": true}, "class_name": "BatchNormalization", "name": "block6_sepconv1_bn"}, {"inbound_nodes": [[["block6_sepconv1_bn", 0, 0, {}]]], "config": {"activation": "relu", "trainable": true, "name": "block6_sepconv2_act"}, "class_name": "Activation", "name": "block6_sepconv2_act"}, {"inbound_nodes": [[["block6_sepconv2_act", 0, 0, {}]]], "config": {"padding": "same", "use_bias": false, "bias_regularizer": null, "activity_regularizer": null, "depthwise_constraint": null, "bias_constraint": null, "kernel_size": [3, 3], "depth_multiplier": 1, "name": "block6_sepconv2", "pointwise_regularizer": null, "data_format": "channels_last", "pointwise_initializer": {"config": {"mode": "fan_avg", "seed": null, "distribution": "uniform", "scale": 1.0}, "class_name": "VarianceScaling"}, "activation": "linear", "trainable": true, "strides": [1, 1], "pointwise_constraint": null, "depthwise_initializer": {"config": {"mode": "fan_avg", "seed": null, "distribution": "uniform", "scale": 1.0}, "class_name": "VarianceScaling"}, "filters": 728, "depthwise_regularizer": null, "dilation_rate": [1, 1], "bias_initializer": {"config": {}, "class_name": "Zeros"}}, "class_name": "SeparableConv2D", "name": "block6_sepconv2"}, {"inbound_nodes": [[["block6_sepconv2", 0, 0, {}]]], "config": {"axis": -1, "moving_variance_initializer": {"config": {}, "class_name": "Ones"}, "momentum": 0.99, "name": "block6_sepconv2_bn", "gamma_regularizer": null, "gamma_constraint": null, "scale": true, "trainable": true, "beta_regularizer": null, "epsilon": 0.001, "beta_initializer": {"config": {}, "class_name": "Zeros"}, "gamma_initializer": {"config": {}, "class_name": "Ones"}, "moving_mean_initializer": {"config": {}, "class_name": "Zeros"}, "beta_constraint": null, "center": true}, "class_name": "BatchNormalization", "name": "block6_sepconv2_bn"}, {"inbound_nodes": [[["block6_sepconv2_bn", 0, 0, {}]]], "config": {"activation": "relu", "trainable": true, "name": "block6_sepconv3_act"}, "class_name": "Activation", "name": "block6_sepconv3_act"}, {"inbound_nodes": [[["block6_sepconv3_act", 0, 0, {}]]], "config": {"padding": "same", "use_bias": false, "bias_regularizer": null, "activity_regularizer": null, "depthwise_constraint": null, "bias_constraint": null, "kernel_size": [3, 3], "depth_multiplier": 1, "name": "block6_sepconv3", "pointwise_regularizer": null, "data_format": "channels_last", "pointwise_initializer": {"config": {"mode": "fan_avg", "seed": null, "distribution": "uniform", "scale": 1.0}, "class_name": "VarianceScaling"}, "activation": "linear", "trainable": true, "strides": [1, 1], "pointwise_constraint": null, "depthwise_initializer": {"config": {"mode": "fan_avg", "seed": null, "distribution": "uniform", "scale": 1.0}, "class_name": "VarianceScaling"}, "filters": 728, "depthwise_regularizer": null, "dilation_rate": [1, 1], "bias_initializer": {"config": {}, "class_name": "Zeros"}}, "class_name": "SeparableConv2D", "name": "block6_sepconv3"}, {"inbound_nodes": [[["block6_sepconv3", 0, 0, {}]]], "config": {"axis": -1, "moving_variance_initializer": {"config": {}, "class_name": "Ones"}, "momentum": 0.99, "name": "block6_sepconv3_bn", "gamma_regularizer": null, "gamma_constraint": null, "scale": true, "trainable": true, "beta_regularizer": null, "epsilon": 0.001, "beta_initializer": {"config": {}, "class_name": "Zeros"}, "gamma_initializer": {"config": {}, "class_name": "Ones"}, "moving_mean_initializer": {"config": {}, "class_name": "Zeros"}, "beta_constraint": null, "center": true}, "class_name": "BatchNormalization", "name": "block6_sepconv3_bn"}, {"inbound_nodes": [[["block6_sepconv3_bn", 0, 0, {}], ["add_4", 0, 0, {}]]], "config": {"trainable": true, "name": "add_5"}, "class_name": "Add", "name": "add_5"}, {"inbound_nodes": [[["add_5", 0, 0, {}]]], "config": {"activation": "relu", "trainable": true, "name": "block7_sepconv1_act"}, "class_name": "Activation", "name": "block7_sepconv1_act"}, {"inbound_nodes": [[["block7_sepconv1_act", 0, 0, {}]]], "config": {"padding": "same", "use_bias": false, "bias_regularizer": null, "activity_regularizer": null, "depthwise_constraint": null, "bias_constraint": null, "kernel_size": [3, 3], "depth_multiplier": 1, "name": "block7_sepconv1", "pointwise_regularizer": null, "data_format": "channels_last", "pointwise_initializer": {"config": {"mode": "fan_avg", "seed": null, "distribution": "uniform", "scale": 1.0}, "class_name": "VarianceScaling"}, "activation": "linear", "trainable": true, "strides": [1, 1], "pointwise_constraint": null, "depthwise_initializer": {"config": {"mode": "fan_avg", "seed": null, "distribution": "uniform", "scale": 1.0}, "class_name": "VarianceScaling"}, "filters": 728, "depthwise_regularizer": null, "dilation_rate": [1, 1], "bias_initializer": {"config": {}, "class_name": "Zeros"}}, "class_name": "SeparableConv2D", "name": "block7_sepconv1"}, {"inbound_nodes": [[["block7_sepconv1", 0, 0, {}]]], "config": {"axis": -1, "moving_variance_initializer": {"config": {}, "class_name": "Ones"}, "momentum": 0.99, "name": "block7_sepconv1_bn", "gamma_regularizer": null, "gamma_constraint": null, "scale": true, "trainable": true, "beta_regularizer": null, "epsilon": 0.001, "beta_initializer": {"config": {}, "class_name": "Zeros"}, "gamma_initializer": {"config": {}, "class_name": "Ones"}, "moving_mean_initializer": {"config": {}, "class_name": "Zeros"}, "beta_constraint": null, "center": true}, "class_name": "BatchNormalization", "name": "block7_sepconv1_bn"}, {"inbound_nodes": [[["block7_sepconv1_bn", 0, 0, {}]]], "config": {"activation": "relu", "trainable": true, "name": "block7_sepconv2_act"}, "class_name": "Activation", "name": "block7_sepconv2_act"}, {"inbound_nodes": [[["block7_sepconv2_act", 0, 0, {}]]], "config": {"padding": "same", "use_bias": false, "bias_regularizer": null, "activity_regularizer": null, "depthwise_constraint": null, "bias_constraint": null, "kernel_size": [3, 3], "depth_multiplier": 1, "name": "block7_sepconv2", "pointwise_regularizer": null, "data_format": "channels_last", "pointwise_initializer": {"config": {"mode": "fan_avg", "seed": null, "distribution": "uniform", "scale": 1.0}, "class_name": "VarianceScaling"}, "activation": "linear", "trainable": true, "strides": [1, 1], "pointwise_constraint": null, "depthwise_initializer": {"config": {"mode": "fan_avg", "seed": null, "distribution": "uniform", "scale": 1.0}, "class_name": "VarianceScaling"}, "filters": 728, "depthwise_regularizer": null, "dilation_rate": [1, 1], "bias_initializer": {"config": {}, "class_name": "Zeros"}}, "class_name": "SeparableConv2D", "name": "block7_sepconv2"}, {"inbound_nodes": [[["block7_sepconv2", 0, 0, {}]]], "config": {"axis": -1, "moving_variance_initializer": {"config": {}, "class_name": "Ones"}, "momentum": 0.99, "name": "block7_sepconv2_bn", "gamma_regularizer": null, "gamma_constraint": null, "scale": true, "trainable": true, "beta_regularizer": null, "epsilon": 0.001, "beta_initializer": {"config": {}, "class_name": "Zeros"}, "gamma_initializer": {"config": {}, "class_name": "Ones"}, "moving_mean_initializer": {"config": {}, "class_name": "Zeros"}, "beta_constraint": null, "center": true}, "class_name": "BatchNormalization", "name": "block7_sepconv2_bn"}, {"inbound_nodes": [[["block7_sepconv2_bn", 0, 0, {}]]], "config": {"activation": "relu", "trainable": true, "name": "block7_sepconv3_act"}, "class_name": "Activation", "name": "block7_sepconv3_act"}, {"inbound_nodes": [[["block7_sepconv3_act", 0, 0, {}]]], "config": {"padding": "same", "use_bias": false, "bias_regularizer": null, "activity_regularizer": null, "depthwise_constraint": null, "bias_constraint": null, "kernel_size": [3, 3], "depth_multiplier": 1, "name": "block7_sepconv3", "pointwise_regularizer": null, "data_format": "channels_last", "pointwise_initializer": {"config": {"mode": "fan_avg", "seed": null, "distribution": "uniform", "scale": 1.0}, "class_name": "VarianceScaling"}, "activation": "linear", "trainable": true, "strides": [1, 1], "pointwise_constraint": null, "depthwise_initializer": {"config": {"mode": "fan_avg", "seed": null, "distribution": "uniform", "scale": 1.0}, "class_name": "VarianceScaling"}, "filters": 728, "depthwise_regularizer": null, "dilation_rate": [1, 1], "bias_initializer": {"config": {}, "class_name": "Zeros"}}, "class_name": "SeparableConv2D", "name": "block7_sepconv3"}, {"inbound_nodes": [[["block7_sepconv3", 0, 0, {}]]], "config": {"axis": -1, "moving_variance_initializer": {"config": {}, "class_name": "Ones"}, "momentum": 0.99, "name": "block7_sepconv3_bn", "gamma_regularizer": null, "gamma_constraint": null, "scale": true, "trainable": true, "beta_regularizer": null, "epsilon": 0.001, "beta_initializer": {"config": {}, "class_name": "Zeros"}, "gamma_initializer": {"config": {}, "class_name": "Ones"}, "moving_mean_initializer": {"config": {}, "class_name": "Zeros"}, "beta_constraint": null, "center": true}, "class_name": "BatchNormalization", "name": "block7_sepconv3_bn"}, {"inbound_nodes": [[["block7_sepconv3_bn", 0, 0, {}], ["add_5", 0, 0, {}]]], "config": {"trainable": true, "name": "add_6"}, "class_name": "Add", "name": "add_6"}, {"inbound_nodes": [[["add_6", 0, 0, {}]]], "config": {"activation": "relu", "trainable": true, "name": "block8_sepconv1_act"}, "class_name": "Activation", "name": "block8_sepconv1_act"}, {"inbound_nodes": [[["block8_sepconv1_act", 0, 0, {}]]], "config": {"padding": "same", "use_bias": false, "bias_regularizer": null, "activity_regularizer": null, "depthwise_constraint": null, "bias_constraint": null, "kernel_size": [3, 3], "depth_multiplier": 1, "name": "block8_sepconv1", "pointwise_regularizer": null, "data_format": "channels_last", "pointwise_initializer": {"config": {"mode": "fan_avg", "seed": null, "distribution": "uniform", "scale": 1.0}, "class_name": "VarianceScaling"}, "activation": "linear", "trainable": true, "strides": [1, 1], "pointwise_constraint": null, "depthwise_initializer": {"config": {"mode": "fan_avg", "seed": null, "distribution": "uniform", "scale": 1.0}, "class_name": "VarianceScaling"}, "filters": 728, "depthwise_regularizer": null, "dilation_rate": [1, 1], "bias_initializer": {"config": {}, "class_name": "Zeros"}}, "class_name": "SeparableConv2D", "name": "block8_sepconv1"}, {"inbound_nodes": [[["block8_sepconv1", 0, 0, {}]]], "config": {"axis": -1, "moving_variance_initializer": {"config": {}, "class_name": "Ones"}, "momentum": 0.99, "name": "block8_sepconv1_bn", "gamma_regularizer": null, "gamma_constraint": null, "scale": true, "trainable": true, "beta_regularizer": null, "epsilon": 0.001, "beta_initializer": {"config": {}, "class_name": "Zeros"}, "gamma_initializer": {"config": {}, "class_name": "Ones"}, "moving_mean_initializer": {"config": {}, "class_name": "Zeros"}, "beta_constraint": null, "center": true}, "class_name": "BatchNormalization", "name": "block8_sepconv1_bn"}, {"inbound_nodes": [[["block8_sepconv1_bn", 0, 0, {}]]], "config": {"activation": "relu", "trainable": true, "name": "block8_sepconv2_act"}, "class_name": "Activation", "name": "block8_sepconv2_act"}, {"inbound_nodes": [[["block8_sepconv2_act", 0, 0, {}]]], "config": {"padding": "same", "use_bias": false, "bias_regularizer": null, "activity_regularizer": null, "depthwise_constraint": null, "bias_constraint": null, "kernel_size": [3, 3], "depth_multiplier": 1, "name": "block8_sepconv2", "pointwise_regularizer": null, "data_format": "channels_last", "pointwise_initializer": {"config": {"mode": "fan_avg", "seed": null, "distribution": "uniform", "scale": 1.0}, "class_name": "VarianceScaling"}, "activation": "linear", "trainable": true, "strides": [1, 1], "pointwise_constraint": null, "depthwise_initializer": {"config": {"mode": "fan_avg", "seed": null, "distribution": "uniform", "scale": 1.0}, "class_name": "VarianceScaling"}, "filters": 728, "depthwise_regularizer": null, "dilation_rate": [1, 1], "bias_initializer": {"config": {}, "class_name": "Zeros"}}, "class_name": "SeparableConv2D", "name": "block8_sepconv2"}, {"inbound_nodes": [[["block8_sepconv2", 0, 0, {}]]], "config": {"axis": -1, "moving_variance_initializer": {"config": {}, "class_name": "Ones"}, "momentum": 0.99, "name": "block8_sepconv2_bn", "gamma_regularizer": null, "gamma_constraint": null, "scale": true, "trainable": true, "beta_regularizer": null, "epsilon": 0.001, "beta_initializer": {"config": {}, "class_name": "Zeros"}, "gamma_initializer": {"config": {}, "class_name": "Ones"}, "moving_mean_initializer": {"config": {}, "class_name": "Zeros"}, "beta_constraint": null, "center": true}, "class_name": "BatchNormalization", "name": "block8_sepconv2_bn"}, {"inbound_nodes": [[["block8_sepconv2_bn", 0, 0, {}]]], "config": {"activation": "relu", "trainable": true, "name": "block8_sepconv3_act"}, "class_name": "Activation", "name": "block8_sepconv3_act"}, {"inbound_nodes": [[["block8_sepconv3_act", 0, 0, {}]]], "config": {"padding": "same", "use_bias": false, "bias_regularizer": null, "activity_regularizer": null, "depthwise_constraint": null, "bias_constraint": null, "kernel_size": [3, 3], "depth_multiplier": 1, "name": "block8_sepconv3", "pointwise_regularizer": null, "data_format": "channels_last", "pointwise_initializer": {"config": {"mode": "fan_avg", "seed": null, "distribution": "uniform", "scale": 1.0}, "class_name": "VarianceScaling"}, "activation": "linear", "trainable": true, "strides": [1, 1], "pointwise_constraint": null, "depthwise_initializer": {"config": {"mode": "fan_avg", "seed": null, "distribution": "uniform", "scale": 1.0}, "class_name": "VarianceScaling"}, "filters": 728, "depthwise_regularizer": null, "dilation_rate": [1, 1], "bias_initializer": {"config": {}, "class_name": "Zeros"}}, "class_name": "SeparableConv2D", "name": "block8_sepconv3"}, {"inbound_nodes": [[["block8_sepconv3", 0, 0, {}]]], "config": {"axis": -1, "moving_variance_initializer": {"config": {}, "class_name": "Ones"}, "momentum": 0.99, "name": "block8_sepconv3_bn", "gamma_regularizer": null, "gamma_constraint": null, "scale": true, "trainable": true, "beta_regularizer": null, "epsilon": 0.001, "beta_initializer": {"config": {}, "class_name": "Zeros"}, "gamma_initializer": {"config": {}, "class_name": "Ones"}, "moving_mean_initializer": {"config": {}, "class_name": "Zeros"}, "beta_constraint": null, "center": true}, "class_name": "BatchNormalization", "name": "block8_sepconv3_bn"}, {"inbound_nodes": [[["block8_sepconv3_bn", 0, 0, {}], ["add_6", 0, 0, {}]]], "config": {"trainable": true, "name": "add_7"}, "class_name": "Add", "name": "add_7"}, {"inbound_nodes": [[["add_7", 0, 0, {}]]], "config": {"activation": "relu", "trainable": true, "name": "block9_sepconv1_act"}, "class_name": "Activation", "name": "block9_sepconv1_act"}, {"inbound_nodes": [[["block9_sepconv1_act", 0, 0, {}]]], "config": {"padding": "same", "use_bias": false, "bias_regularizer": null, "activity_regularizer": null, "depthwise_constraint": null, "bias_constraint": null, "kernel_size": [3, 3], "depth_multiplier": 1, "name": "block9_sepconv1", "pointwise_regularizer": null, "data_format": "channels_last", "pointwise_initializer": {"config": {"mode": "fan_avg", "seed": null, "distribution": "uniform", "scale": 1.0}, "class_name": "VarianceScaling"}, "activation": "linear", "trainable": true, "strides": [1, 1], "pointwise_constraint": null, "depthwise_initializer": {"config": {"mode": "fan_avg", "seed": null, "distribution": "uniform", "scale": 1.0}, "class_name": "VarianceScaling"}, "filters": 728, "depthwise_regularizer": null, "dilation_rate": [1, 1], "bias_initializer": {"config": {}, "class_name": "Zeros"}}, "class_name": "SeparableConv2D", "name": "block9_sepconv1"}, {"inbound_nodes": [[["block9_sepconv1", 0, 0, {}]]], "config": {"axis": -1, "moving_variance_initializer": {"config": {}, "class_name": "Ones"}, "momentum": 0.99, "name": "block9_sepconv1_bn", "gamma_regularizer": null, "gamma_constraint": null, "scale": true, "trainable": true, "beta_regularizer": null, "epsilon": 0.001, "beta_initializer": {"config": {}, "class_name": "Zeros"}, "gamma_initializer": {"config": {}, "class_name": "Ones"}, "moving_mean_initializer": {"config": {}, "class_name": "Zeros"}, "beta_constraint": null, "center": true}, "class_name": "BatchNormalization", "name": "block9_sepconv1_bn"}, {"inbound_nodes": [[["block9_sepconv1_bn", 0, 0, {}]]], "config": {"activation": "relu", "trainable": true, "name": "block9_sepconv2_act"}, "class_name": "Activation", "name": "block9_sepconv2_act"}, {"inbound_nodes": [[["block9_sepconv2_act", 0, 0, {}]]], "config": {"padding": "same", "use_bias": false, "bias_regularizer": null, "activity_regularizer": null, "depthwise_constraint": null, "bias_constraint": null, "kernel_size": [3, 3], "depth_multiplier": 1, "name": "block9_sepconv2", "pointwise_regularizer": null, "data_format": "channels_last", "pointwise_initializer": {"config": {"mode": "fan_avg", "seed": null, "distribution": "uniform", "scale": 1.0}, "class_name": "VarianceScaling"}, "activation": "linear", "trainable": true, "strides": [1, 1], "pointwise_constraint": null, "depthwise_initializer": {"config": {"mode": "fan_avg", "seed": null, "distribution": "uniform", "scale": 1.0}, "class_name": "VarianceScaling"}, "filters": 728, "depthwise_regularizer": null, "dilation_rate": [1, 1], "bias_initializer": {"config": {}, "class_name": "Zeros"}}, "class_name": "SeparableConv2D", "name": "block9_sepconv2"}, {"inbound_nodes": [[["block9_sepconv2", 0, 0, {}]]], "config": {"axis": -1, "moving_variance_initializer": {"config": {}, "class_name": "Ones"}, "momentum": 0.99, "name": "block9_sepconv2_bn", "gamma_regularizer": null, "gamma_constraint": null, "scale": true, "trainable": true, "beta_regularizer": null, "epsilon": 0.001, "beta_initializer": {"config": {}, "class_name": "Zeros"}, "gamma_initializer": {"config": {}, "class_name": "Ones"}, "moving_mean_initializer": {"config": {}, "class_name": "Zeros"}, "beta_constraint": null, "center": true}, "class_name": "BatchNormalization", "name": "block9_sepconv2_bn"}, {"inbound_nodes": [[["block9_sepconv2_bn", 0, 0, {}]]], "config": {"activation": "relu", "trainable": true, "name": "block9_sepconv3_act"}, "class_name": "Activation", "name": "block9_sepconv3_act"}, {"inbound_nodes": [[["block9_sepconv3_act", 0, 0, {}]]], "config": {"padding": "same", "use_bias": false, "bias_regularizer": null, "activity_regularizer": null, "depthwise_constraint": null, "bias_constraint": null, "kernel_size": [3, 3], "depth_multiplier": 1, "name": "block9_sepconv3", "pointwise_regularizer": null, "data_format": "channels_last", "pointwise_initializer": {"config": {"mode": "fan_avg", "seed": null, "distribution": "uniform", "scale": 1.0}, "class_name": "VarianceScaling"}, "activation": "linear", "trainable": true, "strides": [1, 1], "pointwise_constraint": null, "depthwise_initializer": {"config": {"mode": "fan_avg", "seed": null, "distribution": "uniform", "scale": 1.0}, "class_name": "VarianceScaling"}, "filters": 728, "depthwise_regularizer": null, "dilation_rate": [1, 1], "bias_initializer": {"config": {}, "class_name": "Zeros"}}, "class_name": "SeparableConv2D", "name": "block9_sepconv3"}, {"inbound_nodes": [[["block9_sepconv3", 0, 0, {}]]], "config": {"axis": -1, "moving_variance_initializer": {"config": {}, "class_name": "Ones"}, "momentum": 0.99, "name": "block9_sepconv3_bn", "gamma_regularizer": null, "gamma_constraint": null, "scale": true, "trainable": true, "beta_regularizer": null, "epsilon": 0.001, "beta_initializer": {"config": {}, "class_name": "Zeros"}, "gamma_initializer": {"config": {}, "class_name": "Ones"}, "moving_mean_initializer": {"config": {}, "class_name": "Zeros"}, "beta_constraint": null, "center": true}, "class_name": "BatchNormalization", "name": "block9_sepconv3_bn"}, {"inbound_nodes": [[["block9_sepconv3_bn", 0, 0, {}], ["add_7", 0, 0, {}]]], "config": {"trainable": true, "name": "add_8"}, "class_name": "Add", "name": "add_8"}, {"inbound_nodes": [[["add_8", 0, 0, {}]]], "config": {"activation": "relu", "trainable": true, "name": "block10_sepconv1_act"}, "class_name": "Activation", "name": "block10_sepconv1_act"}, {"inbound_nodes": [[["block10_sepconv1_act", 0, 0, {}]]], "config": {"padding": "same", "use_bias": false, "bias_regularizer": null, "activity_regularizer": null, "depthwise_constraint": null, "bias_constraint": null, "kernel_size": [3, 3], "depth_multiplier": 1, "name": "block10_sepconv1", "pointwise_regularizer": null, "data_format": "channels_last", "pointwise_initializer": {"config": {"mode": "fan_avg", "seed": null, "distribution": "uniform", "scale": 1.0}, "class_name": "VarianceScaling"}, "activation": "linear", "trainable": true, "strides": [1, 1], "pointwise_constraint": null, "depthwise_initializer": {"config": {"mode": "fan_avg", "seed": null, "distribution": "uniform", "scale": 1.0}, "class_name": "VarianceScaling"}, "filters": 728, "depthwise_regularizer": null, "dilation_rate": [1, 1], "bias_initializer": {"config": {}, "class_name": "Zeros"}}, "class_name": "SeparableConv2D", "name": "block10_sepconv1"}, {"inbound_nodes": [[["block10_sepconv1", 0, 0, {}]]], "config": {"axis": -1, "moving_variance_initializer": {"config": {}, "class_name": "Ones"}, "momentum": 0.99, "name": "block10_sepconv1_bn", "gamma_regularizer": null, "gamma_constraint": null, "scale": true, "trainable": true, "beta_regularizer": null, "epsilon": 0.001, "beta_initializer": {"config": {}, "class_name": "Zeros"}, "gamma_initializer": {"config": {}, "class_name": "Ones"}, "moving_mean_initializer": {"config": {}, "class_name": "Zeros"}, "beta_constraint": null, "center": true}, "class_name": "BatchNormalization", "name": "block10_sepconv1_bn"}, {"inbound_nodes": [[["block10_sepconv1_bn", 0, 0, {}]]], "config": {"activation": "relu", "trainable": true, "name": "block10_sepconv2_act"}, "class_name": "Activation", "name": "block10_sepconv2_act"}, {"inbound_nodes": [[["block10_sepconv2_act", 0, 0, {}]]], "config": {"padding": "same", "use_bias": false, "bias_regularizer": null, "activity_regularizer": null, "depthwise_constraint": null, "bias_constraint": null, "kernel_size": [3, 3], "depth_multiplier": 1, "name": "block10_sepconv2", "pointwise_regularizer": null, "data_format": "channels_last", "pointwise_initializer": {"config": {"mode": "fan_avg", "seed": null, "distribution": "uniform", "scale": 1.0}, "class_name": "VarianceScaling"}, "activation": "linear", "trainable": true, "strides": [1, 1], "pointwise_constraint": null, "depthwise_initializer": {"config": {"mode": "fan_avg", "seed": null, "distribution": "uniform", "scale": 1.0}, "class_name": "VarianceScaling"}, "filters": 728, "depthwise_regularizer": null, "dilation_rate": [1, 1], "bias_initializer": {"config": {}, "class_name": "Zeros"}}, "class_name": "SeparableConv2D", "name": "block10_sepconv2"}, {"inbound_nodes": [[["block10_sepconv2", 0, 0, {}]]], "config": {"axis": -1, "moving_variance_initializer": {"config": {}, "class_name": "Ones"}, "momentum": 0.99, "name": "block10_sepconv2_bn", "gamma_regularizer": null, "gamma_constraint": null, "scale": true, "trainable": true, "beta_regularizer": null, "epsilon": 0.001, "beta_initializer": {"config": {}, "class_name": "Zeros"}, "gamma_initializer": {"config": {}, "class_name": "Ones"}, "moving_mean_initializer": {"config": {}, "class_name": "Zeros"}, "beta_constraint": null, "center": true}, "class_name": "BatchNormalization", "name": "block10_sepconv2_bn"}, {"inbound_nodes": [[["block10_sepconv2_bn", 0, 0, {}]]], "config": {"activation": "relu", "trainable": true, "name": "block10_sepconv3_act"}, "class_name": "Activation", "name": "block10_sepconv3_act"}, {"inbound_nodes": [[["block10_sepconv3_act", 0, 0, {}]]], "config": {"padding": "same", "use_bias": false, "bias_regularizer": null, "activity_regularizer": null, "depthwise_constraint": null, "bias_constraint": null, "kernel_size": [3, 3], "depth_multiplier": 1, "name": "block10_sepconv3", "pointwise_regularizer": null, "data_format": "channels_last", "pointwise_initializer": {"config": {"mode": "fan_avg", "seed": null, "distribution": "uniform", "scale": 1.0}, "class_name": "VarianceScaling"}, "activation": "linear", "trainable": true, "strides": [1, 1], "pointwise_constraint": null, "depthwise_initializer": {"config": {"mode": "fan_avg", "seed": null, "distribution": "uniform", "scale": 1.0}, "class_name": "VarianceScaling"}, "filters": 728, "depthwise_regularizer": null, "dilation_rate": [1, 1], "bias_initializer": {"config": {}, "class_name": "Zeros"}}, "class_name": "SeparableConv2D", "name": "block10_sepconv3"}, {"inbound_nodes": [[["block10_sepconv3", 0, 0, {}]]], "config": {"axis": -1, "moving_variance_initializer": {"config": {}, "class_name": "Ones"}, "momentum": 0.99, "name": "block10_sepconv3_bn", "gamma_regularizer": null, "gamma_constraint": null, "scale": true, "trainable": true, "beta_regularizer": null, "epsilon": 0.001, "beta_initializer": {"config": {}, "class_name": "Zeros"}, "gamma_initializer": {"config": {}, "class_name": "Ones"}, "moving_mean_initializer": {"config": {}, "class_name": "Zeros"}, "beta_constraint": null, "center": true}, "class_name": "BatchNormalization", "name": "block10_sepconv3_bn"}, {"inbound_nodes": [[["block10_sepconv3_bn", 0, 0, {}], ["add_8", 0, 0, {}]]], "config": {"trainable": true, "name": "add_9"}, "class_name": "Add", "name": "add_9"}, {"inbound_nodes": [[["add_9", 0, 0, {}]]], "config": {"activation": "relu", "trainable": true, "name": "block11_sepconv1_act"}, "class_name": "Activation", "name": "block11_sepconv1_act"}, {"inbound_nodes": [[["block11_sepconv1_act", 0, 0, {}]]], "config": {"padding": "same", "use_bias": false, "bias_regularizer": null, "activity_regularizer": null, "depthwise_constraint": null, "bias_constraint": null, "kernel_size": [3, 3], "depth_multiplier": 1, "name": "block11_sepconv1", "pointwise_regularizer": null, "data_format": "channels_last", "pointwise_initializer": {"config": {"mode": "fan_avg", "seed": null, "distribution": "uniform", "scale": 1.0}, "class_name": "VarianceScaling"}, "activation": "linear", "trainable": true, "strides": [1, 1], "pointwise_constraint": null, "depthwise_initializer": {"config": {"mode": "fan_avg", "seed": null, "distribution": "uniform", "scale": 1.0}, "class_name": "VarianceScaling"}, "filters": 728, "depthwise_regularizer": null, "dilation_rate": [1, 1], "bias_initializer": {"config": {}, "class_name": "Zeros"}}, "class_name": "SeparableConv2D", "name": "block11_sepconv1"}, {"inbound_nodes": [[["block11_sepconv1", 0, 0, {}]]], "config": {"axis": -1, "moving_variance_initializer": {"config": {}, "class_name": "Ones"}, "momentum": 0.99, "name": "block11_sepconv1_bn", "gamma_regularizer": null, "gamma_constraint": null, "scale": true, "trainable": true, "beta_regularizer": null, "epsilon": 0.001, "beta_initializer": {"config": {}, "class_name": "Zeros"}, "gamma_initializer": {"config": {}, "class_name": "Ones"}, "moving_mean_initializer": {"config": {}, "class_name": "Zeros"}, "beta_constraint": null, "center": true}, "class_name": "BatchNormalization", "name": "block11_sepconv1_bn"}, {"inbound_nodes": [[["block11_sepconv1_bn", 0, 0, {}]]], "config": {"activation": "relu", "trainable": true, "name": "block11_sepconv2_act"}, "class_name": "Activation", "name": "block11_sepconv2_act"}, {"inbound_nodes": [[["block11_sepconv2_act", 0, 0, {}]]], "config": {"padding": "same", "use_bias": false, "bias_regularizer": null, "activity_regularizer": null, "depthwise_constraint": null, "bias_constraint": null, "kernel_size": [3, 3], "depth_multiplier": 1, "name": "block11_sepconv2", "pointwise_regularizer": null, "data_format": "channels_last", "pointwise_initializer": {"config": {"mode": "fan_avg", "seed": null, "distribution": "uniform", "scale": 1.0}, "class_name": "VarianceScaling"}, "activation": "linear", "trainable": true, "strides": [1, 1], "pointwise_constraint": null, "depthwise_initializer": {"config": {"mode": "fan_avg", "seed": null, "distribution": "uniform", "scale": 1.0}, "class_name": "VarianceScaling"}, "filters": 728, "depthwise_regularizer": null, "dilation_rate": [1, 1], "bias_initializer": {"config": {}, "class_name": "Zeros"}}, "class_name": "SeparableConv2D", "name": "block11_sepconv2"}, {"inbound_nodes": [[["block11_sepconv2", 0, 0, {}]]], "config": {"axis": -1, "moving_variance_initializer": {"config": {}, "class_name": "Ones"}, "momentum": 0.99, "name": "block11_sepconv2_bn", "gamma_regularizer": null, "gamma_constraint": null, "scale": true, "trainable": true, "beta_regularizer": null, "epsilon": 0.001, "beta_initializer": {"config": {}, "class_name": "Zeros"}, "gamma_initializer": {"config": {}, "class_name": "Ones"}, "moving_mean_initializer": {"config": {}, "class_name": "Zeros"}, "beta_constraint": null, "center": true}, "class_name": "BatchNormalization", "name": "block11_sepconv2_bn"}, {"inbound_nodes": [[["block11_sepconv2_bn", 0, 0, {}]]], "config": {"activation": "relu", "trainable": true, "name": "block11_sepconv3_act"}, "class_name": "Activation", "name": "block11_sepconv3_act"}, {"inbound_nodes": [[["block11_sepconv3_act", 0, 0, {}]]], "config": {"padding": "same", "use_bias": false, "bias_regularizer": null, "activity_regularizer": null, "depthwise_constraint": null, "bias_constraint": null, "kernel_size": [3, 3], "depth_multiplier": 1, "name": "block11_sepconv3", "pointwise_regularizer": null, "data_format": "channels_last", "pointwise_initializer": {"config": {"mode": "fan_avg", "seed": null, "distribution": "uniform", "scale": 1.0}, "class_name": "VarianceScaling"}, "activation": "linear", "trainable": true, "strides": [1, 1], "pointwise_constraint": null, "depthwise_initializer": {"config": {"mode": "fan_avg", "seed": null, "distribution": "uniform", "scale": 1.0}, "class_name": "VarianceScaling"}, "filters": 728, "depthwise_regularizer": null, "dilation_rate": [1, 1], "bias_initializer": {"config": {}, "class_name": "Zeros"}}, "class_name": "SeparableConv2D", "name": "block11_sepconv3"}, {"inbound_nodes": [[["block11_sepconv3", 0, 0, {}]]], "config": {"axis": -1, "moving_variance_initializer": {"config": {}, "class_name": "Ones"}, "momentum": 0.99, "name": "block11_sepconv3_bn", "gamma_regularizer": null, "gamma_constraint": null, "scale": true, "trainable": true, "beta_regularizer": null, "epsilon": 0.001, "beta_initializer": {"config": {}, "class_name": "Zeros"}, "gamma_initializer": {"config": {}, "class_name": "Ones"}, "moving_mean_initializer": {"config": {}, "class_name": "Zeros"}, "beta_constraint": null, "center": true}, "class_name": "BatchNormalization", "name": "block11_sepconv3_bn"}, {"inbound_nodes": [[["block11_sepconv3_bn", 0, 0, {}], ["add_9", 0, 0, {}]]], "config": {"trainable": true, "name": "add_10"}, "class_name": "Add", "name": "add_10"}, {"inbound_nodes": [[["add_10", 0, 0, {}]]], "config": {"activation": "relu", "trainable": true, "name": "block12_sepconv1_act"}, "class_name": "Activation", "name": "block12_sepconv1_act"}, {"inbound_nodes": [[["block12_sepconv1_act", 0, 0, {}]]], "config": {"padding": "same", "use_bias": false, "bias_regularizer": null, "activity_regularizer": null, "depthwise_constraint": null, "bias_constraint": null, "kernel_size": [3, 3], "depth_multiplier": 1, "name": "block12_sepconv1", "pointwise_regularizer": null, "data_format": "channels_last", "pointwise_initializer": {"config": {"mode": "fan_avg", "seed": null, "distribution": "uniform", "scale": 1.0}, "class_name": "VarianceScaling"}, "activation": "linear", "trainable": true, "strides": [1, 1], "pointwise_constraint": null, "depthwise_initializer": {"config": {"mode": "fan_avg", "seed": null, "distribution": "uniform", "scale": 1.0}, "class_name": "VarianceScaling"}, "filters": 728, "depthwise_regularizer": null, "dilation_rate": [1, 1], "bias_initializer": {"config": {}, "class_name": "Zeros"}}, "class_name": "SeparableConv2D", "name": "block12_sepconv1"}, {"inbound_nodes": [[["block12_sepconv1", 0, 0, {}]]], "config": {"axis": -1, "moving_variance_initializer": {"config": {}, "class_name": "Ones"}, "momentum": 0.99, "name": "block12_sepconv1_bn", "gamma_regularizer": null, "gamma_constraint": null, "scale": true, "trainable": true, "beta_regularizer": null, "epsilon": 0.001, "beta_initializer": {"config": {}, "class_name": "Zeros"}, "gamma_initializer": {"config": {}, "class_name": "Ones"}, "moving_mean_initializer": {"config": {}, "class_name": "Zeros"}, "beta_constraint": null, "center": true}, "class_name": "BatchNormalization", "name": "block12_sepconv1_bn"}, {"inbound_nodes": [[["block12_sepconv1_bn", 0, 0, {}]]], "config": {"activation": "relu", "trainable": true, "name": "block12_sepconv2_act"}, "class_name": "Activation", "name": "block12_sepconv2_act"}, {"inbound_nodes": [[["block12_sepconv2_act", 0, 0, {}]]], "config": {"padding": "same", "use_bias": false, "bias_regularizer": null, "activity_regularizer": null, "depthwise_constraint": null, "bias_constraint": null, "kernel_size": [3, 3], "depth_multiplier": 1, "name": "block12_sepconv2", "pointwise_regularizer": null, "data_format": "channels_last", "pointwise_initializer": {"config": {"mode": "fan_avg", "seed": null, "distribution": "uniform", "scale": 1.0}, "class_name": "VarianceScaling"}, "activation": "linear", "trainable": true, "strides": [1, 1], "pointwise_constraint": null, "depthwise_initializer": {"config": {"mode": "fan_avg", "seed": null, "distribution": "uniform", "scale": 1.0}, "class_name": "VarianceScaling"}, "filters": 728, "depthwise_regularizer": null, "dilation_rate": [1, 1], "bias_initializer": {"config": {}, "class_name": "Zeros"}}, "class_name": "SeparableConv2D", "name": "block12_sepconv2"}, {"inbound_nodes": [[["block12_sepconv2", 0, 0, {}]]], "config": {"axis": -1, "moving_variance_initializer": {"config": {}, "class_name": "Ones"}, "momentum": 0.99, "name": "block12_sepconv2_bn", "gamma_regularizer": null, "gamma_constraint": null, "scale": true, "trainable": true, "beta_regularizer": null, "epsilon": 0.001, "beta_initializer": {"config": {}, "class_name": "Zeros"}, "gamma_initializer": {"config": {}, "class_name": "Ones"}, "moving_mean_initializer": {"config": {}, "class_name": "Zeros"}, "beta_constraint": null, "center": true}, "class_name": "BatchNormalization", "name": "block12_sepconv2_bn"}, {"inbound_nodes": [[["block12_sepconv2_bn", 0, 0, {}]]], "config": {"activation": "relu", "trainable": true, "name": "block12_sepconv3_act"}, "class_name": "Activation", "name": "block12_sepconv3_act"}, {"inbound_nodes": [[["block12_sepconv3_act", 0, 0, {}]]], "config": {"padding": "same", "use_bias": false, "bias_regularizer": null, "activity_regularizer": null, "depthwise_constraint": null, "bias_constraint": null, "kernel_size": [3, 3], "depth_multiplier": 1, "name": "block12_sepconv3", "pointwise_regularizer": null, "data_format": "channels_last", "pointwise_initializer": {"config": {"mode": "fan_avg", "seed": null, "distribution": "uniform", "scale": 1.0}, "class_name": "VarianceScaling"}, "activation": "linear", "trainable": true, "strides": [1, 1], "pointwise_constraint": null, "depthwise_initializer": {"config": {"mode": "fan_avg", "seed": null, "distribution": "uniform", "scale": 1.0}, "class_name": "VarianceScaling"}, "filters": 728, "depthwise_regularizer": null, "dilation_rate": [1, 1], "bias_initializer": {"config": {}, "class_name": "Zeros"}}, "class_name": "SeparableConv2D", "name": "block12_sepconv3"}, {"inbound_nodes": [[["block12_sepconv3", 0, 0, {}]]], "config": {"axis": -1, "moving_variance_initializer": {"config": {}, "class_name": "Ones"}, "momentum": 0.99, "name": "block12_sepconv3_bn", "gamma_regularizer": null, "gamma_constraint": null, "scale": true, "trainable": true, "beta_regularizer": null, "epsilon": 0.001, "beta_initializer": {"config": {}, "class_name": "Zeros"}, "gamma_initializer": {"config": {}, "class_name": "Ones"}, "moving_mean_initializer": {"config": {}, "class_name": "Zeros"}, "beta_constraint": null, "center": true}, "class_name": "BatchNormalization", "name": "block12_sepconv3_bn"}, {"inbound_nodes": [[["block12_sepconv3_bn", 0, 0, {}], ["add_10", 0, 0, {}]]], "config": {"trainable": true, "name": "add_11"}, "class_name": "Add", "name": "add_11"}, {"inbound_nodes": [[["add_11", 0, 0, {}]]], "config": {"activation": "relu", "trainable": true, "name": "block13_sepconv1_act"}, "class_name": "Activation", "name": "block13_sepconv1_act"}, {"inbound_nodes": [[["block13_sepconv1_act", 0, 0, {}]]], "config": {"padding": "same", "use_bias": false, "bias_regularizer": null, "activity_regularizer": null, "depthwise_constraint": null, "bias_constraint": null, "kernel_size": [3, 3], "depth_multiplier": 1, "name": "block13_sepconv1", "pointwise_regularizer": null, "data_format": "channels_last", "pointwise_initializer": {"config": {"mode": "fan_avg", "seed": null, "distribution": "uniform", "scale": 1.0}, "class_name": "VarianceScaling"}, "activation": "linear", "trainable": true, "strides": [1, 1], "pointwise_constraint": null, "depthwise_initializer": {"config": {"mode": "fan_avg", "seed": null, "distribution": "uniform", "scale": 1.0}, "class_name": "VarianceScaling"}, "filters": 728, "depthwise_regularizer": null, "dilation_rate": [1, 1], "bias_initializer": {"config": {}, "class_name": "Zeros"}}, "class_name": "SeparableConv2D", "name": "block13_sepconv1"}, {"inbound_nodes": [[["block13_sepconv1", 0, 0, {}]]], "config": {"axis": -1, "moving_variance_initializer": {"config": {}, "class_name": "Ones"}, "momentum": 0.99, "name": "block13_sepconv1_bn", "gamma_regularizer": null, "gamma_constraint": null, "scale": true, "trainable": true, "beta_regularizer": null, "epsilon": 0.001, "beta_initializer": {"config": {}, "class_name": "Zeros"}, "gamma_initializer": {"config": {}, "class_name": "Ones"}, "moving_mean_initializer": {"config": {}, "class_name": "Zeros"}, "beta_constraint": null, "center": true}, "class_name": "BatchNormalization", "name": "block13_sepconv1_bn"}, {"inbound_nodes": [[["block13_sepconv1_bn", 0, 0, {}]]], "config": {"activation": "relu", "trainable": true, "name": "block13_sepconv2_act"}, "class_name": "Activation", "name": "block13_sepconv2_act"}, {"inbound_nodes": [[["block13_sepconv2_act", 0, 0, {}]]], "config": {"padding": "same", "use_bias": false, "bias_regularizer": null, "activity_regularizer": null, "depthwise_constraint": null, "bias_constraint": null, "kernel_size": [3, 3], "depth_multiplier": 1, "name": "block13_sepconv2", "pointwise_regularizer": null, "data_format": "channels_last", "pointwise_initializer": {"config": {"mode": "fan_avg", "seed": null, "distribution": "uniform", "scale": 1.0}, "class_name": "VarianceScaling"}, "activation": "linear", "trainable": true, "strides": [1, 1], "pointwise_constraint": null, "depthwise_initializer": {"config": {"mode": "fan_avg", "seed": null, "distribution": "uniform", "scale": 1.0}, "class_name": "VarianceScaling"}, "filters": 1024, "depthwise_regularizer": null, "dilation_rate": [1, 1], "bias_initializer": {"config": {}, "class_name": "Zeros"}}, "class_name": "SeparableConv2D", "name": "block13_sepconv2"}, {"inbound_nodes": [[["block13_sepconv2", 0, 0, {}]]], "config": {"axis": -1, "moving_variance_initializer": {"config": {}, "class_name": "Ones"}, "momentum": 0.99, "name": "block13_sepconv2_bn", "gamma_regularizer": null, "gamma_constraint": null, "scale": true, "trainable": true, "beta_regularizer": null, "epsilon": 0.001, "beta_initializer": {"config": {}, "class_name": "Zeros"}, "gamma_initializer": {"config": {}, "class_name": "Ones"}, "moving_mean_initializer": {"config": {}, "class_name": "Zeros"}, "beta_constraint": null, "center": true}, "class_name": "BatchNormalization", "name": "block13_sepconv2_bn"}, {"inbound_nodes": [[["add_11", 0, 0, {}]]], "config": {"padding": "same", "use_bias": false, "bias_regularizer": null, "activity_regularizer": null, "name": "conv2d_4", "bias_constraint": null, "kernel_size": [1, 1], "activation": "linear", "trainable": true, "kernel_regularizer": null, "strides": [2, 2], "data_format": "channels_last", "kernel_constraint": null, "kernel_initializer": {"config": {"mode": "fan_avg", "seed": null, "distribution": "uniform", "scale": 1.0}, "class_name": "VarianceScaling"}, "filters": 1024, "dilation_rate": [1, 1], "bias_initializer": {"config": {}, "class_name": "Zeros"}}, "class_name": "Conv2D", "name": "conv2d_4"}, {"inbound_nodes": [[["block13_sepconv2_bn", 0, 0, {}]]], "config": {"padding": "same", "trainable": true, "strides": [2, 2], "name": "block13_pool", "pool_size": [3, 3], "data_format": "channels_last"}, "class_name": "MaxPooling2D", "name": "block13_pool"}, {"inbound_nodes": [[["conv2d_4", 0, 0, {}]]], "config": {"axis": -1, "moving_variance_initializer": {"config": {}, "class_name": "Ones"}, "momentum": 0.99, "name": "batch_normalization_4", "gamma_regularizer": null, "gamma_constraint": null, "scale": true, "trainable": true, "beta_regularizer": null, "epsilon": 0.001, "beta_initializer": {"config": {}, "class_name": "Zeros"}, "gamma_initializer": {"config": {}, "class_name": "Ones"}, "moving_mean_initializer": {"config": {}, "class_name": "Zeros"}, "beta_constraint": null, "center": true}, "class_name": "BatchNormalization", "name": "batch_normalization_4"}, {"inbound_nodes": [[["block13_pool", 0, 0, {}], ["batch_normalization_4", 0, 0, {}]]], "config": {"trainable": true, "name": "add_12"}, "class_name": "Add", "name": "add_12"}, {"inbound_nodes": [[["add_12", 0, 0, {}]]], "config": {"padding": "same", "use_bias": false, "bias_regularizer": null, "activity_regularizer": null, "depthwise_constraint": null, "bias_constraint": null, "kernel_size": [3, 3], "depth_multiplier": 1, "name": "block14_sepconv1", "pointwise_regularizer": null, "data_format": "channels_last", "pointwise_initializer": {"config": {"mode": "fan_avg", "seed": null, "distribution": "uniform", "scale": 1.0}, "class_name": "VarianceScaling"}, "activation": "linear", "trainable": true, "strides": [1, 1], "pointwise_constraint": null, "depthwise_initializer": {"config": {"mode": "fan_avg", "seed": null, "distribution": "uniform", "scale": 1.0}, "class_name": "VarianceScaling"}, "filters": 1536, "depthwise_regularizer": null, "dilation_rate": [1, 1], "bias_initializer": {"config": {}, "class_name": "Zeros"}}, "class_name": "SeparableConv2D", "name": "block14_sepconv1"}, {"inbound_nodes": [[["block14_sepconv1", 0, 0, {}]]], "config": {"axis": -1, "moving_variance_initializer": {"config": {}, "class_name": "Ones"}, "momentum": 0.99, "name": "block14_sepconv1_bn", "gamma_regularizer": null, "gamma_constraint": null, "scale": true, "trainable": true, "beta_regularizer": null, "epsilon": 0.001, "beta_initializer": {"config": {}, "class_name": "Zeros"}, "gamma_initializer": {"config": {}, "class_name": "Ones"}, "moving_mean_initializer": {"config": {}, "class_name": "Zeros"}, "beta_constraint": null, "center": true}, "class_name": "BatchNormalization", "name": "block14_sepconv1_bn"}, {"inbound_nodes": [[["block14_sepconv1_bn", 0, 0, {}]]], "config": {"activation": "relu", "trainable": true, "name": "block14_sepconv1_act"}, "class_name": "Activation", "name": "block14_sepconv1_act"}, {"inbound_nodes": [[["block14_sepconv1_act", 0, 0, {}]]], "config": {"padding": "same", "use_bias": false, "bias_regularizer": null, "activity_regularizer": null, "depthwise_constraint": null, "bias_constraint": null, "kernel_size": [3, 3], "depth_multiplier": 1, "name": "block14_sepconv2", "pointwise_regularizer": null, "data_format": "channels_last", "pointwise_initializer": {"config": {"mode": "fan_avg", "seed": null, "distribution": "uniform", "scale": 1.0}, "class_name": "VarianceScaling"}, "activation": "linear", "trainable": true, "strides": [1, 1], "pointwise_constraint": null, "depthwise_initializer": {"config": {"mode": "fan_avg", "seed": null, "distribution": "uniform", "scale": 1.0}, "class_name": "VarianceScaling"}, "filters": 2048, "depthwise_regularizer": null, "dilation_rate": [1, 1], "bias_initializer": {"config": {}, "class_name": "Zeros"}}, "class_name": "SeparableConv2D", "name": "block14_sepconv2"}, {"inbound_nodes": [[["block14_sepconv2", 0, 0, {}]]], "config": {"axis": -1, "moving_variance_initializer": {"config": {}, "class_name": "Ones"}, "momentum": 0.99, "name": "block14_sepconv2_bn", "gamma_regularizer": null, "gamma_constraint": null, "scale": true, "trainable": true, "beta_regularizer": null, "epsilon": 0.001, "beta_initializer": {"config": {}, "class_name": "Zeros"}, "gamma_initializer": {"config": {}, "class_name": "Ones"}, "moving_mean_initializer": {"config": {}, "class_name": "Zeros"}, "beta_constraint": null, "center": true}, "class_name": "BatchNormalization", "name": "block14_sepconv2_bn"}, {"inbound_nodes": [[["block14_sepconv2_bn", 0, 0, {}]]], "config": {"activation": "relu", "trainable": true, "name": "block14_sepconv2_act"}, "class_name": "Activation", "name": "block14_sepconv2_act"}, {"inbound_nodes": [[["block14_sepconv2_act", 0, 0, {}]]], "config": {"data_format": "channels_last", "trainable": true, "name": "avg_pool"}, "class_name": "GlobalAveragePooling2D", "name": "avg_pool"}, {"inbound_nodes": [[["avg_pool", 0, 0, {}]]], "config": {"kernel_regularizer": null, "use_bias": true, "bias_regularizer": null, "activity_regularizer": null, "name": "predictions", "bias_constraint": null, "activation": "softmax", "trainable": true, "kernel_constraint": null, "kernel_initializer": {"config": {"mode": "fan_avg", "seed": null, "distribution": "uniform", "scale": 1.0}, "class_name": "VarianceScaling"}, "units": 1000, "bias_initializer": {"config": {}, "class_name": "Zeros"}}, "class_name": "Dense", "name": "predictions"}], "name": "xception"}, "class_name": "Model", "backend": "tensorflow", "keras_version": "2.1.2", "params": {"block9_sepconv1_bn": 2912, "block8_sepconv2_act": 0, "block2_sepconv1": 8768, "block4_sepconv2": 536536, "predictions": 2049000, "block3_sepconv1_bn": 1024, "block3_sepconv2": 67840, "block8_sepconv1": 536536, "block12_sepconv1_act": 0, "block10_sepconv3": 536536, "block9_sepconv2": 536536, "block7_sepconv3": 536536, "block8_sepconv3": 536536, "conv2d_3": 186368, "batch_normalization_4": 4096, "block12_sepconv3_act": 0, "block2_sepconv1_bn": 512, "block2_sepconv2_bn": 512, "block9_sepconv3": 536536, "block2_sepconv2": 17536, "conv2d_1": 8192, "block8_sepconv3_bn": 2912, "block4_sepconv1": 188672, "block14_sepconv1": 1582080, "add_9": 0, "block4_sepconv1_act": 0, "block7_sepconv3_bn": 2912, "block5_sepconv1_act": 0, "block5_sepconv1": 536536, "block10_sepconv2_bn": 2912, "block11_sepconv1_act": 0, "input_1": 0, "block5_sepconv1_bn": 2912, "block7_sepconv2_act": 0, "block9_sepconv3_act": 0, "add_11": 0, "block9_sepconv2_bn": 2912, "block3_sepconv2_act": 0, "add_5": 0, "block8_sepconv1_act": 0, "block9_sepconv1": 536536, "avg_pool": 0, "block11_sepconv1_bn": 2912, "block10_sepconv1_act": 0, "block6_sepconv2_act": 0, "block13_sepconv2": 752024, "block13_sepconv2_act": 0, "block10_sepconv3_act": 0, "block12_sepconv2": 536536, "block5_sepconv3_act": 0, "block11_sepconv3": 536536, "block6_sepconv1_bn": 2912, "block10_sepconv3_bn": 2912, "block4_sepconv1_bn": 2912, "block8_sepconv2_bn": 2912, "block5_sepconv3_bn": 2912, "block12_sepconv2_bn": 2912, "block10_sepconv1_bn": 2912, "block1_conv1": 864, "block1_conv1_bn": 128, "add_3": 0, "block9_sepconv2_act": 0, "block1_conv2_act": 0, "block6_sepconv2_bn": 2912, "add_6": 0, "block3_sepconv1": 33920, "block3_pool": 0, "block12_sepconv1_bn": 2912, "batch_normalization_1": 512, "block13_sepconv1_act": 0, "block10_sepconv2": 536536, "block11_sepconv2": 536536, "block3_sepconv1_act": 0, "conv2d_4": 745472, "block10_sepconv2_act": 0, "conv2d_2": 32768, "block13_sepconv1_bn": 2912, "block1_conv2": 18432, "block6_sepconv1": 536536, "add_10": 0, "block11_sepconv3_bn": 2912, "block4_sepconv2_act": 0, "block6_sepconv2": 536536, "block5_sepconv3": 536536, "block9_sepconv3_bn": 2912, "add_7": 0, "block13_sepconv1": 536536, "block6_sepconv3": 536536, "block8_sepconv1_bn": 2912, "block11_sepconv3_act": 0, "batch_normalization_3": 2912, "block6_sepconv3_act": 0, "block6_sepconv3_bn": 2912, "batch_normalization_2": 1024, "block8_sepconv2": 536536, "block5_sepconv2_act": 0, "block5_sepconv2_bn": 2912, "block6_sepconv1_act": 0, "block14_sepconv2_bn": 8192, "block12_sepconv2_act": 0, "add_4": 0, "block11_sepconv1": 536536, "add_8": 0, "block7_sepconv1": 536536, "block13_pool": 0, "block7_sepconv3_act": 0, "block14_sepconv1_act": 0, "block2_sepconv2_act": 0, "block7_sepconv2": 536536, "block2_pool": 0, "block12_sepconv3_bn": 2912, "block1_conv2_bn": 256, "block5_sepconv2": 536536, "block14_sepconv2": 3159552, "block14_sepconv2_act": 0, "block11_sepconv2_bn": 2912, "block7_sepconv1_bn": 2912, "block8_sepconv3_act": 0, "block10_sepconv1": 536536, "block7_sepconv2_bn": 2912, "block4_sepconv2_bn": 2912, "add_12": 0, "add_1": 0, "block14_sepconv1_bn": 6144, "add_2": 0, "block7_sepconv1_act": 0, "block11_sepconv2_act": 0, "block12_sepconv3": 536536, "block3_sepconv2_bn": 1024, "block1_conv1_act": 0, "block4_pool": 0, "block13_sepconv2_bn": 4096, "block12_sepconv1": 536536, "block9_sepconv1_act": 0}}