{"class_name": "Model", "config": {"name": "squeezenet", "layers": [{"name": "input_1", "class_name": "InputLayer", "config": {"batch_input_shape": [null, 227, 227, 3], "dtype": "float32", "sparse": false, "name": "input_1"}, "inbound_nodes": []}, {"name": "conv1", "class_name": "Conv2D", "config": {"name": "conv1", "trainable": true, "filters": 64, "kernel_size": [3, 3], "strides": [2, 2], "padding": "valid", "data_format": "channels_last", "dilation_rate": [1, 1], "activation": "linear", "use_bias": true, "kernel_initializer": {"class_name": "VarianceScaling", "config": {"scale": 1.0, "mode": "fan_avg", "distribution": "uniform", "seed": null}}, "bias_initializer": {"class_name": "Zeros", "config": {}}, "kernel_regularizer": null, "bias_regularizer": null, "activity_regularizer": null, "kernel_constraint": null, "bias_constraint": null}, "inbound_nodes": [[["input_1", 0, 0, {}]]]}, {"name": "relu_conv1", "class_name": "Activation", "config": {"name": "relu_conv1", "trainable": true, "activation": "relu"}, "inbound_nodes": [[["conv1", 0, 0, {}]]]}, {"name": "pool1", "class_name": "MaxPooling2D", "config": {"name": "pool1", "trainable": true, "pool_size": [3, 3], "padding": "valid", "strides": [2, 2], "data_format": "channels_last"}, "inbound_nodes": [[["relu_conv1", 0, 0, {}]]]}, {"name": "fire2/squeeze1x1", "class_name": "Conv2D", "config": {"name": "fire2/squeeze1x1", "trainable": true, "filters": 16, "kernel_size": [1, 1], "strides": [1, 1], "padding": "valid", "data_format": "channels_last", "dilation_rate": [1, 1], "activation": "linear", "use_bias": true, "kernel_initializer": {"class_name": "VarianceScaling", "config": {"scale": 1.0, "mode": "fan_avg", "distribution": "uniform", "seed": null}}, "bias_initializer": {"class_name": "Zeros", "config": {}}, "kernel_regularizer": null, "bias_regularizer": null, "activity_regularizer": null, "kernel_constraint": null, "bias_constraint": null}, "inbound_nodes": [[["pool1", 0, 0, {}]]]}, {"name": "fire2/relu_squeeze1x1", "class_name": "Activation", "config": {"name": "fire2/relu_squeeze1x1", "trainable": true, "activation": "relu"}, "inbound_nodes": [[["fire2/squeeze1x1", 0, 0, {}]]]}, {"name": "fire2/expand1x1", "class_name": "Conv2D", "config": {"name": "fire2/expand1x1", "trainable": true, "filters": 64, "kernel_size": [1, 1], "strides": [1, 1], "padding": "valid", "data_format": "channels_last", "dilation_rate": [1, 1], "activation": "linear", "use_bias": true, "kernel_initializer": {"class_name": "VarianceScaling", "config": {"scale": 1.0, "mode": "fan_avg", "distribution": "uniform", "seed": null}}, "bias_initializer": {"class_name": "Zeros", "config": {}}, "kernel_regularizer": null, "bias_regularizer": null, "activity_regularizer": null, "kernel_constraint": null, "bias_constraint": null}, "inbound_nodes": [[["fire2/relu_squeeze1x1", 0, 0, {}]]]}, {"name": "fire2/expand3x3", "class_name": "Conv2D", "config": {"name": "fire2/expand3x3", "trainable": true, "filters": 64, "kernel_size": [3, 3], "strides": [1, 1], "padding": "same", "data_format": "channels_last", "dilation_rate": [1, 1], "activation": "linear", "use_bias": true, "kernel_initializer": {"class_name": "VarianceScaling", "config": {"scale": 1.0, "mode": "fan_avg", "distribution": "uniform", "seed": null}}, "bias_initializer": {"class_name": "Zeros", "config": {}}, "kernel_regularizer": null, "bias_regularizer": null, "activity_regularizer": null, "kernel_constraint": null, "bias_constraint": null}, "inbound_nodes": [[["fire2/relu_squeeze1x1", 0, 0, {}]]]}, {"name": "fire2/relu_expand1x1", "class_name": "Activation", "config": {"name": "fire2/relu_expand1x1", "trainable": true, "activation": "relu"}, "inbound_nodes": [[["fire2/expand1x1", 0, 0, {}]]]}, {"name": "fire2/relu_expand3x3", "class_name": "Activation", "config": {"name": "fire2/relu_expand3x3", "trainable": true, "activation": "relu"}, "inbound_nodes": [[["fire2/expand3x3", 0, 0, {}]]]}, {"name": "fire2/concat", "class_name": "Concatenate", "config": {"name": "fire2/concat", "trainable": true, "axis": 3}, "inbound_nodes": [[["fire2/relu_expand1x1", 0, 0, {}], ["fire2/relu_expand3x3", 0, 0, {}]]]}, {"name": "fire3/squeeze1x1", "class_name": "Conv2D", "config": {"name": "fire3/squeeze1x1", "trainable": true, "filters": 16, "kernel_size": [1, 1], "strides": [1, 1], "padding": "valid", "data_format": "channels_last", "dilation_rate": [1, 1], "activation": "linear", "use_bias": true, "kernel_initializer": {"class_name": "VarianceScaling", "config": {"scale": 1.0, "mode": "fan_avg", "distribution": "uniform", "seed": null}}, "bias_initializer": {"class_name": "Zeros", "config": {}}, "kernel_regularizer": null, "bias_regularizer": null, "activity_regularizer": null, "kernel_constraint": null, "bias_constraint": null}, "inbound_nodes": [[["fire2/concat", 0, 0, {}]]]}, {"name": "fire3/relu_squeeze1x1", "class_name": "Activation", "config": {"name": "fire3/relu_squeeze1x1", "trainable": true, "activation": "relu"}, "inbound_nodes": [[["fire3/squeeze1x1", 0, 0, {}]]]}, {"name": "fire3/expand1x1", "class_name": "Conv2D", "config": {"name": "fire3/expand1x1", "trainable": true, "filters": 64, "kernel_size": [1, 1], "strides": [1, 1], "padding": "valid", "data_format": "channels_last", "dilation_rate": [1, 1], "activation": "linear", "use_bias": true, "kernel_initializer": {"class_name": "VarianceScaling", "config": {"scale": 1.0, "mode": "fan_avg", "distribution": "uniform", "seed": null}}, "bias_initializer": {"class_name": "Zeros", "config": {}}, "kernel_regularizer": null, "bias_regularizer": null, "activity_regularizer": null, "kernel_constraint": null, "bias_constraint": null}, "inbound_nodes": [[["fire3/relu_squeeze1x1", 0, 0, {}]]]}, {"name": "fire3/expand3x3", "class_name": "Conv2D", "config": {"name": "fire3/expand3x3", "trainable": true, "filters": 64, "kernel_size": [3, 3], "strides": [1, 1], "padding": "same", "data_format": "channels_last", "dilation_rate": [1, 1], "activation": "linear", "use_bias": true, "kernel_initializer": {"class_name": "VarianceScaling", "config": {"scale": 1.0, "mode": "fan_avg", "distribution": "uniform", "seed": null}}, "bias_initializer": {"class_name": "Zeros", "config": {}}, "kernel_regularizer": null, "bias_regularizer": null, "activity_regularizer": null, "kernel_constraint": null, "bias_constraint": null}, "inbound_nodes": [[["fire3/relu_squeeze1x1", 0, 0, {}]]]}, {"name": "fire3/relu_expand1x1", "class_name": "Activation", "config": {"name": "fire3/relu_expand1x1", "trainable": true, "activation": "relu"}, "inbound_nodes": [[["fire3/expand1x1", 0, 0, {}]]]}, {"name": "fire3/relu_expand3x3", "class_name": "Activation", "config": {"name": "fire3/relu_expand3x3", "trainable": true, "activation": "relu"}, "inbound_nodes": [[["fire3/expand3x3", 0, 0, {}]]]}, {"name": "fire3/concat", "class_name": "Concatenate", "config": {"name": "fire3/concat", "trainable": true, "axis": 3}, "inbound_nodes": [[["fire3/relu_expand1x1", 0, 0, {}], ["fire3/relu_expand3x3", 0, 0, {}]]]}, {"name": "pool3", "class_name": "MaxPooling2D", "config": {"name": "pool3", "trainable": true, "pool_size": [3, 3], "padding": "valid", "strides": [2, 2], "data_format": "channels_last"}, "inbound_nodes": [[["fire3/concat", 0, 0, {}]]]}, {"name": "fire4/squeeze1x1", "class_name": "Conv2D", "config": {"name": "fire4/squeeze1x1", "trainable": true, "filters": 32, "kernel_size": [1, 1], "strides": [1, 1], "padding": "valid", "data_format": "channels_last", "dilation_rate": [1, 1], "activation": "linear", "use_bias": true, "kernel_initializer": {"class_name": "VarianceScaling", "config": {"scale": 1.0, "mode": "fan_avg", "distribution": "uniform", "seed": null}}, "bias_initializer": {"class_name": "Zeros", "config": {}}, "kernel_regularizer": null, "bias_regularizer": null, "activity_regularizer": null, "kernel_constraint": null, "bias_constraint": null}, "inbound_nodes": [[["pool3", 0, 0, {}]]]}, {"name": "fire4/relu_squeeze1x1", "class_name": "Activation", "config": {"name": "fire4/relu_squeeze1x1", "trainable": true, "activation": "relu"}, "inbound_nodes": [[["fire4/squeeze1x1", 0, 0, {}]]]}, {"name": "fire4/expand1x1", "class_name": "Conv2D", "config": {"name": "fire4/expand1x1", "trainable": true, "filters": 128, "kernel_size": [1, 1], "strides": [1, 1], "padding": "valid", "data_format": "channels_last", "dilation_rate": [1, 1], "activation": "linear", "use_bias": true, "kernel_initializer": {"class_name": "VarianceScaling", "config": {"scale": 1.0, "mode": "fan_avg", "distribution": "uniform", "seed": null}}, "bias_initializer": {"class_name": "Zeros", "config": {}}, "kernel_regularizer": null, "bias_regularizer": null, "activity_regularizer": null, "kernel_constraint": null, "bias_constraint": null}, "inbound_nodes": [[["fire4/relu_squeeze1x1", 0, 0, {}]]]}, {"name": "fire4/expand3x3", "class_name": "Conv2D", "config": {"name": "fire4/expand3x3", "trainable": true, "filters": 128, "kernel_size": [3, 3], "strides": [1, 1], "padding": "same", "data_format": "channels_last", "dilation_rate": [1, 1], "activation": "linear", "use_bias": true, "kernel_initializer": {"class_name": "VarianceScaling", "config": {"scale": 1.0, "mode": "fan_avg", "distribution": "uniform", "seed": null}}, "bias_initializer": {"class_name": "Zeros", "config": {}}, "kernel_regularizer": null, "bias_regularizer": null, "activity_regularizer": null, "kernel_constraint": null, "bias_constraint": null}, "inbound_nodes": [[["fire4/relu_squeeze1x1", 0, 0, {}]]]}, {"name": "fire4/relu_expand1x1", "class_name": "Activation", "config": {"name": "fire4/relu_expand1x1", "trainable": true, "activation": "relu"}, "inbound_nodes": [[["fire4/expand1x1", 0, 0, {}]]]}, {"name": "fire4/relu_expand3x3", "class_name": "Activation", "config": {"name": "fire4/relu_expand3x3", "trainable": true, "activation": "relu"}, "inbound_nodes": [[["fire4/expand3x3", 0, 0, {}]]]}, {"name": "fire4/concat", "class_name": "Concatenate", "config": {"name": "fire4/concat", "trainable": true, "axis": 3}, "inbound_nodes": [[["fire4/relu_expand1x1", 0, 0, {}], ["fire4/relu_expand3x3", 0, 0, {}]]]}, {"name": "fire5/squeeze1x1", "class_name": "Conv2D", "config": {"name": "fire5/squeeze1x1", "trainable": true, "filters": 32, "kernel_size": [1, 1], "strides": [1, 1], "padding": "valid", "data_format": "channels_last", "dilation_rate": [1, 1], "activation": "linear", "use_bias": true, "kernel_initializer": {"class_name": "VarianceScaling", "config": {"scale": 1.0, "mode": "fan_avg", "distribution": "uniform", "seed": null}}, "bias_initializer": {"class_name": "Zeros", "config": {}}, "kernel_regularizer": null, "bias_regularizer": null, "activity_regularizer": null, "kernel_constraint": null, "bias_constraint": null}, "inbound_nodes": [[["fire4/concat", 0, 0, {}]]]}, {"name": "fire5/relu_squeeze1x1", "class_name": "Activation", "config": {"name": "fire5/relu_squeeze1x1", "trainable": true, "activation": "relu"}, "inbound_nodes": [[["fire5/squeeze1x1", 0, 0, {}]]]}, {"name": "fire5/expand1x1", "class_name": "Conv2D", "config": {"name": "fire5/expand1x1", "trainable": true, "filters": 128, "kernel_size": [1, 1], "strides": [1, 1], "padding": "valid", "data_format": "channels_last", "dilation_rate": [1, 1], "activation": "linear", "use_bias": true, "kernel_initializer": {"class_name": "VarianceScaling", "config": {"scale": 1.0, "mode": "fan_avg", "distribution": "uniform", "seed": null}}, "bias_initializer": {"class_name": "Zeros", "config": {}}, "kernel_regularizer": null, "bias_regularizer": null, "activity_regularizer": null, "kernel_constraint": null, "bias_constraint": null}, "inbound_nodes": [[["fire5/relu_squeeze1x1", 0, 0, {}]]]}, {"name": "fire5/expand3x3", "class_name": "Conv2D", "config": {"name": "fire5/expand3x3", "trainable": true, "filters": 128, "kernel_size": [3, 3], "strides": [1, 1], "padding": "same", "data_format": "channels_last", "dilation_rate": [1, 1], "activation": "linear", "use_bias": true, "kernel_initializer": {"class_name": "VarianceScaling", "config": {"scale": 1.0, "mode": "fan_avg", "distribution": "uniform", "seed": null}}, "bias_initializer": {"class_name": "Zeros", "config": {}}, "kernel_regularizer": null, "bias_regularizer": null, "activity_regularizer": null, "kernel_constraint": null, "bias_constraint": null}, "inbound_nodes": [[["fire5/relu_squeeze1x1", 0, 0, {}]]]}, {"name": "fire5/relu_expand1x1", "class_name": "Activation", "config": {"name": "fire5/relu_expand1x1", "trainable": true, "activation": "relu"}, "inbound_nodes": [[["fire5/expand1x1", 0, 0, {}]]]}, {"name": "fire5/relu_expand3x3", "class_name": "Activation", "config": {"name": "fire5/relu_expand3x3", "trainable": true, "activation": "relu"}, "inbound_nodes": [[["fire5/expand3x3", 0, 0, {}]]]}, {"name": "fire5/concat", "class_name": "Concatenate", "config": {"name": "fire5/concat", "trainable": true, "axis": 3}, "inbound_nodes": [[["fire5/relu_expand1x1", 0, 0, {}], ["fire5/relu_expand3x3", 0, 0, {}]]]}, {"name": "pool5", "class_name": "MaxPooling2D", "config": {"name": "pool5", "trainable": true, "pool_size": [3, 3], "padding": "valid", "strides": [2, 2], "data_format": "channels_last"}, "inbound_nodes": [[["fire5/concat", 0, 0, {}]]]}, {"name": "fire6/squeeze1x1", "class_name": "Conv2D", "config": {"name": "fire6/squeeze1x1", "trainable": true, "filters": 48, "kernel_size": [1, 1], "strides": [1, 1], "padding": "valid", "data_format": "channels_last", "dilation_rate": [1, 1], "activation": "linear", "use_bias": true, "kernel_initializer": {"class_name": "VarianceScaling", "config": {"scale": 1.0, "mode": "fan_avg", "distribution": "uniform", "seed": null}}, "bias_initializer": {"class_name": "Zeros", "config": {}}, "kernel_regularizer": null, "bias_regularizer": null, "activity_regularizer": null, "kernel_constraint": null, "bias_constraint": null}, "inbound_nodes": [[["pool5", 0, 0, {}]]]}, {"name": "fire6/relu_squeeze1x1", "class_name": "Activation", "config": {"name": "fire6/relu_squeeze1x1", "trainable": true, "activation": "relu"}, "inbound_nodes": [[["fire6/squeeze1x1", 0, 0, {}]]]}, {"name": "fire6/expand1x1", "class_name": "Conv2D", "config": {"name": "fire6/expand1x1", "trainable": true, "filters": 192, "kernel_size": [1, 1], "strides": [1, 1], "padding": "valid", "data_format": "channels_last", "dilation_rate": [1, 1], "activation": "linear", "use_bias": true, "kernel_initializer": {"class_name": "VarianceScaling", "config": {"scale": 1.0, "mode": "fan_avg", "distribution": "uniform", "seed": null}}, "bias_initializer": {"class_name": "Zeros", "config": {}}, "kernel_regularizer": null, "bias_regularizer": null, "activity_regularizer": null, "kernel_constraint": null, "bias_constraint": null}, "inbound_nodes": [[["fire6/relu_squeeze1x1", 0, 0, {}]]]}, {"name": "fire6/expand3x3", "class_name": "Conv2D", "config": {"name": "fire6/expand3x3", "trainable": true, "filters": 192, "kernel_size": [3, 3], "strides": [1, 1], "padding": "same", "data_format": "channels_last", "dilation_rate": [1, 1], "activation": "linear", "use_bias": true, "kernel_initializer": {"class_name": "VarianceScaling", "config": {"scale": 1.0, "mode": "fan_avg", "distribution": "uniform", "seed": null}}, "bias_initializer": {"class_name": "Zeros", "config": {}}, "kernel_regularizer": null, "bias_regularizer": null, "activity_regularizer": null, "kernel_constraint": null, "bias_constraint": null}, "inbound_nodes": [[["fire6/relu_squeeze1x1", 0, 0, {}]]]}, {"name": "fire6/relu_expand1x1", "class_name": "Activation", "config": {"name": "fire6/relu_expand1x1", "trainable": true, "activation": "relu"}, "inbound_nodes": [[["fire6/expand1x1", 0, 0, {}]]]}, {"name": "fire6/relu_expand3x3", "class_name": "Activation", "config": {"name": "fire6/relu_expand3x3", "trainable": true, "activation": "relu"}, "inbound_nodes": [[["fire6/expand3x3", 0, 0, {}]]]}, {"name": "fire6/concat", "class_name": "Concatenate", "config": {"name": "fire6/concat", "trainable": true, "axis": 3}, "inbound_nodes": [[["fire6/relu_expand1x1", 0, 0, {}], ["fire6/relu_expand3x3", 0, 0, {}]]]}, {"name": "fire7/squeeze1x1", "class_name": "Conv2D", "config": {"name": "fire7/squeeze1x1", "trainable": true, "filters": 48, "kernel_size": [1, 1], "strides": [1, 1], "padding": "valid", "data_format": "channels_last", "dilation_rate": [1, 1], "activation": "linear", "use_bias": true, "kernel_initializer": {"class_name": "VarianceScaling", "config": {"scale": 1.0, "mode": "fan_avg", "distribution": "uniform", "seed": null}}, "bias_initializer": {"class_name": "Zeros", "config": {}}, "kernel_regularizer": null, "bias_regularizer": null, "activity_regularizer": null, "kernel_constraint": null, "bias_constraint": null}, "inbound_nodes": [[["fire6/concat", 0, 0, {}]]]}, {"name": "fire7/relu_squeeze1x1", "class_name": "Activation", "config": {"name": "fire7/relu_squeeze1x1", "trainable": true, "activation": "relu"}, "inbound_nodes": [[["fire7/squeeze1x1", 0, 0, {}]]]}, {"name": "fire7/expand1x1", "class_name": "Conv2D", "config": {"name": "fire7/expand1x1", "trainable": true, "filters": 192, "kernel_size": [1, 1], "strides": [1, 1], "padding": "valid", "data_format": "channels_last", "dilation_rate": [1, 1], "activation": "linear", "use_bias": true, "kernel_initializer": {"class_name": "VarianceScaling", "config": {"scale": 1.0, "mode": "fan_avg", "distribution": "uniform", "seed": null}}, "bias_initializer": {"class_name": "Zeros", "config": {}}, "kernel_regularizer": null, "bias_regularizer": null, "activity_regularizer": null, "kernel_constraint": null, "bias_constraint": null}, "inbound_nodes": [[["fire7/relu_squeeze1x1", 0, 0, {}]]]}, {"name": "fire7/expand3x3", "class_name": "Conv2D", "config": {"name": "fire7/expand3x3", "trainable": true, "filters": 192, "kernel_size": [3, 3], "strides": [1, 1], "padding": "same", "data_format": "channels_last", "dilation_rate": [1, 1], "activation": "linear", "use_bias": true, "kernel_initializer": {"class_name": "VarianceScaling", "config": {"scale": 1.0, "mode": "fan_avg", "distribution": "uniform", "seed": null}}, "bias_initializer": {"class_name": "Zeros", "config": {}}, "kernel_regularizer": null, "bias_regularizer": null, "activity_regularizer": null, "kernel_constraint": null, "bias_constraint": null}, "inbound_nodes": [[["fire7/relu_squeeze1x1", 0, 0, {}]]]}, {"name": "fire7/relu_expand1x1", "class_name": "Activation", "config": {"name": "fire7/relu_expand1x1", "trainable": true, "activation": "relu"}, "inbound_nodes": [[["fire7/expand1x1", 0, 0, {}]]]}, {"name": "fire7/relu_expand3x3", "class_name": "Activation", "config": {"name": "fire7/relu_expand3x3", "trainable": true, "activation": "relu"}, "inbound_nodes": [[["fire7/expand3x3", 0, 0, {}]]]}, {"name": "fire7/concat", "class_name": "Concatenate", "config": {"name": "fire7/concat", "trainable": true, "axis": 3}, "inbound_nodes": [[["fire7/relu_expand1x1", 0, 0, {}], ["fire7/relu_expand3x3", 0, 0, {}]]]}, {"name": "fire8/squeeze1x1", "class_name": "Conv2D", "config": {"name": "fire8/squeeze1x1", "trainable": true, "filters": 64, "kernel_size": [1, 1], "strides": [1, 1], "padding": "valid", "data_format": "channels_last", "dilation_rate": [1, 1], "activation": "linear", "use_bias": true, "kernel_initializer": {"class_name": "VarianceScaling", "config": {"scale": 1.0, "mode": "fan_avg", "distribution": "uniform", "seed": null}}, "bias_initializer": {"class_name": "Zeros", "config": {}}, "kernel_regularizer": null, "bias_regularizer": null, "activity_regularizer": null, "kernel_constraint": null, "bias_constraint": null}, "inbound_nodes": [[["fire7/concat", 0, 0, {}]]]}, {"name": "fire8/relu_squeeze1x1", "class_name": "Activation", "config": {"name": "fire8/relu_squeeze1x1", "trainable": true, "activation": "relu"}, "inbound_nodes": [[["fire8/squeeze1x1", 0, 0, {}]]]}, {"name": "fire8/expand1x1", "class_name": "Conv2D", "config": {"name": "fire8/expand1x1", "trainable": true, "filters": 256, "kernel_size": [1, 1], "strides": [1, 1], "padding": "valid", "data_format": "channels_last", "dilation_rate": [1, 1], "activation": "linear", "use_bias": true, "kernel_initializer": {"class_name": "VarianceScaling", "config": {"scale": 1.0, "mode": "fan_avg", "distribution": "uniform", "seed": null}}, "bias_initializer": {"class_name": "Zeros", "config": {}}, "kernel_regularizer": null, "bias_regularizer": null, "activity_regularizer": null, "kernel_constraint": null, "bias_constraint": null}, "inbound_nodes": [[["fire8/relu_squeeze1x1", 0, 0, {}]]]}, {"name": "fire8/expand3x3", "class_name": "Conv2D", "config": {"name": "fire8/expand3x3", "trainable": true, "filters": 256, "kernel_size": [3, 3], "strides": [1, 1], "padding": "same", "data_format": "channels_last", "dilation_rate": [1, 1], "activation": "linear", "use_bias": true, "kernel_initializer": {"class_name": "VarianceScaling", "config": {"scale": 1.0, "mode": "fan_avg", "distribution": "uniform", "seed": null}}, "bias_initializer": {"class_name": "Zeros", "config": {}}, "kernel_regularizer": null, "bias_regularizer": null, "activity_regularizer": null, "kernel_constraint": null, "bias_constraint": null}, "inbound_nodes": [[["fire8/relu_squeeze1x1", 0, 0, {}]]]}, {"name": "fire8/relu_expand1x1", "class_name": "Activation", "config": {"name": "fire8/relu_expand1x1", "trainable": true, "activation": "relu"}, "inbound_nodes": [[["fire8/expand1x1", 0, 0, {}]]]}, {"name": "fire8/relu_expand3x3", "class_name": "Activation", "config": {"name": "fire8/relu_expand3x3", "trainable": true, "activation": "relu"}, "inbound_nodes": [[["fire8/expand3x3", 0, 0, {}]]]}, {"name": "fire8/concat", "class_name": "Concatenate", "config": {"name": "fire8/concat", "trainable": true, "axis": 3}, "inbound_nodes": [[["fire8/relu_expand1x1", 0, 0, {}], ["fire8/relu_expand3x3", 0, 0, {}]]]}, {"name": "fire9/squeeze1x1", "class_name": "Conv2D", "config": {"name": "fire9/squeeze1x1", "trainable": true, "filters": 64, "kernel_size": [1, 1], "strides": [1, 1], "padding": "valid", "data_format": "channels_last", "dilation_rate": [1, 1], "activation": "linear", "use_bias": true, "kernel_initializer": {"class_name": "VarianceScaling", "config": {"scale": 1.0, "mode": "fan_avg", "distribution": "uniform", "seed": null}}, "bias_initializer": {"class_name": "Zeros", "config": {}}, "kernel_regularizer": null, "bias_regularizer": null, "activity_regularizer": null, "kernel_constraint": null, "bias_constraint": null}, "inbound_nodes": [[["fire8/concat", 0, 0, {}]]]}, {"name": "fire9/relu_squeeze1x1", "class_name": "Activation", "config": {"name": "fire9/relu_squeeze1x1", "trainable": true, "activation": "relu"}, "inbound_nodes": [[["fire9/squeeze1x1", 0, 0, {}]]]}, {"name": "fire9/expand1x1", "class_name": "Conv2D", "config": {"name": "fire9/expand1x1", "trainable": true, "filters": 256, "kernel_size": [1, 1], "strides": [1, 1], "padding": "valid", "data_format": "channels_last", "dilation_rate": [1, 1], "activation": "linear", "use_bias": true, "kernel_initializer": {"class_name": "VarianceScaling", "config": {"scale": 1.0, "mode": "fan_avg", "distribution": "uniform", "seed": null}}, "bias_initializer": {"class_name": "Zeros", "config": {}}, "kernel_regularizer": null, "bias_regularizer": null, "activity_regularizer": null, "kernel_constraint": null, "bias_constraint": null}, "inbound_nodes": [[["fire9/relu_squeeze1x1", 0, 0, {}]]]}, {"name": "fire9/expand3x3", "class_name": "Conv2D", "config": {"name": "fire9/expand3x3", "trainable": true, "filters": 256, "kernel_size": [3, 3], "strides": [1, 1], "padding": "same", "data_format": "channels_last", "dilation_rate": [1, 1], "activation": "linear", "use_bias": true, "kernel_initializer": {"class_name": "VarianceScaling", "config": {"scale": 1.0, "mode": "fan_avg", "distribution": "uniform", "seed": null}}, "bias_initializer": {"class_name": "Zeros", "config": {}}, "kernel_regularizer": null, "bias_regularizer": null, "activity_regularizer": null, "kernel_constraint": null, "bias_constraint": null}, "inbound_nodes": [[["fire9/relu_squeeze1x1", 0, 0, {}]]]}, {"name": "fire9/relu_expand1x1", "class_name": "Activation", "config": {"name": "fire9/relu_expand1x1", "trainable": true, "activation": "relu"}, "inbound_nodes": [[["fire9/expand1x1", 0, 0, {}]]]}, {"name": "fire9/relu_expand3x3", "class_name": "Activation", "config": {"name": "fire9/relu_expand3x3", "trainable": true, "activation": "relu"}, "inbound_nodes": [[["fire9/expand3x3", 0, 0, {}]]]}, {"name": "fire9/concat", "class_name": "Concatenate", "config": {"name": "fire9/concat", "trainable": true, "axis": 3}, "inbound_nodes": [[["fire9/relu_expand1x1", 0, 0, {}], ["fire9/relu_expand3x3", 0, 0, {}]]]}, {"name": "drop9", "class_name": "Dropout", "config": {"name": "drop9", "trainable": true, "rate": 0.5, "noise_shape": null, "seed": null}, "inbound_nodes": [[["fire9/concat", 0, 0, {}]]]}, {"name": "conv10", "class_name": "Conv2D", "config": {"name": "conv10", "trainable": true, "filters": 1000, "kernel_size": [1, 1], "strides": [1, 1], "padding": "valid", "data_format": "channels_last", "dilation_rate": [1, 1], "activation": "linear", "use_bias": true, "kernel_initializer": {"class_name": "VarianceScaling", "config": {"scale": 1.0, "mode": "fan_avg", "distribution": "uniform", "seed": null}}, "bias_initializer": {"class_name": "Zeros", "config": {}}, "kernel_regularizer": null, "bias_regularizer": null, "activity_regularizer": null, "kernel_constraint": null, "bias_constraint": null}, "inbound_nodes": [[["drop9", 0, 0, {}]]]}, {"name": "relu_conv10", "class_name": "Activation", "config": {"name": "relu_conv10", "trainable": true, "activation": "relu"}, "inbound_nodes": [[["conv10", 0, 0, {}]]]}, {"name": "global_average_pooling2d_1", "class_name": "GlobalAveragePooling2D", "config": {"name": "global_average_pooling2d_1", "trainable": true, "data_format": "channels_last"}, "inbound_nodes": [[["relu_conv10", 0, 0, {}]]]}, {"name": "loss", "class_name": "Activation", "config": {"name": "loss", "trainable": true, "activation": "softmax"}, "inbound_nodes": [[["global_average_pooling2d_1", 0, 0, {}]]]}], "input_layers": [["input_1", 0, 0]], "output_layers": [["loss", 0, 0]]}, "keras_version": "2.1.2", "backend": "tensorflow"}